save/client-2/eval.pth (torch, 21957 bytes, 27 tensors)

layer1_task.0.weight f4 [16, 3]
-0.36001638 -0.32433233 0.22130151 0.33262536 0.64334553 0.38312018 0.35830098 -0.7080009
0.061321523 0.18862236 -0.040910527 0.27065775 0.59341466 -0.6290397 -0.5661206 -0.2241411
0.3862505 0.30074078 0.40579757 -0.08040234 0.3621011 0.14561184 -0.06418278 0.22981969
0.23512259 -0.029123286 0.0028676698 -0.16430159 0.3169022 -0.2099467 -0.24899375 -0.13786666
-0.27555487 -0.35315812 0.14117032 -0.14173207 0.17412177 -0.3920664 0.1627195 -0.21585111
-0.0044416147 -0.041616984 -0.33716825 -0.3178968 -0.010220258 0.40611187 0.18010871 0.13812119
00000000: 1154 b8be e30e a6be dd9c 623e df4d aa3e
00000010: 4bb2 243f 5428 c43e 3a73 b73e 8c3f 35bf
00000020: 472c 7b3d 3826 413e cc91 27bd a793 8a3e
00000030: 06ea 173f bf08 21bf 48ed 10bf 3f85 65be
00000040: a0c2 c53e b2fa 993e b3c4 cf3e fba9 a4bd
00000050: 5165 b93e 451b 153e 4372 83bd da55 6b3e
00000060: fac3 703e f593 eebc 84ef 3b3b ad3e 28be
00000070: 0141 a23e 45fc 56be 38f8 7ebe eb2c 0dbe
00000080: 8715 8dbe 24d1 b4be f48e 103e 3622 11be
00000090: fa4c 323e edbc c8be f19f 263e 1308 5dbe
000000a0: f78a 91bb 9276 2abd 51a1 acbe 5fc3 a2be
000000b0: de72 27bc e5ed cf3e 6b6e 383e a46f 0d3e

layer1_task.0.bias f4 [16]
0.023169525 -0.04869069 -0.030681027 0.019598436 0.0009859898 -0.002124647 0.08365454 -0.056569092
0.05666721 0.012021343 -0.029080275 0.019175299 -0.057607494 0.022216491 -0.004821047 -0.041404102
00000000: 04ce bd3c e46f 47bd c756 fbbc e68c a03c
00000010: 543c 813a a93d 0bbb 1253 ab3d feb4 67bd
00000020: e01b 683d 2bf5 443c c239 eebc 8415 9d3c
00000030: d6f5 6bbd 5cff b53c e0f9 9dbb 5997 29bd

layer1_task.2.weight f4 [16]
0.9931406 1.0393145 1.0046623 0.93819267 1.0081118 1.0033714 1.0027581 1.0181125
0.97426134 0.99750096 0.9928354 1.0103158 1.0178378 0.984159 0.9987609 1.0020748
00000000: 763e 7e3f 4208 853f c698 803f 652d 703f
00000010: cf09 813f 796e 803f 615a 803f 8351 823f
00000020: 3169 793f 395c 7f3f 762a 7e3f 0752 813f
00000030: 8248 823f d8f1 7b3f cbae 7f3f fd43 803f

layer1_task.2.bias f4 [16]
-0.000186349 0.0182851 -0.023676392 -0.04735279 0.008076172 0.0068999864 0.06658603 -0.02218813
0.0052986317 0.0033705186 -0.008834997 0.02206908 -0.009832611 0.0055204057 -0.00085749466 -0.014723961
00000000: ae66 43b9 a2ca 953c fef4 c1bc 00f5 41bd
00000010: ec51 043c 4819 e23b 425e 883d e2c3 b5bc
00000020: 25a0 ad3b ebe3 5c3b aac0 10bc 37ca b43c
00000030: f618 21bc 85e4 b43b 7ec9 60ba c53c 71bc

layer1_task.2.running_mean f4 [16]
-24490.064 21765.545 22673.537 12317.736 38265.426 -14446.117 26445.22 9947.574
15363.741 -10839.826 -16696.314 -22646.758 11651.069 -14621.381 -21788.006 26975.967
00000000: 2154 bfc6 170b aa46 1323 b146 f276 4046
00000010: 6d79 1547 78b8 61c6 719a ce46 4c6e 1b46
00000020: f70e 7046 4e5f 29c6 a170 82c6 84ed b0c6
00000030: 470c 3646 8675 64c6 0338 aac6 efbf d246

layer1_task.2.running_var f4 [16]
1.2282318e+08 1.3204446e+08 1.5573155e+08 4.2203e+07 3.910345e+08 5.4912244e+07 1.9424037e+08 2.2472148e+07
6.2123692e+07 3.0391394e+07 6.6641376e+07 1.498689e+08 3.2989528e+07 4.637583e+07 1.2980094e+08 1.7388942e+08
00000000: 4244 ea4c d6da fb4c 6684 144d defd 204c
00000010: b475 ba4d 3d79 514c f73d 394d ea72 ab4b
00000020: abfb 6c4c 31de e74b 7837 7e4c 16ed 0e4d
00000030: acb0 fb4b e6e8 304c 5e93 f74c 79d5 254d

layer1_1vm.0.weight f4 [32, 40]
-0.015674673 -0.07101532 0.028852616 -0.10938215 -0.14936166 -0.066790506 0.061359257 0.25782055
-0.06594188 -0.07002696 -0.06481317 -0.08713805 -0.13509788 0.062126607 -0.032546546 -0.023967179
0.078697994 -0.066648304 -0.33240744 0.06533314 -0.21345001 0.032340977 -0.08388476 -0.045037165
-0.052613143 -0.16935489 -0.18479607 0.035210196 -0.10967672 0.096954435 0.032884877 -0.0028730973
0.13950863 0.5865309 0.010123884 0.10547466 0.17256641 0.39875656 0.08038759 -0.009920813
-0.16677953 0.32809418 -0.23651782 0.006188871 0.24176303 0.053501427 -0.061357275 -0.0085223345
-0.5503759 0.0044525214 0.07392159 0.331994 -0.15501246 0.13707052 -0.10772099 0.083214186
-0.06441249 -0.087086625 0.26377043 0.027621655 -0.051679116 -0.2992557 0.09185289 -0.21135105
0.1890149 0.1766611 0.25052977 -0.1459377 0.010848649 -0.04560552 0.031220691 0.06992446
-0.077359796 -0.076211356 -0.086561345 0.26604274 -0.22297308 -0.008340849 0.19043101 0.040769543
-0.0020663736 0.02434713 0.1536279 0.1598642 -0.019280653 -0.14406624 0.009234127 0.17845273
0.1336112 0.024296643 0.12325393 0.18422994 0.080362804 0.017780215 -0.10287163 0.17907277
-0.08715635 0.19015853 0.0017434566 -0.19139364 0.12434796 -0.03570714 0.049849167 -0.021202374
0.1288726 0.65054536 0.033294436 0.1700453 -0.3512165 -0.15422522 -0.48794657 0.33191052
-0.06971697 0.33459622 0.05765209 -0.1008383 0.0027347896 0.2051671 0.17576864 0.084223084
-0.07302972 0.008199024 0.12099005 -0.040611733 -0.18675356 -0.11315998 -0.13832368 0.5907527
0.09012063 0.13414052 -0.13622405 0.050603177 0.010982639 0.08902963 0.13758276 0.17881328
0.32694432 -0.12359511 0.17059135 0.086588 -0.18827179 -0.35870498 -0.2672105 -0.21510373
0.0006005042 -0.16586421 0.083164334 -0.3844614 -0.20375793 0.18428628 0.057582058 -0.074387394
0.18274848 0.28637356 -0.042451907 0.108251765 0.13032176 -0.06288622 0.0717634 -0.17911075
0.050661612 0.12892711 -0.2338444 -0.13689764 -0.104258895 0.29779065 -0.34046265 0.10091905
-0.19108549 0.14814201 0.32589898 0.07814966 -0.3384444 -0.07050941 -0.015667118 -0.4218926
0.20993364 0.29468665 -0.11608818 0.111725196 0.3226136 0.12559474 -0.09340381 0.20043354
0.052460548 -0.16972397 -0.39821717 -0.041276183 -0.2807785 -0.32961214 -0.14831519 0.33417106
0.026519174 0.03755772 0.15401396 0.068295226 -0.024749096 -0.15426886 -0.09280437 0.12365172
0.12748803 0.122888766 -0.23409396 0.15107623 -0.31322947 -0.0141804265 -0.16709298 -0.36548063
0.035194505 -0.104147725 0.14379784 -0.31619063 0.23012581 -0.23834215 0.13242425 0.037821367
-0.2422039 0.09124915 -0.27505937 0.094197154 -0.040701013 -0.16172108 -0.120014966 -0.06160067
0.15982121 -0.39002484 -0.06272762 -0.03818653 -0.26347458 0.018685276 0.04000068 0.07758197
0.04612511 -0.31110296 -0.49387622 -0.06722337 -0.0017322917 0.28942195 -0.030190136 0.018621849
-0.053218186 0.043768242 0.22415932 -0.10647391 0.16626148 -0.031247692 0.14066322 -0.3618409
0.034354784 -0.06292677 -0.13729663 0.24915476 -0.049690556 0.014285893 -0.14395706 0.36484197
00000000: 2c68 80bc 7b70 91bd 525c ec3c c003 e0bd
00000010: 43f2 18be 76c9 88bd d853 7b3d 0e01 843e
00000020: 890c 87bd 4b6a 8fbd c4bc 84bd 6f75 b2bd
00000030: 1957 0abe 7878 7e3d 874f 05bd d156 c4bc
00000040: 6a2c a13d e87e 88bd 4f31 aabe 62cd 853d
00000050: a492 5abe f977 043d c6cb abbd e478 38bd
00000060: e180 57bd 5e6b 2dbe 2e3b 3dbe 9138 103d
00000070: 309e e0bd 0c90 c63d 4bb2 063d 934a 3cbb
00000080: 5adb 0e3e e426 163f a6de 253c 1903 d83d
00000090: 40b5 303e d229 cc3e 40a2 a43d e88a 22bc
000000a0: 41c8 2abe f6fb a73e ba31 72be 03cc ca3b
000000b0: ba90 773e 5024 5b3d c451 7bbd 43a1 0bbc
000000c0: 6fe5 0cbf 75e6 913b 3464 973d 1efb a93e
000000d0: 96bb 1ebe 375c 0c3e d39c dcbd 336c aa3d
000000e0: b2ea 83bd 795a b2bd eb0c 873e cf46 e23c
000000f0: 7bad 53bd 0b38 99be 5e1d bc3d 696c 58be
00000100: 1f8d 413e a6e6 343e 7045 803e b170 15be
00000110: 88be 313c dbcc 3abd 89c2 ff3c 8e34 8f3d
00000120: d06e 9ebd b314 9cbd 1347 b1bd c136 883e
00000130: 0e53 64be 0ea8 08bc 5900 433e f7fd 263d
00000140: ff6b 07bb a273 c73c a250 1d3e 71b3 233e
00000150: 76f2 9dbc 1a86 13be bc4a 173c 50bc 363e
00000160: 60d1 083e c109 c73c 8e6c fc3d c6a6 3c3e
00000170: 4195 a43d d0a7 913c 5cae d2bd da5e 373e
00000180: 077f b2bd ebb8 423e b284 e43a b2fc 43be
00000190: 25aa fe3d a641 12bd a42e 4c3d 9ab0 adbc
000001a0: 2ef7 033e 248a 263f bf5f 083d 5b20 2e3e
000001b0: a6d2 b3be 37ed 1dbe 22d4 f9be 2df0 a93e
000001c0: c5c7 8ebd 3250 ab3e 9924 6c3d 5084 cebd
000001d0: 283a 333b 5317 523e b2fc 333e 277d ac3d
000001e0: 9b90 95bd 3355 063c a2c9 f73d 7d58 26bd
000001f0: 533c 3fbe 6bc0 e7bd b9a4 0dbe 923b 173f
00000200: 2a91 b83d 225c 093e 517e 0bbe 4745 4f3d
00000210: 87f0 333c 2b55 b63d 7fe2 0c3e d41a 373e
00000220: 3f65 a73e 6f1f fdbd 80af 2e3e 0d55 b13d
00000230: 52ca 40be 2ea8 b7be d1cf 88be 2744 5cbe
00000240: 286b 1d3a 4fd8 29be 1052 aa3d 20d8 c4be
00000250: eba5 50be 8bb5 3c3e 2adb 6b3d 6b58 98bd
00000260: 6b22 3b3e 8e9f 923e 0de2 2dbd 1ab3 dd3d
00000270: 1173 053e 7eca 80bd b1f8 923d cf68 37be
00000280: 8d82 4f3d 7805 043e e874 6fbe e52e 0cbe
00000290: b085 d5bd 0478 983e 1f51 aebe a6ae ce3d
000002a0: eaab 43be 8ab2 173e 3bdc a63e ee0c a03d
000002b0: 9648 adbe 3d67 90bd 5458 80bc 4f02 d8be
000002c0: d8f8 563e 2be1 963e a4bf edbd 2ed0 e43d
000002d0: 9c2d a53e e89b 003e 7f4a bfbd 733e 4d3e
000002e0: dfe0 563d 1fcc 2dbe 1fe3 cbbe 3711 29bd
000002f0: 33c2 8fbe ecc2 a8be f0df 17be 7818 ab3e
00000300: bd3e d93c 20d6 193d d6b5 1d3e 5ede 8b3d
00000310: 9ebe cabc a8f8 1dbe 3810 bebd 1d3d fd3d
00000320: 398c 023e 1bad fb3d 54b6 6fbe bab3 1a3e
00000330: 9d5f a0be 0555 68bc 6c1a 2bbe 4720 bbbe
00000340: 1d28 103d 674b d5bd be3f 133e bde3 a1be
00000350: 1aa6 6b3e f70f 74be 399a 073e 94ea 1a3d
00000360: 4d04 78be d6e0 ba3d 95d4 8cbe 70ea c03d
00000370: 1bb6 26bd 369a 25be 68ca f5bd fc50 7cbd
00000380: 2ca8 233e 56b1 c7be 5777 80bd 7b69 1cbd
00000390: 24e6 86be dd11 993c c1d7 233d 4ce3 9e3d
000003a0: afed 3c3d e348 9fbe 58dd fcbe 68ac 89bd
000003b0: 100e e3ba 1d2f 943e 4e51 f7bc d98c 983c
000003c0: 50fb 59bd 5446 333d 058a 653e fe0e dabd
000003d0: 7340 2a3e 29fb ffbc 050a 103e 3643 b9be
000003e0: 9ab7 0c3d c0df 80bd 7d97 0cbe 6d22 7f3e
000003f0: 5388 4bbd 610f 6a3c 7b69 13be 91cc ba3e

layer1_1vm.0.bias f4 [32]
-0.017239602 0.006707949 0.004188443 -0.026813552 -0.013349439 -0.03881367 -0.0005097371 0.032946285
-0.07253724 -0.002666436 0.029078962 0.013541035 0.010649513 0.0019265902 -0.019708231 -0.019786946
0.037404634 0.042734146 0.0004950071 -0.014715277 0.07883889 -0.017151041 0.043010615 0.01309089
0.025217406 0.05317706 0.022539243 0.024941074 0.0100059025 -0.011222413 -0.0022920605 -0.02201146
00000000: 113a 8dbc 5bce db3b 353f 893b 18a8 dbbc
00000010: 9bb7 5abc 15fb 1ebd e19f 05ba aff2 063d
00000020: 688e 94bd 5fbf 2ebb 0137 ee3c 38db 5d3c
00000030: 4c7b 2e3c a485 fc3a 2873 a1bc 3c18 a2bc
00000040: 9a35 193d 000a 2f3d 5dc3 013a 5818 71bc
00000050: 4976 a13d 5780 8cbc e62b 303d 2c7b 563c
00000060: bc94 ce3c 30d0 593d 38a4 b83c 3951 cc3c
00000070: ccef 233c 36de 37bc 6536 16bb 6151 b4bc

layer1_1vm.2.weight f4 [32]
1.0248964 0.98826486 1.0339777 1.015233 1.0141795 1.0158145 1.0015779 1.008518
0.9847329 0.99820936 0.9947613 1.0143298 0.9962979 1.0399004 1.001909 1.0092168
0.96988064 0.9538512 1.0071156 1.0308269 0.957891 1.0292006 0.96567446 0.9805966
0.95591193 1.0056448 0.9915917 0.9820401 0.99263984 1.0224427 1.0027242 0.9914773
00000000: ce2f 833f edfe 7c3f 6259 843f 28f3 813f
00000010: a2d0 813f 3606 823f b433 803f 1e17 813f
00000020: 7517 7c3f a68a 7f3f ada8 7e3f 8fd5 813f
00000030: 610d 7f3f 751b 853f 8e3e 803f 042e 813f
00000040: 194a 783f 982f 743f 2ae9 803f 23f2 833f
00000050: 5838 753f d8bc 833f 7136 773f 6108 7b3f
00000060: a5b6 743f f8b8 803f f4d8 7d3f fb66 7b3f
00000070: a51d 7e3f 67df 823f 4459 803f 75d1 7d3f

layer1_1vm.2.bias f4 [32]
0.031347297 -0.005669264 0.031122314 0.01010635 0.015998054 0.015580972 -0.00049481273 0.0083291875
-0.010286076 0.0043698833 -0.0004941879 0.020124696 -0.0016477882 0.035168998 0.0048006903 0.0045473035
-0.033648964 -0.04268945 0.0048423754 0.028820796 -0.042577654 0.023574544 -0.03414271 -0.039804317
-0.030337404 0.01225155 0.008940187 -0.007963627 -0.0044812467 0.02260426 -0.0024663142 -0.0056953505
00000000: 0666 003d 3cc5 b9bb 39f4 fe3c 1b95 253c
00000010: 5a0e 833c 5547 7f3c 52b6 01ba 2577 083c
00000020: ee86 28bc 3d31 8f3b 638c 01ba 8cdc a43c
00000030: 99fa d7ba 5e0d 103d 1c4f 9d3b 8c01 953b
00000040: 7fd3 09bd 22db 2ebd caac 9e3b 9719 ec3c
00000050: e865 2ebd 671f c13c 3ad9 0bbd da09 23bd
00000060: 2686 f8bc baba 483c dd79 123c df79 02bc
00000070: 6cd7 92bb 922c b93c e3a1 21bb 10a0 babb

layer1_1vm.2.running_mean f4 [32]
-3236.275 444.31293 -717.47565 1147.323 -5324.755 -7248.0947 -2313.463 6788.24
1134.2155 1388.9434 565.5913 -1848.7803 -3070.4453 1118.5789 -4169.147 -2684.296
4964.4604 1014.72504 -1853.0371 -5931.6807 1960.7762 1809.9457 -2997.2542 1170.8197
2650.8147 10258.44 1488.6785 1451.7959 -1148.5876 -2912.5515 1121.683 -3493.1135
00000000: 6644 4ac5 0e28 de43 715e 33c4 566a 8f44
00000010: 0a66 a6c5 c280 e2c5 6897 10c5 ec21 d445
00000020: e5c6 8d44 309e ad44 d865 0d44 f818 e7c4
00000030: 20e7 3fc5 86d2 8b44 2d49 82c5 bcc4 27c5
00000040: af23 9b45 67ae 7d44 30a1 e7c4 725d b9c5
00000050: d718 f544 433e e244 1154 3bc5 3b5a 9244
00000060: 09ad 2545 c349 2046 b615 ba44 7879 b544
00000070: ce92 8fc4 d308 36c5 db35 8c44 d151 5ac5

layer1_1vm.2.running_var f4 [32]
2.822434e+06 242699.61 219395.4 297480.0 6.5095875e+06 1.2181552e+07 1.0905606e+06 1.220676e+07
337148.94 617046.0 105839.375 1.1451424e+06 2.5113062e+06 321928.84 4.2695295e+06 1.654214e+06
6.6616025e+06 494721.5 857107.2 9.326857e+06 1.4579118e+06 710201.94 2.6684715e+06 325883.03
1.7612965e+06 2.528668e+07 625087.44 654599.56 393204.56 2.1902458e+06 274916.16 2.6279408e+06
00000000: 8844 2c4a e702 6d48 da40 5648 0041 9148
00000010: 27a8 c64a 30e0 394b 0520 8549 a842 3a4b
00000020: 9e9f a448 60a5 1649 b0b7 ce47 b3c9 8b49
00000030: 2947 194a 1b31 9d48 b34b 824a 30ee c949
00000040: c54b cb4a 3090 f148 3341 5149 0951 0e4b
00000050: bef7 b149 9f63 2d49 dede 224a 611f 9f48
00000060: 8400 d749 0cec c04b f79b 1849 79d0 1f49
00000070: 92fe bf48 97ae 054a 853c 8648 9365 204a

layer1_2vm.0.weight f4 [16, 32]
-0.10847424 -0.33420348 0.17013125 0.017989455 0.117589265 -0.011246941 -0.26560393 -0.12448106
-0.22198239 0.087403975 0.015348081 -0.18900304 -0.060402602 -0.05363479 -0.12738717 0.12546748
-0.074283674 0.12644687 0.412883 -0.048473127 0.24590515 -0.050141227 0.029748697 -0.068842866
-0.0567224 0.28519997 0.06888334 -0.0007994465 0.21850073 -0.48014948 0.10768961 -0.08151413
-0.014550043 0.27301717 0.111054584 0.12025083 -0.023651833 -0.28256443 -0.37078783 -0.2006399
-0.2250615 -0.237784 0.015028388 -0.02560307 0.05262462 0.04939641 -0.37165204 -0.32765093
0.010063588 0.29477167 -0.12896056 -0.37588915 -0.13925467 -0.07386948 -0.24511379 0.016370913
0.17160559 -0.20181967 -0.3434042 -0.1618726 0.14441378 0.10236614 0.0433161 0.28254592
0.29641816 0.044866055 -0.41553932 -0.21035673 -0.09639292 -0.5372679 -0.1314972 -0.25548336
0.102730244 -0.24007823 0.07671274 0.0860359 -0.088004805 0.10282292 0.30208513 0.33369276
0.14663567 0.2243855 0.08293709 0.22773457 -0.10644978 0.024176886 0.4161757 -0.010211242
-0.0018361969 -0.30514333 0.13062999 0.43518272 0.10372275 -0.07740501 0.13131186 -0.065541655
0.14752275 -0.12051298 -0.23111859 -0.17081177 0.063644 0.002569141 -0.08408027 -0.31159845
0.23158906 0.08044782 -0.30474952 0.21050048 0.09041192 0.16018543 0.23367117 -0.044692706
-0.016462348 -0.3176058 -0.08017594 -0.22320557 -0.060988806 -0.1316431 0.18941724 0.039729387
0.24025883 -0.052459843 -0.19265403 -0.18742965 0.08089637 -0.20900418 -0.023768792 -0.08608321
-0.02559249 -0.07573803 -0.043277856 0.02158657 0.24235748 0.10537551 0.0503752 -0.3518279
-0.12859856 -0.27048016 0.0507801 0.04442817 0.070148684 -0.37392676 0.39509824 -0.3030738
0.12509626 0.3338591 -0.08947821 0.07155754 -0.16656686 -0.24665968 0.18220572 0.2859631
0.093568325 -0.43468928 0.29652384 -0.06582961 -0.50448906 0.13144097 -0.4817081 -0.2590726
0.06991632 0.2813469 -0.3344795 0.14132808 -0.22930036 0.16852051 -0.049235515 -0.1363435
0.16469623 -0.24880376 -0.22666155 -0.13715184 0.23388723 0.1499369 -0.033788916 0.055737387
-0.24505503 0.14246911 -0.23356965 0.20775354 -0.035652686 0.19429556 -0.054230276 -0.18667865
0.08122782 0.09424254 -0.08997662 0.147176 -0.24662605 0.16598149 -0.14493544 -0.001667044
-0.12503909 -0.40292022 -0.21189536 0.043089822 -0.36696604 -0.04886705 0.014090295 -0.037851013
-0.027544174 0.20163676 -0.20909896 0.25853556 0.09470813 -0.11480606 0.18393081 -0.12555458
0.0480462 -0.094668165 0.29748115 0.036034588 -0.1767856 0.3168788 -0.16523567 0.12808788
-0.0013593283 -0.17377092 0.04530426 -0.16636175 0.24105304 -0.060011685 0.042109992 0.14765324
-0.23004726 0.14860617 -0.122999184 -0.10048182 -0.27587 0.027322005 -0.42426822 0.060999658
0.16811961 -0.14326973 -0.17617399 0.28899708 0.35806662 0.15567464 0.009809328 -0.2905177
0.12847571 -0.3460567 -0.29321316 -0.109342024 -0.13815627 -0.021235121 -0.07886314 0.14216696
0.054122206 -0.108810246 0.10372313 0.14727259 0.041245688 -0.4997692 0.013056622 -0.023883605
00000000: be27 debd b81c abbe e336 2e3e 9f5e 933c
00000010: a4d2 f03d 1745 38bc 3dfd 87be edef febd
00000020: 5a4f 63be db00 b33d 8476 7b3c 038a 41be
00000030: b868 77bd 27b0 5bbd c871 02be 8c7a 003e
00000040: 0a22 98bd 4a7b 013e 6765 d33e c28b 46bd
00000050: 8fce 7b3e e360 4dbd 8ab3 f33c 7dfd 8cbd
00000060: bf55 68bd bb05 923e b512 8d3d f291 51ba
00000070: a8be 5f3e 27d6 f5be 5f8c dc3d e1f0 a6bd
00000080: 4e63 6ebc e8c8 8b3e 9670 e33d 1146 f63d
00000090: 7dc1 c1bc 49ac 90be e7d7 bdbe 8c74 4dbe
000000a0: 8676 66be a67d 73be a139 763c 88bd d1bc
000000b0: ea8c 573d e453 4a3d 2d49 bebe ddc1 a7be
000000c0: bfe1 243c 50ec 963e 3d0e 04be 8b74 c0be
000000d0: c798 0ebe e248 97bd 1cff 7abe 4b1c 863c
000000e0: 60b9 2f3e d1a9 4ebe add2 afbe eec1 25be
000000f0: 35e1 133e 57a5 d13d 396c 313d dca9 903e
00000100: 1fc4 973e 78c5 373d 92c1 d4be c167 57be
00000110: a769 c5bd 648a 09bf 34a7 06be b7ce 82be
00000120: 3c64 d23d 11d7 75be 921b 9d3d 9733 b03d
00000130: dd3b b4bd d394 d23d e7aa 9a3e c7d9 aa3e
00000140: a927 163e 50c5 653e ecda a93d 4033 693e
00000150: 5802 dabd 9b0e c63c fb14 d53e 0e4d 27bc
00000160: 8bac f0ba bf3b 9cbe dec3 053e 45d0 de3e
00000170: 986c d43d 8586 9ebd 9e76 063e b43a 86bd
00000180: 3410 173e 82cf f6bd 5aaa 6cbe 48e9 2ebe
00000190: c957 823d 095f 283b 4732 acbd d589 9fbe
000001a0: af25 6d3e d4c1 a43d 2108 9cbe 708d 573e
000001b0: e229 b93d a607 243e 7f47 6f3e b30f 37bd
000001c0: 0cdc 86bc 3a9d a2be 4933 a4bd 0090 64be
000001d0: 66cf 79bd 73cd 06be 98f6 413e 48bb 223d
000001e0: 6906 763e 22e0 56bd 1947 45be 8fed 3fbe
000001f0: ffac a53d 3105 56be c5b6 c2bc 654c b0bd
00000200: 57a7 d1bc 8a1c 9bbd 1f44 31bd 52d6 b03c
00000210: 8f2c 783e 1ecf d73d 3a56 4e3d c922 b4be
00000220: 57af 03be 607c 8abe cbfe 4f3d 50fa 353d
00000230: 1daa 8f3d 5473 bfbe 514a ca3e 7d2c 9bbe
00000240: 3c19 003e 94ef aa3e 5a40 b7bd c28c 923d
00000250: 8190 2abe 5b94 7cbe 2394 3a3e c169 923e
00000260: c0a0 bf3d 988f debe f9d1 973e add1 86bd
00000270: 3226 01bf 7698 063e 72a2 f6be 2aa5 84be
00000280: 4a30 8f3d b30c 903e e640 abbe 4fb8 103e
00000290: b7cd 6abe a490 2c3e 2eab 49bd a19d 0bbe
000002a0: 21a6 283e 6ac6 7ebe f719 68be 8871 0cbe
000002b0: 2280 6f3e 0f89 193e 3f66 0abd e34c 643d
000002c0: b5ef 7abe 6ce3 113e e22c 6fbe 58bd 543e
000002d0: 8d08 12bd 6af5 463e 9120 5ebd b028 3fbe
000002e0: c55a a63d 3c02 c13d aa45 b8bd 4eb5 163e
000002f0: 8a8b 7cbe 0df7 293e f569 14be b780 daba
00000300: 3f0a 00be 8f4b cebe 19fb 58be f47e 303d
00000310: f9e2 bbbe d128 48bd fbda 663c aa09 1bbd
00000320: 52a4 e1bc de79 4e3e 0a1e 56be c65e 843e
00000330: 56f6 c13d 711f ebbd 5c58 3c3e 6191 00be
00000340: 18cc 443d 62e1 c1bd 734f 983e 0199 133d
00000350: 4907 35be f03d a23e 8a33 29be 7829 033e
00000360: 7d2b b2ba 01f1 31be f690 393d bc5a 2abe
00000370: 9cd6 763e d0ce 75bd 877b 2c3d 6932 173e
00000380: 8291 6bbe 372c 183e ffe6 fbbd 6ac9 cdbd
00000390: d53e 8dbe 66d2 df3c af39 d9be c7da 793d
000003a0: 8c27 2c3e 4db5 12be f466 34be 6df7 933e
000003b0: 8254 b73e 2c69 1f3e 4eb7 203c bcbe 94be
000003c0: 238f 033e 582e b1be 0920 96be b6ee dfbd
000003d0: d678 0dbe 47f5 adbc ff82 a1bd 3794 113e
000003e0: 3faf 5d3d e8d7 debd cb6c d43d a0ce 163e
000003f0: 3df1 283d c0e1 ffbe 71eb 553c 8da7 c3bc

layer1_2vm.0.bias f4 [16]
0.02366523 0.0010393573 0.049676213 0.013145757 -0.014500334 0.029329078 -0.026247596 -0.0199197
0.023990033 0.03604096 0.012161713 0.040029008 0.008089299 -0.01854008 0.023090955 0.0073269918
00000000: 96dd c13c 0b3b 883a 4979 4b3d 4d61 573c
00000010: cf92 6dbc 8943 f03c 3305 d7bc a42e a3bc
00000020: bf86 c43c b09f 133d ec41 473c 75f5 233d
00000030: fb88 043c 5ee1 97bc 3e29 bd3c 4317 f03b

layer1_2vm.2.weight f4 [16]
1.0522026 0.9614176 1.0398113 0.96516407 0.95127565 1.0258101 0.9882694 0.9837736
1.0230458 0.965547 1.0365508 1.0012192 0.9570954 0.9907369 1.0340012 0.9776708
00000000: 93ae 863f 771f 763f 8918 853f fe14 773f
00000010: cd86 733f bf4d 833f 39ff 7c3f 96d8 7b3f
00000020: 2af3 823f 172e 773f b2ad 843f f327 803f
00000030: 3404 753f efa0 7d3f 275a 843f a248 7a3f

layer1_2vm.2.bias f4 [16]
0.042440064 -0.010940778 0.05014068 -0.028775595 -0.059075233 0.045694686 -0.028337166 -0.0019187288
-0.02107054 -0.02809575 0.02271058 0.048120942 -0.040478442 -0.037102934 0.020106018 -0.035041958
00000000: a2d5 2d3d f340 33bc 5060 4d3d ccba ebbc
00000010: dff8 71bd 5a2a 3b3d 5823 e8bc db7d fbba
00000020: 209c acbc 0f29 e6bc 8a0b ba3c 771a 453d
00000030: b9cc 25bd 3ff9 17bd 60b5 a43c 2888 0fbd

layer1_2vm.2.running_mean f4 [16]
-0.096783265 -0.8119505 0.29783392 -0.4437509 -0.5686888 -0.08425686 -0.22135119 -0.61159176
0.0762644 0.04953306 -0.068635985 0.40889925 -0.55590844 0.011036839 0.28924552 -0.17996447
00000000: 4e36 c6bd fddb 4fbf b07d 983e 5133 e3be
00000010: 9795 11bf dc8e acbd e3a9 62be 4791 1cbf
00000020: 8230 9c3d 2ee3 4a3d 0691 8cbd 3e5b d13e
00000030: 0450 0ebf dcd3 343c fd17 943e 9b48 38be

layer1_2vm.2.running_var f4 [16]
0.5604497 1.0248079 0.9135224 0.35197002 0.8936853 0.42045113 0.5558115 1.1561772
0.66900504 0.40590793 0.7401451 0.57544076 0.7330014 0.7685592 0.70593274 0.3977141
00000000: a279 0f3f e82c 833f 9bdc 693f 6a35 b43e
00000010: 8fc8 643f 5f45 d73e aa49 0e3f 9dfd 933f
00000020: ea43 2b3f 2ad3 cf3e 267a 3d3f 1650 133f
00000030: fba5 3b3f 4cc0 443f 02b8 343f 2fa1 cb3e

layer2.0.weight f4 [16, 32]
-0.18538988 -0.15429828 0.04290806 0.23784518 -0.10118637 -0.067240156 0.1664216 0.18804418
0.25603375 -0.20241198 -0.4864029 0.13859987 0.20167477 0.22978635 -0.0041943057 -0.19808534
-0.16967145 -0.37031174 -0.20062721 0.08968019 0.1957726 -0.08878897 0.22681749 0.09214833
0.15893401 -0.18400116 0.041296467 0.13403042 0.13003907 -0.18981686 0.041193888 0.20344953
0.17564356 -0.19093116 0.13487475 -0.2090392 -0.022288779 0.27812266 -0.005571841 0.23476768
0.14466938 0.13111022 -0.11817183 -0.050404925 -0.38261485 0.12592588 0.06678979 -0.2690654
-0.18695833 0.19164976 0.0647263 0.071356624 -0.19849582 -0.003195159 0.061800312 -0.15277174
0.07453722 0.02367333 0.32399398 -0.21112463 -0.048258346 -0.08483116 -0.5499093 0.26850858
0.18011811 -0.1001466 -0.33836877 0.3392699 -0.3437608 -0.18697368 0.20011963 -0.043309912
-0.24349417 0.1588262 -0.29579115 0.19544515 -0.32644084 0.010007266 -0.06545065 -0.17027518
0.08266491 -0.55250734 -0.31691056 0.35686722 0.25894427 -0.47328544 0.06887049 0.011705962
-0.03716939 -0.13629116 -0.08312851 -0.036582045 -0.3190363 0.007151879 -0.35720095 0.29205212
0.18021876 -0.23361908 0.19778264 -0.009142917 0.030630395 -0.33643937 -0.04470144 0.1678121
0.019956425 -0.028207015 -0.04114223 0.39453378 -0.0026217366 0.13170902 -0.10381107 -0.06535069
-0.19896132 0.14665094 0.049525898 -0.08617214 -0.15326507 -0.08804317 0.21707296 -0.1325336
0.3548321 -0.06676451 -0.36379772 0.01912068 0.07067001 0.10096642 -0.41576195 0.26277936
0.2545087 -0.07922106 0.1507615 0.18725252 0.20392689 -0.09207594 0.021971898 0.31483
-0.33724734 -0.111016944 0.22713225 -0.11593006 -0.10495332 -0.2650825 0.10600958 0.2831688
-0.2036463 0.06267499 -0.0017487 -0.2747258 0.14718239 0.021534646 0.13605347 0.0155784935
0.15239017 -0.24938816 -0.11450003 0.04207443 -0.18999298 0.064094864 -0.056831278 -0.1661238
0.26270032 -0.17008659 -0.13614461 -0.042883333 0.04943406 0.13950904 -0.14865752 0.1598049
0.2861135 -0.19587623 0.10397703 -0.030066974 -0.2625764 0.03948633 0.21252844 -0.057257354
-0.34910285 -0.08899496 0.05142733 -0.094406776 0.39642212 -0.14163618 0.092602804 0.08105302
0.26451573 -0.1349149 0.3215137 -0.04599926 0.22729607 0.3408984 -0.6984393 -0.49081126
0.27147684 0.20470542 -0.063239925 -0.0652716 -0.0072422842 0.13693653 0.37833908 -0.19504803
0.23476377 0.25116208 0.18093817 0.1639445 -0.1886802 0.28835943 0.26114947 -0.21631421
-0.084467776 -0.32592684 0.17001003 -0.48126993 0.026605714 0.103026256 0.1351576 -0.0012113068
-0.17988834 -0.013987301 0.08903454 0.23493989 -0.07154273 0.07554913 -0.22931428 -0.16149348
0.06158693 0.050042138 0.1627148 0.2880203 0.12895806 0.45496732 0.5143462 -0.21501368
0.08281325 -0.04295775 -0.17502204 -0.12750523 -0.09311825 -0.37223285 0.4083646 0.34256026
-0.02321301 0.067542955 0.08652271 0.026868511 -0.15611076 -0.07631791 0.10008146 -0.34659395
0.009099428 -0.050788116 0.4793526 -0.0901282 -0.33760926 -0.32770848 0.3356111 -0.09636313
00000000: d8d6 3dbe 5e00 1ebe 5dc0 2f3d b08d 733e
00000010: cd3a cfbd 35b5 89bd 6d6a 2a3e a78e 403e
00000020: db16 833e 1645 4fbe cd09 f9be 20ed 0d3e
00000030: d583 4e3e 1d4d 6b3e 6370 89bb e2d6 4abe
00000040: 5abe 2dbe 8099 bdbe 3871 4dbe 3faa b73d
00000050: 9d78 483e fed6 b5bd d842 683e 43b8 bc3d
00000060: 99bf 223e cd6a 3cbe 7c26 293d 453f 093e
00000070: f628 053e 5a5f 42be ecba 283d 1355 503e
00000080: e8db 333e 7583 43be 9b1c 0a3e 5f0e 56be
00000090: f596 b6bc 1866 8e3e fd93 b6bb f066 703e
000000a0: 3624 143e c241 063e 1304 f2bd 6575 4ebd
000000b0: 18e6 c3be b7f2 003e 16c9 883d f1c2 89be
000000c0: 0172 3fbe d63f 443e 398f 843d 6c23 923d
000000d0: 7d42 4bbe df65 51bb 5322 7d3d 3270 1cbe
000000e0: f8a6 983d 92ee c13c 8ae2 a53e 0e31 58be
000000f0: 8baa 45bd f6bb adbd dbc6 0cbf f579 893e
00000100: e270 383e a919 cdbd ac3e adbe c9b4 ad3e
00000110: 6a01 b0be 0776 3fbe 29ec 4c3e bc65 31bd
00000120: 8956 79be 56a3 223e f071 97be c622 483e
00000130: 4123 a7be 84f5 233c fe0a 86bd 9e5c 2ebe
00000140: 384c a93d 1f71 0dbf 1a42 a2be 4db7 b63e
00000150: 5894 843e 7852 f2be f90b 8d3d 5dca 3f3c
00000160: ee3e 18bd e98f 0bbe 483f aabd 0ed7 15bd
00000170: ba58 a3be 4f5a ea3b 0be3 b6be db87 953e
00000180: 448b 383e d739 6fbe 8887 4a3e 2ccc 15bc
00000190: 98ec fa3c c841 acbe db18 37bd efd6 2b3e
000001a0: a87b a33c 6612 e7bc c184 28bd 5500 ca3e
000001b0: 71d1 2bbb bbde 063e e69a d4bd 95d6 85bd
000001c0: 84bc 4bbe aa2b 163e abdb 4a3d 057b b0bd
000001d0: 85f1 1cbe fa4f b4bd 6048 5e3e e3b6 07be
000001e0: 8eac b53e d5bb 88bd b243 babe f9a2 9c3c
000001f0: 70bb 903d 7bc7 ce3d c0de d4be 048b 863e
00000200: f74e 823e a73e a2bd 3961 1a3e 20bf 3f3e
00000210: 36d2 503e 4f92 bcbd 69fe b33c 6631 a13e
00000220: afab acbe da5c e3bd 5b95 683e bd6c edbd
00000230: c4f1 d6bd e5b8 87be 8d1b d93d 80fb 903e
00000240: a888 50be bf5b 803d a334 e5ba dca8 8cbe
00000250: fbb6 163e 6d69 b03c 9a51 0b3e f03c 7f3c
00000260: 2b0c 1c3e 9c5f 7fbe fe7e eabd 3d56 2c3d
00000270: 858d 42be 2b44 833d eac7 68bd 5c1c 2abe
00000280: a880 863e 2e2b 2ebe 7e69 0bbe 6fa6 2fbd
00000290: 5e7b 4a3d 75db 0e3e ad39 18be e5a3 233e
000002a0: 787d 923e c793 48be e9f1 d43d 044f f6bc
000002b0: 6a70 86be 6bbc 213d 0ea1 593e b086 6abd
000002c0: 9cbd b2be fd42 b6bd 77a5 523d 5758 c1bd
000002d0: d7f7 ca3e 1309 11be 8aa6 bd3d 20ff a53d
000002e0: 9b6e 873e 2227 0abe 729d a43e b869 3cbd
000002f0: 4dc0 683e 3c8a ae3e ebcc 32bf 9d4b fbbe
00000300: 03ff 8a3e 4c9e 513e ef83 81bd 1ead 85bd
00000310: af50 edbb 1739 0c3e a9b5 c13e acba 47be
00000320: ea65 703e 5198 803e db47 393e 11e1 273e
00000330: 6235 41be d9a3 933e 62b5 853e 7981 5dbe
00000340: 71fd acbd e2df a6be 1c17 2e3e 0369 f6be
00000350: 3af4 d93c 6eff d23d c166 0a3e b6c4 9eba
00000360: a634 38be fe2a 65bc be57 b63d 1594 703e
00000370: ff84 92bd 81b9 9a3d 5dd1 6abe 8c5e 25be
00000380: 9442 7c3d fcf8 4c3d b59e 263e 6677 933e
00000390: 950d 043e 7af1 e83e 31ac 033f 8c2c 5cbe
000003a0: fe99 a93d 77f4 2fbd fa38 33be bb90 02be
000003b0: c8b4 bebd 4e95 bebe 2a15 d13e 0f64 af3e
000003c0: 3629 bebc f653 8a3d d232 b13d 5a1b dc3c
000003d0: 80db 1fbe 904c 9cbd 82f7 cc3d c374 b1be
000003e0: c415 153c 3307 50bd b46d f53e 2295 b8bd
000003f0: 1fdb acbe 68c9 a7be 38d5 ab3e 085a c5bd

layer2.0.bias f4 [16]
-0.06007116 0.023806082 -0.05727914 -0.07487256 0.024250539 -0.0625777 0.08614132 0.10711224
0.039948527 -0.08047815 -0.033067193 -0.037518483 0.04819592 0.090051085 -0.033775944 -0.083100826
00000000: 2d0d 76bd f904 c33c 889d 6abd c956 99bd
00000010: 11a9 c63c bd28 80bd dc6a b03d a95d db3d
00000020: 11a1 233d bad1 a4bd 7771 07bd fbac 19bd
00000030: 1669 453d b46c b83d a558 0abd c430 aabd

layer2.2.weight f4 [16]
0.94453067 0.9157187 1.1100436 0.90747446 0.9307003 0.8976356 1.101394 1.0804461
1.1128365 0.9029562 1.1113187 1.1064055 0.9133527 1.0882521 1.1028061 0.91348565
00000000: c3cc 713f 8a6c 6a3f e915 8e3f 3f50 683f
00000010: 6042 6e3f 72cb 653f 7bfa 8c3f 0f4c 8a3f
00000020: 6d71 8e3f 2328 673f b13f 8e3f b29e 8d3f
00000030: 7cd1 693f d84b 8b3f c028 8d3f 32da 693f

layer2.2.bias f4 [16]
-0.053457342 -0.079968534 0.10890274 -0.09505981 -0.08389652 -0.09681846 0.10733514 0.11422814
0.111845694 -0.095740914 0.11222728 0.10642292 -0.08761643 0.094274834 0.10633333 -0.085267596
00000000: 16f6 5abd 8bc6 a3bd 6608 df3d b8ae c2bd
00000010: f0d1 abbd c248 c6bd 87d2 db3d 71f0 e93d
00000020: 5b0f e53d d013 c4bd 6bd7 e53d 43f4 d93d
00000030: 3e70 b3bd 2a13 c13d 4ac5 d93d c7a0 aebd

layer2.2.running_mean f4 [16]
0.0024012602 -0.12686102 -0.9525616 -0.1444101 0.0046373657 -0.15980788 0.48758978 0.59136206
0.83843297 0.24714568 -0.4590741 -0.98406744 -0.0027748705 0.9759023 -0.60086906 0.066595525
00000000: 765e 1d3b dbe7 01be 14db 73bf 3ee0 13be
00000010: 0bf5 973b ada4 23be 5ea5 f93e 8163 173f
00000020: 8ba3 563f c213 7d3e c30b ebbe d8eb 7bbf
00000030: 9ada 35bb bcd4 793f 8ed2 19bf 3c63 883d

layer2.2.running_var f4 [16]
0.508963 0.46454832 0.87135893 0.56765205 0.37957063 0.69448614 0.55782413 1.1209575
0.52585655 0.71316355 0.5897584 0.8170568 0.23531619 1.1752573 0.4287505 0.3317346
00000000: 664b 023f 47d9 ed3e 6111 5f3f a551 113f
00000010: 1557 c23e d8c9 313f 90cd 0e3f 897b 8f3f
00000020: 899e 063f e391 363f 68fa 163f a22a 513f
00000030: baf6 703e d56e 963f 2f85 db3e 1ed9 a93e

fc_advantage.0.weight f4 [20, 16]
0.14623529 0.23815033 0.20580755 0.18861283 0.3008002 0.48567295 -0.29225883 0.14021125
-0.2433404 0.28523186 0.12011778 0.6190136 -0.024759466 0.24262835 0.27706316 0.112893365
-0.33884236 -0.25488344 0.05695031 0.05726145 0.35734418 -0.031282224 0.21078636 0.37536234
-0.023402877 -0.08751979 -0.16127412 0.004590663 -0.3663493 -0.07998884 0.25740105 -0.44636548
-0.33329827 -0.20602934 0.036983516 -0.3398227 0.30621964 -0.008942711 -0.290588 -0.43615773
0.054595202 -0.24481837 -0.036940712 -0.20797044 -0.06619942 -0.23316967 0.16295749 -0.4946948
-0.37147087 -0.3768153 0.14846328 0.07668982 0.054449536 -0.28738347 -0.02251103 0.060494356
0.021629669 -0.097755596 -0.3658052 -0.43411833 -0.4842851 -0.62574977 0.077698864 -0.32641873
-0.18707542 0.10050184 0.09974568 0.21254697 0.5181068 0.54290706 -0.24646507 -0.13930598
0.27591074 0.5052965 0.18805903 0.10998416 -0.2368824 0.8173811 0.069867045 0.4116463
-0.13149357 -0.14296827 -0.004077199 -0.22364421 -0.28568253 -0.3797185 -0.09705228 -0.005992828
-0.13471106 0.40627733 -0.1501078 -0.5386892 0.052571412 0.30395126 -0.33690646 -0.08104356
-0.26246783 -0.14520518 -0.1741648 0.0584177 0.14402977 -0.22383177 -0.3553713 -0.39411053
-0.11878463 -0.15432139 0.1078231 0.12566805 0.13334917 -0.4295458 -0.01368929 -0.0071949246
0.060104586 0.014184773 0.00493737 -0.45867524 0.28780273 -0.0056665083 -0.115584746 -0.0028694172
0.15350251 -0.14495076 0.11728429 -0.45247072 -0.41720825 0.42636263 0.22368011 -0.18551311
-0.34708458 -0.028274892 0.10280568 0.105038 0.14918755 -0.057847038 -0.12865415 -0.040423106
0.23854089 -0.16889833 -0.2179559 0.14114025 0.2828783 0.011066947 0.28714183 0.44124466
0.16023867 0.07121881 0.016680203 0.5780559 0.26576215 0.25299484 0.3653909 -0.104580574
0.033124387 -0.078666456 0.17614351 0.08661976 -0.37602463 0.10339862 -0.17790936 0.17821313
-0.08620638 0.43007776 0.1785667 0.1707964 0.1834679 0.050474983 -0.13477537 -0.059898496
0.32814625 -0.48009846 -0.5516333 -0.008405556 -0.036832903 0.0105899805 0.34829253 -0.19459216
-0.061340272 -0.2190017 -0.13618948 -0.15822135 -0.09903473 0.017768418 0.15576604 0.16622227
-0.1159425 0.13726343 0.23160274 -0.27916598 -0.20397915 -0.009911568 -0.085253626 -0.16316772
0.28220508 -0.029825414 0.5534817 0.1605061 0.22184229 -0.012757964 0.020380162 0.35409427
-0.19219361 -0.29191053 -0.37941226 -0.47798187 0.4069263 0.2681092 0.04809782 -0.057783667
-0.31693777 0.46617103 -0.46057576 0.14740962 0.016804764 0.11498576 0.28856972 0.13046111
-0.09889577 0.07358819 0.21149777 0.054138996 -0.0616156 -0.083017565 0.2864343 -0.035550818
-0.3590061 -0.3546182 0.22511816 -0.32368854 0.032411367 -0.08053804 0.020257303 0.1560109
-0.1399419 -0.3092188 -0.04433577 -0.15628177 -0.23955801 0.0077224574 -0.3888656 -0.2716206
0.52192026 0.19890271 -0.10497221 0.033248447 -0.03265011 -0.012558739 -0.120706245 -0.08862712
0.5827714 -0.075468384 0.048538152 -0.18186891 -0.31261954 0.1458096 -0.52917916 -0.036155105
00000000: b4be 153e aedd 733e 37bf 523e b923 413e
00000010: 7c02 9a3e 20aa f83e f3a2 95be 8a93 0f3e
00000020: 3a2e 79be e909 923e 5000 f63d ad77 1e3f
00000030: 5dd4 cabc 9173 783e 39db 8d3e a334 e73d
00000040: bf7c adbe 1580 82be ba44 693d fb8a 6a3d
00000050: d1f5 b63e ca21 00bd 61d8 573e 7e2f c03e
00000060: 64b7 bfbc 933d b3bd 0b25 25be 466d 963b
00000070: 2392 bbbe 30d1 a3bd 12ca 833e 048a e4be
00000080: 12a6 aabe 5bf9 52be 077c 173d 3efd adbe
00000090: d2c8 9c3e 7384 12bc f3c7 94be 1150 dfbe
000000a0: 389f 5f3d abb1 7abe 254f 17bd 34f6 54be
000000b0: 9093 87bd 08c4 6ebe 54de 263e a348 fdbe
000000c0: 6e31 bebe efed c0be c206 183e 8d0f 9d3d
000000d0: 7a06 5f3d ed23 93be 0d69 b8bc eec8 773d
000000e0: b430 b13c 1634 c8bd d24a bbbe c244 debe
000000f0: 37f4 f7be 2331 20bf 9520 9f3d 5b20 a7be
00000100: b390 3fbe e9d3 cd3d 7747 cc3d eaa5 593e
00000110: a6a2 043f f5fb 0a3f 5761 7cbe 3aa6 0ebe
00000120: 2c44 8d3e 1d5b 013f 8c92 403e 603f e13d
00000130: 4d91 72be e33f 513f 7416 8f3d 4ec3 d23e
00000140: 40a6 06be 4666 12be 069a 85bb fd02 65be
00000150: fb44 92be 776a c2be 59c3 c6bd 7c5f c4bb
00000160: b2f1 09be 9503 d03e dcb5 19be 89e7 09bf
00000170: 1f55 573d 809f 9b3e 017f acbe 2afa a5bd
00000180: 2f62 86be abb0 14be 4258 32be 6647 6f3d
00000190: 8a7c 133e 2834 65be 3af3 b5be dbc8 c9be
000001a0: 5b45 f3bd 6d06 1ebe 5cd2 dc3d 20af 003e
000001b0: af8c 083e 6ded dbbe 0b49 60bc 67c3 ebbb
000001c0: 3a30 763d 4067 683c a9c9 a13b 7bd7 eabe
000001d0: e15a 933e 1eae b9bb b2b7 ecbd d50c 3cbb
000001e0: c32f 1d3e f96d 14be bf32 f03d 3eaa e7be
000001f0: 529c d5be 344c da3e 660c 653e 26f7 3dbe
00000200: 12b5 b1be bfa0 e7bc c98b d23d 2a1e d73d
00000210: 9fc4 183e 04f1 6cbd eabd 03be b392 25bd
00000220: 1044 743e aff3 2cbe d52f 5fbe 1287 103e
00000230: 6dd5 903e 2452 353c 4104 933e d2ea e13e
00000240: 9b15 243e 2bdb 913d eca4 883c 79fb 133f
00000250: fa11 883e 8a88 813e 8414 bb3e 572e d6bd
00000260: 70ad 073d e11b a1bd f75e 343e b365 b13d
00000270: 4d86 c0be a8c2 d33d df2d 36be 817d 363e
00000280: f88c b0bd 2733 dc3e 30da 363e 40e5 2e3e
00000290: 02df 3b3e dbbe 4e3d 8e02 0abe 2058 75bd
000002a0: c902 a83e 77cf f5be d737 0dbf 75b7 09bc
000002b0: 19de 16bd 9981 2d3c 6653 b23e 2b43 47be
000002c0: f03f 7bbd fb41 60be 4175 0bbe c704 22be
000002d0: b8d2 cabd 138f 913c 2281 1f3e 2c36 2a3e
000002e0: 4373 edbd c98e 0c3e 4529 6d3e d8ee 8ebe
000002f0: e9df 50be 2164 22bc 7499 aebd 7015 27be
00000300: 2f7d 903e 6d54 f4bc fab0 0d3f b65b 243e
00000310: a02a 633e c806 51bc 4cf4 a63c d84b b53e
00000320: 67ce 44be 4c75 95be 5342 c2be 0aba f4be
00000330: a558 d03e 9c45 893e 3802 453d 91ae 6cbd
00000340: ab45 a2be f8ad ee3e 96d0 ebbe 8cf2 163e
00000350: 25aa 893c a77d eb3d 69bf 933e 9997 053e
00000360: de89 cabd 68b5 963d df92 583e dac0 5d3d
00000370: a460 7cbd 1d05 aabd 84a7 923e bc9d 11bd
00000380: a6cf b7be 8490 b5be 6085 663e 81ba a5be
00000390: c8c1 043d 21f1 a4bd a5f2 a53c 52c1 1f3e
000003a0: ee4c 0fbe ed51 9ebe 6d99 35bd 5408 20be
000003b0: b24e 75be ab0c fd3b 6419 c7be db11 8bbe
000003c0: 919c 053f 27ad 4b3e acfb d6bd 862f 083d
000003d0: 1fbc 05bd 2bc3 4dbc d634 f7bd 2382 b5bd
000003e0: 8230 153f 2b8f 9abd f1cf 463d d83b 3abe
000003f0: ab0f a0be 1d4f 153e 4978 07bf 6017 14bd

fc_advantage.0.bias f4 [20]
0.062461134 0.043047227 -0.07970891 -0.10524519 0.06524135 -0.06121828 -0.10520819 0.059591506
-0.03577349 0.07099951 -0.05984018 -0.013195161 -0.005132067 0.04952729 -0.10526115 -0.09359685
-0.10520602 -0.011496836 -0.059232872 0.09242215
00000000: 3fd7 7f3d 4a52 303d 6d3e a3bd ca8a d7bd
00000010: 429d 853d 05c0 7abd 6477 d7bd 3916 743d
00000020: 3987 12bd 3168 913d fa1a 75bd 8430 58bc
00000030: e62a a8bb 21dd 4a3d 2893 d7bd b5af bfbd
00000040: 4176 d7bd 3a5d 3cbc 2b9e 72bd d347 bd3d

fc_value.0.weight f4 [1, 16]
-0.0055958973 -0.12934384 0.8194067 -0.20647997 -0.07949233 -0.16478513 0.18141873 0.13908961
0.38807887 -0.2768485 0.24018303 0.6640299 -0.20995098 0.11488856 0.18782528 -0.12192551
00000000: ca5d b7bb b672 04be a3c4 513f 7c6f 53be
00000010: e0cc a2bd 6fbd 28be d5c5 393e 826d 0e3e
00000020: 46b2 c63e 16bf 8dbe 8af2 753e ddfd 293f
00000030: 64fd 56be b14a eb3d 4555 403e 15b4 f9bd
