save/client-2/eval.pth (torch, 42501 bytes, 27 tensors)

layer1_task.0.weight f4 [32, 3]
0.012632993 0.026856553 -0.29437926 -0.15279467 -0.010567183 -0.024543779 -0.3928233 0.050423514
0.32520005 -0.04971199 0.07805443 0.30413336 -0.009681288 -0.3585595 0.026468696 0.17524476
-0.0049410905 -0.024922293 -0.2938759 -0.24204823 0.083037056 -0.10561466 0.13562408 0.087073095
-0.040359084 0.3754564 0.019065062 0.043816477 -0.2094439 -0.20477518 0.039423063 0.052856945
0.14671485 0.020069174 0.44479322 -0.1548996 -0.2225765 -0.22772452 0.14951134 -0.09262757
0.4337151 -0.03626373 -0.11520749 -0.26556394 -0.35039827 0.12713686 0.16153009 0.3658318
0.22368926 0.30550665 0.52126926 0.031919032 -0.012372723 -0.19550905 0.16410077 -0.09965471
0.16722918 -0.03175341 -0.26731783 -0.04572708 -0.54008734 -0.100645855 -0.03765759 0.16151187
-0.3652114 0.026105952 0.1200762 0.1533049 -0.05899134 -0.22746111 0.09025562 0.050830238
-0.08254789 0.043998733 -0.08992241 0.16784418 0.035526983 -0.2276242 0.23676562 0.09476304
0.11986653 -0.009909272 -0.14753681 0.10969403 -0.24486907 -0.008469 -0.066011846 0.30685163
-0.33368167 0.101881586 0.14891575 0.00057832804 -0.2591234 0.12357441 -0.6428946 0.19913907
00000000: 9dfa 4e3c 4602 dc3c e1b8 96be 3576 1cbe
00000010: fa21 2dbc 0910 c9bc 2320 c9be e388 4e3d
00000020: 9f80 a63e cd9e 4bbd 00db 9f3d 5eb7 9b3e
00000030: 449e 1ebc 1c95 b7be e1d4 d83c 5d73 333e
00000040: dfe8 a1bb d629 ccbc e776 96be 7edb 77be
00000050: 550f aa3d 804c d8bd 0ae1 0a3e 6153 b23d
00000060: 914f 25bd d23b c03e 552e 9c3c e878 333d
00000070: 7678 56be 96b0 51be 147a 213d 8680 583d
00000080: 6b3c 163e 1c68 a43c f0bb e33e 009e 1ebe
00000090: 18eb 63be 9e30 69be 8019 193e 86b3 bdbd
000000a0: e80f de3e 4789 14bd e8f1 ebbd fff7 87be
000000b0: 6767 b3be 2a30 023e 2568 253e 4e4e bb3e
000000c0: cc0e 653e 5e6b 9c3e e771 053f 88bd 023d
000000d0: f6b6 4abc 8633 48be 080a 283e c517 ccbd
000000e0: 203e 2b3e dd0f 02bd e2dd 88be 524c 3bbd
000000f0: 2a43 0abf 6a1f cebd d83e 1abd 5e63 253e
00000100: fdfc babe 26dc d53c 83ea f53d f6fb 1c3e
00000110: e7a0 71bd 91eb 68be f0d7 b83d 5e33 503d
00000120: de0e a9bd 0438 343d 3e29 b8bd 58df 2b3e
00000130: be84 113d 5116 69be b072 723e 2013 c23d
00000140: 957c f53d 805a 22bc e413 17be 43a7 e03d
00000150: f5be 7abe 90c1 0abc 3831 87bd a81b 9d3e
00000160: 53d8 aabe 4ba7 d03d 5f7d 183e f09a 173a
00000170: d3ab 84be 9514 fd3d be94 24bf 1deb 4b3e

layer1_task.0.bias f4 [32]
-0.0043587866 -0.0056462684 -0.00398123 -0.0020156887 -0.0014356124 -0.0046453886 0.0043064416 -0.0012256934
-0.006960852 0.0019062317 0.00140743 0.008744128 -0.0025374608 -0.004054574 -0.0010966951 0.0032992258
-0.0043668137 0.0031007016 -0.0014157394 0.002652407 -0.005146645 5.2081887e-05 -0.009712005 -0.011967894
-0.0003135288 -0.011318279 0.0030249127 -0.002064541 -0.002426211 0.0010304749 -0.0053504505 0.0067249816
00000000: 27d4 8ebb 5504 b9bb fa74 82bb a519 04bb
00000010: 292b bcba 5838 98bb 0d1d 8d3b 72a7 a0ba
00000020: dc17 e4bb 86da f93a 8479 b83a 8843 0f3c
00000030: 874b 26bb 3bdc 84bb fbbe 8fba d337 583b
00000040: 7d17 8fbb 2435 4b3b 5590 b9ba 01d4 2d3b
00000050: 30a5 a8bb 8072 5a38 1a1f 1fbc fc14 44bc
00000060: 2061 a4b9 4e70 39bc 9d3d 463b 404d 07bb
00000070: 1101 1fbb 0011 873a d552 afbb 3c5d dc3b

layer1_task.2.weight f4 [32]
1.0088626 0.99755603 0.99368346 1.0204029 1.0028497 1.0085614 1.0075846 1.0079111
0.9991659 0.9811911 1.0038049 0.99602693 0.9951394 1.0006053 1.0009035 0.9910333
1.0085931 0.99608386 0.99143994 0.98743594 1.0033852 1.0009173 1.0016283 1.0098062
1.0031929 1.004774 0.98279834 1.0197811 0.9867305 0.9966708 1.0040617 1.0052077
00000000: 6922 813f d55f 7f3f 0a62 7e3f 909c 823f
00000010: 615d 803f 8a18 813f 88f8 803f 3b03 813f
00000020: 56c9 7f3f 572f 7b3f ae7c 803f 9ffb 7e3f
00000030: 75c1 7e3f d613 803f 9b1d 803f 5cb4 7d3f
00000040: 9419 813f 5aff 7e3f 02cf 7d3f 9ac8 7c3f
00000050: ed6e 803f 0f1e 803f 5b35 803f 5441 813f
00000060: a068 803f 6f9c 803f ac98 7b3f 3088 823f
00000070: 5f9a 7c3f d125 7f3f 1885 803f a5aa 803f

layer1_task.2.bias f4 [32]
0.0048490865 -0.0068889023 0.0010382682 0.019848466 0.0018956225 0.014936302 0.009597465 0.012727199
0.012488468 -0.024900954 0.004312509 0.0032086968 0.0039161835 -0.009657575 0.0043001603 -0.0064547486
0.0034070362 -0.0015859841 -0.0122507075 -0.013787963 0.004791467 -0.0025442282 -0.011565104 -0.00046739052
0.0049112476 0.0027664637 -0.021957003 0.021192517 -0.014628913 -0.0033181396 0.0058590034 0.004759838
00000000: 16e5 9e3b 4dbc e1bb 8016 883a 4099 a23c
00000010: 8976 f83a 64b7 743c b03e 1d3c be85 503c
00000020: 6e9c 4c3c 16fd cbbc f34f 8d3b 0049 523b
00000030: 5453 803b ce3a 1ebc 5ce8 8c3b 5b82 d3bb
00000040: 9548 5f3b cce0 cfba 31b7 48bc e9e6 61bc
00000050: bd01 9d3b 11bd 26bb 907b 3dbc 180c f5b9
00000060: 88ee a03b 8f4d 353b 2cdf b3bc ee9b ad3c
00000070: 1cae 6fbc 2575 59bb e2fc bf3b 6af8 9b3b

layer1_task.2.running_mean f4 [32]
962.396 -7173.9985 -19154.82 -2507.1638 -747.27405 7796.317 -15207.701 -5415.508
-1648.3821 2350.8552 1550.9446 744.0717 -10338.444 -4998.649 -5723.326 5931.2446
11039.972 1697.5789 7504.765 -1362.3854 -26205.621 7897.568 6083.373 -10955.372
-3733.713 8022.6934 10692.887 -688.92316 -11149.462 14702.114 6953.753 6398.218
00000000: 5899 7044 fd2f e0c5 a4a5 95c6 9fb2 1cc5
00000010: 8ad1 3ac4 89a2 f345 ce9e 6dc6 103c a9c5
00000020: 3a0c cec4 afed 1245 3ade c144 9704 3a44
00000030: c789 21c6 3135 9cc5 9cda b2c5 f559 b945
00000040: e37f 2c46 8632 d444 1f86 ea45 554c aac4
00000050: 3ebb ccc6 8bcc f645 fc1a be45 7d2d 2bc6
00000060: 685b 69c5 8cb5 fa45 8c13 2746 153b 2cc4
00000070: d935 2ec6 75b8 6546 064e d945 bef1 c745

layer1_task.2.running_var f4 [32]
2.7389384e+07 1.2891794e+09 8.683522e+09 1.672105e+08 1.7042212e+07 9.287821e+08 5.173486e+09 6.768463e+08
3.3292268e+07 7.358009e+07 3.3701484e+07 1.4550675e+07 1.7628125e+09 5.689947e+08 7.907057e+08 8.530196e+08
3.0182953e+09 7.599473e+07 1.3819602e+09 4.285444e+07 1.7055952e+10 8.6621946e+08 8.58953e+08 2.7021143e+09
3.2027504e+08 1.5616855e+09 1.6202894e+09 1.3166065e+07 1.8107621e+09 3.305696e+09 1.2227721e+09 1.0068274e+09
00000000: e4f6 d04b a2ae 994e 0265 0150 e076 1f4d
00000010: 9205 824b 5c70 5d4e 912e 9a4f 6b5f 214e
00000020: f6ff fd4b c757 8c4c 9b8f 004c 9306 5e4b
00000030: c524 d24e aea8 074e d984 3c4e 2f60 4b4e
00000040: 88e7 334f cdf2 904c 14be a44e 0a7a 234c
00000050: 4b27 7e50 d785 4e4e 55ca 4c4e fe0e 214f
00000060: 13b8 984d dc2a ba4e 4f27 c14e f1e5 484b
00000070: 13dc d74e eb08 454f 0bc4 914e de0b 704e

layer1_1vm.0.weight f4 [64, 40]
0.012216307 0.103912495 0.038871206 -0.01824069 0.20071661 -0.03862295 0.034916226 -0.1131358
-0.0937631 -0.050132893 -0.08647308 -0.19505882 -0.075292535 -0.019351706 -0.17299648 0.08694629
-0.033255406 0.015558881 0.06743024 -0.24938706 0.27328965 -0.06260959 -0.06415026 -0.046265442
-0.10423823 -0.025482278 0.14158602 -0.17566034 0.010671876 -0.22117047 -0.22331567 -0.07211676
-0.0060053333 -0.006027056 0.21358396 0.018299282 0.12564836 -0.054560047 0.11921312 0.056206707
0.038534917 -0.1995511 0.092031136 0.24155395 0.058406726 0.13692391 -0.09035212 -0.006482496
-0.30132595 -0.075174175 -0.05173753 -0.0057547567 0.15450834 0.050269444 -0.14943175 -0.07469566
0.24848966 0.17400561 0.059558008 0.17565027 -0.06867253 -0.093951896 -0.10941366 0.12909293
-0.1815725 -0.11001082 0.043709744 0.22650976 0.18169892 -0.18994494 -0.0754353 -0.0022202013
0.09523224 0.06595816 0.08273683 -0.0039895233 -0.29068497 0.17570542 0.17409526 -0.01133136
-0.0069880923 -0.21589048 -0.07125584 0.046624716 -0.17474316 0.058690637 0.09124805 0.047091223
-0.19111995 -0.17152256 -0.013324273 0.049954966 0.017087597 0.029140059 0.005122845 -0.01677678
-0.074018165 0.19851121 0.010534367 0.0384951 0.061788425 -0.02523664 0.0711637 -0.10121926
0.17729871 -0.0027276105 -0.061233096 0.09779247 -0.1985919 -0.1245467 -0.13545279 0.011917273
0.053359803 -0.016531032 0.027827429 0.20211944 0.04191247 -0.030479766 0.08961444 -0.27081224
-0.11645742 -0.03758438 0.18431455 -0.17735282 0.020353049 0.060628496 -0.0073609147 0.0022407104
-0.08463193 -0.014956811 -0.029491207 0.09795873 0.011976157 -0.08272755 -0.19178523 -0.10915518
0.013406892 -0.13869622 0.0038379729 0.22232465 -0.0022936568 0.17932406 0.057472542 0.02202217
-0.18910727 0.07047789 0.16387868 0.0855336 0.10339055 0.27807087 -0.07272584 0.098430716
-0.322052 -0.22445971 -0.15210597 -0.23021516 0.066914946 0.12501669 -0.16793063 0.048828524
-0.10496219 -0.1296124 -0.23948152 -0.18820725 -0.2899603 -0.053613752 -0.09909006 0.081899814
0.10336977 0.09489561 0.09255181 -0.06301176 0.17660111 0.0774742 -0.13723126 0.019006614
-0.12739077 0.13157868 0.034870986 0.15185389 -0.053093895 -0.10695429 0.14408953 0.22891489
0.1112951 0.038923547 -0.031036722 -0.14539713 -0.19995053 0.080467075 0.13908634 0.146777
0.046110015 0.26437372 -0.019542512 0.061207373 -0.18123005 -0.0439512 0.1802149 0.18915804
-0.068307795 -0.04004682 0.07482777 -0.04742761 0.03505777 0.07288364 0.009414514 0.04512816
0.054617878 0.10218897 -0.11910371 -0.16994238 0.08800871 0.06463581 0.05254108 0.15338895
0.28074 0.2740382 0.023113139 0.020815453 -0.06847598 0.14079523 0.017836748 0.24085405
0.04092765 -0.07530628 -0.0050287154 0.03787047 0.028681222 -0.0812234 0.03187664 0.072694086
-0.015215075 -0.28302696 0.018138057 -0.22097711 -0.07869287 -0.022123562 0.28986192 0.14660014
-0.12148413 -0.21450329 -0.0071170824 0.10264174 -0.0816649 -0.13796887 -0.08126497 -0.096698664
0.016817378 -0.06293032 -0.11555497 0.109181784 -0.26800868 0.02431709 -0.055757195 0.27599937
00000000: e826 483c 13d0 d43d 6a37 1f3d 806d 95bc
00000010: a888 4d3e 1933 1ebd 5104 0f3d beb3 e7bd
00000020: de06 c0bd 2658 4dbd cc18 b1bd 80bd 47be
00000030: f932 9abd 7887 9ebc fd25 31be e610 b23d
00000040: d236 08bd adea 7e3c de18 8a3d 525f 7fbe
00000050: 9fec 8b3e 7539 80bd 3661 83bd d580 3dbd
00000060: da7a d5bd 36c0 d0bc edfb 103e 4ee0 33be
00000070: 18d9 2e3c 837a 62be ddac 64be f4b1 93bd
00000080: 63c8 c4bb 9c7e c5bb c1b5 5a3e 60e8 953c
00000090: f7a9 003e 5b7a 5fbd 0226 f43d 0139 663d
000000a0: cad6 1d3d 2057 4cbe d27a bc3d eb59 773e
000000b0: e43b 6f3d c835 0c3e 880a b9bd 1e6b d4bb
000000c0: 6547 9abe ebf4 99bd bbea 53bd 6692 bcbb
000000d0: 6f37 1e3e 55e7 4d3d a304 19be 0afa 98bd
000000e0: 1374 7e3e 872e 323e 19f3 733d aadd 333e
000000f0: 2fa4 8cbd da69 c0bd 4514 e0bd f030 043e
00000100: 24ee 39be 5a4d e1bd fd08 333d 2df2 673e
00000110: 480f 3a3e ed80 42be d37d 9abd cc80 11bb
00000120: 1f09 c33d 1215 873d ed71 a93d 8cba 82bb
00000130: a9d4 94be 1fec 333e 0746 323e 2ba7 39bc
00000140: 5efc e4bb 6512 5dbe 95ee 91bd 8ff9 3e3d
00000150: dfef 32be 9865 703d 42e0 ba3d bae2 403d
00000160: f3b4 43be 9ca3 2fbe 0d4e 5abc 949d 4c3d
00000170: 4afb 8b3c 22b7 ee3c 8add a73b 756f 89bc
00000180: d696 97bd 8646 4b3e 5698 2c3c 0aad 1d3d
00000190: dc15 7d3d 12bd cebc 46be 913d 0b4c cfbd
000001a0: cb8d 353e b6c1 32bb 8ecf 7abd 6b47 c83d
000001b0: ad5b 4bbe 5712 ffbd 23b4 0abe aa40 433c
000001c0: cf8f 5a3d 166c 87bc 59f6 e33c 66f8 4e3e
000001d0: 69ac 2b3d b4b0 f9bc c787 b73d e7a7 8abe
000001e0: 3a81 eebd 14f2 19bd f4bc 3c3e fa9b 35be
000001f0: 70bb a63c 9655 783d d433 f1bb e2d8 123b
00000200: 8153 adbd 6a0d 75bc 8b97 f1bc 969e c83d
00000210: a537 443c 106d a9bd 5963 44be c08c dfbd
00000220: 95a8 5b3c 6206 0ebe 8086 7b3b 13a9 633e
00000230: 2d51 16bb baa0 373e 5468 6b3d d667 b43c
00000240: 56a5 41be b656 903d d0cf 273e 3d2c af3d
00000250: 6dbe d33d 4e5f 8e3e 49f1 94bd 0b96 c93d
00000260: 00e4 a4be c4d8 65be abc1 1bbe 86bd 6bbe
00000270: b40a 893d 6004 003e 02f6 2bbe 6b00 483d
00000280: 6bf6 d6bd 1db9 04be a53a 75be 67b9 40be
00000290: ad75 94be 189a 5bbd bbef cabd 17bb a73d
000002a0: 88b3 d33d a158 c23d ce8b bd3d 4f0c 81bd
000002b0: ecd6 343e cbaa 9e3d 5a86 0cbe c2b3 9b3c
000002c0: ba72 02be 90bc 063e e1d4 0e3d 967f 1b3e
000002d0: fc78 59bd da0a dbbd 358c 133e aa68 6a3e
000002e0: afee e33d 4c6e 1f3d b940 febc fce2 14be
000002f0: d5bf 4cbe eccb a43d a66c 0e3e b64c 163e
00000300: dbdd 3c3d fe5b 873e 9e17 a0bc 95b4 7a3d
00000310: 5f94 39be 2c06 34bd 418a 383e a5b2 413e
00000320: f5e4 8bbd 2208 24bd 4d3f 993d 7443 42bd
00000330: bc98 0f3d 0544 953d 553f 1a3c 4ed8 383d
00000340: ffb6 5f3d 7348 d13d a5ec f3bd 6005 2ebe
00000350: e93d b43d c85f 843d 5135 573d fe11 1d3e
00000360: 27bd 8f3e bc4e 8c3e c457 bd3c 2b85 aa3c
00000370: 223d 8cbd a02c 103e 5f1e 923c 72a2 763e
00000380: c0a3 273d 2e3a 9abd ecc7 a4bb 111e 1b3d
00000390: e2f4 ea3c 7458 a6bd 1491 023d a3e0 943d
000003a0: a648 79bc e9e8 90be 4396 943c d347 62be
000003b0: ba29 a1bd 793c b5bc c868 943e 591e 163e
000003c0: accc f8bd c0a6 5bbe 6a36 e9bb d535 d23d
000003d0: ed3f a7bd b647 0dbe 406e a6bd f309 c6bd
000003e0: 99c4 893c 9de1 80bd 16a8 ecbd b39a df3d
000003f0: 6f38 89be a234 c73c a861 64bd ca4f 8d3e

layer1_1vm.0.bias f4 [64]
0.011034253 0.002442934 -0.0007702953 0.00091292453 0.0023321027 0.0063064937 0.0040844083 0.002411818
0.0023831076 -0.00091018673 0.0083024185 0.0031522573 5.8747857e-05 0.0076334537 0.002227314 0.007902494
-0.0022555003 -0.0017640379 -0.0064492803 0.0025343471 0.0006673323 0.003114913 -0.002817845 -0.0007686367
0.00038945168 0.006826494 0.005398197 7.034185e-05 0.007863252 -0.004764277 0.0011915598 0.001088088
0.00253426 -0.001265047 0.0053327503 0.0032769502 -3.9804552e-05 -0.0014416373 -0.0045648036 -0.00044690724
0.0006196073 -0.0022408466 0.0009656012 -0.003357933 0.002279251 0.008293535 -0.0041445307 0.0010296687
0.0010690575 0.0024977762 -0.0011482086 0.0010680705 -0.005507015 0.003987169 0.0034130067 -0.00072855275
0.004496445 0.0017221307 -0.00094010675 -0.0059648897 -0.0065272446 0.0019227028 -0.009940225 -0.0031423224
00000000: 03c9 343c a219 203b a4ed 49ba 5451 6f3a
00000010: 31d6 183b b4a6 ce3b 80d6 853b 970f 1e3b
00000020: e92d 1c3b 9999 6eba de06 083c 1a96 4e3b
00000030: 0868 7638 0d22 fa3b 21f8 113b 7679 013c
00000040: 04d1 13bb 4a37 e7ba 7c54 d3bb 4a17 263b
00000050: eaef 2e3a 9123 4c3b 98ab 38bb 567e 49ba
00000060: 522f cc39 c8b0 df3b 5ce3 b03b 7e84 9338
00000070: dfd4 003c a71d 9cbb 1d2e 9c3a 2d9e 8e3a
00000080: d415 263b efcf a5ba 5abe ae3b 1ac2 563b
00000090: d0f3 26b8 52f5 bcba 5994 95bb e04e eab9
000000a0: 246d 223a 2bdb 12bb 6620 7d3a c410 5cbb
000000b0: 7d5f 153b 9be1 073c d8ce 87bb f3f5 863a
000000c0: 9e1f 8c3a bbb1 233b 7d7f 96ba 80fe 8b3a
000000d0: 3174 b4bb cca6 823b c0ac 5f3b 59fc 3eba
000000e0: ea56 933b 1eb9 e13a 7f71 76ba 1f75 c3bb
000000f0: 7fe2 d5bb 3303 fc3a 53dc 22bc 6cef 4dbb

layer1_1vm.2.weight f4 [64]
1.004109 0.99279815 1.0041924 0.9930322 1.0011456 0.9986623 0.9886041 0.99358606
0.9908518 1.0016061 1.0003057 1.0099846 0.99507684 0.9909862 0.9951106 0.994596
1.0099592 1.0038345 0.9992136 1.0082241 1.0109767 1.0041041 1.0119674 0.99925834
0.9955958 0.997243 0.99038625 1.0087614 0.99835014 1.0071555 1.0028691 0.9976485
0.9906105 1.0105405 1.0121269 0.9983819 0.99396825 1.001894 1.0100207 0.9940264
1.0088497 0.9908781 0.9848361 1.0003419 1.0041068 0.98452216 1.0027345 1.0087042
1.0037518 1.0068657 0.99848443 0.9980638 1.0092787 1.0027112 0.99774617 0.9888216
1.0083109 0.9996825 0.99294496 1.0043756 0.9967986 0.9950664 1.0063083 0.99951464
00000000: a586 803f 0528 7e3f 6089 803f 5c37 7e3f
00000010: 8a25 803f 55a8 7f3f 2915 7d3f a85b 7e3f
00000020: 77a8 7d3f a134 803f 040a 803f 2d47 813f
00000030: 5bbd 7e3f 46b1 7d3f 91bf 7e3f d89d 7e3f
00000040: 5846 813f a67d 803f 76cc 7f3f 7d0d 813f
00000050: af67 813f 7c86 803f 2688 813f 65cf 7f3f
00000060: 5edf 7e3f 514b 7f3f f489 7d3f 181f 813f
00000070: e093 7f3f 79ea 803f 045e 803f e465 7f3f
00000080: a698 7d3f 6459 813f 608d 813f f595 7f3f
00000090: b474 7e3f 103e 803f 5c48 813f 8478 7e3f
000000a0: fd21 813f 30aa 7d3f 381e 7c3f 340b 803f
000000b0: 9286 803f a509 7c3f 9b59 803f 381d 813f
000000c0: f07a 803f fae0 803f ad9c 7f3f 1c81 7f3f
000000d0: 0b30 813f d758 803f 4b6c 7f3f 6a23 7d3f
000000e0: 5510 813f 31eb 7f3f a431 7e3f 618f 803f
000000f0: 312e 7f3f acbc 7e3f b6ce 803f 31e0 7f3f

layer1_1vm.2.bias f4 [64]
0.0032420524 -0.006541567 0.0030748132 -0.006707223 0.00047684263 -0.00089294906 -0.011296291 -0.006413096
-0.008665212 0.0012705963 0.003923085 0.008528206 -0.0049611563 -0.009170821 -0.004275894 -0.004686093
0.009489405 0.005231683 0.00011741603 0.008690725 0.01131021 0.0056549273 0.012507581 -0.0009138413
-0.0030738362 -0.0028094165 -0.010268727 0.009582969 -0.003050019 0.006037186 0.0016764177 -0.0020172454
-0.010731953 0.008898286 0.012672777 -0.0011906188 -0.006263926 0.0023347568 0.011782788 -0.0065657464
0.008677958 -0.009485832 -0.014349921 -0.00090926467 0.0043696924 -0.013995846 0.003295711 0.0067326557
0.003955152 0.008434104 -0.0025468739 -0.0010353383 0.010187071 0.0031002455 -0.0032147227 -0.010873185
0.0058888104 0.0051467763 -0.0054355874 0.0035667852 -0.004540905 -0.0045601227 0.0055793454 -0.0017152935
00000000: 9d78 543b a45a d6bb ce82 493b 44c8 dbbb
00000010: bc00 fa39 cc14 6aba 1414 39bc f324 d2bb
00000020: 89f8 0dbc 238a a63a 398d 803b e3b9 0b3c
00000030: 3291 a2bb 3641 16bc cc1c 8cbb cc8d 99bb
00000040: 7379 1b3c 8a6e ab3b 403d f638 8b63 0e3c
00000050: 764e 393c f84c b93b 99ec 4c3c da8e 6fba
00000060: 6a72 49bb 301e 38bb 2a3e 28bc e301 1d3c
00000070: d4e2 47bb 96d3 c53b 3ebb db3a c333 04bb
00000080: 13d5 2fbc 1eca 113c 7ba1 4f3c 8a0e 9cba
00000090: 9f41 cdbb b802 193b 980c 413c 7925 d7bb
000000a0: fe2d 0e3c 776a 1bbc ee1b 6bbc b85b 6eba
000000b0: a32f 8f3b d54e 65bc dbfc 573b 9c9d dc3b
000000c0: 389a 813b 322f 0a3c 74e9 26bb 30b4 87ba
000000d0: ace7 263c 7d2d 4b3b 19ae 52bb 7125 32bc
000000e0: ecf6 c03b 4aa6 a83b 031d b2bb bac0 693b
000000f0: dfcb 94bb 156d 95bb f1d2 b63b b3d3 e0ba

layer1_1vm.2.running_mean f4 [64]
7191.7783 -1165.1514 1923.702 -12678.912 1052.0029 7512.8096 2393.1409 10080.151
-9601.616 -4951.667 1514.8022 9455.301 -3195.6177 7830.534 12346.875 10353.595
7732.5796 10841.956 12331.29 4215.1357 -4600.899 4684.7886 1150.1628 -2600.963
-6178.051 4594.569 11755.532 -10757.257 7864.6914 8103.5786 22450.814 -8326.962
9473.63 1946.6163 4428.3687 -719.4164 7706.8555 287.17004 -1826.1714 -8483.423
3360.1047 -12278.684 16813.934 10788.767 3278.8318 2462.386 -481.5963 -8102.298
914.49365 1064.5963 -18144.592 -4124.051 -960.62744 7061.49 6071.9497 -7044.97
445.48425 3178.3147 -7579.234 -3825.1145 12253.814 9731.8545 -780.1449 -8259.446
00000000: 3abe e045 d8a4 91c4 7776 f044 a61b 46c6
00000010: 1880 8344 7ac6 ea45 4192 1545 9b80 1d46
00000020: 7706 16c6 56bd 9ac5 ac59 bd44 34bd 1346
00000030: e2b9 47c5 46b4 f445 80eb 4046 61c6 2146
00000040: a3a4 f145 d367 2946 29ad 4046 16b9 8345
00000050: 31c7 8fc5 4f66 9245 36c5 8f44 688f 22c5
00000060: 6810 c1c5 8d94 8f45 21ae 3746 0715 28c6
00000070: 88c5 f545 a13c fd45 a165 af46 d91b 02c6
00000080: 8506 1446 b953 f344 f362 8a45 a6da 33c4
00000090: d8d6 f045 c495 8f43 7c45 e4c4 b18d 04c6
000000a0: ad01 5245 bcda 3fc6 de5b 8346 1193 2846
000000b0: 4fed 4c45 2de6 1945 54cc f0c3 6232 fdc5
000000c0: 989f 6444 1513 8544 2fc1 8dc6 68e0 80c5
000000d0: 2828 70c4 ecab dc45 99bf bd45 c327 dcc5
000000e0: fcbd de43 09a5 4645 dfd9 ecc5 d511 6fc5
000000f0: 4277 3f46 6b0f 1846 4609 43c4 c90d 01c6

layer1_1vm.2.running_var f4 [64]
1.4647471e+07 502606.66 1.2571519e+06 4.548375e+07 347029.75 1.5590657e+07 2.0834595e+06 2.9091512e+07
2.7548082e+07 7.606146e+06 698985.94 2.842984e+07 2.8770995e+06 1.635763e+07 4.184456e+07 3.0755264e+07
1.7788958e+07 3.8797036e+07 3.790942e+07 5.7285685e+06 6.1490875e+06 6.137338e+06 422606.16 1.7994249e+06
1.0137225e+07 6.112238e+06 4.247679e+07 3.0398572e+07 1.6152971e+07 1.984193e+07 1.4866805e+08 1.662364e+07
2.6184968e+07 1.315319e+06 5.8732205e+06 225158.23 1.8396166e+07 116402.336 912213.94 2.04423e+07
3.3488478e+06 4.224398e+07 6.757451e+07 3.3550436e+07 3.468448e+06 2.0226601e+06 180801.31 1.8567276e+07
342084.28 414252.88 9.171145e+07 5.658331e+06 344296.47 1.4888463e+07 1.0955692e+07 1.4515296e+07
146178.78 2.759259e+06 1.6669507e+07 5.0795965e+06 4.2380624e+07 2.9076e+07 325453.9 2.1841176e+07
00000000: af80 5f4b d569 f548 ff75 9949 ba81 2d4c
00000010: b872 a948 01e5 6d4b 1c54 fe49 5cf3 dd4b
00000020: d92c d24b 041f e84a 9fa6 2a49 08e7 d84b
00000030: ae9a 2f4a fe98 794b d49f 1f4c e0a4 ea4b
00000040: 0fb8 874b bbff 134c eb9c 104c 71d2 ae4a
00000050: bfa7 bb4a f44b bb4a c559 ce48 07a8 db49
00000060: 89ae 1a4b dc87 ba4a 3e09 224c 36ec e74b
00000070: 8b79 764b c561 974b e9c7 0d4d 18a8 7d4b
00000080: 84c6 c74b b88f a049 893c b34a 8fe1 5b48
00000090: 035a 8c4b 2b59 e347 5fb5 5e49 5ef6 9b4b
000000a0: bf65 4c4a e325 214c 5ee3 804c 32f8 ff4b
000000b0: 80b2 534a 21e8 f649 5490 3048 36a8 8d4b
000000c0: 8908 a748 9c45 ca48 fbec ae4c b6ad ac4a
000000d0: 0f1d a848 0f2e 634b ac2b 274b 607c 5d4b
000000e0: b2c0 0e48 6c69 284a 435b 7e4b 5904 9b4a
000000f0: 54ab 214c 10d5 dd4b bde9 9e48 8ca2 a64b

layer1_2vm.0.weight f4 [32, 64]
0.11877394 0.005483201 0.085950784 -0.07015459 0.21659803 0.016129944 0.16017365 -0.008746555
0.05097214 -0.13201442 0.0897881 0.028267073 0.06412011 -0.12460278 0.24919946 -0.12893194
-0.048712466 0.003909676 0.1839014 0.06688033 -0.23207006 -0.21744686 -0.07566481 -0.012479635
-0.012862957 -0.004171766 -0.027207036 0.034512293 0.022686688 -0.059630286 0.09349644 -0.28097275
-0.13672467 0.13188487 0.112456866 -0.058742315 -0.18590775 0.08468323 -0.15236102 -0.102410495
0.10486601 0.09118165 -0.002230423 0.18869579 -0.04354702 0.029402122 -0.2593372 -0.105968975
-0.098684676 0.13118716 -0.07078659 -0.1916595 0.1670886 -0.02818579 0.04990595 -0.1394677
-0.10122188 0.27776572 -0.0676285 -0.28262463 0.112498604 -0.03144733 -0.16068065 -0.11121569
0.1012978 0.11900052 0.16597432 -0.18325679 0.1803998 0.036418334 -0.3325405 -0.1923039
0.17220894 -0.19013028 0.20870365 -0.065407686 -0.15922162 -0.11083117 -0.20035389 -0.14508966
-0.08189606 -0.004046985 0.47850707 0.23515676 -0.25164893 -0.0021545042 -0.12244786 0.018911052
0.03111936 0.011683665 0.067231804 -0.076758675 0.061612487 0.035567608 -0.067149684 0.16765442
0.090377666 -0.27571723 -0.22702391 -0.057437193 0.099361025 -0.26940393 -0.08765154 -0.12257331
-0.18066104 0.020199765 0.017339103 -0.18414296 0.014788634 -0.07409624 -0.113021426 0.102303855
-0.20333809 -0.16352502 -0.03910069 0.060493086 -0.19119927 -0.08574434 0.027986092 0.12574784
-0.027313553 -0.22858745 0.0931604 0.12297006 -0.076791294 -0.0058246544 0.17374107 -0.0367909
-0.2462923 0.0915148 0.03605286 0.07349862 0.11619874 0.27405524 -0.17282277 -0.2283609
0.22262272 -0.19729364 0.18655542 -0.14272113 -0.3568289 0.13434878 0.094632626 0.2340739
0.14988661 0.074268 -0.10194506 -0.18584609 -0.18752736 0.120838985 -0.1560457 0.08808161
-0.25721422 0.18390165 -0.29371947 0.023933392 0.0580319 -0.113383785 -0.15536554 -0.120617904
-0.075370036 0.047898456 0.14448299 -0.08456914 0.20778003 -0.09522635 0.04682139 0.02088971
0.011060592 -0.23801671 0.06241083 -0.024919374 0.03186174 0.06375121 0.10379844 -0.112341546
-0.10023036 -0.16391198 -0.12626137 0.10265201 -0.14509742 0.03999795 -0.039660607 -0.15624009
0.3643806 -0.022804406 0.18563941 0.07395839 0.10839773 0.13173437 -0.14671399 -0.08735164
0.0015441338 -0.140281 0.021545203 -0.017987853 -0.057134215 0.0780927 0.009652782 -0.14424257
-0.00985316 0.15084442 -0.05053934 -0.20948601 0.13355817 -0.05542931 -0.26719534 -0.1150506
0.004700431 0.06887734 -0.0085844835 -0.087201804 0.22342503 0.08295465 0.018943045 0.0753752
-0.045307834 -0.25247747 0.047891445 -0.069094606 -0.056288276 -0.063868664 0.16197658 -0.19295278
-0.0068237497 -0.03572804 -0.05147469 0.17201644 0.04734544 -0.0026584389 -0.08084541 -0.010722765
0.004049534 0.13169569 0.011379628 -0.03937481 0.14027542 0.20103884 0.28575018 0.01865996
0.05668826 -0.21214643 0.046971153 -0.05279063 -0.17846404 0.090778 0.15946302 0.078842334
0.17442842 0.020573763 -0.014759068 -0.29547495 -0.0128188385 -0.27774015 -0.103955396 0.06488643
00000000: c03f f33d 6cac b33b f706 b03d 36ad 8fbd
00000010: e0cb 5d3e f222 843c 9004 243e b64d 0fbc
00000020: 2ac8 503d ca2e 07be d3e2 b73d 5990 e73c
00000030: 6751 833d be2f ffbd 252e 7f3e bc06 04be
00000040: b986 47bd bd1c 803b a650 3c3e 8ef8 883d
00000050: c6a3 6dbe 64aa 5ebe 27f6 9abd 6277 4cbc
00000060: 27bf 52bc 4fb3 88bb 4ae1 debc c35c 0d3d
00000070: 6fd9 b93c e33e 74bd 107b bf3d a9db 8fbe
00000080: 8d01 0cbe d40c 073e c94f e63d c89b 70bd
00000090: 9a5e 3ebe 676e ad3d 8704 1cbe 98bc d1bd
000000a0: fec3 d63d 72bd ba3d 4a2c 12bb 7839 413e
000000b0: 5c5e 32bd b8dc f03c d8c7 84be 4306 d9bd
000000c0: 311b cabd ed55 063e 8ff8 90bd 6342 44be
000000d0: 4619 2b3e e3e5 e6bc 2e6a 4c3d 9fd0 0ebe
000000e0: 6b4d cfbd 4f37 8e3e d080 8abd 2db4 90be
000000f0: ab65 e63d eace 00bd 7889 24be 0dc5 e3bd
00000100: 3975 cf3d 8bb6 f33d 2cf5 293e aba7 3bbe
00000110: baba 383e 642b 153d c042 aabe 50eb 44be
00000120: 8a57 303e 83b1 42be 69b6 553e 77f4 85bd
00000130: fe0a 23be 74fb e2bd 9229 4dbe 6292 14be
00000140: 1fb9 a7bd 929c 84bb e1fe f43e efcc 703e
00000150: 21d8 80be 9532 0dbb f2c5 fabd 5aeb 9a3c
00000160: 07ee fe3c d86c 3f3c d4b0 893d a733 9dbd
00000170: 605d 7c3d 57af 113d c685 89bd 9aad 2b3e
00000180: ed17 b93d cf2a 8dbe f578 68be 4343 6bbd
00000190: cb7d cb3d 50ef 89be a782 b3bd b707 fbbd
000001a0: 35ff 38be fa79 a53c bc0a 8e3c f98f 3cbe
000001b0: 074c 723c c5bf 97bd c777 e7bd af84 d13d
000001c0: dc37 50be 1a73 27be 0c28 20bd 99c7 773d
000001d0: bec9 43be bb9a afbd 1743 e53c 0bc4 003e
000001e0: acc0 dfbc d412 6abe e1ca be3d bad7 fb3d
000001f0: c144 9dbd bedc bebb 2ee9 313e 0eb2 16bd
00000200: 0c34 7cbe 1d6c bb3d 2aac 133d 7286 963d
00000210: 9bf9 ed3d f850 8c3e 74f8 30be 71d7 69be
00000220: 36f7 633e 5807 4abe 6208 3f3e 7d25 12be
00000230: 47b2 b6be ba92 093e c0ce c13d 12b1 6f3e
00000240: e07b 193e d219 983d 92c8 d0bd 704e 3ebe
00000250: 2c07 40be 6e7a f73d 72ca 1fbe 2264 b43d
00000260: 95b1 83be b750 3c3e 6662 96be f60f c43c
00000270: dcb2 6d3d c235 e8bd 2518 1fbe 8506 f7bd
00000280: 9b5b 9abd 2c31 443d 59f3 133e 9632 adbd
00000290: 4ac4 543e 0806 c3bd c9c7 3f3d e620 ab3c
000002a0: 7c37 353c a7ba 73be 80a2 7f3d b723 ccbc
000002b0: 7581 023d ff8f 823d 4794 d43d 5313 e6bd
000002c0: 9345 cdbd 8bd8 27be a94a 01be 383b d23d
000002d0: 6b94 14be e4d4 233d 2973 22bd 67fd 1fbe
000002e0: 1890 ba3e 4ed0 babc 4218 3e3e 7f77 973d
000002f0: a1ff dd3d 60e5 063e 313c 16be 6be5 b2bd
00000300: 8864 ca3a d3a5 0fbe 917f b03c 435b 93bc
00000310: 9105 6abd 11ef 9f3d b426 1e3c 53b4 13be
00000320: 266f 21bc f676 1a3e 5702 4fbd 8083 56be
00000330: 79c3 083e d809 63bd d4cd 88be a69f ebbd
00000340: 1306 9a3b 900f 8d3d efa5 0cbc dc96 b2bd
00000350: 88c9 643e 21e4 a93d 722e 9b3c 505e 9a3d
00000360: b594 39bd ba44 81be d229 443d 7981 8dbd
00000370: 898e 66bd 93cd 82bd 30dd 253e 6a95 45be
00000380: c399 dfbb 9157 12bd 20d7 52bd 1425 303e
00000390: 4bed 413d 3439 2ebb 4792 a5bd 89ae 2fbc
000003a0: f4b1 843b 3cdb 063e 9f71 3a3c 7b47 21bd
000003b0: 5ca4 0f3e 20dd 4d3e d94d 923e c6dc 983c
000003c0: f331 683d ea3c 59be d364 403d fd3a 58bd
000003d0: 47bf 36be d1e9 b93d 464a 233e 1778 a13d
000003e0: 5d9d 323e 4f8a a83c 05d0 71bc 7e48 97be
000003f0: 1b06 52bc f533 8ebe 91e6 d4bd 2de3 843d

layer1_2vm.0.bias f4 [32]
0.011333343 -0.012170069 0.0046360856 0.0035934811 -0.001449845 -0.0011685637 0.009577958 -0.0024936358
-0.014374811 -0.0066296663 -0.004526628 -4.068797e-05 -0.0022330335 -0.0058355266 -0.016147632 0.015246568
-0.008768229 -0.0055648973 -0.0017323664 -0.016016321 -0.0018020724 0.012092253 -0.001878336 -0.009088696
0.010569676 0.00094272173 -5.8376754e-05 -0.006587928 -0.014031259 0.008051002 0.0033514719 0.009730721
00000000: 7caf 393c f864 47bc 4eea 973b 9c80 6b3b
00000010: ba08 beba 7e2a 99ba deec 1c3c 446c 23bb
00000020: 5484 6bbc ac3d d9bb 1c54 94bb 60a8 2ab8
00000030: 1658 12bb f237 bfbb 0a48 84bc becc 793c
00000040: 9ea8 0fbc be59 b6bb 9210 e3ba a934 83bc
00000050: 8433 ecba 961e 463c 7f32 f6ba c1e8 14bc
00000060: 6f2c 2d3c fc20 773a 90d9 74b8 8cdf d7bb
00000070: 5ee3 65bc 5ae8 033c 5ea4 5b3b 9a6d 1f3c

layer1_2vm.2.weight f4 [32]
1.0033795 1.0152776 1.0134335 1.0170405 1.0057302 0.99862456 1.0046242 1.01041
1.006392 0.9798813 1.0029528 1.0036315 0.98617786 0.98589206 1.0057613 0.99105763
0.97796 0.9828637 0.99511594 0.97686565 1.0027921 1.0061367 1.0002159 0.99347675
1.0087795 0.9914234 0.98488456 0.9967688 0.9876439 1.0180258 1.0111779 0.99076927
00000000: bd6e 803f 9ef4 813f 30b8 813f 622e 823f
00000010: c4bb 803f dca5 7f3f 8797 803f 1d55 813f
00000020: 74d1 803f 80d9 7a3f c260 803f ff76 803f
00000030: 2776 7c3f 6c63 7c3f c9bc 803f f4b5 7d3f
00000040: 965b 7a3f f59c 7b3f ebbf 7e3f de13 7a3f
00000050: 7e5b 803f 16c9 803f 1307 803f 7e54 7e3f
00000060: b01f 813f edcd 7d3f 6521 7c3f 3d2c 7f3f
00000070: 3bd6 7c3f ab4e 823f 476e 813f 0ea3 7d3f

layer1_2vm.2.bias f4 [32]
-0.00015147263 0.021121839 0.010461198 0.02901838 0.0026154194 -0.0030058322 0.0044780085 0.004195592
-0.00918263 -0.018847212 -0.0020656942 0.00899127 -0.011447892 -0.011386664 0.017677184 -0.00409616
-0.018603278 -0.007986444 0.0006134849 -0.020573515 -0.0028650148 0.010253878 0.019700913 -0.010918818
0.00736431 -0.007933809 -0.010393418 -0.0036020384 -0.017367644 0.022715647 0.008628652 -0.01553913
00000000: a0d4 1eb9 b507 ad3c 7265 2b3c f4b7 ed3c
00000010: 7567 2b3b 7ffd 44bb 42bc 923b 2d7b 893b
00000020: be72 16bc 7865 9abc 9960 07bb 1f50 133c
00000030: f08f 3bbc 218f 3abc becf 903c 1539 86bb
00000040: e765 98bc 93d9 02bc 46d2 203a ca89 a8bc
00000050: f9c2 3bbb e2ff 273c cf63 a13c d8e4 32bc
00000060: 4f50 f13b cffc 01bc 2849 2abc 2d10 6cbb
00000070: 9746 8ebc 2a16 ba3c 315f 0d3c d697 7ebc

layer1_2vm.2.running_mean f4 [32]
-0.34628654 -0.58750176 -0.19342744 -0.18635271 -0.45374468 0.20476043 -0.44756645 0.11594844
0.44297463 -0.394582 0.389515 0.58399504 -0.16442893 -0.0040395614 -0.35275343 -0.40621328
-0.44279262 -0.1791074 0.5140342 0.1024403 -0.8439742 0.38120145 -0.42567685 -0.16581158
-0.08417372 0.5062125 -0.013311071 0.5215079 0.06850632 0.5283395 0.4215616 -0.22734135
00000000: 784c b1be 8466 16bf d811 46be 3fd3 3ebe
00000010: 3951 e8be b8ac 513e 6e27 e5be 6076 ed3d
00000020: 92cd e23e a706 cabe 836e c73e b380 153f
00000030: 0f60 28be 4c5e 84bb 199c b4be 30fb cfbe
00000040: b7b5 e2be ee67 37be bf97 033f 38cc d13d
00000050: b10e 58bf d62c c33e 51f2 d9be 83ca 29be
00000060: 4563 acbd 2497 013f ae16 5abc 8b81 053f
00000070: 0b4d 8c3d 4241 073f ecd6 d73e 2ccc 68be

layer1_2vm.2.running_var f4 [32]
0.5490364 0.5688815 0.6445497 0.5086805 0.58211064 0.6011381 0.56779355 0.5491201
0.40220904 0.5986164 0.57179964 0.6081467 0.5360221 0.6705341 0.53428936 0.7224311
0.42020005 0.43856734 0.7392443 0.47463125 0.9323033 0.57034457 0.57151544 0.51411843
0.51539505 0.45895958 0.4499458 0.51594526 0.47604886 0.7139395 0.52765477 0.5415262
00000000: a68d 0c3f 38a2 113f 3601 253f e338 023f
00000010: 3405 153f 30e4 193f eb5a 113f 2393 0c3f
00000020: 58ee cd3e ed3e 193f 7661 123f 81af 1b3f
00000030: bf38 093f 1fa8 2b3f 30c7 083f 3ff1 383f
00000040: 7624 d73e e68b e03e 1d3f 3d3f de02 f33e
00000050: 6eab 6e3f 1a02 123f d64e 123f 449d 033f
00000060: eef0 033f c0fc ea3e 4c5f e63e fd14 043f
00000070: adbc f33e bdc4 363f 6214 073f 76a1 0a3f

layer2.0.weight f4 [32, 64]
-0.006346061 -0.013043236 -0.04562608 0.24071252 0.07785187 0.09261931 0.25805992 0.06809734
0.11335968 -0.1135272 0.2137402 0.04041352 -0.07691672 0.002833289 -0.014493833 -0.02219575
0.26421767 -0.18428715 -0.12980346 -0.10942171 0.07039845 0.049608044 -0.052005682 -0.07045615
0.16348684 0.013104527 -0.19265944 0.21619046 -0.17928949 0.06466464 0.07285381 0.11415463
-0.14877525 0.26557276 0.06561538 0.15607576 0.23381005 0.14326707 -0.008979824 0.0325752
-0.061964814 -0.112724476 -0.08519625 0.1361445 -0.10342022 -0.032741062 0.39765015 -0.08379798
-0.08641467 -0.12473828 0.041136075 -0.18099275 -0.019578578 0.13979618 0.38282648 -0.16374876
-0.11945811 -0.1451963 -0.20062354 0.051275693 -0.13102399 0.05287764 0.18461865 -0.29511532
0.13925064 -0.0023266606 -0.018414091 0.0027530289 0.23152274 -0.0370499 -0.110594556 0.002555889
-0.2593309 -0.009844359 0.21634506 -0.060495846 -0.030929836 0.030855868 0.19569363 0.04781661
0.13628109 0.06929356 -0.05281199 0.05851304 -0.32071328 0.13840777 -0.037765704 0.14796205
-0.01883603 0.11655022 0.016181482 -0.04355655 0.06294966 -0.20856564 0.22805327 -0.17800766
-0.08506923 -0.1013956 -0.022856094 -0.15789662 -0.042737607 0.044206638 -0.028970324 0.087343924
0.053634934 0.42549962 -0.13708615 -0.2590626 0.11613929 0.10236262 0.09368828 -0.38156727
-0.08236381 -0.02784902 0.16302572 0.114357136 -0.013227964 -0.038974285 -0.13456179 -0.12303878
-0.11370304 -0.11996795 -0.1396368 -0.011027643 -0.016646296 0.018395301 0.03170636 0.24332935
-0.13143548 -0.013899753 -0.13206518 0.08181031 0.14296576 0.0004939467 -0.04209444 0.18020624
0.04927261 0.14274621 0.15001042 -0.16286814 0.12976095 0.049060713 0.04434897 -0.0600167
-0.007932989 0.061539177 -0.1251277 0.18670605 0.21286538 0.051020887 -0.04713529 0.011556912
0.0033566623 -0.27999738 -0.020632885 0.014724903 -0.020229707 0.21224193 0.021840557 -0.10564345
0.21824196 0.03698297 0.35912818 0.06914513 0.093531184 -0.117198154 -0.08653797 -0.005838038
-0.08199468 0.022432797 -0.14761667 -0.074682854 0.20447977 0.21084835 -0.06747647 0.0085072005
-0.05056846 0.17703685 -0.22500436 -0.08069612 0.00870486 0.08131551 -0.06461054 0.080042
-0.154052 -0.10561367 0.06858747 0.13348736 -0.106791206 0.16448668 0.08454712 0.18507256
-0.0049470984 -0.076988734 0.09157658 -0.16565944 0.16877972 0.18662043 -0.2404703 -0.20175007
-0.09868756 0.20373307 -0.08629044 -0.024861833 -0.043317366 -0.082267106 0.10027931 -0.05997876
0.20848113 0.17530642 0.2564531 0.20358709 -0.10151656 0.33435637 0.0015734646 0.1901193
-0.14139013 0.09495112 0.064615466 -0.04257483 -0.23888257 0.14602363 0.10963644 0.032176163
0.025897536 0.2485096 -0.23898743 0.1925719 -0.33656672 -0.08167174 -0.064953074 0.08269617
0.028811602 -0.00048387097 0.030824702 0.22932656 0.017853206 0.25889945 0.13103062 -0.108101904
-0.0996314 -0.06774102 0.15147178 -0.04951528 -0.073550366 -0.003968328 0.09895758 -0.05316271
0.07851965 -0.0671482 0.0014651674 0.15202206 0.27734223 0.08023694 0.3046777 0.014897003
00000000: 9ef2 cfbb 4cb3 55bc 6ae2 3abd 587d 763e
00000010: cd70 9f3d 31af bd3d 6e20 843e 9e76 8b3d
00000020: 1f29 e83d f380 e8bd b6de 5a3e a688 253d
00000030: 8386 9dbd b4ae 393b 8b77 6dbc ddd3 b5bc
00000040: 8a47 873e c5b5 3cbe 33eb 04be 7d18 e0bd
00000050: 102d 903d ce31 4b3d e903 55bd 504b 90bd
00000060: 1869 273e 5fb4 563c 8448 45be 0861 5d3e
00000070: aa97 37be e56e 843d 6134 953d e7c9 e93d
00000080: 8a58 18be 27f9 873e 5b61 863d 53d2 1f3e
00000090: e76b 6f3e 9ab4 123e 1d20 13bc 936d 053d
000000a0: d1ce 7dbd 17dc e6bd 5f7b aebd 7769 0b3e
000000b0: fbcd d3bd 7e1b 06bd cd98 cb3e 469e abbd
000000c0: 2dfa b0bd c976 ffbd 4d7e 283d 2a56 39be
000000d0: 4163 a0bc bb26 0f3e d501 c43e c1ad 27be
000000e0: 74a6 f4bd 57ae 14be 4270 4dbe 7606 523d
000000f0: 272b 06be 3996 583d ac0c 3d3e 5b19 97be
00000100: b897 0e3e e37a 18bb 26d9 96bc 296c 343b
00000110: 4c14 6d3e a3c1 17bd 667f e2bd b480 273b
00000120: 05c7 84be 3c4a 21bc 8f89 5d3e 7eca 77bd
00000130: 9160 fdbc 72c5 fc3c e963 483e 5adb 433d
00000140: 458d 0b3e c8e9 8d3d 6351 58bd 5fab 6f3d
00000150: 8834 a4be c4ba 0d3e 36b0 1abd 5d83 173e
00000160: 054e 9abc e2b1 ee3d 078f 843c 5a68 32bd
00000170: c0eb 803d 3b92 55be cc86 693e a447 36be
00000180: c738 aebd 7fa8 cfbd b43c bbbc a7af 21be
00000190: a10d 2fbd 0512 353d 2c53 edbc 5fe1 b23d
000001a0: 4eb0 5b3d 16db d93e 5060 0cbe daa3 84be
000001b0: 70da ed3d 7ea3 d13d a4df bf3d c95c c3be
000001c0: 5bae a8bd a123 e4bc 37f0 263e 1334 ea3d
000001d0: 1aba 58bc 80a3 1fbd 91ca 09be c2fb fbbd
000001e0: 24dd e8bd c2b1 f5bd f3fc 0ebe 4aad 34bc
000001f0: d05d 88bc beb1 963c 87de 013d 542b 793e
00000200: 0697 06be cabb 63bc 183c 07be 2a8c a73d
00000210: 9e65 123e 347c 013a 386b 2cbd fc87 383e
00000220: 14d2 493d 102c 123e 559c 193e e8c6 26be
00000230: 0ee0 043e e3f3 483d 44a7 353d 12d4 75bd
00000240: 5ef9 01bc 8110 7c3d 7a21 00be df2f 3f3e
00000250: 62f9 593e 47fb 503d ef10 41bd 3459 3d3c
00000260: 73fb 5b3b d15b 8fbe 4c06 a9bc b840 713c
00000270: c5b8 a5bc f355 593e f8ea b23c 985b d8bd
00000280: d27a 5f3e 747b 173d a6df b73e f69b 8d3d
00000290: 478d bf3d 9605 f0bd d23a b1bd 034d bfbb
000002a0: d4ec a7bd fcc4 b73c d328 17be 53f3 98bd
000002b0: 2563 513e a1e8 573e 1a31 8abd c961 0b3c
000002c0: e020 4fbd 2649 353e 8b67 66be 0244 a5bd
000002d0: d49e 0e3c bf88 a63d 8852 84bd 0fed a33d
000002e0: cfbf 1dbe fb4b d8bd 9677 8c3d e9b0 083e
000002f0: 59b5 dabd 326f 283e 0a27 ad3d a983 3d3e
00000300: 451b a2bb 45ac 9dbd 818c bb3d a1a2 29be
00000310: 97d4 2c3e 6d19 3f3e d93d 76be 9297 4ebe
00000320: b41c cabd 679f 503e 0bb9 b0bd 0bab cbbc
00000330: 8d6d 31bd a87b a8bd 3d5f cd3d 4aac 75bd
00000340: 147c 553e 8783 333e d24d 833e 2279 503e
00000350: eae7 cfbd c230 ab3e b63c ce3a a2ae 423e
00000360: 93c8 10be bc75 c23d 1d55 843d f262 2ebd
00000370: a29d 74be 3887 153e 1289 e03d 27cb 033d
00000380: 1227 d43c 4d79 7e3e 1fb9 74be 9131 453e
00000390: 7952 acbe 8343 a7bd 1e06 85bd 9c5c a93d
000003a0: 4f06 ec3c 10b0 fdb9 1684 fc3c 95d4 6a3e
000003b0: e340 923c 788e 843e e42c 063e 8864 ddbd
000003c0: 8c0b ccbd cebb 8abd 6b1b 1b3e 89d0 4abd
000003d0: 93a1 96bd bf08 82bb 46aa ca3d 24c1 59bd
000003e0: e9ce a03d ff84 89bd dc0a c03a acab 1b3e
000003f0: cdff 8d3e 4453 a43d b7fe 9b3e 8f12 743c

layer2.0.bias f4 [32]
0.050244723 -0.038088817 0.032069005 0.031869516 -0.021704422 -0.023534626 -0.035648607 -0.016040917
0.017386528 -0.008034113 0.034254465 0.018690549 0.0044247615 -0.017776381 -0.010528702 -0.008714188
-0.012400229 -0.01096722 0.0053163692 0.04753032 0.01160598 -0.013204881 0.023235068 -0.035820536
0.0021793437 0.013793625 -0.0048020454 0.0026240814 -0.03921456 -0.015795706 0.0017747908 0.013472414
00000000: 69cd 4d3d 0503 1cbd ca5a 033d 9c89 023d
00000010: 79cd b1bc b0cb c0bc 4604 12bd 3e68 83bc
00000020: 316e 8e3c 83a1 03bc 694e 0c3d ec1c 993c
00000030: 97fd 903b c69f 91bc 9480 2cbc f4c5 0ebc
00000040: 552a 4bbc dbaf 33bc f034 ae3b 27af 423d
00000050: 0227 3e3c 4959 58bc 7857 be3c 8eb8 12bd
00000060: 52d3 0e3b a8fe 613c 7a5a 9dbb c8f8 2b3b
00000070: 729f 20bd ff65 81bc 19a0 e83a 66bb 5c3c

layer2.2.weight f4 [32]
1.0504394 0.95146674 1.0339038 1.0446767 1.0509549 0.9920221 0.9450965 0.98215413
1.0501565 0.94834393 1.0548024 0.94677275 0.9465115 1.0341933 0.97177434 0.989968
0.945549 0.97954667 0.95534986 1.0544071 0.95697963 1.0323845 1.02325 0.94944525
1.0193223 0.9465027 0.99901986 1.000511 0.94968885 0.97277856 1.0331969 0.96721804
00000000: cc74 863f 5393 733f f656 843f f7b7 853f
00000010: b185 863f 29f5 7d3f d8f1 713f 746e 7b3f
00000020: 876b 863f abc6 723f c403 873f b35f 723f
00000030: 944e 723f 7260 843f 34c6 783f 8b6e 7d3f
00000040: 800f 723f 92c3 7a3f cf91 743f d0f6 863f
00000050: 9efc 743f 2d25 843f dbf9 823f d80e 733f
00000060: 2779 823f 004e 723f c4bf 7f3f bf10 803f
00000070: cf1e 733f 0408 793f cc3f 843f 9a9b 773f

layer2.2.bias f4 [32]
0.05124544 -0.048928995 0.03401653 0.04583343 0.050974596 -0.0231709 -0.056043617 -0.019951984
0.051447164 -0.051509596 0.05307887 -0.053263605 -0.05330668 0.038245942 -0.03190179 -0.013019601
-0.052513897 -0.018132834 -0.045927864 0.053465106 -0.043248896 0.035269007 0.026480176 -0.038644347
0.02007401 -0.053539835 -0.0022556502 0.002048958 -0.048024006 -0.021200027 0.035909805 -0.03255761
00000000: bde6 513d c569 48bd eb54 0b3d d6bb 3b3d
00000010: bdca 503d e6d0 bdbc fe8d 65bd 5872 a3bc
00000020: 43ba 523d bafb 52bd 3b69 593d f02a 5abd
00000030: 1b58 5abd c7a7 1c3d 74ab 02bd 2a50 55bc
00000040: d018 57bd 4f8b 94bc db1e 3cbd 3afe 5a3d
00000050: c125 31bd 3c76 103d f4ec d83c 8949 1ebd
00000060: 4072 a43c 964c 5bbd 88d3 13bb d047 063b
00000070: d2b4 44bd aeab adbc 2916 133d 215b 05bd

layer2.2.running_mean f4 [32]
0.3940572 0.009923215 0.44689712 0.7327974 -0.37728262 0.25581908 0.012468374 0.14391983
0.78457636 -0.014888364 0.7473444 -0.49179482 -0.015283327 -0.22704872 0.028612694 -0.13441329
0.8598898 0.51725805 -0.06343893 0.5352149 -0.568624 -0.31780255 0.2402025 0.2411757
-0.53033906 -0.09516525 0.019242037 -0.33401865 0.034975458 0.09378469 -0.5487345 -0.49971136
00000000: dec1 c93e fb94 223c b3cf e43e 9c98 3b3f
00000010: 302b c1be b8fa 823e 2748 4c3c b85f 133e
00000020: ffd9 483f 53ee 73bc f651 3f3f 88cc fbbe
00000030: eb66 7abc 767f 68be 2b65 ea3c a3a3 09be
00000040: bd21 5c3f 066b 043f 45ec 81bd d803 093f
00000050: 5891 11bf 04b7 a2be a5f7 753e c3f6 763e
00000060: 4dc4 07bf 00e6 c2bd 7aa1 9d3c 7e04 abbe
00000070: 6d42 0f3d 3012 c03d dd79 0cbf 2bda ffbe

layer2.2.running_var f4 [32]
0.6513385 0.5696575 0.60559154 1.4241303 0.63698983 0.52391577 0.56790596 0.5437719
1.0094117 0.6511411 0.7562187 0.4901838 0.971487 0.7060527 0.43328497 0.60305506
0.98299706 0.62430817 0.68055826 0.63085616 0.7232915 0.62959427 0.32159925 0.74923784
0.6908973 0.624423 0.46496186 0.830126 0.6272683 0.48534426 0.47434574 0.70861906
00000000: 1fbe 263f 13d5 113f 0c08 1b3f e749 b63f
00000010: c411 233f 581f 063f 4962 113f a334 0b3f
00000020: 6734 813f 2fb1 263f 8c97 413f 5ff9 fa3e
00000030: 5fb3 783f dfbf 343f 87d7 dd3e d161 1a3f
00000040: b2a5 7b3f a9d2 1f3f 1139 2e3f ca7f 213f
00000050: a229 393f 172d 213f a8a8 a43e 0dce 3f3f
00000060: a5de 303f 30da 1f3f 7b0f ee3e 2383 543f
00000070: a894 203f 0b7f f83e 72dd f23e 0f68 353f

fc_advantage.0.weight f4 [20, 32]
-0.26291275 -0.16365273 0.502354 0.028915752 -0.16653298 -0.08489417 -0.16824175 -0.12489784
0.14601345 -0.04562871 -0.05971566 -0.06711576 -0.12864862 0.05213996 0.1722237 0.13993727
-0.1870055 0.18139108 -0.08044656 -0.08982546 0.0331689 0.07459864 -0.2744577 -0.13949041
0.10743037 -0.12932754 0.033866245 0.11976512 -0.20025495 0.050339006 -0.26578417 -0.17762604
-0.029459935 -0.18664235 -0.41056335 -0.25896654 0.056123585 -0.18974912 -0.25072324 -0.34978175
-0.00050045503 0.2088968 0.14057043 0.10664894 0.16373533 -0.18783137 0.098570116 -0.15694602
-0.051202826 -0.35872877 -0.19189955 -0.13168296 0.144035 -0.35901275 0.23335841 0.019270245
-0.21051794 -0.27574307 0.10108306 0.1337729 0.15752181 -0.017081982 0.021173652 -0.11289591
0.04865306 0.09521247 -0.4278201 0.08973731 -0.007690711 -0.01575353 -0.124439195 -0.06722719
-0.10880048 -0.2343734 0.074674465 -0.22523732 -0.02270504 -0.11578945 0.11862723 0.115810126
-0.023405531 0.022635637 0.3427447 -0.25058863 0.06508595 -0.19120204 -0.21644902 -0.16165318
-0.14001167 -0.37230733 0.047930628 -0.052715097 0.25802305 -0.23375064 0.22293745 0.13860849
-0.1897217 -0.16659006 -0.30143687 -0.27027658 0.12735493 0.090207286 -0.15063499 -0.221213
0.2133127 0.04659345 0.5413668 0.00030834926 -0.18544506 -0.017597085 -0.23663692 0.13168098
0.21637668 -0.31099316 0.093878366 -0.016604718 0.2019051 -0.019733079 -0.1062662 0.13659537
-0.27614278 0.021758469 -0.27177966 0.18608055 0.07983078 -0.19625224 0.08260753 -0.17449579
-0.16553551 -0.09057502 0.19935106 0.3000422 0.17171323 -0.38243085 -0.33000848 0.13952321
-0.08178436 0.34848168 0.13585266 0.035150684 0.3376441 -0.096732065 -0.21288644 -0.41280726
0.062375262 0.06464642 -0.12430946 0.22973959 -0.25786403 0.018815901 -0.24074401 -0.26004758
0.16457932 0.20572402 0.20894554 -0.33033788 -0.093598895 0.10828789 -0.18524094 0.216007
0.012260456 0.025195213 -0.3184854 -0.006385092 0.29673657 -0.18449284 0.04008799 0.3175033
-0.027153973 0.09625789 -0.20980969 0.4325989 0.22917762 0.12596539 -0.2331005 0.022708185
-0.0138775315 -0.04742994 -0.23821007 0.34150165 -0.20151106 -0.42988425 -0.025808612 0.032399435
0.25312865 0.15658207 -0.09877936 -0.131906 0.012149258 -0.1387211 0.07029572 -0.12753278
0.14381304 0.0055209612 -0.10563064 -0.0024012355 -0.2353345 0.38043028 0.079762675 0.23514965
-0.16868097 0.19115376 -0.19746295 -0.081882045 -0.12762597 -0.4250887 -0.31126967 -0.15775713
-0.20109576 -0.28715107 -0.18250395 0.176288 -0.41391793 -0.035387922 0.12819988 0.08934584
-0.008596551 0.25326136 -0.013647536 0.13336317 -0.17537335 -0.19812031 -0.31906503 0.0412885
-0.22252339 -0.08424454 -0.06452634 -0.13248672 0.13590783 -0.011147356 0.21588722 0.15145053
-0.030093836 -0.17370681 -0.1306626 -0.17286028 -0.43468285 0.13047533 0.30418494 0.35225126
0.08650489 -0.24652654 -0.08544431 0.31528774 0.126764 -0.19383441 -0.021183433 -0.06462351
-0.2781071 0.047733247 -0.06469843 0.15936187 0.18438034 -0.039881676 0.10061468 0.035930015
00000000: 809c 86be 9594 27be 469a 003f bae0 ec3c
00000010: 9f87 2abe ffdc adbd 9147 2cbe 70ca ffbd
00000020: 8d84 153e 2ce5 3abd 6898 74bd fd73 89bd
00000030: 77bc 03be b690 553d 695b 303e b74b 0f3e
00000040: 5f7e 3fbe 95be 393e 2bc1 a4bd 69f6 b7bd
00000050: 1ddc 073d 2cc7 983d b885 8cbe 93d6 0ebe
00000060: 7404 dc3d 706e 04be 55b7 0a3d 6a47 f53d
00000070: a20f 4dbe 4630 4e3d dd14 88be 9ae3 35be
00000080: f655 f1bc 2c1f 3fbe 5c35 d2be 4397 84be
00000090: d8e1 653d 984d 42be cc5e 80be 9816 b3be
000000a0: f830 03ba 0be9 553e b2f1 0f3e c26a da3d
000000b0: 3caa 273e de56 40be 21df c93d 75b6 20be
000000c0: 0eba 51bd 4cab b7be 5181 44be e6d7 06be
000000d0: e97d 133e 85d0 b7be 82f5 6e3e a2dc 9d3c
000000e0: 0492 57be 322e 8dbe a304 cf3d c3fb 083e
000000f0: 664d 213e 83ef 8bbc 5e74 ad3c f935 e7bd
00000100: 6e48 473d c1fe c23d 3c0b dbbe 32c8 b73d
00000110: 5c02 fcbb 8c0d 81bc fad9 febd 69ae 89bd
00000120: c9d2 debd 95ff 6fbe edee 983d 9da4 66be
00000130: ecff b9bc 0523 edbd d5f2 f23d dc2d ed3d
00000140: f5bc bfbc 5f6e b93c 3c7c af3e 274d 80be
00000150: c84b 853d 78ca 43be d0a4 5dbe 6988 25be
00000160: 385f 0fbe 119f bebe e852 443d c9eb 57bd
00000170: 991b 843e 545c 6fbe b749 643e 62ef 0d3e
00000180: 6846 42be 9696 2abe ef55 9abe b161 8abe
00000190: 5569 023e 99be b83d 0f40 1abe a985 62be
000001a0: a56e 5a3e c6d8 3e3d 0497 0a3f f0a9 a139
000001b0: 4fe5 3dbe c327 90bc f350 72be 61d7 063e
000001c0: d991 5d3e 7f3a 9fbe 4d43 c03d 9e06 88bc
000001d0: 36c0 4e3e 44a7 a1bc 18a2 d9bd a8df 0b3e
000001e0: 9662 8dbe d13e b23c b426 8bbe e68b 3e3e
000001f0: 527e a33d 59f6 48be 232e a93d 06af 32be
00000200: 2482 29be 657f b9bd af22 4c3e 229f 993e
00000210: 98d5 2f3e facd c3be dff6 a8be 2cdf 0e3e
00000220: 8f7e a7bd 316c b23e f61c 0b3e 2afa 0f3d
00000230: b0df ac3e 761b c6bd e7fe 59be 795b d3be
00000240: 347d 7f3d 5865 843d f595 febd db40 6b3e
00000250: c106 84be ce23 9a3c 9985 76be f524 85be
00000260: 7b87 283e 51a9 523e d2f5 553e 0c22 a9be
00000270: c7b0 bfbd 0bc6 dd3d cdaf 3dbe f030 5d3e
00000280: 14e0 483c 3166 ce3c 8510 a3be 093a d1bb
00000290: dbed 973e b1eb 3cbe 4e33 243d cb8f a23e
000002a0: 0272 debc db22 c53d 5ad8 56be 9a7d dd3e
000002b0: 8aad 6a3e 12fd 003e e6b1 6ebe 8406 ba3c
000002c0: 965e 63bc e645 42bd 57ed 73be 4ed9 ae3e
000002d0: ea58 4ebe ca19 dcbe 956c d3bc 45b5 043d
000002e0: 149a 813e 0d57 203e d54c cabd 5e12 07be
000002f0: ae0d 473c e70c 0ebe 34f7 8f3d f497 02be
00000300: ba43 133e 2ee9 b43b e154 d8bd 0c5e 1dbb
00000310: 87fb 70be c2c7 c23e 9d5a a33d 12cb 703e
00000320: b4ba 2cbe d0bd 433e ba33 4abe c6b1 a7bd
00000330: 62b0 02be 3aa5 d9be bd5e 9fbe 168b 21be
00000340: 0cec 4dbe 7705 93be 51e2 3abe d784 343e
00000350: 0ded d3be edf2 10bd d446 033e f4fa b63d
00000360: 8cd8 0cbc 79ab 813e ea99 5fbc 5b90 083e
00000370: 1295 33be 0de0 4abe 7e5c a3be 211e 293d
00000380: 2cdd 63be 6788 acbd 6326 84bd 99aa 07be
00000390: 6c2b 0b3e 66a3 36bc 8a11 5d3e d915 1b3e
000003a0: 5987 f6bc 33e0 31be 6bcc 05be 4902 31be
000003b0: c08e debe 539b 053e 21be 9b3e 475a b43e
000003c0: 7a29 b13d 7471 7cbe 6dfd aebd 656d a13e
000003d0: 6cce 013e 877c 46be e188 adbc 5559 84bd
000003e0: 0e64 8ebe f083 433d 9c80 84bd c22f 233e
000003f0: 33ce 3c3e f85a 23bd 120f ce3d 5a2b 133d

fc_advantage.0.bias f4 [20]
-0.018960753 -0.053247403 -0.041168906 -0.043721784 -0.0371776 -0.04190852 -0.04816528 -0.04739731
-0.04374963 -0.02878755 -0.019737901 -0.029149078 -0.036426302 -0.037582457 0.017449494 0.010788276
0.0208237 0.010856519 1.6321894e-05 0.019463826
00000000: 9553 9bbc f319 5abd baa0 28bd 9d15 33bd
00000010: 8a47 18bd 45a8 2bbd f548 45bd af23 42bd
00000020: d032 33bd ded3 ebbc 61b1 a1bc 0cca eebc
00000030: bf33 15bd 10f0 19bd 3ef2 8e3c 4fc1 303c
00000040: 7796 aa3c 8bdf 313c 00eb 8837 9a72 9f3c

fc_value.0.weight f4 [1, 32]
0.6012377 -0.12643486 0.11275962 0.13713716 0.23435993 -0.05339441 -0.1277571 0.04022386
0.21844012 -0.17303398 0.20261613 -0.49343216 -0.41522366 0.0830866 -0.039088994 -0.018727241
-0.21086127 0.0049810987 -0.13396625 0.34533983 -0.04223394 0.06623051 0.06469154 -0.140487
-0.011397444 -0.21533497 0.0056396956 0.035798702 -0.10897208 0.0021177072 0.099506505 -0.03177257
00000000: b7ea 193f 2478 01be 84ee e63d af6d 0c3e
00000010: 0dfc 6f3e 19b4 5abd c2d2 02be c6c1 243d
00000020: c4ae 5f3e d22f 31be 9a7a 4f3e 24a3 fcbe
00000030: 3298 d4be 4f29 aa3d c81b 20bd df69 99bc
00000040: 04ec 57be 7c38 a33b 732e 09be 62d0 b03e
00000050: 7ffd 2cbd dda3 873d 007d 843d d3db 0fbe
00000060: 58bc 3abc c580 5cbe 32cd b83b a9a1 123d
00000070: c12c dfbd 3bc9 0a3b 11ca cb3d f423 02bd
