save/client-2/eval.pth (torch, 21957 bytes, 27 tensors)

layer1_task.0.weight f4 [16, 3]
-0.4277586 0.30189782 0.04723492 0.02425076 0.36848548 -0.103034355 0.5485622 0.17462333
-0.24705972 -0.5758989 0.47745895 0.1596378 -0.34009632 0.15870701 -0.28518862 -0.2653457
-0.32775676 0.14062311 0.5314273 0.15075481 0.058095578 -0.69175255 0.47292897 0.008936936
-0.6655895 -0.21752284 0.3985915 -0.65701354 0.13204966 -0.25083822 0.023228742 0.0485773
-0.06821682 0.015643524 0.15709423 -0.41249 0.017044108 0.11396938 -0.09796724 0.12146619
0.1200361 0.017021082 0.1211297 -0.13205715 -0.2466285 -0.023868842 -0.56890255 0.23125304
00000000: 2d03 dbbe 5a92 9a3e 6779 413d 88a9 c63c
00000010: 21aa bc3e ad03 d3bd 936e 0c3f 75d0 323e
00000020: 39fd 7cbe 1c6e 13bf 8075 f43e 1778 233e
00000030: 1b21 aebe 1784 223e 3e04 92be 64db 87be
00000040: bccf a7be 81ff 0f3e 9f0b 083f 785f 1a3e
00000050: a1f5 6d3d b216 31bf bf23 f23e 3a6c 123c
00000060: 1364 2abf 4fbe 5ebe 2f14 cc3e 0a32 28bf
00000070: 0738 073e de6d 80be 344a be3c fef8 463d
00000080: 43b5 8bbd d926 803c 4fdd 203e e431 d3be
00000090: 16a0 8b3c c768 e93d 0ca3 c8bd 44c3 f83d
000000a0: 7dd5 f53d cc6f 8b3c d912 f83d fd39 07be
000000b0: 2e8c 7cbe 9788 c3bc 99a3 11bf 99cd 6c3e

layer1_task.0.bias f4 [16]
-0.017597314 0.04958614 0.013764607 0.029509185 -0.019092957 0.016275005 0.0009274643 -0.015247444
-0.005963 -0.023184728 0.017302398 0.06431526 0.011165791 -0.026003134 -0.008939368 0.005868064
00000000: 3e28 90bc d61a 4b3d f284 613c 3fbd f13c
00000010: d568 9cbc 2953 853c 1321 733a 6ad0 79bc
00000020: 4565 c3bb e6ed bdbc c2bd 8d3c b8b7 833d
00000030: b9f0 363c 8604 d5bc 6d76 12bc e348 c03b

layer1_task.2.weight f4 [16]
1.006724 0.98436385 1.0651691 0.96713954 1.0273681 0.98634535 1.0051814 1.005291
1.0297817 1.0315193 0.99809396 1.0100604 1.0466546 1.0263013 0.9923274 1.011133
00000000: 55dc 803f 45ff 7b3f 7657 883f 7596 773f
00000010: cc80 833f 2181 7c3f c9a9 803f 60ad 803f
00000020: e3cf 833f d308 843f 1683 7f3f a949 813f
00000030: c7f8 853f d75d 833f 2b09 7e3f ce6c 813f

layer1_task.2.bias f4 [16]
0.0031488868 0.0023900028 0.07100426 -0.033075824 0.03334365 -0.011109913 0.0013017015 0.0025455353
0.031060772 0.030322945 0.021760063 0.02774345 0.049256362 0.019299153 -0.0064503504 0.013118365
00000000: 8e5d 4e3b 98a1 1c3b ae6a 913d 847a 07bd
00000010: 5a93 083d 5a06 36bc db9d aa3a ffd2 263b
00000020: 2973 fe3c d367 f83c 2942 b23c 3b46 e33c
00000030: 0ac1 493d 4219 9e3c 765d d3bb 69ee 563c

layer1_task.2.running_mean f4 [16]
-26731.918 1569.966 35923.484 -36553.543 -22490.086 -16942.695 35756.492 -43030.094
-42190.355 -44448.055 1487.3588 752.2692 1046.7692 7785.5166 7857.9854 -1428.8068
00000000: d6d7 d0c6 e93e c444 7c53 0c47 8bc9 0ec7
00000010: 2cb4 afc6 645d 84c6 7eac 0b47 1816 28c7
00000020: 5bce 24c7 0ea0 2dc7 7beb b944 3b11 3c44
00000030: 9dd8 8244 224c f345 e28f f545 d199 b2c4

layer1_task.2.running_var f4 [16]
2.2194944e+08 511719.38 3.165803e+08 3.8470653e+08 1.2635618e+08 7.950428e+07 2.7711965e+08 5.792359e+08
4.9620547e+08 4.159323e+08 528005.4 141951.95 275431.03 1.6614261e+07 1.4433587e+07 487589.53
00000000: e0aa 534d ecdc f948 0ef5 964d 3f71 b74d
00000010: 5a01 f14c 73a4 974c 1524 844d c119 0a4e
00000020: f59b ec4d fc54 c64d 56e8 0049 fd9f 0a48
00000030: e17c 8648 7583 7d4b 333d 5c4b b114 ee48

layer1_1vm.0.weight f4 [32, 40]
0.019723305 -0.17303663 0.15902722 0.18516973 -0.09681737 -0.092119336 -0.07904427 0.08473831
-0.20598337 -0.12004294 0.0996237 -0.2330808 -0.046346422 -0.15058775 -0.2888986 -0.032196544
-0.1712703 0.05008711 0.033399634 0.09252053 -0.33465102 -0.12755284 -0.14872864 -0.005780193
-0.13141182 0.13746235 -0.3050044 0.071584105 -0.13674897 -0.15596044 -0.28900218 0.056829132
-0.0048343837 0.22833899 0.16997537 0.3071894 -0.23302281 -0.048381187 -0.09229422 -0.23657058
0.08177943 -0.017318927 0.15997311 0.14975183 -0.07848693 -0.1587182 0.26149026 -0.06809402
-0.22388817 -0.08717581 0.0089487145 0.2850109 0.15896899 0.045642737 -0.13069837 -0.18926944
0.10676662 0.06522709 -0.27493963 -0.0053729685 0.37183538 -0.22242518 0.11806393 0.18960509
-0.022803714 0.16151989 0.20552082 -0.08604942 0.104879126 -0.24871235 0.20814079 0.14877155
-0.09936051 0.15126239 -0.051471323 -0.14689001 0.15124603 0.14159071 0.15274213 -0.091432475
0.13961846 0.17647588 -0.026923295 -0.020087972 0.19633213 -0.14256398 0.1789949 -0.11197143
0.29346925 -0.08250417 -0.09430189 -0.06772781 0.023641571 -0.4045844 -0.07807335 -0.06180795
0.19812252 0.01776438 -0.06162533 0.019984782 0.25808033 -0.25132087 0.19049028 0.050681178
-0.14606228 0.05386221 0.18064141 -0.117108904 -0.032573473 -0.08167243 0.031671926 -0.031483658
0.05373 -0.2665585 -0.111788236 0.04622159 -0.009734031 0.18662837 -0.11140176 0.1473993
0.28771955 -0.051846158 -0.31918907 0.17446777 -0.24035206 -0.0030953698 -0.0041146223 -0.23001763
0.048440862 -0.099740595 -0.089676365 -0.03739865 0.03404687 -0.19880813 0.03246634 -0.12072347
0.12141291 0.20894954 -0.17152318 -0.32817423 0.32459924 -0.0750129 -0.09744749 -0.2583172
0.032964587 0.30611715 -7.684915e-05 -0.15993997 -0.04763169 -0.1700645 0.3647884 -0.13565715
-0.09061757 0.059845068 -0.04874013 -0.0522879 0.33262646 0.083799176 0.37711 -0.011454092
0.12789153 0.035739664 0.06645118 0.026978819 0.044542227 0.15914533 0.027107036 0.013896545
-0.15308449 0.10794699 -0.0052074995 -0.203404 0.08726482 -0.08172481 0.37503004 -0.27676082
-0.28362617 0.011604987 -0.11055223 -0.19190118 -0.041042957 -0.025160966 -0.23977233 -0.064043686
-0.0060375473 -0.0071434146 -0.028446345 -0.016159844 -0.06749876 0.083153434 0.09931084 -0.17337939
-0.076121345 -0.053210683 -0.17859092 0.046094816 0.048158847 0.21862164 -0.08774218 -0.06599233
0.20307426 0.12386253 0.14277577 -0.03348304 0.36488983 0.042449765 0.13558795 -0.079483956
0.35558206 0.17440388 0.06268474 -0.120234534 -0.13586383 0.01800443 -0.1577519 0.06564663
0.25775203 0.11287286 -0.4249965 -0.21158771 0.31113967 -0.33093303 0.19425017 -0.016811537
0.008113836 0.18509105 -0.16746871 0.08841114 -0.07919891 0.005175094 -0.06750356 -0.21962981
-0.19640942 -0.06582245 0.2675442 0.1175984 0.21566373 -0.12270104 0.2880019 0.07913248
0.01933736 -0.17016236 -0.17883994 -0.11605323 0.053486973 -0.33161497 -0.101060145 0.21221833
-0.11792333 -0.316195 -0.12792066 0.24942438 -0.27131504 -0.2591875 0.22231747 0.09466047
00000000: c592 a13c 8430 31be 08d8 223e 229d 3d3e
00000010: 2f48 c6bd 10a9 bcbd f6e1 a1bd 478b ad3d
00000020: 4eed 52be 13d9 f5bd 8307 cc3d bcac 6ebe
00000030: bfd5 3dbd ad33 1abe 84ea 93be 86e0 03bd
00000040: 7b61 2fbe 2428 4d3d 0ece 083d 677b bd3d
00000050: 6157 abbe 369d 02be 524c 18be c667 bdbb
00000060: d290 06be eec2 0c3e 8929 9cbe b09a 923d
00000070: ec07 0cbe 18b4 1fbe 18f8 93be aac5 683d
00000080: c069 9ebb b2d1 693e 060e 2e3e ee47 9d3e
00000090: 889d 6ebe 5a2b 46bd c104 bdbd 8f3f 72be
000000a0: f97b a73d 6ce0 8dbc fecf 233e 8b58 193e
000000b0: c1bd a0bd 0687 22be 0de2 853e e174 8bbd
000000c0: f142 65be 3b89 b2bd a19d 123c f3ec 913e
000000d0: c4c8 223e e1f3 3a3d cbd5 05be d9cf 41be
000000e0: 75a8 da3d c895 853d e3c4 8cbe ba0f b0bb
000000f0: 3561 be3e 6dc3 63be 80cb f13d d627 423e
00000100: dbce babc 7865 253e 0d74 523e ae3a b0bd
00000110: deca d63d 73ae 7ebe dc22 553e 9257 183e
00000120: 867d cbbd 87e4 1a3e 98d3 52bd 566a 16be
00000130: 3de0 1a3e 28fd 103e 6f68 1c3e f340 bbbd
00000140: 24f8 0e3e 18b6 343e 3e8e dcbc 888f a4bc
00000150: 4a0b 493e 4bfc 11be 704a 373e 4751 e5bd
00000160: 9a41 963e f2f7 a8bd 5921 c1bd e1b4 8abd
00000170: f8ab c13c b025 cfbe ece4 9fbd 552a 7dbd
00000180: a1e0 4a3e 9b86 913c d86a 7cbd 20b7 a33c
00000190: 1b23 843e 21ad 80be e20f 433e 1197 4f3d
000001a0: 5a91 15be 9f9e 5c3d 10fa 383e cbd6 efbd
000001b0: c36b 05bd e043 a7bd 6cba 013d 02f5 00bd
000001c0: fd13 5c3d 5b7a 88be 3bf1 e4bd da52 3d3d
000001d0: 7c7b 1fbc 821b 3f3e 9b26 e4bd d8ef 163e
000001e0: fa4f 933e a35c 54bd c06c a3be aea7 323e
000001f0: da1e 76be b0db 4abb f4d3 86bb be89 6bbe
00000200: ed69 463d cc44 ccbd 3ea8 b7bd 542f 19bd
00000210: bb74 0b3d 5c94 4bbe 6dfb 043d de3d f7bd
00000220: 55a7 f83d def6 553e c6a3 2fbe 7406 a8be
00000230: df31 a63e 5da0 99bd 8d92 c7bd 2742 84be
00000240: e005 073d 63bb 9c3e 132a a1b8 4ec7 23be
00000250: 7219 43bd 6325 2ebe 8cc5 ba3e b5e9 0abe
00000260: b495 b9bd 1a20 753d bba3 47bd d62b 56bd
00000270: 044e aa3e e79e ab3d 9014 c13e f2a9 3bbc
00000280: fff5 023e c163 123d 8e17 883d af02 dd3c
00000290: e971 363d fef6 223e 930f de3c 56ae 633c
000002a0: 2ec2 1cbe 5013 dd3d aca3 aabb 2349 50be
000002b0: e6b7 b23d 565f a7bd f003 c03e 98b3 8dbe
000002c0: 7337 91be d822 3e3c 3569 e2bd be81 44be
000002d0: a91c 28bd 5f1e cebc e186 75be 5629 83bd
000002e0: 9ed6 c5bb 4e13 eabb 4f08 e9bc a661 84bc
000002f0: ca3c 8abd 594c aa3d 7b63 cb3d 5e8a 31be
00000300: 82e5 9bbd 72f3 59bd 8ae0 36be ebcd 3c3d
00000310: 3642 453d 5ade 5f3e 2cb2 b3bd fd26 87bd
00000320: b3f2 4f3e a3ab fd3d d033 123e 8325 09bd
00000330: d7d2 ba3e cedf 2d3d 91d7 0a3e 7cc8 a2bd
00000340: da0e b63e ee96 323e db60 803d 863d f6bd
00000350: e31f 0bbe 077e 933c b789 21be be71 863d
00000360: 13f8 833e e329 e73d 2499 d9be 73aa 58be
00000370: b34d 9f3e 0e70 a9be 84e9 463e 59b8 89bc
00000380: e5ef 043c 8288 3d3e eb7c 2bbe e610 b53d
00000390: 0a33 a2bd d693 a93b 4e3f 8abd a3e6 60be
000003a0: 8d1f 49be eccd 86bd 8efb 883e 6ed7 f03d
000003b0: f4d6 5c3e af4a fbbd fc74 933e 3610 a23d
000003c0: 6269 9e3c 0b3f 2ebe d121 37be 51ad edbd
000003d0: 2815 5b3d 70c9 a9be 9ff8 cebd c34f 593e
000003e0: c981 f1bd 50e4 a1be a2fd 02be 1b69 7f3e
000003f0: cee9 8abe 39b4 84be 31a7 633e 59dd c13d

layer1_1vm.0.bias f4 [32]
-0.051173557 -0.001263926 0.020447254 0.0029822611 -0.009837416 0.035478827 -0.048668765 0.033189014
0.040658094 -0.009153154 0.0032667452 -0.018653486 0.0062030274 -0.0020264639 -0.018106846 0.0013445481
3.412517e-05 -0.032560233 0.0188942 -0.010136112 0.04438884 -0.0073503545 -0.009332635 0.020669524
-0.004712425 0.0041790786 -0.01656652 -0.019473832 0.0070571555 0.0420165 0.024871875 0.038953256
00000000: 5d9b 51bd 52aa a5ba 0081 a73c 0a72 433b
00000010: 1d2d 21bc 3f52 113d e658 47bd 34f1 073d
00000020: 1a89 263d 1cf7 15bc e416 563b 32cf 98bc
00000030: c442 cb3b 6cce 04bb cf54 94bc 8c3b b03a
00000040: 9f21 0f38 e15d 05bd 02c8 9a3c ef11 26bc
00000050: 13d1 353d 3edb f0bb e9e7 18bc 2253 a93c
00000060: b06a 9abb a7f0 883b 83b6 87bc 9687 9fbc
00000070: b63f e73b 7e19 2c3d 1ac0 cb3c 738d 1f3d

layer1_1vm.2.weight f4 [32]
1.0300132 0.9922306 1.0009704 1.0152465 1.0165226 0.980922 1.0601326 0.97564834
1.0075349 1.0260913 0.99214816 0.962617 0.9637806 1.0091342 1.009498 1.0308609
1.0288256 1.0319372 0.96037954 0.99755645 0.9916385 0.963177 0.9715832 0.9963631
1.0039873 0.9973159 1.0003043 1.0170926 0.98370355 0.9936164 0.9974355 0.966737
00000000: 79d7 833f d302 7e3f cc1f 803f 99f3 813f
00000010: 6a1d 823f b41d 7b3f 6db2 873f 17c4 793f
00000020: e7f6 803f f656 833f 6cfd 7d3f 116e 763f
00000030: 53ba 763f 4f2b 813f 3b37 813f 40f3 833f
00000040: 8fb0 833f 8516 843f 6fdb 753f dc5f 7f3f
00000050: 05dc 7d3f c592 763f adb9 783f a711 7f3f
00000060: a882 803f 1850 7f3f f909 803f 1730 823f
00000070: ffd3 7b3f a55d 7e3f ef57 7f3f 137c 773f

layer1_1vm.2.bias f4 [32]
0.033671286 -0.015802365 0.026683923 0.010600293 0.01944208 -0.009594708 0.05826684 -0.02743483
0.007834154 -0.0064693205 0.0020968092 -0.031449813 -0.029146792 0.0074535375 0.008478218 0.029670782
0.027474038 0.03174944 -0.031410187 -0.001680284 -0.0053224904 -0.037239827 -0.028533239 -0.004448559
0.0052536284 -0.00583759 0.0053948658 0.021396637 -0.0152168535 -0.00060763524 -0.008527851 -0.015407275
00000000: e7ea 093d f673 81bc 3e98 da3c daac 2d3c
00000010: ff44 9f3c 1f33 1dbc 36a9 6e3d 02bf e0bc
00000020: d35a 003c 98fc d3bb 9f6a 093b 85d1 00bd
00000030: 41c5 eebc ce3c f43b 39e8 0a3c 2410 f33c
00000040: 3c11 e13c b30b 023d f8a7 00bd fa3c dcba
00000050: 4968 aebb ca88 18bd 8abe e9bc 38c5 91bb
00000060: a126 ac3b 4149 bfbb 6ac7 b03b 0048 af3c
00000070: 1c50 79bc b649 1fba 66b8 0bbc cc6e 7cbc

layer1_1vm.2.running_mean f4 [32]
-11982.192 6702.9116 3140.9778 6134.853 -3937.7273 6828.758 -9074.759 4004.6787
7643.428 1118.5804 -2683.0981 -4593.662 4422.5312 -5075.2373 -1637.6932 3764.1772
5536.8247 -5499.7095 -2251.4072 -6938.8076 7260.2373 -1664.1693 -1887.9807 -1797.1715
-2648.4329 6964.711 -3096.209 -7279.2256 11548.954 8630.639 7728.738 9737.169
00000000: c538 3bc6 4b77 d145 a54f 4445 d3b6 bf45
00000010: a31b 76c5 1066 d545 09cb 0dc6 dc4a 7a45
00000020: 6ddb ee45 93d2 8b44 92b1 27c5 4c8d 8fc5
00000030: 4034 8a45 e699 9ec5 2fb6 ccc4 d642 6b45
00000040: 9906 ad45 addd abc5 84b6 0cc5 76d6 d8c5
00000050: e6e1 e245 6b05 d0c4 62ff ebc4 7da5 e0c4
00000060: ed86 25c5 b0a5 d945 5883 41c5 ce79 e3c5
00000070: d173 3446 8eda 0646 e785 f145 ad24 1846

layer1_1vm.2.running_var f4 [32]
3.0691082e+07 1.177555e+07 2.3445362e+06 1.0364475e+07 3.9444148e+06 1.172997e+07 2.0166434e+07 4.1277332e+06
1.4718715e+07 382024.03 1.873679e+06 5.2440025e+06 5.3868635e+06 7.3972735e+06 708544.5 3.8377405e+06
7.3341375e+06 7.595212e+06 1.2752319e+06 1.4120256e+07 1.400458e+07 710641.0 865138.06 832033.9
1.9964462e+06 1.4275185e+07 2.294074e+06 1.4387939e+07 2.9375794e+07 2.045161e+07 1.6959378e+07 2.4887924e+07
00000000: 8527 ea4b 3eae 334b 6119 0f4a 3b26 1e4b
00000010: 7bbf 704a 32fc 324b 91db 994b d5ef 7b4a
00000020: fb96 604b 0189 ba48 78b8 e449 c508 a04a
00000030: df64 a44a 33bf e14a 08fc 2c49 b23c 6a4a
00000040: f3d1 df4a 98c9 e74a ffaa 9b49 4075 574b
00000050: 64b1 554b 107f 2d49 2137 5349 1e22 4b49
00000060: f2b4 f349 71d2 594b e804 0c4a e38a 5b4b
00000070: 991e e04b 8d08 9c4b c963 814b 3ae1 bd4b

layer1_2vm.0.weight f4 [16, 32]
0.055056214 0.04567495 -0.17810822 -0.09005823 -0.1384522 0.3154697 0.020001937 -0.017306592
-0.32503337 0.13391697 -0.14149526 0.17558017 0.2580585 0.30014306 -0.44606295 -0.27302295
-0.28313133 0.060128625 0.09933298 -0.10721444 -0.32555154 0.23202214 0.28877604 0.22674444
0.2639336 -0.11226901 -0.08359032 -0.16287003 -0.19229859 0.33743018 0.094462745 -0.22108091
-0.46077868 -0.14550495 -0.280546 0.09386224 -0.22169258 0.31561533 -0.12218697 0.020412216
0.2569987 0.10752159 0.0745097 0.020703463 0.0059093493 0.15955904 -0.019405177 0.47961488
0.08366432 0.14735079 0.27242842 0.3796404 -0.33208346 -0.33753192 -0.397888 -0.0876862
0.16205019 0.023695037 -0.10853993 0.2625378 0.13041401 0.08726179 -0.056337148 -0.3136871
-0.20246783 -0.16805121 -0.019969 0.064334296 -0.12608695 0.21192594 0.3660704 0.05568844
-0.30331227 0.09708095 0.13708684 -0.08195349 0.12600683 0.07927765 0.108721904 0.07264002
0.11925268 -0.19832094 0.20468654 0.3193339 -0.122175135 -0.335954 0.39747655 0.22213846
-0.21689294 0.012692492 -0.4535713 0.04958509 0.046697475 0.20950615 -0.049619608 0.07899708
0.22251524 0.07127865 -0.16230598 0.2102778 -0.1055718 -0.14443035 0.12598644 -0.34288454
0.38153064 0.020513713 0.16822606 -0.104145296 0.11068957 0.26002726 0.20030564 0.1750753
-0.10746387 0.11451198 0.11268137 0.0038638732 -0.035786908 -0.05144098 -0.03516964 0.022281168
0.05861692 0.16075261 0.32456627 -0.007522138 -0.08040562 -0.03531035 0.21318677 0.10713749
-0.0018050536 -0.16779526 0.08230767 0.36468634 0.041045234 0.018350858 0.25136086 0.47468606
-0.14092574 -0.2672919 0.1026049 -0.058922946 0.49012566 0.014996255 0.30073434 0.11715827
-0.4638903 -0.30354792 -0.14328393 0.18533513 -0.09591905 -0.13806108 -0.093039416 0.074570395
0.25333396 -0.47990605 0.16944225 0.52961296 -0.006193524 -0.1561811 0.20573324 0.07939601
0.45859367 -0.18833445 -0.24467301 -0.015758986 0.07841535 -0.104021676 -0.01257748 -0.072025925
-0.34490338 0.29378325 -0.003785149 0.48942176 0.09398389 0.0828817 -0.13205206 0.30420297
-0.23031211 0.16185756 0.2966501 -0.09541936 0.1775439 -0.2884249 0.11389968 0.20172143
-0.259787 -0.30079764 0.06277369 -0.09533362 0.46298796 -0.0068597575 0.22642337 -0.01227213
0.092552416 0.025352629 0.2964037 0.1881428 -0.22890043 -0.09349412 0.10255553 -0.25026935
0.034814216 -0.33931768 0.22247468 0.18962973 -0.011321337 -0.17063196 -0.0943102 -0.005432786
0.1503609 -0.2115403 0.07241702 0.23042174 0.29064986 0.1105036 0.14825678 -0.24651141
-0.13055407 -0.16281839 0.1327537 0.12393094 0.1881969 0.029746199 0.03905532 0.16808136
-0.13250686 0.13839331 -0.0015033591 -0.14638706 0.024781622 -0.021402605 -0.15841502 0.09829397
-0.5270778 0.06701144 0.15471376 0.18822904 0.022517966 0.21698648 -0.25666964 -0.31659943
-0.15722524 -0.06794856 0.037347466 -0.15309541 -0.0024034074 -0.03912352 0.06997803 0.029674254
0.062158637 0.010300522 -0.18758383 -0.13793151 0.21755114 -0.03294984 -0.11371993 -0.05918391
00000000: a082 613d a815 3b3d 0062 36be 7370 b8bd
00000010: 6ac6 0dbe 3f85 a13e 1adb a33c 8ec6 8dbc
00000020: c66a a6be 8821 093e 22e4 10be 4acb 333e
00000030: 3e20 843e 5aac 993e 5d62 e4be aac9 8bbe
00000040: 97f6 90be 6f49 763d 176f cb3d 3f93 dbbd
00000050: b1ae a6be 3697 6d3e 74da 933e b22f 683e
00000060: 4e22 873e 4bed e5bd 6731 abbd 67c7 26be
00000070: ece9 44be a6c3 ac3e af75 c13d 0963 62be
00000080: 2feb ebbe 40ff 14be baa3 8fbe d93a c03d
00000090: 6103 63be 5598 a13e 2a3d fabd 8537 a73c
000000a0: 5595 833e 4834 dc3d 8b98 983d 4f9a a93c
000000b0: 37a3 c13b 7263 233e 9bf7 9ebc 1590 f53e
000000c0: 3358 ab3d 20e3 163e bd7b 8b3e 3a60 c23e
000000d0: d806 aabe fcd0 acbe fab7 cbbe d394 b3bd
000000e0: 7cf0 253e 181c c23c 2f4a debd 5b6b 863e
000000f0: 408b 053e 4fb6 b23d c8c1 66bd 989b a0be
00000100: ba53 4fbe 9e15 2cbe 0796 a3bc b3c1 833d
00000110: f01c 01be 1d03 593e 946d bb3e 9019 643d
00000120: bf4b 9bbe 61d2 c63d 7e60 0c3e 3bd7 a7bd
00000130: ef07 013e 525c a23d 97a9 de3d 4ac4 943d
00000140: c03a f43d a514 4bbe 5999 513e bc7f a33e
00000150: f536 fabd 2a02 acbe 0c82 cb3e 4478 633e
00000160: 2f19 5ebe 2cf4 4f3c 7f3a e8be bc19 4b3d
00000170: da45 3f3d c888 563e ee3d 4bbd 39c9 a13d
00000180: 09db 633e 8afa 913d 8a33 26be 1053 573e
00000190: 0736 d8bd 8de5 13be 9702 013e 908e afbe
000001a0: fc57 c33e 600c a83c 7443 2c3e 214a d5bd
000001b0: 37b1 e23d 4b22 853e ec1c 4d3e f046 333e
000001c0: 0416 dcbd 4285 ea3d 7dc5 e63d 0939 7d3b
000001d0: 4b95 12bd c7b3 52bd 0a0e 10bd ff86 b63c
000001e0: 4c18 703d 559c 243e 8d2d a63e 447c f6bb
000001f0: b4ab a4bd 96a1 10bd a24d 5a3e e66a db3d
00000200: 8c97 ecba 85d2 2bbe ec90 a83d 2bb8 ba3e
00000210: 0c1f 283d 8a54 963c 5fb2 803e 0d0a f33e
00000220: d64e 10be 7cda 88be 8522 d23d 3059 71bd
00000230: c0f1 fa3e dab2 753c daf9 993e adf0 ef3d
00000240: 0883 edbe a26a 9bbe 06b9 12be 7ec8 3d3e
00000250: 3571 c4bd e25f 0dbe 738b bebd 5db8 983d
00000260: fdb4 813e 3fb6 f5be 4582 2d3e b794 073f
00000270: 0cf3 cabb f0ed 1fbe bcab 523e 609a a23d
00000280: cacc ea3e bfda 40be 908b 7abe fd18 81bc
00000290: 3a98 a03d 5109 d5bd c611 4ebc 5482 93bd
000002a0: 2d97 b0be c26a 963e 4310 78bb 7d95 fa3e
000002b0: a07a c03d e1bd a93d a838 07be 7ec0 9b3e
000002c0: f0d6 6bbe fdbd 253e 86e2 973e 3a6b c3bd
000002d0: 11ce 353e 6eac 93be 3c44 e93d 1090 4e3e
000002e0: cd02 85be 2602 9abe 7e8f 803d 463e c3bd
000002f0: c20c ed3e d1c7 e0bb 87db 673e 0b11 49bc
00000300: 1f8c bd3d 51b0 cf3c 3ac2 973e 82a8 403e
00000310: e064 6abe d879 bfbd a208 d23d 4e23 80be
00000320: 5a99 0e3d 0cbb adbe 67d0 633e 4c2e 423e
00000330: 217d 39bc 25ba 2ebe b525 c1bd 8305 b2bb
00000340: 35f8 193e 059e 58be 604f 943d adf3 6b3e
00000350: 0fd0 943e b64f e23d a0d0 173e 7d6d 7cbe
00000360: f7af 05be ddb9 26be 96f0 073e 81cf fd3d
00000370: b0b6 403e 4dae f33c 79f8 1f3d 851d 2c3e
00000380: e1af 07be fab6 0d3e 5c0c c5ba 7de6 15be
00000390: d402 cb3c 8454 afbc 8c37 22be 594e c93d
000003a0: 92ee 06bf 4b3d 893d 496d 1e3e 1dbf 403e
000003b0: 9977 b83c b431 5e3e 346a 83be 5219 a2be
000003c0: a7ff 20be 9d28 8bbd a8f9 183d 0bc5 1cbe
000003d0: 7c82 1dbb fc3f 20bd a450 8f3d 6c17 f33c
000003e0: 0e9a 7e3d 85c3 283c fa15 40be eb3d 0dbe
000003f0: bac5 5e3e 69f6 06bd ffe5 e8bd d46a 72bd

layer1_2vm.0.bias f4 [16]
-0.022041067 0.0036690964 0.012546818 0.0064793173 0.018885124 -0.008206701 0.024419233 -0.030909501
0.022214618 -0.010824116 -0.032036312 0.010710293 -0.008157293 0.0031730714 0.039657988 0.0012255157
00000000: 788f b4bc 3975 703b 2b91 4d3c 7450 d43b
00000010: fab4 9a3c 6675 06bc d80a c83c ec35 fdbc
00000020: 6efb b53c a257 31bc 8238 03bd 3a7a 2f3c
00000030: 2ba6 05bc 4ef3 4f3b 6a70 223d 7ca1 a03a

layer1_2vm.2.weight f4 [16]
0.92343104 0.9879907 1.0308533 1.0185039 0.9942999 0.9599089 0.9600535 1.0373478
1.0262916 1.0076088 0.93627226 0.9968572 0.9937369 1.010904 0.96491206 0.9694151
00000000: fa65 6c3f f5ec 7c3f 00f3 833f 565e 823f
00000010: 708a 7e3f 97bc 753f 11c6 753f d0c7 843f
00000020: 865d 833f 53f9 803f 8aaf 6f3f 0932 7f3f
00000030: 8b65 7e3f 4d65 813f 7a04 773f 972b 783f

layer1_2vm.2.bias f4 [16]
-0.083939716 0.00920586 0.028291155 0.025439093 0.010127109 -0.028185673 -0.012983692 0.048173953
0.0027360916 -0.010930439 0.00029098112 0.0024052279 -0.015700039 0.0058552986 -0.011200689 0.017800633
00000000: 96e8 abbd 2dd4 163c dac2 e73c a565 d03c
00000010: 2cec 253c a4e5 e6bc 8db9 54bc 0d52 453d
00000020: 0050 333b 9615 33bc d38e 9839 07a1 1d3b
00000030: 5e9d 80bc cedd bf3b 1883 37bc a2d2 913c

layer1_2vm.2.running_mean f4 [16]
-0.13836147 0.13066235 0.28633842 0.7610286 0.5159346 0.38408586 0.3613317 -0.511987
0.07743381 0.2529683 -0.23162669 -0.2134449 0.18386969 0.19742438 0.16055523 -0.4333846
00000000: a1ae 0dbe 5acc 053e f39a 923e c5d2 423f
00000010: 4a14 043f e7a6 c43e 7800 b93e 9411 03bf
00000020: 9e95 9e3d 1085 813e 8c2f 6dbe 4d91 5abe
00000030: 5648 3c3e 9e29 4a3e 9768 243e 96e4 ddbe

layer1_2vm.2.running_var f4 [16]
0.62599045 0.8280107 0.9181386 0.504008 0.79492193 0.7629079 0.41122344 0.37159345
0.55727583 0.74120015 0.82157844 1.3184521 0.6228268 0.48435324 0.42325348 0.47315565
00000000: e940 203f 82f8 533f 220b 6b3f ab06 013f
00000010: 0180 4b3f ef4d 433f e18b d23e 7f41 be3e
00000020: a1a9 0e3f 4bbf 3d3f f752 523f 0ac3 a83f
00000030: 9471 1f3f 26fd f73e aeb4 d83e 7541 f23e

layer2.0.weight f4 [16, 32]
0.081446655 0.12587917 0.07546767 -0.105809316 -0.20853008 -0.14714964 0.079574 0.30382425
0.3189272 0.05117995 0.20917873 -0.06078082 0.31100798 0.074910745 0.14026305 -0.15228331
-0.0037381775 0.25479475 -0.26514313 0.2988084 0.033593215 0.0203154 0.028150981 -0.2918086
0.31443062 0.33299953 0.017136402 0.058175676 -0.2697781 -0.09607418 -0.47218663 -0.045172777
0.23076266 -0.017119473 -0.19865008 0.010461548 -0.20089234 0.26793966 0.14612293 0.054209758
0.12769228 -0.21499138 0.1624565 0.12290168 0.10697049 0.30387142 0.24498704 -0.09338542
-0.17766334 -0.004672982 0.13383225 0.2483112 0.109836 -0.30703944 0.3381784 -0.03202726
0.5972187 -0.1875704 -0.050891187 0.2160959 -0.34706095 -0.013281876 0.46549752 0.005274628
-0.35482025 -0.2471527 0.068736166 -0.2569114 0.019360274 0.3391486 0.2329162 0.099905275
0.28906208 -0.19150566 -0.08875178 -0.15026282 0.24585687 0.54496497 -0.1797585 0.12223601
-0.026302638 0.052338827 0.30656078 0.10123237 0.27531573 0.20673497 -0.032732476 0.04552583
0.070743 0.080535494 -0.078353286 0.13095005 0.106829286 -0.103631936 0.0370133 -0.2977729
-0.21553697 -0.038216587 -0.14969918 0.018781293 -0.09036846 -0.21866082 0.10464821 0.31143886
-0.3010389 -0.08775057 -0.011134123 -0.0859636 0.21846832 -0.04213206 -0.34099445 0.18872978
0.007019133 0.0076892283 -0.116580375 -0.35973135 -0.119410604 -0.32951972 0.10826621 -0.008716393
0.18080379 0.060998898 0.05408421 0.23269962 0.10564497 -0.10255543 0.11017813 0.08333674
0.16101243 -0.17248172 0.037967455 0.058383044 0.1864906 -0.23541617 -0.27091023 0.02060571
0.08322183 -0.056232307 -0.35218036 -0.06520507 0.124505736 0.2571502 0.034608334 -0.15980208
0.0025888172 0.13302472 0.16760138 -0.051467847 0.19522473 0.057148993 0.07253133 -0.26371253
-0.0501724 -0.15967765 -0.35711658 -0.14448285 0.110888645 0.05148999 -0.10202539 -0.26036903
-0.17198098 0.04040064 0.37396318 -0.0011148748 -0.1870602 0.48566666 0.094040506 0.29865938
0.18673258 -0.28732893 -0.21092708 0.036968667 0.6914316 0.26940662 -0.01141948 -0.26731968
-0.23477651 -0.3787849 0.053249665 0.059208382 0.06413603 -0.54406905 0.09001795 0.43776652
0.26107588 -0.050861422 -0.09387368 0.053235132 0.17983218 -0.123842485 0.08150224 0.09067518
0.14537126 -0.07860892 0.15946653 -0.42759675 0.19286634 -0.19339162 -0.12605733 0.015918592
0.2849009 -0.17820945 0.06844865 0.2274153 0.017255135 0.042644758 -0.08177395 -0.025663478
0.06577738 -0.04961654 0.31718525 -0.080176055 -0.028053937 0.045799498 0.16882037 -0.38120914
-0.4153282 0.077315375 0.066694744 -0.085175276 0.08277334 0.09732125 0.072837956 -0.07255333
0.06571485 0.10699154 0.006789976 -0.24451889 0.067617044 -0.25779298 -0.15034267 -0.005990078
-0.17503808 -0.1147556 -0.09190587 0.35938635 0.34701043 -0.20447588 0.1549392 -0.08279571
-0.11409992 0.029516188 0.31145096 -0.05724945 0.1742613 0.11926331 -0.15720448 -0.16644378
0.077078134 -0.32909015 -0.090389974 -0.0062553952 0.18728305 0.043989692 0.105384246 -0.13779618
00000000: 81cd a63d 78e6 003e cb8e 9a3d 8eb2 d8bd
00000010: e988 55be 65ae 16be b1f7 a23d da8e 9b3e
00000020: 6d4a a33e 11a2 513d f332 563e 4ff5 78bd
00000030: 703c 9f3e ce6a 993d 1ea1 0f3e 28f0 1bbe
00000040: 36fc 74bb 7574 823e d7c0 87be 6afd 983e
00000050: 0a99 093d 7b6c a63c e39c e63c f067 95be
00000060: 0dfd a03e ea7e aa3e a461 8c3c 9e49 6e3d
00000070: 5b20 8abe 8ac2 c4bd 72c2 f1be 1707 39bd
00000080: 0c4d 6c3e 233e 8cbc ed6a 4bbe ea66 2b3c
00000090: b9b6 4dbe 632f 893e 40a1 153e 0d0b 5e3d
000000a0: c4c1 023e b326 5cbe ff5a 263e e0b3 fb3d
000000b0: 5813 db3d 0995 9b3e e2dd 7a3e db40 bfbd
000000c0: 61ed 35be d01f 99bb 520b 093e 4b45 7e3e
000000d0: b2f1 e03d 4634 9dbe b825 ad3e 042f 03bd
000000e0: 53e3 183f 7412 40be 4773 50bd 3e48 5d3e
000000f0: f9b1 b1be 3a9c 59bc b155 ee3e c9d6 ac3b
00000100: 00ab b5be 9915 7dbe 8cc5 8c3d e489 83be
00000110: 7099 9e3c e3a4 ad3e 9681 6e3e 239b cc3d
00000120: f2ff 933e 0f1a 44be 7ec3 b5bd 7fde 19be
00000130: e7c1 7b3e d382 0b3f 9d12 38be e056 fa3d
00000140: a178 d7bc 3d61 563d 89f5 9c3e eb52 cf3d
00000150: 2ff6 8c3e 55b2 533e 7d12 06bd 4b79 3a3d
00000160: b5e1 903d cbef a43d b077 a0bd c517 063e
00000170: 50c9 da3d fb3c d4bd 429b 173d b175 98be
00000180: b9b5 5cbe ff88 1cbd be4a 19be 3adb 993c
00000190: 1913 b9bd 9fe8 5fbe cd51 d63d ea74 9f3e
000001a0: c521 9abe 92b6 b3bd e66b 36bc af0d b0bd
000001b0: 29b6 5f3e ab92 2cbd d396 aebe 6142 413e
000001c0: c100 e63b ecf5 fb3b b1c1 eebd b52e b8be
000001d0: 8c8d f4bd cfb6 a8be adba dd3d 34cf 0ebc
000001e0: a124 393e fbd9 793d 6887 5d3d cf48 6e3e
000001f0: 645c d83d 9508 d2bd 12a5 e13d 74ac aa3d
00000200: 71e0 243e 0c9f 30be c383 1b3d 0f23 6f3d
00000210: 64f7 3e3e f010 71be bfb4 8abe 4ecd a83c
00000220: 3570 aa3d d953 66bd fc50 b4be 3c8a 85bd
00000230: ddfc fe3d 31a9 833e 78c1 0d3d 28a3 23be
00000240: 25a9 293b a237 083e b29f 2b3e f3cf 52bd
00000250: fee8 473e 1015 6a3d 4e8b 943d 5405 87be
00000260: 9381 4dbd 8a82 23be fcd7 b6be 50f3 13be
00000270: 9619 e33d 2be7 523d b0f2 d0bd 174f 85be
00000280: c81b 30be 247b 253d 1a78 bf3e fe20 92ba
00000290: b68c 3fbe 4da9 f83e 4f98 c03d e2e9 983e
000002a0: d336 3f3e c71c 93be 45fd 57be 756c 173d
000002b0: a901 313f aaef 893e c518 3bbc 20de 88be
000002c0: 4169 70be 18f0 c1be 521c 5a3d 7d84 723d
000002d0: c059 833d 1c48 0bbf 555b b83d ef22 e03e
000002e0: bdab 853e 1154 50bd d840 c0bd 150d 5a3d
000002f0: ed25 383e 21a1 fdbd a5ea a63d e9b3 b93d
00000300: 34dc 143e b7fd a0bd 324b 233e f6ed dabe
00000310: c17e 453e 7408 46be 2c15 01be b567 823c
00000320: 88de 913e 8a7c 36be ce2e 8c3d 8edf 683e
00000330: a45a 8d3c 45ac 2e3d 1a79 a7bd 373c d2bc
00000340: 4ab6 863d b73a 4bbd 1b66 a23e 5833 a4bd
00000350: 5fd1 e5bc 4198 3b3d 3fdf 2c3e d82d c3be
00000360: e6a5 d4be 8657 9e3d 4197 883d 6070 aebd
00000370: 1285 a93d 5d50 c73d 112c 953d d796 94bd
00000380: 8295 863d 611e db3d 727e de3b 2963 7abe
00000390: ce7a 8a3d 71fd 83be 6ef3 19be 6b48 c4bb
000003a0: 2f3d 33be fc04 ebbd 2539 bcbd 7d01 b83e
000003b0: 5aab b13e 2062 51be 62a8 1e3e cc90 a9bd
000003c0: 38ad e9bd efcb f13c 8076 9f3e 667e 6abd
000003d0: 8e71 323e 5340 f43d 36fa 20be 3d70 2abe
000003e0: 24db 9d3d 817e a8be 611e b9bd 0ffa ccbb
000003f0: 21c7 3f3e 892e 343d b2d3 d73d 711a 0dbe

layer2.0.bias f4 [16]
0.05071334 0.037144955 0.05511815 -0.038080398 -0.037820783 0.059049334 0.05245302 -0.020033775
-0.010412085 0.016193807 -0.030813703 0.02162055 -0.047552135 -0.027374486 0.05427521 0.0629842
00000000: cbb8 4f3d 4f25 183d 92c3 613d 31fa 1bbd
00000010: f7e9 1abd b7dd 713d fad8 563d df1d a4bc
00000020: 7397 2abc e0a8 843c 056d fcbc 941d b13c
00000030: 07c6 42bd 7540 e0bc af4f 5e3d dcfd 803d

layer2.2.weight f4 [16]
1.0477209 1.0679947 1.0655777 1.0515698 1.0704645 1.0662358 0.93774116 0.93308824
1.054574 1.0268707 1.0684623 0.9552855 1.072131 1.068428 1.0655663 1.041466
00000000: b81b 863f 0db4 883f da64 883f d799 863f
00000010: fb04 893f 6a7a 883f ce0f 703f dfde 6e3f
00000020: 48fc 863f 8070 833f 5fc3 883f 978d 743f
00000030: 973b 893f 40c2 883f 7a64 883f c24e 853f

layer2.2.bias f4 [16]
0.054426167 0.0678368 0.06434889 0.06259294 0.06617701 0.065947644 -0.062354907 -0.070888676
0.054230947 0.038645256 0.06962068 -0.054941047 0.07006929 0.06955333 0.06720458 0.06502913
00000000: f9ed 5e3d 05ee 8a3d 5ac9 833d ba30 803d
00000010: d087 873d 8f0f 873d dc67 7fbd 152e 91bd
00000020: 4521 5e3d 7d4a 1e3d 4995 8e3d dd09 61bd
00000030: 7d80 8f3d fa71 8e3d 8ea2 893d fe2d 853d

layer2.2.running_mean f4 [16]
0.48382145 0.84071624 0.6307222 -0.37679887 -0.40411198 0.68324393 0.019823417 -0.10264441
-1.1842377 -0.041286286 -0.31049675 -0.27087313 -0.67246175 -0.46546087 0.9047442 0.37416813
00000000: 72b7 f73e 2e39 573f 0377 213f c8eb c0be
00000010: c4e7 cebe 13e9 2e3f b864 a23c 3c37 d2bd
00000020: 1a95 97bf cf1b 29bd 6ef9 9ebe e2af 8abe
00000030: 7426 2cbf e350 eebe 519d 673f f792 bf3e

layer2.2.running_var f4 [16]
0.71763283 0.98785615 0.6933386 0.56236243 0.3700354 0.98629296 0.58422035 0.34695408
1.0105758 0.7873861 0.67341757 0.5295824 0.7275554 0.47684464 1.189472 0.5503771
00000000: c9b6 373f 24e4 7c3f a37e 313f fcf6 0f3f
00000010: 4875 bd3e b27d 7c3f 778f 153f f7a3 b13e
00000020: 8c5a 813f 2392 493f 1865 2c3f b692 073f
00000030: 1241 3a3f fb24 f43e 9e40 983f 83e5 0c3f

fc_advantage.0.weight f4 [20, 16]
0.031983167 0.30461195 0.55498934 0.107880145 0.07849988 0.64025337 0.13152519 -0.14338343
-0.41992953 0.1767551 0.06098676 0.13610628 -0.048778005 0.120577484 0.27764744 0.257382
0.4847008 -0.49554017 -0.4535481 -0.15732652 0.44409618 0.3406755 0.27440366 0.03007199
0.20967118 -0.28063235 -0.040193353 0.33846045 0.017396057 0.26013032 -0.25725344 -0.07563974
0.14098433 -0.113417104 0.47101793 0.28170443 0.11476352 0.6056317 0.2634545 0.040815398
0.14680071 0.2839849 0.2534776 -0.29924658 -0.3322127 0.30882162 0.52943 0.3548184
0.23639123 -0.19761978 -0.00085932325 0.24717757 0.21240437 -0.17115426 0.35046232 -0.26245788
0.24752928 -0.025354724 0.16912809 -0.32312876 -0.043683585 -0.01080448 0.009692811 0.15475832
-0.30205643 -0.15808482 0.14935456 -0.26278204 0.07882731 0.1651336 0.14345439 -0.061023325
-0.09073407 0.36981094 0.40928313 0.1925793 0.1247464 0.12552525 0.1352305 -0.08845288
0.039161377 -0.3353825 0.33211014 -0.18215944 0.08614914 0.39508727 -0.22319326 0.2477585
-0.18962358 0.16831167 0.45882684 0.6451419 0.23592897 -0.12746158 -0.05741194 0.015507339
-0.020018747 -0.3060871 -0.37216884 -0.09199772 -0.29136366 -0.17135996 0.037840646 -0.051337868
-0.48027322 0.15150307 -0.09278682 -0.2482333 0.14519069 0.15740007 -0.29026636 -0.12869935
0.2674051 0.15761544 -0.17331985 0.057360776 -0.18998581 0.037811313 0.03960879 -0.04535732
0.08443727 0.054179974 -0.5104242 0.21375136 -0.29101735 0.044302396 -0.0055015436 -0.3581579
-0.084126115 -0.2870486 -0.12884468 -0.36134762 -0.07281191 -0.27741984 0.3067671 0.0052628596
0.016460197 -0.32293084 0.03623769 0.04798295 -0.23503202 0.02476299 -0.13186878 -0.31250018
-0.32125232 0.18646047 -0.026144294 0.10371318 0.34197894 -0.30455938 -0.47161844 -0.10545452
0.011220213 0.15696916 -0.31661656 -0.4703762 0.023562921 0.115480855 0.053937513 -0.20551026
0.19207583 0.09811326 -0.07140257 -0.04507989 0.39237973 -0.25588372 0.014694088 0.472191
0.20780413 0.06964437 -0.07292425 0.056850825 0.17752722 -0.043173835 -0.18772817 -0.16853699
-0.31016538 -0.2659046 -0.0066996226 -0.019928606 -0.13978757 -0.23436858 -0.12412725 -0.05326325
-0.35162222 -0.2706052 0.23728986 0.13743313 -0.06319275 -0.35866314 0.30124837 0.238678
0.12587635 0.4264825 0.37567246 0.31094688 0.3311393 0.029079711 -0.1488356 -0.1557064
0.5506699 0.07146743 0.027365435 0.16742557 0.12698035 -0.01613987 0.35336122 -0.2053523
0.19329308 -0.16627117 0.2059289 0.058924526 -0.20693694 0.019519713 -0.23419958 0.2984586
-0.17469111 0.42220646 0.07893723 0.22642115 0.08712305 0.18950446 -0.42895308 -0.18569528
0.111913115 0.3611273 0.08311693 -0.1260418 -0.19137107 0.29950157 -0.12620458 -0.27748656
-0.1364526 0.14911188 -0.2774368 0.41110235 0.3100288 0.33666128 -0.004059086 0.049131233
0.2284228 -0.28109398 0.5641419 0.5542701 -0.24482183 -0.23648006 -0.10106193 0.1828954
0.1883252 0.07506093 0.1057939 0.277277 0.008008714 -0.10015398 -0.13923447 0.124820694
00000000: c800 033d 19f6 9b3e c813 0e3f 44f0 dc3d
00000010: 8cc4 a03d a5e7 233f 8aae 063e 1bd3 12be
00000020: 0101 d7be 4aff 343e 41cd 793d 725f 0b3e
00000030: 72cb 47bd 54f1 f63d ce27 8e3e 93c7 833e
00000040: b42a f83e 71b7 fdbe 7537 e8be 341a 21be
00000050: 9360 e33e 056d ae3e a37e 8c3e 8959 f63c
00000060: 0bb4 563e 0baf 8fbe c9a1 24bd b04a ad3e
00000070: 2d82 8e3c cd2f 853e b9b6 83be 02e9 9abd
00000080: 325e 103e 3a47 e8bd 4329 f13e 903b 903e
00000090: 2309 eb3d ae0a 1b3f 82e3 863e 0c2e 273d
000000a0: ed52 163e 7866 913e d1c7 813e d936 99be
000000b0: c817 aabe de1d 9e3e b988 073f c2aa b53e
000000c0: 8b10 723e d75c 4abe 3544 61ba 1e1c 7d3e
000000d0: 8880 593e 1043 2fbe cc6f b33e e160 86be
000000e0: 5178 7d3e b6b4 cfbc ea2f 2d3e 2271 a5be
000000f0: 8fed 32bd 4605 31bc 99ce 1e3c f778 1e3e
00000100: 24a7 9abe fde0 21be 67f0 183e 5e8b 86be
00000110: 3670 a13d c818 293e b5e5 123e 98f3 79bd
00000120: c9d2 b9bd dc57 bd3e 8f8d d13e 8233 453e
00000130: 0a7b ff3d b189 003e dd79 0a3e c926 b5bd
00000140: ae67 203d 41b7 abbe 570a aa3e 0188 3abe
00000150: f66e b03d e148 ca3e c68c 64be 67b4 7d3e
00000160: af2c 42be e559 2c3e 5aeb ea3e 0528 253f
00000170: 5d97 713e 4a85 02be c828 6bbd 7e12 7e3c
00000180: 5bfe a3bc 73b7 9cbe ea8c bebe 4d69 bcbd
00000190: 9e2d 95be fc78 2fbe cbfe 1a3d a847 52bd
000001a0: 5fe6 f5be 9f23 1b3e 0407 bebd df30 7ebe
000001b0: deac 143e 7c2d 213e cb9d 94be c3c9 03be
000001c0: 52e9 883e f165 213e c27a 31be 22f3 6a3d
000001d0: a48b 42be 09e0 1a3d d43c 223d 99c8 39bd
000001e0: 73ed ac3d d2eb 5d3d 29ab 02bf a3e1 5a3e
000001f0: 3a00 95be 6e76 353d 4b46 b4bb 7960 b7be
00000200: 504a acbd 09f8 92be dcef 03be 8e02 b9be
00000210: 691e 95bd f909 8ebe 9410 9d3e 1174 ac3b
00000220: 89d7 863c 3157 a5be f96d 143d c589 443d
00000230: 3cac 70be c1db ca3c 9c08 07be 0600 a0be
00000240: 2f7b a4be 7eef 3e3e 8f2c d6bc 9367 d43d
00000250: dd17 af3e 35ef 9bbe f977 f1be 8af8 d7bd
00000260: fcd4 373c 86bc 203e 911b a2be 26d5 f0be
00000270: 0707 c13c 3a81 ec3d 95ed 5c3d 4871 52be
00000280: 87af 443e 9bef c83d 833b 92bd b1a5 38bd
00000290: ffe5 c83e 3103 83be 79bf 703c 05c3 f13e
000002a0: 9bca 543e b5a1 8e3d 4f59 95bd 69dc 683d
000002b0: b2c9 353e 0cd7 30bd d03b 40be f694 2cbe
000002c0: ffcd 9ebe a624 88be 8288 dbbb 5141 a3bc
000002d0: 7924 0fbe 51fe 6fbe 6d36 febd 912a 5abd
000002e0: d407 b4be c48c 8abe 1dfc 723e 45bb 0c3e
000002f0: 336b 81bd b2a2 b7be 3a3d 9a3e 0168 743e
00000300: bbe5 003e ea5b da3e 2458 c03e 6e34 9f3e
00000310: 178b a93e 9338 ee3c 5c68 18be 8071 1fbe
00000320: b4f8 0c3f 845d 923d 7a2d e03c 9c71 2b3e
00000330: 2307 023e c337 84bc c3eb b43e e047 52be
00000340: 9fee 453e fd42 2abe 07df 523e d85a 713d
00000350: 47e7 53be cee7 9f3c 04d2 6fbe 91cf 983e
00000360: 3ae2 32be 722b d83e d8a9 a13d f2da 673e
00000370: 926d b23d 750d 423e bd9f dbbe e726 3ebe
00000380: b432 e53d ade5 b83e 3639 aa3d 1a11 01be
00000390: c7f6 43be 4558 993e c63b 01be b812 8ebe
000003a0: 3bba 0bbe c9b0 183e 320c 8ebe 027c d23e
000003b0: 18bc 9e3e de5e ac3e 1502 85bb d53d 493d
000003c0: abe7 693e 8deb 8fbe 9b6b 103f a5e4 0d3f
000003d0: 93b2 7abe d427 72be 8ff9 cebd ef48 3b3e
000003e0: 52d8 403e 8bb9 993d 79aa d83d 40f7 8d3e
000003f0: fb36 033c 881d cdbd 7b93 0ebe fea1 ff3d

fc_advantage.0.bias f4 [20]
0.066927396 0.058451038 0.066927396 0.066927396 0.066927396 0.066927396 -0.053063307 0.0027996188
-0.058502924 -0.02906005 0.0073246527 -0.067009315 0.0661999 0.066927396 0.066927396 0.066927396
0.066927396 0.066927396 0.066927396 0.066927396
00000000: 3b11 893d 5b6a 6f3d 3b11 893d 3b11 893d
00000010: 3b11 893d 3b11 893d e958 59bd cf79 373b
00000020: c3a0 6fbd 580f eebc a403 f03b 2e3c 89bd
00000030: d093 873d 3b11 893d 3b11 893d 3b11 893d
00000040: 3b11 893d 3b11 893d 3b11 893d 3b11 893d

fc_value.0.weight f4 [1, 16]
0.029438313 -0.122376494 -0.12869242 -0.023033887 -0.3084953 -0.474084 0.1482416 0.14116755
-0.08593223 -0.051054154 -0.4461735 0.068281636 -0.57058877 -0.46757635 -0.46790016 -0.12482319
00000000: 9e28 f13c 87a0 fabd f2c7 03be 90b1 bcbc
00000010: 19f3 9dbe 23bb f2be a5cc 173e 3a8e 103e
00000020: 3dfd afbd 291e 51bd da70 e4be 3ed7 8b3d
00000030: 1b12 12bf 2b66 efbe 9c90 efbe 4da3 ffbd
