save/client-7/eval.pth (torch, 42501 bytes, 27 tensors)

layer1_task.0.weight f4 [32, 3]
00000000: 6c88 32be 3a9c 773c 080c c13c 7ea9 9e3e
00000010: 189a b8bd 4acd 423e 3208 0a3e de80 bb3e
00000020: 78a5 4fbd fb08 c3bd b47e aabe f151 c0bd
00000030: 3d1d 04bf e62f 433e e515 26be 0b6f b23d
00000040: e3b1 273e 4e5c 803e e59d ddbd 685c d63d
00000050: 621f 20bd f163 98bd 1f35 ce3d 33d0 6bbe
00000060: a193 593e f103 973e e583 61be 4517 61bd
00000070: 8eca 163e 0a0a 993d 3658 e0bb 0265 6f3d
00000080: 6554 ab3d 17b1 b83e 1604 f8be bc28 1c3f
00000090: 2ebe a23d 7b48 2dbd 4df2 a33d 0539 b8be
000000a0: c04d 833e 8695 42bd 9a26 86bb b449 ad3e
000000b0: d2fa b7be afd7 a73d 9e54 5ebe 0820 debd
000000c0: 46dd 28bf 79f6 eebe 12ff abbe 7215 713e
000000d0: 4f5d 07be ef94 d63d 446c 9e3e 0535 493e
000000e0: 77cd 423e c08d f13d 7332 e7bd 1dea 1b3e
000000f0: 9699 febe 4ca4 adbe d764 bfbe 8b13 e8bd
00000100: b0e0 e53b 3853 ea3c 15bb 4f3e 838d ccbe
00000110: a55a 29be 6835 223e b864 243d 6e65 11be
00000120: e971 033c f67b 403e 4eb9 8f3e ca4f a8ba
00000130: 8853 5c3d afc1 113e 7986 0f3e d2a6 2a3e
00000140: 2eac 473f d7e5 2bbe 8706 44be 369d 98bd
00000150: 8d5a b23e d268 a9bd d348 0abd 15fc 263e
00000160: b398 7fbe bdc4 0ebe 6ecd 253e f182 09be
00000170: 6a2b e8bc d399 c33d b670 96be 3686 cfbc
-0.17434853 0.015112931 0.023565307 0.30988687 -0.09013766 0.19023624 0.13479689 0.36621755
-0.050694913 -0.09523197 -0.33299792 -0.09390629 -0.51607114 0.1906124 -0.1621929 0.08712586
0.16376452 0.25070423 -0.108211316 0.10466844 -0.03909243 -0.07440937 0.10068726 -0.2302864
0.21247722 0.29495195 -0.2202297 -0.054953832 0.14725706 0.07472618 -0.006846453 0.058445938
0.08365706 0.3607261 -0.48440617 0.60999656 0.0794643 -0.04230545 0.080051996 -0.35981002
0.25645256 -0.047505878 -0.004093957 0.33845294 -0.35933548 0.08195435 -0.21711966 -0.10845953
-0.65962636 -0.4667242 -0.3359304 0.23543337 -0.13219188 0.104776256 0.30941975 0.19649132
0.19023691 0.11794615 -0.11288919 0.15226026 -0.49726552 -0.3391441 -0.37381622 -0.113318525
0.00701531 0.028604135 0.2028621 -0.39951715 -0.16538484 0.15840685 0.040135115 -0.14198849
0.008022764 0.18797287 0.28071064 -0.0012841162 0.0537906 0.1423404 0.14016141 0.166652
0.779971 -0.16786896 -0.19143115 -0.074518606 0.3483471 -0.08271946 -0.033760857 0.16307099
-0.24960594 -0.13942237 0.16191646 -0.13428856 -0.028341014 0.09550824 -0.29382867 -0.025332551

layer1_task.0.bias f4 [32]
00000000: 64b1 4b3b 0806 23bc db72 de3d 406a 7f3c
00000010: b021 bc3c 8349 f23d cc1a 3cbc ffe2 4cbc
00000020: 8607 e6bc 6816 5539 2cee 823d c07a c33d
00000030: 603a 7cbc 5098 1e3d 298a c13d c54e a1bc
00000040: d871 9abc dda5 a03c 319f 56bd 3141 413d
00000050: 01e4 93bc f002 20ba 5afe 0e3d 92f7 f73d
00000060: 807a fa3c 8e8e a03d 2ba5 d33c b018 2f3c
00000070: 8e46 c9bb d5b7 87bd 8e3c f63d 885c 4bbd
0.0031081075 -0.009950168 0.10861751 0.015589297 0.022965282 0.118304275 -0.011480998 -0.012505292
-0.02807976 0.0002032161 0.06393084 0.09544897 -0.015394777 0.038719475 0.0945018 -0.01969088
-0.018853113 0.01961034 -0.05239791 0.047181312 -0.018053057 -0.00061039533 0.034910537 0.12107767
0.03057599 0.0783969 0.025835594 0.010687038 -0.006142444 -0.0662686 0.12023269 -0.04964879

layer1_task.2.weight f4 [32]
00000000: c705 703f fa65 7d3f 2b15 6e3f ea51 853f
00000010: ba35 853f 3e75 793f 7b3c 6a3f fc41 813f
00000020: b2cd 763f 8286 863f dfea 7b3f 1075 6d3f
00000030: 0a00 7f3f d044 813f a7e4 6c3f 24c6 7f3f
00000040: 88a0 843f aec4 763f fe2c 7b3f d900 713f
00000050: 4a0f 8d3f 22bc 853f 57ae 773f 79e5 703f
00000060: 8cd7 7f3f 0185 713f 6b09 6c3f ce79 873f
00000070: 7c31 733f 3545 833f 0260 753f 2459 7c3f
0.93758816 0.9898373 0.9300105 1.0415623 1.0407021 0.9744452 0.91498536 1.0098262
0.96407616 1.0509799 0.9840526 0.9275675 0.99609435 1.0099125 0.92536396 0.99911714
1.036149 0.9639386 0.9811553 0.9414192 1.1020291 1.0448039 0.96750396 0.9410015
0.99938273 0.9434357 0.9220187 1.0584047 0.9499738 1.0255495 0.9584962 0.9857352

layer1_task.2.bias f4 [32]
00000000: 5dbe 99bd 6daf eabc a467 393c cb14 a03d
00000010: aaef 953d b43a a03d 1d07 c5bd 329a 053d
00000020: 0402 afbd b05f 933d 0482 883d 2b3b 24bc
00000030: 7dac aabc 3a14 5a3d 7f2f 0f3d 8146 b53c
00000040: acab 703d 9af9 0fbc b6a8 89bd bcab aabc
00000050: 6ce6 fa3d 0300 823d b29e 873b e51f 393d
00000060: b61e 363c f1b2 053d db4b 3bbd 9bfb db3d
00000070: 7d1a 52bd 5f8a fbbc 3a45 7e3d 5adf 8ebd
-0.07507012 -0.028648103 0.011316214 0.07816466 0.07321103 0.07823697 -0.096204974 0.032617755
-0.08545306 0.07195985 0.066654235 -0.010023872 -0.020834202 0.053241946 0.034957405 0.022128345
0.05875747 -0.008787537 -0.06721632 -0.020833842 0.12250981 0.063476585 0.004138791 0.045196433
0.0111157205 0.032641355 -0.04572664 0.10741349 -0.051294792 -0.030705629 0.06207774 -0.06976195

layer1_task.2.running_mean f4 [32]
00000000: 3e25 0fc6 f8c9 7646 5f2e dc45 ef21 95c5
00000010: ee3e d0c6 7d50 9745 9942 adc5 9059 66c5
00000020: c55e 1e46 7296 24c5 ed97 00c2 697d 8d46
00000030: 46a3 7f45 c473 94c6 2ea3 a7c3 6bce 7e45
00000040: 85bf 07c7 3dff 4346 81a0 6946 0a97 ae45
00000050: 7351 ccc6 885d a4c5 2005 2746 21ad 0346
00000060: 2184 6144 935b 8343 aad8 eb45 a782 06c6
00000070: 2c49 8b46 459c eb45 7e5f 0746 d107 8245
-9161.311 15794.492 7045.7964 -4772.2417 -26655.465 4842.061 -5544.3247 -3685.5977
10135.692 -2633.4028 -32.148365 18110.705 4090.2046 -19001.883 -335.27484 4076.9011
-34751.52 12543.81 14952.126 5586.88 -26152.725 -5259.6914 10689.281 8427.282
902.0645 262.71542 7547.083 -8608.663 17828.586 7539.5337 8663.873 4160.977

layer1_task.2.running_var f4 [32]
00000000: 9c9a dc4e 32ba 724f ffa1 484e 3ea9 ef4d
00000010: 2a95 6850 6dc7 e74d cd1c 2d4e 340b 9d4d
00000020: dded d34e 77ff 214d d2a5 2348 0a5d dd4f
00000030: e50d b74d f17a ea4f aabd 6a4a f62d a34d
00000040: 184f be50 0d26 4c4f bb5f 3e4e d18c 264e
00000050: c947 5e50 8e48 1f4e b39d 174f 8459 bc4e
00000060: d0ad 854b 6cc3 9449 b936 914e c1d0 ba4e
00000070: 16bd c94f 7c8f 694e 3c44 c44e d148 944d
1.85056e+09 4.0722888e+09 8.4151494e+08 5.0260576e+08 1.5608359e+10 4.860758e+08 7.2608646e+08 3.2934464e+08
1.7777906e+09 1.6986712e+08 167575.28 7.4277243e+09 3.8389264e+08 7.8678513e+09 3.8459945e+06 3.422123e+08
2.5542836e+10 3.4250458e+09 7.984862e+08 6.985616e+08 1.4916986e+10 6.680831e+08 2.5436946e+09 1.5799916e+09
1.7521568e+07 1.2186695e+06 1.2181413e+09 1.5671215e+09 6.7692247e+09 9.796237e+08 1.6464031e+09 3.10975e+08

layer1_1vm.0.weight f4 [64, 40]
00000000: 4776 09be cdc8 19be 7155 813d ae73 91bd
00000010: 9c3f 08bb 010b 21be f681 2cbe b81a 803d
00000020: 856b f1bd 75a1 0b3e fb4f b8bc 9c21 483e
00000030: 7bcf 953d ddbd a4bc 5a0e 893d 0a76 0dbe
00000040: 7adb 083e 0eff 763e 799a 633e 4a0a b3bd
00000050: 222e b7bc 24c8 9ebd 332b 913d 9e72 1b3e
00000060: dc89 e9bd bef8 643b dd2e 043e 2024 7ebe
00000070: 5f81 1bbe 2aad 98bc c60a 90bd ad48 88bd
00000080: 885a 03be 8b1e 9bbe 6a20 c13c 9333 c43d
00000090: 6e22 313d 8468 9fbe 0325 353d 6c9c 46be
000000a0: 5116 783e ecec 033e 70b6 0fbe 4228 603d
000000b0: ccd4 363e 255f 76bd c5f0 56be d225 81be
000000c0: 60bb 68bd 6662 e03d 1bcf 7bbd aa41 223e
000000d0: 8e85 113c 7074 74be 99e7 ebbc 97e1 9c3d
000000e0: 1519 67be f534 05be d617 3c3d bbc0 af3e
000000f0: 54b9 da3c fc80 a6bd 1068 afbc bbdb cd3d
00000100: 2ce6 3cbe f6da 90bc 85f5 fa3c 5b3f 983d
00000110: 708a 85bd 60ac 42bd 31af 703d 42e1 4abd
00000120: adb3 31bd 2b04 aa3d c98c b1bc 0388 a83b
00000130: 2379 8f3d 9b91 e6bd be8a 3fbe 3181 b83d
00000140: 7097 61bd 0f35 30be d182 e2bd a2c8 a5bd
00000150: 4c36 513c 9959 cd3c 99f8 adbe e26b 5d3d
00000160: b85d 8f3d 92a5 763e ed54 e93d 1a39 813e
00000170: f10c eb3d 8ad2 30be af3d e4bd 925d ec3a
00000180: ae57 7dbd 0de9 83bd 1e78 d9bd 7513 0fbe
00000190: f206 55be 4750 143e f7d7 5cbd 2372 55bd
000001a0: d314 49be d02a 20be c4f8 833d 8638 ad3d
000001b0: 1dfc bbbd 8107 0d3e 8b2d 01be 8a96 04bb
000001c0: 60ae 9cbd 8a93 56be 54ed d43d 7290 bd3d
000001d0: 579b f53d b5a9 093e b832 04be d251 5dbd
000001e0: 9ea0 473e 4fce a53c a00b 653d c6fc 16be
000001f0: 4895 b03d a634 2ebe d0a1 013e 2f53 e1bd
00000200: ac89 29be a072 623e 3752 99bd 6b38 1b3e
00000210: 3e1a 0a3d 18e2 e7bc a715 ba3c 03a0 b43d
00000220: 4678 3c3d 31b3 1ebe 54d1 f3bd 6b5d 9c3c
00000230: 304e ad3d d469 58bd c603 fcbc 1b80 fe3d
00000240: e96f 673e f67f 5e3e afc9 92bd 6686 b63d
00000250: 4fc8 4f3e 924f ecbd 1f8c 093e 9c5f c2bd
00000260: 36d4 0fbe 2713 9dbd eaf1 42bc 14d6 0a3c
00000270: 34a0 4c3e 18b5 af3d 44c2 003e 4279 783e
00000280: dcb3 a83d ab36 5a3e 86e2 be3d 0555 8e3d
00000290: b122 7bbe 1c3a bbbe f87e 2c3e fc32 3f3e
000002a0: 89b1 d43d c918 8a3e 9dda 853d b291 99bd
000002b0: 5a87 de3b 8a41 573e 5737 efbd 8b8c fcbb
000002c0: 75c8 fbbd 565d bd3c b6a7 90bd acd7 42bd
000002d0: e94b 203e 2463 20be bfe5 163e fb6c 5f3e
000002e0: c798 3abe 9634 22be db62 3dbd c9ef 2bbd
000002f0: bd39 bebd 32ca 213e fc05 023e 91c1 023e
00000300: d7b2 fa3c 01ce 32be d4ab d73d 65aa e63d
00000310: 9723 11be cbc7 aa3c b185 dabd c5bc 06bd
00000320: f430 0d3e d2dd 40bd 8067 a5be 5a37 86be
00000330: 5edb 55be 9747 bcbe 79fb 7f3e e3da be3d
00000340: 9c64 6fbe 6b24 69be ff63 31bd e4fd 83be
00000350: 1a6d aabc 118e 89be ed79 643d 8a2f 31be
00000360: 05f0 26be d176 9fbd 6e97 1d3d e9b1 08be
00000370: d2b6 dd3d bb97 b63d 69fe 073d dd6f 0abe
00000380: 95a2 78bd 9a3f b7be b48c 993e 35ad d6bd
00000390: a4ca af3d 8b4d 343d 5305 a33c c044 45be
000003a0: 74ff 823d 0da7 27be da64 c5bd 9278 193d
000003b0: d004 d3bc d5a8 abbd e50b 583d bf32 dbbc
000003c0: 466a a9bc f26d 433e 8839 a23d fe39 803d
000003d0: 6e35 7bbd f808 95be 9293 02be 373d 163d
000003e0: 7cdd 74be 1878 6c3b 6201 afbd 22b7 0e3d
000003f0: d453 ec3b 9ad0 2ebe 21a5 1cbe 6c8f 2cbe
-0.13424025 -0.15018006 0.06315125 -0.07102142 -0.0020789867 -0.15726854 -0.16846451 0.06255096
-0.11788086 0.1363581 -0.022499075 0.19544071 0.073149644 -0.020110065 0.066921905 -0.1381456
0.13364974 0.24120733 0.22226895 -0.08742197 -0.022360865 -0.077530175 0.07088318 0.15180442
-0.11403248 0.00349383 0.12908502 -0.24818468 -0.1518607 -0.018637259 -0.07033305 -0.06654487
-0.12827504 -0.3029674 0.023575027 0.095801495 0.043245725 -0.31134427 0.04422475 -0.19395608
0.24227263 0.12883347 -0.14034438 0.054725893 0.17854613 -0.06014933 -0.20990284 -0.25224167
-0.05681932 0.10956268 -0.061476808 0.15845361 0.00888194 -0.23872542 -0.028796958 0.07660215
-0.22568162 -0.13008483 0.04592117 0.3432673 0.0266997 -0.081300706 -0.021411926 0.10051676
-0.18447179 -0.017682534 0.030634651 0.07433959 -0.065205455 -0.04752767 0.058760826 -0.04953123
-0.043384243 0.08301576 -0.021673577 0.005143167 0.07005527 -0.11258241 -0.1870527 0.09009016
-0.055076063 -0.1720774 -0.110601075 -0.08094908 0.012769293 0.025067138 -0.33978727 0.054057963
0.07000297 0.24086598 0.113931514 0.25238878 0.11477078 -0.17267814 -0.11144578 0.0018033257
-0.061851196 -0.06440935 -0.10618614 -0.13972266 -0.2080343 0.14483748 -0.053916898 -0.052110802
-0.1963685 -0.15641332 0.06443933 0.084580466 -0.09178946 0.13772394 -0.1261503 -0.002023133
-0.07650447 -0.20954719 0.10396829 0.092560664 0.11992519 0.13443644 -0.12909973 -0.054033108
0.19494864 0.020239977 0.05591929 -0.14744863 0.08622223 -0.17012271 0.12659383 -0.11002194
-0.16556424 0.22114038 -0.07486384 0.1515824 0.033716433 -0.028306052 0.022715403 0.08819582
0.04601314 -0.15498044 -0.119051605 0.019087514 0.08462179 -0.0528353 -0.030763518 0.12426778
0.22601284 0.217285 -0.07167374 0.08912353 0.20291255 -0.11538614 0.13432358 -0.09490892
-0.14045796 -0.07669669 -0.011898497 0.008473892 0.19982988 0.08579463 0.12574106 0.24265006
0.082374305 0.21309917 0.0932055 0.0694981 -0.24524952 -0.3656777 0.1684531 0.18671793
0.10385425 0.26972035 0.06535838 -0.07498492 0.0067910375 0.21021095 -0.11680477 -0.0077071837
-0.122940935 0.023115795 -0.07063238 -0.047568962 0.15653957 -0.15662819 0.14736079 0.21818916
-0.18222342 -0.15840372 -0.046236854 -0.041976724 -0.092883565 0.15799788 0.12697595 0.12769152
0.030602856 -0.17461397 0.105308205 0.11262969 -0.14173733 0.020847222 -0.10670031 -0.03289487
0.13788205 -0.047086544 -0.32305527 -0.26214105 -0.20884463 -0.3677337 0.24998273 0.09319093
-0.23378223 -0.22767799 -0.043308254 -0.2577964 -0.020803977 -0.268662 0.05578034 -0.17303291
-0.16302498 -0.07786334 0.038474493 -0.13349117 0.10825886 0.08915659 0.03320161 -0.13519235
-0.060701925 -0.35790712 0.2999016 -0.10482255 0.085835725 0.044019263 0.0199 -0.19264507
0.0639638 -0.16372319 -0.096383765 0.0374685 -0.02575913 -0.083818115 0.05274572 -0.026757596
-0.020680558 0.1908491 0.079211295 0.06261061 -0.06133025 -0.29108405 -0.12751606 0.036679473
-0.23912615 0.0036082324 -0.085451856 0.034842618 0.0072121415 -0.17071763 -0.15297367 -0.16851586

layer1_1vm.0.bias f4 [64]
00000000: 1e39 ba3b 357a 40bc 477a eb3a 9dc1 0d3d
00000010: 7b47 353b 6a0e 57bd 6755 b0bc a990 453c
00000020: 749f 583c 009a f2bb b645 59bc b368 e43c
00000030: 2bb7 183c 8e3f a1bc 175b 663a b911 b4bc
00000040: 4419 dfbc 7441 413c cf0e c6bc 75cf 0e3d
00000050: cbee c13b da8c b9bc b00b c1bc f1b6 93bc
00000060: db56 c1bc 8ab3 5dbc 10dc 9f3c 8570 4d3b
00000070: 1e4c b83c 09b6 bb3c b1c9 b9ba a6f4 dc3b
00000080: 1067 6b3c 9e1b 503b d679 a2bc 4748 d8bb
00000090: 5b98 e8bb 8cab 9a3a e38b 07b9 3dc5 2a3d
000000a0: af9a eabb 7498 b13c 19f9 3abb 5412 e93c
000000b0: 8231 fbbc 0506 b7bc 5274 8bbc 243f 603b
000000c0: fe96 79bb fd00 c73b 104f e5b8 937a 19bc
000000d0: 2f1e 35bc a02d ba3c 9919 67bc 5a4f ffb8
000000e0: e9ba 103c 52e8 54bc 58b5 303a 8329 28bd
000000f0: 2ad2 cf3a 1c46 7c3c 9b31 1c3c 2608 913c
0.0056830784 -0.011747886 0.0017965519 0.034608472 0.0027661014 -0.05250398 -0.021525098 0.012058415
0.01322161 -0.007403612 -0.013261249 0.027881956 0.009321014 -0.019683626 0.0008787377 -0.021981107
-0.027233727 0.01179539 -0.024176983 0.034865815 0.005918359 -0.022650171 -0.023565143 -0.01803157
-0.023600986 -0.013531575 0.019514114 0.0031347584 0.022497233 0.02291395 -0.0014174489 0.0067430316
0.014367834 0.0031754742 -0.019833487 -0.006600413 -0.0070982403 0.0011800393 -0.00012926715 0.041692007
-0.007159553 0.02167914 -0.0028529821 0.028451122 -0.030663256 -0.022341738 -0.01702324 0.0034217322
-0.0038084383 0.006073116 -0.000109342975 -0.009367603 -0.01105456 0.022726834 -0.014105224 -0.00012174128
0.008833625 -0.012994843 0.00067408895 -0.041055214 0.001585548 0.015397575 0.009533311 0.01770408

layer1_1vm.2.weight f4 [64]
00000000: c291 823f 4060 7e3f 9213 803f 59d7 823f
00000010: 5c42 803f 903a 843f a9e7 823f 6916 813f
00000020: 7c90 7b3f dd25 803f ffe3 843f 86f5 823f
00000030: 9a01 823f 8ebf 843f 71ab 763f 3814 7f3f
00000040: 5f89 833f d845 803f b67c 823f 32e7 823f
00000050: 955e 6c3f ade3 803f 187f 833f 55e1 7d3f
00000060: 1804 823f 5760 833f 9d64 823f a281 7e3f
00000070: 9e2a 813f 2803 813f d36b 863f 62d4 7c3f
00000080: 1782 7d3f 665b 803f 831f 853f ae56 833f
00000090: bf78 833f 1837 783f 12ec 7c3f 7a78 7e3f
000000a0: 6f3f 833f 872d 833f 36ae 813f 6750 7b3f
000000b0: 9315 823f 469f 7e3f e30b 823f b9b1 783f
000000c0: e8dc 853f 4ebf 743f 53d8 7c3f 60fd 803f
000000d0: a561 773f 94b3 7e3f acc7 7d3f b1e9 813f
000000e0: 846f 803f b0d4 803f 23be 803f e962 813f
000000f0: c1ef 803f fcc1 813f 3b88 7a3f 5443 7e3f
1.0200732 0.99365616 1.0005972 1.0221969 1.0020251 1.0330372 1.0226947 1.0084964
0.9826734 1.0011555 1.0382079 1.0231178 1.0156739 1.0370958 0.9635535 0.99640226
1.0276297 1.0021315 1.0194309 1.0226805 0.9233182 1.0069481 1.0273161 0.99171954
1.0157499 1.0263776 1.0186955 0.99416554 1.0091131 1.0079088 1.0501655 0.9876157
0.99026626 1.0027893 1.0400242 1.0260828 1.0271224 0.96959066 0.98797715 0.9940258
1.0253733 1.0248269 1.013129 0.9816956 1.0162834 0.9946178 1.0159878 0.97146183
1.045804 0.9560441 0.98767585 1.0077324 0.9663337 0.99492764 0.991328 1.0149442
1.0034032 1.0064907 1.0058025 1.010831 1.0073167 1.0137324 0.9786412 0.99321485

layer1_1vm.2.bias f4 [64]
00000000: b7aa d23c c7ee 0abb 9f1c 733b 0120 da3c
00000010: a30b 8c3b 4093 973c 4ef9 a03c 6e54 453b
00000020: ae2f a3bc 0482 fe3a fdac 123d daff d83c
00000030: 3361 713c 8f4b 213d cdaa 28bd 3eff c1bb
00000040: c684 dc3c c8e8 0b3b e377 9a3c cb6c e23c
00000050: e7e7 9ebd a8fb de3b 6caf bf3c f49d f2bb
00000060: d95b 393c 9b22 ea3c a494 9f3c f955 92bb
00000070: f719 313c ead7 0d3c 480a 553d 981b 2abc
00000080: 1083 2cbc d09a 2439 f7b9 243d 0487 d13c
00000090: b691 e43c e20a dabc 9e29 25bc 023f b83a
000000a0: 07da d63c 4f88 083d d72b 6b3c 8664 8bbc
000000b0: 677e 3a3c 98fe 7fba 3d35 8b3c 2266 e6bc
000000c0: 9769 143d 9209 22bd a4ce 37bc 2a11 303c
000000d0: 697e 06bd 641a f13b 2863 ddbb 0a20 8d3c
000000e0: 4618 f23b 0324 0f3c 68b6 b93b a0da 32b8
000000f0: 916f 373c b7aa 8f3c 52ac 9fbc dcbc 8dbb
0.025716169 -0.0021199451 0.0037095917 0.026626589 0.004273848 0.018502831 0.019650128 0.0030110138
-0.019920196 0.001941741 0.035809506 0.026489187 0.014732647 0.0393787 -0.041178513 -0.00592032
0.02691878 0.0021348465 0.018855995 0.027639767 -0.077590756 0.006804902 0.023399077 -0.0074040834
0.011313402 0.028580954 0.019480057 -0.004465815 0.010809413 0.008657435 0.052011758 -0.010382555
-0.010529295 0.00015697931 0.040216412 0.025577076 0.027901512 -0.026616517 -0.010080723 0.0014056864
0.02622701 0.03333312 0.014353714 -0.017015707 0.011382676 -0.00097654155 0.01699316 -0.028124873
0.03623351 -0.03955991 -0.011218701 0.01074628 -0.032835398 0.0073578823 -0.006756205 0.017227191
0.0073881475 0.008736613 0.0056674965 -4.2642117e-05 0.011196033 0.017537458 -0.019491348 -0.0043254923

layer1_1vm.2.running_mean f4 [64]
00000000: 2734 8144 0fc4 a6c5 1a66 c0c5 b52b 2d46
00000010: 11f6 36c5 861f 4445 c876 7dc5 d1a3 eb45
00000020: 6da3 ac45 fff8 eac5 8111 8cc6 c76c 8746
00000030: 4a60 15c5 88bd 6dc5 a794 8ec5 7436 8a45
00000040: 4013 c8c5 c2b0 38c6 65ae 74c5 f090 0c46
00000050: f628 b5c6 aaf6 bfc5 49c7 2a43 334c 5ec5
00000060: 9892 a645 1865 4ec5 3cda e4c4 70d5 d8c5
00000070: 67a2 4446 9c2d 1946 f461 0dc6 2a25 a945
00000080: 01c8 9e45 f8a6 5cc5 d960 3a44 d285 a7c5
00000090: 52b0 2dc6 10ee c9c6 6a74 29c5 f347 8d46
000000a0: 615c 99c6 55d6 bc45 db8b 1fc6 aa4c 7b45
000000b0: 97a0 4345 2d75 dbc5 942b d3c5 ce2f 04c6
000000c0: 357e 8644 0b27 56c5 b9ae eac5 e014 07c6
000000d0: 5a53 12c4 8cc3 ce45 c3c8 afc5 5f0d 74c5
000000e0: 250a c746 a484 cb45 9c46 ee45 49bd d844
000000f0: 1493 2546 1b33 4a46 2fea aec5 c228 91c5
1033.6298 -5336.5073 -6156.7627 11082.927 -2927.3792 3137.9702 -4055.4238 7540.477
5524.428 -7519.1245 -17928.752 17334.389 -2390.018 -3803.8457 -4562.5815 4422.8066
-6402.4062 -11820.189 -3914.8997 8996.234 -23188.48 -6142.833 170.77846 -3556.7625
5330.324 -3302.3184 -1830.8198 -6938.6797 12584.601 9803.402 -9048.488 5412.6455
5081.0005 -3530.4355 745.51324 -5360.7275 -11116.08 -25847.031 -2711.276 18083.975
-19630.19 6042.7915 -10210.964 4020.7915 3130.0369 -7022.647 -6757.4473 -8459.951
1075.944 -3426.4402 -7509.8403 -8645.219 -585.30237 6616.4434 -5625.095 -3904.8357
25477.072 6512.58 7624.826 1733.9152 10596.77 12940.776 -5597.273 -4645.0947

layer1_1vm.2.running_var f4 [64]
00000000: eaa4 0549 143a 014b 8456 124b 392f e14b
00000010: 9b10 0f4a 8400 324a 196a 924a 8691 594b
00000020: 66fd 044b 19c2 654b 59b5 a34c e696 8b4c
00000030: 2312 c849 052a 644a 81e9 b24a 5362 a14a
00000040: 301c 284b 8d8a 124c 1ae3 834a 41ba 974b
00000050: 6a9c f44c f8c0 1e4b 4528 6d48 a8c0 3e4a
00000060: 4a1f 034b 0eee 424a bb3e 9a49 8cba 324b
00000070: 1c33 114c 0edf a94b c286 944b 9c9b 004b
00000080: 4c35 d94a 33f7 4c4a 31a5 2849 ca30 eb4a
00000090: 7aee e84b 6a83 214d 01d2 064a c9d0 964c
000000a0: fa55 a94c 9377 0d4b cfcf d44b 67e5 824a
000000b0: 5c08 324a 2c24 284b dc7d 2a4b 4601 854b
000000c0: 04da 8049 8cc3 4a4a 07df 5b4b 3a8f 824b
000000d0: baf7 9b48 b1c7 294b be11 de4a 445d 864a
000000e0: 9dd1 204d e35b 1b4b 4ea1 684b e447 9e49
000000f0: 6881 c44b 983b 174c 3d0e eb4a 670a a14a
547406.6 8.469012e+06 9.590404e+06 2.9515378e+07 2.3439748e+06 2.916385e+06 4.7977085e+06 1.4258566e+07
8.715622e+06 1.5057433e+07 8.5830344e+07 7.318507e+07 1.6389804e+06 3.7382412e+06 5.8625925e+06 5.2882335e+06
1.1017264e+07 3.84149e+07 4.321677e+06 1.9887234e+07 1.2824661e+08 1.0404088e+07 242849.08 3.12529e+06
8.593226e+06 3.1937315e+06 1.2635754e+06 1.1713164e+07 3.8063216e+07 2.2265372e+07 1.9467652e+07 8.428444e+06
7.117478e+06 3.3581568e+06 690771.06 7.706725e+06 3.0530804e+07 1.69359e+08 2.2088962e+06 7.907079e+07
8.878075e+07 9.271187e+06 2.7893662e+07 4.2892035e+06 2.916887e+06 1.1019308e+07 1.117334e+07 1.7433228e+07
1.0555525e+06 3.322083e+06 1.4409479e+07 1.7112692e+07 319421.8 1.1126705e+07 7.276767e+06 4.40285e+06
1.6863074e+08 1.0181603e+07 1.5245646e+07 1.2966365e+06 2.5756368e+07 3.964477e+07 7.7023025e+06 5.2769795e+06

layer1_2vm.0.weight f4 [32, 64]
00000000: 9995 11be b789 7b3d 0c43 d6bd 8410 91bc
00000010: 9b7b a13c 76e6 36bd 53c7 213d 9a1a f63c
00000020: 46d9 dabd 6190 54be 7fee e4bc 1d7b 09be
00000030: 32ff 2fbc a78d 24be 7f6a 093e 3a66 99ba
00000040: 9478 333e ad68 c5bd 9e66 333e fc6c 25be
00000050: 9f00 323e 717d 60be 1e94 18be e9e9 b83d
00000060: f250 8b3e 8ca0 953b 50c7 343e 377d c93e
00000070: cae4 1e3e b3da 81be 9290 d23d 95bf 16bc
00000080: a066 bb3b b794 b13d bde0 9b3e b67f 5e3d
00000090: 6611 42be 9019 ca3c 9250 f93d 292e 623e
000000a0: 8caa d03c 3743 913e dcac 443e 8c2b 223d
000000b0: 3f0c 1a3e 57bb 1b3d 2a59 fb3d 0bc1 9cbd
000000c0: 0e37 42be 7305 233e 075a a1bc 7570 22be
000000d0: 9dd4 86bd 025d d2bd 7be8 57bd c8b8 9a3e
000000e0: 7924 a63d 6eae 5ebc 8fa0 76bc c065 b1bd
000000f0: ded9 89bd 815c 5ebd 606f a63e 277e 09be
00000100: 0bdb d2bd 7a4c 9abd 1ec9 70bd 49ce 78be
00000110: d2ac 83be 46c2 323e 31f7 0ebe 57c5 6e3d
00000120: 3405 a8bd d4ca 8abd 22a9 f6be 8028 0aba
00000130: 6618 59be 4c53 67bd 6449 703d f1ad 3b3e
00000140: 0abb a4be 55fe cabd eeb4 1b3d 08a8 1cbd
00000150: a70a 25bc 9e41 3b3e fad6 2abe dc45 733e
00000160: 4eae 40bd 1e69 833d 532f 0fbd efe2 adbd
00000170: 4b8e 93bd 21a8 10be 67ef ffbd 4eba 2dbe
00000180: 3f4a 32be 4b21 483e 4541 213e 4515 c63c
00000190: 826c 42be 850a 32bd e606 633d d07e 503e
000001a0: 0d34 d0be 527d d8bd 579a a23d fa05 94bd
000001b0: e235 0a3b 98ef 103d c886 82be ec9a 8d3d
000001c0: e3b6 d43d d42b 7e3c ca12 3dbe e3cc c33c
000001d0: 0d5f f33c f40b e53d 2e46 11bd 05b0 ad3c
000001e0: 525c 3bbc 5057 cf3c 7fd3 363e d3db d53d
000001f0: 3e08 193e 7d35 11bd 7e38 5b3d 2644 09be
00000200: e55f ecbd 9a9f f3bc 640d 973d 6fbb 833e
00000210: ab97 b33d c5b7 02be 4d6a eebc 3ac0 c23d
00000220: 2e44 32bd b3ce 7f3e 2702 e7be 879d a73d
00000230: bc42 41bd a81e 60be 8d8e 083e 8adc 1a3e
00000240: cc6f 813d 2ba6 863e 085d c43d 1159 033e
00000250: 59db babd 9b11 ebbd 8769 ad3e 66c0 a53d
00000260: 6fea 37be 4794 7f3e 03d2 53bc 4d39 33bd
00000270: 6f09 bdbd 882d 94ba 7977 3cbe 8e6a 653b
00000280: 46dc abbd cf37 27be 8044 273b df5a 9cbd
00000290: faa2 59be 020e 563c 92e0 2abe 0add 9b3d
000002a0: efdb 1a3e 08ac 0a3d f135 c03d 3346 08be
000002b0: 7a51 8dbd 49ff 58bc 4d8e 473e 2aaa a9bd
000002c0: e46a cc3d ca90 873d 30db eabd c98b 7fbe
000002d0: 9617 acbc ef83 193d b933 3c3e 8637 5cbd
000002e0: b456 f139 c119 da3d 695e 37be 8dc6 3e3e
000002f0: c6d0 04bd fe90 9ebd fd3f 0cbb cc1d 003e
00000300: 1a6e 6f3e 25ae 16be 2563 3ebb afa7 e4bd
00000310: 0079 e5bc 9dfa 00be 39e4 223e acf3 9fbd
00000320: 9618 1abe 684a 1ebe f4c1 97be 91b9 c3bc
00000330: aebb 553c 6df2 87be 5452 a8bd 705d 9abd
00000340: d633 f4bd c4f0 4abd 9ee1 e6bc da0a 35be
00000350: 816c d33d adfa 6bbd 3d12 debd c076 0b3e
00000360: b513 15bd 84bc 0dbe 24a8 99bc d388 ee3d
00000370: 8d81 75be 8408 8cbe af35 ea3d 5b77 bcbc
00000380: 09d4 b23e 5671 843d 79a1 23be 8c8b 26be
00000390: cccd 34bd 32af ba3c 02bc 8fbe 8f14 2bbe
000003a0: e46f 18be 419e 293d 045c 02be 58af 043e
000003b0: 89c7 2c3e 5bc9 20be 3147 e03d a2e5 4c3e
000003c0: 62f2 c8bd 751f 923d 882b 213e f102 62be
000003d0: b96e b03d 4ef5 c6be b970 f73b 0f33 3b3d
000003e0: 3b5f a63d 16c3 e6bc 3d5f f43d 7e98 2cbe
000003f0: 28c2 a53d c983 85bd ecaa 89be a881 00be
-0.14217223 0.061410632 -0.10462007 -0.01770807 0.01971226 -0.04465338 0.03949673 0.030041981
-0.10685973 -0.20758201 -0.027945755 -0.1342587 -0.010741996 -0.16069661 0.13419531 -0.001170344
0.17526466 -0.09639106 0.17519614 -0.16154855 0.1738305 -0.21922852 -0.14900252 0.0902899
0.27210194 0.004566258 0.17654157 0.39353344 0.15516964 -0.25362167 0.10281481 -0.00920095
0.005719021 0.08670943 0.304449 0.054321013 -0.1895195 0.024670392 0.12173571 0.22087921
0.025471948 0.28371593 0.19206566 0.03959231 0.15043734 0.038020458 0.12272866 -0.076540075
-0.18966314 0.15920047 -0.019696249 -0.15863211 -0.065835215 -0.10271646 -0.052711945 0.30219102
0.08112425 -0.013591392 -0.015052929 -0.086619854 -0.06731008 -0.054287437 0.32506847 -0.1342703
-0.102956854 -0.07534118 -0.05878555 -0.24297442 -0.2571779 0.17456922 -0.13961484 0.058293667
-0.082041174 -0.06776968 -0.48175913 -0.0005270317 -0.21200714 -0.056475922 0.05866374 0.18328072
-0.3217395 -0.09911791 0.038014345 -0.038246185 -0.0100733405 0.1828675 -0.1668357 0.23757118
-0.04704123 0.06416534 -0.03495724 -0.0849055 -0.072048746 -0.14126636 -0.12496834 -0.16965601
-0.17411135 0.1954395 0.15747555 0.024180064 -0.18986705 -0.043467063 0.0554265 0.20360875
-0.40664712 -0.10570778 0.07939594 -0.072277024 0.0021089246 0.035384744 -0.25493455 0.06914315
0.103864454 0.015513379 -0.18464199 0.023901409 0.02970841 0.111839205 -0.03546732 0.021202097
-0.011435585 0.025310189 0.17854117 0.10442319 0.1494455 -0.0354514 0.053520672 -0.13404903
-0.11541728 -0.02973919 0.07375601 0.25728938 0.08769163 -0.12765415 -0.029103423 0.095093206
-0.043522052 0.24981193 -0.4511883 0.08184343 -0.047182783 -0.21886694 0.13335629 0.15123191
0.06320152 0.2629865 0.09588057 0.12826945 -0.091238685 -0.11477967 0.33869573 0.08093338
-0.17960523 0.24958907 -0.012928489 -0.04375582 -0.09230315 -0.0011305073 -0.1840495 0.0035006138
-0.08391623 -0.16329883 0.0025523007 -0.0763452 -0.21253577 0.013064863 -0.1668723 0.07610519
0.1512296 0.033855468 0.093852885 -0.13308029 -0.06900306 -0.0132444585 0.19487877 -0.08284409
0.09981325 0.06619413 -0.11467588 -0.24955668 -0.02100734 0.037479337 0.18379106 -0.05376389
0.000460317 0.106494434 -0.17907108 0.18630429 -0.032425664 -0.07742499 -0.0021400445 0.12511367
0.23381844 -0.14714868 -0.0029050794 -0.111647956 -0.028011799 -0.12595601 0.15907373 -0.078101486
-0.15048441 -0.15458071 -0.29640162 -0.023892196 0.013045235 -0.26552144 -0.08218828 -0.07537353
-0.119239494 -0.04954602 -0.028183755 -0.17679921 0.1032343 -0.05761211 -0.108433224 0.13619518
-0.036395747 -0.13841444 -0.018756934 0.11647191 -0.23975201 -0.27350247 0.114360206 -0.023006132
0.34927395 0.064669296 -0.15979566 -0.1626417 -0.044141576 0.022788618 -0.28073126 -0.16707061
-0.14886433 0.04141069 -0.12730414 0.12957513 0.16872992 -0.15701811 0.10951079 0.20009473
-0.09811856 0.07134906 0.15739262 -0.22071435 0.08614869 -0.38859028 0.0075512794 0.04570299
0.081236325 -0.028169196 0.11932228 -0.16855046 0.08093673 -0.06519277 -0.26888216 -0.1254946

layer1_2vm.0.bias f4 [32]
00000000: 32f3 8a3d 8708 b4bc e1ea febc 6005 84bc
00000010: ae1d 38bc e035 c43c 08e0 a43d 0c60 03bb
00000020: a377 9f3d fcf3 47bb a1e6 013d 8697 383c
00000030: 900c dbbc 1062 333d 37f9 3db9 ef5c 47bb
00000040: b108 17bd ce00 50bc e372 dfbc 29f4 283c
00000050: bc7e 853d 8b48 133d c861 6abb 1049 093b
00000060: a8a2 47bb 6c89 7e3d 8514 babd 5d1a 393d
00000070: 7bd5 5d3d 0cd5 fd3d 85ba a23c 2874 01bd
0.06784667 -0.021976722 -0.031117858 -0.016115844 -0.011237545 0.02395147 0.08050543 -0.0020046262
0.07786491 -0.0030510416 0.031714085 0.011266595 -0.026739389 0.04379469 -0.00018117284 -0.0030420383
-0.036873523 -0.012695504 -0.027276462 0.010312119 0.06518313 0.035957854 -0.0035763849 0.002094809
-0.003046194 0.062142774 -0.09085945 0.045191158 0.05415867 0.12394151 0.01986433 -0.031604916

layer1_2vm.2.weight f4 [32]
00000000: e218 8a3f 77c3 763f c431 7b3f b082 823f
00000010: 58d3 803f 9b6a 8d3f b0bd 823f 033d 773f
00000020: a3b7 833f 1475 833f cd48 883f fe24 813f
00000030: 88ac 7f3f bbc6 803f 4226 753f 60cd 803f
00000040: 1771 803f 7930 823f 40e4 883f 7fe0 843f
00000050: b9c5 813f 54ff 843f 2fbf 6f3f c6a7 773f
00000060: c421 7d3f 4318 833f 0c2a 663f 4049 863f
00000070: d1d2 783f c8b9 7a3f d7fa 833f 5678 863f
1.0788844 0.96392006 0.9812281 1.0196133 1.0064497 1.1048158 1.0214138 0.9657747
1.0290416 1.0270104 1.0647217 1.0089414 0.99872637 1.0060648 0.957615 1.0062675
1.0034512 1.0171043 1.0694656 1.0381011 1.0138465 1.039042 0.936511 0.96740377
0.9887965 1.0241779 0.8990791 1.0491104 0.9719668 0.9793973 1.0310925 1.0505474

layer1_2vm.2.bias f4 [32]
00000000: 3648 d53d bbcd 113d cd75 3cbd e95f df3c
00000010: 1655 0ebd 3d4d b43b b515 8f3d 3336 973d
00000020: c055 af3d 4d6d 8e3d 0443 623d 1bab 3f3c
00000030: b705 2abd 3a7f 8e3d f801 43bd 90aa 05bc
00000040: 5f26 cbbc a2da ebb9 f4f5 9e3d 9b8b 6c3d
00000050: 3da2 433d 8323 043d 3223 61bd 9bf1 74bc
00000060: a805 a8bb 406e 793d 191d e3bd dbb8 ad3d
00000070: 43b7 a73c 3a29 a53d 38e9 203d fc2c e13d
0.10414164 0.03559659 -0.04601078 0.027267413 -0.034749113 0.0055023716 0.06986562 0.073833846
0.085612774 0.06954441 0.055239692 0.01169851 -0.041509356 0.0695786 -0.0476093 -0.008158341
-0.02479857 -0.00044985587 0.077617556 0.057750326 0.047762144 0.03226043 -0.054965205 -0.014950181
-0.0051276274 0.06089616 -0.11089534 0.08482524 0.020473128 0.08064504 0.039284915 0.10994908

layer1_2vm.2.running_mean f4 [32]
00000000: 3182 1c3f 5382 4dbf 1fac f33d 0c7b 92bf
00000010: 477b db3d 1737 113e f29e 1b3f b2ba 05bf
00000020: 0556 443e ceca b5be 776b 003f 3a3d 8b3e
00000030: 9350 223e 1a8c f73e f126 25bd 30ed 3f3f
00000040: 48bc 063f 1040 1abe ef00 6dbf 0767 7fbf
00000050: 6a81 073f e96f af3e e7f1 26bf 3ae5 2c3f
00000060: 3c27 d23e 9498 943e 6a90 273e 9738 1e3f
00000070: 18c9 f13e c767 e33e fa2a b63e 8441 6fbf
0.61136156 -0.80276984 0.11898064 -1.1443801 0.10716873 0.14181171 0.60789406 -0.52238
0.19173439 -0.3550629 0.5016398 0.2719515 0.15851049 0.48349077 -0.04032034 0.74971294
0.52631044 -0.150635 -0.9257955 -0.9976658 0.52931845 0.34265068 -0.65212864 0.6753727
0.41045558 0.29022658 0.16363683 0.618051 0.47223735 0.44415113 0.35579664 -0.93459344

layer1_2vm.2.running_var f4 [32]
00000000: a1eb 523f e6ba 933f 1f91 523f 1b97 803f
00000010: d752 4f3f f85f 053f f79f 6f3f 7275 233f
00000020: 11f5 4d3f c642 0f3f f541 2f3f 4f63 003f
00000030: 84b5 093f 4cc1 763f 985b 063f 5f76 273f
00000040: 87f1 543f 8d39 703f b35c 3d3f 74f0 703f
00000050: d399 353f 70c4 403f f19c 2c3f 41f2 473f
00000060: d5b2 193f 7860 353f 4b98 0c3f f9cb 393f
00000070: 7db2 3a3f 145b 313f ee20 163f 7824 4b3f
0.8239079 1.1541412 0.8225269 1.0046114 0.8098578 0.5209956 0.9360346 0.6385108
0.80452067 0.55961263 0.6846002 0.5015153 0.53792596 0.963887 0.5248351 0.65414995
0.8318104 0.93837816 0.7396957 0.941169 0.7093784 0.7529974 0.67426974 0.78104025
0.600385 0.70850325 0.5491988 0.7257686 0.729286 0.692796 0.58643997 0.7935252

layer2.0.weight f4 [32, 64]
00000000: 99b7 f93d ad99 653d cd99 0fbe 7092 9fbe
00000010: 0571 febd eb4c 01be d3c5 46be 92c0 6dbd
00000020: 64aa c0bd 2189 4fbe 889f 8dbd 29e1 aa3e
00000030: 7a41 9c3e bf1e e0bd e6cc 5f3e dce3 b4bd
00000040: c80c cdbd 918a 3e3d 44e2 89bd aabf 033e
00000050: a09f 9abe de69 2b3d 8cec 073d a2a1 d3bd
00000060: 5585 d23d 9605 3ebe 7d57 60be 93ad 5cbe
00000070: 3c77 13bd cdc6 50be bb31 52be 0ca1 97bd
00000080: ba36 8ebc 21d5 82be 28f5 5a3d 2e5a a83c
00000090: c5f7 073e 3522 073e aa1d 9dbe 107c 6ebe
000000a0: f9b9 b33d 48fb 31be 9c14 c13d 47aa 433d
000000b0: d120 ba3d 70f3 12be 8b3c 6abe a190 853e
000000c0: 163f 19be 4dae 4ebe a186 64bd cc68 873d
000000d0: 0006 e0bd bef1 5ebe 47ac 173e 70d8 3aba
000000e0: 22bb d9bc 5cb4 ee3d f2c0 f93b fef0 ecbd
000000f0: e566 063e fa88 04be 2eae 3f3e 86d2 3a3d
00000100: da72 b73d ee7c 7bbc 71d8 95be 67ac b23d
00000110: 6b3b 0f3c c3b6 233e 030d 583e 9aa6 b23e
00000120: 21e3 54bd 95b4 e33d d395 1fbe 6828 54bd
00000130: 68ce 933c 5bff 8e3d 46bf 4e3d 6950 11be
00000140: e39b d03c 6cad c83d 4858 7c3d c3f7 443e
00000150: 1951 a63e b7bd 85bd d419 023d 64ef f1bd
00000160: 2a51 8dbd c6ca bc3d 6166 e03d b311 423e
00000170: d9fd cc3d 1a10 153d bb6f b83d 9768 8cbd
00000180: e6bb 183e 8714 dabc 44fd 533d edeb e7bd
00000190: 638f 5a3d c2da f43d 3477 0f3e df3a fe3d
000001a0: f51d a83d b3fe 1fbc 615b 173e d20b adbd
000001b0: 1653 87be ad9b aebc aac4 50bd 556b 88bd
000001c0: adb1 22be 4add 213d dce6 453e b311 d8bc
000001d0: 4446 673e 4627 593e 7281 ddbc 6633 2e3e
000001e0: f7ac 1ebc 4f0b 983d 999a a0bd 6edc 26be
000001f0: ade8 933c 9ca0 973e cae9 ccbd 1913 a23d
00000200: d66c 48bd 0bbc 603d d569 c9bd 5c25 d3bd
00000210: c30d bf3c e2b5 c33c 6828 3c3d a62d b33c
00000220: 0741 7cbe 759f 3d3e 0988 213e 06d4 01be
00000230: ef98 00be 6399 b53d 2126 31bd fc38 533c
00000240: f79d 393e 6ede 9e3d bca9 3a3d da84 053e
00000250: ebb6 fcbc a40c 8fbc 25c6 543e 214d 233e
00000260: 50d9 773c 3e01 a4bd 4abe ba3d ccf0 8b3e
00000270: 359b 49be 1555 893d 0687 5b3e b720 2fbc
00000280: df72 10be b26d 9cbd 6b15 6cbd 381e 383e
00000290: 628a 4d3e 75e5 de3d 4734 123e 2ab7 69bd
000002a0: 12e1 23be 5d84 ad3d a7ba 55be e22d 013e
000002b0: 06e3 953e acba 193e 2b5e 2b3e 960c ee3c
000002c0: 788d 6dbd f615 aebd 865a 9b3d 70fb 4f3e
000002d0: 6006 9dbd d484 983d 3315 4bbe c664 8fbc
000002e0: badb 943e f1a6 77bd 2b6f 603e 11ef 063d
000002f0: ddd6 ffbd 8f2d eebd 49e3 8a3d 4a18 85be
00000300: c51a 523d 2363 04bd 8689 e13d 2ca9 2b3e
00000310: d7b8 bcbd ca55 063e cc95 96bc 9f31 1bbd
00000320: afc7 213c 5171 863d da1f e9bd 1c8f 0c3e
00000330: c6f6 ebbc f38f 2b3e a087 973d 214c bb3d
00000340: e937 873e 7d61 c9bd 96e9 73bd 50c7 fcbc
00000350: f1ff 103e 5b32 2a3b 6288 9dbd f9ea fd3d
00000360: cddd 99bd 6dac ff3d c094 41bd 72f9 aebd
00000370: 485e a73d 0281 51be db70 5c3d 362a 2f3e
00000380: 6379 dc3c 0dfb 243d 67b3 ce3d 797b 48be
00000390: 57b8 3b3e 2ede 80bd dda4 593e 036e a93d
000003a0: 9d23 6ebd 3fca 2b3e 141e a13b 04a6 48bd
000003b0: c02b 11be a6bd 99bd 89f8 00bd c3ab 94bd
000003c0: 8d81 0c3e f60c 4c3e f479 6fbd f386 c6be
000003d0: 097f 653e 315a 653e 4b6c ea3d c9ad 523e
000003e0: e994 243e a419 debd 5677 a43e 68ad adbd
000003f0: 48cb 01bc 22bb 233d f2c3 9b3d 6acf 86bd
0.121932216 0.05605476 -0.14023514 -0.3116641 -0.124239005 -0.12626998 -0.19411401 -0.058044977
-0.094074994 -0.20267154 -0.06915194 0.3337491 0.30518705 -0.10943364 0.21855506 -0.08832523
-0.100122035 0.046518866 -0.0673261 0.12866083 -0.3019991 0.04184901 0.033184573 -0.103335634
0.10279337 -0.18556818 -0.21908374 -0.21550588 -0.036002383 -0.20388336 -0.20526783 -0.07403764
-0.01736008 -0.2555323 0.053456455 0.020550814 0.1327811 0.13196643 -0.30686694 -0.23289514
0.08775706 -0.17381012 0.09427759 0.04776981 0.090882905 -0.14350677 -0.22874658 0.26086906
-0.14965472 -0.20183678 -0.055792455 0.06611785 -0.109386444 -0.21771905 0.14811812 -0.00071275886
-0.02657849 0.116554946 0.007621878 -0.11569403 0.13125189 -0.12942877 0.18718788 0.045610927
0.08957453 -0.01534961 -0.29266694 0.087242894 0.008742194 0.15987687 0.21098714 0.34892732
-0.05197442 0.11118428 -0.15584497 -0.051796347 0.018042758 0.06982299 0.05047538 -0.1419083
0.025464958 0.097987026 0.06160763 0.19235139 0.32483748 -0.06530326 0.031762913 -0.11813238
-0.069002464 0.092183635 0.10957027 0.18952064 0.10009355 0.03639231 0.09005686 -0.068558864
0.14915428 -0.026621116 0.051755205 -0.11324296 0.0533594 0.11955787 0.14010316 0.124135725
0.08208839 -0.009765315 0.14780952 -0.0844952 -0.26430577 -0.021314466 -0.050968803 -0.06661097
-0.1588809 0.03951768 0.19326347 -0.026375627 0.22585398 0.21206388 -0.027039263 0.17011794
-0.009684793 0.07424032 -0.07841987 -0.16295025 0.018055284 0.29614723 -0.10005529 0.07913799
-0.04893192 0.05486683 -0.09834639 -0.1030986 0.023321992 0.02389044 0.045936972 0.021872353
-0.24634181 0.1851786 0.1577455 -0.12678537 -0.1255834 0.08867147 -0.043249253 0.012892004
0.18126665 0.07757269 0.045572028 0.1303896 -0.03084894 -0.017462082 0.20778711 0.15947391
0.015127495 -0.080080494 0.09118326 0.2733215 -0.19688113 0.06705681 0.21438226 -0.010688952
-0.1410632 -0.0763811 -0.057637613 0.17980278 0.2007232 0.10883609 0.14277755 -0.057059444
-0.16003826 0.08472512 -0.20871983 0.12615159 0.29274768 0.15012616 0.16735141 0.029058736
-0.057996243 -0.085002825 0.07585625 0.2031076 -0.076672316 0.0744721 -0.19832306 -0.017504107
0.29073888 -0.060461942 0.21917407 0.032942835 -0.12492154 -0.11629783 0.067816325 -0.25995094
0.05129506 -0.032321107 0.11012559 0.16763753 -0.09214943 0.13118663 -0.018381976 -0.03788912
0.009874268 0.06564582 -0.11383028 0.13726467 -0.028804194 0.16754131 0.07398915 0.0914538
0.26409844 -0.098330475 -0.059548937 -0.030856758 0.14160134 0.0025969956 -0.076920286 0.12398333
-0.07513008 0.124840595 -0.047261 -0.08543672 0.081722796 -0.20459369 0.053818565 0.17105946
0.02691335 0.040278483 0.10092812 -0.19578351 0.18332039 -0.062923774 0.21254297 0.08272936
-0.058139432 0.1677637 0.0049169157 -0.04898645 -0.14176846 -0.07506876 -0.03148702 -0.072593234
0.13721295 0.19926819 -0.058465913 -0.38774833 0.22411741 0.22397687 0.114464365 0.20574106
0.1607243 -0.10844734 0.32122296 -0.0848034 -0.007922001 0.039973386 0.07605733 -0.0658253

layer2.0.bias f4 [32]
00000000: 921c 873d 55d7 de3e 1023 893e 365b b43e
00000010: 3ccf 953e cd12 1c3e db34 ee3d f340 913e
00000020: d142 b43e 219f ee3d 6425 913d 715c eb3e
00000030: 3af1 d8bd cf05 1bbe a502 773d 039a 823e
00000040: 9c84 fc3e a69e ee3e 6588 e93e ccae 9f3d
00000050: 7618 c43b cbb4 c43d 23f0 27be eea7 99bd
00000060: 6755 efbc 0466 af3d ee7d 733e e84b 3b3d
00000070: 4b02 59bd 1714 863d c77a 133e a141 e93d
0.06597246 0.4352366 0.26784563 0.35225838 0.2925967 0.15241547 0.11631175 0.28369865
0.35207227 0.11651445 0.0708721 0.45968965 -0.10592885 -0.15138935 0.060305256 0.25508127
0.49319923 0.46605414 0.45611873 0.07797012 0.0059843613 0.09604796 -0.16400199 -0.07502733
-0.029215528 0.0856438 0.23778507 0.045726687 -0.052980702 0.065468006 0.14402305 0.11389471

layer2.2.weight f4 [32]
00000000: 376f a33f 8424 c73f a42f ab3f b878 ba3f
00000010: 87a6 aa3f ed68 ca3f f8f6 ca3f e184 883f
00000020: 3003 b33f 8453 cc3f 1000 ce3f fe54 c23f
00000030: a909 1c3f 90b0 e83e 41ef c53f 6af7 993f
00000040: b75d c73f 7c8e c63f d101 c43f 055c b03f
00000050: 91c5 a33f 3895 cb3f acc3 833f ab62 9c3f
00000060: aae0 893f 8b60 cc3f 5e04 1d3f 2a75 353f
00000070: 51f3 4f3f e0d1 c93f e89d 2a3f d2d7 cd3f
1.2768315 1.5558019 1.3373914 1.456809 1.333207 1.5813271 1.5856619 1.0665551
1.3985348 1.5962987 1.6093769 1.5182188 0.6095224 0.45447206 1.546364 1.202863
1.5575475 1.5512233 1.5313054 1.3778082 1.2794667 1.5904913 1.0294089 1.2217611
1.0771687 1.5966963 0.6133479 0.70881903 0.81230646 1.5767174 0.66647196 1.6081488

layer2.2.bias f4 [32]
00000000: d386 8f3e 34aa 1c3f 57ff b93e f45c f43e
00000010: 7902 c53e 73f3 193f 531e 1e3f e5f2 b03d
00000020: d375 e23e f9cc 1d3f 0ddf 1f3f a85b 133f
00000030: d1af c6be 390b 11bf d8d3 133f 7411 773e
00000040: 6f65 1b3f 0179 173f e505 143f 459f cd3e
00000050: 2865 9a3e 3d4e 1e3f 5685 f73c 4d9f 6c3e
00000060: 5ab4 ba3d 39ef 1c3f 0ec5 c8be 1247 99be
00000070: add7 3dbe de1d 1c3f 16eb adbe 5466 213f
0.2803255 0.6119721 0.3632762 0.47727168 0.3847845 0.601371 0.6176502 0.086400785
0.44230518 0.6164089 0.62449723 0.5756173 -0.38806012 -0.5665775 0.5774512 0.24127752
0.6070165 0.5916901 0.57821494 0.40160576 0.301553 0.6183813 0.030214947 0.23107643
0.091164306 0.61302525 -0.3921284 -0.29937035 -0.18539305 0.60983074 -0.3396842 0.63046765

layer2.2.running_mean f4 [32]
00000000: 0347 7ebf f2dc b73f 037f 663f d402 8f3f
00000010: 59b6 853f 81ce 23bf fdfa 35bf dd25 543f
00000020: 6890 913f 8cd9 34bf 93c5 36bf be38 c83f
00000030: 2f25 54bf 3f5e 4abf 8922 25bf 23fd 3f3f
00000040: 82a1 ef3f 498f a93f 4b1b b43f 8977 74bf
00000050: f2cb 4ebf 504b 52bf aaae 73bf d6c3 76bf
00000060: 56b9 66bf 50c7 2fbf 950a 2540 3e34 bbbe
00000070: f38c 41bf 5e9a 1ebf e3bb fd3f a6c2 57bf
-0.99327105 1.4364302 0.90037555 1.1172738 1.0446273 -0.63986975 -0.710861 0.82870275
1.1372194 -0.7064445 -0.71395224 1.5642316 -0.8286924 -0.7905006 -0.6450582 0.7499563
1.8721163 1.3246852 1.4070829 -0.95494896 -0.80779946 -0.8214617 -0.9518839 -0.9639257
-0.9012655 -0.686635 2.5787709 -0.36563295 -0.75605696 -0.61954296 1.9822963 -0.84281385

layer2.2.running_var f4 [32]
00000000: f263 833f 31e3 7e3f 3b20 313f 70c6 5c3f
00000010: 88c8 4c3f db0a 423f 3ac0 603f 0d8b fd3f
00000020: 9c8b 573f 45f1 693f d4db 413f eed4 953f
00000030: b92d 573f e835 8c3f f5af 123f 62f3 1c3f
00000040: b92b dc3f 4838 583f 8ceb 843f af4c 6a3f
00000050: e586 2e3f a449 6a3f 518b 4540 ab85 493f
00000060: 3998 583f cdce 553f d054 4540 14be ea3f
00000070: 3c0b 453f 0274 373f 9d76 3340 c70d 783f
1.0264876 0.99565417 0.69189805 0.8624029 0.79993486 0.75797814 0.87793314 1.980806
0.841974 0.91383773 0.75726056 1.1705606 0.8405414 1.0953951 0.5729974 0.6130887
1.7200843 0.8446088 1.0384383 0.9152326 0.6817458 0.91518617 3.0866282 0.78719586
0.84607273 0.8351868 3.0833015 1.8339257 0.7697027 0.7166139 2.8041146 0.9689602

fc_advantage.0.weight f4 [20, 32]
00000000: 7be2 473e 65c3 04bf f640 2bbe 76c9 9cbe
00000010: 0a75 f0be e5dc f1be a65f dfbe 8c86 d7be
00000020: 0e3d f2be f6aa 573e c626 c7be 1638 4dbe
00000030: 566d 56be 2fdb 27be 94b8 b1be 27e9 0ebf
00000040: fd1a 8ebe 7739 bfbe 9a77 a83d 84ab f7bd
00000050: 3a23 9cbe 0089 94be d94e 1bbe 09c0 92be
00000060: 89c6 d8be 4a0e ba3d 0607 a3bd 4ab3 a3be
00000070: 5719 bdbd 75c3 713d d54c e5be 7745 60be
00000080: ff83 f1be 1916 38bf af3e fabe eec8 efbe
00000090: 37c1 1abf 22db f0be 6516 2dbf 3a81 63be
000000a0: 7754 dfbe ea50 e4be f95d 5fbf 66c3 45be
000000b0: fd64 eebe 9161 c8be 7399 6abf d44f e2be
000000c0: 2eca 33bf a1a1 debe 988b 03bf 55e4 4ebe
000000d0: a7e2 64bf 61ef c3be 6b77 01bf 07ab edbe
000000e0: de1f 15bf f9d2 39bf 0da7 c3be 7ff2 84be
000000f0: 23b3 afbe 7528 d4be 38c7 47bf fae5 21bf
00000100: 3ef9 b8bd 9473 abbe 1ca1 cabe f4e8 b3be
00000110: d876 22bd cb76 69be 7371 31be 49f0 44bf
00000120: 319d d1be 22a1 f3be e5ab 0cbe 8c89 6dbe
00000130: bd36 a5be e8f5 babe 70bc f2be 8301 96bd
00000140: e2cd 8ebe 3d06 68be b1e0 5abf 4f59 babe
00000150: bc3c c4be 3ee2 06bf dae1 05be 7818 8abe
00000160: 18ee 0cbe e75b d6be 28a5 b7be 1106 32be
00000170: 57d1 c3be c656 13be f64d ffbe 6a1f abbe
00000180: 3f8c a0be 74a0 d7be 2845 b9be 8613 0abf
00000190: fc85 0ebe 0812 81be e774 c9be e30d f8be
000001a0: 52be d9be 5708 c5be c1ce 04bf 3693 babe
000001b0: cd7c dcbe cd7b 03bf b8bd 28bf 919c febe
000001c0: 9802 0abf 66eb 10bf 72d3 e2be 5cba eabe
000001d0: 9173 95be 679f 9abe ba5d 44bf a314 f1be
000001e0: b367 6cbe cd32 aabe 3b17 c1bd 4db3 1bbe
000001f0: 4df9 2fbf 9616 a0be 9679 f0be 0d04 c6be
00000200: 8cb6 07be 701d febe b95d 45bf eb70 99be
00000210: 88ae 89be 674a 0ebf 0acc 55be a018 0abf
00000220: 8e71 e2be 3642 013d af4a 0abf c474 20bf
00000230: e15e c8be a6f0 3fbe c0c7 d7be 3ecd 3ebf
00000240: 6105 b2be 1d4c 843e 868e a6be c00d e8be
00000250: bf46 78be 7609 a7be 26d2 a3be dc4b d3be
00000260: 3ce0 ccbe aada 61bd c8ed 52be 4fbd f3bc
00000270: 1d9a eabe f1e8 283d 17fa 2cbf 5a4f 3abe
00000280: d522 91be 488b 7dbe 0739 61be cd73 81be
00000290: d4ab 14bf a6bc 44be 3605 f5be e549 e0be
000002a0: 77cb 8fbe 2b91 2abe 5553 36bd ac58 aebe
000002b0: d1ce ebbe e8c2 20bf 14ce e7bd 0c9f dabe
000002c0: 175b 05bf 17a3 0abf 5a6b 16bf a8ea 373d
000002d0: 090c 6dbe 68c1 b3be 8f6f 48be 7b63 1abf
000002e0: e325 c4be c979 5dbe 3742 1bbf ecfc 85be
000002f0: 2338 d5be 3743 1abf a729 edbe 7321 e4be
00000300: 9ebb 0fbf c962 86be a7a4 d0be 5121 8ebe
00000310: 4042 c0bc b377 b5bd ea3f 2cbe ca45 a8be
00000320: 3cab 94be 1386 4dbe a4f9 dbbd 0f89 25be
00000330: ae44 e0be 6f68 b6bd 4e3d 1ebe 4b07 c6be
00000340: 5269 bbbe 29ed aabe 585b 3abe 4245 03bf
00000350: ec97 fbbe 4a77 35bf ed22 e1be a591 57bd
00000360: a6c7 c3be a94c d9be 6ec6 74be 3cce a63d
00000370: aa4c 85be 5aee d9be 785c b7be b6b9 3cbe
00000380: 5e3d cebe 90fd 2bbe c2e8 99be 74df 0fbf
00000390: a27b f2be b5d9 1ebf f346 d23d ba55 55be
000003a0: ac6f 9ebe b56d 2dbe 6b0c 18bf 1cef 84be
000003b0: 6003 d33d 1a14 cbbe e200 4ebe 2d75 a2be
000003c0: 30c6 63be c13e dabe 2f02 a7be 85db c0be
000003d0: 2143 e2be 824f e1be 43fb 59be df39 fdbc
000003e0: ce00 06bf 955a 96be dd0a cdbe f309 5abe
000003f0: 21e8 dabe 145b 98ba a9ab c5be 95af 4f3d
0.19519989 -0.5186065 -0.16724 -0.30622452 -0.46964294 -0.47238842 -0.4362766 -0.4209484
-0.47312206 0.2106131 -0.3889677 -0.20040926 -0.20940146 -0.16392206 -0.34711134 -0.5582451
-0.27754965 -0.3734853 0.08225937 -0.12093261 -0.30495626 -0.29010773 -0.15166797 -0.28662136
-0.4233897 0.09084757 -0.07960324 -0.31972724 -0.09233349 0.059024293 -0.4478518 -0.21901499
-0.47171018 -0.7190872 -0.4887595 -0.46832985 -0.6045107 -0.47042185 -0.67612296 -0.22217265
-0.4361913 -0.44592983 -0.87252766 -0.1931282 -0.46561423 -0.39136937 -0.91640395 -0.4420153
-0.70230377 -0.43482688 -0.5138488 -0.2020429 -0.89408344 -0.3826857 -0.5057284 -0.46419546
-0.5825175 -0.72587544 -0.38213387 -0.2596626 -0.34316358 -0.41437116 -0.7803836 -0.6324154
-0.09031914 -0.33486617 -0.39576042 -0.35138667 -0.03966412 -0.22799222 -0.17328434 -0.76929146
-0.4094024 -0.47583872 -0.13737448 -0.23197001 -0.32268324 -0.36515737 -0.4740939 -0.07324507
-0.2789145 -0.2265863 -0.854991 -0.36396262 -0.38327587 -0.5268897 -0.13074437 -0.26971793
-0.137627 -0.4186699 -0.35868192 -0.17385127 -0.3824565 -0.1438857 -0.49864167 -0.33422405
-0.31357 -0.42114604 -0.36185575 -0.5393604 -0.13918298 -0.2520907 -0.39347002 -0.48448095
-0.42528015 -0.38482925 -0.5187798 -0.36440438 -0.43063965 -0.5136078 -0.6591449 -0.49728826
-0.5391021 -0.5660919 -0.44301945 -0.45845306 -0.29189733 -0.3019974 -0.76705515 -0.47086057
-0.23086433 -0.33241883 -0.09428259 -0.15205117 -0.6873978 -0.31267232 -0.46967763 -0.38674966
-0.1325323 -0.49631834 -0.77096134 -0.29968962 -0.2689097 -0.5558228 -0.20878616 -0.53943825
-0.4422726 0.031557284 -0.5402021 -0.6267817 -0.39134887 -0.18744144 -0.42144585 -0.74531925
-0.3476973 0.2583932 -0.32530612 -0.4532299 -0.24245737 -0.32624406 -0.31996268 -0.41268814
-0.40014827 -0.055140175 -0.20598519 -0.029753355 -0.45820704 0.041237775 -0.67569107 -0.18194333
-0.28346887 -0.24760163 -0.2199441 -0.2528366 -0.5807469 -0.19212589 -0.47855538 -0.43806377
-0.2808492 -0.1665694 -0.044513065 -0.34052026 -0.46056226 -0.62797403 -0.11318603 -0.42699468
-0.5209212 -0.54155105 -0.58757555 0.04490152 -0.23149122 -0.35108495 -0.19573806 -0.60308045
-0.38310155 -0.21628489 -0.6064791 -0.26169527 -0.4164439 -0.6025881 -0.4632084 -0.4455677
-0.56145656 -0.26247242 -0.4075062 -0.27759793 -0.02346909 -0.088607214 -0.16821256 -0.32865745
-0.2903689 -0.20070677 -0.107409745 -0.16165565 -0.43802398 -0.08906638 -0.15453073 -0.3867744
-0.3660379 -0.33384064 -0.18198907 -0.51277554 -0.49139345 -0.70885146 -0.4397196 -0.05262913
-0.38238257 -0.424413 -0.2390382 0.08144805 -0.26035053 -0.4256466 -0.35812736 -0.18430218
-0.40281194 -0.16795945 -0.30060393 -0.5620034 -0.4735995 -0.62050945 0.10267439 -0.20833483
-0.30944574 -0.16936381 -0.5939395 -0.25963676 0.10303378 -0.39663774 -0.20117524 -0.31730023
-0.22243571 -0.42626002 -0.32618853 -0.3766748 -0.4419184 -0.44005972 -0.21287255 -0.030911384
-0.5234498 -0.29365984 -0.4004735 -0.21292858 -0.42755225 -0.0011623823 -0.3860753 0.050704557

fc_advantage.0.bias f4 [20]
00000000: 2234 81be 1775 00bf 41cf adbe ac2a a2be
00000010: 493c 7abe 6b31 65be b642 aebe e874 95be
00000020: c02d 8fbe 1b3f cabd 5e45 76bd 3019 e2bd
00000030: d607 03be 2ef2 03be be2e 363b c80e 20bd
00000040: 67b2 85bd e59f 53bd 9a34 193c 5b39 283d
-0.25235087 -0.50178665 -0.33947185 -0.3167318 -0.2443706 -0.22382133 -0.3403527 -0.29190755
-0.27964592 -0.09875318 -0.060124747 -0.110399604 -0.12795958 -0.12885353 0.0027798857 -0.039076596
-0.06528168 -0.05166616 0.00935092 0.041070323

fc_value.0.weight f4 [1, 32]
00000000: 9890 ea3e 0bd6 383f b18f f93e e697 0d3f
00000010: 8f84 f63e 3439 3a3f c8ab 973f 3a55 ae3e
00000020: 1d27 073f 9629 533f d830 533f 418a 243f
00000030: e39a d53d 06bd 62be 0a76 233f f89f ce3e
00000040: ced3 863f 3ddb 423f e094 353f ca4a 083f
00000050: b4df dc3e af23 523f 2515 9c3e 0fe2 dc3e
00000060: 2311 b13e 4a16 463f c573 7a3d 8584 0a3e
00000070: 29c1 533e 2b41 513f c8f6 7c3d e610 643f
0.4581344 0.72201604 0.4874244 0.55309904 0.4814801 0.72743535 1.1849298 0.34049398
0.5279406 0.8248533 0.82496405 0.6427346 0.10429933 -0.22142419 0.6385199 0.4035642
1.0533388 0.7611578 0.7093029 0.5323912 0.43139422 0.820857 0.30484882 0.4314122
0.34583387 0.7737776 0.061145563 0.13527115 0.20679154 0.81740063 0.061758786 0.89088285
