save/client-7/eval.pth (torch, 21957 bytes, 27 tensors)

layer1_task.0.weight f4 [16, 3]
0	0xbecd3fc7	-0.4008772
1	0x3e9f7dc8	0.3115065
2	0x3d945137	0.07242053
3	0x3da427b3	0.080153845
4	0x3e9b02af	0.30275485
5	0xbd4fa407	-0.050693538
6	0x3f087497	0.533029
7	0x3e278ce9	0.16362347
8	0xbea115de	-0.31461996
9	0xbf137989	-0.5760732
10	0x3ee713cb	0.45132288
11	0x3e22d244	0.15900522
12	0xbeaaaebb	-0.33336434
13	0x3e49d1ff	0.19709013
14	0xbe8f015a	-0.2793072
15	0xbe7c9ed6	-0.24669966
16	0xbebdb231	-0.37050012
17	0x3e23d7fd	0.16000362
18	0x3f0fc5c1	0.56161124
19	0x3e0b62f5	0.13611968
20	0x3d949627	0.07255202
21	0xbf1f7bd2	-0.6229831
22	0x3ede8426	0.43460196
23	0x3da13bfa	0.07872768
24	0xbf26eecf	-0.65208143
25	0xbe606391	-0.21912982
26	0x3ed2dc1a	0.4118355
27	0xbf2b2a4e	-0.66861427
28	0x3e5043a5	0.20338304
29	0xbe81db43	-0.25362596
30	0x3d088aa9	0.03333536
31	0x3d3fb8bb	0.046807032
32	0xbd63d37c	-0.05562161
33	0x3d5300e7	0.051514532
34	0x3dd242ab	0.10266622
35	0xbec32964	-0.38117516
36	0x3d4094cf	0.047016915
37	0x3d9b1a8f	0.07573425
38	0xbd89abc0	-0.06722212
39	0x3ddecfbb	0.10879465
40	0x3de3f912	0.11131491
41	0x3bcceea4	0.006254034
42	0x3dde24ce	0.10846864
43	0xbe065c26	-0.1312109
44	0xbe85a501	-0.2610245
45	0x3c88a7f5	0.01668165
46	0xbf0e4047	-0.5556683
47	0x3e8b2bff	0.27182004

layer1_task.0.bias f4 [16]
0	0xbc02df18	-0.00798776
1	0xbc844202	-0.016144756
2	0x3b352e53	0.002764602
3	0x3b5d0023	0.0033722005
4	0x3c9e0cdf	0.019293247
5	0xbcd8dc20	-0.026472151
6	0xbc6096b3	-0.0137078045
7	0xbd5b78f9	-0.053582165
8	0xbbf80422	-0.007568852
9	0x3d454fce	0.04817181
10	0x3c7e7a81	0.015532137
11	0x3c21fe00	0.0098872185
12	0xbcddc07f	-0.027069328
13	0xbd0e3b3a	-0.03472445
14	0xbc0497e1	-0.008092851
15	0x3c9c7cf5	0.019102553

layer1_task.2.weight f4 [16]
0	0x3f80fee7	1.007779
1	0x3f830e10	1.0238667
2	0x3f851fe5	1.0400358
3	0x3f7b2a11	0.98111063
4	0x3f7a9d0a	0.9789587
5	0x3f84b865	1.0368773
6	0x3f814660	1.0099602
7	0x3f862681	1.04805
8	0x3f811969	1.008588
9	0x3f780839	0.96887547
10	0x3f817ae8	1.0115633
11	0x3f76f130	0.9646177
12	0x3f83cb1c	1.0296359
13	0x3f84d676	1.0377948
14	0x3f807a70	1.0037365
15	0x3f7f13bc	0.9963949

layer1_task.2.bias f4 [16]
0	0x3c01227a	0.007881755
1	0x3ca42587	0.020037426
2	0x3d2c023a	0.04199431
3	0xbcb22897	-0.02174787
4	0xbccd8bb3	-0.025091028
5	0x3d181522	0.03712953
6	0x3b6ed0e2	0.0036440422
7	0x3d22959d	0.039693464
8	0x3c0aa0e6	0.008461213
9	0xbcdcf4a0	-0.026972115
10	0x3c82acbd	0.015951509
11	0xbd1d87b9	-0.038459513
12	0x3cf71263	0.030160135
13	0x3cd41478	0.025888667
14	0xbb380c89	-0.0028083643
15	0xbb0682d1	-0.002052475

layer1_task.2.running_mean f4 [16]
0	0xc7357414	-46452.08
1	0x4614a311	9512.767
2	0x4775e21f	62946.12
3	0xc7813c76	-66168.92
4	0xc7146242	-37986.258
5	0xc6da660a	-27955.02
6	0x4780aaaa	65877.33
7	0xc78e8efe	-72989.984
8	0xc79110b0	-74273.375
9	0xc7982ee5	-77917.79
10	0x4564db87	3661.7205
11	0x45ab06ca	5472.8486
12	0x45a8ceba	5401.841
13	0x4640b4b0	12333.172
14	0x463e65c8	12185.445
15	0x451102a0	2320.164

layer1_task.2.running_var f4 [16]
0	0x4e042790	5.542963e+08
1	0x4b965f08	1.9709456e+07
2	0x4e5c77c8	9.247094e+08
3	0x4e8adf93	1.164954e+09
4	0x4dc78a63	4.184669e+08
5	0x4d524a5a	2.205055e+08
6	0x4e800574	1.0739205e+09
7	0x4e9e6e79	1.32902e+09
8	0x4eb453f9	1.512701e+09
9	0x4eba0fec	1.5608028e+09
10	0x4a786986	4.0699855e+06
11	0x4afc2648	8.262436e+06
12	0x4ae2c570	7.43084e+06
13	0x4c28c1ff	4.4238844e+07
14	0x4c179aef	3.9742396e+07
15	0x498febf2	1.1790062e+06

layer1_1vm.0.weight f4 [32, 40]
0	0x3d5359b7	0.05159923
1	0xbe438a87	-0.19095813
2	0x3e437c21	0.1909032
3	0x3e0b57c4	0.13607699
4	0xbd84ffde	-0.06494115
5	0xbdc6fcf1	-0.097162135
6	0xbd41331f	-0.047167893
7	0x3dad8b47	0.08473831
8	0xbe324947	-0.17410766
9	0xbdf5d913	-0.12004294
10	0x3e06a7cb	0.13149945
11	0xbe833cb0	-0.25632238
12	0xbc6d1712	-0.014470832
13	0xbe4c3078	-0.19940364
14	0xbe83987e	-0.2570228
15	0xbd5dc917	-0.054146852
16	0xbe0ebd67	-0.13939439
17	0x3b21c268	0.0024682526
18	0x3d85aefb	0.065275155
19	0x3d15ce71	0.03657383
20	0xbe9b0560	-0.30277538
21	0xbe0605af	-0.13088106
22	0xbdef50aa	-0.11685307
23	0xbd77ddee	-0.060514383
24	0xbdcbd94d	-0.09953556
25	0x3bb70ac8	0.005586002
26	0xbe8bd78a	-0.2731288
27	0x3d9ed7f2	0.07756032
28	0xbdd6c7bc	-0.10487315
29	0xbe215c91	-0.15757968
30	0xbe83a607	-0.25712606
31	0x3d389a0a	0.045068778
32	0x3cdd85bc	0.027041309
33	0x3e695fe1	0.22790481
34	0x3e4eb225	0.20185144
35	0x3e9d47ee	0.3071894
36	0xbe4df979	-0.20114698
37	0xbce63b2e	-0.028104391
38	0xbd777975	-0.060418565
39	0xbe632d27	-0.22185193
40	0x3dd41a61	0.10356594
41	0xbd011030	-0.03150958
42	0x3e3a1f25	0.18175943
43	0x3e09b158	0.13446558
44	0xbd683ef0	-0.056700647
45	0xbe0180cc	-0.12646788
46	0x3e9109b0	0.28327703
47	0xbd8b74e1	-0.06809402
48	0xbe4ef3d5	-0.20210202
49	0xbdb2893b	-0.08717581
50	0x3cfbc8ad	0.030735338
51	0x3e937599	0.28800657
52	0x3e3917dd	0.1807551
53	0x3c8e90b2	0.01740298
54	0xbddf0d26	-0.1089118
55	0xbe4a7606	-0.19771585
56	0x3e03a368	0.12855303
57	0x3d88ead1	0.06685413
58	0xbe819d58	-0.25315356
59	0xbd004eaa	-0.03132502
60	0x3ec988ce	0.39362186
61	0xbe994ae8	-0.2993996
62	0x3e0f34ec	0.13985032
63	0x3e3c0182	0.1835995
64	0xba8556cf	-0.0010172966
65	0x3da05e0e	0.078304395
66	0x3e68c361	0.22730781
67	0xbd722db2	-0.05912561
68	0x3e01b4ae	0.1266658
69	0xbe61a039	-0.22033776
70	0x3e6b7203	0.22992711
71	0x3e284e4e	0.16436121
72	0xbd9edf01	-0.07757378
73	0x3e361329	0.17780747
74	0xbcf32ca4	-0.029684372
75	0xbe166a56	-0.14689001
76	0x3e312f8b	0.17303292
77	0x3d8fdac9	0.07024152
78	0x3e32b7a0	0.1745286
79	0xbdd6970f	-0.10478031
80	0x3e180f86	0.14849672
81	0x3e6a00b8	0.22851837
82	0xbc93d344	-0.018045075
83	0xbd7e15e6	-0.062032603
84	0x3e5222a9	0.20521034
85	0xbdeca544	-0.115549594
86	0x3e4061d2	0.18787315
87	0xbde55147	-0.11197143
88	0x3e9acd4a	0.30234748
89	0xbda8f7f2	-0.08250417
90	0xbdaef29a	-0.08542366
91	0xbcd398e4	-0.02582974
92	0x3d05337e	0.03251981
93	0xbed2a933	-0.41144714
94	0xbd8db625	-0.06919507
95	0xbdb3172a	-0.087446526
96	0x3e53f804	0.20700079
97	0xbbd3cf0b	-0.0064638904
98	0xbd580d55	-0.05274709
99	0xbc187d72	-0.009307252
100	0x3e88aecd	0.26695862
101	0xbec9f65d	-0.39445773
102	0x3e4c2743	0.19936852
103	0x3cf18ab8	0.029485092
104	0xbe0c79fd	-0.1371841
105	0xbe117ba1	-0.14207317
106	0x3e42116c	0.18951958
107	0xbdb041be	-0.08606289
108	0xbcc21c79	-0.023695217
109	0xbd498ee4	-0.049208537
110	0x3d2617e4	0.040550128
111	0x3c61e6b4	0.013787914
112	0x3d8038c0	0.06260824
113	0xbe64f3f4	-0.22358686
114	0xbdd2c282	-0.10291006
115	0x3d3d52da	0.04622159
116	0xba605616	-0.00085577497
117	0x3e1f9250	0.15583158
118	0xbdd1f7e1	-0.10252357
119	0x3e37392d	0.17892905
120	0x3eabecfc	0.33579242
121	0xbd5c5164	-0.053788558
122	0xbe8acfb0	-0.27111578
123	0x3e23bef7	0.15990816
124	0xbe44e4ca	-0.19227901
125	0xbc6d5a7d	-0.014486906
126	0x3d340dd5	0.043958504
127	0xbe6b89be	-0.23001763
128	0x3dc5a933	0.09651413
129	0xbdcc44cc	-0.099740595
130	0xbd2a67bb	-0.04160283
131	0xbbc3fa8c	-0.0059807952
132	0x3da82ec5	0.082120456
133	0xbe398cbb	-0.1812009
134	0x3da4f1d8	0.080539405
135	0xbdd325db	-0.10309955
136	0x3e2d8dc5	0.16948612
137	0x3e4619c6	0.1934577
138	0xbdfcd378	-0.12345022
139	0xbea3f2fd	-0.32021323
140	0x3ebeceeb	0.3726724
141	0xbd90de92	-0.07073702
142	0xbd4a3d39	-0.049374793
143	0xbe86d4c0	-0.2633419
144	0x3da5f70f	0.08103763
145	0x3e714b22	0.23563817
146	0x3d449800	0.04799652
147	0xbe19a3bd	-0.15003867
148	0x39e753a8	0.00044122082
149	0xbe0c64c8	-0.1371032
150	0x3ed36293	0.41286144
151	0xbe0da24e	-0.13831446
152	0xbd2e4389	-0.042544875
153	0x3d612207	0.05496409
154	0xba2ed881	-0.0006669835
155	0xbd562bd6	-0.0522879
156	0x3ec2eb1a	0.38069993
157	0x3dcf556b	0.10123714
158	0x3ed9b19f	0.42518327
159	0xbd005644	-0.03133227
160	0x3de7f3fa	0.11325832
161	0x3d1a8eda	0.03773389
162	0x3d543f1c	0.051818
163	0x3d03f8b9	0.032219622
164	0x3cf503ca	0.029909033
165	0x3e2c101e	0.16803023
166	0x3c4c5f06	0.012473827
167	0x3c63ae56	0.013896545
168	0xbe2bbe2b	-0.16771762
169	0x3ddd1350	0.10794699
170	0xbca288a9	-0.019840555
171	0xbe595021	-0.21221973
172	0x3d94bfde	0.07263158
173	0xbdd57c6c	-0.10424122
174	0x3eb885ec	0.36039674
175	0xbe84050e	-0.25785106
176	0xbe98b57d	-0.29825965
177	0x3bf79083	0.007555069
178	0xbe0030a8	-0.12518561
179	0xbe3da8f0	-0.18521476
180	0xbd640cf6	-0.055676423
181	0xbd825b13	-0.06365027
182	0xbe824176	-0.25440568
183	0xbd6b2bbb	-0.05741475
184	0xbca9561d	-0.020670945
185	0x3de921b2	0.1138338
186	0xbd30746d	-0.043079782
187	0xbc070c15	-0.008242627
188	0xbda834c9	-0.08213193
189	0x3d6e1129	0.058121834
190	0x3dad6b6a	0.08467753
191	0xbe25a1c5	-0.16174991
192	0xbdb9dd9a	-0.0907547
193	0xbd21e342	-0.03952337
194	0xbe45dc8a	-0.1932241
195	0x3d3ccdeb	0.046094816
196	0x3d09520c	0.03352551
197	0x3e4169ee	0.18888065
198	0xbdd1aa43	-0.10237553
199	0xbe093f53	-0.13403063
200	0x3e479270	0.19489455
201	0x3dc33d02	0.09533121
202	0x3e09d3ba	0.13459674
203	0xbca151a5	-0.019692251
204	0x3eb6a2d2	0.35671097
205	0x3ba634e6	0.005072224
206	0x3e02778b	0.12740915
207	0xbda2c87c	-0.079483956
208	0x3eb1dee4	0.34740365
209	0x3e3296ee	0.17440388
210	0x3d5f4163	0.054505717
211	0xbdcc8285	-0.09985832
212	0xbe137ff2	-0.14404276
213	0xbc8113de	-0.015756544
214	0xbe29e9cc	-0.16593093
215	0x3d640c5e	0.055675857
216	0x3e7f9001	0.24957277
217	0x3dd75163	0.1051357
218	0xbeddc921	-0.43317512
219	0xbe7391d8	-0.23786104
220	0x3e9b1da2	0.30296046
221	0xbe2dbd59	-0.16966762
222	0x3e3e8982	0.18607143
223	0xbd7156b0	-0.058920562
224	0xb8889ff6	-6.5147804e-05
225	0x3cb8512d	0.022499645
226	0xbe33dd04	-0.1756478
227	0x3dbd250b	0.09235581
228	0xbdb2f357	-0.0873782
229	0xbc70db71	-0.014700756
230	0xbd9aff7a	-0.075682595
231	0xbe51f900	-0.20505142
232	0xbe517fa4	-0.20458847
233	0xbdad9bfc	-0.08477017
234	0x3e84cb89	0.25936535
235	0x3df0d76e	0.1175984
236	0x3e5476cf	0.20748447
237	0xbca80914	-0.020512141
238	0x3e8f44f0	0.27982283
239	0x3e089ede	0.13341853
240	0x3dabdafb	0.083913766
241	0xbe168a6b	-0.1470124
242	0xbde9fd59	-0.11425275
243	0xbdf3aad3	-0.118978165
244	0x3df1af93	0.11801066
245	0xbe9f1cb0	-0.31076574
246	0xbd156f9e	-0.0364834
247	0x3e594fc3	0.21221833
248	0xbd5a7950	-0.05333835
249	0xbea1e450	-0.316195
250	0xbd81bffb	-0.063354455
251	0x3e9bbbb4	0.30416644
252	0xbe53b8f4	-0.20676023
253	0xbe9fbc90	-0.3119855
254	0x3e92e413	0.28689632
255	0x3dc99404	0.09842685

layer1_1vm.0.bias f4 [32]
0	0xbc9ed1da	-0.019387174
1	0x3ca81f20	0.020522654
2	0x3cf03bfd	0.02932548
3	0x3d511f64	0.051055327
4	0xbcc87535	-0.024469951
5	0x3cdfa4ef	0.027300326
6	0x3c81ac4b	0.015829226
7	0x3d43d154	0.047807053
8	0x3cd61f9d	0.026138121
9	0x3d03967e	0.032125942
10	0x3d0508c5	0.032479066
11	0x3cacdf39	0.021102535
12	0x3c3ea207	0.01163531
13	0x3c7dcf15	0.015491267
14	0x3c94f6ce	0.018184092
15	0xbcbeb7da	-0.023281027
16	0x3bace13c	0.0052758735
17	0xbc1fbcb4	-0.00974958
18	0x3d26bc43	0.040706884
19	0x3c4ce1b0	0.01250498
20	0x3ba3510a	0.004984026
21	0xbca3fe58	-0.020018741
22	0xbc6a2de8	-0.014293171
23	0xbcc11b72	-0.023572657
24	0x3cce6d79	0.025198685
25	0xbd1f2619	-0.038854692
26	0xbc8560b9	-0.016281473
27	0x3d003f8b	0.0313106
28	0xbcc2c71c	-0.023776583
29	0xbc38f204	-0.01128817
30	0xbd695de4	-0.056974307
31	0xbdb1afe2	-0.08676125

layer1_1vm.2.weight f4 [32]
0	0x3f8324bd	1.0245587
1	0x3f81be80	1.0136261
2	0x3f773ed9	0.9658027
3	0x3f7f0132	0.996112
4	0x3f867ef4	1.0507493
5	0x3f7f6835	0.9976838
6	0x3f7fd843	0.99939364
7	0x3f7a7910	0.97840977
8	0x3f80c584	1.0060277
9	0x3f7cc400	0.9873657
10	0x3f7f3774	0.9969399
11	0x3f7a7011	0.9782725
12	0x3f721f42	0.94578946
13	0x3f81c89f	1.013935
14	0x3f800b5b	1.0003465
15	0x3f822cab	1.0169882
16	0x3f81f2e0	1.0152245
17	0x3f7df908	0.99208117
18	0x3f7773bd	0.9666098
19	0x3f786e21	0.97043043
20	0x3f841a6e	1.0320566
21	0x3f8231e5	1.0171477
22	0x3f83f764	1.0309873
23	0x3f7c4f20	0.98558235
24	0x3f74aa0d	0.95571977
25	0x3f85fbd9	1.0467483
26	0x3f7fd46f	0.9993352
27	0x3f80a53e	1.0050428
28	0x3f7ef0ab	0.9958598
29	0x3f70a341	0.93999106
30	0x3f89490c	1.0725417
31	0x3f86e9cc	1.0540099

layer1_1vm.2.bias f4 [32]
0	0x3ca525cb	0.020159623
1	0x3cb25e84	0.021773584
2	0xbc507a45	-0.012724464
3	0x3ac1fea4	0.001480062
4	0x3d4fe1d0	0.05075246
5	0x3ab89224	0.0014081639
6	0x3aadc71d	0.0013258193
7	0xbc14e96c	-0.009088855
8	0x3b0ed777	0.0021795908
9	0xbbea0bad	-0.007142505
10	0x3c9bdf0d	0.019027257
11	0xbccc50a0	-0.024940789
12	0xbd3af227	-0.04564109
13	0x3cc187c8	0.023624316
14	0xbc1fc9a2	-0.009752663
15	0x3c93882e	0.018009271
16	0x3c5badc7	0.013408131
17	0xbbc7ce19	-0.006097567
18	0xbd077426	-0.033069752
19	0xbd08467a	-0.033270337
20	0x3d0b8b72	0.034068532
21	0x3ba63dc4	0.005073281
22	0x3ce626ce	0.028094675
23	0xbc955328	-0.018228129
24	0xbd135b02	-0.035975464
25	0x3d64b971	0.055840913
26	0xbb876a22	-0.004132525
27	0x3c43bfd4	0.011947591
28	0xbb9d6179	-0.0048028794
29	0xbd8fe935	-0.070269026
30	0x3d82c44d	0.06385098
31	0x3d03b8f7	0.032158818

layer1_1vm.2.running_mean f4 [32]
0	0xc60562bc	-8536.684
1	0x460b842c	8929.043
2	0x4569f9cf	3743.613
3	0x46358d3d	11619.31
4	0xc59dae99	-5045.8247
5	0x45bcec31	6045.524
6	0xc52d5304	-2773.1885
7	0x45a0e808	5149.004
8	0x45b5625a	5804.294
9	0x45ae4b61	5577.4224
10	0xc45acb17	-875.1733
11	0xc50b9953	-2233.5828
12	0x459f5a0b	5099.2554
13	0xc56c87f4	-3784.497
14	0x4526165f	2657.3982
15	0x443c0c64	752.1936
16	0x45cd89f8	6577.246
17	0xc55b4298	-3508.162
18	0xc38da6f7	-283.3044
19	0xc5aed50b	-5594.6304
20	0x4579bfce	3995.9878
21	0xc5217493	-2583.286
22	0xc511a94b	-2330.5808
23	0xc5bc20f5	-6020.1196
24	0x43b44ef1	360.61673
25	0x4559824f	3480.1443
26	0xc5299181	-2713.094
27	0xc4c275cf	-1555.6815
28	0x45eeabf4	7637.494
29	0x45075b4a	2165.7056
30	0xc41ec7d9	-635.1226
31	0xc3a90bd8	-338.09253

layer1_1vm.2.running_var f4 [32]
0	0x4b6cfe44	1.5531588e+07
1	0x4b8b44de	1.8254268e+07
2	0x4a6d2a7d	3.8857272e+06
3	0x4be0ca15	2.9463594e+07
4	0x4aab6a54	5.616938e+06
5	0x4aff3da4	8.36373e+06
6	0x49c7089c	1.6304835e+06
7	0x4ab30186	5.865667e+06
8	0x4afa4f4b	8.2021495e+06
9	0x4acee1c3	6.7791055e+06
10	0x4950e99d	855705.8
11	0x49d9104a	1.7781852e+06
12	0x4aab2926	5.608595e+06
13	0x4a687aea	3.8089545e+06
14	0x4a1db098	2.58359e+06
15	0x482dbc1a	177904.4
16	0x4b0a5aeb	9.067243e+06
17	0x4a5a3d4f	3.5756358e+06
18	0x4773a427	62372.152
19	0x4b15bc2b	9.813035e+06
20	0x4a83e1fb	4.3215335e+06
21	0x49bbc9a9	1.5383571e+06
22	0x4999b2ae	1.2590938e+06
23	0x4af77134	8.108186e+06
24	0x47a5f973	84978.9
25	0x4a2d2d66	2.8373375e+06
26	0x49ef62ed	1.9610536e+06
27	0x492eadaf	715482.94
28	0x4b5d63bb	1.4508987e+07
29	0x4a154d74	2.446173e+06
30	0x483870b5	188866.83
31	0x490256dc	533869.75

layer1_2vm.0.weight f4 [16, 32]
0	0x3d862874	0.065506846
1	0x3cd2dd5b	0.025740316
2	0xbe2d38c9	-0.16916193
3	0xbde2bd7d	-0.11071298
4	0xbe404991	-0.18778063
5	0x3e83e4d5	0.25760522
6	0x3cb8d81d	0.022563988
7	0xbc9fa83e	-0.019489404
8	0xbeafac53	-0.3431116
9	0x3d5faa67	0.054605868
10	0xbd92953f	-0.07157373
11	0x3e20c859	0.15701427
12	0x3e426622	0.18984273
13	0x3ea52dd1	0.32261518
14	0xbeea1f66	-0.4572708
15	0xbea49c69	-0.3215058
16	0xbea0b007	-0.31384298
17	0x3d5d27b3	0.05399294
18	0x3e04631c	0.12928432
19	0xbdc6c91a	-0.09706326
20	0xbeaf267c	-0.3420905
21	0x3e5b56b8	0.214198
22	0x3e86b0b3	0.26306686
23	0x3e548a75	0.20755942
24	0x3e7ccd74	0.24687749
25	0xbe2bf01f	-0.16790818
26	0xbe2e49c2	-0.17020324
27	0xbe482890	-0.19546723
28	0xbe77ac27	-0.24186765
29	0x3e9a079a	0.30083925
30	0x3d3086ca	0.043097295
31	0xbe8ed2a7	-0.2789509
32	0xbee2b53d	-0.442789
33	0xbe0641a5	-0.13110979
34	0xbe9b2a59	-0.30305746
35	0x3d9f9349	0.07791764
36	0xbe9989b2	-0.29987866
37	0x3ea0977d	0.31365576
38	0xbdec08c4	-0.115251094
39	0x3ce17143	0.027519828
40	0x3e71f888	0.23629963
41	0x3d311440	0.043232203
42	0x3dc144e8	0.09436971
43	0x3d175e25	0.036955018
44	0xbd8531c4	-0.06503633
45	0x3e06fc4c	0.13182181
46	0xbd84e05e	-0.06488107
47	0x3eecd77e	0.46258157
48	0x3d672411	0.05643088
49	0x3df13d29	0.117792435
50	0x3e92ba40	0.28657722
51	0x3eab34b5	0.3343865
52	0xbeaee480	-0.34158707
53	0xbea0ae9e	-0.31383222
54	0xbeebb55b	-0.460368
55	0xbdcc6e64	-0.09981993
56	0x3e6cfb64	0.23142773
57	0x3a4401fc	0.00074771023
58	0xbdfd38c9	-0.123643465
59	0x3e597d10	0.21239114
60	0x3de84763	0.11341741
61	0x3df0e7e9	0.11762983
62	0xbb7fcc0c	-0.0039031534
63	0xbebae4ce	-0.3650269
64	0xbe492947	-0.19644652
65	0xbe3148dc	-0.1731295
66	0xbd06f66a	-0.032949843
67	0x3d007c29	0.03136841
68	0xbdf0c131	-0.11755598
69	0x3e79c988	0.24393284
70	0x3e95b9b2	0.29243237
71	0x3c302007	0.010749823
72	0xbe959900	-0.29218292
73	0x3d8afd29	0.06786568
74	0x3d8882d9	0.06665582
75	0xbdb0eb71	-0.08638657
76	0x3df66272	0.12030496
77	0x3de67bea	0.112541035
78	0x3d904e68	0.07046205
79	0x3db01a19	0.08598728
80	0x3e27c3a0	0.16383219
81	0xbe580fb9	-0.21099748
82	0x3e704dc8	0.23467171
83	0x3e9e825d	0.30958834
84	0xbe06fc29	-0.13182129
85	0xbecb46cb	-0.39702448
86	0x3ecff544	0.4061681
87	0x3e622fb9	0.22088517
88	0xbe813cd8	-0.25241733
89	0x3d67ab51	0.056559864
90	0xbf01a71b	-0.5064561
91	0x3d2fa794	0.042884424
92	0x3c1f4ad7	0.009722433
93	0x3e336230	0.17517924
94	0xbcf024cb	-0.02931442
95	0x3e04f29d	0.12983175
96	0x3e932dbf	0.2874584
97	0x3d9285d4	0.07154432
98	0xbe166661	-0.14687492
99	0x3e31095b	0.17288725
100	0xbdf20763	-0.11817815
101	0xbe168d02	-0.14702228
102	0x3d8e995e	0.06962846
103	0xbea52e4f	-0.32261893
104	0x3ebfe418	0.3747871
105	0xbb0aac46	-0.0021159812
106	0x3e14bd92	0.1452544
107	0xbdd28ac3	-0.10280373
108	0x3de0949a	0.109658435
109	0x3e576c41	0.2103739
110	0x3dfb70e6	0.12277393
111	0x3e78d73b	0.24300854
112	0xbdda8a29	-0.10670883
113	0x3e2b1d84	0.16710478
114	0x3e1f13bf	0.15534876
115	0xbb0e38df	-0.0021701378
116	0xbd5026a5	-0.050818104
117	0xbd51591d	-0.051110376
118	0xbc8f3cef	-0.01748511
119	0xbb208ffa	-0.002449988
120	0x3d386583	0.045018684
121	0x3e59e4da	0.21278706
122	0x3ea40604	0.3203584
123	0xbccbdf8a	-0.024886865
124	0xbdbdead1	-0.09273303
125	0xbc5b49ae	-0.013384266
126	0x3e8c7bcd	0.27438203
127	0x3dbd8943	0.09254696
128	0x3c8bbe0d	0.017058397
129	0xbe416fe8	-0.18890345
130	0x3d89c985	0.0672789
131	0x3e9f1caf	0.3107657
132	0x3da49a6f	0.08037268
133	0x3d01e6a5	0.0317141
134	0x3e92e7aa	0.2869237
135	0x3edf6d4d	0.43638077
136	0xbe1b7d50	-0.15184522
137	0xbe8023aa	-0.2502721
138	0x3dae2ab2	0.08504237
139	0xbd1ae6cb	-0.037817758
140	0x3ee2ab9d	0.44271556
141	0x3a1ecdb4	0.0006057874
142	0x3e9e6bf4	0.30941737
143	0x3dc84e20	0.09780526
144	0xbee09cc6	-0.4386961
145	0xbe810b2d	-0.2520384
146	0xbe36b020	-0.17840624
147	0x3dd695ed	0.10477815
148	0xbdd744bb	-0.10511156
149	0xbdf47c0c	-0.119377226
150	0xbdda1b7e	-0.10649775
151	0x3d5274e2	0.051381
152	0x3e5d506d	0.21612711
153	0xbee73626	-0.451585
154	0x3e26c24c	0.16285056
155	0x3f19dcf0	0.6010275
156	0xbca1e186	-0.019760858
157	0xbe489608	-0.19588482
158	0x3e3bc37f	0.18336295
159	0x3d83a2ab	0.06427511
160	0x3ef04555	0.46927896
161	0xbe2ef1da	-0.17084447
162	0xbe3e7031	-0.18597485
163	0xbbb5b845	-0.0055456483
164	0x3e03abd2	0.12858513
165	0xbd9a217b	-0.07525917
166	0x3b923f20	0.0044630915
167	0xbd66b236	-0.0563223
168	0xbeccd4ff	-0.40006253
169	0x3e868c1b	0.26278767
170	0x3d3ae818	0.045631498
171	0x3ef6baa0	0.4818926
172	0x3dbbb5a0	0.091655016
173	0x3de467a6	0.11152582
174	0xbe232b24	-0.15934426
175	0x3e9e54dc	0.30924118
176	0xbe8a0f57	-0.26964828
177	0x3dd859b9	0.10563988
178	0x3e6f37b4	0.23361093
179	0xbde68739	-0.112562604
180	0x3e0f14ec	0.13972825
181	0xbe9d7798	-0.30755305
182	0x3e0cf13b	0.13763897
183	0x3e515d22	0.20445684
184	0xbe95a6d2	-0.29228836
185	0xbe9e35e3	-0.30900487
186	0x3d84617b	0.064639054
187	0xbded98e4	-0.11601427
188	0x3ef4d65c	0.47819793
189	0x3d5febb4	0.054668143
190	0x3e46aeee	0.19402668
191	0xbd4253de	-0.047443263
192	0x3da46efd	0.08028982
193	0x3d7447d7	0.059638824
194	0x3ea29a94	0.3175856
195	0x3e24a4ab	0.16078441
196	0xbe90e5ea	-0.2830041
197	0xbdad40d8	-0.084596336
198	0x3db5abc5	0.08870653
199	0xbe79486f	-0.24344037
200	0x3da9b676	0.08286755
201	0xbe8fa172	-0.2805286
202	0x3e572fad	0.2101428
203	0x3e2f16e4	0.17098576
204	0x3c97279e	0.018451508
205	0xbe0db9f1	-0.13840462
206	0xbdb47362	-0.0881107
207	0xbccb0aa2	-0.024785344
208	0x3e0e3788	0.13888371
209	0xbe456fd5	-0.19280942
210	0x3e05dd72	0.13072756
211	0x3e7b62a5	0.24549349
212	0x3e8febf6	0.2810971
213	0x3da4403e	0.08020066
214	0x3e18c33d	0.14918227
215	0xbe746433	-0.23866348
216	0xbdc7b0fc	-0.09750554
217	0xbe4a51e7	-0.19757806
218	0x3dda76df	0.10667204
219	0x3e459b1e	0.19297454
220	0x3e26be45	0.1628352
221	0x3d068cca	0.03284911
222	0x3ddf67de	0.10908483
223	0x3e03aaad	0.12858076
224	0xbe07fd80	-0.13280296
225	0x3e057460	0.13032675
226	0x3d6c7852	0.057731934
227	0xbe039db2	-0.12853125
228	0x3d010c92	0.03150613
229	0x3d4b043b	0.04956458
230	0xbdd9d1fe	-0.10635756
231	0x3e0707fa	0.13186637
232	0xbf0c59b2	-0.54824364
233	0x3dabf9d8	0.08397263
234	0x3e18c978	0.14920604
235	0x3e5cdfe8	0.21569788
236	0xbb2393f8	-0.0024960022
237	0x3e7fdd3b	0.24986736
238	0xbe81db99	-0.25362852
239	0xbe8af3a4	-0.27139008
240	0xbe2617d7	-0.16220032
241	0xbd8ccc7a	-0.06874938
242	0x3d1d9eed	0.03848164
243	0xbe1e0f94	-0.1543563
244	0x3cb9bd46	0.02267326
245	0x3c34224f	0.010994508
246	0x3d2d026f	0.04223865
247	0x3d347750	0.044059098
248	0x3d223c5c	0.039608344
249	0xbbe9ca81	-0.007134736
250	0xbe14eac6	-0.14542684
251	0xbdeac104	-0.11462596
252	0x3e81601f	0.25268647
253	0x3be9d2d3	0.007135728
254	0xbd671e2a	-0.05642525
255	0xbd2344da	-0.039860584

layer1_2vm.0.bias f4 [16]
0	0xbd7529a4	-0.059854165
1	0xbbfee64a	-0.0077789174
2	0xbc2bb0a1	-0.010479123
3	0x3cfc24e2	0.030779306
4	0xbd54905b	-0.05189548
5	0xbd0d15bf	-0.034444567
6	0x3d3ed8bf	0.046593424
7	0xbc780134	-0.015137006
8	0x3c7cf06a	0.015438179
9	0x3bbc613c	0.005748896
10	0x3b328639	0.0027240647
11	0xbd2f5e6d	-0.04281466
12	0xb9e63e7a	-0.00043915567
13	0x39f7dc67	0.00047275724
14	0xbca2fc9d	-0.019895846
15	0xbc3bb2b2	-0.0114561785

layer1_2vm.2.weight f4 [16]
0	0x3f750452	0.9570972
1	0x3f8837be	1.0642011
2	0x3f79ba34	0.9754975
3	0x3f7a2ac2	0.97721493
4	0x3f6f159a	0.93392336
5	0x3f74de49	0.9565168
6	0x3f78276a	0.9693514
7	0x3f83dd88	1.0301981
8	0x3f85497d	1.0413052
9	0x3f7dd15a	0.9914757
10	0x3f771054	0.9650929
11	0x3f7436f6	0.95396364
12	0x3f7ff40c	0.9998176
13	0x3f7be9fe	0.9840392
14	0x3f805bfd	1.0028073
15	0x3f81c907	1.0139474

layer1_2vm.2.bias f4 [16]
0	0xbcb37a5a	-0.021908928
1	0x3d81be0d	0.063350774
2	0x3ba29919	0.0049620983
3	0x3c2b89c3	0.010469857
4	0xbd961597	-0.07328337
5	0xbd8bd326	-0.06827383
6	0x3cc50219	0.024048852
7	0x3cb0d86d	0.021587575
8	0x3c3f4a87	0.011675484
9	0x3b0d0f63	0.0021524064
10	0x3c804003	0.015655523
11	0xbc196371	-0.009362088
12	0x3b2c9832	0.0026335833
13	0x3b831b95	0.004001091
14	0x3c8f4838	0.017490491
15	0x3d17195c	0.03688942

layer1_2vm.2.running_mean f4 [16]
0	0xbef95642	-0.48698622
1	0xbddf06f1	-0.10889996
2	0x3e2e77d5	0.170379
3	0x3f53b525	0.8269828
4	0x3e995745	0.29949394
5	0x3eb041b0	0.34425116
6	0x3f05076f	0.5196447
7	0xbe87bf04	-0.2651292
8	0x3e4369e6	0.19083366
9	0x3ec937f6	0.39300507
10	0x3e1623e6	0.14662132
11	0xbf13fd4a	-0.57808363
12	0x3dffd405	0.124916114
13	0x3e161a82	0.1465855
14	0xbe379bfe	-0.179306
15	0xbf12e5d0	-0.57381916

layer1_2vm.2.running_var f4 [16]
0	0x3f1e7a41	0.61905295
1	0x3f8c587a	1.0964501
2	0x3f599fdf	0.8500957
3	0x3f09df88	0.53856707
4	0x3f1596c1	0.5843316
5	0x3f8312fd	1.024017
6	0x3ef2146f	0.47281215
7	0x3e88b90d	0.26703683
8	0x3f05af27	0.52220386
9	0x3f2fe4d1	0.6870852
10	0x3f513c85	0.8173297
11	0x3fb13b22	1.3846171
12	0x3f14943f	0.58038706
13	0x3f03f34c	0.51543117
14	0x3f04397d	0.5165022
15	0x3efedd94	0.49778426

layer2.0.weight f4 [16, 32]
0	0x3dd6e5df	0.10493063
1	0x3deb6887	0.114945464
2	0x3d1d7298	0.038439363
3	0xbdd709a1	-0.104998834
4	0xbe85f1ae	-0.2616095
5	0xbe6e5439	-0.23274316
6	0x3d916482	0.070992485
7	0x3e8710e1	0.26380065
8	0x3ea3338f	0.31875274
9	0xbc9cabb1	-0.019124838
10	0x3e28f3bc	0.16499227
11	0xbd09cf4f	-0.03364497
12	0x3e98eea7	0.29869577
13	0x3d8b0d74	0.06789675
14	0x3e374f5c	0.17901367
15	0xbe3dd9a4	-0.18540055
16	0xbd262f04	-0.04057218
17	0x3e93433d	0.28762236
18	0xbea14c11	-0.31503347
19	0x3e7b94e3	0.24568515
20	0xbd0a062b	-0.03369729
21	0xbce1ec17	-0.027578397
22	0xbcb75540	-0.022379518
23	0xbea56167	-0.32300875
24	0x3e870140	0.2636814
25	0x3e66c5b8	0.22536361
26	0x3c6b2f4c	0.014354538
27	0x3bd86172	0.0066034133
28	0xbeac74db	-0.33682904
29	0xbe1a934e	-0.15095255
30	0xbeffaf06	-0.4993822
31	0xbe005445	-0.12532146
32	0x3e52ae39	0.20574273
33	0xbd67c072	-0.056580015
34	0xbe072510	-0.13197732
35	0xbd10de29	-0.03536812
36	0xbe2c08be	-0.1680021
37	0x3e9f81ce	0.3115372
38	0x3df0b56a	0.11753352
39	0x3dcfa01d	0.10137961
40	0x3da0ac03	0.07845309
41	0xbe3c3295	-0.1837867
42	0x3e26c423	0.16285758
43	0x3dafb8ac	0.08580145
44	0x3e0111ae	0.126044
45	0x3e9415fb	0.2892302
46	0x3e5696e8	0.20956004
47	0xbe0e0857	-0.13870369
48	0xbe175be9	-0.14781155
49	0xbce98879	-0.028507458
50	0x3df323ed	0.11872087
51	0x3e75dcf6	0.24010071
52	0x3db89bf4	0.09014121
53	0xbea75345	-0.32680717
54	0x3e98510f	0.29749343
55	0xbd4a42a9	-0.04937998
56	0x3f1deb6d	0.61687356
57	0xbdf76ef5	-0.1208171
58	0xbd6804a0	-0.056645036
59	0x3e35ad6b	0.17741935
60	0xbebf5223	-0.37367353
61	0x3cf08714	0.029361285
62	0x3ef4a63c	0.47783077
63	0xbd0780c9	-0.033081803
64	0xbeb79744	-0.35857594
65	0xbea80b49	-0.3282111
66	0x3d0af1f6	0.03392216
67	0xbe9f83e7	-0.3115532
68	0x3c8649f1	0.01639268
69	0x3eb2e2ea	0.34938747
70	0x3e25259d	0.1612763
71	0x3dfb8a31	0.12282217
72	0x3e989097	0.29797813
73	0xbe4858fb	-0.19565193
74	0xbe086c93	-0.13322668
75	0xbe6fd634	-0.23421556
76	0x3e4ceeb3	0.20012932
77	0x3ef20011	0.47265676
78	0xbe85bfbd	-0.26122847
79	0x3da8987c	0.08232209
80	0x3cb9ceaf	0.022681562
81	0xbc8ab5f6	-0.016932469
82	0x3e81ad12	0.25327355
83	0x3dc52941	0.09627009
84	0x3e67d94c	0.22641486
85	0x3e7f433c	0.24927992
86	0xbd834fa6	-0.06411676
87	0x3d509be2	0.05092991
88	0x3e0856e0	0.1331439
89	0x3d4d1805	0.050071735
90	0xbd8a3884	-0.06749061
91	0x3dcdf29d	0.100560404
92	0x3daa3cdf	0.083123915
93	0xbd56d6e6	-0.052451037
94	0xbc8d8df0	-0.017279595
95	0xbe9d6e7a	-0.3074835
96	0xbe721a9b	-0.23642962
97	0xbd530b1e	-0.051524274
98	0xbdc55fa3	-0.09637382
99	0xbc88e4f8	-0.016710743
100	0xbdd88d87	-0.10573869
101	0xbe720ed1	-0.23638465
102	0x3ddd4010	0.108032346
103	0x3eabe935	0.3357636
104	0xbe9ba05c	-0.30395782
105	0xbda7b78c	-0.08189306
106	0x3ce6df71	0.028182717
107	0xbd9a1b00	-0.07524681
108	0x3e3c0237	0.1836022
109	0xbd0a3236	-0.03373929
110	0xbeac7682	-0.33684164
111	0x3e30c4f3	0.1726263
112	0x3d186ac9	0.037211213
113	0x3d86cc10	0.065818906
114	0xbd3b83cc	-0.04577999
115	0xbe91ff9e	-0.28515333
116	0xbde021ad	-0.10943923
117	0xbe9e4404	-0.30911267
118	0x3e414365	0.18873365
119	0x3ba24017	0.0049514878
120	0x3e0a1cb6	0.13487515
121	0x3d9eb60c	0.077495664
122	0x3d1ae79c	0.037818536
123	0x3e80c66a	0.25151378
124	0x3e09c4e0	0.13454008
125	0xbd8f7605	-0.07004932
126	0x3dc0f232	0.09421195
127	0x3d85b2f3	0.065282725
128	0x3dff34fe	0.12461279
129	0xbe4e1f06	-0.20129022
130	0x3ce2b3e9	0.027673678
131	0x3d5a04e1	0.05322731
132	0x3e311029	0.17291321
133	0xbe4fc6d5	-0.20290692
134	0xbe775eea	-0.241573
135	0x3da163cf	0.07880365
136	0x3d3686d5	0.04456218
137	0xbd52a312	-0.051425047
138	0xbec2ece6	-0.38071364
139	0xbd890f96	-0.06692426
140	0x3e019a0c	0.1265642
141	0x3e88d580	0.26725388
142	0x3d2cf616	0.042226873
143	0xbe3f65c2	-0.18691161
144	0x3d0f5fc7	0.03500345
145	0x3dfdb629	0.1238826
146	0x3e36ba01	0.17844392
147	0xbda4e71d	-0.08051894
148	0x3e474b62	0.1946235
149	0x3da056d7	0.078290634
150	0x3cb796ef	0.022410838
151	0xbe5874d1	-0.21138312
152	0xbd499eb6	-0.049223624
153	0xbe492742	-0.19643882
154	0xbec84212	-0.39112908
155	0xbe2bce96	-0.16778025
156	0x3e1415d0	0.14461446
157	0x3c995e17	0.018721623
158	0xbdbf6763	-0.09345891
159	0xbe93c076	-0.28857774
160	0xbe1b4da1	-0.15166332
161	0x3d33ef27	0.043929245
162	0x3ec96c71	0.39340547
163	0xbcbf0ae7	-0.023320628
164	0xbe2119cb	-0.15732495
165	0x3f0a6fa6	0.5407661
166	0x3dd27ec3	0.10278084
167	0x3ea46eba	0.32115728
168	0x3e1d5597	0.15364681
169	0xbe705aa2	-0.23472074
170	0xbe302c01	-0.17204286
171	0x3d16aa26	0.03678336
172	0x3f36c617	0.7139601
173	0x3e92c77f	0.28667828
174	0xbc79fa40	-0.015257418
175	0xbe37d2ae	-0.17951462
176	0xbe9badfc	-0.30406177
177	0xbeb6363e	-0.35588259
178	0x3ce8e169	0.028427796
179	0x3d82ac68	0.0638054
180	0x3db5161e	0.08842109
181	0xbf03b141	-0.51442343
182	0x3d813381	0.06308652
183	0x3ecbdaee	0.39815468
184	0x3e8d1e9f	0.27562425
185	0xbd6b7f5d	-0.05749451
186	0xbd9498b2	-0.07255687
187	0xbbcc072f	-0.0062264423
188	0x3e35b8cf	0.1774628
189	0xbe299e28	-0.16564238
190	0x3dc5af22	0.096525446
191	0x3d5d07b1	0.053962413
192	0x3db21eda	0.08697291
193	0xbda97896	-0.08274953
194	0x3dcf4d22	0.10122134
195	0xbef927dc	-0.48663223
196	0x3dfc1de3	0.12310388
197	0xbe49d7c2	-0.19711211
198	0xbe24f2f3	-0.16108303
199	0x3d05510c	0.032547995
200	0x3e8ad5ed	0.27116337
201	0xbe0e804d	-0.1391613
202	0x3d3dc07d	0.04632615
203	0x3e566e4c	0.20940512
204	0x3d2c4914	0.04206188
205	0x3d42d3d5	0.0475653
206	0xbdd68b81	-0.10475827
207	0xbd4d55bb	-0.050130587
208	0xbc6de0f8	-0.014518969
209	0xbd9aa785	-0.07551483
210	0x3e90a789	0.2825282
211	0xbdd6ba77	-0.10484784
212	0xbd9569fc	-0.072956055
213	0xbc653c8f	-0.013991489
214	0x3e2cec8d	0.16887112
215	0xbed09d2e	-0.4074492
216	0xbef1e72a	-0.47246677
217	0x3cf77497	0.030206962
218	0x3df57534	0.11985245
219	0xbdea4cb6	-0.11440413
220	0x3d905c86	0.070488974
221	0x3d9c6264	0.07635954
222	0x3d0ca58d	0.03433757
223	0xbdb6e4e1	-0.08930374
224	0x3b91b145	0.004446181
225	0x3dcf47f9	0.101211496
226	0x3c202ac9	0.009775826
227	0xbe1d1f54	-0.15343982
228	0x3db5fa52	0.088856354
229	0xbe9de554	-0.30839026
230	0xbe1f6be5	-0.15568502
231	0xbd8d6474	-0.069039255
232	0xbe550fb7	-0.20806776
233	0xbdf938ef	-0.12169062
234	0xbda254fc	-0.07926366
235	0x3eb4a5f8	0.35282874
236	0x3ec5ff68	0.38671422
237	0xbe4bf538	-0.19917762
238	0x3e25ff9c	0.16210788
239	0xbd9e0e2f	-0.07717549
240	0xbe2a2c17	-0.16618381
241	0x3d79a065	0.06094398
242	0x3e8a585b	0.27020535
243	0xbd4b4c38	-0.049633235
244	0x3e3a3639	0.18184747
245	0x3e006771	0.1253946
246	0xbe1d3ae6	-0.15354499
247	0xbe068a15	-0.13138612
248	0x3d927284	0.07150748
249	0xbea7d790	-0.3278165
250	0xbd65c0b7	-0.05609199
251	0xbce34cb1	-0.02774653
252	0x3e74cfa5	0.23907335
253	0x3c4e4ec5	0.012592022
254	0x3d986d5c	0.07442734
255	0xbdf73bcf	-0.120719545

layer2.0.bias f4 [16]
0	0xbcc7b695	-0.024379054
1	0xbaa29235	-0.0012403192
2	0xbc5ac955	-0.013353665
3	0x3c85d9c7	0.016339196
4	0xbd65c166	-0.056092642
5	0x3d820137	0.06347888
6	0x3c25b5bb	0.010114129
7	0xbcf20232	-0.029542062
8	0xbc9d5935	-0.019207576
9	0x3d2ce27d	0.042208184
10	0xbd264d70	-0.040601194
11	0x3ba175a9	0.0049273563
12	0x3b349487	0.002755435
13	0xbd1cfbd7	-0.03832611
14	0x3cefbdb2	0.029265258
15	0x3d4df1fe	0.05027961

layer2.2.weight f4 [16]
0	0x3f6efa71	0.93350893
1	0x3f879e74	1.0595231
2	0x3f7acbec	0.9796741
3	0x3f722008	0.94580126
4	0x3f8742b5	1.0567232
5	0x3f891c15	1.0711695
6	0x3f6e88a4	0.9317725
7	0x3f6ecfa5	0.9328559
8	0x3f817976	1.0115192
9	0x3f6f19cc	0.9339874
10	0x3f86cee4	1.0531888
11	0x3f775b88	0.9662404
12	0x3f8863f4	1.0655503
13	0x3f88ae3a	1.067817
14	0x3f884341	1.0645524
15	0x3f8375b9	1.0270301

layer2.2.bias f4 [16]
0	0xbd904b63	-0.07045629
1	0x3d2c4760	0.042060256
2	0xbd2517fe	-0.040306084
3	0xbd5c396a	-0.05376569
4	0x3d66c08a	0.056335963
5	0x3d89e22c	0.06732592
6	0xbd86e88a	-0.06587322
7	0xbd9b140e	-0.075721845
8	0x3cbbb327	0.022912575
9	0xbd609d33	-0.054837417
10	0x3d6320ae	0.055451088
11	0xbd32e0d6	-0.04367145
12	0x3d7909ed	0.06080048
13	0x3d82e37d	0.06391046
14	0x3d6e05ac	0.058110878
15	0x3d1df700	0.038565636

layer2.2.running_mean f4 [16]
0	0xba106772	-0.00055085786
1	0x3f4cbf4f	0.79979414
2	0x3e5efeda	0.21776906
3	0xbe2975be	-0.16548821
4	0xbef99a9c	-0.4875077
5	0x3f43a7d6	0.7642797
6	0xbea8f609	-0.3300021
7	0xbe49438a	-0.1965467
8	0xbf926074	-1.1435685
9	0x3db86c2a	0.09005006
10	0xbf08a1a4	-0.53371644
11	0xbeb33e05	-0.35008255
12	0xbf04ef16	-0.51927316
13	0xbf389c07	-0.7211308
14	0x3f0e04bb	0.5547597
15	0x3ea7f616	0.32804936

layer2.2.running_var f4 [16]
0	0x3f21913a	0.63112223
1	0x3f766c1b	0.96258706
2	0x3f32d043	0.6984903
3	0x3eebaff3	0.46032676
4	0x3eca4b78	0.39510703
5	0x3f7e1c1a	0.9926163
6	0x3f2e2783	0.6802904
7	0x3ebbfa43	0.36714372
8	0x3f6a6377	0.9155802
9	0x3f360551	0.7110186
10	0x3f3159d0	0.6927767
11	0x3f069c1b	0.5258195
12	0x3f062373	0.5239784
13	0x3f111d84	0.5668566
14	0x3f57f6b6	0.84360826
15	0x3ed6954b	0.41910776

fc_advantage.0.weight f4 [20, 16]
0	0xbbed6847	-0.007245097
1	0x3e914a05	0.28376785
2	0x3f0a5c0a	0.5404669
3	0x3da4b5ca	0.08042486
4	0x3d023496	0.03178843
5	0x3f1c5f7c	0.610832
6	0x3daec894	0.08534351
7	0xbe38c2f8	-0.18043125
8	0xbee9bf98	-0.45653987
9	0x3e13910d	0.14410801
10	0x3cc1e029	0.023666458
11	0x3dfdd74a	0.12394579
12	0xbdddb6e4	-0.10825899
13	0x3de7eec6	0.11324839
14	0x3e889ac6	0.26680583
15	0x3e5db4ed	0.21651049
16	0x3ef9870a	0.4873584
17	0xbef00ae9	-0.46883324
18	0xbee4c7c4	-0.4468366
19	0xbe1a2af7	-0.15055452
20	0x3ee387f7	0.4443967
21	0x3eb5e75d	0.3552808
22	0x3e9db3d3	0.30801257
23	0x3d76722a	0.06016747
24	0x3e566518	0.20937002
25	0xbe974a56	-0.295489
26	0xbc7d0e97	-0.015445373
27	0x3eb6178d	0.35564843
28	0x3d0ef72f	0.0349037
29	0x3e8e511b	0.27796254
30	0xbe79b09b	-0.24383776
31	0xbd5086d0	-0.050909817
32	0x3df41443	0.11917927
33	0xbe3f7b97	-0.1869949
34	0x3edcb564	0.4310714
35	0x3e67a7c1	0.22622587
36	0x3d345f79	0.044036362
37	0x3f0f860e	0.56063926
38	0x3e469e99	0.19396438
39	0xbbf7570a	-0.0075482177
40	0x3df2cc56	0.1185538
41	0x3e4af38c	0.19819468
42	0x3e470b9b	0.19438021
43	0xbeb7a4ca	-0.35867912
44	0xbec8e545	-0.3923742
45	0x3e851e38	0.25999618
46	0x3ee21bea	0.44161922
47	0x3e93dd97	0.28879997
48	0x3e73247d	0.23744388
49	0xbe4fd24b	-0.20295064
50	0xbaf721c2	-0.0018854665
51	0x3e73b557	0.23799644
52	0x3e50867d	0.20363803
53	0xbe2d2126	-0.16907176
54	0x3eb178dc	0.3466252
55	0xbe86c144	-0.26319325
56	0x3e77c74c	0.2419712
57	0xbd0da530	-0.034581363
58	0x3e206583	0.15663724
59	0xbea58e82	-0.32335287
60	0xbd4b5097	-0.049637403
61	0xbc530c9e	-0.012881426
62	0x3bce2c0d	0.0062918724
63	0x3e106155	0.14099629
64	0xbe9a1d32	-0.301004
65	0xbe275671	-0.16341569
66	0x3e17e366	0.1483284
67	0xbe8b3ebb	-0.27196297
68	0x3d8f7c30	0.07006109
69	0x3e2b3ab4	0.16721612
70	0x3e0ef7cf	0.13961719
71	0xbd7cf6c8	-0.061758786
72	0xbdc534d9	-0.096292205
73	0x3eb89e7e	0.3605842
74	0x3ecb285e	0.39679235
75	0x3e44f8d8	0.19235551
76	0x3df3497c	0.118792504
77	0x3dfcd27b	0.123448335
78	0x3e06fe52	0.13182953
79	0xbdd15612	-0.10221495
80	0xbaf02028	-0.001832013
81	0xbebab984	-0.36469662
82	0x3ea09347	0.31362364
83	0xbe67e9b0	-0.22647738
84	0x3d81b52c	0.06333384
85	0x3ed1490e	0.4087605
86	0xbe6ceee6	-0.23138008
87	0x3e8343aa	0.2563756
88	0xbe5b796c	-0.21433038
89	0x3e1bbd7a	0.15208998
90	0x3ee89f7f	0.45434186
91	0x3f232572	0.6372901
92	0x3e43b4be	0.19111916
93	0xbe0c3194	-0.13690788
94	0xbda65a90	-0.08122742
95	0xbab48b20	-0.0013774373
96	0x3db29482	0.08719732
97	0xbe47dfa5	-0.19518907
98	0xbe850344	-0.25979054
99	0x3bcd38c2	0.0062628696
100	0xbe422411	-0.1895907
101	0xbd89919e	-0.067172274
102	0x3e16117b	0.14655106
103	0x3d8a0771	0.067397006
104	0xbebe4b67	-0.37166902
105	0x3e7e49fd	0.24832912
106	0x3b04ecc9	0.0020282737
107	0xbe0d4f12	-0.13799694
108	0x3e75e044	0.24011332
109	0x3e921ff5	0.28540006
110	0xbe31692d	-0.17325278
111	0xbcbe6261	-0.02324027
112	0x3ea007cf	0.31255957
113	0x3e4de7fb	0.20108025
114	0xbddb108a	-0.10696514
115	0x3dc54153	0.096316
116	0xbe001a6c	-0.12510079
117	0x3dd026e8	0.10163671
118	0x3dabd26b	0.083897434
119	0xbb259eba	-0.002527161
120	0x3e0f09ce	0.13968584
121	0x3df710c9	0.120637484
122	0xbeeb2dbb	-0.45933327
123	0x3e92ccb4	0.286718
124	0xbe5e8792	-0.21731403
125	0x3dba84cf	0.091073625
126	0x3cd87911	0.026424916
127	0xbea0f599	-0.31437376
128	0x3d420f1c	0.04737769
129	0xbe2dc353	-0.16969042
130	0xbc15cecc	-0.0091435425
131	0xbe84500b	-0.25842318
132	0x3d04f3c1	0.032459024
133	0xbe18d733	-0.14925842
134	0x3ec1e115	0.37867036
135	0x3dec01dd	0.11523793
136	0x3e0b12fb	0.13581459
137	0xbe7027bd	-0.23452659
138	0x3df4e4ee	0.119577274
139	0x3e23c40a	0.15992752
140	0xbdfe1da0	-0.12407994
141	0x3e07f0b1	0.1327541
142	0xbc294f9f	-0.010333925
143	0xbe7115cf	-0.23543476
144	0xbe6e8eb7	-0.23296629
145	0x3e872b5b	0.26400265
146	0x3d828b6b	0.06374248
147	0x3e44172d	0.19149466
148	0x3ed9629c	0.42458045
149	0xbe5887f6	-0.21145615
150	0xbec7a1cf	-0.38990638
151	0xbc84ec2c	-0.016225897
152	0x3dc9eed7	0.09860008
153	0x3e763a38	0.24045646
154	0xbe612d71	-0.21989991
155	0xbec8f51a	-0.39249498
156	0x3de58612	0.112072125
157	0x3e4d016d	0.20020075
158	0x3e0a910e	0.13531896
159	0xbdfc441f	-0.123176806
160	0x3e724e15	0.23662598
161	0x3e0c2ad6	0.13688216
162	0xbce0c438	-0.027437314
163	0xbc699801	-0.014257432
164	0x3ee3ffcc	0.44531095
165	0xbe4c5803	-0.19955449
166	0x3d81eb17	0.06343668
167	0x3f032f13	0.51243705
168	0x3e87f358	0.26552844
169	0x3dfea392	0.12433542
170	0xbcdadc29	-0.026716309
171	0x3e01d426	0.12678584
172	0x3e716b7e	0.23576161
173	0x3c023390	0.007946864
174	0xbe14796e	-0.14499447
175	0xbdf58dfa	-0.119899705
176	0xbe3f3f0d	-0.18676396
177	0xbe2062ab	-0.15662639
178	0x3e035700	0.12826157
179	0x3dbff2ab	0.09372457
180	0xbc8bbe1e	-0.017058428
181	0xbddece2d	-0.10879169
182	0x3985434d	0.0002541788
183	0x3da05d25	0.07830266
184	0xbe742406	-0.23841867
185	0xbe137a26	-0.14402065
186	0x3eb97b76	0.36227006
187	0x3e8a3f9c	0.27001655
188	0x3d8c0a0b	0.06837853
189	0xbe6ea89e	-0.2330651
190	0x3edb81ea	0.42872554
191	0x3ebb7f0a	0.3662036
192	0x3c9cdf18	0.019149348
193	0x3eadcac5	0.33943763
194	0x3e967691	0.29387334
195	0x3e5ef6b5	0.21773799
196	0x3e777276	0.24164757
197	0xbd46f0c0	-0.04856944
198	0xbe81f5ae	-0.2538275
199	0xbe861a58	-0.26191974
200	0x3edf02cf	0.4355683
201	0xbcb2d82e	-0.021831598
202	0xbdaa38aa	-0.08311589
203	0x3d3d336e	0.046191625
204	0x3c6b5cab	0.0143653555
205	0xbe037e6b	-0.12841193
206	0x3e819c0c	0.25314367
207	0xbe991bc5	-0.29904
208	0x3db07a2d	0.08617053
209	0xbe92ae0e	-0.28648418
210	0x3daec85f	0.085343115
211	0xbd57b003	-0.052658092
212	0xbea3d2d8	-0.319968
213	0xbe01ed50	-0.12688184
214	0xbea83d34	-0.32859194
215	0x3e3b4d62	0.18291238
216	0xbe93ae6c	-0.2884401
217	0x3ea169b1	0.3152595
218	0xbd21e5f6	-0.03952595
219	0x3ddb14a6	0.10697298
220	0xbcc14a93	-0.02359513
221	0x3d9a7d31	0.075434096
222	0xbf0cb3bc	-0.5496175
223	0xbe9c2bba	-0.3050211
224	0x3c73ef54	0.014888603
225	0x3e980875	0.29693952
226	0xbc32d7d0	-0.0109157115
227	0xbe3bd31e	-0.18342254
228	0xbe8c919e	-0.27454847
229	0x3e4c9c5b	0.1998152
230	0xbe591451	-0.21199156
231	0xbeb5e270	-0.3552432
232	0xbe66a185	-0.22522552
233	0x3d8d74d8	0.06907052
234	0xbeb98c71	-0.3623996
235	0x3ea03456	0.3128993
236	0x3e75ef0e	0.24016973
237	0x3e788056	0.24267706
238	0xbdaa86bc	-0.0832648
239	0xbd271699	-0.040793035
240	0x3debbbe6	0.11510448
241	0xbecb970c	-0.39763677
242	0x3eee08f9	0.4649122
243	0x3ef7f90e	0.484322
244	0xbeb1a4db	-0.34696087
245	0xbeac2337	-0.33620617
246	0xbe45fa7c	-0.19333833
247	0x3de0c429	0.109749146
248	0x3df2a058	0.118469894
249	0xbc0e2792	-0.0086764265
250	0x3bc7e23c	0.0060999673
251	0x3e4cb66e	0.19991466
252	0xbd88bc4b	-0.06676539
253	0xbe553842	-0.20822242
254	0xbe5cd641	-0.21566106
255	0x3d6bee3f	0.057600256

fc_advantage.0.bias f4 [20]
0	0x3d386110	0.04501444
1	0x3d800d18	0.062524974
2	0x3c94c5ef	0.018160788
3	0x3d800d18	0.062524974
4	0x3d800d18	0.062524974
5	0x3d5d050b	0.053959887
6	0x3d800d18	0.062524974
7	0x3d800d18	0.062524974
8	0x3d800d18	0.062524974
9	0x3d800d18	0.062524974
10	0x3d803e46	0.06261878
11	0x3d800d18	0.062524974
12	0xbd331696	-0.04372271
13	0xbd796243	-0.060884725
14	0xbcf231f6	-0.029564839
15	0xbcff7176	-0.031182032
16	0xbd8ccc6b	-0.06874927
17	0x3d800d18	0.062524974
18	0x3d8043dd	0.06262944
19	0x3d801a44	0.0625501

fc_value.0.weight f4 [1, 16]
0	0x3ce8893b	0.02838575
1	0xbdefb58d	-0.1170455
2	0xbe02baef	-0.12766622
3	0xbc62f6cc	-0.013852786
4	0xbe997617	-0.29972908
5	0xbef3cc13	-0.47616634
6	0x3e1bba8e	0.15207884
7	0x3e114f05	0.141903
8	0xbda49b30	-0.08037412
9	0xbd2b5357	-0.041827526
10	0xbede0ba8	-0.43368268
11	0x3d8c4c92	0.06850542
12	0xbf108be8	-0.5646348
13	0xbeee55f2	-0.46549946
14	0xbeedd2d4	-0.46449912
15	0xbde37408	-0.111061156
