save/client-7/eval.pth (torch, 42501 bytes, 27 tensors)

layer1_task.0.weight f4 [32, 3]
000000 16 85 7b 3d a4 8f 28 be b9 08 88 be 6d ab c3 3e
       0.061406218 -0.16461045 -0.26569155 0.38216725
000010 a7 70 a0 3e 4d 79 fa be 3b 66 04 3e b5 9b 58 bd
       0.31335947 -0.4892067 0.12929623 -0.05288287
000020 55 2b 39 3d 6c 83 0c 3c 67 ff c8 bd 77 36 97 be
       0.04520734 0.008576255 -0.09814339 -0.2953374
000030 08 fa 0c be c6 48 d2 bd c2 85 c2 bd 93 82 10 bd
       -0.13767254 -0.10267787 -0.094981685 -0.035280775
000040 1a fd c7 be 92 bc bb 3d ce aa ba 3e 91 aa 48 be
       -0.3906029 0.09166826 0.3645844 -0.19596316
000050 e1 a8 04 3d ab da bb be 20 61 46 3c bb 76 02 3f
       0.032387618 -0.36690268 0.012108117 0.5096242
000060 4b 91 78 3e ed 8d e0 3e 2d ac 94 3e 1b e2 af 3e
       0.24274175 0.4385828 0.2903761 0.34352192
000070 55 a3 8b 3e 45 f0 db 3e 9a e8 99 3d 9f ce 2e 3b
       0.2727305 0.4295675 0.07515068 0.0026673449
000080 c2 e3 0b bf 6b 77 46 3e ec 02 a0 3e 42 9b 98 3e
       -0.54644406 0.19381492 0.3125223 0.29805952
000090 2b 6a c9 be 40 60 94 3e d5 ee 0b 3f 29 36 39 3d
       -0.39338812 0.28979683 0.54661304 0.045217667
0000a0 57 7f 75 3d 00 9b c8 bd 82 e9 17 be 4c 53 2b be
       0.059935894 -0.09795189 -0.1483517 -0.16730994
0000b0 78 c6 bb bd 18 ec fe 3c a4 e0 d1 3a 6a d9 23 3c
       -0.09168714 0.031118438 0.0016012383 0.010000566
0000c0 65 9b 4e 3e be 4c 22 3f db c7 00 be 37 87 9f 3d
       0.20176466 0.6339835 -0.12576239 0.07789462
0000d0 50 61 30 3e e0 25 60 be db 88 9c bd 7c a8 5c bc
       0.17224622 -0.21889448 -0.076432906 -0.013467904
0000e0 37 48 a8 be 07 f1 ba bd 76 e4 21 be de d9 fd bc
       -0.32867596 -0.091280036 -0.15809807 -0.030987676
0000f0 16 66 20 be c5 0c 76 bd 23 b2 93 3e 59 51 4f 3e
       -0.15663943 -0.06007077 0.28846845 0.20245875
000100 a0 a1 5e 3e 32 68 79 bd 22 5b f9 bc 50 c9 eb bd
       0.21741343 -0.060890384 -0.030438963 -0.11513007
000110 78 3d 22 be bb 38 0a be 95 82 15 3e 7d f6 36 be
       -0.15843761 -0.13498203 0.14600594 -0.17867465
000120 66 ad 6a 3e 16 4e 2a 3e 87 48 6b bc d7 1f 59 be
       0.22917709 0.1663135 -0.014360554 -0.21203552
000130 8b 34 4c 3e b5 4e d0 3d 40 21 72 3e e4 4e 6b bd
       0.19941919 0.10171262 0.23645496 -0.057448283
000140 1c 20 1f 3c da 5f 24 bd e6 61 94 bd cf 89 8e bc
       0.009712245 -0.040130474 -0.07245235 -0.017399697
000150 f5 43 ef 3d a7 c3 e6 3b a1 b1 36 3e 01 74 48 bd
       0.11682884 0.0070423665 0.17841198 -0.048938755
000160 64 bd cd be 9b 76 dd bd c4 5b 01 bd f4 c6 77 3e
       -0.40183556 -0.10813638 -0.031581655 0.24196988
000170 bc 0e fb 3e e5 a2 16 3d ed 48 9d be 13 94 df 3c
       0.4903468 0.036776442 -0.307197 0.027292287

layer1_task.0.bias f4 [32]
000000 d6 09 25 3c 16 7d 02 bc 84 01 21 3b c2 e1 64 bc
       0.010073146 -0.007964393 0.0024567554 -0.0139698405
000010 6c 43 f8 bb 8c 98 b2 bb 35 e1 0c 3c e2 ac a7 3b
       -0.0075763967 -0.005450314 0.008598615 0.005117045
000020 68 8a 6f bb ab 4e 48 bb bb 4e 20 3b 5a ca ff ba
       -0.0036551002 -0.0030564468 0.002446099 -0.0019515262
000030 61 8b 62 3b 29 6d 11 bb 3c ca 08 bc bf 02 99 bb
       0.003456794 -0.0022190309 -0.008348998 -0.004669517
000040 4e f7 8b bb 54 01 e2 bb 33 d4 96 bb 78 e7 d0 3b
       -0.0042714244 -0.006897131 -0.004602933 0.0063752495
000050 03 1c fb 3a 12 0f b4 3b b8 9b a0 ba db 9d 60 bc
       0.0019158128 0.0054949606 -0.0012253439 -0.013709511
000060 77 c5 6d 3c 36 01 6b bb 64 be 9d 3b 20 03 b8 bb
       0.014512411 -0.0035858876 0.004813956 -0.005615607
000070 88 f3 9d 3b 9c 3a 44 bc b5 94 c8 bb 4d 67 06 bc
       0.004820291 -0.011976864 -0.006121243 -0.00820334

layer1_task.2.weight f4 [32]
000000 bf 7e 80 3f 59 53 80 3f bb 69 7f 3f 14 74 80 3f
       1.003868 1.0025436 0.99770707 1.0035424
000010 26 cb 7d 3f 8c 02 7d 3f de 9b 81 3f 45 5b 80 3f
       0.99138105 0.9883201 1.0125692 1.0027853
000020 7c 76 81 3f 37 ed 80 3f ae 84 81 3f 42 0a 7e 3f
       1.0114284 1.0072392 1.0118616 0.992344
000030 5b 8c 80 3f 59 54 80 3f b1 7c 80 3f eb f1 7e 3f
       1.0042833 1.0025741 1.0038053 0.9958789
000040 45 ef 80 3f 77 1d 81 3f cd 7e 7c 3f 19 5f 80 3f
       1.0073019 1.0087117 0.9863098 1.0029022
000050 73 34 7f 3f bb ea 80 3f ae ae 80 3f 62 ea 7c 3f
       0.99689406 1.0071634 1.0053308 0.9879514
000060 e3 f8 7d 3f 89 f6 80 3f 40 ea 7d 3f 15 a2 7f 3f
       0.99207896 1.0075237 0.9918556 0.9985669
000070 29 45 80 3f 4b 0f 80 3f 6a 89 7f 3f 54 d1 81 3f
       1.0021106 1.0004667 0.9981905 1.0142007

layer1_task.2.bias f4 [32]
000000 c1 bc 5a 3c 06 11 bd bb a2 93 1f bb 00 a0 77 37
       0.0133506665 -0.0057698516 -0.002434947 1.47596e-05
000010 ae 64 da bb 2c 24 8e bc 6d bc 9c 3c 98 a4 8d 3a
       -0.006664834 -0.017351232 0.019132817 0.0010806499
000020 fe 7d 66 3c bb 90 27 3c 6a 1a 8b 3c e5 7f 53 bc
       0.014068125 0.0102273775 0.016980369 -0.01290891
000030 c8 09 27 b9 fd 79 09 3b 2a a1 ab 3b 1f fc 97 bc
       -0.00015930005 0.0020977252 0.005237718 -0.018552838
000040 1a 59 ee 3b b6 d3 81 3b 2a f8 99 bc d3 83 75 bb
       0.0072738053 0.0039620055 -0.018795092 -0.0037462607
000050 0e 6d f1 bb e7 c9 77 3c 46 5d 84 3b 0c 70 78 bc
       -0.0073677367 0.015123821 0.0040394394 -0.015163433
000060 ac ae 4e 3b 4a c5 3b 3c 64 b0 23 bc 02 a3 93 bb
       0.0031537218 0.011460612 -0.009990785 -0.004505516
000070 27 f7 7f 3b b8 0a fb b9 42 d9 ba 3a cb 55 83 3c
       0.0039057226 -0.00047882437 0.0014255422 0.01603212

layer1_task.2.running_mean f4 [32]
000000 8a 52 34 45 9c 15 9d 46 20 0a dc 45 2b a5 45 44
       2885.1587 20106.805 7041.2656 790.58075
000010 dd d6 df c5 9e db de c4 ba 2a 8c 46 cf 33 9b c6
       -7162.858 -1782.863 17941.363 -19865.904
000020 03 e6 47 46 8a ad 92 46 e8 89 60 45 6a fe 18 46
       12793.503 18774.77 3592.6191 9791.604
000030 64 44 a1 c6 35 1d 18 45 02 be 00 c6 cc 37 00 45
       -20642.195 2433.8254 -8239.502 2051.4873
000040 6f d3 24 46 30 47 70 45 0e 4e 6d c5 5b 81 97 c5
       10548.858 3844.4492 -3796.8784 -4848.1694
000050 ea 05 04 c6 b7 7d 27 46 fd a4 d2 c4 7c e1 e8 c5
       -8449.479 10719.429 -1685.1559 -7452.1855
000060 03 e3 3b 46 5b a0 2c c6 14 e5 46 46 f2 d8 22 c5
       12024.753 -11048.089 12729.27 -2605.559
000070 fa 4a b8 45 20 a6 3d c5 0b 42 d8 c4 1a f6 0e 45
       5897.372 -3034.3828 -1730.0638 2287.3813

layer1_task.2.running_var f4 [32]
000000 a8 a2 b1 4b 59 ba 79 4e a0 f3 ee 4c 6a aa c0 49
       2.3283024e+07 1.0474348e+09 1.2527949e+08 1.5783172e+06
000010 69 f4 02 4d c7 58 04 4b e1 f3 63 4e 42 30 63 4e
       1.3731598e+08 8.673479e+06 9.561027e+08 9.5289766e+08
000020 a5 7f c3 4d 88 97 55 4e e2 41 04 4c 91 55 74 4d
       4.099903e+08 8.9586944e+08 3.467047e+07 2.5620302e+08
000030 6c 36 90 4e 6a 22 57 4b e6 e5 21 4d 3a b0 29 4b
       1.2097428e+09 1.409905e+07 1.697624e+08 1.1120698e+07
000040 4f fb 8b 4d 9c 5c 1d 4c 77 f0 1c 4c 8d 46 86 4c
       2.9356285e+08 4.125144e+07 4.11407e+07 7.039908e+07
000050 b1 ea 32 4d a2 b5 8f 4d 6c 0d df 4a 9f 15 03 4d
       1.8760782e+08 3.0138067e+08 7.308982e+06 1.3745202e+08
000060 dc bc ce 4d fd da 9f 4d 1f 92 cf 4d 43 49 7b 4b
       4.3356045e+08 3.3524112e+08 4.353075e+08 1.6468291e+07
000070 5b ce b4 4c 53 73 ad 4b 52 b3 e9 4a 16 45 47 4b
       9.4794456e+07 2.2734502e+07 7.657897e+06 1.305935e+07

layer1_1vm.0.weight f4 [64, 40]
000000 9e 20 7c be 2b bc 46 bd 7f 40 ee bd de 5a 05 be
       -0.24621817 -0.048519295 -0.116333954 -0.13022944
000010 0b 6c 62 be db ce ef bd 05 c5 3d be 4a 89 bb 3c
       -0.22111528 -0.117093764 -0.18532188 0.022892613
000020 cf 4d 08 be a0 03 43 bd b6 c4 44 3e cb 59 97 be
       -0.13310932 -0.04761088 0.19215664 -0.29560694
000030 f7 c3 1a be 0f 0c 2b bd a2 08 b1 3d 30 ce 8f 3e
       -0.15113817 -0.041759547 0.08644225 0.28086996
000040 ac 00 47 be 1b e4 de bd 29 27 9c bd 7b d5 a5 bd
       -0.1943385 -0.108833514 -0.07624657 -0.08097359
000050 74 c7 c8 3d d6 52 21 3e 61 99 3e be bc 36 8a 3e
       0.09803668 0.15754256 -0.18613197 0.26994884
000060 20 86 36 3d e5 12 24 3d 84 c3 86 3e 4d 06 79 bd
       0.044561505 0.04005708 0.26321042 -0.060797025
000070 38 1a 17 3e 5a ea 63 bb bf b4 83 3e 8c 36 ba bd
       0.14756095 -0.0034777136 0.25723836 -0.09092435
000080 de 82 3c be d3 46 2d be 9e 90 9b be 85 e3 c4 bd
       -0.18409297 -0.16921549 -0.30383772 -0.096137084
000090 db 25 32 be ff 10 f1 bd 5f ca c6 3d 30 1c 27 3d
       -0.17397253 -0.1177082 0.09706568 0.040798366
0000a0 b6 76 20 bd 84 6b 17 bd 6f b3 aa bd 63 6c c9 3d
       -0.03917571 -0.03696777 -0.083350055 0.09835126
0000b0 5e 88 09 3e 98 72 60 be fc a3 4d 3e 27 51 9b 3d
       0.13430926 -0.21918714 0.20082086 0.07583838
0000c0 7a 83 7a 3d 80 06 9d 3e 01 59 28 be 46 7a bc 3d
       0.061160542 0.30669022 -0.16440202 0.09203009
0000d0 72 9b ae be 92 87 86 3e d0 e8 a1 3e c6 aa 19 be
       -0.3410297 0.26275307 0.31622934 -0.15006551
0000e0 1c 60 60 3d 00 12 82 bd 5d 2f e6 3c c1 4f 90 3e
       0.054779157 -0.063510895 0.028098756 0.28185847
0000f0 68 cb cf 3c f2 b2 e1 bd af 32 88 3e 32 27 44 3e
       0.025365546 -0.11020459 0.2660117 0.19155577
000100 07 d5 ce 3d 93 c3 19 3d cf 0d 0f 3e 82 93 3f 3e
       0.100992255 0.03754003 0.13970111 0.18708614
000110 5d 65 4a 3c c5 38 b2 bd 74 3f 8e be 5f f9 59 be
       0.012353268 -0.08702234 -0.27782786 -0.21286534
000120 83 41 df 3d 88 ea 69 3e 03 cf 11 3e 78 b5 24 be
       0.10901167 0.22843373 0.14239125 -0.1608485
000130 80 be 9b bd 63 03 18 3e 65 0e e7 3c 15 b1 43 3d
       -0.07604694 0.14845042 0.028205106 0.0477763
000140 72 ef dc bd 7a 9d 4f 3e d0 71 e8 bd 9a ca c2 3d
       -0.10787858 0.20274916 -0.11349833 0.095112994
000150 05 3d d2 bd 62 8f 62 bb 10 e8 7b 3c de 49 46 bd
       -0.10265545 -0.0034570326 0.015375152 -0.04841029
000160 f4 8a 28 3e 84 b6 8f 3c 2d 32 8b be ef f8 34 3e
       0.16459256 0.017543085 -0.2718672 0.17673086
000170 27 e1 07 3e 82 8d ed bd 8c cc 12 3e cc 0f 1f bd
       0.13269483 -0.11599256 0.14335841 -0.038833424
000180 0c 09 d1 3d 63 26 b3 bd e9 72 9f be 0b 1d a0 be
       0.10206804 -0.08747556 -0.31142357 -0.31272158
000190 a9 80 b1 3e eb d3 5e 3d e8 74 1f 3e e8 37 09 be
       0.34668472 0.05440132 0.1557194 -0.13400233
0001a0 de fb 1d be 32 5d 03 be ac 09 d0 bd 62 dd c2 3d
       -0.15428111 -0.1282852 -0.10158095 0.09514882
0001b0 b6 78 e5 bd d9 db ac 3e 36 fb 0e 3c bd 80 8a 3d
       -0.112046644 0.3376148 0.008726886 0.06762836
0001c0 e2 21 c5 bc e9 b2 44 3d e8 1b 47 bd 1b e2 ff 3d
       -0.024064008 0.048022185 -0.048610598 0.12494298
0001d0 ac b7 94 bc 3e 90 2a 3e 0f d9 6b 3e 43 6c 69 3e
       -0.018153988 0.16656587 0.2303202 0.22795205
0001e0 cc 4b e3 3e a2 8a 52 bd de 02 1c 3e de 82 44 bd
       0.44393766 -0.05140174 0.15235469 -0.047976367
0001f0 74 b8 a9 bd a6 89 5f 3c 81 a0 2e 3d c3 6a 1d 3d
       -0.08287135 0.013643658 0.042633537 0.038431894
000200 18 d5 ed 3d 2b 9a e3 bd 28 1d 80 3d 62 2e ba 3d
       0.1161291 -0.111133896 0.06255561 0.09090878
000210 58 cc 04 bc da a8 e7 bd 5c 59 67 bd 08 4f 18 bd
       -0.00810536 -0.11311503 -0.056481704 -0.037184745
000220 4a e8 f8 bd bd 48 81 bc 44 c9 b0 3d 95 b3 80 3c
       -0.121536806 -0.015781755 0.08632138 0.015710631
000230 e2 f9 76 3e b2 ca cb bd 99 54 bf be df 1b 97 3d
       0.2411876 -0.099507704 -0.3736923 0.07378363
000240 ad c6 d1 bd 06 cf 50 be 0e b0 dc 3d 65 24 33 be
       -0.102429725 -0.20391473 0.10775767 -0.17494352
000250 39 1e 97 3e 4b 10 66 3e 12 e6 08 bd 6f c8 6e bd
       0.29515246 0.22467153 -0.033422537 -0.058296617
000260 05 57 24 bd d4 b6 d2 3d 89 5a e6 3d 93 57 e0 3d
       -0.04012205 0.10288778 0.11247737 0.109542035
000270 a5 c9 9b bd ec ce da bd 67 1a e6 3d e6 a6 6e bd
       -0.0760682 -0.106839985 0.112355046 -0.058264636
000280 92 40 7e bd 88 87 a8 bd 70 ad f9 3d 1b e2 30 be
       -0.062073298 -0.082289755 0.12191284 -0.17273752
000290 82 c2 cf 3d f2 18 f4 bd 6c d5 cc 3a 15 83 cb bd
       0.10144521 -0.119188204 0.001562757 -0.09937111
0002a0 79 cf 11 be 2a 73 94 3d f2 d3 d1 3d 08 1a 92 3d
       -0.14239301 0.07248528 0.102455035 0.07133871
0002b0 39 ed 1c 3b 79 dd 34 3e 83 df 98 3d c6 95 ab b8
       0.0023945107 0.1766261 0.074645065 -8.181813e-05
0002c0 31 87 24 3b 75 bb 5f 3e b1 e7 50 3d 52 e2 98 bd
       0.0025104994 0.21848853 0.05100221 -0.07465042
0002d0 7b ec 3e be 31 80 3c 3d 08 bd bc bd f6 48 8a 3e
       -0.18644898 0.04602069 -0.09215742 0.2700879
0002e0 e2 74 ff 3d d7 33 1c 3c 44 dc 42 bd 42 a1 22 be
       0.124734655 0.009533844 -0.047573343 -0.15881827
0002f0 17 70 78 bd 25 4f ea bc bf de 4e be c7 5e 59 be
       -0.060653772 -0.028602192 -0.20202158 -0.21227561
000300 01 ca 8e bd 6f 7a f8 3d 70 1e f8 3d 9f 9d 86 bd
       -0.06972123 0.12132727 0.121151805 -0.065730326
000310 ee 1b cc bc ad 31 df bd 91 5b 13 be e9 d8 09 bd
       -0.024915662 -0.10898147 -0.14390399 -0.033654127
000320 23 6d 33 3e 59 14 10 3d f5 44 0c be e0 c3 6d be
       0.17522101 0.035175655 -0.1369818 -0.23219252
000330 1d 19 8b 3c d8 90 b5 3c 3d 2e 50 3e 06 2d 0c bd
       0.016979748 0.022163793 0.20330139 -0.034222625
000340 a9 26 6a be e0 a3 b7 3d 86 b6 f6 3d d0 27 21 be
       -0.2286631 0.089668036 0.12046532 -0.15737844
000350 fb 1e 3c bc 3a 0a 19 3e 39 ed 89 bd 52 bb e8 bd
       -0.011481996 0.14945307 -0.067347 -0.113638535
000360 bb 13 3f be 5f 59 99 be d4 3d 37 3b 4a f7 8c ba
       -0.1865987 -0.29950997 0.0027960436 -0.001075485
000370 c4 f5 b8 bb 6e 0c f1 3c f6 7c f1 bb 7f 25 45 be
       -0.005644532 0.029424872 -0.007369633 -0.19252585
000380 e4 2e 07 3e fa e9 bb bd 50 b9 34 3d 72 80 12 be
       0.13201481 -0.09175487 0.04412204 -0.1430681
000390 55 85 18 be e5 a1 8c 3e 48 5b 0e be a9 6a 48 be
       -0.14894612 0.27467266 -0.13902009 -0.19571938
0003a0 e1 0f 52 be 63 20 29 3e e5 8e 3f bd b6 8b 42 3d
       -0.2051387 0.16516261 -0.046767134 0.04749652
0003b0 9c 06 6d 3d 0c 36 d6 3c 35 be 46 3d 2c 07 4a 3e
       0.05786763 0.026148818 0.04852124 0.19729298
0003c0 e4 08 71 3c af 2b 57 be be ec 23 3d 9a 4f 98 bd
       0.014711592 -0.21012758 0.040020697 -0.07437058
0003d0 a3 86 08 3e 20 43 8d bc 42 3f d6 bd 5b a2 49 be
       0.1333261 -0.017243922 -0.10461284 -0.1969084
0003e0 d6 4f 1c bd 32 71 15 bd 53 6f db 3d 82 f1 22 be
       -0.038162075 -0.036484905 0.10714593 -0.1591244
0003f0 4c da e6 bd f4 a4 36 3c d7 0e a8 bd 52 b2 96 bd
       -0.112721056 0.011147726 -0.082059555 -0.07358231

layer1_1vm.0.bias f4 [64]
000000 ad 71 e1 ba 1e 7c ad bb 68 d2 f1 bb 96 35 2c 3c
       -0.0017200016 -0.005294337 -0.0073798187 0.010510823
000010 f5 29 ce 3a d7 85 17 3b 6f 8f 74 bb 09 23 8a ba
       0.0015729057 0.0023120546 -0.0037316938 -0.0010539006
000020 41 e9 4c 3b 44 c8 e6 ba 49 fe 38 3b 99 18 e5 bb
       0.003126696 -0.0017607291 0.0028227738 -0.0069914577
000030 de 09 c5 ba 12 b7 21 bc 8c 77 3f 3b 3a 2f a7 ba
       -0.0015032848 -0.0098703075 0.0029215543 -0.0012755163
000040 4f 62 09 3b a4 56 11 bc 38 ac a1 39 4e 50 ff 3b
       0.0020963138 -0.008870754 0.00030836626 0.0077915555
000050 d0 25 ab 39 93 01 69 3b 6b fb 77 3b 00 91 c5 bb
       0.00032643834 0.0035553917 0.0037839066 -0.0060292482
000060 70 f7 b0 bb 10 28 6c ba 9b a0 14 bb a8 22 11 bc
       -0.0054005906 -0.00090086553 -0.0022678736 -0.00885836
000070 ba 7d 8c 3b 68 04 3c 3a b0 93 a6 39 35 5f 25 3b
       0.0042874487 0.00071722874 0.00031772023 0.002523375
000080 da 4a 3d 3c c8 6c 38 39 80 18 a3 b7 bf 25 1e 3c
       0.011553491 0.00017588132 -1.9442523e-05 0.009652554
000090 26 01 f2 bb ea 25 a8 ba f8 4c a6 ba 5e c1 90 ba
       -0.007385391 -0.0012828682 -0.0012687733 -0.0011043956
0000a0 27 ae 94 ba 7c 66 95 bb 3b 5d 26 bb 3f b7 37 3c
       -0.0011343405 -0.004559336 -0.002538516 0.011213123
0000b0 c5 a8 69 3b 98 8d fc bb fa bc 26 3b 8a bc 2b 3b
       0.0035653573 -0.007707309 0.0025442229 0.0026204907
0000c0 3c 2f 10 ba 94 22 b0 b9 b7 43 cc 3a e5 fe db 3b
       -0.00055002025 -0.000335951 0.0015584145 0.0067137354
0000d0 aa 78 eb 3a f4 31 b6 ba 18 65 01 bc d2 0b 13 bc
       0.0017965038 -0.0013900385 -0.007897638 -0.008974986
0000e0 98 e5 95 b9 e4 7f ee ba 6e b0 41 3b 5e a2 13 bc
       -0.00028590555 -0.0018196073 0.0029554623 -0.009010879
0000f0 f8 1b ec 3b a0 af 6a ba 1a 17 cb ba ca 33 09 bc
       0.0072054826 -0.0008952562 -0.0015494556 -0.008374164

layer1_1vm.2.weight f4 [64]
000000 07 60 80 3f f8 9b 80 3f 38 79 7e 3f a6 30 7f 3f
       1.0029305 1.0047598 0.99403715 0.99683607
000010 29 da 7d 3f d0 ed 7d 3f 07 b9 81 3f 1c 1d 80 3f
       0.9916101 0.99191 1.0134591 1.0008883
000020 36 0d 7f 3f d4 bc 7d 3f 0e e1 7e 3f a9 61 80 3f
       0.99629533 0.99116254 0.99562156 1.0029804
000030 ff 14 81 3f 36 43 7d 3f 81 7f 82 3f 4b 2d 80 3f
       1.0084532 0.9893068 1.0195161 1.0013822
000040 a2 21 80 3f c3 28 7f 3f 6c 20 80 3f 58 d8 7f 3f
       1.0010264 0.9967157 1.0009894 0.9993949
000050 2f 64 80 3f ac 0f 7f 3f 25 c1 7e 3f 1f 37 81 3f
       1.0030574 0.9963329 0.99513465 1.0094947
000060 c0 24 80 3f 82 ad 7d 3f 24 9f 80 3f e7 1c 81 3f
       1.0011215 0.99092877 1.0048566 1.0086945
000070 fd 5e 7f 3f 2b c0 7f 3f 08 f4 7f 3f 69 2b 80 3f
       0.99754316 0.999026 0.9998174 1.0013248
000080 41 82 80 3f 07 16 7f 3f f7 c1 7f 3f 7b 98 80 3f
       1.003975 0.99642986 0.9990534 1.0046533
000090 9c 4b 7f 3f d0 6b 7d 3f 61 8d 7e 3f 36 80 80 3f
       0.99724746 0.98992634 0.9943448 1.0039127
0000a0 18 e3 7f 3f 56 18 81 3f ea e3 7f 3f 25 aa 7d 3f
       0.9995589 1.0085552 0.99957144 0.99087745
0000b0 31 27 7f 3f 57 f6 80 3f 80 c4 7f 3f 53 3e 80 3f
       0.99669176 1.0075177 0.9990921 1.001902
0000c0 7b 2a 80 3f bd 85 7f 3f af a6 80 3f 0a 43 7f 3f
       1.0012964 0.99813443 1.0050868 0.9971167
0000d0 55 39 80 3f ad 1b 80 3f c7 04 7e 3f d7 00 80 3f
       1.0017496 1.0008446 0.9922604 1.0000256
0000e0 2a 05 7f 3f 55 8f 81 3f 74 7a 80 3f 4a 40 81 3f
       0.99617255 1.0121866 1.003737 1.0097744
0000f0 d2 51 80 3f d7 d0 80 3f 59 26 81 3f a4 ae 81 3f
       1.002497 1.0063733 1.0089828 1.0131421

layer1_1vm.2.bias f4 [64]
000000 2e 1d 21 3b c5 91 8f 3b 03 1a 17 bc 3a 27 39 bb
       0.0024584043 0.0043813908 -0.00922251 -0.002825214
000010 e4 f0 0a bc 53 13 08 bc aa 9a 52 3c ba 48 dd 3a
       -0.008480284 -0.0083053885 0.012854258 0.0016882636
000020 61 ac bc bb 2a ef 0d bc 91 89 c7 bb e5 fb 64 3b
       -0.005757854 -0.008662978 -0.0060893972 0.003494018
000030 3e 49 1d 3c de 8c 2e bc 16 b6 a3 3c 49 83 98 3a
       0.009599982 -0.010653703 0.019984286 0.0011635806
000040 c8 d6 46 3a 6a 1c 84 bb df d9 37 3b d8 4d 13 b9
       0.00075851055 -0.0040317075 0.0028053445 -0.00014048012
000050 18 05 27 3b 87 0b 4c bb b9 55 7a 3b 07 b0 c7 3b
       0.0025485214 -0.00311348 0.0038198067 0.006093982
000060 00 7f 13 b7 4f 8b 10 bc 8c 7a 97 3b 20 33 eb 3a
       -8.791452e-06 -0.008822276 0.004622763 0.0017944314
000070 e7 3d 19 bb 7c e6 8b ba af d3 4e 3a 88 62 a6 3a
       -0.0023382844 -0.0010673548 0.00078898197 0.001269416
000080 b0 31 8c 3a 6b 5c 82 bb 70 c8 ae 38 1c fb 31 3b
       0.001069596 -0.0039783022 8.334301e-05 0.002715773
000090 a4 70 d0 ba 15 c1 39 bc 4e ce b3 bb de e4 78 3b
       -0.001590271 -0.011337538 -0.00548724 0.0037978212
0000a0 a0 6d 5b b9 ce 90 0a 3c a0 e1 e3 38 3e 03 18 bc
       -0.00020926306 0.008457376 0.000108662294 -0.009278117
0000b0 c5 e4 4c bb f8 e8 0b 3c 6c 18 4d 3a 88 7a 9b 3b
       -0.0031264287 0.008539431 0.00078237685 0.0047448315
0000c0 3a ef 88 3a 73 6e 35 bb 6c b7 97 3b 99 f2 56 bb
       0.0010447272 -0.002768424 0.00463002 -0.0032798408
0000d0 e0 28 89 3b 18 9b f8 b9 a0 ad 12 bc c2 e0 e6 3a
       0.004185781 -0.000474178 -0.008952528 0.001761459
0000e0 d4 af 69 bb 01 b2 40 3c a8 a3 70 3b 92 bb 11 3c
       -0.003565778 0.011761189 0.003671864 0.008894818
0000f0 1e 13 43 3b 3a e4 d3 3b 7e 1f 1e 3c ea 48 35 3c
       0.0029766033 0.0064664157 0.009651063 0.011064747

layer1_1vm.2.running_mean f4 [64]
000000 3a ec b7 c5 e5 8f 50 45 7e e7 88 45 92 4d 6f 45
       -5885.5283 3336.9934 4380.9365 3828.8481
000010 34 ee cf c5 2e a6 b7 c5 66 64 c4 c5 c7 1b f3 c5
       -6653.7754 -5876.7725 -6284.55 -7779.472
000020 60 9f a8 45 0d ac fa c5 e3 2b 22 c5 07 4e b5 c4
       5395.922 -8021.5063 -2594.743 -1450.4384
000030 80 5b 25 c5 0f 30 96 45 b3 d2 27 46 94 ce 0a 46
       -2645.7188 4806.0073 10740.675 8883.645
000040 50 b6 86 45 42 5d b8 c4 40 31 f1 45 0c c3 d1 45
       4310.789 -1474.9143 7718.1562 6712.381
000050 53 11 86 45 e7 82 86 c3 74 b9 27 c2 da b7 b2 45
       4290.1655 -269.02267 -41.931107 5718.9814
000060 4b 50 15 45 bd ec 07 c6 c1 cc 10 c6 31 b8 3b c5
       2389.0183 -8699.185 -9267.188 -3003.512
000070 b7 02 1b c6 90 ad 37 45 95 9f a6 c4 55 01 ee c5
       -9920.679 2938.8477 -1332.9869 -7616.1665
000080 03 c4 48 44 2f 79 ee c5 13 40 b4 45 de a8 8f 45
       803.0627 -7631.148 5768.0093 4597.1084
000090 21 f0 18 46 82 8a d9 43 43 a8 c6 c4 b1 f6 5e c6
       9788.032 435.0821 -1589.2582 -14269.673
0000a0 dd e9 7a c5 1f fa 62 c5 b7 1c 04 c5 f7 f8 75 c5
       -4014.6165 -3631.6326 -2113.7947 -3935.5603
0000b0 ae 27 03 c6 ab 41 22 45 48 f1 23 46 32 4b 33 46
       -8393.92 2596.1042 10492.32 11474.799
0000c0 4e 28 1e 46 8f a0 ac c5 e0 09 9d 45 7f ec 22 46
       10122.076 -5524.07 5025.2344 10427.124
0000d0 a8 ad 15 45 34 23 53 c5 37 f2 a7 45 4c ef 37 c4
       2394.8535 -3378.2002 5374.277 -735.739
0000e0 db 08 9c c5 e2 0b bf c5 85 f6 91 44 72 23 8b c5
       -4993.107 -6113.4854 1167.7037 -4452.4307
0000f0 9b 28 48 46 12 f0 25 c6 48 8b a6 45 f8 99 10 c5
       12810.151 -10620.018 5329.41 -2313.623

layer1_1vm.2.running_var f4 [64]
000000 cd a5 18 4b e6 15 54 4a 77 7c a9 4a 3b ee 81 4a
       1.0003917e+07 3.4748095e+06 5.5537235e+06 4.2575655e+06
000010 b9 04 3a 4b 9b 9b 15 4b 02 76 18 4b 9e fe 76 4b
       1.2190905e+07 9.804699e+06 9.991682e+06 1.6187038e+07
000020 40 10 11 4b a9 7e 77 4b 8e 83 06 4a 23 e7 3d 49
       9.50688e+06 1.6219817e+07 2.2038755e+06 777842.2
000030 53 38 e0 49 5a 6d ca 4a c3 da 17 4c a1 10 ab 4b
       1.8368104e+06 6.633133e+06 3.9807756e+07 2.2421826e+07
000040 d5 d2 bc 4a 6a af 3f 49 a4 d7 8a 4b dc 8d 42 4b
       6.1873705e+06 785142.6 1.8198344e+07 1.27503e+07
000050 c3 3c ab 4a 9e 4e 17 48 30 f5 37 47 65 58 10 4b
       5.6111055e+06 154938.47 47093.188 9.459813e+06
000060 94 54 c4 49 43 06 ab 4b d5 28 c9 4b b8 84 14 4a
       1.6083385e+06 2.2416518e+07 2.6366378e+07 2.433326e+06
000070 88 ea c4 4b ed e9 13 4a 5a 27 2f 49 ab f8 80 4b
       2.5810192e+07 2.4234192e+06 717429.6 1.6904534e+07
000080 07 e5 a9 48 fe 6d 81 4b c4 e0 25 4b a7 51 bf 4a
       347944.22 1.6964604e+07 1.087098e+07 6.2691395e+06
000090 5b 8a dd 4b 95 17 01 48 91 c4 86 49 e5 73 5b 4c
       2.903775e+07 132190.33 1.1040181e+06 5.7528212e+07
0000a0 73 0c 86 4a 6c f4 79 4a ad 74 99 49 8b ae 88 4a
       4.3925055e+06 4.095259e+06 1.2571096e+06 4.4787895e+06
0000b0 b5 e9 a8 4b 4d 94 e5 49 b3 f3 01 4c ee 4a 13 4c
       2.2139754e+07 1.8807136e+06 3.4066124e+07 3.8611896e+07
0000c0 ff a0 07 4c d1 a2 f3 4a 98 df d2 4a 8a d7 03 4c
       3.55543e+07 7.9834645e+06 6.9099e+06 3.4561576e+07
0000d0 59 16 dc 49 cc 00 55 4a 70 9b 00 4b c1 6e 72 48
       1.8029551e+06 3.489843e+06 8.4284e+06 248251.02
0000e0 49 81 f9 4a 06 f8 13 4b ed 99 e8 48 5b 34 b3 4a
       8.1757805e+06 9.697286e+06 476367.4 5.8721735e+06
0000f0 e9 1c 37 4c ea d5 03 4c 34 9c 0e 4b 12 66 c2 49
       4.8001956e+07 3.455991e+07 9.3461e+06 1.5925142e+06

layer1_2vm.0.weight f4 [32, 64]
000000 7d 92 00 bc af 1f de bd 91 3c 8e be fa 50 72 3d
       -0.0078474255 -0.10845887 -0.27780584 0.059159257
000010 70 ca c2 bd a3 cd e2 3d 68 ec 2b be 05 a3 35 be
       -0.09511268 0.11074378 -0.167894 -0.17737968
000020 42 8d 8f 3b 62 50 a9 bd b1 58 dc bc 98 45 8b be
       0.004380853 -0.08267285 -0.02689776 -0.27201533
000030 73 56 f2 bb d6 07 5c be 88 56 11 3d f1 d3 0d bc
       -0.0073955595 -0.21487364 0.035482913 -0.008656488
000040 4a 7e 01 3c eb bc a2 be 0c 5b c0 3c d5 9e 63 3d
       0.007903645 -0.31784758 0.023480915 0.055571396
000050 60 00 35 3e 33 c9 36 3e 65 4f 34 bd 2e ab 6d be
       0.17675924 0.17850189 -0.04402103 -0.23209831
000060 28 56 80 3e b4 07 6e 3d 7b ad f2 bd 25 99 66 bd
       0.25065732 0.058112815 -0.11849495 -0.056298394
000070 d6 60 e2 bd ea 45 52 3d 15 52 3e 3e ab 13 1e be
       -0.11053626 0.051336206 0.18586 -0.1543719
000080 8e 65 e9 bc 60 ad 75 3e 54 72 dd bd ab 4a 96 3d
       -0.028490808 0.23991919 -0.10812822 0.073384605
000090 00 4c d3 bd 5e 93 be 3d 6f aa 47 be d0 97 03 be
       -0.1031723 0.09305452 -0.19498609 -0.1285088
0000a0 6c 44 17 bd 63 00 8f bd 00 d0 ff 3d c1 31 ae bd
       -0.036930487 -0.06982496 0.12490845 -0.085055836
0000b0 b4 ff a3 3e 39 5e c1 bd 3c ad 07 be 11 ed 40 bd
       0.32031024 -0.094418 -0.13249677 -0.047101084
0000c0 fb 76 9a bd 7a 42 f0 be 53 e4 ef bc ce c8 3f be
       -0.07542225 -0.46925718 -0.029283678 -0.18728945
0000d0 ce e9 c7 3d dc e0 fb bd 9a 64 9d bd 83 f5 b7 bd
       0.097613916 -0.12298748 -0.07685204 -0.089823745
0000e0 ca 59 57 3e 89 34 87 bc f2 29 4f be de f8 a9 3d
       0.21030346 -0.016504543 -0.20230845 0.08299421
0000f0 0e f3 1b be 5c 13 41 be 40 0d 0c bc 87 0a 31 3e
       -0.15229437 -0.18855041 -0.008548081 0.17289172
000100 83 bc c4 be d0 43 e9 3d ca be 57 3e 13 97 8f 3e
       -0.38425073 0.11389887 0.21068874 0.28044948
000110 da 1c 60 bb 88 6a 02 3e 10 12 71 3e 85 c8 64 3e
       -0.0034196884 0.12735951 0.23542047 0.22342117
000120 81 0d 61 3b 46 8c 56 be 0f 9c 33 3e c7 66 6e bc
       0.0034340324 -0.20951948 0.1754 -0.014550871
000130 fc c2 eb 3d ae 85 1c bd 57 57 14 3d 6b ee 1e 3e
       0.115118 -0.038213424 0.036216106 0.15520637
000140 a9 03 e1 bc ba 25 b0 bd d5 3f 7d be 0f 8c e4 bd
       -0.027467566 -0.08600946 -0.24731381 -0.111595266
000150 af c5 78 3d 85 5b 39 3e af c0 8d 3d e2 6b 33 3e
       0.0607354 0.18101318 0.06921517 0.17521623
000160 4d 9e b2 be cf bb 99 3d 0f 20 67 bc 32 1c 3d bd
       -0.348864 0.07506525 -0.014106764 -0.046169467
000170 38 a7 33 ba 6d bc d7 be f6 fe 29 bc 4f dd 9b bd
       -0.00068532256 -0.42135945 -0.010375729 -0.07610571
000180 ef 4b fd bd 8a 77 f4 bd 18 b1 d3 bd 53 e4 40 be
       -0.12367999 -0.11936863 -0.10336512 -0.18837099
000190 1f 99 89 3c 55 b1 11 3e 69 65 53 3e 76 55 e3 3d
       0.016796647 0.14227803 0.20644154 0.11100285
0001a0 e8 d2 3d be 73 41 8c 3d d9 ed e3 bd 53 35 8e 3d
       -0.18537486 0.06848421 -0.1112935 0.069437645
0001b0 88 f0 ba be c8 a5 9e bd c7 bf 07 3e 50 02 e4 3c
       -0.36511636 -0.07746464 0.13256751 0.027833134
0001c0 66 ae e5 bd 76 c6 00 bd 98 b0 3b 3c 2a 0b 0d 3d
       -0.112149045 -0.031439267 0.011455677 0.034434475
0001d0 17 a4 b1 bd bb e4 10 be 01 60 f9 bd dc 52 2b be
       -0.08673876 -0.14149754 -0.121765144 -0.16730827
0001e0 a5 bd 91 3e 07 02 14 bd 62 08 16 3e de f3 c9 bc
       0.28465 -0.036134746 0.14651635 -0.024652418
0001f0 60 c1 ff 38 f3 3c 0c bd 7f 98 7d 3d 9c 64 cc bd
       0.000121953664 -0.034237813 0.06191301 -0.09980127
000200 bc 0a 81 3e c8 ed 4b 3d 61 2d 17 3d 43 ca 82 3c
       0.25203502 0.049787313 0.03690851 0.015965587
000210 00 a3 ad be f4 8d 8d bd 6d 11 0d 3c 7e 77 ad bd
       -0.33913422 -0.06911841 0.008610112 -0.08470057
000220 8a 35 2d be e2 34 3e be 93 82 40 bd 32 db 1c bd
       -0.16914955 -0.1857486 -0.046999525 -0.03829498
000230 65 cb 08 be 7b 78 a5 bd a4 48 22 be 83 29 20 be
       -0.13358839 -0.080796205 -0.15848023 -0.15640835
000240 f5 7f 7c bc 2a ac cc 3d 8c cf 43 bd 7e bc d5 bd
       -0.015411367 0.09993775 -0.047805354 -0.10436343
000250 b5 8f 25 bc 9b 90 07 be 3c 2a f5 3d 3e 5d 0e 3d
       -0.010105063 -0.13238756 0.11970946 0.03475689
000260 f0 fe 9c be e4 6d 68 bd 75 c7 8b be ec 87 05 3e
       -0.30663252 -0.056745425 -0.2730061 0.13040131
000270 bb e0 44 3e 33 b4 53 be 85 e5 e5 3d ab 99 e9 3c
       0.19226353 -0.2067421 0.11225418 0.028515657
000280 ae 91 25 be 49 15 eb 3c 25 7a 84 bc 41 1f 71 bd
       -0.16168854 0.028696673 -0.016171524 -0.058867697
000290 55 e1 1f 3c 3e 15 26 be 5c 0c ef 3c 5b 66 89 bd
       0.009758313 -0.16219041 0.029180698 -0.06708976
0002a0 84 56 2f 3c d6 73 22 be a5 0f 00 3d 17 9d c6 bc
       0.010701779 -0.158645 0.03126492 -0.024244828
0002b0 29 54 8d be 6d 91 14 3b 09 5f fb bc 59 55 90 be
       -0.27603272 0.0022669688 -0.030684965 -0.28190115
0002c0 32 f7 46 3d cf 5f 1e be 37 70 56 3e b4 e1 01 3d
       0.048575588 -0.15466236 0.20941244 0.031709388
0002d0 3f 79 ed bd bf c2 1b 3e 01 16 30 bd ae 1b 4f 3d
       -0.115953915 0.15211008 -0.042989735 0.050563507
0002e0 d7 2e e1 3c 20 4c c0 bd 90 45 6a bd 5f 86 28 be
       0.027488155 -0.0938952 -0.057195246 -0.16457509
0002f0 7d 26 79 be f1 1f 03 be b1 ac 8b 3c 1c d9 83 3c
       -0.24331088 -0.12805153 0.01705012 0.016094737
000300 60 26 f8 bd c6 98 e0 bc ec e4 a4 be 36 d7 f6 3c
       -0.121166945 -0.027416598 -0.32205904 0.030131917
000310 2f 4b e4 3c 46 e4 c9 3c 85 44 ad bd 6e 82 93 bb
       0.027867882 0.024644982 -0.08460335 -0.0045016324
000320 da 00 fb ba d3 5f 27 3e a3 57 36 3e 72 c2 c9 bd
       -0.0019150034 0.16345148 0.17806868 -0.098515406
000330 dc 45 0b be 07 89 68 bd 93 90 90 bd 79 80 1c be
       -0.13600868 -0.056771304 -0.07058825 -0.15283383
000340 32 04 8c bd 12 5f 4e 3c 6e 6a fe 39 62 51 5b 3d
       -0.06836738 0.012595909 0.00048525952 0.05354441
000350 92 05 1c be 18 76 56 3e 13 0f 73 3e 58 28 62 3d
       -0.152365 0.20943487 0.23736219 0.055214256
000360 78 ee 3c bd 51 45 cc bd 8d 57 77 3e a1 8b 03 bd
       -0.04612586 -0.099741586 0.24154492 -0.032115582
000370 d7 37 6b 3e 60 ae 80 3d 30 3b 61 bd df 03 6a bc
       0.2297052 0.062832594 -0.054988086 -0.0142831495
000380 e6 a9 15 3e 6a 6a 99 be ac 3b b0 3c 00 6b 91 3e
       0.14615592 -0.29964 0.021512829 0.28401947
000390 5a 81 49 be b4 65 36 bd d2 d2 86 bd 81 5a 40 be
       -0.1967825 -0.044530585 -0.065831795 -0.18784525
0003a0 b4 38 3c 3e ef 07 09 ba 87 e9 ab 3d a7 2e 7a be
       0.18381006 -0.00052273175 0.08394151 -0.24431859
0003b0 41 40 ec 3c d1 56 16 3d d8 c2 48 bd 50 0f 17 bd
       0.028839232 0.03670389 -0.049013942 -0.036879838
0003c0 76 71 ec 3d 15 ed b8 3c 89 94 c8 3d 0d 55 2b be
       0.115450785 0.022573987 0.09793956 -0.16731663
0003d0 de 42 4e be 7b 4c a9 bb db e5 04 3e df 3f 00 bd
       -0.20142695 -0.005166588 0.12978308 -0.031310912
0003e0 f4 8d 18 be 8e 83 2b be 5e 5f 36 be b2 14 40 be
       -0.14897901 -0.16749403 -0.17809817 -0.18757895
0003f0 99 a2 99 be 42 86 49 3d 35 0b 48 bd 07 c7 30 be
       -0.30006865 0.049200304 -0.048838813 -0.17263423

layer1_2vm.0.bias f4 [32]
000000 30 d0 53 b9 40 c1 b8 bb 99 96 e5 bb 82 d7 4a bc
       -0.00020200084 -0.0056382716 -0.007006478 -0.012380483
000010 00 cf 26 3b fe 5f 85 bb ae 13 c7 bb da d1 5e 3c
       0.0025452971 -0.004070281 -0.006075344 0.013599837
000020 6e 88 9a bb f8 7f b3 b9 54 fa 21 3a 6b b4 8c 3b
       -0.0047159707 -0.00034236885 0.00061789644 0.0042939684
000030 b4 f6 44 bb 1b 6f 1b 3c a1 89 08 3c 11 c0 11 3b
       -0.0030054273 0.009486939 0.008333595 0.0022239725
000040 0a 0f dd ba c5 dc fa bb 70 fa 70 bb 68 0c 49 bb
       -0.0016865444 -0.0076557123 -0.0036770366 -0.003067756
000050 1c 28 4e ba 48 80 c1 3c ba eb 22 3b 36 58 b3 3b
       -0.0007864253 0.02362074 0.0024859742 0.005473162
000060 ca b3 81 3b b6 4d 9c 3b b8 24 d9 3b 49 d3 c8 3b
       0.0039582 0.004770006 0.0066266917 0.006128703
000070 aa 49 2a bc 82 91 ef bb db 42 b4 3b 96 e9 e5 ba
       -0.010393539 -0.007311047 0.005501134 -0.0017540928

layer1_2vm.2.weight f4 [32]
000000 b3 4d 7f 3f 03 17 78 3f d3 a4 80 3f ec 5f 7f 3f
       0.99727935 0.96910113 1.00503 0.9975574
000010 03 64 7c 3f f7 5c 7c 3f e7 68 7e 3f 3c 41 80 3f
       0.98590106 0.98579353 0.9937882 1.0019908
000020 99 04 82 3f d2 b1 7d 3f 59 1b 81 3f 29 3e 7d 3f
       1.0157653 0.9909946 1.0086471 0.98922974
000030 32 5d 81 3f e6 34 81 3f 70 5e 81 3f 33 ff 7f 3f
       1.0106566 1.0094268 1.0106945 0.9999878
000040 11 28 7f 3f 3f 39 80 3f f1 63 81 3f 25 8f 7f 3f
       0.9967051 1.001747 1.0108625 0.99827796
000050 f6 77 81 3f 8a 77 82 3f 8a 68 81 3f 9a 8e 79 3f
       1.0114734 1.019273 1.0110028 0.9748322
000060 26 d5 7e 3f 47 97 7e 3f 54 58 80 3f 5d ab 7f 3f
       0.9954399 0.9944958 1.0026956 0.99870855
000070 ac a6 82 3f a5 31 7b 3f 18 e8 7e 3f 29 5a 7d 3f
       1.0207114 0.98122627 0.99572897 0.989657

layer1_2vm.2.bias f4 [32]
000000 b2 3c f5 ba b6 26 19 bd 59 5e 26 3c 48 ca 57 bc
       -0.0018710105 -0.037390433 0.01015433 -0.013170786
000010 7c e4 92 bc 75 a3 be ba 94 99 0e bb 06 3c 73 3c
       -0.017931215 -0.0014544564 -0.002175902 0.014845854
000020 8c 58 3b 3c 92 76 0d bc 29 eb 71 3c fe 5b f6 bb
       0.011434685 -0.008634226 0.014765539 -0.0075182905
000030 2c 9f 8d 3c 4f 46 3c 3c 21 34 48 3c 10 7c a2 b9
       0.017287813 0.011491372 0.01221946 -0.00030991482
000040 f3 2e b7 bb db f8 36 3b 24 7a cf 3b 70 ab 63 bb
       -0.0055903136 0.0027919326 0.006331699 -0.0034739636
000050 bd d1 92 3b 86 23 d6 3c bb 76 5f 3c 15 d1 cb bc
       0.004480569 0.026139986 0.013639147 -0.024879972
000060 f5 e6 67 bb df e6 16 bc e8 ae 3b 3c 92 af 84 3c
       -0.0035385464 -0.009210317 0.011455275 0.016197
000070 33 21 fb 3c 42 ab be bc a5 99 49 bc 58 31 04 bc
       0.030655479 -0.023275021 -0.012304698 -0.008068405

layer1_2vm.2.running_mean f4 [32]
000000 3d 92 51 bf 1f ab 14 be 83 5a 84 bf e5 e2 05 bf
       -0.81863767 -0.14518403 -1.0340122 -0.5229934
000010 5e c1 6b bf ee 70 93 bd 1e 07 9a be f4 f5 41 3f
       -0.9209193 -0.07199274 -0.30083555 0.7576592
000020 74 4b 36 bf ae 34 9c 3c a7 ed 68 3f 7e a6 80 bd
       -0.7120888 0.019068088 0.9098763 -0.06281756
000030 a4 14 9c be 4e b0 82 be 15 56 ac bc ad 8f 2a 3f
       -0.30484498 -0.25525135 -0.02103714 0.6662548
000040 f2 b8 f1 3e 08 ef 00 bf 0a f1 fe 3e f4 29 3d be
       0.47211415 -0.5036473 0.49793273 -0.18473035
000050 0f 00 3f 3f b1 8a 54 3e 0c d8 c2 be 79 66 af be
       0.74609464 0.20756032 -0.38055456 -0.34257868
000060 84 ce 9e be f0 6f 60 be fb 46 2c bc a3 40 46 be
       -0.31016934 -0.21917701 -0.01051497 -0.19360594
000070 f1 fb 3c bf 35 f6 13 be f4 55 fa bd 44 47 71 3d
       -0.7382193 -0.1444939 -0.122234255 0.058905855

layer1_2vm.2.running_var f4 [32]
000000 df a7 88 3f 51 bd 44 3f 44 86 6b 3f a5 5c 32 3f
       1.067623 0.76851374 0.9200175 0.69672614
000010 c5 2d 6a 3f 64 2c 18 3f ba 2f 3e 3f fb 6f 7b 3f
       0.9147609 0.59442735 0.74291575 0.98217744
000020 7a 44 57 3f fd 3d 3d 3f 06 29 5c 3f c8 31 04 3f
       0.8408886 0.7392271 0.86000097 0.5163846
000030 13 51 47 3f dc 16 22 3f 09 cc 39 3f b9 17 34 3f
       0.77858084 0.6331613 0.7257696 0.703487
000040 8e 47 50 3f da 01 1b 3f a0 1a 2c 3f d4 80 3f 3f
       0.81359184 0.605497 0.67228127 0.7480595
000050 c9 da 6c 3f 09 8b 83 3f cb b5 15 3f a1 ee 0d 3f
       0.9252134 1.0276805 0.5848052 0.55442244
000060 bd 2c 08 3f 3e 2d 6a 3f 46 a7 80 3f 2e c7 3f 3f
       0.53193265 0.91475284 1.0051048 0.749133
000070 4e f9 8f 3f e6 ff 05 3f 4f 7c 04 3f 02 19 03 3f
       1.1247957 0.52343595 0.5175218 0.51210034

layer2.0.weight f4 [32, 64]
000000 47 35 90 bd dd 65 d6 3d f7 19 33 bc b9 ea 8b 3d
       -0.07041412 0.10468648 -0.0109314835 0.06831879
000010 f0 a0 27 bd a0 64 cc 3a b5 c6 2f be c2 78 2e 3d
       -0.040924966 0.0015593953 -0.17165644 0.042595632
000020 28 80 51 3e 30 c9 63 be be 0a ae 3d 4d 3f 06 3d
       0.20459044 -0.22244716 0.08498143 0.032775212
000030 fd 53 29 bb 7e 2c 19 bd e9 db 8b 3d 7e b9 1f 3e
       -0.0025837414 -0.037395947 0.06829054 0.15598103
000040 7c c4 0b bd bc c5 29 3c cc 7b 4f 3e 4f cf f2 3d
       -0.03412293 0.010362085 0.20262069 0.11855947
000050 63 9f 72 bd d1 0d fe bd 7e 92 39 bd ae 49 b2 bd
       -0.059234034 -0.12404979 -0.04530572 -0.087054595
000060 e0 e5 3f 3c 74 2e d3 3d 2c 70 8c 3d 86 45 51 be
       0.011712521 0.103115946 0.068573326 -0.20436677
000070 23 78 d8 3d 3c aa e6 3d 96 8b 7a 3d 82 ab 9e 3d
       0.10569789 0.112629384 0.061168276 0.07747556
000080 b5 e6 70 be 5b 10 5c 3e 64 45 1c be 9e b2 54 3e
       -0.23525508 0.21490614 -0.15260845 0.20771262
000090 e5 e7 69 3d ba 8a c1 bd 58 19 46 bd ad f2 6b be
       0.057105917 -0.09450288 -0.048364013 -0.23041792
0000a0 92 64 a4 3d a6 31 af bd c3 76 bf bd 8c 5d 16 3d
       0.08026995 -0.085543916 -0.09348824 0.036710307
0000b0 08 18 1e 3e 63 7e 43 3e 24 ed 15 3e 7d d6 4e 3e
       0.15438855 0.19091181 0.14641243 0.20199008
0000c0 0b d7 b4 3e 5f 56 b3 3e 8a 24 89 bd 83 5b 1c 3b
       0.35320315 0.35026833 -0.066964224 0.0023858256
0000d0 6d b2 44 3e 62 e3 93 be fe fb 05 be 24 06 48 3e
       0.19208689 -0.28884417 -0.13084409 0.19533592
0000e0 d6 61 0b 3e 79 9b 1d be e7 58 46 bd b5 c3 4c 3d
       0.1361154 -0.1539134 -0.048424628 0.04999133
0000f0 0a 81 a6 bd 88 1d 3d 3c f9 12 ae 3c 66 8e c4 bd
       -0.08130081 0.011542685 0.021249281 -0.09597473
000100 d8 e0 df 3d d3 ec af 3c ab 17 8a 3c 82 69 2d 3b
       0.109315574 0.021475231 0.016856989 0.0026460593
000110 22 76 26 be f0 a7 54 3e bd 1b 6e 3e 32 08 30 be
       -0.16256002 0.20767188 0.23252769 -0.17190626
000120 42 eb 9c bd 6a 64 99 3e aa d1 f1 bd c5 28 24 be
       -0.07662059 0.29959422 -0.11807568 -0.16031177
000130 fa d1 86 bd 7c d3 98 3d 70 27 21 be c0 73 8a 3d
       -0.065830186 0.074622124 -0.157377 0.06760359
000140 2f c7 0a be 9a 13 bb bb 1b b8 67 be b1 19 c3 bc
       -0.13552545 -0.005709124 -0.22628824 -0.023815962
000150 15 1d f6 3d 72 b6 8d bd f7 e4 b7 bd eb 48 6b 3e
       0.12017266 -0.06919564 -0.089792185 0.22977035
000160 0d b4 57 be a4 cd 5f 3e 4d 01 cc 3c bc c2 de 3d
       -0.21064778 0.2185579 0.024902964 0.108769864
000170 78 27 cf bc b4 82 11 3e 53 b5 ad bd 9f 3b 4e be
       -0.025287375 0.14210016 -0.084818505 -0.20139931
000180 36 59 82 3e 8f cb ec bd 11 46 16 bd 0c fd 4b 3e
       0.25458688 -0.11562263 -0.036687914 0.19920748
000190 a1 8e 87 3e b5 12 e8 bd 82 cf 0f be f6 7b a0 3d
       0.26476005 -0.11331693 -0.14044002 0.07836144
0001a0 ac 6e 16 be 82 8c 3e 3e 13 7e 11 bc 34 ae 35 bc
       -0.14690655 0.18608287 -0.008880156 -0.011088897
0001b0 24 b9 16 bc 7c 69 98 3e ab 53 e2 3d e3 4b ae 3d
       -0.009199414 0.29767978 0.11051115 0.08510568
0001c0 84 84 b8 3c 34 e1 e0 3d ed 8a a0 3e 9a 91 a1 bd
       0.022524126 0.10980454 0.31355992 -0.078890994
0001d0 9e 98 67 3d ac 8f 86 3d 45 a6 81 3e 16 3e 4b be
       0.05654203 0.06570372 0.25322166 -0.19847903
0001e0 0c f4 32 3d 82 03 20 3d c1 67 06 3d 60 95 83 3e
       0.043689772 0.039065845 0.03281379 0.25699902
0001f0 2e 74 98 be cb d3 97 bd ae 23 c0 bc cc 17 b4 3c
       -0.29776138 -0.07413443 -0.023454513 0.021984003
000200 6c fc 4e 3e dc 3f 2c 3e 2c b0 55 3e 39 d3 01 bd
       0.20213479 0.16821235 0.20867985 -0.03169558
000210 ef 82 02 be 50 a8 69 3e 8f 19 13 3e 38 72 0c 3e
       -0.1274526 0.22818112 0.14365219 0.13715446
000220 a1 74 48 3e 24 c5 55 3e 90 d9 cc bd 1e f1 d9 3d
       0.1957574 0.20875984 -0.10002434 0.106416926
000230 44 14 73 bd df 20 be bd 31 5d a2 3d 68 ef 10 3d
       -0.0593455 -0.092836134 0.07927931 0.035384566
000240 f3 58 b0 3d c7 d7 10 3b 15 b0 93 3d 7b e2 25 3d
       0.08610716 0.002210127 0.07211319 0.04049919
000250 c0 4d c3 3c c5 d9 09 be c8 64 c3 bc a2 ee 92 3e
       0.023840785 -0.13461979 -0.023851767 0.28697687
000260 11 ab 2b be f5 d1 7c 3d 11 86 02 3e 26 a5 82 be
       -0.16764475 0.061723668 0.12746455 -0.25516623
000270 d8 a3 91 bd f6 7d 05 3e cc 80 e2 3d ce 56 43 be
       -0.07111329 0.13036332 0.11059722 -0.19076082
000280 a8 a1 43 be ba 97 77 bd 4a 5e f3 3d 6d 01 1a 3d
       -0.19104636 -0.060447432 0.118832186 0.037599016
000290 27 ff ee bb ef a4 11 3e 45 cf 04 3c 1c de 5b 3d
       -0.0072936 0.14223073 0.0081060575 0.053678617
0002a0 7a 51 b6 3b f4 62 b7 3d f2 52 51 3d 6a 09 b7 bd
       0.005563912 0.08954421 0.051104493 -0.089373425
0002b0 ae 23 b9 3d 8a 7c 5d bd 38 37 1d be 13 c1 8a 3d
       0.090400085 -0.054073848 -0.15353096 0.06775107
0002c0 d8 07 31 bd 29 2c a0 be 38 ea 9e 3c ea 46 d5 bd
       -0.04322037 -0.31283692 0.019398794 -0.104139164
0002d0 b6 da ef 3d 03 eb 46 bd dd 40 48 be 84 c7 ee bd
       0.11711638 -0.04856397 -0.19555993 -0.11659148
0002e0 81 f0 c3 bd b4 75 01 3e f1 18 09 3e 9d 71 12 3c
       -0.09567357 0.12642556 0.1338842 0.00893822
0002f0 63 d4 0a be 4f bc 7f 3e 14 7c 12 be 39 b8 be bd
       -0.13557582 0.24974178 -0.14305145 -0.093124814
000300 5b 27 a6 be 35 0c 49 be ae 49 df 3d 99 d1 4e 3e
       -0.324519 -0.19633563 0.10902725 0.20197143
000310 64 04 86 3e d7 a7 f7 bc 67 2d 4e be d1 0e 3d bc
       0.26175225 -0.0302314 -0.20134507 -0.011539177
000320 8b 27 53 bc 5a ae 72 be f7 de 45 be 88 d2 f0 39
       -0.012887846 -0.23699322 -0.19323336 0.00045933225
000330 7c 40 9c be 0a d7 88 bd e8 2e 02 b9 58 54 ce 3e
       -0.30517948 -0.066816404 -0.0001241524 0.40298724
000340 3e 35 8e 3c fe 28 8e bb 97 d7 59 bb 4d a9 b2 be
       0.017359372 -0.0043383827 -0.0033240074 -0.3489479
000350 3e 88 1c be 8e a4 0d 3e e3 2c 27 be ec 15 33 bd
       -0.15286347 0.13832304 -0.16325717 -0.04372208
000360 09 c7 9f 3d 50 81 66 be 22 25 e0 3d 72 7d 78 bc
       0.07801635 -0.22510266 0.109445825 -0.015166627
000370 f7 c8 f7 3d ec d9 5a be cc 01 d9 39 fc f9 a4 bc
       0.12098878 -0.21372193 0.00041390804 -0.020138733
000380 63 3b d4 bc 99 3e e7 3d 5a 3d 50 3e a9 51 86 3d
       -0.025907224 0.112912364 0.20335904 0.06558544
000390 04 c0 c1 3d 6e 95 a1 bd 3c f1 ce bd 64 cb 7a bc
       0.09460452 -0.078898296 -0.101046056 -0.015307281
0003a0 be 8a 83 3d 61 ce 12 bd 52 3e 0f 3e 59 23 aa 3c
       0.06422947 -0.03584135 0.13988617 0.020768808
0003b0 fc 5c d9 bd 38 c6 d6 3c 43 d6 56 be 3f b3 90 3e
       -0.106134385 0.026217565 -0.20980172 0.28261754
0003c0 5a 83 cb bc b5 1b d2 bd 0b a7 3c be 9c 9b fb 3b
       -0.024842907 -0.10259191 -0.18423097 0.007678462
0003d0 7b 6b 7c be 01 6c e9 bd 60 dc 85 bc 12 77 55 be
       -0.24650376 -0.11397553 -0.016340435 -0.20846203
0003e0 cc b2 38 3e 40 d8 09 3f 1a 15 27 3e f6 3c 85 be
       0.18036956 0.53845596 0.16316643 -0.26023072
0003f0 a1 49 65 be 26 3e 11 be f3 85 34 3e 56 79 87 bd
       -0.22391368 -0.14183864 0.17629223 -0.0661494

layer2.0.bias f4 [32]
000000 0c 86 3d bd a7 96 15 3d ec f8 0c bd fa 44 c4 bc
       -0.046270415 0.036520626 -0.034417078 -0.023958672
000010 ec d3 a5 3c 44 cb 36 3c 4a 7e 7c 3c 30 94 0b 3d
       0.020242654 0.011156861 0.015410969 0.03407687
000020 3b ea e7 bc 82 c7 5d 3d 9a 06 53 3c 4c 8c de bc
       -0.028309932 0.054145344 0.012879992 -0.027166508
000030 b4 61 b0 bb 48 7f 19 bc c8 6a ac bc ea 43 a1 3a
       -0.005382741 -0.009368725 -0.021047011 0.0012303565
000040 c9 90 06 bd dc 8c 4a 3d 70 fb 9d bc 6e 74 e9 bb
       -0.03285292 0.04945074 -0.019284934 -0.007124475
000050 db 62 0d bc 6f ff 73 bc e7 1b 7e bc cc 1b b4 bc
       -0.008629526 -0.014892443 -0.015509582 -0.02198591
000060 e3 88 37 bd 4d 05 b8 bc e7 9b 5b 3d fd b7 48 3d
       -0.04480828 -0.022463465 0.053615477 0.04900359
000070 79 c6 63 3d c6 31 64 bc ae f3 5a 3d 98 35 19 bd
       0.0556092 -0.013927883 0.053455047 -0.037404627

layer2.2.weight f4 [32]
000000 f4 1c 72 3f f3 a9 86 3f a7 cb 73 3f d7 e1 86 3f
       0.9457543 1.0520614 0.95232624 1.0537671
000010 b5 d9 83 3f ce 88 74 3f 13 99 82 3f 4a d0 86 3f
       1.0300814 0.9552125 1.0202965 1.0532315
000020 e9 77 76 3f a8 8a 87 3f 2e 57 72 3f aa 70 75 3f
       0.9627672 1.058919 0.94664276 0.95875037
000030 fe d7 86 3f 0e 15 87 3f cb 11 87 3f ce 36 87 3f
       1.0534666 1.05533 1.0552305 1.05636
000040 26 8a 71 3f c7 6e 86 3f 07 f2 86 3f 98 de 84 3f
       0.9435142 1.0502557 1.0542611 1.038043
000050 06 75 71 3f b7 4d 71 3f 64 67 7a 3f 53 cd 84 3f
       0.9431919 0.9425921 0.9781401 1.037516
000060 f1 f0 71 3f 97 44 87 3f bc c9 86 3f a8 6f 86 3f
       0.9450827 1.0567807 1.0530314 1.0502825
000070 e1 6c 87 3f 99 42 73 3f ed 12 87 3f 39 74 71 3f
       1.0580102 0.95023495 1.0552651 0.94317967

layer2.2.bias f4 [32]
000000 9e 02 5e bd 83 93 53 3d 5d 0f 48 bd 99 91 5f 3d
       -0.054201715 0.05165435 -0.048842777 0.054582212
000010 3c fc 10 3d 05 45 29 bd 9e 5e 9e 3c 32 35 63 3d
       0.0353968 -0.041325588 0.019332226 0.055470653
000020 9e c7 2e bd e0 ed 6c 3d 17 4d 44 bd 62 19 33 bd
       -0.04267084 0.057844043 -0.04792508 -0.04372538
000030 81 cb 5b 3d 6b 8b 5e 3d 4a 25 62 3d 7c 74 67 3d
       0.053660873 0.054332178 0.055211343 0.056507573
000040 20 f4 66 bd ff 24 55 3d 51 8f 5f 3d 54 cd 27 3d
       -0.05638516 0.052037235 0.054580037 0.0409673
000050 ad ed 65 bd 35 7e 68 bd c0 ef dc bc dd 47 26 3d
       -0.05613487 -0.056760985 -0.02696979 0.040595878
000060 ad 79 65 bd 7c 51 67 3d 26 bb 5b 3d dd f5 5b 3d
       -0.056024242 0.056474194 0.053645276 0.05370127
000070 f4 93 6b 3d 75 a6 61 bd fa 30 6a 3d 0b 3d 67 bd
       0.057514146 -0.055090386 0.057175614 -0.0564547

layer2.2.running_mean f4 [32]
000000 02 4a ea 3e 51 63 fb 3e b8 69 90 3e 2c bc c1 be
       0.45759588 0.4909921 0.28205657 -0.37838876
000010 6b 18 2e 3f 6b 38 75 be fd 10 c4 3e ce 17 e6 3d
       0.6800601 -0.23947303 0.3829421 0.11235009
000020 63 f7 ea 3c 44 d5 aa 3e 71 02 dd be 8e 75 a2 3e
       0.028682416 0.33365834 -0.43165925 0.31730312
000030 c1 70 18 bf d1 1a 3d bf 0b 98 0c bf bf 32 8e bf
       -0.5954705 -0.73869044 -0.549195 -1.1109236
000040 a7 e5 25 3d 18 c2 92 3e 1d 13 31 be 9f 49 13 bf
       0.040502217 0.28663707 -0.17292447 -0.5753421
000050 e3 93 42 3f c4 7e aa bc ea c0 1a 3d 65 3a 35 be
       0.7600691 -0.0208124 0.037781633 -0.17698057
000060 1b 82 79 3d d0 0f 17 bf f8 5f c0 3e 16 cc ee 3e
       0.060915094 -0.590085 0.37573218 0.4664008
000070 76 a2 ba 3e 57 08 29 3f e0 80 f5 3e 27 64 1a 3f
       0.36452073 0.6602835 0.47949886 0.6030907

layer2.2.running_var f4 [32]
000000 e5 18 16 3f 35 82 17 3f 2f cb 0c 3f 51 17 49 3f
       0.58631736 0.59183055 0.54997534 0.78551203
000010 28 4e 5e 3f ec c9 56 3f d9 69 5e 3f 5e 8f 7b 3f
       0.86838007 0.8390186 0.8688026 0.98265636
000020 df 7f 16 3f ff 12 15 3f c8 97 3e 3f 09 6c df 3e
       0.58788866 0.5823211 0.7445035 0.43637112
000030 5e 28 51 3f d3 1c 36 3f 33 6c a9 3f e6 92 7c 3f
       0.8170222 0.7113773 1.3236145 0.9866165
000040 3a 83 19 3f 65 c1 02 3f b1 64 0c 3f 53 41 53 3f
       0.5996586 0.51076347 0.5484114 0.8252155
000050 74 3e 3b 3f 02 de 0b 3f 9f 2c 6a 3f ea 3b e9 3e
       0.7314217 0.5463563 0.91474336 0.45553523
000060 a0 36 03 3f f7 0b 3d 3f 65 75 22 3f 9c 0c 4f 3f
       0.51255226 0.7384638 0.6346038 0.80878615
000070 fe b3 14 3f 45 67 2d 3f 7a d5 ab 3f 5a 75 38 3f
       0.58087146 0.677357 1.3424523 0.72054064
