save/client-7/eval.pth (torch, 21957 bytes, 27 tensors)

layer1_task.0.weight f4 [16, 3]
0	0xbeaae609	-0.33378628
1	0xbeae17af	-0.34002444
2	0x3e7cb325	0.24677713
3	0x3e903994	0.2816893
4	0x3f2f7323	0.6853506
5	0x3ea8b33d	0.32949248
6	0x3eb7fc86	0.35934848
7	0xbf3b5e0d	-0.73190385
8	0x3d301629	0.042989884
9	0x3e2a9465	0.1665817
10	0xbde5ad1a	-0.11214657
11	0x3e879932	0.26484066
12	0x3f053f37	0.52049583
13	0xbf325af4	-0.69670033
14	0xbf24f1ad	-0.6443127
15	0xbe51af48	-0.2047702
16	0x3edb3794	0.4281584
17	0x3ea4b5a4	0.3216983
18	0x3eb18c49	0.34677342
19	0xbe43d1a9	-0.19122948
20	0x3e93128b	0.28725085
21	0x3e3b66fe	0.18301007
22	0x3c868ea3	0.016425436
23	0x3e893460	0.2679777
24	0x3e755d52	0.2396138
25	0xbda9a117	-0.082826786
26	0xbb0d1bba	-0.002153142
27	0xbe1e51e1	-0.15460922
28	0x3eb89722	0.36052805
29	0xbe4c1ec5	-0.19933613
30	0xbea09875	-0.31366315
31	0xbd81d609	-0.06339652
32	0xbeae0292	-0.33986336
33	0xbeb3e554	-0.351359
34	0x3dcff4b6	0.10154097
35	0xbe0ef523	-0.139607
36	0x3e75c14d	0.2399952
37	0xbea13e25	-0.31492725
38	0x3e6428ca	0.22281185
39	0xbe57f18e	-0.2108824
40	0xbd85cfea	-0.06533797
41	0xbd2870d8	-0.04112324
42	0xbeab7350	-0.33486414
43	0xbeac9a4b	-0.33711466
44	0xbbad8e80	-0.0052965283
45	0x3ed4a352	0.41530854
46	0x3e35bb01	0.17747118
47	0x3e332914	0.17496139

layer1_task.0.bias f4 [16]
0	0x3bf50a90	0.007478066
1	0xbbdb13b8	-0.0066857003
2	0xbd5f9343	-0.0545838
3	0xbd5381fc	-0.051637635
4	0xbd888cca	-0.066674784
5	0x3d22f526	0.039784573
6	0xbcde9951	-0.027172716
7	0x3cc4eda0	0.02403909
8	0x3b423b48	0.0029637385
9	0x3d63f0a7	0.055649426
10	0x3d39ed75	0.045392472
11	0xbca78cb9	-0.020452844
12	0x3ca00115	0.019531766
13	0xbd1e70f0	-0.038681924
14	0xbcc4f0b3	-0.024040556
15	0xbd346516	-0.044041716

layer1_task.2.weight f4 [16]
0	0x3f80f176	1.0073688
1	0x3f82d772	1.0221999
2	0x3f7957cd	0.973996
3	0x3f78236e	0.9692906
4	0x3f86952c	1.0514274
5	0x3f7d4110	0.989274
6	0x3f85910e	1.0434892
7	0x3f77670c	0.9664161
8	0x3f7e0dc0	0.9923973
9	0x3f725dc5	0.9467433
10	0x3f7390ec	0.9514301
11	0x3f82eb70	1.02281
12	0x3f81c513	1.0138267
13	0x3f863727	1.0485581
14	0x3f82a532	1.0206664
15	0x3f80a42b	1.00501

layer1_task.2.bias f4 [16]
0	0x3c7f5bd9	0.015585863
1	0x3cc99ed2	0.024611864
2	0xbd137262	-0.035997756
3	0xbd485510	-0.048909247
4	0x3cfaef01	0.030631544
5	0xbb75d33d	-0.003750994
6	0x3d3da4ba	0.046299674
7	0xbce5a8e2	-0.028034631
8	0xbbffd3ae	-0.0078072166
9	0xbd5d1188	-0.053971797
10	0xbd47f60b	-0.04881863
11	0x3ca6a4b9	0.020342218
12	0x3cac6573	0.021044469
13	0x3d3204ad	0.04346149
14	0x3b92658b	0.0044676713
15	0xba499331	-0.0007689475

layer1_task.2.running_mean f4 [16]
0	0xc71d5eef	-40286.934
1	0x46fda9bb	32468.865
2	0x4726c081	42688.504
3	0x469fc3c7	20449.889
4	0x476b5cf6	60252.96
5	0xc6b3b741	-23003.627
6	0x471e0e51	40462.316
7	0x46a29063	20808.193
8	0x46d9d64c	27883.148
9	0xc68e571e	-18219.559
10	0xc70ca795	-36007.582
11	0xc720b672	-41142.445
12	0x46dd58f5	28332.479
13	0xc6be822d	-24385.088
14	0xc715d37c	-38355.484
15	0x4742152c	49685.17

layer1_task.2.running_var f4 [16]
0	0x4d9ed4c1	3.330929e+08
1	0x4d8f2f50	3.0028032e+08
2	0x4dcd750b	4.3087498e+08
3	0x4ca67326	8.726763e+07
4	0x4e586ff7	9.078041e+08
5	0x4d0fb9ad	1.507069e+08
6	0x4dd01412	4.3637203e+08
7	0x4d004416	1.344966e+08
8	0x4d3f56ae	2.0063306e+08
9	0x4ca378b8	8.570618e+07
10	0x4db0e7da	3.7099808e+08
11	0x4dc7907a	4.185168e+08
12	0x4d41f7bd	2.033899e+08
13	0x4d1a1089	1.6154843e+08
14	0x4dbf1724	4.007456e+08
15	0x4e08900b	5.7278534e+08

layer1_1vm.0.weight f4 [32, 40]
0	0xb9a072e4	-0.00030603178
1	0xbd804133	-0.06262436
2	0x3d35213e	0.044221155
3	0xbde19c02	-0.11016084
4	0xbe093579	-0.13399304
5	0xbd15948a	-0.03651861
6	0x3d9d2387	0.07672792
7	0x3e91e218	0.28492808
8	0xbd4f25ae	-0.050573044
9	0xbd3dc713	-0.04633243
10	0xbd4a862e	-0.04944437
11	0xbd7f4f54	-0.062331513
12	0xbdf534a5	-0.11972932
13	0x3de28260	0.11060023
14	0xbc8cb84e	-0.017177727
15	0xbd10467e	-0.035223477
16	0x3dc0a601	0.09406663
17	0xbd7d8ba3	-0.061900746
18	0xbea252e5	-0.31703869
19	0x3d88a322	0.0667174
20	0xbe4ad5d9	-0.19808139
21	0x3d313f5d	0.04327332
22	0xbd8c5229	-0.06851608
23	0xbd3c17bc	-0.045921072
24	0xbd188db0	-0.0372445
25	0xbe356095	-0.17712624
26	0xbe2d7e63	-0.16942744
27	0x3d8fce62	0.07021786
28	0xbdc12492	-0.09430803
29	0x3db56c8e	0.08858596
30	0x3d45a5ab	0.048253696
31	0x3d46c8d9	0.048531387
32	0x3e1e9828	0.1548773
33	0x3eec1ef2	0.4611736
34	0x3cd0d5f4	0.025492646
35	0x3e075f3a	0.1321992
36	0x3e40720e	0.18793508
37	0x3ed78937	0.42096874
38	0x3dc41be1	0.0957563
39	0x3ca0ceba	0.019629825
40	0xbe3b6982	-0.18301967
41	0x3e76f64a	0.2411739
42	0xbe81697c	-0.2527579
43	0xbd2cdafa	-0.04220102
44	0x3e66ef6c	0.2255227
45	0x3d2b4950	0.041817963
46	0xbd9eeb53	-0.07759728
47	0xbdeaf4f4	-0.11472502
48	0xbf110db9	-0.56661564
49	0xbcf815de	-0.030283865
50	0x3d6c437a	0.05768154
51	0x3eb29693	0.34880504
52	0xbe2f5cea	-0.17125288
53	0x3d6b8eb7	0.05750915
54	0xbdfddf4d	-0.12396107
55	0x3da807b8	0.08204597
56	0xbda52d28	-0.080652535
57	0xbdaf63d8	-0.085639656
58	0x3e7d7898	0.24753034
59	0xbced8350	-0.028993279
60	0xbd8b1924	-0.067919046
61	0xbeaf47f7	-0.34234592
62	0x3d9adaea	0.07561286
63	0xbe6ce0d9	-0.23132648
64	0x3e30ebce	0.17277452
65	0x3e3a7a66	0.18210754
66	0x3e6fe98a	0.23428932
67	0xbe574a9c	-0.21024555
68	0xbbb0aa34	-0.0053913835
69	0xbdd10b8c	-0.102072805
70	0x3c757112	0.014980571
71	0x3d038943	0.032113325
72	0xbdbfb15d	-0.09360001
73	0xbdb3a4a1	-0.08771635
74	0xbdd2897c	-0.10280129
75	0x3e895870	0.26825285
76	0xbe74f466	-0.23921356
77	0xbd5b033e	-0.05346989
78	0x3e325f08	0.17419064
79	0x3d0bd156	0.034135185
80	0xbd4bad89	-0.049726043
81	0xbd2be008	-0.0419617
82	0x3dd905eb	0.10596832
83	0x3e2b562f	0.16732095
84	0xbd891800	-0.06694031
85	0xbe33faeb	-0.17576186
86	0xbd1d6441	-0.038425688
87	0x3cac0d88	0.021002546
88	0x3db00767	0.08595162
89	0xbc1a24ee	-0.009408219
90	0x3d9ad12d	0.07559428
91	0x3e509197	0.20368038
92	0x3d05f3aa	0.03270308
93	0xbda88bf4	-0.08229819
94	0xbe1a24e2	-0.15053132
95	0x3e1efc65	0.15525968
96	0xbe0a0d40	-0.13481617
97	0x3e173d5d	0.14769502
98	0xbd3c12b4	-0.045916274
99	0xbe04e413	-0.12977628
100	0x3d9d0ece	0.076688394
101	0xbcd02be8	-0.025411561
102	0x3b0f7dff	0.0021895168
103	0xbd427b6d	-0.04748099
104	0x3da65310	0.08121312
105	0x3f17793e	0.59169376
106	0xbc6b5c45	-0.0143652605
107	0x3de53c35	0.11193124
108	0xbecc3982	-0.39887625
109	0xbe8c2982	-0.27375418
110	0xbf091d76	-0.5356058
111	0x3e8d1d15	0.2756125
112	0xbdf0632b	-0.11737665
113	0x3e56cc39	0.20976342
114	0x3c23b707	0.009992368
115	0xbe11796a	-0.14206472
116	0xbd380336	-0.044924937
117	0x3e584503	0.21120076
118	0x3e032f04	0.12810904
119	0x3cb75839	0.022380935
120	0xbcfbe39f	-0.030748187
121	0x3beccbbb	0.007226435
122	0x3e2730a6	0.16327152
123	0x3c8af51b	0.016962579
124	0xbe13f07f	-0.1444721
125	0xbc9fdc7c	-0.019514315
126	0xbdc4b217	-0.096042804
127	0x3ef34770	0.4751544
128	0x3e07944d	0.13240166
129	0x3dc11683	0.09428122
130	0xbdc0651a	-0.093942836
131	0x3e186bb9	0.14884843
132	0x3d5a2baa	0.053264298
133	0xbd9d584e	-0.076828584
134	0x3e382e42	0.17986396
135	0x3e474863	0.19461207
136	0x3ebd0b26	0.36922568
137	0xbdf97ad2	-0.12181629
138	0x3e59fb3d	0.21287246
139	0x3dbb1de2	0.09136559
140	0xbe157e6b	-0.14599006
141	0xbe892cf5	-0.26792112
142	0xbe6653e5	-0.2249294
143	0xbe0f1aaa	-0.13975015
144	0x3d2fa522	0.042882092
145	0xbda31b15	-0.0796415
146	0x3e00750d	0.12544651
147	0xbed70c30	-0.42001486
148	0xbe255a14	-0.16147643
149	0x3dab9a72	0.083790675
150	0x3dcc854a	0.0998636
151	0xbcb1516b	-0.021645268
152	0x3e666e2a	0.22502962
153	0x3e0ef001	0.13958742
154	0xb932e653	-0.00017061205
155	0x3daa475d	0.08314393
156	0x3e30beaf	0.1726024
157	0x3c68ebe5	0.014216398
158	0x3de9900f	0.1140443
159	0xbe3863f5	-0.1800688
160	0x3d5771e5	0.052598853
161	0x3dd6e985	0.10493759
162	0xbe6d6ea5	-0.23186739
163	0xbde4358d	-0.111430265
164	0xbdd15bdc	-0.10222599
165	0x3e459b51	0.1929753
166	0xbead4cb1	-0.33847573
167	0x3dcbbe62	0.09948422
168	0xbe41a699	-0.18911208
169	0x3dc3e8b6	0.095658705
170	0x3ea7dca9	0.32785538
171	0x3dfb5284	0.12271598
172	0xbeac43f2	-0.33645588
173	0xbcf40ed2	-0.029792223
174	0xbc5ff626	-0.013669526
175	0xbede341a	-0.43399125
176	0x3e5901c4	0.2119208
177	0x3e7c1109	0.24615873
178	0xbde9acd2	-0.11409916
179	0x3e5ccf7e	0.21563527
180	0x3ea62c8a	0.32455856
181	0x3e086143	0.13318352
182	0xbdbb2b09	-0.09139068
183	0x3e0ecd52	0.13945511
184	0x3d5ecacb	0.054392617
185	0xbe8c3a44	-0.27388203
186	0xbecae1a9	-0.3962529
187	0xbdd6b935	-0.10484544
188	0xbe8eb7d5	-0.27874628
189	0xbe9f5fc8	-0.31127763
190	0xbe15d6ae	-0.14632675
191	0x3ea40afe	0.32039636
192	0x3ce9ba7d	0.028531307
193	0x3cd6e1a7	0.026230646
194	0x3e1fc76b	0.15603416
195	0x3cbdd266	0.023171615
196	0xbcbaa233	-0.02278242
197	0xbdc635e2	-0.09678246
198	0xbdb9fe0e	-0.0908166
199	0x3d9acda6	0.075587556
200	0x3e2f3dba	0.1711339
201	0x3de241e8	0.11047727
202	0xbe4304bb	-0.19044773
203	0x3e0c25df	0.13686322
204	0xbe8a06d8	-0.26958346
205	0xbd62de96	-0.055388056
206	0xbdfcd1eb	-0.12344726
207	0xbe8a2ec8	-0.26988816
208	0x3da176fc	0.078840226
209	0xbe2c2f73	-0.16814975
210	0x3e3ff150	0.18744397
211	0xbeb1dbfb	-0.34738144
212	0x3e8c2bc9	0.27377155
213	0xbe13cc2e	-0.14433357
214	0x3e344bdb	0.17607062
215	0x3d148896	0.03626307
216	0xbe4b52b8	-0.19855773
217	0x3db5c0b3	0.08874645
218	0xbe6cf79b	-0.23141329
219	0x3d866123	0.06561496
220	0x3b4101b6	0.0029450483
221	0xbe3f9d99	-0.18712462
222	0xbd9c6785	-0.07636932
223	0xbd64cb2d	-0.055857826
224	0x3e5059ad	0.20346709
225	0xbecb1ada	-0.39668924
226	0xbc9c50eb	-0.019081553
227	0xbda43f29	-0.08019859
228	0xbe611ad1	-0.21982886
229	0x3e319842	0.17343238
230	0x3dab4f09	0.08364684
231	0x3d2e95f9	0.042623494
232	0x3db7d9ae	0.08977066
233	0xbe17e89c	-0.14834827
234	0xbee68492	-0.45023018
235	0xbd75f6da	-0.06004987
236	0x3d2bad9c	0.041913614
237	0x3e707f57	0.23486076
238	0x3c5c773e	0.013456164
239	0x3c692e91	0.014232294
240	0xbd7266a8	-0.059179932
241	0x3da39c04	0.07988742
242	0x3e5f6f2d	0.21819754
243	0xbd93a806	-0.07209782
244	0x3e242598	0.16029966
245	0x3c0a0a38	0.008425288
246	0x3e09ef25	0.13470133
247	0xbe9bca17	-0.3042762
248	0x3ce8989c	0.028393082
249	0xbdaeaf4c	-0.08529529
250	0xbe12b255	-0.14325841
251	0x3e55e6f7	0.20888887
252	0xbd63f3a3	-0.055652272
253	0x3db876fb	0.09007069
254	0xbe198447	-0.14991866
255	0x3eacbefb	0.33739457

layer1_1vm.0.bias f4 [32]
0	0xbaf55baa	-0.0018719335
1	0xbc1c2bee	-0.009531958
2	0xbd320f75	-0.043471772
3	0x3c7d6bcc	0.015467595
4	0xbc3a0a02	-0.011354925
5	0x3b9ddcb8	0.0048175715
6	0xbbd41b15	-0.006472955
7	0x3ce04853	0.027378237
8	0x3cb7a061	0.022415342
9	0xbd2f6fed	-0.04283135
10	0xbc451f98	-0.012031458
11	0xbb4f8a86	-0.003166826
12	0x3d073130	0.033005893
13	0x3c92547a	0.017862547
14	0xbc618ec1	-0.013766945
15	0xbc71c6e1	-0.014756889
16	0xb9f75544	-0.0004717504
17	0x3d22d0f4	0.039750054
18	0x3c290fe7	0.010318733
19	0xbd0a4e9e	-0.03376638
20	0xbc31cdde	-0.010852305
21	0xbc2959dd	-0.0103363665
22	0x3b5ebece	0.003398824
23	0x3c6da4b5	0.014504601
24	0xbcb55066	-0.022133064
25	0xbc1ed95b	-0.009695376
26	0xbc89f16b	-0.01683875
27	0xbc973714	-0.01845888
28	0xbbf57bd1	-0.0074915667
29	0x3aa52427	0.0012599275
30	0xbcb8beb5	-0.022551874
31	0xbba1c706	-0.0049370555

layer1_1vm.2.weight f4 [32]
0	0x3f7ce079	0.9878002
1	0x3f7675fd	0.96273786
2	0x3f82ed7a	1.0228722
3	0x3f7936fb	0.9734952
4	0x3f81dd5a	1.0145676
5	0x3f827774	1.0192704
6	0x3f8589d0	1.0432682
7	0x3f80d97c	1.0066371
8	0x3f7cfab4	0.9882004
9	0x3f8937d0	1.0720158
10	0x3f7e1ae7	0.992598
11	0x3f80110b	1.0005201
12	0x3f7bd328	0.98369074
13	0x3f816dff	1.0111693
14	0x3f804084	1.0019689
15	0x3f809d2e	1.0047967
16	0x3f8268f7	1.0188283
17	0x3f79d882	0.9759599
18	0x3f7e9676	0.99448335
19	0x3f81ca11	1.0139791
20	0x3f7ca5ad	0.986903
21	0x3f7b9964	0.9828093
22	0x3f7f25e7	0.9966721
23	0x3f7cf430	0.988101
24	0x3f80ba07	1.0056771
25	0x3f7df4af	0.9920148
26	0x3f814f47	1.0102319
27	0x3f8075b7	1.0035924
28	0x3f811324	1.0083966
29	0x3f7a91bf	0.9787864
30	0x3f82f639	1.0231391
31	0x3f76047d	0.961006

layer1_1vm.2.bias f4 [32]
0	0xbc4c3c8b	-0.012465606
1	0xbd33f725	-0.043936867
2	0x3cc36251	0.023850592
3	0xbcba4cdf	-0.022741733
4	0x3c74ec72	0.014948951
5	0x3cb2fc04	0.021848686
6	0x3d35766f	0.0443024
7	0x3a4067c7	0.0007339683
8	0xbc3bcf11	-0.011462943
9	0x3d755976	0.05989977
10	0xbc5b3ab8	-0.013380699
11	0xbb8e5478	-0.0043435656
12	0xbb905a97	-0.0044053304
13	0x3ce0f514	0.027460612
14	0x3a215103	0.0006153734
15	0x3bd6f77a	0.006560263
16	0x3bbccb18	0.0057615153
17	0xbcaa209f	-0.020767508
18	0xba1bc42c	-0.00059420126
19	0x3c6abfa2	0.014327915
20	0xbc6f168a	-0.014592776
21	0xbcc22e34	-0.023703672
22	0xbaa0e731	-0.0012275932
23	0xbcf010fa	-0.02930497
24	0x3a32afd3	0.0006816361
25	0xbc5bc7f8	-0.0134143755
26	0x3c6afe82	0.014342906
27	0x3af714f1	0.0018850846
28	0x3c03097a	0.007997865
29	0xbcb37cda	-0.02191012
30	0x3ca6dede	0.020369943
31	0xbd0f3727	-0.034964707

layer1_1vm.2.running_mean f4 [32]
0	0xc4bba57c	-1501.1714
1	0xc4a43a50	-1313.8223
2	0xc5a36f51	-5229.9146
3	0x45b182a6	5680.331
4	0xc5972e57	-4837.7925
5	0xc53a8498	-2984.287
6	0xc524e665	-2638.3997
7	0x45bf23f0	6116.492
8	0x4628564c	10773.574
9	0xc54083f3	-3080.2468
10	0xc5672acc	-3698.6748
11	0xc5683fd1	-3715.9885
12	0xc48233af	-1041.6151
13	0x4508ba9e	2187.6636
14	0xc5423b4f	-3107.7068
15	0xc5153515	-2387.3176
16	0x44af42be	1402.0857
17	0x4324c478	164.76746
18	0xc3e23719	-452.43045
19	0xc5f4d304	-7834.377
20	0xc5cdde75	-6587.807
21	0x44fbf9aa	2015.802
22	0xc5ce8e57	-6609.7925
23	0x44c04f4b	1538.4779
24	0xc4e02748	-1793.2275
25	0x45829c8d	4179.569
26	0xc528e44d	-2702.2688
27	0xc52aec64	-2734.7744
28	0xc52de235	-2782.138
29	0xc4c2e8a0	-1559.2695
30	0xc43ebdbd	-762.96466
31	0xc4b59dd6	-1452.9324

layer1_1vm.2.running_var f4 [32]
0	0x491cee64	642790.25
1	0x491c3579	639831.56
2	0x4adf645b	7.3201095e+06
3	0x4ae5b345	7.5268185e+06
4	0x4ab433d2	5.904873e+06
5	0x4a013770	2.117084e+06
6	0x49d57e8d	1.7489456e+06
7	0x4b08eeba	8.97401e+06
8	0x4bd94947	2.8480142e+07
9	0x4a329448	2.925842e+06
10	0x4a3b0053	3.0638288e+06
11	0x4a5817b1	3.5404602e+06
12	0x48be0bb4	389213.62
13	0x49988345	1.2493846e+06
14	0x4a1a9da8	2.533226e+06
15	0x49b22bbf	1.4595759e+06
16	0x49106c25	591554.3
17	0x4970c042	986116.1
18	0x48bdc194	388620.62
19	0x4b77b6fb	1.6234235e+07
20	0x4b3003fa	1.1535354e+07
21	0x4996a124	1.2339565e+06
22	0x4b2ba83f	1.1249727e+07
23	0x4918740b	624448.7
24	0x4978748e	1.0176729e+06
25	0x4a59d968	3.569242e+06
26	0x49b34465	1.4685566e+06
27	0x4a0e93dc	2.335991e+06
28	0x4a04064a	2.1630905e+06
29	0x4918ba06	625568.4
30	0x48509fe2	213631.53
31	0x49089c83	559560.2

layer1_2vm.0.weight f4 [16, 32]
0	0xbdde701b	-0.10861226
1	0xbe9c3bbe	-0.3051433
2	0x3e2e1ea2	0.17003873
3	0x3a1faea7	0.0006091394
4	0x3d989cae	0.07451759
5	0xbc93fcd1	-0.018064888
6	0xbe967732	-0.29387814
7	0xbe100900	-0.14065933
8	0xbe785138	-0.24249732
9	0x3ce3a7a2	0.027789894
10	0x3d46c609	0.048528705
11	0xbe525ef8	-0.2054404
12	0xbda1b67e	-0.07896136
13	0xbd315f59	-0.04330382
14	0xbdf9a892	-0.12190355
15	0x3dd5cc1d	0.10439322
16	0xbd6746c7	-0.056463983
17	0x3e2ad779	0.16683759
18	0x3eda6452	0.42654663
19	0xbd85a511	-0.065256245
20	0x3e91a106	0.28443164
21	0xbd37cef6	-0.044875108
22	0xbc39f03b	-0.011348779
23	0xbd9ab58d	-0.07554159
24	0xba74070b	-0.0009308911
25	0x3e820798	0.2539642
26	0x3d05ad3e	0.03263592
27	0xbd00387d	-0.03130387
28	0x3e4d0097	0.20019756
29	0xbee96aa1	-0.45589164
30	0x3d9f9db9	0.07793755
31	0xbdae431e	-0.08508895
32	0xbc3ae581	-0.011407257
33	0x3e5e87ee	0.2173154
34	0x3e1eca61	0.15506889
35	0x3df9ee4a	0.12203653
36	0xbc1ae35c	-0.009453621
37	0xbe8bf3a5	-0.27334324
38	0xbeca7594	-0.3954283
39	0xbe577595	-0.21040948
40	0xbe6f9aa7	-0.23398839
41	0xbe6e808c	-0.23291224
42	0x3d8a23a8	0.06745082
43	0xbccd4da5	-0.025061438
44	0x3d92d9e4	0.071704656
45	0x3cd75711	0.026286634
46	0xbeb2d2cc	-0.3492645
47	0xbea0cfec	-0.31408632
48	0x3b9db47a	0.0048127742
49	0x3e9da2ae	0.30788177
50	0xbddc8ac9	-0.10768659
51	0xbece5454	-0.40298712
52	0xbe1c9b93	-0.15293722
53	0xbdb2bbca	-0.08727224
54	0xbe539b17	-0.20664631
55	0xbb941f5e	-0.004520341
56	0x3e256827	0.16153012
57	0xbe444e22	-0.1917043
58	0xbeae95e7	-0.3409874
59	0xbe154e4c	-0.14580649
60	0x3e3280ef	0.17431997
61	0x3dd7b200	0.10531998
62	0x3c9ca42e	0.019121256
63	0x3e8b7ed3	0.27245197
64	0x3e855822	0.26043802
65	0x3d5a2f92	0.053268023
66	0xbee58dc5	-0.44834724
67	0xbe46af32	-0.19402769
68	0x3b86e3f0	0.0041165277
69	0xbf0f125e	-0.558874
70	0xbdf76ad8	-0.12080926
71	0xbe90a809	-0.282532
72	0x3d555f04	0.052092567
73	0xbe6ecbf9	-0.23319997
74	0x3cef1c1c	0.029188208
75	0x3d1357d6	0.03597244
76	0xbd975beb	-0.07390579
77	0x3d8a00d4	0.06738439
78	0x3e691ae3	0.22764163
79	0x3eb08569	0.34476784
80	0x3e26e0a3	0.1629663
81	0x3e3fba0b	0.18723314
82	0x3e0f0554	0.13966876
83	0x3e790c4a	0.24321094
84	0xbe1e0ec0	-0.15435314
85	0x3ce8a742	0.028400067
86	0x3eda24de	0.42606252
87	0xbd1acbee	-0.03779214
88	0xbd094a3c	-0.03351806
89	0xbeb61649	-0.35563877
90	0x3dea19d5	0.11430708
91	0x3ed8cba4	0.42342865
92	0x3e16824b	0.1469814
93	0xbd87e05d	-0.06634591
94	0x3ded80dd	0.11596844
95	0xbdad4e76	-0.08462231
96	0x3e3176ef	0.17330526
97	0xbe28fd2f	-0.16502832
98	0xbe7835a7	-0.24239217
99	0xbe210b37	-0.15726934
100	0x3ca38bfe	0.019964214
101	0x3b695ad4	0.0035607116
102	0xbd0688e1	-0.03284538
103	0xbe90ea08	-0.28303552
104	0x3e8732c4	0.2640592
105	0x3dbfa739	0.09358067
106	0xbe9083dc	-0.282256
107	0x3e768138	0.2407273
108	0x3dd5688a	0.1042033
109	0x3e0e80d7	0.13916336
110	0x3e85d942	0.26142317
111	0xbc06d2ed	-0.008229
112	0xbc3cf054	-0.011531908
113	0xbe8bfbe6	-0.2734062
114	0xbdcd2344	-0.10016492
115	0xbe5c4cdd	-0.21513696
116	0xbdc154f0	-0.09440029
117	0xbde557dc	-0.111983985
118	0x3e4fca14	0.2029193
119	0x3d924109	0.07141311
120	0x3e97f11c	0.2967614
121	0xbd148817	-0.036262598
122	0xbe36e427	-0.1786047
123	0xbe3e77fb	-0.18600456
124	0x3c95400e	0.01821902
125	0xbe386386	-0.18006715
126	0xbc89eac0	-0.01683557
127	0xbdb53b5a	-0.08849211
128	0x3bd0e6dd	0.0063751773
129	0xbd51f985	-0.05126335
130	0xbbc6f3de	-0.0060715517
131	0x3d6a0810	0.057136595
132	0x3e5201cc	0.20508498
133	0x3e039b46	0.12852201
134	0x3de84228	0.11340743
135	0xbe9946c5	-0.29936805
136	0xbdcf8a2b	-0.10133775
137	0xbe89b35e	-0.2689466
138	0x3d99a1c9	0.07501561
139	0x3d9b9de8	0.075984776
140	0x3d349f05	0.044096965
141	0xbead2a25	-0.33821216
142	0x3ed7ac6b	0.42123732
143	0xbe8e815a	-0.27833062
144	0x3e25fdf7	0.16210161
145	0x3ebac40f	0.36477706
146	0xbd965eb6	-0.073422834
147	0x3d3cea32	0.046121784
148	0xbe0b86dc	-0.13625664
149	0xbe54dabe	-0.20786569
150	0x3e47120e	0.19440481
151	0x3ea71d4d	0.32639542
152	0x3ddc2c55	0.10750643
153	0xbed65d8f	-0.41868255
154	0x3e9ba96b	0.30402693
155	0xbddce8e6	-0.10786609
156	0xbf0e4b13	-0.55583304
157	0x3dea1022	0.11428858
158	0xbee61fcc	-0.44946134
159	0xbe652e01	-0.2238083
160	0x3d0d3d19	0.034482095
161	0x3e7166f7	0.23574434
162	0xbea73f87	-0.32665655
163	0x3d922598	0.07136077
164	0xbe508d11	-0.20366313
165	0x3e1c6f77	0.15276895
166	0xbdae5f8a	-0.085143164
167	0xbe3a6209	-0.1820146
168	0x3e0a03de	0.13478038
169	0xbe998817	-0.2998664
170	0xbe77a5fe	-0.24184415
171	0xbdfd0e6d	-0.12356267
172	0x3e84fe13	0.25975093
173	0x3dd88f3d	0.105741955
174	0xbdb7c1aa	-0.08972485
175	0x3d33e100	0.04391575
176	0xbe913de4	-0.2836753
177	0x3de6e71d	0.1127455
178	0xbe697901	-0.22800066
179	0x3e402c5c	0.18766922
180	0xbd75f26c	-0.060045645
181	0x3de443c4	0.11145738
182	0xbdc4c7f8	-0.096084535
183	0xbe4b91d4	-0.19879848
184	0x3d6f17c6	0.05837228
185	0x3d8d2a34	0.06892815
186	0xbe04516e	-0.12921688
187	0x3e25f736	0.16207585
188	0xbe828691	-0.2549329
189	0x3e0e6ca7	0.13908635
190	0xbe49df55	-0.197141
191	0xbb18c117	-0.002330845
192	0xbe07c0bf	-0.1325712
193	0xbed81895	-0.42206255
194	0xbe663392	-0.2248061
195	0x3c7a026b	0.015259366
196	0xbecc83d0	-0.39944315
197	0xbd35edbd	-0.044416178
198	0x3d368a3c	0.044565424
199	0xbcf26531	-0.029589267
200	0xbb3c0f4c	-0.002869564
201	0x3ea5b939	0.32367876
202	0xbe30126e	-0.1719453
203	0x3e69cbd5	0.22831662
204	0x3e001cd5	0.12510999
205	0xbd963810	-0.07334912
206	0x3e4a4ee0	0.19756651
207	0xbdf29b61	-0.118460424
208	0x3cd799fc	0.026318543
209	0xbd73a16e	-0.059480123
210	0x3e8bb275	0.2728459
211	0x3d8232f7	0.06357377
212	0xbe4f36e4	-0.20235783
213	0x3e90252d	0.28153363
214	0xbe2e73b8	-0.1703633
215	0x3d8c3d4e	0.068476304
216	0x3d10725b	0.035265308
217	0xbe16253d	-0.14662643
218	0x3d827902	0.06370737
219	0xbe39fe95	-0.18163522
220	0x3e619ec6	0.22033224
221	0xbdc24e21	-0.09487558
222	0x3dc7a42c	0.0974811
223	0x3de8c220	0.113651514
224	0xbe49b58c	-0.19698161
225	0x3e572d40	0.21013355
226	0xbd9861e1	-0.07440544
227	0xbcac1cab	-0.021009764
228	0xbe9830d7	-0.29724762
229	0x3d5740d5	0.052552063
230	0xbed15e51	-0.4089227
231	0x3d9177f3	0.071029566
232	0x3e30c2a8	0.17261755
233	0xbdd16eea	-0.10226233
234	0xbe16d0bf	-0.14728068
235	0x3e9dec05	0.3084413
236	0x3eb21f18	0.34789348
237	0x3e4a4866	0.1975418
238	0xbc5e0672	-0.013551341
239	0xbe8cb020	-0.27478123
240	0x3e021d88	0.12706578
241	0xbeabb2c2	-0.3353482
242	0xbe8b508a	-0.27209884
243	0xbde4c19f	-0.11169743
244	0xbde13cba	-0.10997911
245	0xbc02152e	-0.00793962
246	0xbd9f969f	-0.077924006
247	0x3e199aeb	0.15000503
248	0x3dcdd839	0.10051007
249	0xbdc2b347	-0.09506851
250	0x3e07e37b	0.1327037
251	0x3e479916	0.19491991
252	0x3d68e1bf	0.056855913
253	0xbefb0901	-0.49030307
254	0x3cb1ff4a	0.021728177
255	0x3cccd1dc	0.025002412

layer1_2vm.0.bias f4 [16]
0	0xbbe636e7	-0.007025588
1	0xbc74387f	-0.014906048
2	0xba9e080a	-0.0012056839
3	0x3ca15248	0.019692555
4	0x3caef6d4	0.021357931
5	0xbd00d512	-0.0314532
6	0xbc5f0e79	-0.01361429
7	0xbabde0e6	-0.0014486581
8	0x3bd83089	0.0065975827
9	0x3cddc273	0.02707026
10	0xbcb38310	-0.021913081
11	0x3d0c38de	0.03423392
12	0x3cf2c1d7	0.029633446
13	0xbc8ff03f	-0.017570613
14	0x3c15343f	0.009106695
15	0x3c4d50de	0.012531487

layer1_2vm.2.weight f4 [16]
0	0x3f821d11	1.016512
1	0x3f803406	1.0015876
2	0x3f7f4c74	0.99726033
3	0x3f7aab00	0.97917175
4	0x3f785de0	0.9701824
5	0x3f81fbcf	1.0154971
6	0x3f7da2d8	0.99076605
7	0x3f81b55e	1.0133474
8	0x3f7c06bd	0.9844778
9	0x3f851386	1.0396583
10	0x3f81af4c	1.0131621
11	0x3f8341ed	1.0254494
12	0x3f73082c	0.94934344
13	0x3f7d9074	0.9904854
14	0x3f80a5dc	1.0050616
15	0x3f7b4d11	0.9816447

layer1_2vm.2.bias f4 [16]
0	0x3cd4e2d7	0.025987072
1	0x3d1cd575	0.038289506
2	0x3bb40440	0.0054936707
3	0xbc782f60	-0.015148014
4	0xbd00e96c	-0.03147261
5	0x3d05b838	0.032646388
6	0x3c045f0b	0.008079301
7	0x3c62e0a0	0.0138475
8	0xbd43cc31	-0.047802154
9	0x3d36b5fd	0.04460715
10	0x3bf813b3	0.0075707077
11	0x3cf8050b	0.030275842
12	0xbd45540f	-0.048175868
13	0xbd112542	-0.035435922
14	0x39fc316f	0.00048102016
15	0xbd51de32	-0.051237293

layer1_2vm.2.running_mean f4 [16]
0	0xbe45524b	-0.19269674
1	0xbf4fc3c8	-0.81158113
2	0x3e518c4a	0.20463672
3	0xbe852f24	-0.26012528
4	0xbea68fe2	-0.3253165
5	0xbef7d49d	-0.484044
6	0xbdad7c4f	-0.084709756
7	0xbead3f4d	-0.33837357
8	0x3d0762d2	0.033053227
9	0xbdc9a099	-0.09845085
10	0xbea89d7d	-0.32932654
11	0x3ec38429	0.38186768
12	0xbe9590ff	-0.29212186
13	0xbbc571aa	-0.0060255127
14	0x3e951a68	0.2912171
15	0xbe158d43	-0.14604668

layer1_2vm.2.running_var f4 [16]
0	0x3efb6414	0.4909979
1	0x3f7dfd00	0.9921417
2	0x3f899378	1.0748129
3	0x3f130326	0.5742668
4	0x3f8b8691	1.0900441
5	0x3f19cf3e	0.6008185
6	0x3f19ebbd	0.60125333
7	0x3f5bdcf5	0.8588403
8	0x3f50283c	0.8131139
9	0x3f19acb6	0.6002916
10	0x3f85d877	1.0456685
11	0x3f405aa5	0.7513831
12	0x3f6b46c6	0.91904867
13	0x3f835b65	1.0262266
14	0x3f5de321	0.86674696
15	0x3ed67774	0.4188801

layer2.0.weight f4 [16, 32]
0	0xbe031e7b	-0.12804596
1	0xbdc68bbf	-0.09694623
2	0x3dba5a89	0.090992995
3	0x3e8e7f18	0.2783134
4	0xbd363884	-0.04448749
5	0xbd6d7619	-0.057973955
6	0x3e56c37c	0.20973009
7	0x3e7b3a9b	0.24534075
8	0x3e9cb35f	0.306056
9	0xbe1bfbc9	-0.15232767
10	0xbedccfb3	-0.43127212
11	0x3e306993	0.17227773
12	0x3e80f421	0.25186256
13	0x3e7cdf39	0.24694528
14	0xbccb88e9	-0.024845557
15	0xbe0447dc	-0.12918037
16	0xbe39160b	-0.18074815
17	0xbeaa09b2	-0.33210522
18	0xbe171a5d	-0.1475615
19	0x3db6ab5a	0.089194015
20	0x3e4ad68a	0.19808403
21	0xbd88772c	-0.06663355
22	0x3e67148f	0.22566436
23	0x3dc912f2	0.09818067
24	0x3e346798	0.17617643
25	0xbe48768c	-0.19576472
26	0x3c117474	0.008877862
27	0x3dfc23be	0.12311505
28	0x3e05c117	0.13061939
29	0xbe649bf9	-0.22325124
30	0x3ba4bec7	0.0050276252
31	0x3e2ec22d	0.1706626
32	0x3e4717e9	0.19442715
33	0xbe509fb8	-0.20373428
34	0x3e098bd9	0.13432254
35	0xbe416787	-0.18887149
36	0xbd04c611	-0.032415453
37	0x3e6a0b4e	0.22855875
38	0x3c0f11d3	0.008732277
39	0x3e5d715b	0.21625273
40	0x3e0ae663	0.13564448
41	0x3e1a4d51	0.15068556
42	0xbe0cb689	-0.13741507
43	0x3cf75f38	0.030196771
44	0xbed10769	-0.40825966
45	0x3e2baec7	0.16765891
46	0x3dd50046	0.10400443
47	0xbe77fa20	-0.24216509
48	0xbe0bf4f5	-0.13667662
49	0x3e301256	0.17194495
50	0x3da6bf1c	0.0814192
51	0x3de7fddc	0.11327717
52	0xbe79639c	-0.24354404
53	0xbc8edd69	-0.017439561
54	0x3df69d8d	0.12041769
55	0xbe0e761c	-0.13912243
56	0x3dd41ee8	0.103574574
57	0x3d1778f6	0.03698059
58	0x3ead717c	0.33875644
59	0xbe65a8dc	-0.22427696
60	0xbcfb444b	-0.030672213
61	0xbd92950c	-0.07157335
62	0xbf051c6f	-0.5199651
63	0x3e82b594	0.25529158
64	0x3e0d2f3d	0.13787551
65	0xbdc6e03f	-0.0971074
66	0xbe9f5a83	-0.31123742
67	0x3ea11ad6	0.31465787
68	0xbeb72fd3	-0.35778674
69	0xbe53be5e	-0.20678088
70	0x3e28f7f5	0.16500838
71	0xbc3cc49e	-0.011521487
72	0xbe821fa5	-0.25414768
73	0x3e3f6781	0.18691827
74	0xbe933a42	-0.28755385
75	0x3e4fdd7e	0.20299336
76	0xbea3aaf9	-0.3196638
77	0x3c2d9f52	0.010597067
78	0xba889e7d	-0.001042321
79	0xbe3e64f7	-0.18593203
80	0xbb690176	-0.003555385
81	0xbf17b2d1	-0.5925723
82	0xbe987cdc	-0.2978276
83	0x3eb89831	0.36053613
84	0x3e858213	0.260758
85	0xbee763de	-0.4519338
86	0x3d2c80d5	0.04211505
87	0xbcd264ae	-0.025682773
88	0xbdca717b	-0.09884926
89	0xbe2a4245	-0.16626842
90	0xbd93adcc	-0.072108835
91	0xbdb2e8da	-0.08735819
92	0xbea1f665	-0.31633297
93	0xbbedb95e	-0.0072547635
94	0xbeae954f	-0.34098288
95	0x3e9dc46f	0.3081393
96	0x3e4883a8	0.19581473
97	0xbe5a429f	-0.21314476
98	0x3e3a6c94	0.18205482
99	0x3be16535	0.00687852
100	0x3d8a1b8f	0.06743538
101	0xbeb99095	-0.3624312
102	0xbd59a821	-0.053138856
103	0x3e36178f	0.17782424
104	0x3d4cc93d	0.049996603
105	0x39eb36da	0.0004486356
106	0xbd0fe12c	-0.03512685
107	0x3eab66a2	0.3347674
108	0x3c9aaa93	0.018880164
109	0x3e1868a4	0.14883667
110	0xbe017e1b	-0.12645762
111	0xbd3ca92b	-0.04605977
112	0xbe581ec2	-0.21105483
113	0x3e31948c	0.17341822
114	0x3cdcb5d0	0.026942164
115	0xbdfb3926	-0.122667596
116	0xbe2e82f6	-0.17042145
117	0xbde9e778	-0.11421102
118	0x3e61629c	0.22010273
119	0xbdf3cf29	-0.11904747
120	0x3ea74739	0.32671526
121	0xbd34b8f5	-0.0441217
122	0xbebc9124	-0.36829484
123	0x3ccc8fed	0.024970973
124	0x3de225e9	0.11042387
125	0x3dbcece8	0.09224874
126	0xbee01381	-0.4376488
127	0x3e6d736d	0.23188563
128	0x3e792247	0.24329482
129	0xbda8bc9a	-0.08239098
130	0x3e0d0ff9	0.13775624
131	0x3e0f5783	0.13998227
132	0x3e41970d	0.18905278
133	0xbde3a956	-0.11116283
134	0xbb465aa6	-0.0030266433
135	0x3e928cf1	0.28623155
136	0xbea49653	-0.32145938
137	0xbdd8b36c	-0.10581097
138	0x3e41a143	0.18909173
139	0xbe3681e8	-0.17822993
140	0xbe3140f8	-0.1730994
141	0xbe92ca5d	-0.28670016
142	0x3dfdc7cf	0.12391626
143	0x3e804ffc	0.25061023
144	0xbe7872c6	-0.24262533
145	0x3deda579	0.11603827
146	0x3c54e6af	0.012994452
147	0xbea2762e	-0.3173079
148	0x3e302754	0.17202502
149	0x3d908cd8	0.07058114
150	0x3dae2000	0.08502197
151	0x3d6da930	0.058022678
152	0x3de76f82	0.11300565
153	0xbe5f2b06	-0.21793756
154	0xbddb67c3	-0.1071315
155	0x3d085297	0.03328189
156	0xbe4cd223	-0.20002036
157	0x3da50369	0.08057291
158	0xbd76731f	-0.06016838
159	0xbe010991	-0.12601306
160	0x3e8ada66	0.2711975
161	0xbe1041b5	-0.14087565
162	0xbddde026	-0.108337685
163	0xbd7077d2	-0.05870802
164	0x3cca8957	0.024723692
165	0x3df5768b	0.11985501
166	0xbe16f3da	-0.1474146
167	0x3e29b35f	0.16572331
168	0x3e841aee	0.25801796
169	0xbe4e84d8	-0.20167863
170	0x3de4335c	0.111426085
171	0xbc4e78bf	-0.01260203
172	0xbe963ba6	-0.29342383
173	0x3ceb08d6	0.028690737
174	0x3e7c0b52	0.24613693
175	0xbd86427d	-0.065556504
176	0xbe953042	-0.2913838
177	0xbd96f87e	-0.07371615
178	0x3d69d3a6	0.05708661
179	0xbe002357	-0.12513481
180	0x3ecf3165	0.40467373
181	0xbe1ec6f0	-0.15505576
182	0x3e155235	0.1458214
183	0x3daaac36	0.08333628
184	0x3e76c02d	0.24096747
185	0xbdfde1de	-0.12396596
186	0x3e96c4e3	0.29447088
187	0xbb6efe04	-0.0036467323
188	0x3e82d4bb	0.25552925
189	0x3eb1a708	0.34697747
190	0xbf3091f9	-0.68972737
191	0xbf02a20a	-0.510285
192	0x3e827b1c	0.2548455
193	0x3e828aa2	0.25496393
194	0xbcf24747	-0.029575003
195	0xbbbb7d85	-0.00572175
196	0x3cfd184c	0.030895375
197	0x3e273950	0.16330457
198	0x3ee4ad85	0.44663635
199	0xbe102296	-0.14075693
200	0x3ea98e11	0.331162
201	0x3e5c83a8	0.21534598
202	0x3e5a8737	0.21340643
203	0x3e5768b5	0.21036036
204	0xbdd0dea8	-0.10198718
205	0x3e9ae6ca	0.30254203
206	0x3e7de80f	0.24795555
207	0xbe50fe27	-0.20409451
208	0xbdacbbb4	-0.08434239
209	0xbe94e24b	-0.29078898
210	0x3e12d537	0.14339148
211	0xbee971a5	-0.45594516
212	0x3ccee896	0.02525739
213	0x3dfbb235	0.1228985
214	0x3e09d82c	0.1346137
215	0x3cdb7a98	0.026791856
216	0xbe227a91	-0.15867068
217	0x3b1bcc8e	0.0023773047
218	0x3da4df58	0.08050412
219	0x3e724692	0.23659733
220	0xbd0f37c3	-0.034965288
221	0x3d6c573b	0.057700377
222	0xbe7e7f78	-0.24853313
223	0xbe106fe4	-0.14105183
224	0x3d5e648e	0.054295115
225	0x3da1447e	0.07874392
226	0x3e7216ee	0.2364156
227	0x3ec1278b	0.3772548
228	0x3e6687b8	0.2251271
229	0x3ee8e7ec	0.45489442
230	0x3f1920a2	0.5981542
231	0xbdcd650e	-0.1002904
232	0x3e36757d	0.17818256
233	0xbd5568d9	-0.052101944
234	0xbe3408c2	-0.17581466
235	0xbd9d8a2f	-0.07692372
236	0xbce52740	-0.027972817
237	0xbeaa3df7	-0.332504
238	0x3ecd1925	0.40058246
239	0x3ebf1380	0.37319565
240	0x3c1003fc	0.008790012
241	0x3d5cd74a	0.053916253
242	0x3dbab5e0	0.09116721
243	0x3d162c9b	0.036663633
244	0xbe30adf0	-0.17253852
245	0xbdc25ae8	-0.09489995
246	0x3da43a2a	0.080189064
247	0xbebedc1a	-0.372773
248	0x3c2599c4	0.010107461
249	0xbd86c45c	-0.06580421
250	0x3edc3519	0.4300926
251	0xbdbdebca	-0.09273489
252	0xbebe8efe	-0.3721847
253	0xbeb00f82	-0.34386832
254	0x3e8db69f	0.2767839
255	0xbde0dc10	-0.109794736

layer2.0.bias f4 [16]
0	0xbd5bb225	-0.05363669
1	0x3d1038d0	0.03521043
2	0xbd800364	-0.06250647
3	0xbd88a466	-0.066719815
4	0x3d45e2dd	0.048312057
5	0xbc73804a	-0.014862129
6	0x3d8cfede	0.068845496
7	0x3d920819	0.07130451
8	0x3d5fc175	0.054627854
9	0xbd9bf800	-0.076156616
10	0xbdab18d8	-0.08354348
11	0xbcb26be2	-0.021779958
12	0x3d3a0261	0.045412425
13	0x3d83337a	0.06406303
14	0x3c759c9b	0.014990951
15	0xbd82a72f	-0.06379544

layer2.2.weight f4 [16]
0	0x3f76ae7f	0.9636001
1	0x3f6b34f0	0.9187765
2	0x3f8def3e	1.1088636
3	0x3f678572	0.90437996
4	0x3f6a3b31	0.9149657
5	0x3f697761	0.9119778
6	0x3f8cec9d	1.1009709
7	0x3f8c65b8	1.0968542
8	0x3f8d9999	1.1062499
9	0x3f670562	0.9024259
10	0x3f8e692e	1.1125848
11	0x3f8da05d	1.1064564
12	0x3f680ec0	0.90647507
13	0x3f870436	1.054816
14	0x3f8cdde2	1.1005213
15	0x3f6a87ff	0.91613764

layer2.2.bias f4 [16]
0	0xbd4c4f7e	-0.049880497
1	0xbdaebef5	-0.08532516
2	0x3ddb2260	0.10699916
3	0xbdca741d	-0.09885428
4	0xbdaa952b	-0.08329233
5	0xbdbb4710	-0.091444135
6	0x3dd808a2	0.105485216
7	0x3dcf0bc3	0.10109665
8	0x3ddd48f5	0.10804931
9	0xbdce0928	-0.1006034
10	0x3de7f401	0.11325837
11	0x3ddd74f4	0.10813323
12	0xbdbfd865	-0.09367446
13	0x3d8c3dd3	0.068477295
14	0x3deb7350	0.114966035
15	0xbdbc0ce6	-0.09182148

layer2.2.running_mean f4 [16]
0	0x3e6c118c	0.23053569
1	0x3c3fb6c4	0.01170129
2	0xbf8dde9e	-1.1083562
3	0xbe167d40	-0.14696217
4	0xbd8b3804	-0.067977935
5	0xbd705baa	-0.058681168
6	0x3f43e8e1	0.7652722
7	0x3f30cd50	0.6906328
8	0x3f5a0c8e	0.85175407
9	0xbe50545d	-0.20344682
10	0xbf5c39ad	-0.86025506
11	0xbf7b63aa	-0.9819895
12	0xbd8227b0	-0.06355226
13	0x3f390e92	0.7228786
14	0xbf0a8967	-0.5411591
15	0xbd618574	-0.05505891

layer2.2.running_var f4 [16]
0	0x3ef36f8c	0.4754604
1	0x3f1f1fdb	0.6215798
2	0x3f7087ce	0.9395722
3	0x3f18ef48	0.59740114
4	0x3ec38f31	0.38195184
5	0x3f1d275a	0.6138817
6	0x3f2b300a	0.66870177
7	0x3f6f790b	0.9354407
8	0x3f0f5af0	0.55998135
9	0x3f2c50f6	0.67311037
10	0x3f2ee686	0.683205
11	0x3f6aec41	0.91766745
12	0x3e3eee62	0.18645623
13	0x3f6f8670	0.9356451
14	0x3f04b000	0.51831055
15	0x3ece12f0	0.40248823

fc_advantage.0.weight f4 [20, 16]
0	0x3dbf97ba	0.093551114
1	0x3e72c27b	0.23707001
2	0x3e411525	0.18855722
3	0x3e369df7	0.17833696
4	0x3e9a6a2f	0.30159137
5	0x3edd92f8	0.4327619
6	0xbe8f3712	-0.27971703
7	0x3e17fc9c	0.14842457
8	0xbe828580	-0.25492477
9	0x3e9a1b14	0.30098784
10	0x3ddbe05c	0.107361525
11	0x3f15d55e	0.585287
12	0xbd29c5f1	-0.041448537
13	0x3e730a58	0.23734415
14	0x3e81879f	0.25298783
15	0x3dce81c8	0.100833476
16	0xbeb2cd66	-0.34922332
17	0xbe92e203	-0.28688058
18	0x3bd40e03	0.006471397
19	0x3d1ebefb	0.038756352
20	0x3ea091f9	0.31361368
21	0xbd6057ea	-0.05477134
22	0x3e1025f8	0.14076984
23	0x3ecc8077	0.3994176
24	0xbd5843e6	-0.052799128
25	0xbdfd59c0	-0.12370634
26	0xbe2ee036	-0.17077717
27	0xbcdfd22e	-0.027321901
28	0xbed88e13	-0.42295894
29	0xbdf37000	-0.11886597
30	0x3e474f50	0.19463849
31	0xbeffd362	-0.4996596
32	0xbe81dc4d	-0.2536339
33	0xbe13e8d8	-0.14444292
34	0x3ddb9d95	0.10723416
35	0xbe8e544b	-0.27798685
36	0x3ebe17d0	0.37127542
37	0x3d714445	0.058902998
38	0xbe89631b	-0.26833424
39	0xbeb14696	-0.34624165
40	0x3e0bbd8f	0.1364653
41	0xbe49d1ed	-0.19708987
42	0x3d9657e8	0.073409855
43	0xbdd06614	-0.1017572
44	0x3c966c61	0.018362226
45	0xbe22b35f	-0.15888737
46	0x3e8e0f77	0.27746174
47	0xbecd07a2	-0.40044886
48	0xbebd47cb	-0.36968836
49	0xbebece09	-0.37266567
50	0x3e1c565e	0.15267321
51	0x3d9b2574	0.07575503
52	0x3d700ecb	0.058607858
53	0xbe92366f	-0.28557155
54	0xbca051c1	-0.019570233
55	0x3d81a9a8	0.063311875
56	0x3cd124c9	0.025530236
57	0xbdc4293e	-0.09578179
58	0xbeb96978	-0.3621328
59	0xbedca929	-0.4309781
60	0xbef6d5be	-0.48209947
61	0xbf1f5b6d	-0.6224888
62	0x3da62294	0.08112064
63	0xbea58fd5	-0.32336298
64	0xbea9896d	-0.3311266
65	0xbd0e2731	-0.034705345
66	0xbd5fe73b	-0.054663878
67	0x3d940b5f	0.07228731
68	0x3ec17319	0.37783125
69	0x3ecd47b1	0.4009376
70	0xbec5cca5	-0.38632694
71	0xbe906f47	-0.28209898
72	0x3de3e292	0.11127199
73	0x3eb3a913	0.3508993
74	0x3ca3ee23	0.020011013
75	0xbd3a4143	-0.045472395
76	0xbec3d25b	-0.38246426
77	0x3f2a1c7b	0.6644971
78	0xbdb16a68	-0.086628735
79	0x3e8533c2	0.2601605
80	0xbe4dd9ae	-0.2010257
81	0xbe27bfbe	-0.16381738
82	0xbd550510	-0.05200678
83	0xbe820c94	-0.2540022
84	0xbea0697a	-0.31330472
85	0xbecd5d70	-0.4011035
86	0xbe03b0aa	-0.1286036
87	0xbd25bbf4	-0.04046245
88	0xbe61ec5b	-0.22062819
89	0x3ebf702f	0.37390277
90	0xbe491dc9	-0.19640268
91	0xbf16eae0	-0.5895214
92	0x3c2beff7	0.010494224
93	0x3e74ac55	0.23893864
94	0xbec31094	-0.38098586
95	0xbde72ee0	-0.112882376
96	0xbe484292	-0.19556645
97	0xbdaabe33	-0.08337059
98	0xbe094c59	-0.1340803
99	0x3dc9c4fc	0.09852025
100	0x3e42ce95	0.19024117
101	0xbe222df9	-0.1583785
102	0xbe961d60	-0.29319286
103	0xbe978ac1	-0.29598048
104	0xbd3e09fc	-0.04639624
105	0xbd98cfec	-0.07461533
106	0x3e448895	0.19192727
107	0x3e49967d	0.19686313
108	0x3e384658	0.17995584
109	0xbeade20f	-0.33961532
110	0x3d35e8f7	0.044411626
111	0x3d8432b0	0.064549804
112	0xbd151698	-0.0363985
113	0xbd9ea594	-0.07746425
114	0xbdb87499	-0.09006614
115	0xbf0b7f29	-0.54490906
116	0x3e41bedf	0.18920468
117	0xbde82581	-0.11335278
118	0xbe54bca7	-0.2077509
119	0xbda678c8	-0.08128506
120	0x3d89ce44	0.06728795
121	0xbe85abf4	-0.26107752
122	0x3c77647e	0.015099643
123	0xbf052ebc	-0.52024436
124	0xbef7127c	-0.4825629
125	0x3eb55901	0.35419467
126	0x3e08e738	0.13369453
127	0xbe923d03	-0.28562173
128	0xbe8c91a8	-0.27454877
129	0x3db970fb	0.090547524
130	0x3e504c9c	0.20341724
131	0x3e34e4ac	0.17665356
132	0x3e75f0f9	0.24017705
133	0x3d2a2949	0.04154328
134	0x3d0c490e	0.034249358
135	0x3cd56933	0.02605114
136	0x3e9b3c71	0.3031955
137	0xbcd549d1	-0.026036175
138	0xbdb9d1c7	-0.09073215
139	0x3e69dfef	0.2283933
140	0x3ed02bd3	0.40658435
141	0x3d8721c2	0.06598236
142	0x3ecf7bc6	0.4052412
143	0x3f14b56c	0.5808933
144	0x3c5736b0	0.013135597
145	0xbdca424b	-0.09875926
146	0xbe25a02b	-0.1617438
147	0x3edd4fc7	0.43224928
148	0x3df1d321	0.11807848
149	0x3ddf1aa7	0.108937554
150	0x3e5caf9f	0.21551369
151	0xbe8b4cdc	-0.27207077
152	0xbdc9f2c2	-0.098607555
153	0xbe5f4f7b	-0.21807663
154	0x3bd8b994	0.0066139195
155	0xbdde20e9	-0.10846121
156	0xbf087cd8	-0.53315496
157	0xbd44e451	-0.048069302
158	0xbeb54615	-0.3540503
159	0x3d175921	0.036950234
160	0xbded4d3f	-0.11586999
161	0x3ec8b6ec	0.39202058
162	0x3e131a99	0.14365615
163	0x3df2e08c	0.11859235
164	0x3e0b1bb3	0.13584785
165	0x3b33a1fe	0.0027409787
166	0xbe37f9e3	-0.17966418
167	0xbdd53cb1	-0.104119666
168	0x3e86ddf5	0.26341215
169	0xbf05cc29	-0.5226465
170	0xbf171da4	-0.59029603
171	0xbd84a75f	-0.06477236
172	0xbdae63ec	-0.08515152
173	0xbcc6dcef	-0.024275271
174	0x3e9b1a33	0.30293426
175	0xbe6205ba	-0.22072497
176	0xbc7557b8	-0.014974527
177	0xbe1bcb15	-0.15214188
178	0xbd662d06	-0.05619528
179	0xbe09ac77	-0.13444696
180	0xbd2e1893	-0.042503905
181	0x3db33dfe	0.087520584
182	0x3e54c811	0.20779444
183	0x3e67cbdf	0.22636364
184	0xbdb9db94	-0.09075084
185	0x3e394f70	0.18096709
186	0x3e9f4d2a	0.3111356
187	0xbe74379a	-0.23849335
188	0xbdecf98a	-0.11571033
189	0x3d65ab53	0.05607159
190	0x3ae7b4ff	0.0017677842
191	0xbdf19f04	-0.11797908
192	0x3eaa1269	0.3321717
193	0x3c92cbdd	0.017919475
194	0x3f1a4b7e	0.6027144
195	0x3e464d9f	0.19365548
196	0x3e9140ce	0.28369755
197	0x3cca6320	0.02470547
198	0x3da21630	0.07914388
199	0x3eb6e42a	0.3572095
200	0xbe0fd611	-0.14046504
201	0xbe77b9db	-0.24191992
202	0xbea0fac1	-0.3144131
203	0xbeefb447	-0.46817228
204	0x3edc538d	0.43032494
205	0x3e9bd733	0.3043762
206	0x3db1482f	0.08656346
207	0xbd692b5d	-0.05692612
208	0xbeab6384	-0.33474362
209	0x3eef4966	0.46735686
210	0xbee09c82	-0.43869406
211	0x3e0838ae	0.13302872
212	0x3d170b13	0.036875796
213	0x3e0f3f97	0.13989101
214	0x3e98fa40	0.29878426
215	0x3dbc84f4	0.09205046
216	0xbde033ea	-0.10947402
217	0x3dd1e501	0.10248757
218	0x3e599dc9	0.21251597
219	0x3d93399e	0.07188724
220	0xbcdcb43f	-0.026941417
221	0xbda457fa	-0.08024593
222	0x3e9efc25	0.31051746
223	0xbd3a0793	-0.04541738
224	0xbe655350	-0.22395062
225	0xbe616e7a	-0.220148
226	0x3eb0e0d5	0.34546533
227	0xbe584359	-0.21119441
228	0x3e2b13a0	0.16706705
229	0x3d7efefe	0.0622549
230	0x3e236558	0.15956628
231	0x3e9829a3	0.29719266
232	0x3cdcf292	0.026971135
233	0xbe3d72ea	-0.18500867
234	0x3db0a77c	0.08625695
235	0x3c08c070	0.008346662
236	0xbdc9fc6b	-0.09862598
237	0x3e15047c	0.14552492
238	0xbe793dfa	-0.24340048
239	0xbe1c2123	-0.15247016
240	0x3f2d3782	0.67662823
241	0x3eb093ad	0.34487668
242	0x3d7cfef8	0.061766595
243	0x3e3aa625	0.18227442
244	0x3db60036	0.08886759
245	0x3db55bab	0.08855375
246	0x3afc0642	0.0019227939
247	0x3d683304	0.056689277
248	0x3f3b433a	0.73149455
249	0x3cee57df	0.029094635
250	0x3e345596	0.17610773
251	0xbd1127a2	-0.035438187
252	0xbe2e5c58	-0.17027414
253	0x3e8ee515	0.2790915
254	0xbeb4d6ed	-0.35320225
255	0x3dc62c20	0.09676385

fc_advantage.0.bias f4 [20]
0	0x3cb96ae9	0.022633987
1	0xbbd2c32a	-0.006431957
2	0x3c86e925	0.016468594
3	0xbdd010c9	-0.101594515
4	0xbdc48461	-0.09595562
5	0xbdd72ea8	-0.10506946
6	0xbd39dd9a	-0.04537735
7	0xbd419551	-0.04726154
8	0x3d9f01d3	0.0776402
9	0xbdd723ac	-0.10504851
10	0xbdd1a802	-0.10237123
11	0x3d9992a6	0.07498674
12	0x3d66377d	0.05620526
13	0x3d7c40c6	0.06158521
14	0x3d9727ad	0.073806144
15	0x3da1bcf5	0.07897369
16	0x3ccd2085	0.02503992
17	0x3cf51e78	0.029921755
18	0xbdd74245	-0.10510687
19	0x3c9435b5	0.018092016

fc_value.0.weight f4 [1, 16]
0	0xbb855740	-0.004069239
1	0xbe0839d9	-0.13303317
2	0x3f518d26	0.81856
3	0xbe527ff3	-0.20556621
4	0xbda3de05	-0.08001331
5	0xbe2a0109	-0.16601957
6	0x3e38dfad	0.18054076
7	0x3e0fd09b	0.1404442
8	0x3ec68d70	0.38779783
9	0xbe8e9280	-0.27846146
10	0x3e75c14d	0.2399952
11	0x3f29e960	0.66371727
12	0xbe555b4c	-0.20835608
13	0x3de6aa5b	0.112629615
14	0x3e3fa131	0.18713833
15	0xbdfa7f78	-0.12231344
