save/client-6/eval.pth (torch, 21957 bytes, 27 tensors)

layer1_task.0.weight f4 [16, 3]
-0.44275615 0.34977192 0.031990442 0.080616415 0.30576423 -0.04500236 0.48546648 0.21183422
-0.32704103 -0.54975617 0.47785047 0.18422136 -0.31192282 0.1804264 -0.25754952 -0.2529902
-0.3571525 0.1539501 0.52982605 0.17895542 0.015375279 -0.6691304 0.4624753 0.030150983
-0.6290625 -0.2133908 0.4349697 -0.6656464 0.18943004 -0.249652 0.031126248 0.033174742
-0.06181114 0.055624526 0.04273385 -0.35899344 0.06050447 0.06966955 -0.054472078 0.106482685
0.16835627 -0.020548983 0.14232956 -0.080425076 -0.21317884 -0.023491558 -0.5847592 0.23163679
00000000: efb0 e2be 4e15 b33e 6908 033d 381a a53d
00000010: 218d 9c3e 6554 38bd 108f f83e 12eb 583e
00000020: ec71 a7be d2bc 0cbf d1a8 f43e 86a4 3c3e
00000030: 59b4 9fbe b3c1 383e 88dd 83be ee87 81be
00000040: b1dc b6be 18a5 1d3e aea2 073f 1740 373e
00000050: 98e8 7b3c 214c 2bbf 90c9 ec3e 32ff f63c
00000060: 3d0a 21bf 1e83 5abe 59b4 de3e cd67 2abf
00000070: f3f9 413e c6a4 7fbe 79fc fe3c 3de2 073d
00000080: ae2d 7dbd 8bd6 633d b109 2f3d fdcd b7be
00000090: 89d3 773d e9ae 8e3d 1d1e 5fbd 9813 da3d
000000a0: 9665 2c3e 5756 a8bc d7be 113e e7b5 a4bd
000000b0: 8e4b 5abe 5e71 c0bc c7b2 15bf 3232 6d3e

layer1_task.0.bias f4 [16]
0.030281562 -0.0131354965 0.05097575 0.029746642 0.0026277236 -0.013122819 0.029128175 -0.02569975
-0.0018337392 0.034205273 0.0018998922 -0.050044958 -0.033133958 0.022317108 0.042692993 -0.009988222
00000000: 0a11 f83c 4436 57bc f3cb 503d 3baf f33c
00000010: e335 2c3b 1801 57bc 369e ee3c 4888 d2bc
00000020: 145a f0ba d41a 0c3d ce05 f93a f1fb 4cbd
00000030: 79b7 07bd 5ed2 b63c d9de 2e3d a4a5 23bc

layer1_task.2.weight f4 [16]
0.9832505 1.0109868 1.0468801 0.9791503 1.0055981 1.029766 0.95948356 1.014239
1.0026146 0.9639979 1.0349085 0.9943771 1.0161234 1.0015434 1.0003339 0.9770188
00000000: 4eb6 7b3f 0468 813f 2b00 863f 98a9 7a3f
00000010: 70b7 803f 5fcf 833f b7a0 753f 95d2 813f
00000020: ad55 803f 91c8 763f e277 843f 7f8f 7e3f
00000030: 5510 823f 9332 803f f10a 803f e71d 7a3f

layer1_task.2.bias f4 [16]
-0.01527524 0.012477699 0.05898078 -0.020028818 0.009385241 0.026909063 -0.03537778 0.011340145
0.0062284116 -0.036947154 0.037067283 -0.016130794 0.014559854 0.009639288 0.013747734 -0.018001825
00000000: 0045 7abc 436f 4c3c d595 713d 7a13 a4bc
00000010: 8ec4 193c 6570 dc3c 4be8 10bd 04cc 393c
00000020: b417 cc3b e655 17bd ddd3 173d ba24 84bc
00000030: 748c 6e3c 1bee 1d3c 2d3e 613c 9078 93bc

layer1_task.2.running_mean f4 [16]
-45605.1 8267.738 51565.242 -59328.086 -33726.61 -26967.479 58249.15 -70421.38
-67768.77 -73452.016 3263.4126 5479.369 6439.531 11291.144 14970.516 -2277.0452
00000000: 1a25 32c7 f42e 0146 3e6d 4947 16c0 67c7
00000010: 9cbe 03c7 f5ae d2c6 2689 6347 b18a 89c7
00000020: 635c 84c7 0276 8fc7 9af6 4b45 f43a ab45
00000030: 3f3c c945 936c 3046 10ea 6946 b950 0ec5

layer1_task.2.running_var f4 [16]
6.240601e+08 2.0085852e+07 6.65662e+08 8.3091386e+08 2.78178e+08 1.7976834e+08 7.36587e+08 1.309046e+09
1.0723756e+09 1.1501806e+09 2.6899015e+06 8.101437e+06 1.0187755e+07 3.2806416e+07 5.6276068e+07 1.241756e+06
00000000: 9bc9 144e 2e3e 994b c9b4 1e4e f51a 464e
00000010: 46a5 844d c170 2b4d b49d 2f4e ea0c 9c4e
00000020: 9dac 7f4e ba1c 894e b62d 244a 7a3c f74a
00000030: eb73 1b4b 084b fa4b 19ad 564c e094 9749

layer1_1vm.0.weight f4 [32, 40]
0.05593669 -0.17303663 0.19524066 0.13274845 -0.06060363 -0.07816828 -0.04283066 0.08473831
-0.16976991 -0.12004294 0.1358369 -0.2330808 -0.010132887 -0.19940364 -0.25268552 -0.054146852
-0.13505699 0.0024682526 0.069612704 0.03657383 -0.29843792 -0.17019895 -0.112515315 -0.060514383
-0.09519802 0.026453653 -0.26879135 0.072120555 -0.10053553 -0.15252121 -0.2527887 0.08054877
0.031378653 0.23398887 0.2061888 0.30080694 -0.19680944 -0.0643694 -0.056080535 -0.23657058
0.09474308 -0.017318927 0.17293695 0.111549996 -0.06552337 -0.1836545 0.27445397 -0.06809402
-0.21092464 -0.08717581 0.021912275 0.2850109 0.17193228 0.01740298 -0.11773482 -0.19771585
0.11973033 0.06685413 -0.26197612 -0.03132502 0.3847988 -0.26197276 0.13102768 0.1835995
-0.009840023 0.019015437 0.21848498 -0.097481765 0.11784279 -0.2559588 0.22110437 0.11912598
-0.0863965 0.122383624 -0.038507104 -0.18069454 0.16421019 0.13493182 0.1657059 -0.091432475
0.1798871 0.17647588 0.013345346 -0.053326074 0.23660086 -0.14298005 0.21926363 -0.11197143
0.33373806 -0.08250417 -0.054033294 -0.06772781 0.063910194 -0.41144714 -0.03780467 -0.087446526
0.23839127 -0.0064638904 -0.02135671 -0.009307252 0.29834926 -0.30804566 0.23075901 0.029485092
-0.10579363 -0.11431096 0.2209101 -0.06110722 0.0076951445 -0.0074547636 0.071940556 0.019458557
0.09399867 -0.18668704 -0.071519665 0.035868913 0.0305346 0.20817666 -0.071133144 0.1473993
0.26746583 -0.051846158 -0.33944294 0.1895438 -0.2606058 0.030871604 -0.024368474 -0.23001763
0.028187033 -0.099740595 -0.109930545 -0.03739865 0.013793176 -0.1812009 0.012212179 -0.10309955
0.10115879 0.1934577 -0.19177721 -0.32021323 0.30434525 -0.04385376 -0.11770149 -0.2633419
0.0127107315 0.3027391 -0.02033119 -0.1151929 -0.0678854 -0.11785393 0.34453443 -0.10498295
-0.11087125 0.120026834 -0.068993986 -0.012899722 0.31237233 0.1219828 0.35685632 -0.011454092
0.09945635 0.035739664 0.038016178 0.012388354 0.01610745 0.1446775 -0.0013281085 0.013896545
-0.18151927 0.10794699 -0.033642292 -0.203404 0.058830153 -0.10424122 0.34659517 -0.25785106
-0.31206122 0.007555069 -0.13898732 -0.18521476 -0.06947795 -0.04881867 -0.26820686 -0.05741475
-0.03447275 0.04843724 -0.05688107 -0.060833562 -0.09593384 0.0024874662 0.07087608 -0.20330353
-0.10455601 -0.13863778 -0.20702563 0.030407779 0.019724062 0.18808556 -0.11617743 -0.06599233
0.1853552 0.12386253 0.12505725 -0.017633084 0.3471718 0.026314707 0.11786958 -0.079483956
0.3378629 0.17440388 0.044966016 -0.120234534 -0.15358233 -0.015756544 -0.17547087 0.055675857
0.24003308 0.1051357 -0.44271502 -0.23786104 0.29342124 -0.32473895 0.17653105 -0.058920562
-0.009605513 0.051672023 -0.18518656 0.07964873 -0.096917875 0.013608669 -0.08522239 -0.23467197
-0.21412759 -0.049583368 0.24982543 0.118802726 0.19794542 -0.14487763 0.27028295 0.07913248
0.05311536 -0.17016236 -0.14505829 -0.1510168 0.08726121 -0.36802793 -0.067276046 0.21221833
-0.08414962 -0.316195 -0.09415005 0.24942438 -0.23753366 -0.3119855 0.25609016 0.09842685
00000000: df1d 653d 8430 31be 2bed 473e 36ef 073e
00000010: 833b 78bd b116 a0bd 346f 2fbd 478b ad3d
00000020: 2ad8 2dbe 13d9 f5bd d418 0b3e bcac 6ebe
00000030: 6904 26bc 7830 4cbe ff5f 81be 17c9 5dbd
00000040: 614c 0abe 68c2 213b 1b91 8e3d 71ce 153d
00000050: dbcc 98be a248 2ebe 6e6e e6bd eedd 77bd
00000060: 2ef7 c2bd 55b5 d83c 059f 89be f1b3 933d
00000070: 92e5 cdbd 852e 1cbe 856d 81be c1f6 a43d
00000080: e786 003d c79a 6f3e 2823 533e 5e03 9a3e
00000090: 6a88 49be 1bd4 83bd b4b4 65bd 8f3f 72be
000000a0: a908 c23d 6ce0 8dbc 6216 313e 5374 e43d
000000b0: 1e31 86bd ed0f 3cbe 3b85 8c3e e174 8bbd
000000c0: a1fc 57be 3b89 b2bd 5f81 b33c f3ec 913e
000000d0: 040f 303e b290 8e3c f41e f1bd 0676 4abe
000000e0: 2d35 f53d d1ea 883d bc21 86be aa4e 00bd
000000f0: 5904 c53e 4b21 86be 1f2c 063e 8201 3c3e
00000100: 0c38 21bc 43c6 9b3c 87ba 5f3e 85a4 c7bd
00000110: 9057 f13d 080d 83be 2f69 623e 52f8 f33d
00000120: a6f0 b0bd 44a4 fa3d a0b9 1dbd fd07 39be
00000130: b726 283e 912b 0a3e cfae 293e f340 bbbd
00000140: 5334 383e 18b6 343e 70a6 5a3c 716c 5abd
00000150: 7f47 723e 5d69 12be a586 603e 4751 e5bd
00000160: b7df aa3e f2f7 a8bd 0452 5dbd e1b4 8abd
00000170: 59e3 823d 33a9 d2be 12d9 1abd 2a17 b3bd
00000180: d71c 743e 0bcf d3bb 44f4 aebc 727d 18bc
00000190: 3cc1 983e 29b8 9dbe 174c 6c3e b88a f13c
000001a0: 55aa d8bd dd1b eabd 4236 623e 904b 7abd
000001b0: 8d27 fc3b 1747 f4bb 9255 933d 8d67 9f3c
000001c0: 6082 c03d e32a 3fbe e778 92bd 48eb 123d
000001d0: b323 fa3c 432c 553e 41ae 91bd d8ef 163e
000001e0: 48f1 883e a35c 54bd 77cb adbe c517 423e
000001f0: 206e 85be 72e6 fc3c 65a0 c7bc be89 6bbe
00000200: 7ee8 e63c cc44 ccbd 4423 e1bd 542f 19bd
00000210: c6fc 613c bb8c 39be 9715 483c db25 d3bd
00000220: 572c cf3d c619 463e 3f61 44be fdf2 a3be
00000230: 24d3 9b3e 00a0 33bd 7b0d f1bd c0d4 86be
00000240: ac40 503c 9f00 9b3e 998d a6bc 41ea ebbd
00000250: 8007 8bbd 675d f1bd d166 b03e 4d01 d7bd
00000260: 7710 e3bd a1d0 f53d b84c 8dbd 5b59 53bc
00000270: 44ef 9f3e 1ed2 f93d dfb5 b63e f2a9 3bbc
00000280: c5af cb3d c163 123d dab6 1b3d 86f8 4a3c
00000290: c5f3 833c 5726 143e ed13 aeba 56ae 633c
000002a0: 30e0 39be 5013 dd3d 80cc 09bd 2349 50be
000002b0: e3f7 703d 6c7c d5bd ec74 b13e 0e05 84be
000002c0: 7dc6 9fbe 8390 f73b b152 0ebe f0a8 3dbe
000002d0: 754a 8ebd 16f6 47bd 6952 89be bb2b 6bbd
000002e0: 4c33 0dbd 2166 463d 20fc 68bd 9d2c 79bd
000002f0: f678 c4bd c204 233b 7a27 913d cd2e 50be
00000300: 7621 d6bd 10f7 0dbe 87fe 53be bc19 f93c
00000310: 5b94 a13c 8099 403e 6fee edbd fd26 87bd
00000320: c1cd 3d3e a3ab fd3d 020f 003e 4273 90bc
00000330: 81c0 b13e f191 d73c 9b65 f13d 7cc8 a2bd
00000340: 5efc ac3e ee96 323e 492e 383d 863d f6bd
00000350: b044 1dbe de13 81bc a3ae 33be 5e0c 643d
00000360: 3bcb 753e 6351 d73d 8bab e2be d891 73be
00000370: 4f3b 963e 2f44 a6be 8ec4 343e b056 71bd
00000380: 7160 1dbc 0ba6 533d 8ca1 3dbe e01e a33d
00000390: e17c c6bd e5f6 5e3c 1489 aebd d94d 70be
000003a0: 4344 5bbe ee17 4bbd 3dd2 7f3e d84e f33d
000003b0: 34b2 4a3e cd5a 14be 8762 8a3e 3610 a23d
000003c0: 7e8f 593d 0b3f 2ebe 298a 14be 26a4 1abe
000003d0: 01b6 b23d 286e bcbe 06c8 89bd c34f 593e
000003e0: a356 acbd 50e4 a1be bed1 c0bd 1b69 7f3e
000003f0: 063c 73be 90bc 9fbe 401e 833e 0494 c93d

layer1_1vm.0.bias f4 [32]
-0.015048184 0.011700472 0.06071583 -0.01727097 -0.038261894 0.017760564 -0.014910795 0.010084124
-0.008821748 -0.013154342 0.029670116 -0.0040178853 -0.069075845 -0.0044649425 0.015927259 0.028583935
0.040514033 0.009065351 0.06336296 0.054810967 0.0014746715 -0.0050933957 -0.031171646 0.007991983
0.02358824 -0.05469003 -0.017028118 -0.016314661 -0.07502905 0.0628864 0.029445112 -0.06049247
00000000: a98c 76bc 56b3 3f3c 2ab1 783d d97b 8dbc
00000010: 81b8 1cbd 9a7e 913c 684c 74bc e237 253c
00000020: 1889 10bc 4f85 57bc be0e f33c 77a8 83bb
00000030: a377 8dbd a74e 92bb e279 823c db28 ea3c
00000040: 0bf2 253d d786 143c 71c4 813d 7781 603d
00000050: c449 c13a 80e6 a6bb ae5b ffbc cef0 023c
00000060: 203c c13c a702 60bd 8d7e 8bbc 53a6 85bc
00000070: d5a8 99bd 96ca 803d e036 f13c f4c6 77bd

layer1_1vm.2.weight f4 [32]
0.9975886 1.0090635 0.9815398 1.0129726 1.0223055 0.96993405 0.9861749 1.0546708
0.9945464 1.0402373 0.97003984 1.006827 1.0426476 1.034945 1.0469813 0.9650748
1.0069696 1.0331299 0.9403968 0.98909557 1.024256 0.99313986 1.028408 0.9966149
0.9942461 1.0058328 0.9843566 0.9719172 1.0226877 0.9672935 1.0114021 1.0352981
00000000: f761 7f3f fe28 813f 3146 7b3f 16a9 813f
00000010: e8da 823f 994d 783f f575 7c3f 74ff 863f
00000020: 989a 7e3f 7f26 853f 8854 783f b5df 803f
00000030: 7a75 853f 1479 843f 7c03 863f 240f 773f
00000040: 61e4 803f 9a3d 843f d8bd 703f 5e35 7d3f
00000050: d21a 833f 6a3e 7e3f e0a2 833f 2722 7f3f
00000060: ea86 7e3f 21bf 803f cbfe 7b3f 91cf 783f
00000070: 6ee7 823f 8ca0 773f a075 813f a684 843f

layer1_1vm.2.bias f4 [32]
-0.0048754895 0.021299856 0.022843217 0.0018658546 0.025536835 -0.029046819 -0.016651347 0.041685484
-0.017701227 0.0020390162 -0.0005148966 0.010349222 0.018576577 0.03323846 0.012684383 -0.02715582
0.0191403 0.032222223 -0.0718986 -0.004242907 0.026708806 0.0008711258 0.028439911 -0.0057981405
0.02109797 -0.0013144402 -0.014032754 -0.030615533 0.0018863971 -0.0015322482 0.020907477 0.025366105
00000000: 92c2 9fbb 097d ae3c b321 bb3c b18f f43a
00000010: a032 d13c 98f3 edbc 6868 88bc 66be 2a3d
00000020: 2a02 91bc 04a1 053b 20fa 06ba c98f 293c
00000030: e82d 983c 0d25 083d 29d2 4f3c e275 debc
00000040: 1ecc 9c3c 73fb 033d 933f 93bd 1508 8bbb
00000050: 6dcc da3c 435c 643a d1fa e83c 54fe bdbb
00000060: a6d5 ac3c 4b49 acba a3e9 65bc 6dcd fabc
00000070: fc40 f73a b8d5 c8ba 2846 ab3c 94cc cf3c

layer1_1vm.2.running_mean f4 [32]
-8121.6885 7390.0327 7362.6396 5244.038 -6727.087 5179.412 -6271.259 2130.629
2034.4733 918.4229 -667.5733 -3997.5803 -2799.313 -5291.659 2302.794 6317.595
9774.894 -2091.6182 2137.2302 -1112.5253 3206.327 -1068.8591 -3697.581 -2382.0454
578.08795 1508.4147 -3412.906 -6114.4053 2449.988 10319.837 8293.542 1847.7606
00000000: 82cd fdc5 43f0 e645 1e15 e645 4ee0 a345
00000010: b238 d2c5 4cdb a145 12fa c3c5 102a 0545
00000020: 254f fe44 119b 6544 b1e4 26c4 49d9 79c5
00000030: 02f5 2ec5 465d a5c5 b4ec 0f45 c36c c545
00000040: 93bb 1846 e4b9 02c5 af93 0545 cf10 8bc4
00000050: 3b65 4845 7e9b 85c4 4c19 67c5 bae0 14c5
00000060: a185 1044 458d bc44 7f4e 55c5 3e13 bfc5
00000070: cf1f 1945 593f 2146 2b96 0146 57f8 e644

layer1_1vm.2.running_var f4 [32]
1.3972378e+07 1.3579088e+07 1.1668982e+07 6.4955235e+06 8.684337e+06 6.30831e+06 9.758102e+06 1.2979916e+06
1.0999738e+06 234165.56 301528.75 3.9079815e+06 2.2567922e+06 9.36442e+06 1.4762839e+06 1.0024105e+07
2.3091874e+07 1.2629559e+06 1.2706151e+06 419506.94 2.3246338e+06 262086.14 3.3460055e+06 1.2390515e+06
245812.38 576242.2 3.000538e+06 9.911307e+06 1.6721404e+06 2.6758048e+07 1.8484212e+07 971005.1
00000000: 9a33 554b 5033 4f4b f60d 324b 473a c64a
00000010: 3183 044b ac83 c04a 96e5 144b 3d72 9e49
00000020: 2e46 8649 64ad 6448 183b 9348 3686 6e4a
00000030: 61be 094a c4e3 0e4b df35 b449 a9f4 184b
00000040: 512d b04b 5f2b 9a49 b91a 9b49 5ed6 cc48
00000050: 67e2 0d4a 89f1 7f48 5639 4c4a 5c40 9749
00000060: 180d 7048 23af 0c49 6823 374a 0b3c 174b
00000070: 631e cc49 d025 cc4b fa05 8d4b d20f 6d49

layer1_2vm.0.weight f4 [16, 32]
0.0927876 0.039636683 -0.18671636 -0.0791112 -0.13707587 0.26183367 0.00096028 0.049313374
-0.34912983 0.07145937 -0.0914557 0.17398842 0.29254416 0.3804527 -0.3713268 -0.2675848
-0.28587788 0.046913963 0.08035784 -0.08238052 -0.30077115 0.27653745 0.302705 0.22599113
0.26725072 -0.111746095 -0.076301575 -0.12643895 -0.19051577 0.29422054 0.1296221 -0.18307571
-0.43542725 -0.156452 -0.33549455 0.06614525 -0.25668278 0.31033286 -0.104951404 -0.022429662
0.22349809 0.1066258 0.11328374 0.008095811 -0.07578934 0.1272747 -0.090135366 0.42615116
0.07122639 0.15961723 0.25325242 0.34632742 -0.3803411 -0.3275192 -0.44164994 -0.084027335
0.20461541 -0.006404474 -0.05300481 0.20948526 0.13922855 0.054272804 -0.07534759 -0.42049375
-0.20499268 -0.18433788 -0.08625154 0.04679917 -0.068241 0.24040002 0.30465484 0.108456686
-0.34206623 0.049843658 0.13110507 -0.09871847 0.1852675 0.11331655 0.17024739 0.08830604
0.17721486 -0.20663396 0.18531442 0.31792557 -0.12646443 -0.34053347 0.4187619 0.24534406
-0.24924335 -0.08168197 -0.42705092 0.04630792 -0.0010776679 0.1412067 -0.0044576647 0.15389788
0.25370902 0.11136994 -0.13285156 0.14077157 -0.114137195 -0.12965174 0.077113084 -0.40494013
0.46448964 0.005026426 0.13962242 -0.09590052 0.08770153 0.21536498 0.10874554 0.2259428
-0.12934127 0.09904659 0.15631568 -0.01781548 -0.046531394 0.0047607888 -0.025102286 0.012766491
0.07284634 0.18332422 0.31687865 0.002467978 -0.14245826 -0.0043092114 0.2841799 0.09057683
0.020088416 -0.18295094 0.043405414 0.3399904 0.05088714 -0.020196967 0.21380071 0.47685358
-0.1582966 -0.27251145 0.06690289 -0.033649057 0.4630094 -0.031130448 0.38249788 0.12583083
-0.51696575 -0.28171736 -0.1683446 0.18158464 -0.09109991 -0.14922169 -0.050244372 0.08403475
0.24012451 -0.43145883 0.16963075 0.5190895 -0.034017306 -0.20845573 0.1777251 0.08908418
0.450507 -0.1900264 -0.25795686 0.001632423 0.13172862 -0.07401978 0.023421502 -0.047098264
-0.32007897 0.26768458 0.04658958 0.44573247 0.07694535 0.14350995 -0.15745696 0.26586723
-0.20507841 0.12768471 0.27571818 -0.1454679 0.15329279 -0.30782977 0.16282582 0.18651633
-0.31384242 -0.28227872 0.05794693 -0.07924419 0.53124976 0.04307161 0.16804892 -0.040898494
0.060445346 0.027324714 0.27555612 0.16192342 -0.31264967 -0.09778848 0.09070494 -0.26417026
0.036136422 -0.30877566 0.21206033 0.21661106 -0.029356617 -0.14546196 -0.14465052 -0.018116077
0.101869255 -0.1901682 0.104932755 0.23752645 0.3098443 0.09752814 0.13419512 -0.20309716
-0.15480158 -0.20466398 0.08033707 0.16293007 0.12772514 -0.019427547 0.101956084 0.11092427
-0.14651553 0.14092028 0.07328897 -0.136436 0.020288588 0.023800142 -0.1547679 0.11976645
-0.47446534 0.16364127 0.1905497 0.22016351 0.030322958 0.18967617 -0.25432256 -0.27114007
-0.13398667 -0.044891547 0.035822153 -0.11947927 0.01294581 -0.007483312 0.04521439 0.015147282
0.06353938 0.021383014 -0.1884224 -0.13722907 0.21607 0.024803024 -0.07306275 0.0031106456
00000000: 6d07 be3d 135a 223d 9332 3fbe 0e05 a2bd
00000010: 9e5d 0cbe 100f 863e 4dbb 7b3a d2fc 493d
00000020: 25c1 b2be 4a59 923d 204d bbbd 052a 323e
00000030: 59c8 953e b2ca c23e 8c1e bebe e000 89be
00000040: 965e 92be db28 403d a792 a43d 1eb7 a8bd
00000050: adfe 99be 5196 8d3e 26fc 9a3e 386a 673e
00000060: 16d5 883e 23db e4bd 0044 9cbd 3679 01be
00000070: 9116 43be 13a4 963e a8bb 043e 3378 3bbe
00000080: 52f0 debe f434 20be f1c5 abbe 2977 873d
00000090: ed6b 83be f3e3 9e3e c3f0 d6bd 69be b7bc
000000a0: afdc 643e a15e da3d 4e01 e83d 4ba4 043c
000000b0: 7137 9bbd 4d54 023e e498 b8bd 7c30 da3e
000000c0: 24df 913d b372 233e 4daa 813e d451 b13e
000000d0: 12bc c2be 99b0 a7be f11f e2be 8616 acbd
000000e0: b486 513e 9fdc d1bb 921b 59bd 4e83 563e
000000f0: ee91 0e3e 294d 5e3d d64f 9abd f54a d7be
00000100: 9ae9 51be 12c3 3cbe a6a4 b0bd 7db0 3f3d
00000110: f0c1 8bbd 6c2b 763e b8fb 9b3e 8a1e de3d
00000120: 4e23 afbe dd28 4c3d 6840 063e e92c cabd
00000130: c3b6 3d3e 8212 e83d 5555 2e3e ccd9 b43d
00000140: d077 353e da97 53be 10c3 3d3e 24c7 a23e
00000150: e47f 01be 675a aebe f667 d63e 793b 7b3e
00000160: a639 7fbe e048 a7bd 6ba6 dabe 60ad 3d3d
00000170: 8940 8dba 7d98 103e 9a11 92bb 6897 1d3e
00000180: 26e6 813e ec15 e43d 3d0a 08be 6c26 103e
00000190: c3c0 e9bd 6dc3 04be 77ed 9d3d 5054 cfbe
000001a0: 96d1 ed3e b8b4 a43b 2ef9 0e3e 7e67 c4bd
000001b0: dc9c b33d a388 5c3e fbb5 de3d 8d5d 673e
000001c0: 0a72 04be f0d8 ca3d 3811 203e c5f1 91bc
000001d0: b497 3ebd 6400 9c3b 4fa3 cdbc 8b2a 513c
000001e0: 7630 953d 58b9 3b3e eb3d a23e cdbd 213b
000001f0: 94e0 11be 4934 8dbb 0780 913e 5880 b93d
00000200: 7690 a43c 7e57 3bbe e0c9 313d 3913 ae3e
00000210: 096f 503d 1c74 a5bc 93ee 5a3e 2726 f43e
00000220: 8118 22be 9f86 8bbe 6204 893d 98d3 09bd
00000230: 910f ed3e 4805 ffbc c3d6 c33e ccd9 003e
00000240: de57 04bf 423d 90be 8762 2cbe 53f1 393e
00000250: 9792 babd 92cd 18be 0bcd 4dbd 691a ac3d
00000260: 33e3 753e 2ce8 dcbe afb3 2d3e 0de3 043f
00000270: bb55 0bbd 6b75 55be 92fd 353e c471 b63d
00000280: daa8 e63e 4896 42be ec12 84be 07f7 d53a
00000290: dee3 063e af97 97bd 73de bf3c 1cea 40bd
000002a0: 64e1 a3be f40d 893e b7d4 3e3d 0c37 e43e
000002b0: 8695 9d3d 46f4 123e 663c 21be c01f 883e
000002c0: 1300 52be c8bf 023e ef2a 8d3e 8af5 14be
000002d0: c9f8 1c3e dd9b 9dbe d0bb 263e 23fe 3e3e
000002e0: f4af a0be d686 90be c359 6d3d c74a a2bd
000002f0: fcff 073f db6b 303d 0415 2c3e 2e85 27bd
00000300: 8a95 773d 14d8 df3c b115 8d3e 41cf 253e
00000310: 9e13 a0be 5445 c8bd 83c3 b93d 5341 87be
00000320: c903 143d d817 9ebe 5826 593e 4acf 5d3e
00000330: 4a7d f0bc fbf3 14be 441f 14be 2b68 94bc
00000340: d4a0 d03d 74bb 42be fce6 d63d 223a 733e
00000350: e9a3 9e3e d5bc c73d 726a 093e b4f8 4fbe
00000360: 4e84 1ebe 6f93 51be c387 a43d 24d7 263e
00000370: 61ca 023e 8526 9fbc 5ace d03d 432c e33d
00000380: 2b08 16be 684d 103e 8718 963d e1b5 0bbe
00000390: 4134 a63c 84f8 c23c 7a7b 1ebe 1d48 f53d
000003a0: 1fed f2be 9491 273e 761f 433e 8b72 613e
000003b0: da67 f83c 783a 423e 9136 82be dfd2 8abe
000003c0: cd33 09be 33e0 37bd 40ba 123d 8cb1 f4bd
000003d0: aa1a 543c 9236 f5bb b932 393d 4e2c 783c
000003e0: ef20 823d 6e2b af3c cdf1 40be c785 0cbe
000003f0: 7441 5d3e b62f cb3c eca1 95bd f9db 4b3b

layer1_2vm.0.bias f4 [16]
-0.0042646173 -0.021157768 0.028260052 -0.029913167 -0.012176332 -0.001442357 -0.07871298 0.011658599
0.040136807 -0.0431816 -0.014966314 -0.0050292793 -0.02916813 0.039568823 -0.05587622 0.015066167
00000000: 34be 8bbb 0e53 adbc a081 e73c 750c f5bc
00000010: 3d7f 47bc 780d bdba 4534 a1bd b503 3f3c
00000020: 7e66 243d 30df 30bd 4535 75bc a7cc a4bb
00000030: 01f2 eebc eb12 223d 77de 64bd 16d8 763c

layer1_2vm.2.weight f4 [16]
0.9827529 1.0176423 1.0206683 0.97169024 1.0270859 0.99883455 0.9405374 0.992331
1.0121783 0.9476747 0.9746261 0.98172086 1.0146726 1.0522486 0.9509351 1.0469842
00000000: b295 7b3f 1a42 823f 42a5 823f b1c0 783f
00000010: 8d77 833f 9fb3 7f3f 0fc7 703f 6809 7e3f
00000020: 0f8f 813f cf9a 723f 1981 793f 0f52 7b3f
00000030: cbe0 813f 15b0 863f 7c70 733f 9403 863f

layer1_2vm.2.bias f4 [16]
-0.055163912 0.025019418 0.03009401 -0.040193416 0.0154774 -0.0043479875 -0.08246225 0.011308263
-0.0039052526 -0.05866765 0.02368021 -0.005664569 0.0097004045 0.062217563 -0.035600845 0.064990096
00000000: 8ef3 61bd 86f5 cc3c b787 f63c daa1 24bd
00000010: ec94 7d3c 9079 8ebb f8e1 a8bd 4b46 393c
00000020: 44ef 7fbb 7d4d 70bd 00fd c13c d99d b9bb
00000030: 72ee 1e3c d8d7 7e3d 31d2 11bd 8719 853d

layer1_2vm.2.running_mean f4 [16]
0.07124318 -0.22102533 0.312391 0.64579886 0.4658313 0.40777996 0.09969236 -0.14164145
0.1841983 0.06825126 -0.022350123 -0.28772917 0.1205784 0.31992292 -0.27088144 -0.3850853
00000000: f2e7 913d 7754 62be b7f1 9f3e 1353 253f
00000010: 7181 ee3e 89c8 d03e 822b cc3d 750a 11be
00000020: 7b9e 3c3e 51c7 8b3d 9b17 b7bc 3d51 93be
00000030: cff1 f63d f0cc a33e f9b0 8abe e729 c5be

layer1_2vm.2.running_var f4 [16]
0.5370113 0.8216541 0.8565508 0.43552563 1.433166 0.73641104 0.38360757 0.2209343
0.48977336 0.8454435 0.81932974 1.3329159 0.6539208 0.42560083 0.4321293 0.7848353
00000000: 9379 093f ec57 523f ea46 5b3f 37fd de3e
00000010: fc71 b73f 6f85 3c3f 3668 c43e 9a3c 623e
00000020: 93c3 fa3e fc6e 583f 98bf 513f fd9c aa3f
00000030: 5b67 273f 5ae8 d93e 0d40 dd3e f7ea 483f

layer2.0.weight f4 [16, 32]
0.073672414 0.060963314 -0.00047251527 -0.11467266 -0.24901167 -0.19211143 0.027870065 0.28150463
0.27522105 0.00026150836 0.13764952 -0.0496697 0.30889437 0.0455089 0.1282795 -0.1864888
-0.074539445 0.23014778 -0.35339025 0.23900467 -0.020664785 -0.044914708 -0.06387116 -0.35325918
0.31849107 0.2188931 0.0115053365 -0.016656807 -0.33004612 -0.1410426 -0.4954888 -0.17180735
0.2270103 -0.015302364 -0.22854272 -0.03872939 -0.20573922 0.29786262 0.13885918 0.064090215
0.09136849 -0.24858488 0.1424328 0.04989897 0.064614326 0.2546442 0.15778096 -0.09800067
-0.2099329 -0.012561731 0.11281765 0.19933684 0.10686457 -0.3590237 0.3203017 -0.07014652
0.57513386 -0.18146299 -0.099405065 0.17116845 -0.37536797 -0.02499618 0.4478501 -0.008113681
-0.39969575 -0.26545587 0.039382372 -0.2667749 0.011366849 0.34863815 0.17374457 0.07048491
0.27642754 -0.19338028 -0.1238866 -0.19639184 0.21786991 0.46136144 -0.21167418 0.10591081
-0.05019616 -0.017059585 0.29369712 0.06425906 0.25419495 0.22815037 -0.06465928 0.056301378
0.034394275 0.05387136 -0.11646073 0.13545911 0.09312811 -0.13674401 -0.028023163 -0.29462865
-0.20666742 -0.053685814 -0.11221775 0.0019178498 -0.12482527 -0.21445268 0.09320609 0.33108196
-0.2924418 -0.046742477 0.004337699 -0.09636235 0.19216973 -0.04425462 -0.3262708 0.19337127
0.037765235 0.049528528 -0.053093955 -0.3299057 -0.090266205 -0.34183514 0.12852336 0.022183128
0.14374033 0.039031703 0.041936576 0.22103858 0.13908301 -0.14298454 0.10972303 0.079728775
0.15305075 -0.18685725 0.057922564 0.06662269 0.19554882 -0.18599315 -0.2219865 0.07726149
0.077829674 -0.05276209 -0.3850347 -0.069085374 0.109634705 0.23815928 0.035046328 -0.13006274
0.0380528 0.11410784 0.19338816 -0.065963484 0.24442664 0.076807864 0.06915531 -0.20306319
-0.055112336 -0.20294291 -0.33176413 -0.123959616 0.14023755 0.0059764753 -0.1409952 -0.28167492
-0.15496342 0.043163188 0.3434065 -0.053022373 -0.19887953 0.5240972 0.094250925 0.30796766
0.18946287 -0.23644052 -0.1950847 0.01878858 0.6874361 0.22607532 -0.02062487 -0.23007725
-0.27687204 -0.39634708 0.047044255 0.036061283 0.060499266 -0.5773433 0.13218682 0.38423845
0.22030385 -0.073827244 -0.15835534 0.058758784 0.16170499 -0.15132584 0.06573649 0.038335755
0.15012765 -0.114478074 0.11015044 -0.47422424 0.119231105 -0.20476358 -0.17361699 0.036139503
0.27557486 -0.17433678 0.042012915 0.17195934 -0.033894625 0.0007177337 -0.09595993 -0.060034614
-0.018840704 -0.1014912 0.27767858 -0.13185318 -0.03593151 0.0087198485 0.15625939 -0.38886115
-0.45740908 0.02026184 0.08126267 -0.12209271 0.06536425 0.07935075 0.07655925 -0.14326471
0.030161362 0.14699233 0.03992845 -0.22326386 0.09193649 -0.27960494 -0.14626938 -0.035378512
-0.15905729 -0.11660392 -0.0592289 0.3809521 0.37108797 -0.1649195 0.19753787 -0.05973102
-0.17129457 0.0257744 0.2854536 -0.05872089 0.23586123 0.057782494 -0.14398853 -0.16849561
0.10326443 -0.27351275 -0.0151227135 -0.00832695 0.20676267 0.05915833 0.11099538 -0.11613009
00000000: 90e1 963d abb4 793d edbb f7b9 80d9 eabd
00000010: eafc 7ebe dcb8 44be c34f e43c 6021 903e
00000020: c6e9 8c3e 0f1b 8939 fff3 0c3e 7572 4bbd
00000030: 6727 9e3e 8a67 3a3d b45b 033e ecf6 3ebe
00000040: 23a8 98bd dcab 6b3e 91ef b4be a4bd 743e
00000050: 3249 a9bc 7cf8 37bd e2ce 82bd 63de b4be
00000060: 4311 a33e 8325 603e e180 3c3c db73 88bc
00000070: cefb a8be 796d 10be b5b0 fdbe 44ee 2fbe
00000080: 6375 683e c4b6 7abc 1a07 6abe b5a2 1ebd
00000090: 4dad 52be 7381 983e 1a31 0e3e bb41 833d
000000a0: 671f bb3d 098d 7ebe e7d9 113e dd62 4c3d
000000b0: 8454 843d b960 823e 5591 213e 93b4 c8bd
000000c0: a6f8 56be b8cf 4dbc f10c e73d f51e 4c3e
000000d0: d0db da3d f4d1 b7be 96fe a33e fba8 8fbd
000000e0: f93b 133f 6fd1 39be e294 cbbd c846 2f3e
000000f0: 3b30 c0be cac4 ccbc 9c4c e53e 3fef 04bc
00000100: eca4 ccbe d5e9 87be 694f 213d b896 88be
00000110: 053c 3a3c b380 b23e 19ea 313e 645a 903d
00000120: e987 8d3e 7b05 46be 42b8 fdbd f11a 49be
00000130: 4a19 5f3e 9137 ec3e 1ec1 58be c4e7 d83d
00000140: 7d9a 4dbd 8bc0 8bbc 785f 963e 419a 833d
00000150: d725 823e 40a0 693e 166c 84bd 469c 663d
00000160: 03e1 0c3d 37a8 5c3d f782 eebd cbb5 0a3e
00000170: f3b9 be3d 9f06 0cbe d590 e5bc 91d9 96be
00000180: a0a0 53be a8e5 5bbd 6bd2 e5bd 5c60 fb3a
00000190: 64a4 ffbd 7c99 5bbe d6e2 be3d 9383 a93e
000001a0: eeba 95be 0a75 3fbd 4223 8e3b a059 c5bd
000001b0: 24c8 443e 5544 35bd f70c a7be 1e03 463e
000001c0: b8af 1a3d 6dde 4a3d 0c79 59bd 66e9 a8be
000001d0: 7ddd b8bd 0405 afbe a19b 033e 64b9 b53c
000001e0: aa30 133e b5df 1f3d b0c5 2b3d f057 623e
000001f0: c76b 0e3e 8a6a 12be 78b6 e03d d748 a33d
00000200: 56b9 1c3e 8257 3fbe 3640 6d3d 7a71 883d
00000210: f33d 483e fd74 3ebe 6e50 63be 463b 9e3d
00000220: 2a65 9f3d 101d 58bd 4523 c5be a27c 8dbd
00000230: 2988 e03d 07e0 733e bd8c 0f3d 2b2f 05be
00000240: 41dd 1b3d 5fb1 e93d 8c07 463e dd17 87bd
00000250: fa4a 7a3e 714d 9d3d 4da1 8d3d ccef 4fbe
00000260: 79bd 61bd 44d0 4fbe fddc a9be 8ade fdbd
00000270: 6f9a 0f3e 4fd6 c33b 0c61 10be b237 90be
00000280: bbae 1ebe e2cb 303d fad2 af3e fd2d 59bd
00000290: 13a7 4bbe 3c2b 063f a106 c13d f0ad 9d3e
000002a0: 8e02 423e 771d 72be 49c4 47be 82ea 993c
000002b0: d0fb 2f3f 4a80 673e 7df5 a8bc 5f99 6bbe
000002c0: 2cc2 8dbe 01ee cabe 7ab1 403d ffb4 133d
000002d0: 14ce 773d c5cc 13bf fb5b 073e e7ba c43e
000002e0: 5597 613e bd32 97bd e727 22be 0dad 703d
000002f0: fe95 253e 29f5 1abe daa0 863d f405 1d3d
00000300: 10bb 193e 7b73 eabd 8e96 e13d 85cd f2be
00000310: 702f f43d 8bad 51be a7c8 31be 0407 143d
00000320: 2618 8d3e 5785 32be bc15 2c3d 1c16 303e
00000330: 17d5 0abd 4b26 3c3a a486 c4bd dbe6 75bd
00000340: d257 9abc 9eda cfbd e32b 8e3e 8504 07be
00000350: eb2c 13bd b2dd 0e3c 7602 203e cf18 c7be
00000360: 8631 eabe 29fc a53c 0b6d a63d be0b fabd
00000370: b1dd 853d a582 a23d 19cb 9c3d fcb3 12be
00000380: f614 f73c 2885 163e 048c 233d 489f 64be
00000390: 3349 bc3d 6128 8fbe a4c7 15be 0fe9 10bd
000003a0: eadf 22be 09ce eebd 019a 72bd 270c c33e
000003b0: 3eff bd3e a8e0 28be 5e47 4a3e 84a8 74bd
000003c0: d867 2fbe d624 d33c f926 923e 5185 70bd
000003d0: 9b85 713e 56ad 6c3d bb71 13be 1d8a 2cbe
000003e0: 4d7c d33d dd09 8cbe 42c5 77bc c26d 08bc
000003f0: 98b9 533e 0150 723d 8c51 e33d 9dd5 edbd

layer2.0.bias f4 [16]
-0.06888025 -0.03686818 -0.025143946 -0.004444721 -0.033835094 0.050425474 -0.027675768 -0.004664382
-0.030413715 0.017488305 -0.05084576 0.06877408 -0.04512347 -0.05283084 0.063427955 0.069810264
00000000: 1711 8dbd 1703 17bd adfa cdbc 06a5 91bb
00000010: ab96 0abd f18a 4e3d 4bb8 e2bc acd7 98bb
00000020: 2f26 f9bc a243 8f3c a543 50bd 6dd9 8c3d
00000030: 63d3 38bd 2765 58bd 84e6 813d aff8 8e3d

layer2.2.weight f4 [16]
0.9171286 0.955172 0.99074847 0.94986504 1.0768489 1.0688841 0.9683733 0.9858659
0.9910493 0.9316552 1.0661057 0.92340475 1.0680083 1.0691508 1.0768613 1.044506
00000000: f1c8 6a3f 2786 743f b1a1 7d3f 5b2a 733f
00000010: 2fd6 893f 32d1 883f 50e7 773f b561 7c3f
00000020: 68b5 7d3f f580 6e3f 2776 883f 4164 6c3f
00000030: 7fb4 883f efd9 883f 97d6 893f 5fb2 853f

layer2.2.bias f4 [16]
-0.084189884 -0.047299206 -0.018993838 -0.034906738 0.07410252 0.06624875 -0.03440796 0.009200873
-0.003372522 -0.074306756 0.06618608 -0.06805188 0.06882535 0.07021383 0.06969937 0.053470463
00000000: bf6b acbd d0bc 41bd f798 9bbc 5efa 0ebd
00000010: 10c3 973d 6dad 873d 5cef 0cbd 42bf 163c
00000020: 8805 5dbb 242e 98bd 918c 873d c95e 8bbd
00000030: 4ef4 8c3d 45cc 8f3d 8bbe 8e3d d803 5b3d

layer2.2.running_mean f4 [16]
-0.26154065 0.42522162 0.18282157 -0.2964095 -0.29881102 0.42126426 -0.4040418 0.12107672
-1.1098008 0.025698094 -0.5476765 0.1100762 -0.797025 -0.7480067 0.81496084 0.5541724
00000000: a8e8 85be a6b6 d93e 9435 3b3e fcc2 97be
00000010: c2fd 98be f3af d73e 91de cebe 12f7 f73d
00000020: f40d 8ebf cf84 d23c 8734 0cbf a16f e13d
00000030: d509 4cbf 5e7d 3fbf 46a1 503f 3ede 0d3f

layer2.2.running_var f4 [16]
0.74944985 0.795549 0.6737717 0.49492848 0.44194683 0.9549785 0.72147155 0.42705888
1.059048 0.7434192 0.83525103 0.59043884 0.80594283 0.58160573 1.2672247 0.5622924
00000000: f2db 3f3f 19a9 4b3f 4d7c 2c3f 4467 fd3e
00000010: db46 e23e 7979 743f 5cb2 383f 76a7 da3e
00000020: e38e 873f b850 3e3f 03d3 553f 0027 173f
00000030: 4552 4e3f 1de4 143f 6b34 a23f 65f2 0f3f

fc_advantage.0.weight f4 [20, 16]
0.03308174 0.30410638 0.56503046 0.11273844 0.085285775 0.6391186 0.13889596 -0.1365942
-0.41639888 0.17940634 0.060521353 0.1426343 -0.049811795 0.122070804 0.27985322 0.25041923
0.5120877 -0.44069934 -0.4070495 -0.116511665 0.46622854 0.36133426 0.3352763 0.07728391
0.23026468 -0.2748222 0.014969885 0.3480781 0.060750812 0.28320608 -0.25224775 -0.016861234
0.16445866 -0.0737946 0.51011765 0.2983347 0.16673757 0.63924664 0.30327138 0.071781546
0.1776117 0.3095254 0.2850504 -0.25885573 -0.29323924 0.3462877 0.56986344 0.37045285
0.23748983 -0.19812508 0.009181476 0.25203586 0.21919018 -0.17228897 0.35783306 -0.25566885
0.25106013 -0.02270348 0.1686626 -0.31660086 -0.04471737 -0.009311182 0.011898573 0.14779556
-0.30095792 -0.1585901 0.15939525 -0.25792357 0.0856132 0.16399886 0.15082511 -0.0542341
-0.08720334 0.37246215 0.40881765 0.19910729 0.12371258 0.1270185 0.13743624 -0.09541554
0.040259957 -0.3358881 0.34215084 -0.17730121 0.09293505 0.3939524 -0.21582256 0.25454772
-0.18609287 0.17096293 0.45836136 0.6516696 0.23489518 -0.12596841 -0.0552062 0.00854466
0.08724336 -0.19036348 -0.2487237 0.020302232 -0.17403856 -0.070389636 0.157759 0.07492169
-0.36258012 0.2602069 0.014053614 -0.13124517 0.24503332 0.28897038 -0.1676461 -0.016440913
0.31260565 0.20590584 -0.09589819 0.110355414 -0.109548636 0.09841934 0.095105425 0.004997514
0.14877462 0.13251537 -0.44730788 0.29346997 -0.21239407 0.09464389 0.032031618 -0.30757445
0.047423735 -0.16486482 0.0019234136 -0.24438389 0.048011195 -0.15247561 0.3898782 0.1227626
0.14490338 -0.22264877 0.13160253 0.1666793 -0.11915995 0.13632429 -0.004727241 -0.22863555
-0.23292035 0.2688281 0.074809454 0.20553401 0.44013253 -0.21467327 -0.37869853 -0.00870122
0.107688956 0.2523343 -0.2078746 -0.38574296 0.11699217 0.2037709 0.14092566 -0.11637742
0.2428331 0.14741245 -0.004094658 0.01638672 0.46884596 -0.19931333 0.065726735 0.5223824
0.2793059 0.1300033 0.0003964509 0.1387918 0.24289386 0.021671956 -0.13551438 -0.11777914
-0.186718 -0.1518008 0.1393284 0.10776398 -0.0015062364 -0.11200899 0.011462135 0.08582733
-0.22932982 -0.13214287 0.37429535 0.27676848 0.07329856 -0.22949493 0.4343323 0.37300292
0.014497353 0.3094496 0.26074514 0.19618769 0.2096379 -0.07704046 -0.2674864 -0.2591823
0.43377432 -0.047943424 -0.100942425 0.038948506 -0.0049137264 -0.14311858 0.2602204 -0.3154207
0.11661162 -0.27162993 0.08436545 -0.03924923 -0.30760998 -0.105162755 -0.33910286 0.19009785
-0.2701442 0.3215593 -0.029819734 0.10548734 -0.026398133 0.05234786 -0.54450846 -0.27593458
-0.014304644 0.23920484 -0.053161677 -0.24876599 -0.3219923 0.17524222 -0.24204881 -0.40302557
-0.25521293 0.029224038 -0.40044448 0.2789808 0.18334684 0.21466137 -0.1323576 -0.07422567
0.14792201 -0.35506964 0.5005887 0.47982135 -0.32984447 -0.3051323 -0.19033913 0.09939434
0.100187235 0.00038069705 0.025861425 0.21943809 -0.07042992 -0.16130772 -0.19931634 0.058529716
00000000: b880 073d d5b3 9b3e d6a5 103f 69e3 e63d
00000010: 4faa ae3d 479d 233f be3a 0e3e 5adf 0bbe
00000020: 3c32 d5be 4cb6 373e 3de5 773d ba0e 123e
00000030: 7407 4cbd 4200 fa3d ec48 8f3e f336 803e
00000040: 2e18 033f 58a3 e1be cb68 d0be ab9d eebd
00000050: 82b5 ee3e ce00 b93e 56a9 ab3e 0747 9e3d
00000060: 81ca 6b3e 7fb5 8cbe 4044 753c 4b37 b23e
00000070: d8d5 783d 6300 913e 9e26 81be 9220 8abc
00000080: da67 283e a021 97bd 1297 023f 53bf 983e
00000090: 41bd 2a3e aba5 233f 6346 9b3e 3402 933d
000000a0: d7df 353e 1d7a 9e3e 20f2 913e bd88 84be
000000b0: 7423 96be 9f4c b13e 92e2 113f ffab bd3e
000000c0: 8930 733e 4de1 4abe e76d 163c d80a 813e
000000d0: 6473 603e 856c 30be e535 b73e 07e7 82be
000000e0: f48a 803e a6fc b9bc e3b5 2c3e 8219 a2be
000000f0: 9029 37bd ee8d 18bc 3bf2 423c b857 173e
00000100: 2817 9abe 7165 22be 8238 233e 8f0e 84be
00000110: f955 af3d 51ef 273e e671 1a3e 9324 5ebd
00000120: aa97 b2bd 5cb3 be3e 8c50 d13e c8e2 4b3e
00000130: 055d fd3d 2311 023e 16bc 0c3e 3969 c3bd
00000140: a0e7 243d 86f9 abbe 652e af3e 738e 35be
00000150: bb54 be3d 21b4 c93e 9700 5dbe 1454 823e
00000160: 218f 3ebe e810 2f3e 57ae ea3e d2d3 263f
00000170: 5d88 703e ddfd 00be e51f 62bd e7fe 0b3c
00000180: a6ac b23d a5ee 42be 6db1 7ebe de50 a63c
00000190: 2a37 32be 7128 90bd 938b 213e 8b70 993d
000001a0: 1aa4 b9be d739 853e 2141 663c 2265 06be
000001b0: 04ea 7a3e edf3 933e 6bab 2bbe 18af 86bc
000001c0: d90d a03e fbd8 523e 4566 c4bd 0502 e23d
000001d0: 095b e0bd 1490 c93d a2c6 c23d 30c2 a33b
000001e0: 6058 183e 1cb2 073e 8a05 e5be b241 963e
000001f0: d57d 59be a8d4 c13d 9633 033d 667a 9dbe
00000200: 643f 423d 53d2 28be 0d1b fc3a c53f 7abe
00000210: 63a7 443d 9122 1cbe 1e9e c73e f56a fb3d
00000220: 8d61 143e 0afe 63be d0c2 063e faad 2a3e
00000230: 220a f4bd 9898 0b3e f9e6 9abb 701f 6abe
00000240: ac82 6ebe d6a3 893e b335 993d 8277 523e
00000250: 0d59 e13e 4fd3 5bbe c6e4 c1be 908f 0ebc
00000260: 078c dc3d f631 813e 14dd 54be 1a80 c5be
00000270: 9799 ef3d 52a9 503e d14e 103e 4957 eebd
00000280: 3da9 783e 4af3 163e 7b2c 86bb 713d 863c
00000290: 940c f03e cb18 4cbe bd9b 863d daba 053f
000002a0: 2f01 8f3e 961f 053e bdda cf39 701f 0e3e
000002b0: 2bb9 783e 6389 b13c 48c4 0abe 3136 f1bd
000002c0: 0133 3fbe ab71 1bbe 1bac 0e3e 5db3 dc3d
000002d0: e86c c5ba f864 e5bd aecb 3b3c 3dc6 af3d
000002e0: 70d5 6abe 7650 07be a4a3 bf3e 99b4 8d3e
000002f0: 8e1d 963d b800 6bbe ce60 de3e 3dfa be3e
00000300: 4e86 6d3c 2e70 9e3e 6380 853e 6de5 483e
00000310: 51ab 563e 64c7 9dbd faf3 88be 8bb3 84be
00000320: ab17 de3e 5360 44bd e7ba cebd 7888 1f3d
00000330: 5303 a1bb ad8d 12be 9c3b 853e d27e a1be
00000340: 13d2 ee3d 1413 8bbe cbc7 ac3d cdc3 20bd
00000350: 0e7f 9dbe 925f d7bd e49e adbe 03a9 423e
00000360: 5750 8abe 6ca3 a43e 8448 f4bc bf09 d83d
00000370: e640 d8bc b66a 563d e864 0bbf 4c47 8dbe
00000380: 075e 6abc 1df2 743e 0fc0 59bd 83bc 7ebe
00000390: 2ddc a4be b272 333e a5db 77be 5e59 cebe
000003a0: 45ab 82be 4067 ef3c 0f07 cdbe 92d6 8e3e
000003b0: 46bf 3b3e 31d0 5b3e c088 07be a103 98bd
000003c0: de78 173e b0cb b5be 9526 003f 25ab f53e
000003d0: 60e1 a8be 4d3a 9cbe 43e8 42be 428f cb3d
000003e0: f72e cd3d 4b98 c739 57db d33c 61b4 603e
000003f0: 903d 90bd da2d 25be 9519 4cbe dbbc 6f3d

fc_advantage.0.bias f4 [20]
0.06835614 0.08064487 0.096572116 0.06835614 0.06835614 0.06835614 0.06835614 0.06835614
0.06835614 0.06835614 0.07317354 0.06835614 -0.056906432 -0.058333505 -0.05929775 -0.017189255
-0.06026944 0.07981333 0.08087197 0.06835614
00000000: 4efe 8b3d 2329 a53d 9ac7 c53d 4efe 8b3d
00000010: 4efe 8b3d 4efe 8b3d 4efe 8b3d 4efe 8b3d
00000020: 4efe 8b3d 4efe 8b3d 02dc 953d 4efe 8b3d
00000030: b816 69bd 1def 6ebd 33e2 72bd 7bd0 8cbc
00000040: 17dd 76bd 2c75 a33d 34a0 a53d 4efe 8b3d

fc_value.0.weight f4 [1, 16]
0.028339706 -0.12187109 -0.13873306 -0.027892184 -0.31528115 -0.47294912 0.14087088 0.1343783
-0.08946298 -0.053705417 -0.445708 0.061753586 -0.5695549 -0.46906987 -0.4701059 -0.11786051
00000000: ac28 e83c 8d97 f9bd 0a10 0ebe 267e e4bc
00000010: 886c a1be 6326 f2be 7540 103e 779a 093e
00000020: 5e38 b7bd 36fa 5bbd d733 e4be 54f1 7c3d
00000030: 5ace 11bf ed29 f0be b8b1 f0be da60 f1bd
