save/client-5/eval.pth (torch, 42501 bytes, 27 tensors)

layer1_task.0.weight f4 [32, 3]
0	0xbe34712f	-0.17621301
1	0x3c7ab806	0.015302664
2	0x3cae4d91	0.02127722
3	0x3ea08a45	0.3135549
4	0xbdb17b5e	-0.086661085
5	0x3e43fd91	0.19139697
6	0x3e14d8b2	0.14535788
7	0x3eb6148d	0.35562554
8	0xbd31510d	-0.043290187
9	0xbdc563c5	-0.0963817
10	0xbea9dc30	-0.33175802
11	0xbdbf2671	-0.09333504
12	0xbf0429b8	-0.5162616
13	0x3e42ccd1	0.19023444
14	0xbe29a394	-0.16566306
15	0x3da54183	0.08069136
16	0x3e20ae21	0.15691425
17	0x3e803cc2	0.25046355
18	0xbde363d3	-0.11103024
19	0x3dd217e3	0.10258462
20	0xbd31357b	-0.043263894
21	0xbd99ad57	-0.07503765
22	0x3dccd98b	0.100024305
23	0xbe6ab6f5	-0.22921355
24	0x3e4d8d30	0.2007339
25	0x3e9ce64a	0.30644447
26	0xbe65baa3	-0.22434478
27	0xbd44852c	-0.047978565
28	0x3e1ddff4	0.15417463
29	0x3da4ddae	0.080500945
30	0xb962cf80	-0.0002163034
31	0x3d85486f	0.06507956
32	0x3db8d3a1	0.0902474
33	0x3eb2c6a0	0.34917164
34	0xbefdec79	-0.49594477
35	0x3f1b6838	0.607059
36	0x3d9ea8ec	0.07747063
37	0xbd37d5a5	-0.04488148
38	0x3da1383e	0.078720555
39	0xbebdc705	-0.37065902
40	0x3e7b86cc	0.2456314
41	0xbd57fa38	-0.05272886
42	0x3a88a0ea	0.0010423933
43	0x3eafc7e7	0.343322
44	0xbeb55a25	-0.35420337
45	0x3da02db0	0.07821214
46	0xbe69d4f3	-0.2283514
47	0xbde6c3c5	-0.11267809
48	0xbf2a60e0	-0.6655407
49	0xbeee3730	-0.4652648
50	0xbeae271f	-0.34014222
51	0x3e7bff86	0.24609193
52	0xbdf789a1	-0.120867975
53	0x3dd944bc	0.10608813
54	0x3ea4482e	0.3208632
55	0x3e43c8c9	0.19119562
56	0x3e4427be	0.19155785
57	0x3dd9b2a6	0.106297776
58	0xbdff590b	-0.124681555
59	0x3e17f491	0.14839388
60	0xbf01e5e0	-0.50741386
61	0xbea83f57	-0.32860824
62	0xbec1db3a	-0.3786257
63	0xbde90c1d	-0.113792636
64	0x3c303fb9	0.01075738
65	0x3d0160e9	0.03158656
66	0x3e584aa6	0.21122226
67	0xbec823b2	-0.39089733
68	0xbe263469	-0.1623093
69	0x3e235b26	0.15952739
70	0x3d1b1e0a	0.037870444
71	0xbe10c3cb	-0.14137189
72	0x3c89a697	0.016803069
73	0x3e37a0f2	0.1793249
74	0x3e9436ea	0.28948146
75	0xbae0b62a	-0.0017144133
76	0x3d5ef88d	0.054436255
77	0x3e1152eb	0.14191787
78	0x3e1af5d2	0.15132836
79	0x3e1f354a	0.15547672
80	0x3f488828	0.7833276
81	0xbe2c3c84	-0.1681996
82	0xbe43f0ba	-0.19134799
83	0xbd8ff5ae	-0.070292816
84	0x3eb1a125	0.34693256
85	0xbda6f738	-0.08152622
86	0xbd0db262	-0.034593947
87	0x3e255630	0.16146159
88	0xbe7fddd8	-0.2498697
89	0xbe120952	-0.14261368
90	0x3e21a4f1	0.15785576
91	0xbe0d7616	-0.13814577
92	0xbcef153f	-0.029184936
93	0x3db3c6e3	0.08778169
94	0xbe98ce72	-0.29845005
95	0xbd017e53	-0.031614613

layer1_task.0.bias f4 [32]
0	0x3b43b197	0.002986049
1	0xbbe6516e	-0.00702875
2	0x3dc767b5	0.097365774
3	0x3c927928	0.017880037
4	0x3cbc2b2f	0.02296981
5	0x3e000fc6	0.12506017
6	0xbc51c838	-0.0128040835
7	0xbc9d46d2	-0.019198809
8	0xbc86eb79	-0.016469704
9	0x3be1dbf3	0.006892675
10	0x3d90b13f	0.07065057
11	0x3db4de6d	0.08831487
12	0xbc963113	-0.018333947
13	0x3ce87868	0.028377727
14	0x3dcbb231	0.09946097
15	0xbca6f924	-0.020382471
16	0xbc3e801d	-0.011627224
17	0x3cddb732	0.027064893
18	0xbd7a69df	-0.061136123
19	0x3d3d10d9	0.046158645
20	0xbbd4b6f8	-0.006491538
21	0x3b2a5931	0.0025993104
22	0x3d1c55ea	0.03816787
23	0x3df580b6	0.1198744
24	0x3cbf718f	0.023369579
25	0x3da1dce6	0.07903461
26	0x3cb23a97	0.021756453
27	0x3c359ae7	0.011084295
28	0xbb968964	-0.004594015
29	0xbd857bd4	-0.06517759
30	0x3de1baf2	0.11021985
31	0xbd5ed8d5	-0.054406006

layer1_task.2.weight f4 [32]
0	0x3f6ffc5a	0.9374443
1	0x3f7e456e	0.9932469
2	0x3f70f0d1	0.94117457
3	0x3f83cf4b	1.0297636
4	0x3f8527ac	1.0402732
5	0x3f795c8b	0.97406834
6	0x3f6b78a6	0.9198097
7	0x3f80c7a9	1.0060931
8	0x3f768a61	0.963049
9	0x3f867885	1.050553
10	0x3f7da0fc	0.9907377
11	0x3f6f5f79	0.93505055
12	0x3f7f23f1	0.9966422
13	0x3f814463	1.0098995
14	0x3f6cd5af	0.92513555
15	0x3f80bcbc	1.0057597
16	0x3f84a05e	1.036144
17	0x3f73e58b	0.9527213
18	0x3f7867b6	0.9703325
19	0x3f737cd5	0.95112354
20	0x3f8cc5cc	1.0997863
21	0x3f849890	1.0359058
22	0x3f750334	0.9570801
23	0x3f71a279	0.9438854
24	0x3f80d7b1	1.0065824
25	0x3f71cbb2	0.9445144
26	0x3f6957f2	0.9114982
27	0x3f8885a9	1.066579
28	0x3f74e6fc	0.95664954
29	0x3f8318df	1.0241965
30	0x3f7551f3	0.9582817
31	0x3f7b6ab8	0.98209715

layer1_task.2.bias f4 [32]
0	0xbdac4d1b	-0.08413144
1	0xbd01708d	-0.031601477
2	0x3c7a1cfe	0.015265701
3	0x3d8794eb	0.06620201
4	0x3d95f8c1	0.07322837
5	0x3da030c1	0.07821799
6	0xbdbb31dd	-0.0914037
7	0x3ced4174	0.028961875
8	0xbdb04da5	-0.086085595
9	0x3d951699	0.07279701
10	0x3d94ce4b	0.0726591
11	0xbb399159	-0.0028315394
12	0xbcbc5554	-0.022989906
13	0x3d5a4788	0.053290874
14	0x3d159d6b	0.03652708
15	0x3cb5be4a	0.022185463
16	0x3d708481	0.058720116
17	0xbc651d8e	-0.013984097
18	0xbd9f82be	-0.07788609
19	0xbc3bf005	-0.011470799
20	0x3e01d0c7	0.12677298
21	0x3d629db2	0.05532617
22	0xbbdae8a6	-0.006680566
23	0x3d4d29fa	0.05008886
24	0x3c6fe38d	0.014641655
25	0x3d19d947	0.037560727
26	0xbd67b0b8	-0.056565017
27	0x3dda11df	0.1064794
28	0xbd2c9e06	-0.04214289
29	0xbd02dc48	-0.031948358
30	0x3d7ea440	0.06216836
31	0xbd9ad3f6	-0.075599596

layer1_task.2.running_mean f4 [32]
0	0xc6f179ba	-30908.863
1	0x47523393	53811.574
2	0x46ae3c62	22302.191
3	0xc66ca70a	-15145.76
4	0xc79fbaa7	-81781.305
5	0x4662effa	14523.994
6	0xc68a9da9	-17742.83
7	0xc648e863	-12858.097
8	0x46f15b0a	30893.52
9	0xc6052ff4	-8523.988
10	0xc3ee86f0	-477.0542
11	0x47607c31	57468.19
12	0x464c8297	13088.647
13	0xc77b0bf2	-64267.945
14	0xc4458ea5	-790.2288
15	0x46412304	12360.754
16	0xc7d845a0	-110731.25
17	0x471b4f03	39759.01
18	0x47389ec3	47262.76
19	0x46912086	18576.262
20	0xc794f6e5	-76269.79
21	0xc68f2227	-18321.076
22	0x470fefac	36847.67
23	0x46dabbc3	27997.88
24	0x45219a2d	2585.636
25	0x440e4e50	569.22363
26	0x46be0e16	24327.043
27	0xc6dff607	-28667.014
28	0x4757ec10	55276.062
29	0x46d52ad0	27285.406
30	0x46c5f724	25339.57
31	0x467004c4	15361.191

layer1_task.2.running_var f4 [32]
0	0x4f2bd50c	2.8828662e+09
1	0x4fdd5e90	7.427924e+09
2	0x4ebac738	1.5668091e+09
3	0x4e3fc4a8	8.043341e+08
4	0x50c6b81f	2.6671643e+10
5	0x4e2de135	7.293044e+08
6	0x4e902538	1.2091791e+09
7	0x4df7dafd	5.197905e+08
8	0x4f487e20	3.363709e+09
9	0x4d7e6ce5	2.6678434e+08
10	0x494a68f5	829071.3
11	0x5035fb39	1.2212561e+10
12	0x4e1582e0	6.2709555e+08
13	0x503927c1	1.2425561e+10
14	0x4a86430e	4.399495e+06
15	0x4e038d33	5.5176723e+08
16	0x511bd80d	4.183404e+10
17	0x4f9b0ee3	5.202888e+09
18	0x4f8a140d	4.6331397e+09
19	0x4e88cbf3	1.1475337e+09
20	0x50b38cf1	2.4098867e+10
21	0x4e7fb18b	1.0724564e+09
22	0x4f63af79	3.8199278e+09
23	0x4f125209	2.4548498e+09
24	0x4bc7b65e	2.61767e+07
25	0x49bb5cab	1.5348694e+06
26	0x4eede710	1.9956716e+09
27	0x4f1022b3	2.4181932e+09
28	0x502039fb	1.0752617e+10
29	0x4edbb27a	1.8429535e+09
30	0x4f1eb2c0	2.6625147e+09
31	0x4e093de3	5.756336e+08

layer1_1vm.0.weight f4 [64, 40]
0	0xbe0e1b4a	-0.13877597
1	0xbe1eea31	-0.15519024
2	0x3d7016da	0.058615543
3	0xbd9bb674	-0.076031595
4	0xbbd8c012	-0.0066146934
5	0xbe262c63	-0.1622787
6	0xbe3126f9	-0.17300023
7	0x3d6bafe4	0.05754079
8	0xbdfab589	-0.12241656
9	0x3e068013	0.13134794
10	0xbcdd780b	-0.02703478
11	0x3e43003a	0.19043055
12	0x3d8c856c	0.06861386
13	0xbccdc8f4	-0.025120236
14	0x3d7f8896	0.062386118
15	0xbe12976c	-0.14315575
16	0x3e043673	0.12911396
17	0x3e71ddac	0.23619717
18	0x3e5ef576	0.21773323
19	0xbdbd4d10	-0.09243214
20	0xbcdc563f	-0.026896594
21	0xbda90aea	-0.08254035
22	0x3d87e12c	0.06634745
23	0x3e16513c	0.14679426
24	0xbdf2d3e3	-0.118568204
25	0xbac6bffc	-0.0015163417
26	0x3dff13b7	0.12454932
27	0xbe81a2c1	-0.25319484
28	0xbe202662	-0.15639642
29	0xbcc1b841	-0.02364743
30	0xbd9954ca	-0.07486875
31	0xbd928b73	-0.07155504
32	0xbe07ff88	-0.13281071
33	0xbe9ced20	-0.30649662
34	0x3c9bf84e	0.0190393
35	0x3db9f0cd	0.09079132
36	0x3d1e8e4e	0.03870993
37	0xbea15452	-0.31509644
38	0x3d2290e3	0.039688956
39	0xbe4a5a60	-0.19761038
40	0x3e771bd0	0.24131703
41	0x3e01a437	0.12660299
42	0xbe10b0f0	-0.14129996
43	0x3d602842	0.054725893
44	0x3e361ad6	0.17783675
45	0xbd7f6d18	-0.0623599
46	0xbe57aabb	-0.21061222
47	0xbe8248de	-0.25446218
48	0xbd6ab741	-0.05730367
49	0x3de06266	0.10956268
50	0xbd7dcafc	-0.06196116
51	0x3e2241aa	0.15845361
52	0x3c09caea	0.008410195
53	0xbe747470	-0.23872542
54	0xbcefc4eb	-0.029268702
55	0x3d9ce197	0.07660215
56	0xbe6794be	-0.22615334
57	0xbe077da4	-0.13231522
58	0x3d3a2c4f	0.045452412
59	0x3eae9f2c	0.34105814
60	0x3cd6e246	0.026230942
61	0xbdaaf0af	-0.08346688
62	0xbcb33f1e	-0.021880683
63	0x3dcddbbb	0.10051676
64	0xbe3d610d	-0.18494053
65	0xbc90daf6	-0.017682534
66	0x3cf754de	0.030191835
67	0x3d983f5b	0.07433959
68	0xbd867190	-0.06564629
69	0xbd42ac60	-0.04752767
70	0x3d6ef524	0.058339253
71	0xbd4ae142	-0.04953123
72	0xbd336fed	-0.043807913
73	0x3db066da	0.086133674
74	0xbcb50b8a	-0.022100229
75	0x3ba88803	0.005143167
76	0x3d8e9b50	0.06963217
77	0xbddced26	-0.1078742
78	0xbe3ff9a8	-0.1874758
79	0x3db9fc0c	0.09081277
80	0xbd56abac	-0.052409813
81	0xbe379d66	-0.17931136
82	0xbddd0cef	-0.107934825
83	0xbdb00b68	-0.085959256
84	0x3c7bd359	0.015370213
85	0x3c92caf8	0.017919049
86	0xbeaca3b0	-0.33718634
87	0x3d3ff837	0.046867575
88	0x3d949663	0.072552465
89	0x3e71842f	0.2358558
90	0x3dee8d98	0.116481006
91	0x3e7d50d0	0.24737859
92	0x3df045f3	0.11732092
93	0xbe35f3ee	-0.17768833
94	0xbddf04ad	-0.10889564
95	0xbb5229f9	-0.0032068475
96	0xbd72e5aa	-0.059301056
97	0xbd92b98a	-0.07164295
98	0xbdd446d8	-0.10365075
99	0xbe1663be	-0.14686486
100	0xbe526e4f	-0.20549892
101	0x3e0d2c16	0.13786349
102	0xbd52756c	-0.051381513
103	0xbd69f7af	-0.057120975
104	0xbe467c30	-0.19383311
105	0xbe254c34	-0.1614235
106	0x3d892cd4	0.066980034
107	0x3da2f5c0	0.07957029
108	0xbdb6cdec	-0.08925995
109	0x3e07e61e	0.13271376
110	0xbdfd2956	-0.123614
111	0xbbe677a8	-0.007033307
112	0xbd977de9	-0.07397062
113	0xbe580342	-0.21094993
114	0x3dda19fa	0.10649486
115	0x3db34dac	0.08755049
116	0x3dfaca7b	0.12245651
117	0x3e084c31	0.13310315
118	0xbe019b26	-0.1265684
119	0xbd603670	-0.054739416
120	0x3e3e792d	0.18600912
121	0x3ce12294	0.027482308
122	0x3d406dda	0.046979763
123	0xbe11db62	-0.14243844
124	0x3d9e45b9	0.07728142
125	0xbe26cad0	-0.16288304
126	0x3df0f412	0.11765303
127	0xbdd27ecf	-0.10278093
128	0xbe32b1b3	-0.174506
129	0x3e679404	0.22615057
130	0xbdaba247	-0.08380561
131	0x3e2059ce	0.15659258
132	0x3ccaf3b6	0.024774414
133	0xbcbed700	-0.02329588
134	0x3c61a9c0	0.013773382
135	0x3dbee2c9	0.093205996
136	0x3d17d7e3	0.03707112
137	0xbe1748a8	-0.1477381
138	0xbe031123	-0.12799506
139	0x3cd7abc0	0.026327014
140	0x3d9afd3f	0.07567834
141	0xbd3ac8cc	-0.04560165
142	0xbd22a3c4	-0.03970696
143	0x3e046171	0.12927796
144	0x3e5e4770	0.21706939
145	0x3e63a15a	0.2222952
146	0xbda519d4	-0.08061567
147	0x3dc0c92c	0.094133705
148	0x3e469fcf	0.193969
149	0xbde20ccc	-0.11037597
150	0x3e006406	0.12538156
151	0xbdb81cd6	-0.08989875
152	0xbe18fcae	-0.1494014
153	0xbd8ac001	-0.06774903
154	0xbcaabd0e	-0.020842101
155	0x3c5cec45	0.013484065
156	0x3e437800	0.19088745
157	0x3dc220e5	0.094789304
158	0x3def3424	0.11679867
159	0x3e80d741	0.25164226
160	0x3db7fa08	0.089832366
161	0x3e61a024	0.22033745
162	0x3dce28b2	0.10066356
163	0x3d9897cb	0.07450827
164	0xbe737b65	-0.2377754
165	0xbeb78b21	-0.35848334
166	0x3e342644	0.17592722
167	0x3e4696ad	0.19393416
168	0x3de40685	0.11134056
169	0x3e8ca97a	0.2747305
170	0x3d952f99	0.07284469
171	0xbd8f4eec	-0.06997475
172	0x3c69ea70	0.014277086
173	0x3e5c62ee	0.21522114
174	0xbddfe27e	-0.10931872
175	0xbb30c053	-0.0026970103
176	0xbdec739c	-0.11545488
177	0x3cf8a8b6	0.030353885
178	0xbd8152f8	-0.06314653
179	0xbd25630a	-0.040377654
180	0x3e27f648	0.16402543
181	0xbe191df2	-0.1495283
182	0x3e1e901e	0.15484664
183	0x3e648e5f	0.22319935
184	0xbe32ee68	-0.17473757
185	0xbe1d1332	-0.15339354
186	0xbd1eb6c0	-0.038748503
187	0xbd176a3d	-0.03696655
188	0xbdaee448	-0.08539635
189	0x3e26eb96	0.16300806
190	0x3e09b148	0.13446534
191	0x3e07e2f4	0.1327017
192	0x3d1c07cc	0.038093373
193	0xbe2f9245	-0.17145641
194	0x3de701a4	0.1127961
195	0x3df0ed2b	0.11763986
196	0xbe09788b	-0.1342489
197	0x3cc59d1c	0.024122767
198	0xbdcb2f99	-0.09921188
199	0xbcf7c624	-0.030245848
200	0x3e0c25de	0.1368632
201	0xbd4c3e86	-0.049864314
202	0xbea5ed0b	-0.32407412
203	0xbe88c80b	-0.2671512
204	0xbe56e66c	-0.20986336
205	0xbebdb3af	-0.3705115
206	0x3e7ef06c	0.24896401
207	0x3db92a84	0.09041312
208	0xbe706fa3	-0.23480086
209	0xbe6e45ce	-0.23268816
210	0xbd35901c	-0.044326887
211	0xbe868e95	-0.26280656
212	0xbcb2c594	-0.021822728
213	0xbe8c1ec2	-0.27367216
214	0x3d604daf	0.054761585
215	0xbe3650ed	-0.17804308
216	0xbe27fb15	-0.16404374
217	0xbda5272b	-0.08064111
218	0x3d196ac0	0.03745532
219	0xbe0b8a1c	-0.13626903
220	0x3ddba07c	0.10723969
221	0x3db0e741	0.08637858
222	0x3d03d1bb	0.032182436
223	0xbe0f9140	-0.14020252
224	0xbd7ccf43	-0.061721098
225	0xbeb9d04b	-0.36291727
226	0x3e990731	0.298883
227	0xbde0effb	-0.10983273
228	0x3dadb44f	0.08481657
229	0x3d1fc7ff	0.03900909
230	0x3c9aad26	0.018881392
231	0xbe4a6623	-0.19765525
232	0x3d80e95c	0.0629451
233	0xbe28fec4	-0.16503435
234	0xbdc77b2e	-0.097402915
235	0x3d04f306	0.032458328
236	0xbcdb5d3b	-0.026777854
237	0xbdb16aac	-0.08662924
238	0x3d53dfaf	0.051726993
239	0xbcf2fa7e	-0.02966046
240	0xbca8b463	-0.020593828
241	0x3e464807	0.19363414
242	0x3da26701	0.07929803
243	0x3d8a7cc4	0.067620784
244	0xbd7bd30a	-0.06148056
245	0xbe939267	-0.28822634
246	0xbe02baf9	-0.12766637
247	0x3d21cc14	0.039501265
248	0xbe7539b8	-0.23947799
249	0x3c0d3438	0.008618407
250	0xbdafb9dc	-0.08580372
251	0x3d233cae	0.03985279
252	0x3be050ac	0.0068455543
253	0xbe29af36	-0.16570744
254	0xbe1d0539	-0.15334024
255	0xbe276e08	-0.16350567

layer1_1vm.0.bias f4 [64]
0	0x3a964022	0.0011463205
1	0xbc43c68c	-0.011949193
2	0x3bdc118e	0.00671596
3	0x3cda354c	0.026636742
4	0x3c04b3b8	0.008099489
5	0xbd5bbd29	-0.053647194
6	0xbc88f925	-0.016720364
7	0x3c67d8e2	0.01415083
8	0x3bb9c0f2	0.005668753
9	0xbc4d2f20	-0.0125234425
10	0xbc284e8a	-0.010272631
11	0x3d0bd39c	0.034137353
12	0x3b909d25	0.0044132643
13	0xbccd904e	-0.025093224
14	0xbb59bc4c	-0.0033223806
15	0xbc7b6fea	-0.015346507
16	0xbcb6c471	-0.022310467
17	0x3be0bb05	0.006858232
18	0xbc9a79e6	-0.018856954
19	0x3d274971	0.040841524
20	0x3c12e3fa	0.008965487
21	0xbc9766e5	-0.018481681
22	0xbcc81a1f	-0.024426518
23	0xbc54e30f	-0.012993588
24	0xbd0350bd	-0.03205942
25	0xbc5470d5	-0.012966354
26	0x3cc649c3	0.024205094
27	0xbaf3372e	-0.0018555874
28	0x3cf80758	0.03027694
29	0x3cb4ebe7	0.022085143
30	0xbbcf3f7f	-0.006324708
31	0xbb3f7b23	-0.0029217682
32	0x3c6f228e	0.014595641
33	0x3bed2204	0.007236721
34	0xbc9e27fa	-0.019306172
35	0xbc41bf95	-0.011825462
36	0xbc47068a	-0.012147555
37	0x3b7241f2	0.0036965576
38	0x3ba398ba	0.0049925717
39	0x3d2723e3	0.04080571
40	0xbc3162b1	-0.0108267525
41	0x3cbbc379	0.022920357
42	0x3b0e43fe	0.0021708007
43	0x3c988bfa	0.018621434
44	0xbccafab4	-0.024777748
45	0xbcdf7e20	-0.02728182
46	0xbc48b29c	-0.012249615
47	0x3b618241	0.0034409913
48	0xbc280896	-0.010255953
49	0x3a4163f8	0.0007377262
50	0x3b9285da	0.0044715228
51	0xbc1930da	-0.009350026
52	0xbc37c35f	-0.011216014
53	0x3cf530fc	0.029930584
54	0xbc92c72d	-0.01791724
55	0x3b978a9e	0.0046246788
56	0x3b8806b8	0.0041511916
57	0xbcb44746	-0.022006642
58	0x3bc8aa1a	0.0061237933
59	0xbd2a5f1f	-0.04159462
60	0x3c12271f	0.00892046
61	0x3c2c6662	0.010522457
62	0x3b9ab252	0.0047209645
63	0x3cbc37ca	0.022975821

layer1_1vm.2.weight f4 [64]
0	0x3f81bc69	1.0135623
1	0x3f7b8e4b	0.98263997
2	0x3f7d9774	0.99059224
3	0x3f81e0c0	1.0146713
4	0x3f8134e9	1.0094272
5	0x3f84076a	1.0314763
6	0x3f81df11	1.01462
7	0x3f809a4e	1.004709
8	0x3f788793	0.9708187
9	0x3f817dd5	1.0116526
10	0x3f84fb1f	1.0389136
11	0x3f838415	1.0274683
12	0x3f80cac5	1.006188
13	0x3f84256a	1.0323918
14	0x3f771084	0.96509576
15	0x3f7f0ba5	0.99627143
16	0x3f8287ca	1.019769
17	0x3f7f81b4	0.99807286
18	0x3f80f902	1.0075991
19	0x3f81a0ae	1.012716
20	0x3f6b407b	0.91895264
21	0x3f81d436	1.0142887
22	0x3f83534b	1.0259794
23	0x3f7c08f7	0.9845118
24	0x3f81e8cf	1.0149173
25	0x3f83662f	1.0265559
26	0x3f83b3e0	1.0289268
27	0x3f7f3470	0.9968939
28	0x3f826054	1.0185647
29	0x3f8170b4	1.0112519
30	0x3f864bb3	1.0491852
31	0x3f7f8bf9	0.99822956
32	0x3f7acec6	0.9797176
33	0x3f80997f	1.0046843
34	0x3f857308	1.042573
35	0x3f833b53	1.0252479
36	0x3f836d36	1.0267704
37	0x3f7670ab	0.9626567
38	0x3f7ce0bf	0.98780435
39	0x3f7e7a24	0.9940512
40	0x3f846265	1.0342528
41	0x3f81a4ec	1.0128455
42	0x3f82f7be	1.0231855
43	0x3f789171	0.97096926
44	0x3f828b62	1.0198786
45	0x3f7e9cf7	0.9945826
46	0x3f80a8a0	1.005146
47	0x3f75ae39	0.9596897
48	0x3f85b7a1	1.0446664
49	0x3f77011a	0.96486056
50	0x3f7cc6f3	0.9874107
51	0x3f7f1ac0	0.9965019
52	0x3f777c25	0.96673805
53	0x3f7fb606	0.9988712
54	0x3f7d8ffb	0.9904782
55	0x3f833e75	1.0253435
56	0x3f7de15b	0.9917199
57	0x3f807846	1.0036705
58	0x3f7f1f92	0.9965755
59	0x3f816c0c	1.0111098
60	0x3f825141	1.0181047
61	0x3f833ac3	1.0252308
62	0x3f7afaaf	0.9803876
63	0x3f7c9a0f	0.98672575

layer1_1vm.2.bias f4 [64]
0	0x3c948ccb	0.018133542
1	0xbc580c8f	-0.013186588
2	0xbbc8da6e	-0.0061295545
3	0x3c95def1	0.018294783
4	0x3c46becb	0.0121304495
5	0x3c8dc1a3	0.017304247
6	0x3c30eab5	0.010798146
7	0xba923322	-0.0011154155
8	0xbd0255a8	-0.03181997
9	0x3c498322	0.012299331
10	0x3d2f7592	0.042836733
11	0x3d0147c9	0.0315626
12	0x3bab35ae	0.005224905
13	0x3d292774	0.04129739
14	0xbd1de811	-0.038551394
15	0xbbc194bd	-0.0059076236
16	0x3c9c70ec	0.019096814
17	0xbaf8d222	-0.0018983523
18	0x3be73b02	0.007056595
19	0x3c94a9df	0.018147407
20	0xbda6b540	-0.081400394
21	0x3c691626	0.014226472
22	0x3ca0a77e	0.019611116
23	0xbc7058bc	-0.014669593
24	0xb9e97a00	-0.0004453212
25	0x3ceb7520	0.028742373
26	0x3cf777e0	0.030208528
27	0xbb216dc4	-0.0024632076
28	0x3ca71062	0.020393554
29	0x3c48c156	0.012253126
30	0x3d51332d	0.051074196
31	0x39f1e638	0.00046138628
32	0xbcab9cf5	-0.020948866
33	0xbbfb9775	-0.007677967
34	0x3d2e034d	0.042483617
35	0x3cc79e1d	0.024367386
36	0x3ce09b24	0.027417727
37	0xbd09967b	-0.033590775
38	0xbc259161	-0.010105462
39	0x3ac43004	0.0014967923
40	0x3d0fbb7e	0.035090916
41	0x3cf90749	0.030398982
42	0x3cc82c8a	0.0244353
43	0xbce3a096	-0.027786534
44	0x3c66beea	0.014083603
45	0xba9010ba	-0.0010991313
46	0x3bcbc2fa	0.0062183114
47	0xbd22b135	-0.03971978
48	0x3d0ee632	0.0348875
49	0xbcf5526a	-0.029946525
50	0xbc36a3a6	-0.011147415
51	0xba114a7c	-0.000554241
52	0xbd1178ef	-0.035515722
53	0x3c3b8684	0.011445645
54	0xbbf8e9a8	-0.0075962134
55	0x3ce1d26a	0.027566154
56	0xbb956d75	-0.0045601674
57	0x3bb6f06e	0.0055828607
58	0x3bef556a	0.0073038833
59	0x39856c60	0.00025448482
60	0x3cb5d92d	0.022198284
61	0x3cb85485	0.02250124
62	0xbc9086d5	-0.017642418
63	0xbc31f7aa	-0.01086227

layer1_1vm.2.running_mean f4 [64]
0	0x4475eb32	983.6749
1	0xc5acfaa3	-5535.3296
2	0xc5bd6098	-6060.074
3	0x4625dbbf	10614.937
4	0xc52a4e56	-2724.896
5	0x453e0f26	3040.9468
6	0xc57eeee7	-4078.9314
7	0x45eb3f0c	7527.881
8	0x45ab6cc3	5485.595
9	0xc5ed7821	-7599.016
10	0xc68bd55d	-17898.682
11	0x4685a97f	17108.748
12	0xc50ffd6d	-2303.839
13	0xc57217ae	-3873.48
14	0xc58dbb44	-4535.408
15	0x458c58c0	4491.0938
16	0xc5cc83aa	-6544.458
17	0xc63d6b0a	-12122.76
18	0xc573b825	-3899.509
19	0x460b5773	8917.862
20	0xc6b45080	-23080.25
21	0xc5befe7e	-6111.8115
22	0x43476be7	199.4215
23	0xc558b2e6	-3467.1812
24	0x45a5c97a	5305.1846
25	0xc54e72e1	-3303.18
26	0xc4d993db	-1740.6205
27	0xc5dd7dde	-7087.7334
28	0x4647ed6f	12795.358
29	0x461a7ea0	9887.656
30	0xc60d142c	-9029.043
31	0x45a9ef01	5437.8755
32	0x45a13062	5158.048
33	0xc559a49b	-3482.2878
34	0x442a3f56	680.9896
35	0xc5acc7c4	-5528.9707
36	0xc62f01fd	-11200.497
37	0xc6c6c647	-25443.139
38	0xc5287df5	-2695.8723
39	0x4689ca02	17637.004
40	0xc699d4b2	-19690.348
41	0x45bcb678	6038.8086
42	0xc62185d4	-10337.457
43	0x457643ef	3940.2458
44	0x4548d49a	3213.2876
45	0xc5d76e4b	-6893.7866
46	0xc5cee067	-6620.0503
47	0xc602a97d	-8362.372
48	0x445f0f0f	892.2353
49	0xc55a69ed	-3494.6204
50	0xc5eaed30	-7517.6484
51	0xc604a4c6	-8489.193
52	0xc4174287	-605.0395
53	0x45d30f79	6753.934
54	0xc5ab27fe	-5476.999
55	0xc579c0e3	-3996.0554
56	0x46cca6b6	26195.355
57	0x45c0ec35	6173.526
58	0x45f9e794	7996.9473
59	0x44d5e4ee	1711.154
60	0x46265c62	10647.096
61	0x4647d6ed	12789.731
62	0xc5acdc2f	-5531.523
63	0xc58bbdfe	-4471.749

layer1_1vm.2.running_var f4 [64]
0	0x496819b8	950683.5
1	0x4ae817e5	7.6052345e+06
2	0x4b1963dc	1.0052572e+07
3	0x4bf2fc64	3.1848648e+07
4	0x4a18a2ae	2.5007795e+06
5	0x4a5b94d4	3.597621e+06
6	0x4a91d9ec	4.779254e+06
7	0x4b596650	1.4247504e+07
8	0x4af31c23	7.9662255e+06
9	0x4b7ed55e	1.6700766e+07
10	0x4ca0031b	8.389244e+07
11	0x4c95205e	7.81852e+07
12	0x49e81eb1	1.9015261e+06
13	0x4a7cd76d	4.1425552e+06
14	0x4abb887f	6.1450875e+06
15	0x4ab0d4f9	5.7944285e+06
16	0x4b2002d5	1.0486485e+07
17	0x4c053dad	3.4928308e+07
18	0x4a6884ce	3.8095875e+06
19	0x4b98ce19	2.0028466e+07
20	0x4cf81ec0	1.300864e+08
21	0x4b21d4bf	1.0605759e+07
22	0x48b7bd30	376297.5
23	0x4a3953d6	3.0364055e+06
24	0x4b0ee690	9.365136e+06
25	0x4a43037b	3.1951028e+06
26	0x49e16983	1.8465764e+06
27	0x4b2f32f6	1.1481846e+07
28	0x4c10e800	3.7986304e+07
29	0x4ba36659	2.1417138e+07
30	0x4ba1a382	2.1186308e+07
31	0x4af69dfd	8.0811505e+06
32	0x4acdbd60	6.74168e+06
33	0x4a5bc63b	3.6007828e+06
34	0x49b5698d	1.4861296e+06
35	0x4aece090	7.761992e+06
36	0x4bef7c07	3.138971e+07
37	0x4d250dfd	1.7307234e+08
38	0x49e69eed	1.8892456e+06
39	0x4c9e7aeb	8.308924e+07
40	0x4cababa5	9.0004776e+07
41	0x4b161bd2	9.837522e+06
42	0x4bcb59cd	2.6653594e+07
43	0x4a732703	3.9838088e+06
44	0x4a4825e2	3.2792245e+06
45	0x4b332399	1.1740057e+07
46	0x4b34345c	1.1809884e+07
47	0x4b8a997f	1.8166526e+07
48	0x49df5f21	1.8298601e+06
49	0x4a74c963	4.0105848e+06
50	0x4b5d78be	1.4514366e+07
51	0x4b8b912c	1.8293336e+07
52	0x48da9853	447682.6
53	0x4b2dac68	1.1381864e+07
54	0x4af0b504	7.88749e+06
55	0x4a835bd4	4.304362e+06
56	0x4d1386fb	1.5469355e+08
57	0x4b2bf147	1.1268423e+07
58	0x4b669217	1.5110679e+07
59	0x49d26540	1.72356e+06
60	0x4bcff522	2.7257412e+07
61	0x4c1c3d56	4.095727e+07
62	0x4af4dc9e	8.023631e+06
63	0x4aa03489	5.2496045e+06

layer1_2vm.0.weight f4 [32, 64]
0	0xbe12c2b4	-0.14332086
1	0x3d8bea75	0.068318285
2	0xbdc115fc	-0.09428021
3	0xbc8fb848	-0.017543927
4	0x3d01d5ea	0.031698145
5	0xbd2f79c4	-0.042840734
6	0x3d3e92a4	0.046526566
7	0x3cc68dee	0.0242376
8	0xbde47849	-0.11155755
9	0xbe558a79	-0.20853604
10	0xbd1d4898	-0.03839931
11	0xbe0e3271	-0.1388643
12	0xbc63444d	-0.013871265
13	0xbe20dd29	-0.15709366
14	0x3e01f523	0.12691168
15	0xbb9aa228	-0.0047190376
16	0x3e35fdab	0.17772548
17	0xbdad1094	-0.08450428
18	0x3e3bf3d2	0.18354729
19	0xbe228c3f	-0.15873812
20	0x3e2e58e5	0.17026098
21	0xbe6937ee	-0.22775242
22	0xbe161698	-0.14657056
23	0x3db92f26	0.09042196
24	0x3e8e84e6	0.27835768
25	0x3b9fced5	0.004876951
26	0x3e31c506	0.17360315
27	0x3ecf4b66	0.40487212
28	0x3e1e39d2	0.15451744
29	0xbe838c52	-0.25692993
30	0x3de32835	0.11091653
31	0x3aa1c46a	0.0012341861
32	0x3c8a32a6	0.016869854
33	0x3da3c589	0.07996661
34	0x3ea02213	0.31275997
35	0x3d5e75e3	0.054311644
36	0xbe41cabf	-0.18924998
37	0x3ccb7a23	0.024838513
38	0x3df889ca	0.12135656
39	0x3e5eb987	0.2175046
40	0x3cd5521b	0.026040128
41	0x3e90c5c8	0.28275895
42	0x3e4b60ea	0.19861189
43	0x3d01fba2	0.031734116
44	0x3e1aebf5	0.15129073
45	0x3d260017	0.04052743
46	0x3de3b816	0.11119096
47	0xbd9ca1dc	-0.0764806
48	0xbe369d52	-0.1783345
49	0x3e235826	0.15951595
50	0xbc915f1a	-0.017745543
51	0xbe2e0bff	-0.16996764
52	0xbd896005	-0.067077674
53	0xbdd77c73	-0.10521784
54	0xbd83a190	-0.064273
55	0x3e98b220	0.298234
56	0x3d9fc5ea	0.07801421
57	0xbc1ef1c4	-0.009701196
58	0xbb833262	-0.004003809
59	0xbd9b5d01	-0.075860985
60	0xbd85daf0	-0.065359
61	0xbd4c0f2f	-0.049819168
62	0x3ea6e758	0.32598376
63	0xbe096dae	-0.13420746
64	0xbde547dc	-0.11195347
65	0xbd9962f3	-0.07489576
66	0xbd49dffb	-0.04928587
67	0xbe78ca7e	-0.24295995
68	0xbe7cde63	-0.24694209
69	0x3e3154ee	0.17317554
70	0xbe072161	-0.13196327
71	0x3d5c0d55	0.053723652
72	0xbda1d9ab	-0.07902845
73	0xbd837ef1	-0.064206965
74	0xbefa8a81	-0.48933795
75	0x3b1b6afa	0.0023714886
76	0xbe64b661	-0.22335197
77	0xbd3744da	-0.044743396
78	0x3d515558	0.05110678
79	0x3e3b10f9	0.18268193
80	0xbea4078a	-0.32037002
81	0xbdcc7273	-0.09982767
82	0x3d3272a4	0.04356636
83	0xbd1b4bd3	-0.03791411
84	0xbc6d58b5	-0.014486481
85	0x3e375508	0.1790353
86	0xbe25b853	-0.16183595
87	0x3e67b323	0.22626929
88	0xbd4f476e	-0.05060523
89	0x3d7a8d48	0.061169893
90	0xbd10189b	-0.035179716
91	0xbda5f5e2	-0.08103539
92	0xbd7e92d7	-0.062151756
93	0xbe0f80b8	-0.14013946
94	0xbe04afcb	-0.12957685
95	0xbe2e34de	-0.17012355
96	0xbe317b72	-0.17332247
97	0x3e497ccd	0.19676514
98	0x3e228095	0.15869363
99	0x3cc83d2e	0.024443235
100	0xbe3ff5ac	-0.1874606
101	0xbd2d104b	-0.042251866
102	0x3d6720c1	0.05642772
103	0x3e51af68	0.20477068
104	0xbecad9f1	-0.396194
105	0xbdd6e617	-0.10493105
106	0x3da33890	0.07969773
107	0xbd906fa3	-0.07052543
108	0xbb7d9bf6	-0.0038697696
109	0x3d109f3f	0.03530812
110	0xbe84e836	-0.25958413
111	0x3da55cf5	0.08074371
112	0x3dd96717	0.10615366
113	0x3cc627d0	0.024188906
114	0xbe475f58	-0.19469965
115	0x3cccd8c8	0.025005713
116	0x3cc92725	0.024554798
117	0x3dfb41b8	0.12268394
118	0xbd217ee3	-0.03942765
119	0x3c9614b8	0.018320426
120	0xbc644684	-0.013932828
121	0x3cd14370	0.025544852
122	0x3e377a36	0.17917714
123	0x3dda7c9b	0.10668298
124	0x3e1db8f9	0.15402593
125	0xbd1ea21a	-0.03872881
126	0x3d534105	0.05157568
127	0xbe125f6c	-0.14294213
128	0xbdf3c22b	-0.11902269
129	0xbcb323ee	-0.021867719
130	0x3d9c638e	0.07636176
131	0x3e8617a2	0.26189905
132	0x3dc0935c	0.094031066
133	0xbe0b9073	-0.13629322
134	0xbc90d8bc	-0.017681472
135	0x3dbae70a	0.091260985
136	0xbd1f08b1	-0.03882665
137	0x3e78dd08	0.24303067
138	0xbeec1770	-0.4611163
139	0x3da1ecd1	0.07906497
140	0xbd4ef760	-0.050528884
141	0xbe5ecc04	-0.21757513
142	0x3e1238d2	0.14279488
143	0x3e11aa88	0.14225209
144	0x3d870660	0.06593013
145	0x3e8a4d08	0.27011895
146	0x3dac00b4	0.083985716
147	0x3e04d237	0.12970816
148	0xbdb75274	-0.089512736
149	0xbde576d8	-0.11204308
150	0x3eb2ec9d	0.34946147
151	0x3daab30f	0.08334934
152	0xbe388642	-0.18019965
153	0x3e7ee5fb	0.24892418
154	0xbc58beec	-0.013229113
155	0xbd0796a4	-0.033102646
156	0xbda5aa6e	-0.080891475
157	0xbc4c5aa8	-0.012472786
158	0xbe3c5322	-0.18391088
159	0x3bb5a2d1	0.005543091
160	0xbda55e9f	-0.08074688
161	0xbe272f9e	-0.16326758
162	0x3aba81e4	0.0014229384
163	0xbda6483c	-0.08119246
164	0xbe63df8c	-0.22253245
165	0x3bad8780	0.005295694
166	0xbe237bd5	-0.15965207
167	0x3d9ba49e	0.075997576
168	0x3e1a84aa	0.1508967
169	0x3d3a565e	0.045492522
170	0x3dd51ed4	0.104062706
171	0xbe092db0	-0.13396335
172	0xbd8d7bbd	-0.06908367
173	0xbc7ab2aa	-0.015301386
174	0x3e436a18	0.1908344
175	0xbd925a99	-0.071461864
176	0x3dc0cff3	0.09414663
177	0x3d815beb	0.0631636
178	0xbe011d23	-0.12608771
179	0xbe745dcc	-0.23863906
180	0xbd03fd57	-0.032224026
181	0x3d3bc38b	0.04584078
182	0x3e444129	0.19165482
183	0xbd5c28ec	-0.053749964
184	0xbbfb2ed2	-0.0076654935
185	0x3ddfa220	0.10919595
186	0xbe2e3e97	-0.17016064
187	0x3e3f1600	0.18660736
188	0xbccb6294	-0.02482728
189	0xbd9940d3	-0.07483067
190	0x3b94e8d6	0.004544358
191	0x3df22942	0.118242756
192	0x3e635c2c	0.2220313
193	0xbe0f289f	-0.1398034
194	0xbb5f9d5f	-0.00341209
195	0xbdfbfa81	-0.12303639
196	0xbc8a50db	-0.016884258
197	0xbe05a304	-0.13050467
198	0x3e2265bd	0.15859123
199	0xbdb385e3	-0.08765771
200	0xbe2447a2	-0.16042951
201	0xbe1d83a1	-0.15382244
202	0xbe9207e4	-0.28521645
203	0xbd107056	-0.035263382
204	0x3c5424ab	0.012948195
205	0xbe8296aa	-0.25505573
206	0xbda82ce5	-0.08211688
207	0xbdb213f7	-0.08695214
208	0xbdf3a233	-0.118961714
209	0xbd2022a8	-0.03909555
210	0xbd194dd0	-0.037427723
211	0xbe408060	-0.18798971
212	0x3dd2e926	0.10298376
213	0xbd602f40	-0.05473256
214	0xbde310b5	-0.11087171
215	0x3e0b82e9	0.13624157
216	0xbd16a793	-0.036780905
217	0xbe0d516b	-0.1380059
218	0xbcf4f7ee	-0.029903378
219	0x3e01fcd3	0.12694101
220	0xbe7fd805	-0.24984749
221	0xbe8dc0ed	-0.27686253
222	0x3de3e0e4	0.11126879
223	0xbd0cc0fd	-0.034363735
224	0x3eb0e023	0.34546003
225	0x3d6480fd	0.055787075
226	0xbe266d5e	-0.16252658
227	0xbe2886af	-0.16457628
228	0xbd50f554	-0.051015213
229	0x3cc0498d	0.023472572
230	0xbe903000	-0.2816162
231	0xbe36e59d	-0.17861028
232	0xbe19f150	-0.1503346
233	0x3d28c7cb	0.041206162
234	0xbe023cc0	-0.12718487
235	0x3df12a26	0.11775617
236	0x3e207e6c	0.15673226
237	0xbe158d93	-0.14604788
238	0x3df3b7ed	0.119003154
239	0x3e5440e7	0.20727883
240	0xbde10581	-0.10987378
241	0x3d8b273c	0.06794593
242	0x3e23223c	0.15931028
243	0xbe57939f	-0.21052407
244	0x3dad011e	0.08447479
245	0xbec89cee	-0.39182228
246	0x3bd6f2ff	0.006559729
247	0x3d57eaa0	0.05271399
248	0x3d93e1fe	0.07220839
249	0xbcec8532	-0.028872106
250	0x3debf03f	0.11520433
251	0xbe38cc18	-0.18046606
252	0x3d939375	0.072058596
253	0xbd8d175f	-0.06889223
254	0xbe89344e	-0.26797718
255	0xbdfebefc	-0.12438771

layer1_2vm.0.bias f4 [32]
0	0x3d91234b	0.0708681
1	0xbca98265	-0.02069206
2	0xbd03e949	-0.0322049
3	0xbce48acd	-0.027898217
4	0xbc36da1a	-0.011160398
5	0x3c56e05f	0.013115018
6	0x3daaad46	0.083338305
7	0xbb54185a	-0.0032363147
8	0x3da470bf	0.08029317
9	0xbc20627a	-0.009789104
10	0x3cf3656f	0.029711453
11	0x3c560dac	0.013064783
12	0xbccfeb7c	-0.025380842
13	0x3d4057bc	0.04695867
14	0xbb4cc58f	-0.0031245684
15	0xbb8220e2	-0.003971205
16	0xbcd22128	-0.025650576
17	0xbb8e0c02	-0.0043349275
18	0xbc96d951	-0.018414171
19	0xba492fd0	-0.0007674666
20	0x3d866ebe	0.06564091
21	0x3d149936	0.036278926
22	0x3bf0885e	0.007340475
23	0xbbd98a69	-0.006638814
24	0xbb47968e	-0.0030454728
25	0x3d6abf8b	0.057311576
26	0xbdcfa6d7	-0.10139244
27	0x3d2f6628	0.042822033
28	0x3d4daa2a	0.05021111
29	0x3dea0ea9	0.114285775
30	0x3ca83c78	0.020536646
31	0xbd169b82	-0.036769398

layer1_2vm.2.weight f4 [32]
0	0x3f8b47c1	1.0881273
1	0x3f780dfd	0.96896344
2	0x3f7af137	0.98024315
3	0x3f83edba	1.0306923
4	0x3f810be3	1.0081753
5	0x3f8c4ec2	1.0961535
6	0x3f82b9a3	1.0212902
7	0x3f744276	0.9541391
8	0x3f831e64	1.024365
9	0x3f830b34	1.0237794
10	0x3f89c41a	1.076297
11	0x3f814fd0	1.0102482
12	0x3f805341	1.0025407
13	0x3f8066ce	1.0031374
14	0x3f77d6d5	0.9681218
15	0x3f81f54c	1.0152984
16	0x3f80c54a	1.0060208
17	0x3f80dbfc	1.0067134
18	0x3f89099b	1.0706056
19	0x3f83d798	1.0300169
20	0x3f80f781	1.0075532
21	0x3f85067b	1.0392603
22	0x3f6fb4a7	0.9363503
23	0x3f773dc3	0.96578616
24	0x3f7d1e03	0.9887392
25	0x3f823315	1.0171839
26	0x3f65be61	0.8974362
27	0x3f8648a5	1.0490919
28	0x3f7806ae	0.9688519
29	0x3f7aa54a	0.9790846
30	0x3f8400b1	1.0312711
31	0x3f87f4c0	1.0621567

layer1_2vm.2.bias f4 [32]
0	0x3de6c6ce	0.11268388
1	0x3d21a3b1	0.03946275
2	0xbd40077d	-0.04688214
3	0x3ce5e26b	0.028062066
4	0xbd10a6da	-0.035315372
5	0x3b9ef514	0.004850993
6	0x3d903c38	0.07042736
7	0x3d82b0ab	0.06381353
8	0x3db4af1b	0.08822461
9	0x3d8d1fd7	0.068908386
10	0x3d87f949	0.06639344
11	0x3c532b70	0.012888774
12	0xbd1cbefa	-0.038268067
13	0x3d8f5f76	0.070006296
14	0xbd1af48d	-0.037830878
15	0xba0de196	-0.0005412338
16	0xbc60a4da	-0.013711179
17	0xbc083120	-0.008312494
18	0x3d9fda10	0.07805264
19	0x3d5e64cf	0.054295357
20	0x3d4ae5e1	0.049535636
21	0x3ccec1b9	0.025238859
22	0xbd656d3a	-0.05601237
23	0xbc9de591	-0.019274505
24	0xbc88bcc7	-0.016691579
25	0x3d68c85d	0.056831706
26	0xbdf7936c	-0.12088665
27	0x3d9743b4	0.0738596
28	0x3c89de08	0.016829506
29	0x3d93a463	0.07209089
30	0x3d0d5eb9	0.034514163
31	0x3ddfd4ac	0.10929236

layer1_2vm.2.running_mean f4 [32]
0	0x3f1efc2a	0.6210352
1	0xbf49e8ed	-0.7887104
2	0x3de6b42e	0.11264835
3	0xbf9c6f29	-1.2221423
4	0x3dbb2396	0.09137647
5	0x3e24f940	0.16110706
6	0x3f1bc423	0.60846156
7	0xbf0914f4	-0.53547597
8	0x3e3e0ec2	0.18560317
9	0xbeab3088	-0.33435464
10	0x3f045c3e	0.5170325
11	0x3e88a240	0.26686287
12	0x3e1798d8	0.14804399
13	0x3ef9e1e4	0.48805153
14	0xbcafc38b	-0.021455547
15	0x3f3ddecf	0.74168104
16	0x3f0aac7a	0.5416943
17	0xbe0a6af3	-0.1351736
18	0xbf753145	-0.95778304
19	0xbf852c24	-1.0404096
20	0x3f00c737	0.5030398
21	0x3ea57150	0.32313013
22	0xbf23b6a2	-0.6395055
23	0x3f30a693	0.6900417
24	0x3edb3e06	0.42820758
25	0x3e96fe7b	0.29491028
26	0x3e1bb498	0.1520561
27	0x3f24636a	0.64214194
28	0x3ee98f4c	0.4561714
29	0x3ee46af0	0.44612837
30	0x3eb9031b	0.36135182
31	0xbf7187a4	-0.94347596

layer1_2vm.2.running_var f4 [32]
0	0x3f73b390	0.95195866
1	0x3f88c0fd	1.0683895
2	0x3f5cd858	0.86267614
3	0x3f8500db	1.0390886
4	0x3f4b1d3f	0.793415
5	0x3efeaad0	0.49739695
6	0x3f74134b	0.9534194
7	0x3f1a2d33	0.6022522
8	0x3f475ecc	0.77879024
9	0x3f158a78	0.5841441
10	0x3f45c142	0.77248013
11	0x3f014e6a	0.50510275
12	0x3f04f8b4	0.5194199
13	0x3f821ce5	1.0165068
14	0x3f06621c	0.52493453
15	0x3f3ea09a	0.7446381
16	0x3f4c51f7	0.7981257
17	0x3f62efd2	0.88647187
18	0x3f2ac272	0.6670295
19	0x3f741de7	0.9535813
20	0x3f38d329	0.72197205
21	0x3f3f8a5d	0.748205
22	0x3f275805	0.6536868
23	0x3f563c92	0.8368617
24	0x3f27f350	0.6560564
25	0x3f40f1fd	0.75369245
26	0x3f0d6833	0.5523712
27	0x3f488cca	0.7833983
28	0x3f40d876	0.75330293
29	0x3f381366	0.719046
30	0x3f19434e	0.59868324
31	0x3f47e73e	0.7808722

layer2.0.weight f4 [32, 64]
0	0x3e07c739	0.13259591
1	0x3d69f104	0.057114616
2	0xbe0e63d3	-0.13905267
3	0xbe9edb1e	-0.31026548
4	0xbdf7791c	-0.12083647
5	0xbdff5355	-0.12467066
6	0xbe3eddfc	-0.18639368
7	0xbd705616	-0.058675848
8	0xbdc11560	-0.09427905
9	0xbe4d23c2	-0.20033172
10	0xbd8eb8c7	-0.06968837
11	0x3eabbda3	0.3354312
12	0x3e9d959c	0.30778205
13	0xbdda8337	-0.106695585
14	0x3e610fa4	0.21978623
15	0xbdb25c14	-0.08708969
16	0xbdd8c220	-0.105839014
17	0x3d3c4c79	0.045971368
18	0xbd6b56e2	-0.057455905
19	0x3e0404e7	0.12892495
20	0xbe9a493c	-0.30133998
21	0x3d5659e9	0.05233184
22	0x3d0fea97	0.03513583
23	0xbdd0d6c8	-0.10197216
24	0x3dd4e9e9	0.10396177
25	0xbe3e6c1d	-0.1859593
26	0xbe61ad33	-0.22038727
27	0xbe54ef09	-0.2079431
28	0xbd038869	-0.032112513
29	0xbe522282	-0.20520976
30	0xbe537c7f	-0.2065296
31	0xbd949b06	-0.07256131
32	0xbbf6a712	-0.0075272406
33	0xbe7a3f63	-0.24438243
34	0x3d483ff4	0.048889115
35	0x3cc06e8c	0.023490213
36	0x3e134335	0.14381106
37	0x3e071135	0.13190158
38	0xbe977bfd	-0.29586783
39	0xbe627faf	-0.2211902
40	0x3dab57e9	0.08366377
41	0xbe38e3d7	-0.18055664
42	0x3dd77a57	0.10521381
43	0x3d3faaba	0.046793677
44	0x3dba1049	0.090851374
45	0xbe0f1ffa	-0.13977042
46	0xbe671906	-0.2256814
47	0x3e85448a	0.26028854
48	0xbe1a285c	-0.15054458
49	0xbe453282	-0.19257548
50	0xbd557a0d	-0.05211835
51	0x3d8b897b	0.06813332
52	0xbdc76e77	-0.09737866
53	0xbe5ff982	-0.21872523
54	0x3e0df160	0.13861609
55	0x3ba70c7e	0.0050979247
56	0xbce1806f	-0.027527062
57	0x3dd8032e	0.105474815
58	0x3c911696	0.017710965
59	0xbdda4582	-0.10657789
60	0x3df5844e	0.11988126
61	0xbe036613	-0.12831907
62	0x3e4bdeae	0.19909164
63	0x3d4ac82e	0.049507312
64	0x3db06410	0.086128354
65	0xbc509f4e	-0.012733294
66	0xbe9502d2	-0.29103714
67	0x3d9bca2f	0.07606923
68	0x3c074450	0.008256033
69	0x3e2b317b	0.16718094
70	0x3e580ca9	0.2109858
71	0x3eb0ab07	0.34505484
72	0xbd2641f0	-0.040590227
73	0x3dcb8dc0	0.09939146
74	0xbe2b130c	-0.16706485
75	0xbd387ce5	-0.045040984
76	0x3cd3639b	0.025804332
77	0x3d8fe7fe	0.07026671
78	0x3d22be9b	0.039732557
79	0xbe11ae37	-0.14226614
80	0x3ccd4af8	0.025060162
81	0x3dcc52cf	0.09976732
82	0x3d94c6a7	0.072644524
83	0x3e4ebbb0	0.20188785
84	0x3ea17b76	0.31539506
85	0xbd85480f	-0.06507885
86	0x3d0a2647	0.03372791
87	0xbddd7295	-0.108128704
88	0xbd8d384d	-0.06895504
89	0x3dbc7179	0.09201331
90	0x3df7bf18	0.12096995
91	0x3e3d71d1	0.18500449
92	0x3dcc7ada	0.099843696
93	0x3d382d18	0.04496488
94	0x3dc541dc	0.09631702
95	0xbd8b4f05	-0.06802181
96	0x3e189198	0.1489929
97	0xbcb18f96	-0.021674912
98	0x3d2d099f	0.042245504
99	0xbdd2201f	-0.10260033
100	0x3d3d964e	0.04628592
101	0x3df57c50	0.11986601
102	0x3e044437	0.12916647
103	0x3df608e0	0.120134115
104	0x3db83216	0.08993928
105	0xbb5d67fe	-0.0033783908
106	0x3e2395ee	0.15975162
107	0xbdb64880	-0.08900547
108	0xbe8765d7	-0.26444885
109	0xbc24c63a	-0.0100570265
110	0xbd75736f	-0.05992454
111	0xbd6b4aab	-0.057444256
112	0xbe203a4d	-0.1564724
113	0x3d4355ce	0.04768925
114	0x3e470a00	0.19437408
115	0xbd0cef73	-0.034408044
116	0x3e618695	0.22023995
117	0x3e612b30	0.21989131
118	0xbcd9a937	-0.026569946
119	0x3e354bfe	0.1770477
120	0xbbd5c528	-0.006523747
121	0x3d9dba77	0.07701581
122	0xbd8e6fcd	-0.06954918
123	0xbe1d074d	-0.15334816
124	0x3c5b8c88	0.0134002045
125	0x3e921d8b	0.28538164
126	0xbdce0cb4	-0.10061017
127	0x3db9c6fe	0.09071158
128	0xbd5346ed	-0.051581312
129	0x3d681db4	0.056668952
130	0xbdd617e2	-0.10453774
131	0xbde27698	-0.11057776
132	0x3ca8b170	0.020592421
133	0x3cc6fc1b	0.024290135
134	0x3d3d6784	0.0462413
135	0x3caa0940	0.020756364
136	0xbe79fb2c	-0.2441222
137	0x3e3b4919	0.18289603
138	0x3e1f2c1b	0.15544169
139	0xbe023c7a	-0.12718382
140	0xbdfc02d8	-0.1230523
141	0x3db6bcba	0.089227155
142	0xbd3b37d9	-0.045707557
143	0x3c8153ed	0.01578709
144	0x3e392673	0.18081073
145	0x3d9294ba	0.071572736
146	0x3d66ee61	0.05637968
147	0x3e088d27	0.13335095
148	0xbcfc1b96	-0.030774873
149	0xbc94cbdb	-0.018163612
150	0x3e4fe612	0.20302609
151	0x3e1ee195	0.1551574
152	0x3c291dd0	0.010322049
153	0xbdb141c6	-0.086551234
154	0x3dbfe3da	0.09369631
155	0x3e8af86a	0.2714265
156	0xbe494026	-0.19653377
157	0x3d8cc8e8	0.06874257
158	0x3e5d1a8e	0.21592161
159	0xbc281f78	-0.010261409
160	0xbe0bc4e8	-0.13649333
161	0xbd96c8b3	-0.07362499
162	0xbd8504b2	-0.06495036
163	0x3e422e25	0.18962915
164	0x3e57ae7c	0.21062654
165	0x3deb914a	0.11502321
166	0x3e0e22e4	0.13880497
167	0xbd72fcc2	-0.05932308
168	0xbe2b54fb	-0.16731636
169	0x3da9bcaf	0.08287942
170	0xbe535696	-0.20638499
171	0x3e089e22	0.13341573
172	0x3e95089e	0.29108137
173	0x3e21d71a	0.15804711
174	0x3e269f60	0.16271734
175	0x3d15c100	0.036561012
176	0xbd6c26a5	-0.05765404
177	0xbdab1dde	-0.08355306
178	0x3d9f8515	0.07789055
179	0x3e4fbba6	0.20286426
180	0xbd9f8516	-0.07789056
181	0x3d8b6a88	0.068074286
182	0xbe4c8514	-0.1997264
183	0xbc446839	-0.011987739
184	0x3e95822c	0.29200876
185	0xbd79f8c3	-0.061028253
186	0x3e6aff6b	0.22948997
187	0x3d05f1a4	0.03270115
188	0xbe030e90	-0.12798524
189	0xbdf5f1ed	-0.12009034
190	0x3da18a6f	0.07887732
191	0xbe7e22d0	-0.24817967
192	0x3d40d45f	0.047077533
193	0xbcf952dd	-0.03043502
194	0x3df712cc	0.12064132
195	0x3e1f7ae2	0.1557422
196	0xbdbc45ae	-0.09192978
197	0x3e088938	0.13333595
198	0xbc922295	-0.017838756
199	0xbd1ae513	-0.03781612
200	0x3c40a772	0.011758672
201	0x3d85f2f6	0.06540482
202	0xbde3af28	-0.11117393
203	0x3e0c61ae	0.13709137
204	0xbd0d6ded	-0.03452866
205	0x3e2b1b39	0.16709603
206	0x3d931033	0.07180824
207	0x3dc03abd	0.093862034
208	0x3e816b45	0.25277153
209	0xbdc5ef0d	-0.09664736
210	0xbd435197	-0.047685232
211	0xbcf16824	-0.029468603
212	0x3e10feec	0.14159745
213	0x3b06199b	0.002046204
214	0xbd9b3e35	-0.075802244
215	0x3dff3af3	0.124624155
216	0xbd9c6e03	-0.076381706
217	0x3e01b0f7	0.12665163
218	0xbd34713a	-0.044053294
219	0xbdc5c4b0	-0.09656656
220	0x3da694b5	0.08133832
221	0xbe584811	-0.21121241
222	0x3d5d862e	0.05408304
223	0x3e271e01	0.1632004
224	0x3d10d8d2	0.035363026
225	0x3d477784	0.048697963
226	0x3dcd6113	0.10028281
227	0xbe3f7629	-0.18697418
228	0x3e3b7bf8	0.18309009
229	0xbd803329	-0.06259758
230	0x3e555f6b	0.2083718
231	0x3da54425	0.08069638
232	0xbd89a30d	-0.067205526
233	0x3e2eede6	0.17082939
234	0x3c262bf4	0.010142315
235	0xbd58bb25	-0.05291285
236	0xbe11b0ae	-0.14227554
237	0xbd819541	-0.06327296
238	0xbd003698	-0.031302065
239	0xbd9bafa8	-0.07601863
240	0x3e0846ba	0.1330823
241	0x3e500c95	0.203173
242	0xbd8bd0e2	-0.068269506
243	0xbec72524	-0.38895524
244	0x3e67d477	0.22639643
245	0x3e64fc1e	0.223618
246	0x3de7f7e0	0.11326575
247	0x3e59385d	0.21212907
248	0x3e297e17	0.16552006
249	0xbdd5415d	-0.10412858
250	0x3ea78a1a	0.3272255
251	0xbda1dfd3	-0.07904019
252	0xbc2d7733	-0.010587501
253	0x3d1fe012	0.03903205
254	0x3d9cb1a3	0.07651069
255	0xbd5ec0e1	-0.054383162

layer2.0.bias f4 [32]
0	0x3d911a94	0.070851475
1	0x3edd3b61	0.43209365
2	0x3e8577bb	0.2606791
3	0x3eb78cd4	0.3584963
4	0x3e9377c3	0.28802308
5	0x3e250926	0.16116771
6	0x3df08292	0.11743654
7	0x3e8bb287	0.27284643
8	0x3eaf7ad1	0.3427339
9	0x3dfe6610	0.124218106
10	0x3d912715	0.070875324
11	0x3ee82f2a	0.45348483
12	0xbdc26daf	-0.09493577
13	0xbe191352	-0.14948776
14	0x3d58b77f	0.05290937
15	0x3e82673a	0.2546938
16	0x3ef76d5c	0.48325622
17	0x3ee8b26f	0.45448634
18	0x3ee9d371	0.4566913
19	0x3d875d67	0.06609612
20	0x3bc4e4b4	0.006008709
21	0x3dc2b4b2	0.09507121
22	0xbe25b2b6	-0.16181454
23	0xbd86919e	-0.06570743
24	0xbcb4a184	-0.022049673
25	0x3db02038	0.08599895
26	0x3e7d4362	0.24732736
27	0x3d3ce353	0.04611523
28	0xbd7448e1	-0.059639815
29	0x3d619ed1	0.0550831
30	0x3e129ffa	0.14318839
31	0x3dfe156a	0.12406428

layer2.2.weight f4 [32]
0	0x3fa305cc	1.2736144
1	0x3fc646f0	1.5490398
2	0x3faaae2d	1.3334404
3	0x3fb90375	1.445418
4	0x3faa9b7a	1.3328698
5	0x3fc9cb24	1.5765119
6	0x3fc984c5	1.5743643
7	0x3f8825e0	1.0636559
8	0x3fb2eb80	1.3978119
9	0x3fcb08cc	1.586206
10	0x3fcd7133	1.6050171
11	0x3fc22246	1.516671
12	0x3f1930ba	0.59839976
13	0x3eea0912	0.45710045
14	0x3fc467a0	1.5344124
15	0x3f99fa4b	1.2029508
16	0x3fc71405	1.5552984
17	0x3fc68aab	1.5511068
18	0x3fc28f53	1.5199989
19	0x3fb03bd5	1.3768259
20	0x3fa3220b	1.2744764
21	0x3fca11be	1.5786664
22	0x3f8386a7	1.0275468
23	0x3f9b4a5a	1.2132065
24	0x3f896d61	1.0736505
25	0x3fcbdaef	1.5926188
26	0x3f1a9e51	0.6039782
27	0x3f358843	0.70911044
28	0x3f4ce462	0.80035985
29	0x3fc9cb13	1.5765098
30	0x3f29056f	0.66023916
31	0x3fcc60d7	1.5967053

layer2.2.bias f4 [32]
0	0x3e8e7718	0.27825236
1	0x3f1c8bd7	0.6115088
2	0x3eb67ab2	0.35640484
3	0x3ef32f15	0.47496858
4	0x3ec3f60c	0.38273656
5	0x3f191536	0.5979799
6	0x3f1cd478	0.612617
7	0x3da96a2c	0.08272204
8	0x3ee25b68	0.44210362
9	0x3f1d3f9a	0.61425173
10	0x3f1f385f	0.6219539
11	0x3f130fa8	0.57445765
12	0xbecc5493	-0.39908275
13	0xbf111bc4	-0.5668299
14	0x3f13ce53	0.577367
15	0x3e7710d2	0.2412751
16	0x3f1ae11d	0.60499746
17	0x3f1763f5	0.591369
18	0x3f12349a	0.57111514
19	0x3ecc8c46	0.3995077
20	0x3e9476dc	0.28996933
21	0x3f1d054c	0.6133621
22	0x3cec7c05	0.02886773
23	0x3e6c0c34	0.2305153
24	0x3db48f51	0.08816398
25	0x3f1cc736	0.6124147
26	0xbecd43cf	-0.40090796
27	0xbe9942c8	-0.29933763
28	0xbe49df5b	-0.1971411
29	0x3f1bb1b4	0.6081803
30	0xbeb1e227	-0.34742853
31	0x3f1f0a01	0.6212464

layer2.2.running_mean f4 [32]
0	0xbf854364	-1.0411191
1	0x3fbc8a1e	1.472965
2	0x3f655f7c	0.8959882
3	0x3f8d0b68	1.1019106
4	0x3f848340	1.0352554
5	0xbf260a2b	-0.64859265
6	0xbf357e2f	-0.70895666
7	0x3f59a48e	0.85016716
8	0x3f91c552	1.1388342
9	0xbf303726	-0.6883415
10	0xbf38d2c6	-0.72196615
11	0x3fc5f23b	1.5464548
12	0xbf48a875	-0.78382045
13	0xbf48612c	-0.7827327
14	0xbf29c920	-0.6632252
15	0x3f47b2e8	0.78007364
16	0x3ff134f7	1.8844289
17	0x3fb1c88a	1.3889325
18	0x3fb7c69b	1.4357485
19	0xbf6d2c28	-0.926455
20	0xbf4cd63d	-0.800144
21	0xbf54b26d	-0.83084756
22	0xbf83040e	-1.0235612
23	0xbf72c79e	-0.9483584
24	0xbf703c51	-0.93842036
25	0xbf29416f	-0.6611547
26	0x402d38f0	2.7066002
27	0xbebd23ef	-0.36941478
28	0xbf498e4f	-0.7873277
29	0xbf228ac2	-0.6349298
30	0x4006bbb5	2.1052067
31	0xbf5a53cb	-0.8528411

layer2.2.running_var f4 [32]
0	0x3f86b4e2	1.0523951
1	0x3f8ee83b	1.1164621
2	0x3f2e8dca	0.681851
3	0x3f5d97af	0.86559576
4	0x3f58cf1b	0.8469102
5	0x3f3181f4	0.6933892
6	0x3f84af16	1.0365932
7	0x3fdb368c	1.7126021
8	0x3f6b7a3c	0.9198339
9	0x3f4dc475	0.80377895
10	0x3f633521	0.88752943
11	0x3fa42ebb	1.2826761
12	0x3f5d0004	0.8632815
13	0x3f734e6a	0.95041525
14	0x3f1ba9e1	0.6080609
15	0x3f220480	0.63288116
16	0x3fe92f89	1.8217632
17	0x3f5b148d	0.85578233
18	0x3f894a58	1.0725813
19	0x3f818c7b	1.0120996
20	0x3f418e34	0.7560761
21	0x3f6d673e	0.9273566
22	0x40237572	2.5540433
23	0x3f548347	0.83012813
24	0x3f5de970	0.8668432
25	0x3f42edfe	0.761444
26	0x404292d9	3.0402129
27	0x3fd7e8f9	1.6867973
28	0x3f43acc1	0.76435477
29	0x3f310caf	0.6915998
30	0x402cc380	2.6994324
31	0x3f81007b	1.0078272

fc_advantage.0.weight f4 [20, 32]
0	0x3e46c7b7	0.19412123
1	0xbf04d9f8	-0.51895094
2	0xbe2eb0f2	-0.17059687
3	0xbe9903df	-0.29885766
4	0xbef5dcec	-0.48020113
5	0xbef5f42b	-0.48037848
6	0xbedf6c6a	-0.436374
7	0xbed5c9ac	-0.41755426
8	0xbef215d3	-0.47282276
9	0x3e5e96d4	0.21737224
10	0xbec7d6b3	-0.3903099
11	0xbe4e3cbf	-0.2014036
12	0xbe532044	-0.20617777
13	0xbe23d495	-0.15999062
14	0xbeb19324	-0.34682572
15	0xbf11f346	-0.5701183
16	0xbe8f84f7	-0.28031132
17	0xbec5020c	-0.38478124
18	0x3dba2bff	0.09090423
19	0xbdf9769c	-0.12180826
20	0xbe9c994d	-0.3058571
21	0xbe94ad49	-0.29038456
22	0xbe1f21fc	-0.15540308
23	0xbe929a2b	-0.28633246
24	0xbed90da0	-0.42393208
25	0x3db306f9	0.08741564
26	0xbd92e3dc	-0.07172367
27	0xbea5ee6f	-0.32408473
28	0xbdc4037a	-0.095709756
29	0x3d5de802	0.054176338
30	0xbee79c2f	-0.45236346
31	0xbe55dd9b	-0.20885317
32	0xbef05b87	-0.4694483
33	0xbf380d97	-0.71895736
34	0xbef9a17d	-0.48756018
35	0xbee9f15a	-0.4569195
36	0xbf1a924f	-0.603795
37	0xbeeef008	-0.46667504
38	0xbf2bd0a4	-0.67115235
39	0xbe5fd3ce	-0.21858141
40	0xbedf2058	-0.43579364
41	0xbedee0f3	-0.43530998
42	0xbf5e8817	-0.86926407
43	0xbe44d755	-0.19222768
44	0xbeecbdb2	-0.46238476
45	0xbec87a8b	-0.39155993
46	0xbf678726	-0.90440595
47	0xbee24b08	-0.4419787
48	0xbf3376a2	-0.70102894
49	0xbede91d7	-0.43470642
50	0xbf0130c8	-0.5046506
51	0xbe4e0588	-0.20119298
52	0xbf63f689	-0.8904806
53	0xbebdfc45	-0.3710653
54	0xbf011c97	-0.5043425
55	0xbeed4692	-0.46342903
56	0xbf149383	-0.58037585
57	0xbf397345	-0.7244151
58	0xbebfa4d4	-0.3743044
59	0xbe84d857	-0.25946304
60	0xbeaef228	-0.34169126
61	0xbed40d2b	-0.41416296
62	0xbf47c581	-0.7803574
63	0xbf1ef116	-0.6208662
64	0xbdc82052	-0.097717896
65	0xbeafe7b8	-0.34356475
66	0xbecf2e72	-0.40465122
67	0xbeb23fc8	-0.34814286
68	0xbd3ebaa8	-0.046564728
69	0xbe6c9bbb	-0.23106281
70	0xbe356f60	-0.17718267
71	0xbf44056a	-0.7657076
72	0xbed65a55	-0.41865793
73	0xbeee424e	-0.4653496
74	0xbe12f07c	-0.1434955
75	0xbe773e04	-0.24144751
76	0xbea809af	-0.32819888
77	0xbeb65ead	-0.35619107
78	0xbef119ea	-0.47090083
79	0xbdaaee5c	-0.08346245
80	0xbe932e46	-0.2874624
81	0xbe72627d	-0.23670383
82	0xbf5adcda	-0.8549324
83	0xbeba3150	-0.36365747
84	0xbec694b0	-0.38785315
85	0xbf03e8fe	-0.5152739
86	0xbe0eefef	-0.13958715
87	0xbe8e9e3f	-0.27855107
88	0xbe123a3a	-0.14280024
89	0xbed9f2a8	-0.42567945
90	0xbeb750ad	-0.35803738
91	0xbe31d271	-0.17365433
92	0xbec7a616	-0.389939
93	0xbe1d07d9	-0.15335025
94	0xbf01a3c1	-0.50640494
95	0xbea59723	-0.3234187
96	0xbea431a1	-0.32069114
97	0xbed98fda	-0.42492563
98	0xbebe0691	-0.37114385
99	0xbf0823e0	-0.5317974
100	0xbe12f4cc	-0.14351195
101	0xbe853534	-0.26017153
102	0xbecb47b6	-0.3970315
103	0xbefab4e7	-0.48966143
104	0xbedfa148	-0.43677735
105	0xbec5af62	-0.3861037
106	0xbf05e5ef	-0.52303976
107	0xbec035b1	-0.37540963
108	0xbedad6bd	-0.42741957
109	0xbf026920	-0.5094166
110	0xbf27a7a5	-0.6549018
111	0xbf011526	-0.50422895
112	0xbf0cad92	-0.5495235
113	0xbf10e3d6	-0.5659765
114	0xbee44278	-0.44581962
115	0xbef053c1	-0.469389
116	0xbe97948b	-0.29605517
117	0xbe9ab686	-0.3021738
118	0xbf46d1ee	-0.7766408
119	0xbef65ab5	-0.4811608
120	0xbe76596c	-0.24057549
121	0xbeadba95	-0.33931413
122	0xbdb10abc	-0.086446255
123	0xbe2645dc	-0.16237587
124	0xbf304368	-0.68852854
125	0xbea618a4	-0.32440674
126	0xbef0ab0f	-0.47005507
127	0xbec610ab	-0.38684592
128	0xbe1001c5	-0.14063175
129	0xbf0204ce	-0.5078858
130	0xbf4806a2	-0.7813512
131	0xbe997dfb	-0.29978928
132	0xbe8f3721	-0.27971748
133	0xbf0ffd2e	-0.56245697
134	0xbe5cd545	-0.21565731
135	0xbf092f86	-0.5358814
136	0xbee71344	-0.45131886
137	0x3cfe0dc6	0.031012427
138	0xbf0c324c	-0.54764247
139	0xbf204f2b	-0.626208
140	0xbeccdde0	-0.40013027
141	0xbe35fe22	-0.17772725
142	0xbed7fee2	-0.42186648
143	0xbf41aa0f	-0.75650114
144	0xbeb762dd	-0.35817614
145	0x3e7cac85	0.24675186
146	0xbea80af6	-0.32820863
147	0xbee66054	-0.44995368
148	0xbe7df9b1	-0.24802281
149	0xbea3637a	-0.31911832
150	0xbea90d4f	-0.33017966
151	0xbed7440a	-0.42044097
152	0xbed0da0f	-0.40791366
153	0xbd7c5736	-0.06160661
154	0xbe4af1c9	-0.19818796
155	0xbcf25c3c	-0.029584996
156	0xbeede1fd	-0.46461478
157	0x3d05f8c1	0.032707933
158	0xbf2cf83b	-0.6756627
159	0xbe398e3e	-0.18120667
160	0xbe961ea2	-0.29320246
161	0xbe8467ca	-0.25860435
162	0xbe5d44eb	-0.21608321
163	0xbe808083	-0.25098047
164	0xbf175953	-0.5912067
165	0xbe4175d3	-0.18892603
166	0xbef2b459	-0.4740322
167	0xbeddd107	-0.43323538
168	0xbe8f8f2f	-0.28038928
169	0xbe2c2b95	-0.168135
170	0xbd34dc0c	-0.044155166
171	0xbeaff225	-0.3436443
172	0xbee96564	-0.45585167
173	0xbf1e2350	-0.6177263
174	0xbdd09dec	-0.10186371
175	0xbedcb752	-0.43108612
176	0xbf04ad7f	-0.51827234
177	0xbf0ac896	-0.5421232
178	0xbf15f08e	-0.5857018
179	0x3d275dd1	0.040860955
180	0xbe6829d3	-0.22672205
181	0xbeb2ac96	-0.34897298
182	0xbe533994	-0.20627433
183	0xbf1a3bf6	-0.60247743
184	0xbec7bbd8	-0.390105
185	0xbe6830ca	-0.22674862
186	0xbf193f69	-0.5986238
187	0xbe8ac55d	-0.271037
188	0xbed4e3a2	-0.4157992
189	0xbf1c38fe	-0.61024463
190	0xbeed1002	-0.46301275
191	0xbee33938	-0.44379592
192	0xbf0cc95d	-0.54994756
193	0xbe806ad9	-0.25081518
194	0xbeca8a91	-0.39558843
195	0xbe884129	-0.26612213
196	0xbc3de6f6	-0.01159071
197	0xbdaac65d	-0.08338616
198	0xbe1ff5a7	-0.15621053
199	0xbea6a662	-0.32548815
200	0xbe8e8854	-0.27838385
201	0xbe413d13	-0.18870954
202	0xbdc4ebd6	-0.09615295
203	0xbe193db1	-0.1496494
204	0xbeda1f4e	-0.4260201
205	0xbdb8f788	-0.09031588
206	0xbe11ffd0	-0.14257741
207	0xbebfe493	-0.37479076
208	0xbeb54ab2	-0.3540855
209	0xbea4eb8d	-0.3221096
210	0xbe2e159d	-0.17000432
211	0xbf022666	-0.5083984
212	0xbef5cd58	-0.48008227
213	0xbf327aef	-0.6971883
214	0xbedea57c	-0.4348563
215	0xbd27114c	-0.04078798
216	0xbebda427	-0.370393
217	0xbed35954	-0.4127909
218	0xbe69fe58	-0.2285093
219	0x3dbf45a7	0.09339457
220	0xbe849966	-0.25898284
221	0xbed3caae	-0.4136557
222	0xbeb70e6b	-0.35753188
223	0xbe30da0e	-0.17270681
224	0xbece1fdb	-0.4025868
225	0xbe32956c	-0.17439812
226	0xbe9c651d	-0.30545893
227	0xbf0ed311	-0.5579081
228	0xbef24c21	-0.47323707
229	0xbf1e9eb1	-0.61960894
230	0x3dd22998	0.1026184
231	0xbe52ec16	-0.20597872
232	0xbea29685	-0.31755462
233	0xbe2cb5aa	-0.16866174
234	0xbf17e961	-0.5934048
235	0xbe88eec6	-0.2674467
236	0x3dd129f7	0.10213082
237	0xbed0c403	-0.40774545
238	0xbe4d7d6c	-0.20067376
239	0xbea415f7	-0.32048008
240	0xbe6214eb	-0.22078292
241	0xbed9cbfe	-0.42538446
242	0xbea7f921	-0.32807258
243	0xbebf2e26	-0.37339896
244	0xbee04590	-0.43803072
245	0xbedf4490	-0.43606997
246	0xbe599a5f	-0.21250294
247	0xbd12e378	-0.035861462
248	0xbf07b3cb	-0.5300872
249	0xbe99d0b0	-0.30042028
250	0xbec72d63	-0.38901815
251	0xbe645dcb	-0.22301404
252	0xbed9e8ce	-0.42560428
253	0xba1bfc64	-0.000595039
254	0xbec3ac58	-0.38217425
255	0x3d5b8c8a	0.053600825

fc_advantage.0.bias f4 [20]
0	0xbe836799	-0.25664976
1	0xbf004fa6	-0.50121534
2	0xbeb2509e	-0.3482713
3	0xbea7fd46	-0.3281042
4	0xbe81b942	-0.25336653
5	0xbe6957ec	-0.22787446
6	0xbea8424b	-0.32863078
7	0xbe94a02c	-0.2902845
8	0xbe8fb54c	-0.28068006
9	0xbdcc0046	-0.0996099
10	0xbd85671d	-0.06513808
11	0xbdca8d09	-0.098901816
12	0xbe0a5ba9	-0.13511528
13	0xbdef93eb	-0.11698135
14	0x3b44e57c	0.003004401
15	0xbd2d182c	-0.04225938
16	0xbd7d0b9e	-0.061778657
17	0xbd54b5c3	-0.051931154
18	0x3c2239ae	0.009901447
19	0x3d044efb	0.032301884
