save/client-5/eval.pth (torch, 14831 bytes, 15 tensors)

layer1_1vm.0.weight f4 [32, 40]
0.2368848 -0.33651912 0.23165405 0.21783592 0.13442399 0.027877236 -0.048119683 0.23796757
0.08308615 0.14336589 -0.109286465 0.028197905 0.03737548 -0.02537421 -0.08951603 -0.21694925
-0.106396414 -0.19281903 -0.089626074 -0.06800927 0.19743128 -0.11600279 0.035873823 0.34833518
0.16784425 -0.118950725 -0.061441176 -0.09417711 -0.0843215 0.12144703 0.073349014 -0.13234767
-0.018936569 0.35268474 0.23351915 -0.09653941 0.03886958 0.07660696 0.3411912 0.0040018926
0.1564371 -0.27140677 0.097249895 0.2918786 -0.10797896 -0.16826522 -0.1985196 -0.029165795
0.056759644 -0.24832258 -0.28225234 -0.06252014 0.12097334 -0.016718403 0.32570037 0.2497496
0.15971325 0.052793708 -0.095821165 -0.03453006 -0.23868556 -0.06493001 -0.10232469 0.28794685
0.045451876 0.060886797 0.054198492 0.2052406 0.097192146 -0.3332118 -0.23013608 0.02611628
0.43882108 -0.26039246 -0.07388074 0.0010794888 -0.1776468 -0.032244943 -0.11196567 0.008841736
0.26601052 0.14890239 -0.09200845 0.28779873 0.040396184 0.33513382 -0.0466766 0.25416622
-0.032883033 -0.14539295 -0.21834643 0.0098963315 -0.14909974 0.1621635 -0.06452348 -0.507252
0.01848715 -0.068056256 -0.26991174 -0.032961316 0.06703208 -0.22776529 -0.0044023334 0.01667093
0.0678931 -0.09684499 0.23010118 0.012477054 0.0322357 -0.026224978 -0.006583145 0.32868466
0.11898652 0.059140265 0.19009441 -0.11669629 0.07023728 0.14285421 -0.09556623 -0.08862743
0.10790403 -0.31200814 0.21426603 0.016045123 0.23325141 -0.25782087 0.0639506 0.01494904
-0.1371958 -0.019885791 0.20372684 0.22349331 -0.14466517 0.16379419 0.02889774 -0.23527563
-0.08967779 0.2034676 0.34861588 0.27466995 -0.18234946 -0.027051432 -0.2849013 0.15175706
0.029359825 0.21416359 -0.10739805 0.03992427 0.07129616 -0.32914925 0.16554362 0.08861922
0.009415034 -0.106342696 0.06905285 -0.16453652 -0.00430908 -0.006463378 0.33676454 -0.036816042
-0.23914558 0.120005086 -0.2589787 0.117699705 -0.18722716 0.07450008 0.09994544 -0.09268208
-0.093706265 0.19830118 -0.008348897 0.24552691 -0.27106538 0.07049691 -0.17222303 0.29232043
0.08526021 0.255812 0.0449114 0.116073206 0.20228833 0.00097607815 -0.17429532 0.23916848
-0.30654716 0.19927579 -0.025708383 -0.06956723 -0.33707675 -0.07938871 -0.13475728 0.013870693
-0.19140038 -0.044636324 -0.12103732 -0.029497307 -0.08937858 -0.31622764 0.2525111 0.11912104
0.2038826 -0.15857887 0.11340633 0.003765738 -0.39365134 -0.0700968 -0.21935827 0.1270197
-0.10105962 0.20146722 0.122282185 -0.098407805 0.055120345 -0.083863094 0.018691257 -0.07881306
-0.017153567 0.33110863 0.36490497 0.17508088 0.104554236 0.021333713 -0.047656983 0.012880216
-0.066386364 -0.0026975004 -0.25466618 0.0049510053 0.006363252 -0.21607336 -0.10276748 0.060974143
-0.10292485 -0.06838912 0.084238455 0.28056315 0.13626382 0.037877753 -0.31368813 0.06637506
0.012014819 -0.1090304 0.200858 0.02542048 0.24874331 0.15797462 0.18164364 -0.27954686
0.005017665 0.331284 0.0070231287 0.08242823 -0.055986885 0.44731745 0.018014414 0.07528332
00000000: ee91 723e 3c4c acbe b836 6d3e 6110 5f3e
00000010: 71a6 093e cd5e e43c 2519 45bd c5ad 733e
00000020: 1229 aa3d 82ce 123e 95d1 dfbd 4bff e63c
00000030: 0817 193d 93dd cfbc 2e54 b7bd f227 5ebe
00000040: 5de6 d9bd 5a72 45be e08d b7bd 7248 8bbd
00000050: 6d2b 4a3e df92 edbd 6ef0 123d fd58 b23e
00000060: 5ddf 2b3e 709c f3bd bea9 7bbd eedf c0bd
00000070: c0b0 acbd 38b9 f83d 0238 963d 2686 07be
00000080: dd20 9bbc 1893 b43e a51f 6f3e 74b6 c5bd
00000090: b535 1f3d 1ce4 9c3d 9db0 ae3e 4f22 833b
000000a0: 0c31 203e d4f5 8abe f42a c73d 1d71 953e
000000b0: 1324 ddbd b84d 2cbe b948 4bbe 1bed eebc
000000c0: cd7c 683d 4648 7ebe 6183 90be 8f0a 80bd
000000d0: dfc0 f73d 08f5 88bc 33c2 a63e 5cbe 7f3e
000000e0: df8b 233e 373e 583d e33d c4bd 646f 0dbd
000000f0: fd69 74be 06fa 84bd 9b8f d1bd c56d 933e
00000100: bf2b 3a3d 6f64 793d 3dff 5d3d 982a 523e
00000110: ad0c c73d bd9a aabe cba8 6bbe cff1 d53c
00000120: 28ad e03e 2952 85be c94e 97bd a27d 8d3a
00000130: 0be9 35be 4613 04bd 424e e5bd eedc 103c
00000140: 8832 883e de79 183e ed6e bcbd 5b5a 933e
00000150: 7876 253d a996 ab3e f62f 3fbd 1322 823e
00000160: 5cb0 06bd e4e1 14be 3596 5fbe 3924 223c
00000170: 9aad 18be 300e 263e e324 84bd 44db 01bf
00000180: 5d72 973c 1461 8bbd df31 8abe 7202 07bd
00000190: 1d48 893d 4e3b 69be 7341 90bb 7991 883c
000001a0: 8a0b 8b3d ab56 c6bd a59f 6b3e 8f6c 4c3c
000001b0: 9509 043d c4d5 d6bc 6cb7 d7bb 5b49 a83e
000001c0: 34af f33d 103d 723d 1ca8 423e 77fe eebd
000001d0: 90d8 8f3d 6048 123e 3ab8 c3bd 4c82 b5bd
000001e0: cafc dc3d 88bf 9fbe 8e68 5b3e 1071 833c
000001f0: 75d9 6e3e 1901 84be 88f8 823d d1ec 743c
00000200: 0e7d 0cbe 87e7 a2bc c59d 503e 6edb 643e
00000210: 1b23 14be aab9 273e f4ba ec3c 18ec 70be
00000220: fda8 b7bd cf59 503e c87d b23e 8aa1 8c3e
00000230: d1b9 3abe f79a ddbc 95de 91be 3466 1b3e
00000240: 0484 f03c b34d 5b3e 82f3 dbbd a287 233d
00000250: b903 923d 4086 a8be 4484 293e fe7d b53d
00000260: 8441 1a3c 33ca d9bd 956b 8d3d 437c 28be
00000270: 2f33 8dbb bfca d3bb 676c ac3e 6bcc 16bd
00000280: 94e2 74be 3ac5 f53d db98 84be 8b0c f13d
00000290: 7ab8 3fbe 7f93 983d 32b0 cc3d 1ad0 bdbd
000002a0: 12e9 bfbd 770f 4b3e d0c9 08bc 686b 7b3e
000002b0: 15c9 8abe af60 903d 3c5b 30be 06ab 953e
000002c0: e89c ae3d caf9 823e 04f5 373d cab7 ed3d
000002d0: ac24 4f3e 7fdf 7f3a 797a 32be 95e8 743e
000002e0: c0f3 9cbe f40e 4c3e 639a d2bc 4479 8ebd
000002f0: 5395 acbe 8c96 a2bd d0fd 09be e741 633c
00000300: 76fe 43be 94d4 36bd 6ae2 f7bd 56a4 f1bc
00000310: 1e0c b7bd 97e8 a1be 2349 813e bbf5 f33d
00000320: 9ac6 503e 8062 22be 9441 e83d 9aca 763b
00000330: ab8c c9be e98e 8fbd 749f 60be 7411 023e
00000340: 59f8 cebd 6c4d 4e3e 156f fa3d 088a c9bd
00000350: dfc5 613d 6ac0 abbd 681e 993c be68 a1bd
00000360: a385 8cbc 1287 a93e d3d4 ba3e 6748 333e
00000370: 8820 d63d 0ac4 ae3c f833 43bd 8b07 533c
00000380: 93f5 87bd 8cc8 30bb 9b63 82be 0b3c a23b
00000390: d482 d03b 5642 5dbe c277 d2bd 06c0 793d
000003a0: 44ca d2bd 980f 8cbd 3685 ac3d f9a5 8f3e
000003b0: be88 0b3e b425 1b3d bb9b a0be a6ef 873d
000003c0: ced9 443c 554b dfbd b8ad 4d3e 9c3e d03c
000003d0: 91b6 7e3e 19c4 213e ca00 3a3e c420 8fbe
000003e0: 3a6b a43b 0e9e a93e 4622 e63b 22d0 a83d
000003f0: 8152 65bd cb06 e53e f792 933c 242e 9a3d

layer1_1vm.0.bias f4 [32]
0.011245156 0.0017806483 0.021070981 0.0009946342 -0.027360873 -0.025950877 0.021393018 0.010913798
0.03613556 -0.027364485 0.029326558 0.007814835 -0.009760308 0.012181296 -0.0014619525 -0.025934445
0.01497807 0.017778713 0.039050624 -0.02965477 0.011168884 -0.021799013 0.018473195 0.034242813
0.0027804468 0.010152941 0.011654639 -0.017512407 -0.017065207 0.00968038 0.024470763 0.0209453
00000000: 9a3d 383c a464 e93a 0d9d ac3c 635e 823a
00000010: e923 e0bc ef96 d4bc 6940 af3c c9cf 323c
00000020: e202 143d 7c2b e0bc 403e f03c cb09 003c
00000030: b3e9 1fbc 0f94 473c fc9e bfba 7974 d4bc
00000040: 9466 753c aaa4 913c 8cf3 1f3d 8fee f2bc
00000050: b2fd 363c d893 b2bc 1955 973c 3142 0c3d
00000060: 2838 363b 8558 263c 19f3 3e3c 2e76 8fbc
00000070: 55cc 8bbc 759a 1e3c e976 c83c 7a95 ab3c

layer1_1vm.2.weight f4 [32]
0.98579276 0.9799346 1.012962 0.98943245 1.0071689 1.0215291 0.99943525 1.0221194
1.007752 1.0650027 0.99715555 0.9869643 0.9625164 0.9780962 1.0151794 1.0324247
0.95756024 0.94909596 1.0133936 1.0050586 0.9885404 1.0090587 0.9887949 0.9510288
1.0545993 0.96676517 1.0273687 0.9903624 0.9924876 1.0541816 0.9928571 0.96576583
00000000: ea5c 7c3f fedc 7a3f bda8 813f 724b 7d3f
00000010: e9ea 803f 77c1 823f fdda 7f3f cfd4 823f
00000020: 04fe 803f 0252 883f 9645 7f3f b1a9 7c3f
00000030: 7a67 763f 8364 7a3f 66f1 813f 7e26 843f
00000040: ab22 753f f4f7 723f e2b6 813f c3a5 803f
00000050: fc10 7d3f d628 813f aa21 7d3f a076 733f
00000060: 1cfd 863f ec7d 773f d180 833f 6488 7d3f
00000070: ab13 7e3f 6cef 863f e22b 7e3f 6e3c 773f

layer1_1vm.2.bias f4 [32]
-0.010514682 -0.016863715 0.0045294766 -0.010353311 0.0032748012 0.01932226 -0.004860015 0.023972075
-0.00017597013 0.06421881 0.005386162 -0.01486986 -0.03649906 -0.024679888 0.009289857 0.033386547
-0.040073004 -0.056215316 0.01810487 -0.00831905 -0.010885787 0.0147152925 -0.007830719 -0.054077275
0.052398693 -0.014943413 0.025991565 -0.010203504 -0.00834572 0.053568322 -0.01567582 -0.03131173
00000000: c645 2cbc c625 8abc 016c 943b efa0 29bc
00000010: 0c9e 563b b749 9e3c c340 9fbb 1661 c43c
00000020: 9f84 38b9 2785 833d 677e b03b b7a0 73bc
00000030: 0a80 15bd 7a2d cabc 7c34 183c 55c0 083d
00000040: 9723 24bd 0842 66bd aa50 943c a04c 08bc
00000050: 4d5a 32bc 6918 713c 6b4c 00bc 2280 5dbd
00000060: 03a0 563d 38d5 74bc 43ec d43c 992c 27bc
00000070: 7dbc 08bc 756a 5b3d 946a 80bc bb40 00bd

layer1_1vm.2.running_mean f4 [32]
18178.484 -4999.446 5458.673 13538.326 -11984.32 -6656.8193 -3535.9705 -25037.09
-11098.859 -5522.309 11789.909 18255.6 3921.6953 5477.9277 2296.1182 -6674.6216
13158.379 10992.257 10909.769 -1565.9015 -2904.3962 4384.5806 5817.8213 9951.019
8586.953 -1975.0393 13431.01 -3659.063 4431.5845 2478.6685 14916.557 -9923.566
00000000: f804 8e46 913b 9cc5 6295 aa45 4e89 5346
00000010: 4841 3bc6 8e06 d0c5 87ff 5cc5 2e9a c3c6
00000020: 706b 2dc6 7992 acc5 a337 3846 339f 8e46
00000030: 201b 7545 6c2f ab45 e481 0f45 f994 d0c5
00000040: 8499 4d46 07c1 2b46 1377 2a46 d9bc c3c4
00000050: 5786 35c5 a504 8945 92ce b545 137c 1b46
00000060: d02b 0646 42e1 f6c4 0adc 5146 02b1 64c5
00000070: ad7c 8a45 b2ea 1a45 3a12 6946 440e 1bc6

layer1_1vm.2.running_var f4 [32]
6.937521e+07 6.43285e+06 6.618207e+06 4.625427e+07 3.298407e+07 1.148045e+07 3.155943e+06 1.24197624e+08
3.519864e+07 7.9316095e+06 3.7344292e+07 8.3510024e+07 4.374427e+06 8.0387965e+06 1.1855881e+06 1.102687e+07
4.5609816e+07 3.0551944e+07 3.1328166e+07 529476.6 2.4019565e+06 4.9881525e+06 7.5923275e+06 2.3124856e+07
1.6471378e+07 854312.06 4.6018188e+07 3.3981232e+06 5.18731e+06 1.9020986e+06 5.4068764e+07 2.4897554e+07
00000000: 9d52 844c a450 c44a bef8 c94a 3072 304c
00000010: 03a6 fb4b 822d 2f4b 9c9f 404a 5fe3 ec4c
00000020: ac45 064c b30d f24a 0975 0e4c 6148 9f4c
00000030: 367f 854a 1953 f54a a1b9 9049 b641 284b
00000040: d6fc 2d4c c417 e94b d303 ef4b 4a44 0149
00000050: 929a 124a f139 984a 0fb3 e74a bc6d b04b
00000060: 5255 7b4b 8192 5049 a38b 2f4c ad67 4f4a
00000070: dc4d 9e4a 9530 e849 8741 4e4c 09f4 bd4b

layer1_2vm.0.weight f4 [16, 32]
0.24453492 -0.16684034 -0.29231998 0.11213435 0.2635539 0.008530123 -0.13218218 -0.231033
0.023009615 0.40176523 -0.43154904 0.020027863 -0.22102946 -0.0008202328 0.07870588 -0.15910822
0.22399946 0.029330483 -0.3272062 0.08982454 0.16518143 -0.015066701 0.16107917 0.14601219
-0.0766387 -0.25505596 0.07827282 -0.22430672 -0.07202706 0.16682743 -0.26883385 -0.11285457
-0.1134381 0.0031127506 0.0054517672 0.057558596 -0.0063161324 0.35258603 0.04057931 0.38449946
0.042799067 0.0708644 0.19075288 -0.19675076 -0.15963867 -0.16129413 0.22069198 -0.09714634
-0.07344415 -0.3186806 0.27243334 -0.06779883 0.07124577 -0.046780355 0.06680437 0.03150571
0.26259494 0.14811967 0.17936653 -0.3718601 0.10193275 0.2661442 -0.073877685 0.0012410978
0.17276835 0.21008049 0.064816564 0.3360904 -0.12538847 -0.21650305 -0.1623458 0.029322986
-0.187836 0.04048171 -0.10720349 -0.03904007 -0.02983685 -0.029696407 -0.12608415 -0.5032083
0.39185935 0.10587148 -0.03393211 -0.043698043 -0.04025723 -0.3915169 0.10196838 0.4402971
-0.01141551 -0.0066499077 -0.10809211 0.25966635 -0.20649628 -0.28253564 -0.17919372 0.21524528
-0.37834743 0.07844631 -0.47045243 -0.0005694075 0.07546867 -0.070065156 -0.09108349 0.25419906
0.1338151 0.050932363 0.021938706 0.20990862 0.4839042 -0.13387571 0.37274563 -0.21414517
-0.12837325 0.24043284 0.068067275 -0.11315795 0.27817115 0.20528644 -0.08112051 -0.07621331
-0.19546679 -0.29479983 -0.1577835 -0.06497142 0.3588331 0.003183108 0.31974253 0.19566697
0.027953075 -0.026494542 -0.28012607 -0.076765895 -0.022404537 -0.20085189 0.3638421 -0.4251467
-0.16735792 -0.2057192 0.117657445 -0.18546171 0.008025505 -0.29152957 0.18593578 -0.20751856
-0.37942088 0.043751843 0.08922666 0.35634753 -0.18883462 -0.1452392 -0.2520328 0.032672945
0.16206174 -0.010927381 -0.23317839 -0.17987004 -0.09714332 0.29421523 0.32299972 0.33077613
-0.111821376 -0.097809285 0.11039733 0.18059385 -0.036327634 -0.29523572 -0.08218959 0.11590323
-0.030341376 -0.043729756 0.04438088 0.29825866 0.060368843 0.06587239 -0.21773 0.2471735
-0.32897893 -0.21288967 0.040951774 -0.07305724 -0.09015077 0.1629558 -0.038498607 -0.12670514
0.37871832 -0.42551354 0.104636066 0.6014405 -0.23345217 0.1413445 0.20438676 -0.560732
0.2996275 0.07914611 0.10621084 -0.08703055 0.11803015 0.05739547 -0.35691154 -0.08340588
0.078355856 -0.18258952 -0.15236314 0.14907137 0.02417737 -0.17929325 0.18120505 -0.19680507
0.07565804 0.05280076 -0.0666085 -0.2173742 0.026775578 0.36582106 0.25863466 -0.027026514
-0.07418508 -0.39393774 -0.089608885 -0.12819733 -0.16469009 0.20439157 -0.07140903 0.1987713
-0.16882281 0.1544489 -0.2436258 0.08004848 -0.2257969 -0.38297775 0.25992274 0.35370442
0.28424117 -0.2691784 0.17704754 -0.24302661 -0.3023495 -0.3283445 -0.15651438 -0.435295
0.06382739 0.24462147 0.096962415 -0.0152499145 0.31722417 -0.20237283 -0.05579819 -0.19474855
-0.083816886 -0.10695254 -0.14348559 0.21810159 -0.34028614 0.07098169 -0.19369256 0.054881055
00000000: 5d67 7a3e 32d8 2abe f7aa 95be b2a6 e53d
00000010: 89f0 863e eec1 0b3c c45a 07be ea93 6cbe
00000020: a97e bc3c 2cb4 cd3e fff3 dcbe 7911 a43c
00000030: 8c55 62be e404 57ba 8c30 a13d 44ed 22be
00000040: 1d60 653e 7b46 f03c 9287 a7be eef5 b73d
00000050: 5225 293e 53da 76bc f0f1 243e 3884 153e
00000060: c0f4 9cbd b296 82be 804d a03d a9b0 65be
00000070: ec82 93bd cfd4 2a3e 97a4 89be 4c20 e7bd
00000080: 3c52 e8bd 4aff 4b3b bda4 b23b 90c2 6b3d
00000090: 8ff7 cebb 2886 b43e 7e36 263d 1ddd c43e
000000a0: 134e 2f3d 5b21 913d b954 433e 0879 49be
000000b0: 5278 23be 4a2a 25be 14fd 613e a9f4 c6bd
000000c0: e369 96bd 1b2a a3be 627c 8b3e 1dda 8abd
000000d0: 4de9 913d c29c 3fbd bbd0 883d 220c 013d
000000e0: d872 863e afac 173e dcab 373e 7264 bebe
000000f0: 1ec2 d03d 0d44 883e 2f4d 97bd 55ac a23a
00000100: 30ea 303e 571f 573e 8cbe 843d 0a14 ac3e
00000110: d665 00be fab2 5dbe fa3d 26be c236 f03c
00000120: 1558 40be 26d0 253d 818d dbbd 7be8 1fbd
00000130: 696c f4bc e145 f3bc 341c 01be 42d2 00bf
00000140: caa1 c83e 26d3 d83d 65fc 0abd b8fc 32bd
00000150: c4e4 24bd e774 c8be ccd4 d03d 9f6e e13e
00000160: 1f08 3bbc 78e7 d9bb 655f ddbd fdf2 843e
00000170: c373 53be 83a8 90be 8f7e 37be 4269 5c3e
00000180: c1b6 c1be 75a8 a03d 24df f0be 4a44 15ba
00000190: 518f 9a3d 527e 8fbd fb89 babd 6126 823e
000001a0: d306 093e 749e 503d cdb8 b33c 49f2 563e
000001b0: 4bc2 f73e b716 09be 84d8 be3e df48 5bbe
000001c0: 4774 03be 0734 763e db66 8b3d 5bbf e7bd
000001d0: 736c 8e3e 9c36 523e 8322 a6bd b915 9cbd
000001e0: 7228 48be 01f0 96be ff91 21be bc0f 85bd
000001f0: f9b8 b73e b19b 503b 4bb5 a33e ec5c 483e
00000200: d9fd e43c 150b d9bc af6c 8fbe 7037 9dbd
00000210: b889 b7bc 1eac 4dbe 8349 ba3e d4ac d9be
00000220: e05f 2bbe 0ea8 52be 63f6 f03d ade9 3dbe
00000230: 687d 033c 5d43 95be f365 3e3e bf7f 54be
00000240: 7443 c2be 2235 333d 78bc b63d 2f73 b63e
00000250: dd5d 41be 96b9 14be 710a 81be 11d4 053d
00000260: 83f3 253e c208 33bc 51c6 6ebe da2f 38be
00000270: 14f3 c6bd 61a3 963e 3860 a53e 7d5b a93e
00000280: 9b02 e5bd 3c50 c8bd ff17 e23d 98ed 383e
00000290: 49cc 14bd 2329 97be 0453 a8bd ac5e ed3d
000002a0: 7a8e f8bc f91d 33bd bac8 353d 5cb5 983e
000002b0: 5245 773d 1be8 863d 9df4 5ebe 0d1b 7d3e
000002c0: ed6f a8be c0ff 59be 0cbd 273d 099f 95bd
000002d0: f8a0 b8bd e3dd 263e b7b0 1dbd febe 01be
000002e0: 5ee7 c13e e9dc d9be 6f4b d63d 01f8 193f
000002f0: 160e 6fbe 9dbc 103e c34a 513e 228c 0fbf
00000300: c768 993e 5b17 a23d 1285 d93d 133d b2bd
00000310: cbb9 f13d 8317 6b3d 1cbd b6be b4d0 aabd
00000320: 0979 a03d bff8 3abe 1505 1cbe 2aa6 183e
00000330: 9f0f c63c a698 37be d18d 393e 4587 49be
00000340: 9af2 9a3d 9c45 583d 0a6a 88bd 5897 5ebe
00000350: 7558 db3c e64c bb3e c36b 843e b566 ddbc
00000360: 59ee 97bd 35b2 c9be dd84 b7bd 2946 03be
00000370: 85a4 28be 064c 513e e63e 92bd b48a 4b3e
00000380: e3df 2cbe da27 1e3e 0b79 79be 75f0 a33d
00000390: 4d37 67be a915 c4be 9814 853e bf18 b53e
000003a0: 0f88 913e c0d1 89be f34b 353e f8db 78be
000003b0: 8ecd 9abe c51c a8be 4e45 20be fcde debe
000003c0: efb7 823d 0d7e 7a3e 3b94 c63d c7da 79bc
000003d0: 356b a23e d33a 4fbe a58c 64bd 2a6c 47be
000003e0: 30a8 abbd ef09 dbbd e3ed 12be 0656 5f3e
000003f0: fc39 aebe d95e 913d 5857 46be f5ca 603d

layer1_2vm.0.bias f4 [16]
0.010309872 0.051864687 -0.07270239 -0.040287796 0.0031184726 0.03724257 0.006613042 0.015829237
0.009246091 0.0047649276 0.04315165 -0.043004904 -0.0051267063 -0.082894415 -0.042547137 -0.008128972
00000000: bdea 283c 1170 543d fee4 94bd d104 25bd
00000010: 4a5f 4c3b aa8b 183d 38b2 d83b 51ac 813c
00000020: eb7c 173c 1c23 9c3b c9bf 303d e925 30bd
00000030: eefd a7bb 8cc4 a9bd e845 2ebd 612f 05bc

layer1_2vm.2.weight f4 [16]
0.9779835 1.0235869 0.96624714 0.9963423 0.9200134 0.96202743 1.018089 0.9680324
1.0261515 1.0258343 1.0204905 1.014287 1.0062273 0.9532266 0.9612202 0.98222756
00000000: 205d 7a3f e504 833f f95b 773f 4a10 7f3f
00000010: 0086 6b3f 6e47 763f be50 823f f9d0 773f
00000020: ef58 833f 8a4e 833f 6f9f 823f 28d4 813f
00000030: 0ecc 803f a906 743f 8712 763f 4473 7b3f

layer1_2vm.2.bias f4 [16]
-0.030065786 0.019293219 -0.041412354 -0.028560523 -0.07491913 -0.046750095 0.018769262 -0.028463954
0.023827618 0.025331443 0.023922091 0.016423631 -0.0017753333 -0.032731175 -0.042220034 -0.027113099
00000000: 864c f6bc d00c 9e3c 00a0 29bd c2f7 e9bc
00000010: 336f 99bd 077d 3fbd ffc1 993c 3d2d e9bc
00000020: 2332 c33c e383 cf3c 43f8 c33c da8a 863c
00000030: 4db2 e8ba 2011 06bd eaee 2cbd 4a1c debc

layer1_2vm.2.running_mean f4 [16]
-0.30596063 0.5635809 -0.3769186 0.27660093 -0.46026102 0.015114138 -0.06904007 -0.64884394
0.1401735 -0.29941216 0.76320374 -0.902792 -0.6356515 -0.36367217 0.054975614 0.7360089
00000000: dfa6 9cbe d646 103f 7afb c0be a39e 8d3e
00000010: 55a7 ebbe 4aa1 773c e164 8dbd a31a 26bf
00000020: a489 0f3e 8d4c 99be 5261 433f 601d 67bf
00000030: 0fba 22bf 3d33 babe 1c2e 613d 146b 3c3f

layer1_2vm.2.running_var f4 [16]
0.6053707 0.52205116 0.49220154 0.37355387 0.69063914 0.84087235 0.4093114 0.93472826
0.33652237 0.29779238 0.4204431 0.84638757 0.801818 0.54489547 0.37310988 0.8808932
00000000: 93f9 1a3f 25a5 053f d701 fc3e 7442 bf3e
00000010: bacd 303f 6943 573f 4491 d13e 5a4a 6f3f
00000020: a94c ac3e 3e78 983e 5144 d73e dbac 583f
00000030: f243 4d3f 457e 0b3f 4208 bf3e 3782 613f

fc_advantage.0.weight f4 [20, 16]
-0.04330301 -0.31480622 -0.11691589 -0.38912785 0.010275685 -0.015356747 -0.021857366 -0.32685915
0.1507332 0.094125845 -0.024739174 -0.31219378 -0.31955573 -0.1082106 -0.26607087 -0.19512141
-0.114093535 0.054426696 -0.12405744 0.06896494 -0.14589457 -0.23250921 -0.2858567 -0.059229314
-0.09005191 -0.3595054 0.10298565 -0.51690847 0.3084758 0.006755329 -0.13147143 -0.08492013
-0.281147 -0.09427415 0.346868 -0.12396085 -0.016164929 -0.46445316 -0.26237327 -0.13195035
0.46739474 -0.16949525 -0.4229582 0.07810609 -0.20604321 0.26207927 -0.13031694 0.1263187
0.4532071 -0.050298817 0.42939547 0.03325818 -0.14237572 0.26099905 -0.03744964 -0.14142302
0.58360255 0.2378772 0.17704307 -0.18308651 -0.011050943 0.042061917 0.23521818 0.32334
-0.14003107 0.10928659 -0.34152606 -0.009813102 -0.09931778 -0.10143499 -0.31000698 0.04362437
-0.027209127 0.2205784 -0.076196894 0.06487284 0.13506204 -0.33239856 0.07892103 0.23451808
-0.41825423 0.07513316 -0.20504323 0.09409899 -0.12599728 0.3022038 -0.32849944 0.090619616
0.21690793 0.084031045 -0.45665684 -0.13956016 -0.14268214 -0.2356725 -0.12904906 0.07391779
0.0016818453 0.3333774 0.32532796 -0.50527596 -0.55351067 0.16553047 0.21382299 -0.00064516795
0.055744696 0.01832682 0.115904324 -0.17840178 -0.04964265 -0.015554851 -0.09852498 0.31677276
0.16461304 -0.24174173 -0.030973976 -0.06452098 -0.26714635 0.011766522 0.15515152 0.22206718
0.23979546 -0.17927675 -0.0726339 -0.28231016 -0.53288096 0.5338372 0.1283843 -0.017375614
-0.37476212 0.041962545 0.14831331 -0.2403994 0.0044750143 -0.18687063 0.2946671 -0.050541393
-0.14079538 -0.11135604 0.3288794 -0.069416635 -0.24356335 0.294009 -0.06610415 -0.116375275
0.5020495 -0.07519195 0.069481105 -0.094223656 0.3885283 0.05000919 0.6620408 -0.012737622
0.046197273 -0.2158096 -0.30269107 -0.24397877 -0.030072605 -0.15575175 -0.017118301 0.0727806
-0.018187381 -0.04337298 0.20675229 0.6906821 -0.054041207 -0.29654303 0.1361098 0.19774601
0.38887355 0.047282606 0.38660666 0.13983065 -0.03256304 -0.02816706 -0.025616469 -0.1466391
-0.3446977 -0.2903642 -0.14643149 0.086136185 0.24475661 -0.22491464 0.012359885 0.28682503
-0.20819157 0.0749761 -0.46712732 0.41818836 0.029349549 -0.40202358 -0.053042166 -0.06436806
0.16592427 -0.3279211 -0.19062093 -0.0052826153 -0.12563768 0.21018258 0.12755623 0.14583555
0.30623645 0.067358375 0.007779914 0.073466375 -0.2578832 0.14042327 0.0045286077 -0.06074899
0.26962125 0.12473933 0.28560224 -0.2175274 -0.36254665 0.4065885 -0.0949373 0.51253283
-0.17900948 -0.27670234 -0.14803083 0.08330823 -0.19655891 0.16150199 0.14667581 0.06339581
0.11378548 -0.03679175 -0.36011037 0.3745734 0.09105168 0.06113109 -0.1262458 -0.5786138
-0.0751568 -0.399354 0.023553645 -0.57184625 0.06447883 -0.021978095 0.13489953 -0.09354258
0.07392383 -0.14619829 0.030897535 0.07628919 -0.438589 0.1390589 -0.22348736 -0.12581196
-0.195939 0.35396317 0.22034149 0.19615652 0.00052362966 -0.28469992 0.013833593 0.3875889
00000000: 7f5e 31bd 482e a1be 9971 efbd c43b c7be
00000010: 595b 283c de9a 7bbc 380e b3bc 155a a7be
00000020: ce59 1a3e 0dc5 c03d cfa9 cabc ddd7 9fbe
00000030: cf9c a3be 859d ddbd 713a 88be e8cd 47be
00000040: dfa9 e9bd 87ee 5e3d d411 febd 7e3d 8d3d
00000050: 6365 15be e516 6ebe cf5b 92be 709a 72bd
00000060: 236d b8bd 1711 b8be 24ea d23d 1d54 04bf
00000070: 8af0 9d3e cf5b dd3b 72a0 06be 9bea adbd
00000080: 80f2 8fbe ce12 c1bd af98 b13e 30df fdbd
00000090: 506c 84bc cecc edbe ca55 86be fe1d 07be
000000a0: 5d4e ef3e 2a90 2dbe fa8d d8be 16f6 9f3d
000000b0: fefc 52be 412f 863e ce71 05be b059 013e
000000c0: c30a e83e 2206 4ebd b9d9 db3e bb39 083d
000000d0: f1ca 11be aba1 853e cb64 19bd 32d1 10be
000000e0: fa66 153f 1596 733e c74a 353e 087b 3bbe
000000f0: 040f 35bc 1e49 2c3d 09dd 703e d28c a53e
00000100: 4e64 0fbe a6d1 df3d 81dc aebe 22c7 20bc
00000110: 1f67 cbbd 26bd cfbd 3cb9 9ebe 78af 323d
00000120: ade5 debc 4edf 613e 1e0d 9cbd 0ddc 843d
00000130: b44d 0a3e 2530 aabe 59a1 a13d 8225 703e
00000140: 6b25 d6be 6adf 993d daf6 51be f9b6 c03d
00000150: 6e05 01be 75ba 9a3e 1431 a8be c796 b93d
00000160: 1d1d 5e3e 7818 ac3d edce e9be dce8 0ebe
00000170: 441b 12be 2254 71be 7025 04be 3662 973d
00000180: 5d71 dc3a 71b0 aa3e 6391 a63e c459 01bf
00000190: e0b2 0dbf d280 293e 6af4 5a3e 7d20 29ba
000001a0: 8d54 643d 2122 963c 3f5f ed3d f5ae 36be
000001b0: 1756 4bbd c6d9 7ebc 77c7 c9bd 0a30 a23e
000001c0: 5290 283e 258b 77be 23bd fdbc 9323 84bd
000001d0: 68c7 88be 5fc8 403c 0ae0 1e3e 9465 633e
000001e0: f18c 753e 5394 37be 15c1 94bd f58a 90be
000001f0: e36a 08bf 8ea9 083f 2d77 033e 4e57 8ebc
00000200: d2e0 bfbe ebe0 2b3d 72df 173e 432b 76be
00000210: 24a3 923b 045b 3fbe 9bde 963e 7e04 4fbd
00000220: aa2c 10be a30e e4bd e162 a83e 4f2a 8ebd
00000230: ac68 79be 5988 963e 9d61 87bd 2956 eebd
00000240: 5186 003f 3dfe 99bd 1c4c 8e3d 55f8 c0bd
00000250: 2eed c63e 70d6 4c3d 827b 293f 75b1 50bc
00000260: 5a39 3d3d 31fd 5cbe 53fa 9abe 92d5 79be
00000270: d35a f6bc 637d 1fbe ae3b 8cbc ff0d 953d
00000280: b4fd 94bc dea7 31bd dfb6 533e 8bd0 303f
00000290: 505a 5dbd 7dd4 97be 5e60 0b3e ee7d 4a3e
000002a0: 6f1a c73e 68ab 413d 4ff1 c53e c42f 0f3e
000002b0: d260 05bd 9bbe e6bc a1d9 d1bc 8f28 16be
000002c0: 387c b0be 9eaa 94be 23f2 15be 2b68 b03d
000002d0: 7aa1 7a3e 0650 66be 1d81 4a3c bbda 923e
000002e0: 2c30 55be 128d 993d 502b efbe c91c d63e
000002f0: 776e f03c 09d6 cdbe be42 59bd 67d3 83bd
00000300: 0de8 293e 46e5 a7be 2232 43be ca19 adbb
00000310: 2aa7 00be 1a3a 573e 1a9e 023e ea55 153e
00000320: 06cb 9c3e 30f3 893d a6ee fe3b 8a75 963d
00000330: 4409 84be 1ecb 0f3e b764 943b efd3 78bd
00000340: cc0b 8a3e 5577 ff3d 753a 923e 81bf 5ebe
00000350: b79f b9be 5e2c d03e 7d6e c2bd 5a35 033f
00000360: 434e 37be eeab 8dbe 6595 17be 819d aa3d
00000370: bd46 49be c760 253e 2f32 163e aad5 813d
00000380: 5d08 e93d f2b2 16bd 6360 b8be 16c8 bf3e
00000390: 4e79 ba3d 9864 7a3d 9446 01be 0920 14bf
000003a0: cfeb 99bd 2178 ccbe 93f3 c03c 8464 12bf
000003b0: 7a0d 843d 680b b4bc 1a23 0a3e 4193 bfbd
000003c0: 6165 973d 01b5 15be d41c fd3c 823d 9c3d
000003d0: bd8e e0be 7565 0e3e dfd9 64be dad4 00be
000003e0: 3ca4 48be a93a b53e 33a1 613e 41dd 483e
000003f0: 3144 093a 30c4 91be 4ba6 623c 0d72 c63e

fc_advantage.0.bias f4 [20]
-0.040341094 -0.015160599 -0.020103004 4.909585e-05 0.03925084 -0.022865755 -0.02703008 -0.010384391
-0.022545042 0.0022342987 0.0129442895 -0.09155342 0.014711217 0.013620846 0.018877914 0.0073349252
0.011391894 0.019298546 0.023022331 0.07280817
00000000: b43c 25bd 2964 78bc 0eaf a4bc 44ec 4d38
00000010: 7dc5 203d f750 bbbc 306e ddbc 4b23 2abc
00000020: 61b0 b8bc 506d 123b 4914 543c 5c80 bbbd
00000030: 5107 713c f829 5f3c dba5 9a3c d059 f03b
00000040: 11a5 3a3c fc17 9e3c 5499 bc3c 731c 953d

fc_value.0.weight f4 [1, 16]
-0.049527746 0.55763924 -0.102604434 -0.013338969 -0.0057362597 -0.17609502 0.41608435 -0.92774755
0.20241176 0.45680457 0.12766732 0.06601198 0.053591877 -0.11534336 -0.06992605 0.011540619
00000000: 9bdd 4abd 72c1 0e3f 4622 d2bd b18b 5abc
00000010: 3cf7 bbbb 4152 34be 0209 d53e dd80 6dbf
00000020: 0745 4f3e 4ae2 e93e 39bb 023e 4a31 873d
00000030: 2883 5b3d 2439 ecbd 6435 8fbd dd14 3d3c
