backup/test-0506/D3QN-OPT/train_model/eval.pth (torch, 42501 bytes, 27 tensors)

layer1_task.0.weight f4 [32, 3]
00000000: 5d4b 95be f035 293e 88d8 04be 2d42 183e
00000010: 2ec0 cebe 3884 bfbe 541b ae3d a693 e2be
00000020: 6d9a 923e ca95 033e ab95 0b3e 9fce 3fbe
00000030: f09e b4bc 5a03 fcbc 1dd8 b4be 984b be3e
00000040: 75f5 85be bbda 823d 6abc 9b3d 5c3a 18be
00000050: d0a5 673d 8f62 93bd fb28 65be b648 75be
00000060: 2abc 443e 115c 7e3d 09dc 07be 7b3b 75bd
00000070: d3a8 853e e24c 42be 7155 3e3e 1206 9bbe
00000080: 993a 93bd d2c7 abbe 7046 6d3e 8c7e 9e3e
00000090: 692c 82bd e527 433e ce57 773d 1848 e73d
000000a0: 8321 103f f0cb 20be 1955 d6be a9ea 093e
000000b0: caf9 02bf 9689 4a3e 9e54 bb3d a23b b1be
000000c0: 4533 87bd 048a 993e 590f 7f3e 58a7 243e
000000d0: cc01 0dbd 72f7 1c3e ebe8 88bc 8cf9 cabd
000000e0: 4340 a63e ef35 a6bd b232 843c 28cb 4339
000000f0: 31ce 403d c4c3 f13e c4da d63e 2ac2 5d3e
00000100: c314 da3d 499c 0ebf 7822 49bd 30fa d93e
00000110: 40a2 7dbd 033f c03d ef23 a9be 7334 35bf
00000120: da2d bc3e c604 a83e 1f64 8d3d 188e a4bd
00000130: e7ab c23e 7632 933e f22e 80be e236 bbbe
00000140: b5ea d23d 2e30 cebe 95d6 833d e48a aabe
00000150: 553f 5cbe d556 f83e e550 07bd 7225 b1be
00000160: 0fa8 f3be 9814 53be db92 82bd ab34 81be
00000170: 3b10 073d da4f 91bd c2bb bdbe d0cd 30be
-0.2915906 0.16524482 -0.12973225 0.14868994 -0.40380996 -0.37405562 0.08501306 -0.44253272
0.28633443 0.12850109 0.13631313 -0.18731163 -0.022048444 -0.030763317 -0.3532113 0.37167048
-0.2616383 0.06389376 0.076042965 -0.14866012 0.056554615 -0.07196533 -0.22378914 -0.23953518
0.19212404 0.06209952 -0.1326753 -0.059871178 0.26105365 -0.18974641 0.18587281 -0.3027807
-0.07188911 -0.33550888 0.23171401 0.30955923 -0.06356127 0.19058187 0.06038647 0.11293048
0.56301135 -0.15702796 -0.418618 0.13468422 -0.511624 0.19779047 0.09146999 -0.3461581
-0.06601576 0.2998811 0.24908198 0.16079462 -0.03442554 0.15328768 -0.016712626 -0.099108785
0.32470903 -0.08115756 0.016137455 0.00018672331 0.04707164 0.4721967 0.4196378 0.21656099
0.10648491 -0.5570722 -0.049105138 0.4257369 -0.06192231 0.093870185 -0.33035228 -0.70783156
0.36753732 0.32816142 0.06903862 -0.08034915 0.38021776 0.28749436 -0.25035816 -0.3656531
0.10298673 -0.40271133 0.06437413 -0.3330909 -0.21508534 0.48503748 -0.03303613 -0.3459888
-0.47589156 -0.20613325 -0.06375667 -0.25235495 0.032974463 -0.070953086 -0.3705731 -0.17266011

layer1_task.0.bias f4 [32]
00000000: 168f bdbd a5c2 a63c da26 fbbb f853 d6bc
00000010: 0abb 303e 31bd b33d 4488 933d ed6a 083d
00000020: 85c6 4abd 1955 873d ca3f db3d dc65 aebb
00000030: 7a5e 703b b755 2e3d 7b5f c4bd 33a0 a93d
00000040: 526a fe3c 39e9 b03d 9665 073e 27c2 6b3e
00000050: 52d8 8d3e 6820 53ba b57c 9b3d 634e 083e
00000060: 3c63 db3b 4172 f43d 9197 aebd 579f e8bb
00000070: 0bce 28bb 87a5 8d3c 6f1c 453e 01d1 fc3e
-0.09255807 0.020356486 -0.0076645436 -0.026163086 0.1725885 0.0877632 0.07203725 0.033305097
-0.04950573 0.06608028 0.10705526 -0.005322201 0.0036677406 0.042562213 -0.09588524 0.08282509
0.031056557 0.08638234 0.13222346 0.23023282 0.27704102 -0.000805384 0.07592145 0.13311152
0.0066951793 0.11935855 -0.08525003 -0.007099073 -0.0025757577 0.017290844 0.19249128 0.49378207

layer1_task.2.weight f4 [32]
00000000: 10f5 803f 2650 473f cbe9 513f 9828 5a3f
00000010: 5da0 5d3f 8285 433f 201e 583f 40a5 413f
00000020: 56df 583f ef1a 4c3f f6dc 6b3f 4ee3 5e3f
00000030: 2da0 373f 35ab 3b3f de5f 813f 2c11 553f
00000040: 1eb3 783f 99a9 463f 1120 523f 101a 103f
00000050: 94bf 2e3f 9020 573f 724b 663f a61d 403f
00000060: 0cf6 613f 4147 383f f316 8d3f d656 613f
00000070: e437 743f 2dec 723f 5477 6c3f 1555 183f
1.0074787 0.7785667 0.81997365 0.8521819 0.8657282 0.7637559 0.8442097 0.75642776
0.84715784 0.797286 0.92134035 0.8706559 0.71728784 0.73308116 1.0107381 0.8322933
0.9714831 0.77602535 0.8208018 0.5628977 0.68261075 0.8403406 0.8995887 0.7504524
0.8826606 0.71983725 1.1022629 0.88023126 0.9539778 0.94891626 0.9236958 0.59504825

layer1_task.2.bias f4 [32]
00000000: 688e 3c3e 69dc cbbe 75d5 9abc e679 253e
00000010: 407f 753d 1f33 d1bd ce26 eabe 2870 a5be
00000020: e2c9 c2be 4f7a db3d 0f84 5abd 1558 8f3c
00000030: d793 043e 41bb 5b3d b7b0 63bc ef6a 3f3c
00000040: 8013 7b3e 126e 2c3e f959 50be bc28 17bf
00000050: a498 053e 0aef 833d f9cd e83d d377 00bf
00000060: cb32 00bf de55 92be 19e1 5f3e ac3b b1bd
00000070: 9ba0 e33c d4b2 e13d 2653 d1be bbd9 1fbf
0.18413699 -0.39816597 -0.018900612 0.16159782 0.05993581 -0.10214829 -0.4573273 -0.3231213
-0.3804465 0.10716688 -0.053348597 0.017498055 0.12947021 0.053645376 -0.013897113 0.01168321
0.24519157 0.16838863 -0.20346822 -0.5904653 0.13046509 0.064420775 0.11367411 -0.5018284
-0.50077504 -0.28581136 0.21863212 -0.0865396 0.027786544 0.11020437 -0.4088375 -0.62441605

layer1_task.2.running_mean f4 [32]
00000000: 1d0d 16c7 6590 9546 b390 3746 46a5 8146
00000010: 882f 3ec5 1d64 3c47 482a 1e46 b5e0 0fc6
00000020: d8d4 c746 a0e8 f5c5 c7d9 bf46 6add 21c7
00000030: 5d4c fcc5 e35b 6e46 a981 54c7 36db ba46
00000040: fa1d 00c6 5c0c ab46 5de9 04c5 3a2b 1fc6
00000050: 3d78 c045 3039 e946 cc45 bfc5 b726 3f46
00000060: 3ee4 3747 bef6 28c6 7660 04c7 66db 5ec7
00000070: 0fa0 e2c6 02fa 39c7 9808 02c6 f569 14c6
-38413.113 19144.197 11748.175 16594.637 -3042.9707 48228.113 10122.57 -9208.177
25578.422 -7869.078 24556.889 -41437.414 -8073.5454 15254.972 -54401.66 23917.605
-8199.494 21894.18 -2126.5852 -10186.807 6159.03 29852.594 -6120.7246 12233.679
47076.242 -10813.686 -33888.46 -57051.4 -29008.03 -47610.008 -8322.148 -9498.489

layer1_task.2.running_var f4 [32]
00000000: 73d3 344f 55f5 374e 9b16 8e4d b8f5 054e
00000010: e15d 984b 619a 934f ebef 594d 1379 2c4d
00000020: d8d9 a84e 6847 f54c dda4 9f4e 3527 5f4f
00000030: 380e 014d 55bb d84d 04e7 b24f c02e 8b4e
00000040: c2d1 054d c217 694e ad19 1d4b 48ad 584d
00000050: 1aa3 994c f927 db4e 8a42 924c 80cd 8c4d
00000060: 0d17 934f 5aff 534d 4dda 084f ce79 c04f
00000070: 6c74 d04e 8dba 8d4f 5892 0c4d 23fb 2b4d
3.0337564e+09 7.7157715e+08 2.9798077e+08 5.618683e+08 1.997101e+07 4.9527363e+09 2.285237e+08 1.8085099e+08
1.4164244e+09 1.285968e+08 1.3391909e+09 3.7438886e+09 1.3532454e+08 4.5451946e+08 6.0029686e+09 1.1675484e+09
1.4031978e+08 9.776621e+08 1.0295725e+07 2.2720218e+08 8.05501e+07 1.838415e+09 7.668232e+07 2.9528474e+08
4.935523e+09 2.2229546e+08 2.296008e+09 6.458416e+09 1.7486454e+09 4.7556265e+09 1.4740006e+08 1.8033515e+08

layer1_1vm.0.weight f4 [64, 40]
00000000: 1cd6 bcbe 4df4 a93d 192f b0bc 4434 38bd
00000010: 3424 19bd 4140 12be f7d2 66be 92f4 3c3d
00000020: c260 bdbe 0b24 153e e887 9bbd df11 9fbb
00000030: ad51 7cbe db0f df3d a903 d4bb 666f f23d
00000040: a111 81bd bd8c 793e 3090 8b3c e7bc 9bbd
00000050: 16a0 e7bc ad7f 02be 0d88 063d 4a41 bd3c
00000060: 9008 7ebe 1fe8 343d 527c c83d 288b 263e
00000070: a3ea f8bd 9766 ca3e 0ee9 3d3e f6ce 373e
00000080: cac9 09be bd7e 0b3f 3d96 a7be c403 6f3e
00000090: edcf 09be c8b7 eb3d 089b cd3d 891a 5e3e
000000a0: 19a3 e3bd eb58 16bd d309 9f3d f141 dd3a
000000b0: 0623 fbbb 4bef fdbd b701 33bd 8f2b 383e
000000c0: 1bf2 c6bd 8886 fabd 6a99 683e 99ac 23bf
000000d0: 0926 0cbe d8bc 423e 4de9 61bd f545 29be
000000e0: ac89 433e bd1a d2be 3d18 fe3b 2727 7abd
000000f0: c904 bfbd fe0b c3bd c96d a13d 331d 4cbd
00000100: 7200 5dbe f114 b5be b5a8 013e d5c7 b1ba
00000110: 015f 1f3e e5c9 2dbe 4625 013e 4c60 473d
00000120: bd7d fabd 35e1 2d3e 093c b5be 20c5 adbc
00000130: 9931 54be 455b b4be 12e6 e8bd 4a1a 393e
00000140: 9b6d 67be 92bd f43d b744 5bbe 3d38 6fbe
00000150: 7a91 99be 16b7 cfbd e304 2dbe fea4 c1bd
00000160: 7231 aebe a297 6cbc be54 b5be 4715 b1be
00000170: 7702 4cbe 62e3 a3bd 8952 50be f850 5e3e
00000180: bfe0 49be 14ca 3f3d 3cea 3bbe 60b9 90be
00000190: 2453 40be 0eaf 463e 6a08 48be 00fc 2c3c
000001a0: c55a 64bd bb11 26be b0ec d1bd cd25 a83d
000001b0: f626 14be 1024 683e 8757 21bf ca53 0c3e
000001c0: a2b3 b0be 910c 903e 566a 88be c0fe 4b3d
000001d0: 5fcf e8bc 3798 9ebd 7fcd 87be 0cb0 433d
000001e0: 5ed5 0f3d ba2a 03bf dda0 3bbe 73b1 ad3c
000001f0: 1013 3a3e e622 613c b87a bf3d 2aee 053e
00000200: e64b 9b3d 0065 7abe 8b1a 10bd 945a 983d
00000210: e582 463d 039c df3c f30e c63d 24ec 5abe
00000220: c8ed fb3d 436c 703e 9cb8 5c3e 5053 b33b
00000230: c04f 1a3e 4816 c6bd ed51 a9bc 4fdf a3bd
00000240: a463 2f3e 9925 8e3e 73f1 4b3e d92f b3be
00000250: 1e2b 323e 7adc 163e ff1d 863e 0b8d 7cbe
00000260: e9b8 eabd 0378 febd 673c abbd 8c14 3c3e
00000270: 190a e43d 6e4e 2dbe d3b4 2e3e 4a30 183e
00000280: 5f31 373e d6e1 ba3d 7343 2a3e ea41 983d
00000290: b7e0 5c3e de3b 3d3e 264e 673e 37cb 823d
000002a0: 0e15 12bd 7162 d0bb f5b5 9a3e 17fd 68be
000002b0: 134b 91bd 3f52 22be 1549 f43d 90ac 5f3b
000002c0: ad0b 833c 4321 4ebe 7602 4c3e b177 dd3d
000002d0: c75b 173e 7742 ac3e f41e 423e c823 bc3b
000002e0: 32c5 ddbc eef9 b43d e49c 8f3d 8d16 c53d
000002f0: ac6a 1abe 3e61 2c3d 7def a8ba 4555 ab3e
00000300: df32 6f3d cdb8 cabe 00ff 7bbb e406 51be
00000310: 5924 633e ba95 1e3e 7f37 483e 8116 a2bd
00000320: 5553 9a3d 1073 b3bd e728 edbc 1d15 113d
00000330: a20d 273d 75e9 80bd 1e0e 963d 28ac c13d
00000340: 2e45 29be 018f 303d da94 083e adec fb3c
00000350: 39cb f63c b2cb 94be 35a5 be3d 49b4 29be
00000360: 7821 593d da3f 303c c183 acbc 3f93 8fbc
00000370: 2280 3dbe 2768 aebc 7ab8 1abd a5f8 74ba
00000380: 8e73 ea3d 287a 233e 5727 143e d1b7 b63b
00000390: 32e1 ac3d e648 003e ac9b 733e 72d9 903c
000003a0: 5c2a 973d b6a2 0e3e d0e4 053e 1a7c edbd
000003b0: 4a6b 0cbc f1a2 56be 5a18 123e a32e ccbe
000003c0: c912 983d a4cf 203e a774 963d 06c2 87be
000003d0: e8f7 8abd f09c a33d 0b92 22be a6e6 b5bc
000003e0: 8214 b23d 4f99 333e a49d eabd de08 3abd
000003f0: cb5a a13d 4533 e73d cfbc 843e 2df6 5f3e
-0.36882102 0.0829855 -0.021506833 -0.04497172 -0.03738804 -0.14282323 -0.22541414 0.046131678
-0.36987883 0.1456453 -0.075942814 -0.0048544253 -0.24640532 0.10891696 -0.006470163 0.11837654
-0.063021906 0.24370094 0.017036527 -0.0760439 -0.028274577 -0.12744017 0.032844592 0.023102421
-0.24807954 0.04416668 0.09789337 0.16264021 -0.121541284 0.39531395 0.18545935 0.17950043
-0.13455883 0.5449026 -0.3273181 0.2334128 -0.13458224 0.11509663 0.100393355 0.2168981
-0.11115093 -0.036705893 0.07765546 0.0016880614 -0.007664087 -0.12399157 -0.043702807 0.17985366
-0.09714147 -0.12232691 0.22714773 -0.6393524 -0.13686384 0.1901735 -0.055154134 -0.16530593
0.19095486 -0.41036025 0.0077543543 -0.061072495 -0.093270846 -0.09523772 0.07882268 -0.049832534
-0.21582201 -0.3536754 0.12662013 -0.0013563583 0.15563585 -0.16971548 0.12611875 0.04867582
-0.12231014 0.16980441 -0.35397366 -0.02121216 -0.20722045 -0.35225883 -0.113720074 0.18076435
-0.22600405 0.1195022 -0.21412931 -0.23361297 -0.29993802 -0.10142343 -0.16896395 -0.09455298
-0.340221 -0.014440449 -0.35416216 -0.34586546 -0.19922815 -0.08002354 -0.20343985 0.21710575
-0.1971464 0.046823576 -0.18351072 -0.2826643 -0.18781716 0.19402716 -0.1953446 0.010558128
-0.055750627 -0.16217701 -0.10250223 0.08210335 -0.14467987 0.22670007 -0.6302418 0.13703838
-0.3451205 0.28134587 -0.26643628 0.049803495 -0.028419195 -0.077438764 -0.2652397 0.047775313
0.035115592 -0.5123707 -0.18323083 0.021202778 0.18171334 0.013741231 0.093495786 0.13079134
0.07582836 -0.24452591 -0.035181563 0.074391514 0.048464675 0.027296072 0.0967082 -0.21379143
0.123012125 0.23478799 0.21554798 0.005472578 0.15069485 -0.096722186 -0.020668948 -0.08001577
0.17127854 0.2776306 0.19916324 -0.34997442 0.1739926 0.14732543 0.2619476 -0.24663179
-0.1146105 -0.12425234 -0.0836113 0.18367213 0.111347385 -0.1692445 0.17061166 0.14862171
0.17889927 0.09125106 0.16627292 0.07434447 0.21570097 0.18479869 0.22588405 0.063864164
-0.03566461 -0.0063593914 0.30216947 -0.22752796 -0.070943974 -0.15851687 0.11928002 0.0034129955
0.015996778 -0.20129876 0.19922814 0.10813845 0.14781104 0.3364446 0.1895712 0.00574157
-0.02707157 0.08836733 0.070123464 0.09623442 -0.15079755 0.042084925 -0.0012888756 0.33463493
0.058398124 -0.39594117 -0.0038451552 -0.20412785 0.22181834 0.15486804 0.1955242 -0.079144485
0.075354256 -0.08762181 -0.028950168 0.035420526 0.040784486 -0.062945284 0.073269114 0.09456664
-0.16530296 0.04310513 0.13338032 0.030752504 0.030126201 -0.29061657 0.093088545 -0.1657268
0.053010434 0.010757411 -0.021058919 -0.017526267 -0.1850591 -0.021289898 -0.037773587 -0.0009344912
0.114478216 0.15964568 0.14468132 0.005576112 0.0844139 0.12527809 0.23789853 0.017681811
0.07381126 0.13929257 0.13075566 -0.11595936 -0.008570502 -0.20960595 0.14267102 -0.3987933
0.07425458 0.15704209 0.073464684 -0.26515216 -0.067855656 0.07988918 -0.15876023 -0.022204708
0.08695318 0.17538951 -0.11455849 -0.045418613 0.078786455 0.11289076 0.259253 0.21871252

layer1_1vm.0.bias f4 [64]
00000000: 2bba c5bd 8ec9 32bd 82a2 41be bca1 bb3d
00000010: f018 e03d 9fd3 063d d696 b13d 1546 8cbe
00000020: a22b 593e d8ca 89bd 8004 8cbe 8655 9f3d
00000030: a16e 2abe 20af 383d b47d 0ebe 38a5 af3b
00000040: e896 8b3d 73e6 da3d 1294 cdbc b99c 17be
00000050: 34d6 613d ea6e 9d3d e3fb c33c c229 33bd
00000060: d514 863b 0a2f 90bd 1fd4 1cbe 44a7 b43d
00000070: 5ca2 11bd ccf3 c9bd 2e7c dbbd ef0a b2bd
00000080: 405c 573d ea0d a5bd a804 11be 852f 9ebd
00000090: e077 1cbe 0956 0d3d b0d5 a6bc 1887 813d
000000a0: 14f2 fcbd 2c5e 79bb 48a8 62bd 0342 6dbc
000000b0: 45d2 a03d a22f 033d 767f af3c 799d 3cbc
000000c0: 4fce 3f3d a8d2 04be fe71 73be e9a5 eebc
000000d0: f740 23be 12e9 4fbd ae1e 01bc 8590 60bd
000000e0: 5443 45be d580 03bd 9617 10bd 9b63 71be
000000f0: d570 dbbd ba6e 093e 3743 e63a ab30 e53d
-0.09654649 -0.04364925 -0.18909648 0.09161708 0.109422565 0.03291666 0.08671348 -0.27397218
0.21208051 -0.067281425 -0.27347183 0.07779984 -0.16643764 0.045088887 -0.1391514 0.005360272
0.068158925 0.10688486 -0.02509502 -0.14805879 0.05513592 0.07687171 0.02392382 -0.043740995
0.004091839 -0.07040222 -0.15315293 0.08820966 -0.03555523 -0.09860954 -0.10717045 -0.08693492
0.05257821 -0.080592945 -0.14161932 -0.077239074 -0.15280104 0.034505878 -0.020365566 0.06324595
-0.1235086 -0.0038050516 -0.055336267 -0.01448107 0.07852606 0.032027848 0.021423083 -0.011512154
0.04682761 -0.12970984 -0.23773953 -0.029131847 -0.15942751 -0.050759383 -0.00788085 -0.054825325
-0.19263965 -0.032105286 -0.035178743 -0.23573153 -0.107148804 0.13421145 0.0017567639 0.11190923

layer1_1vm.2.weight f4 [64]
00000000: fead 783f 3cd1 693f 3908 be3f f1e7 6d3f
00000010: a8cd 803f 4c46 903f 9b93 7f3f 0a30 8e3f
00000020: c2e3 833f 1ce0 5a3f f443 bc3f 660f 5e3f
00000030: 0c4b 6f3f 10ea 4f3f e63d 9f3f d6d1 803f
00000040: a5cb 603f 07e4 7a3f fe98 8a3f e0da a03f
00000050: 0c84 a73f 91bb 993f cba9 643f 62c5 593f
00000060: 066c 4d3f ec14 823f e65d b03f bbbf 7a3f
00000070: 4f4a 7c3f 4e5e 853f 7554 643f fc9c 783f
00000080: c399 553f 85b4 5b3f 1ad4 a23f 805b 903f
00000090: 57b4 853f b1ca 6d3f 70a6 4e3f 112f 813f
000000a0: 351c 7a3f 9286 603f 6ea2 6b3f 0dec 4f3f
000000b0: 7ad4 713f 2179 4b3f 65d7 763f 84fd 703f
000000c0: f511 703f ede0 7c3f ebd7 a63f 4283 783f
000000d0: 0eea ba3f ec08 763f a8fc 553f ac50 633f
000000e0: 6326 963f 70cd 5d3f 6ab7 843f 06b6 913f
000000f0: 1f72 773f a812 843f 59f9 403f 7000 923f
0.9714049 0.9133489 1.4846259 0.9293204 1.0062761 1.1271453 0.99834603 1.110841
1.0303881 0.85498214 1.4708238 0.86742246 0.9347389 0.81216526 1.2440765 1.0064037
0.87810737 0.9800419 1.082794 1.2566795 1.3087173 1.2010366 0.89321584 0.8506681
0.80242956 1.0162635 1.3778656 0.9794881 0.98550886 1.0419405 0.8919137 0.9711454
0.83437747 0.85822326 1.2720978 1.1277924 1.044566 0.9288741 0.80722713 1.0092489
0.9769929 0.8770534 0.92044723 0.8121956 0.9446484 0.79481703 0.96422416 0.94136834
0.937774 0.9878071 1.3034643 0.97075284 1.4602678 0.96107364 0.8358865 0.8879497
1.1730465 0.866416 1.0368474 1.1383674 0.9665851 1.0318193 0.75380474 1.1406384

layer1_1vm.2.bias f4 [64]
00000000: d729 87bd 8fb6 b5bd 3e10 593e c647 27bd
00000010: caf1 913c f41b 473d f90f e23c 4bc3 a73d
00000020: f786 f33d 1088 40be 11ab 6d3e 66b4 b3bd
00000030: b41e a1bd a0f3 e6bd ccd1 c33d e9b9 773c
00000040: 1ab1 a4bd 1441 3ebd c98a 453c 7e8b 643c
00000050: 3d03 a93e 32e5 e13d 7fcf acbc 9cb4 0ebe
00000060: 3fd0 12be adad 863c 4c29 8a3e 107a c63a
00000070: a821 1bbd 13f1 2b3d 7779 48be d25d 223d
00000080: b117 b9bd 74b0 f6bd 2748 0d3d 8bb9 033e
00000090: 8c7f 37bd 7036 a5bd 01d7 64be 5c3c 503d
000000a0: e1e1 a6bd 642e f4bd c4a6 08bc a1eb cfbd
000000b0: 0580 babd e3a7 16be b1fa 5cbd be45 df3c
000000c0: 3079 1f3c 334e 90bd 747b 3f3e 6280 133d
000000d0: f276 513e 31a6 2abd 0e06 5abe 34dd dabd
000000e0: 8581 643d 7764 08be f1b8 d6bc a21b f8bc
000000f0: a36e 08bd 2aaf 243d 26a2 74be b013 6f3e
-0.06599777 -0.08872711 0.21197602 -0.040839933 0.01781549 0.048610643 0.027595507 0.08191546
0.11890977 -0.18801904 0.23209788 -0.08774643 -0.07867184 -0.112769365 0.095615 0.015120008
-0.08041592 -0.046448782 0.012057015 0.013949273 0.33010283 0.11030044 -0.021095036 -0.13936085
-0.14337252 0.016440237 0.26984632 0.0015142579 -0.037873894 0.041977953 -0.19577585 0.039640255
-0.09037722 -0.120453745 0.034492638 0.12863748 -0.044799373 -0.08067024 -0.22347642 0.050838813
-0.08148552 -0.11922911 -0.008340541 -0.101523645 -0.09106449 -0.14712481 -0.053950015 0.027254935
0.009733483 -0.07046165 0.18699437 0.036011107 0.2045553 -0.0416624 -0.21291372 -0.106867224
0.055787582 -0.13319574 -0.026211234 -0.030286614 -0.033308636 0.040206112 -0.2388998 0.23347354

layer1_1vm.2.running_mean f4 [64]
00000000: f489 a247 5cf5 84c7 5d78 2f47 d980 9dc8
00000010: baa4 9c47 4885 46c7 6c6d ea47 7c9f b7c6
00000020: 62fa d447 3ab6 d247 4e5f 0cc6 a029 3248
00000030: 4bc1 17c7 ee5e b8c7 1fd8 cdc5 608f 0fc8
00000040: 1283 aa47 9fd5 59c8 a9fc 80c7 e35d c147
00000050: a426 e7c7 27ba 19c7 2c7e 63c6 3776 8947
00000060: 7837 c8c5 2020 29c8 340c d347 7f23 2d47
00000070: 4f77 00c8 23df 2147 5243 82c6 dfc8 36c8
00000080: ab85 8947 cc64 a1c6 a6f0 5c47 3365 28c5
00000090: ef70 ca47 69c2 2548 fe6d dbc7 e375 64c6
000000a0: 5675 9dc7 98c9 2b47 2d4e 82c7 b315 08c8
000000b0: 148b 6747 4c4d 63c7 d887 0648 d0cb 4f46
000000c0: 2661 0648 6647 5947 1e58 e3c5 fa20 edc7
000000d0: 6b17 a9c5 6c7d 43c7 e9f6 3048 f325 38c8
000000e0: e320 c6c7 01d4 97c5 b4a3 08c7 bb10 12c7
000000f0: ca8a 1ac7 0a59 3c47 f201 a7c7 ee15 0bc7
83219.91 -68074.72 44920.363 -322566.78 80201.45 -50821.28 120026.84 -23503.742
109044.766 107884.45 -8983.826 182438.5 -38849.293 -94397.86 -6587.015 -147005.5
87302.14 -223062.48 -66041.32 99003.77 -118349.28 -39354.152 -14559.543 70380.43
-6406.9336 -173184.5 108056.41 44323.496 -131549.23 41439.137 -16673.66 -187171.48
70411.336 -20658.398 56560.65 -2694.325 103649.87 169737.64 -112347.984 -14621.472
-80618.67 43977.594 -66716.35 -139350.8 59275.08 -58189.297 137759.38 13298.953
137604.6 55623.4 -7275.0146 -121409.95 -5410.9272 -50045.42 181211.64 -188567.8
-101441.77 -4858.5005 -34979.703 -37392.73 -39562.79 48217.04 -85507.89 -35605.93

layer1_1vm.2.running_var f4 [64]
00000000: 16d3 ce4e eafc a44e dfc5 e04d a3ca bf50
00000010: 698c be4e db0e 224e e7f4 464f b23a 254d
00000020: db34 434f a180 344f 6d22 b44b 9694 0050
00000030: 961b cd4d 48da fa4e 9d2b b44c e42a a74f
00000040: 7109 c74e f025 4e50 56f2 8f4e 6bf6 0e4f
00000050: 8ef1 5d4f 3e28 c44d 3084 284d f9da 8b4e
00000060: e111 5e4c fe7c e94f e882 344f 3590 114e
00000070: 6521 8b4f eef1 e84d 5394 954c 584c 0550
00000080: df0e a14e 3257 034d d817 2d4e 1923 134b
00000090: 5720 1d4f 64eb e74f df24 414f e6af 394c
000000a0: 8ebe da4e 26a6 f34d e0a5 864e ff75 ac4f
000000b0: bf16 584e 9281 4c4e a8b9 9c4f 4028 fc4c
000000c0: 89d9 854f 96bf 324e 0523 4b4c 738b 4c4f
000000d0: 0ce2 834c 9d9c 2f4e f8a9 cc4f 4ce5 1350
000000e0: add9 0e4f 33f2 ed4a 7676 a04d 7a46 914d
000000f0: f5ff c14d 74e5 0d4e f2eb e14e dae5 a54d
1.7349701e+09 1.3840192e+09 4.71383e+08 2.5741826e+10 1.5984365e+09 6.7972064e+08 3.3379387e+09 1.7325546e+08
3.275021e+09 3.0283287e+09 2.3610586e+07 8.628886e+09 4.3014214e+08 2.1043046e+09 9.446116e+07 5.609212e+09
1.6696424e+09 1.3834371e+10 1.2075118e+09 2.398514e+09 3.7235953e+09 4.1137146e+08 1.767022e+08 1.1731918e+09
5.8214276e+07 7.8345656e+09 3.028478e+09 6.1053677e+08 4.668443e+09 4.8852115e+08 7.842268e+07 8.945492e+09
1.3510532e+09 1.377206e+08 7.2600525e+08 9.642777e+06 2.6361423e+09 7.781927e+09 3.240419e+09 4.867676e+07
1.8349606e+09 5.1096902e+08 1.1295089e+09 5.7868283e+09 9.0634234e+08 8.577609e+08 5.2588257e+09 1.3220301e+08
4.491252e+09 7.4972506e+08 5.3251092e+07 3.431691e+09 6.914467e+07 7.3656915e+08 6.8673823e+09 9.925112e+09
2.3966303e+09 7.7970175e+06 3.3651475e+08 3.046644e+08 4.0684714e+08 5.951562e+08 1.8951683e+09 3.4791302e+08

layer1_2vm.0.weight f4 [32, 64]
00000000: cf95 403e db8d 3bbe da28 493e ab2d 4bbd
00000010: eb3f 513e 72df f23d 3386 593e d763 ab3d
00000020: 1e5f 3e3e b347 153b 4a7c 15bd 081e f23d
00000030: 1c41 b23d cb80 d23d 4d94 153e 6c6a 27be
00000040: 3c44 df3d 68d3 d5be b9a9 893d 46e5 473e
00000050: 7c70 b33d fff7 4fbe 0bff 08be d112 51be
00000060: 823a fbbd e952 11bd 417a 5e3e 4f00 d43e
00000070: 6e7b 87be 2048 6d3d bdea 00be 4f76 793e
00000080: 2488 31bd 5496 4a3e 7c56 17bd 7ec6 543e
00000090: 60ca bf3d 8052 03be e1e8 b4bb 1bda 9dbe
000000a0: 02e8 ac3d 627c 923d a7c0 f8bd 5992 2d3e
000000b0: 52c2 4ebe fb2c c93b 3075 853d b063 393e
000000c0: 04d2 4dbd 6182 4c3e 2031 83be e85e eb3d
000000d0: a65e ee3d b3c1 0e3e f479 2b3e 239d 463e
000000e0: a066 753d 465d 4ebc be22 93be 8fe9 7b3e
000000f0: c000 5fbd e63b 743c a6ae f0bd 9083 773d
00000100: b4bc eabe 13f6 c2bd 9bca 3abe 6e3d aabd
00000110: fc51 49bd 9be2 373e 211e 3f3d cb47 8dbe
00000120: 3e35 f5bd 04bf a53d a166 35be 7af0 0fbd
00000130: 1b93 16be a14f 0dbe 14bb 01bf 732f 153e
00000140: 86db d2bd a78c 57be b0e3 eebd df05 a8be
00000150: c156 1abe 8288 24bd 9a21 ff3c 64ce 4dbd
00000160: 47f5 36be af5d 4f3c 2ac8 6bbe 2ee6 e13d
00000170: 9686 793e 6da9 2bbe 8547 52be 56d9 e7bd
00000180: df0d bc3d c94a fe3c fccd 29bd a122 d9bd
00000190: 1ada 7bbe cd12 a4be b74e bf3d c326 823e
000001a0: 080e 90bd d5ca 733d 36f0 c73d d3c7 88bc
000001b0: c5b9 2e3e acec 8d3d 5424 7abd df6b dfbc
000001c0: 6036 4a3c a8ab 4ebe 586f 07bf 27e4 9d3c
000001d0: 93e8 c5be 0a6e 38bd 4d77 3c3e 6629 3f3d
000001e0: 3388 8fbe 0948 89bd 082f 08be 5397 1dbe
000001f0: 8ad5 0abe eda8 513e 7b05 c33d e319 b03d
00000200: 881f 223b 2170 61be 5ef7 993b 3d5d 01bf
00000210: 6d3b 0bbe a264 a7bd 8b0c 16bd 796a 08be
00000220: 8292 2fbe 9ba6 21be cb74 3abe f45f 02be
00000230: ccc4 1e3d e93f 843d 09f3 f53d 2aa3 d8bd
00000240: 7f21 d43c 6a0a 5c3e cdc0 8fbd a2b5 8bbe
00000250: 5a35 483b 3ab7 d7bd 2533 81bd 0669 fc3d
00000260: 1e73 263d 1035 33be acc5 8abd 1606 023e
00000270: 3998 153e bffc 83be 429c 58bd 685f aebe
00000280: f496 a33d 7df2 c8bd 7e0a ee3a 40a7 2c3d
00000290: 1fdb 2f3d f867 643e 09b4 393d 96b6 01bd
000002a0: 242b b1be 91f8 b9bd b8b7 313d b091 9ebd
000002b0: 260e 933b 2a39 29be f388 433e d26e ef3e
000002c0: efb4 6c3d 331e f53d 3c42 afbd c271 eebd
000002d0: 94ae 12be a682 60bd ca32 533d ccde 39bd
000002e0: db21 68be 731c b33e 0511 eebc e509 c5bd
000002f0: db7a 183d bee9 ab3c 98e4 a7bd d297 ac3e
00000300: f74e eb3d 149c 003e 1c8e aa3e 159a debd
00000310: 842d 1abe 4d33 843e 98f6 c23d e8e4 353e
00000320: 79f6 263e 4d86 343e 101a d2bd 7aa7 e23d
00000330: b661 3ebe 75f8 403e 29ec cc3e 29a5 b83e
00000340: 879a 67be c2aa cd3c 2242 16be 4de7 543e
00000350: d364 b6be 395c aebc 0567 09be ba62 59bc
00000360: d7c8 213d 67de a3bc 3746 a73e 9a50 0b3e
00000370: fc41 a2be 879a 0d3e 85f7 80bd 2419 e23d
00000380: f179 403d d6a2 9dbd d348 ee3d 461f 46be
00000390: ba29 e6bd da9d 103e 4319 733e f1e5 863d
000003a0: c3e7 a43e b924 19be 3ea2 bfbd 6131 45be
000003b0: dbdb 3fbc bc33 00be 9287 5b3c 2328 7ebd
000003c0: e6e3 603e 0783 8b3e fcfa 8a3e 5d71 4b3d
000003d0: 6b21 c23e 88e7 6539 dcde 39bd d315 0f3e
000003e0: 0bc9 4dbd 1f4c 2dbe adaa 97be 1808 083e
000003f0: d491 133e eca6 38be 2e73 bbbe 5ef8 f0bd
0.18807147 -0.18315832 0.1964449 -0.0496041 0.20434539 0.11859025 0.21242599 0.08368652
0.18590972 0.0022778332 -0.036495484 0.11822134 0.08703825 0.102784716 0.14607354 -0.1634919
0.109016865 -0.41762853 0.06721825 0.19521055 0.08761689 -0.20309447 -0.13378541 -0.20417334
-0.12267019 -0.03547946 0.21726324 0.41406485 -0.26461357 0.057930112 -0.12589546 0.24361537
-0.043342724 0.19783908 -0.036947712 0.20778844 0.09364772 -0.1282444 -0.0055209254 -0.30830464
0.084426895 0.071526304 -0.121461205 0.16950358 -0.20191315 0.0061393953 0.06516492 0.18104434
-0.050249115 0.1997161 -0.25623417 0.11492711 0.116391465 0.13941078 0.1674574 0.1939588
0.059912324 -0.01259548 -0.28737444 0.24600814 -0.054444075 0.014906859 -0.117520615 0.060428202
-0.45847094 -0.09519591 -0.1824135 -0.08312498 -0.049150452 0.17957537 0.046659593 -0.27593836
-0.11973046 0.08093074 -0.17714931 -0.035141446 -0.14704554 -0.13799907 -0.50676084 0.14568882
-0.10295777 -0.21049748 -0.11664522 -0.3281698 -0.15072156 -0.040169246 0.031143952 -0.050245658
-0.17867003 0.012656613 -0.23025575 0.110302314 0.24367747 -0.1676385 -0.20535095 -0.113207504
0.09182333 0.03104152 -0.041456208 -0.10602308 -0.24594918 -0.32045594 0.093411855 0.25420198
-0.07033926 0.059519608 0.097626135 -0.016696846 0.17063053 0.06929907 -0.0610698 -0.027273117
0.012342066 -0.20182669 -0.5290427 0.01927383 -0.38654003 -0.045026816 0.18404885 0.04667034
-0.280336 -0.06703193 -0.13299191 -0.15389757 -0.13558021 0.20474596 0.0952253 0.085986875
0.0024738032 -0.2201543 0.004698678 -0.50532895 -0.13596888 -0.08173491 -0.036633056 -0.13321866
-0.17145732 -0.15786211 -0.18208615 -0.12731916 0.0387619 0.064575024 0.12009246 -0.10577996
0.025894878 0.21488348 -0.07019196 -0.27287012 0.0030549378 -0.105329946 -0.06308583 0.12324719
0.040637128 -0.1750071 -0.06775984 0.12697634 0.1460885 -0.25778767 -0.052883394 -0.34057164
0.079877764 -0.09811876 0.0018161086 0.04215169 0.04293358 0.22305286 0.04533771 -0.03166827
-0.34603226 -0.090806134 0.0433881 -0.077426314 0.0044877706 -0.16525713 0.1909521 0.46764237
0.05778974 0.11968651 -0.08557555 -0.11642791 -0.14324409 -0.054812096 0.051562108 -0.04537849
-0.22669165 0.34982643 -0.02906085 -0.09621028 0.03722654 0.02098548 -0.08197898 0.3370958
0.11489671 0.12559539 0.33311546 -0.108692326 -0.15056425 0.2582039 0.0951969 0.17763102
0.1630496 0.17629357 -0.10258877 0.110671 -0.18591961 0.18844779 0.40023926 0.36063507
-0.22617541 0.025105838 -0.14673665 0.20791359 -0.35623798 -0.02128421 -0.13418205 -0.013268167
0.039498176 -0.02000351 0.32670757 0.13604966 -0.31690967 0.13828479 -0.062972106 0.110399514
0.046991292 -0.07697074 0.11634984 -0.19347867 -0.112384275 0.14122716 0.23740105 0.065868266
0.3220807 -0.14955415 -0.09357117 -0.19257118 -0.0117101325 -0.12519735 0.013399022 -0.062049996
0.21961936 0.27248403 0.2714461 0.04966866 0.3791612 0.00021925394 -0.04537855 0.13973169
-0.050240558 -0.16923569 -0.29622403 0.13284338 0.14411098 -0.18032426 -0.36611313 -0.11766122

layer1_2vm.0.bias f4 [32]
00000000: 6df1 d23d 1315 d03c 2f39 d43c 70d1 cf3d
00000010: 612b 943d cc90 143d 38d6 12bd bf99 f3bd
00000020: 9291 43be 06fd eabc 4a44 fc3d bc19 e13d
00000030: 0124 df3d 3636 febd 6af3 eebd fabb e03d
00000040: 4fdf c43d 10bf be3d 1e5a 04be f94f 823c
00000050: 4e60 03be 13ce 9cbd fd54 863d 885d c03d
00000060: 826d f63d 5763 4c3e 3b10 f93c df52 fe3b
00000070: 2fac e6bd 013b e63c 0523 333d 4200 243d
0.102999546 0.025400674 0.025906174 0.10147369 0.07234836 0.0362709 -0.035848826 -0.11894559
-0.190985 -0.028685104 0.123177126 0.109912366 0.10895539 -0.12412684 -0.11667521 0.10973354
0.09612905 0.09313786 -0.12925002 0.015907275 -0.12829706 -0.07656493 0.06559179 0.0939284
0.12032606 0.1995977 0.030403247 0.007761344 -0.1126331 0.028104307 0.04373457 0.04003931

layer1_2vm.2.weight f4 [32]
00000000: 0a20 6c3f d8f1 693f 5672 4b3f 3c03 823f
00000010: 4fc6 473f 6716 693f 3ebf 263f 2665 733f
00000020: 9680 9a3f 5b0d 5a3f 59d8 563f bdfb 8a3f
00000030: 983c 6f3f bb15 763f 597d 853f 0267 6c3f
00000040: 90bb 853f 2940 513f 8d25 8e3f 1cb7 563f
00000050: 3288 a63f 0a9b 613f 6843 813f c924 923f
00000060: 1663 523f 58f8 773f a5c7 723f 9e6b 563f
00000070: f08c 843f f8ca 593f 9c61 6c3f 0025 4e3f
0.9223639 0.9138465 0.7947134 1.0157237 0.7803697 0.9104981 0.6513556 0.95076215
1.2070491 0.8517663 0.8392387 1.0858074 0.93451834 0.9612691 1.0428878 0.9234468
1.0447865 0.81738526 1.110521 0.8387315 1.3010314 0.88127196 1.0098696 1.1417476
0.82182443 0.9686332 0.94835883 0.8375796 1.0355511 0.8507533 0.9233644 0.8052521

layer1_2vm.2.bias f4 [32]
00000000: ff31 773d 9690 c43e 8a8d 843d 9d80 ad3d
00000010: 9656 c4bd 5aa9 0dbe 789e 91be dc56 433d
00000020: d9ad 0d3c 665f cb3c 6a91 76bc 93b8 9f3e
00000030: 6855 943e 0144 3bbe 157b 48be 9c0a 613e
00000040: d172 33bd e7ad 8bbd feea afba 16fe 4dbe
00000050: ecac c73d 9d46 4ebe e07d 0d3e cdc2 acbd
00000060: 4446 bd3c 6c0e ab3e a0bf 123e 8c1d cebc
00000070: 91cf f03d 6990 853c 653f 76bd e735 cd3c
0.060350414 0.3839156 0.06472309 0.08471797 -0.095868275 -0.13834134 -0.28441215 0.047690257
0.008647406 0.024825763 -0.015049318 0.31195506 0.2897141 -0.1828766 -0.19578202 0.21976703
-0.04381067 -0.068202786 -0.0013421474 -0.20116457 0.09749779 -0.20144124 0.13817549 -0.08435593
0.023104794 0.3340944 0.14330912 -0.025160573 0.1175834 0.016304212 -0.06011905 0.025050117

layer1_2vm.2.running_mean f4 [32]
00000000: 0471 833f af60 22c0 da45 69bf c340 a23f
00000010: 0385 90bf 8eed e33e 45bd 18bf 1623 04c0
00000020: 12a0 40c0 3c34 cdbf 5054 5a3f ac07 843f
00000030: 1218 9abf 06ca af3d f08f f4be 42ea 69bf
00000040: a651 5a3e 3410 873f 4e1e 1a3f 6b5e 8c3f
00000050: a6fc 133f a962 2a3d 8adb 133f 3666 37be
00000060: 3178 5e3e 92c9 52bf b72e f5bf cdba 40bf
00000070: 363f dfbe cb9a 63bf 568a bf3e 6f6d 77bf
1.0268865 -2.537151 -0.9112221 1.2676014 -1.1290592 0.44517177 -0.596638 -2.0646415
-3.00977 -1.6031566 0.852849 1.0314841 -1.2038596 0.08583455 -0.47766066 -0.91373074
0.21320209 1.055182 0.6020249 1.0966314 0.57807386 0.041597996 0.57756865 -0.17910084
0.21725537 -0.8233882 -1.9154881 -0.75285035 -0.43602914 -0.8890807 0.3741023 -0.9665136

layer1_2vm.2.running_var f4 [32]
00000000: a550 923f f2aa 5b40 e549 983f 142f f93f
00000010: 32d4 f03f 205b 893f 6765 9c3f be18 0140
00000020: 43a6 5840 8dc3 d83f 6c00 a43f bbc3 1f40
00000030: 4839 b93f 8882 8c3f 6245 a93f 07bb a73f
00000040: 9c34 a03f 7d57 a23f 4e18 0240 e95e 983f
00000050: 1fc1 0540 72d5 583f be86 c33f ba56 0540
00000060: 8c5c 5d3f 2ff9 0040 d155 3340 5a42 4c3f
00000070: ab68 953f 8b6f 573f 91e0 823f 5bbd 8e3f
1.1430861 3.4323087 1.1897551 1.9467492 1.8814757 1.0730934 1.2218446 2.0171351
3.3851478 1.6934677 1.2812629 2.4963214 1.4470606 1.0977335 1.3224299 1.3103951
1.2516055 1.2682949 2.0327334 1.1903964 2.0899122 0.8470069 1.5275495 2.0834184
0.8646934 2.015209 2.8021128 0.79788744 1.1672567 0.84154576 1.0224782 1.1151537

layer2.0.weight f4 [32, 64]
00000000: 8d5d d33d f70d bcbd d34f 283e 8940 733d
00000010: b2bd 29be bce2 043e e3e6 803e fba4 babd
00000020: 82d3 2ebe 8056 943d 7f01 4cbb 1164 743e
00000030: 6c87 d73c 25eb 78bd 0561 2b3e b386 483d
00000040: 8051 0ebe de1a 22bd 6c0e 49be 05d3 7dbd
00000050: 12e6 8ebe 45ca f7bd 9bdc e33c 32b1 20be
00000060: 6c43 12bb 9fde 8dbd bb88 dcbc a497 9bbd
00000070: 1033 903d 845f 20bd 81ca 58be d373 083d
00000080: 4540 eb3e beab 013d a1b6 823e 7bc6 b1bc
00000090: 9dcd 8cbc a196 6c3e f145 fbbd 6e34 963e
000000a0: 7113 ffbb 7834 f13d e369 04be 6c46 9c3e
000000b0: 6abc 87bc 48de 6d3c 26a6 a73e e987 243e
000000c0: afb9 123e 1838 7c3e 07e2 eabd ec58 b5bd
000000d0: 1e4f c73e 2d27 573e e1bb 233e 4104 753e
000000e0: b343 8c3c eeea 6c3e a134 05be a1d1 82bd
000000f0: 4ae1 a43c eb3d c03d bd1b 223e 3973 4c3c
00000100: 89ba 36bd c096 03be 7af3 69bd e19f b9bd
00000110: 244c 0f3d 7256 333d 5abf 66bd 9bbf aebd
00000120: 36c2 0bbe 16be cabb 2a16 e1bd fe2c 313e
00000130: 3ed9 d73d 64ea b53d c235 adbd 6029 f23d
00000140: e036 f53e b0a6 55bd 7f03 b4bd 7254 81be
00000150: 9f82 233e 7008 673d 6d79 2c3e 7b1d 97be
00000160: b987 6fbe aa94 873d 6d4a d3be 2b58 c5bb
00000170: 0a00 a3bd 6d5b 433e 5dea 2dbd 77c1 ebbd
00000180: 6fd7 153e b94b 333d b3b7 0d3a 104b 673b
00000190: e988 1f3c 42ff 84be 17f7 903d 130a 07be
000001a0: 49ca 26be 4ce8 b13d 9ca7 5dbe aabf 19be
000001b0: 43cc 5c3d a1f2 ab3d 350b 643e 9c4b 66be
000001c0: 528d fdbd c32d 62be c81a a83d a8f5 83be
000001d0: 9790 b63e 89d9 003e e9c5 393e 549d 8dbe
000001e0: 5764 9dbc 0ad7 a4be f2e3 783d f4af 873e
000001f0: 9918 83be 12ab bd3d 69f4 69be e851 153e
00000200: 87f6 8b3d d0a0 58bd 2362 333d e8d4 babd
00000210: 963e 4e3d 3f36 33be 1b02 e5bd 9b17 363e
00000220: 297e 093e 437f 863e 62a3 963d 8783 9c3d
00000230: 5767 1fbd 813e 8e3d 4661 2cbe 1f6b e6bd
00000240: 3860 0d3e f4bc da3d 5e84 fd3c a6f4 bebd
00000250: 07bf 46bd 03ee f93c b991 123e be2a b6bd
00000260: f6de 14bc 0b7f 6e3e 1eee cbbd 9483 01be
00000270: 1b77 4bbc 44dc 80bd 1700 f4bd 9ffa f73d
00000280: 9d8d 723d e638 a4bd 9091 2abb d4c1 97bc
00000290: bbfd 39bd 4631 ccbd 4780 a1bd 0e62 533c
000002a0: 17de 0d3d 4972 853d 2f9b 1ebe 8bb3 9d3d
000002b0: 89bc 833e a6ff 5a3e 2dc1 8bbd 0032 373e
000002c0: d5df 59be 79a1 423d 435a 6b3e 4a16 6fbd
000002d0: 14e6 273c 39cc 54be d652 6b3d 0ce9 54bd
000002e0: de8b 273e cb69 643d 2bc3 463b cb69 53bd
000002f0: bf5b d9bd 139b fdbd 6195 75bd d94c 423e
00000300: a707 e7bd 86f6 adbe de4d 2d3e d433 21bd
00000310: 14d7 25be 0160 2a3d f19e 2ebe 5975 80bd
00000320: 6b1e f13d 10d4 36be 8950 c9bc 4c8f 19bd
00000330: 14a1 843b b813 06bd 373b 26be 5cd8 853e
00000340: 1537 c4bd 0c7f 743e e299 213e 6c0d 1a3e
00000350: a108 f03d 6aa0 a53d 476d 0a3e 9f22 013e
00000360: 6109 2fbd e5f2 a73d 4a92 8fbd 4ea0 e2bc
00000370: ffe9 cb3c e940 7a3e b4e4 e93c e02b 2c3d
00000380: 585f 1bbc 04cc 863e d641 9b3e 92e1 813e
00000390: 59bd 13be e446 1a3d b2c9 e03c fb34 04be
000003a0: 4992 843e 6b54 b73d 971a 84bd 0e61 803d
000003b0: bf75 d0bd b3b7 38be 8034 a23d ed84 fabd
000003c0: bc68 4fbd 49ee 95be 0531 8fbc f8a6 ed3b
000003d0: 90bb 5d3e 657f 063e d988 a33e 60ac 2fbe
000003e0: b037 48bd 5fe2 223e b3a5 2f3d a9cc 9f3d
000003f0: a501 3d3e 7b8c 063e 316f 943c 39e9 4cbe
0.10320578 -0.09182351 0.164367 0.059387717 -0.1657627 0.12977117 0.25176153 -0.09113499
-0.17072871 0.07243061 -0.0031128821 0.23866297 0.026309691 -0.060771126 0.16736229 0.048956584
-0.13898277 -0.039576404 -0.19634408 -0.061968822 -0.27909905 -0.12099127 0.027815154 -0.15692595
-0.0022318019 -0.06927227 -0.026920667 -0.075972825 0.070409894 -0.03915359 -0.21170999 0.033313584
0.4594747 0.031657927 0.2552996 -0.021701088 -0.017187888 0.23104335 -0.122692 0.29336876
-0.0077843 0.11777586 -0.12931018 0.30522478 -0.016569335 0.014518328 0.3274395 0.1606747
0.14328645 0.24630773 -0.114688925 -0.08854851 0.3892755 0.21011038 0.15989639 0.23927404
0.017122125 0.23136494 -0.13008358 -0.0638764 0.020126957 0.0938681 0.15830894 0.012478643
-0.044611488 -0.12850475 -0.057116963 -0.090636976 0.034984723 0.043783613 -0.05633483 -0.085326396
-0.13648304 -0.006187211 -0.109905556 0.1730232 0.105394825 0.08882597 -0.08457519 0.11824298
0.4789343 -0.05216092 -0.08789729 -0.2525974 0.15967797 0.05640453 0.16843195 -0.2951468
-0.23391618 0.06620152 -0.4126772 -0.0060224733 -0.07958992 0.19077845 -0.042459834 -0.1151151
0.14632963 0.043773387 0.00054060965 0.0035292543 0.009737232 -0.25975996 0.07078379 -0.13187437
-0.16288103 0.08686885 -0.21645969 -0.1501452 0.053905737 0.08395887 0.222699 -0.2248978
-0.1238047 -0.22087769 0.08208233 -0.25773358 0.35657188 0.12582983 0.18141903 -0.27659094
-0.019212885 -0.32195312 0.06076426 0.2650143 -0.25604704 0.09261145 -0.22847141 0.14582026
0.06834131 -0.052887738 0.043794762 -0.0912264 0.050352655 -0.17501162 -0.11182042 0.17782442
0.13427033 0.26268968 0.073553815 0.07642274 -0.038916912 0.069455154 -0.16833982 -0.112509005
0.13806236 0.10680571 0.030946907 -0.09324007 -0.04852202 0.030509 0.14313401 -0.08894871
-0.009086361 0.2329065 -0.099575266 -0.1264785 -0.012418534 -0.06292012 -0.1191408 0.12108349
0.059217084 -0.08018665 -0.0026026703 -0.018525042 -0.04540799 -0.09970336 -0.07885795 0.012901796
0.03463563 0.06515939 -0.15488885 0.07700261 0.25729778 0.21386585 -0.06823955 0.17890167
-0.21276791 0.047517274 0.22983651 -0.058370866 0.010247726 -0.2078103 0.057452045 -0.051980063
0.16361949 0.055764955 0.0030328732 -0.051614564 -0.10613202 -0.12383094 -0.059956912 0.18974628
-0.112807564 -0.33977145 0.16924235 -0.039356068 -0.16195327 0.041595463 -0.17052819 -0.06272382
0.1177338 -0.17854333 -0.024574535 -0.037490174 0.0040475223 -0.03273365 -0.16233526 0.26141632
-0.095808186 0.2387659 0.15781358 0.15044183 0.11720396 0.08087237 0.13518248 0.12610863
-0.042733554 0.08200625 -0.07010324 -0.02766433 0.024891851 0.24438824 0.028551437 0.04203403
-0.009483181 0.26327527 0.30323666 0.2536741 -0.14427699 0.037665263 0.027439926 -0.12910835
0.25892857 0.08951648 -0.06450384 0.06268512 -0.10178708 -0.18038826 0.0792017 -0.12232385
-0.05063699 -0.2928336 -0.017479429 0.0072525702 0.2165358 0.13134535 0.31940344 -0.171556
-0.048881233 0.15906666 0.042882632 0.07802708 0.18457659 0.13139527 0.018119426 -0.20010842

layer2.0.bias f4 [32]
00000000: 34ec 883f 5b7e 9f3e b7fa b43f 1eb0 9c3f
00000010: 33b3 bb3e 0175 b63e 415b df3e 5edb ba3e
00000020: 5fa5 a63f 4848 803e a1f8 523f fe3d bc3f
00000030: b8fa f33b c5f0 ccbe 38ba b03f 41a4 a23f
00000040: 3b35 a33f 3227 9d3e f0ce 3b3d a9b4 d93e
00000050: 688d d33e 9ff4 a03f 905a 6e3d 4af0 f33e
00000060: fcbc 303f e214 d73e 452d 883e 53de a53f
00000070: fdf3 8bbe 54d0 ad3f af19 b63e 07ed 143f
1.0697083 0.3115109 1.4139012 1.2241247 0.36660156 0.35636142 0.4362431 0.3649549
1.3019217 0.25055146 0.8241063 1.4706419 0.0074456595 -0.40027443 1.380683 1.2706376
1.275062 0.30693966 0.045851648 0.42520645 0.41318822 1.2574652 0.058191836 0.47644264
0.6903837 0.4200812 0.26597038 1.2958473 -0.27334586 1.3579202 0.3556647 0.58174175

layer2.2.weight f4 [32]
00000000: 865f a83e 648c 5bbc 3fe0 203f 69b0 113f
00000010: 3c34 1e3c 7050 46bc 11e6 ed3b 5b24 ec3c
00000020: 09a3 293f 7880 513c b8d5 b63c e349 0f3f
00000030: 4be1 ad3e 7228 df3e 735c 313f 85b8 203f
00000040: d259 4b3f d644 88bb 6546 fc3e 4a45 a0bb
00000050: 7804 713c 9b94 343f 43dc 063f 0ebd 9bbb
00000060: d95e b93c 3532 5a3c dfb7 f13b 49bb 013f
00000070: 6e0f df3e ef74 1f3f a2e9 1b3b 2504 5cbc
0.3288538 -0.013400171 0.6284217 0.56909806 0.009656008 -0.012104139 0.007260092 0.02882593
0.66264397 0.012786977 0.022318706 0.5597212 0.33960947 0.43585545 0.6928169 0.62781554
0.7943393 -0.0041585965 0.49272457 -0.0048910724 0.014710538 0.70539254 0.5267984 -0.0047527617
0.022628235 0.013317634 0.0073766555 0.506764 0.4356646 0.622878 0.002379038 -0.0134287225

layer2.2.bias f4 [32]
00000000: 1c79 e23e 89b7 dd3f 400c 003f cd88 183f
00000010: 145b ab3f 686e ce3f 9503 eb3f 1d68 933f
00000020: 2a28 183f 44b1 c53f 5d74 f23f 78c1 e53e
00000030: 6a06 c7be a8ec fbbe 1297 193f c02a 1e3f
00000040: 0b81 243f 5d3c d03f bda6 b6be df92 e63f
00000050: 1043 c03f 9124 393f c522 f93d da61 c23f
00000060: e21e de3f ffaf d13f 75b1 0440 c62b da3e
00000070: 4bb3 083e db35 e73e e59d bf3f 122f 8f3f
0.44233024 1.7321635 0.5001869 0.5958374 1.338717 1.6127443 1.8360468 1.1516148
0.59436285 1.5444722 1.8941761 0.44874167 -0.3887208 -0.49203992 0.5999614 0.6178398
0.64259404 1.6268421 -0.35674086 1.8013572 1.5020466 0.7232142 0.12164835 1.5186112
1.7353175 1.6381835 2.073331 0.4261152 0.13349645 0.45158276 1.497006 1.118624

layer2.2.running_mean f4 [32]
00000000: 9318 2240 ab92 eebc 4746 e23f ff5f f33f
00000010: 0a6b e7bc 2469 53bd 8568 84bd f576 8fbe
00000020: fbee 0940 19f5 67bd 9214 edbd 5848 1440
00000030: 845e a8bf bdbd 8bbf eace 1f40 deb7 0a40
00000040: 2afd ef3f 7583 f1bd 352d 9dbf fdb6 26be
00000050: 1ba3 86bd 5314 0240 a9ac 70bf 8f89 09bd
00000060: c00f 9abd b293 3abd 3e3a 00be fcb5 1640
00000070: f3a6 13bf d1dd 0d40 d8ea 93bd 1795 4dbe
2.53275 -0.029122671 1.7677697 1.9013671 -0.028249282 -0.05161394 -0.06465248 -0.28020445
2.1552112 -0.056630228 -0.11576189 2.3169155 -1.3153844 -1.0917279 2.497004 2.1674724
1.8749135 -0.117926516 -1.2279421 -0.16280742 -0.06574079 2.0324905 -0.9401346 -0.03357845
-0.07522535 -0.04555101 -0.12522218 2.3548574 -0.5767662 2.2166636 -0.07222527 -0.20076405

layer2.2.running_var f4 [32]
00000000: d1fa 0540 09b6 4c3f a2b9 763f ad70 c33f
00000010: 8ec9 b03f aaf9 1740 607f 7e3f 849b 823f
00000020: 39c2 da3f e8db 0240 2375 233f f6f4 e13f
00000030: 630f 7940 cdc7 893f 4b7b 0540 dc1a a83f
00000040: 69bf a63f 450e 8c3f 9bac b240 9297 c43f
00000050: 72dc aa3f 8640 e53f 5225 6840 ccd7 0f40
00000060: a387 b63f 9a3c 1140 cec6 1b40 6f7d f53f
00000070: c58a c93f f7ec f53f 4d08 1940 fb67 7e40
2.0934336 0.79965264 0.96377003 1.5268761 1.381151 2.3746133 0.9941311 1.020371
1.7090522 2.044672 0.6385061 1.7652881 3.8915641 1.0764099 2.0856502 1.3133197
1.3027164 1.0941855 5.58357 1.5358756 1.3348525 1.7910316 3.6272779 2.2475462
1.4260143 2.2693238 2.434009 1.9178904 1.5745474 1.9212941 2.3911316 3.9750965

fc_advantage.0.weight f4 [20, 32]
00000000: 7a58 623d 9987 5a3d 0d6e 593e 7f19 6d3d
00000010: 87ad 56bd 16d0 a9be 7ec9 64be 5c62 003e
00000020: 32b3 173d ab0a 80be 747f 1dbe 888c 8c3e
00000030: 312e c4be 0afb 533d 9089 fe3d 26df 74be
00000040: 2a1f 833d fecc d8bc 31c9 acbe 05fa 263d
00000050: 2348 a13e 59a5 3d3d 8377 333e 6043 96bd
00000060: b1cf 283d 525c b03d 55a5 6bbe 50e8 8a3e
00000070: 36f4 9cbd 0bc7 553d 3d8b 913e c639 063e
00000080: bf72 133e a6ae 8fbe 6b0c fb3e 875f c5bc
00000090: e11f b4be a94b 3cbf f995 10bf 36a0 62be
000000a0: 79aa b53e cd2b 46bf ab1a 0cbf c26c 323e
000000b0: b09f e0be bc5a 8ebe 7263 383f 2c2d d93c
000000c0: 1c89 a93e 626e 5ebe f41e 103d 15d8 80be
000000d0: fc22 5fbe 02fb bd3d 5042 1dbe c692 1fbe
000000e0: 07d1 c0be 9a5b 57be a5aa 40bf b792 d63e
000000f0: 4982 0fbc 5267 0d3f cb0e e4bc 664d 583b
00000100: c7a5 dc3d 1bcc 97be 2d1b 803e e91a d83e
00000110: 1d28 12bc 5b4e c7bd d0fc 29bf f609 abbe
00000120: 22d9 cd3e e634 86be dfa6 c8be 696a 7e3e
00000130: 0f13 95be dd48 e7bb be42 043e 9d92 3a3e
00000140: 8130 0c3e 5e93 59be 93b4 83be a56e 0fbf
00000150: af69 213d ab1a 603e 1610 523e 8d6b 8abe
00000160: 60ce 02bd 5442 6cbe 2c49 82bf 7f35 343f
00000170: 8083 84be 680d 003f 8cdb dfbe 9b8a 683c
00000180: 0948 5c3e 76ab 04bf 48bf f53e 9126 64bd
00000190: f012 be3d 2235 9dbd fb8d d1be c90b e9be
000001a0: 52fe 723e a3f6 19bf a89a 1abd 30cf 25bd
000001b0: 0704 c0be c78a ebbe 1957 ee3e d5c5 26be
000001c0: e81c 633e 9bda 6dbe 2a2d e0bd 5c33 28bf
000001d0: 3bc4 a5be 786f 4a3e de98 91be 614e eabe
000001e0: 1015 93be a706 06bf 540f 53bf b8d5 173f
000001f0: 3a6d 7e3d 2781 c93e 56ae 8fbe 1af3 f9bd
00000200: 782a d03d 02bd 9ebd 0b6f dabd dc96 c6bc
00000210: 171d 61bd 0870 d5bd a38b 1ebe 6328 e33d
00000220: 4646 26bd 6473 8fbd ba55 eb3d e732 a73c
00000230: 48bf f8be d824 22be c0f3 23bc 5209 0ebd
00000240: 419b 15bd e6bd f93d b6ab 24bd b367 0abd
00000250: 6433 8abc b36f 44bc 49f6 d4bc 4a10 cf3e
00000260: 7870 a43c 9544 debd 75f1 88bc ea18 c03d
00000270: 3b3c 08be 6aff 29bd 4299 e53d cb81 a13d
00000280: eef0 4e3c 9645 9dbd bcd1 78bd 24e5 32bb
00000290: f1c7 3dbd 3e54 a1bd 6922 36be a2c2 ab3e
000002a0: 59ad 47bd 1e3e 603d 60f4 d83d cd9e 03bd
000002b0: b702 6a3d fa01 b03d c50b 36bb b8b0 d1bb
000002c0: b082 48bc 3bc1 c43e 02ec acbe 7059 b53d
000002d0: 616d 5cbd 8da0 8d3b ca3c 923b 27f2 a0bd
000002e0: 9748 27be 1000 0d3e 8e66 08be 31ba 653d
000002f0: 98a0 88be 6f08 9fbc 04e9 b53b 71cf f2bc
00000300: 4be8 66bc fb4f 0bbd 98ba edbd c848 823b
00000310: c166 a0bd d9c7 0abe 7c72 10be 2d8e e1bd
00000320: cd10 d5bd a21f f3bd 2b02 8f3d fe1f 10bd
00000330: 446c 26bd 2aa8 0d3e 5240 bfbc 626f 0ebd
00000340: cedc 11bd ab09 953e af9d 32bd 4c23 753e
00000350: fbbf 303d b48e 3a3b 1211 96bd fc3c 103e
00000360: 7f06 febc 140d 2ebd 8002 86be 09e1 eabc
00000370: 21ee f9bd 73e2 b3bd 5c84 1b3e 5497 a83e
00000380: be3a 54bc d520 d83d dc48 20be 5fde ab3c
00000390: 3dad a9bd a5be d23d 14d9 0c3d 1c98 9a3d
000003a0: 4a97 aebd f8c5 343d 851a dc3d 095d 45bb
000003b0: 382a 2abe 551c 72be acd8 69bc e596 8fbd
000003c0: e6fa 03bd ddb4 a6bd 7820 713e f66e 9a3d
000003d0: e40e 1dbe d0cd f3bc b5a9 4abe 1c43 133e
000003e0: 4321 20be 88d2 6e3a 8a8d fb3d 6494 43bd
000003f0: a69f 15be 1ec7 dbbd 026e 2fbe 8da8 9f3d
0.05526016 0.053351972 0.21233387 0.057885643 -0.052411582 -0.3316657 -0.22342488 0.12537521
0.03703613 -0.2500814 -0.15380651 0.27450967 -0.3831649 0.05175308 0.12428582 -0.2391325
0.064024284 -0.026464935 -0.33747247 0.04076578 0.31500348 0.046300266 0.17526059 -0.073370695
0.041213695 0.08611359 -0.23012288 0.27130365 -0.07663767 0.052191775 0.28426543 0.13107976
0.14399241 -0.28062934 0.49032912 -0.024093403 -0.35180572 -0.7355295 -0.5647884 -0.22131428
0.35481623 -0.77410585 -0.5472819 0.174243 -0.43871832 -0.278036 0.7202674 0.026510797
0.3311242 -0.21721795 0.03518577 -0.25164858 -0.21790689 0.092763916 -0.15357327 -0.15583333
-0.37659475 -0.21031037 -0.7526038 0.4190881 -0.00875909 0.5523578 -0.027839085 0.0033005117
0.10773807 -0.29647908 0.25020733 0.4220803 -0.008920697 -0.09731742 -0.66401386 -0.33406037
0.40204722 -0.26212233 -0.39189813 0.2484528 -0.29116103 -0.0070582465 0.12916085 0.18219991
0.13690378 -0.21247622 -0.25723705 -0.56028205 0.03940743 0.21885173 0.20513949 -0.2703518
-0.031935096 -0.23072177 -1.017858 0.7039413 -0.25881577 0.50020456 -0.43722188 0.014193202
0.21511854 -0.5182413 0.479975 -0.055700842 0.09280956 -0.0767615 -0.40928635 -0.45516804
0.23729828 -0.6014196 -0.037745148 -0.040480793 -0.37503073 -0.46004316 0.46550825 -0.16286404
0.22178996 -0.23227923 -0.10946114 -0.6570337 -0.32376274 0.19769084 -0.2843694 -0.45762923
-0.28727007 -0.523539 -0.82445264 0.59310484 0.062115885 0.39356348 -0.28062695 -0.12204571
0.1016435 -0.07750894 -0.10665711 -0.024241857 -0.054959383 -0.10421759 -0.15482955 0.110916875
-0.04059436 -0.07004431 0.114909604 0.020410014 -0.48583436 -0.15834367 -0.010006845 -0.034676857
-0.036525015 0.121944234 -0.04020282 -0.0337903 -0.016870208 -0.011989522 -0.025996344 0.40442115
0.02007316 -0.10852925 -0.016716698 0.09379752 -0.13304226 -0.041503347 0.11210872 0.07886084
0.012630684 -0.07679288 -0.060746893 -0.0027297223 -0.046333257 -0.07877396 -0.17786564 0.3354693
-0.0487493 0.05474674 0.10593486 -0.032133866 0.057131495 0.08594127 -0.0027778011 -0.0063992403
-0.01223819 0.38428673 -0.3377381 0.088549495 -0.05381525 0.0043221177 0.004462813 -0.07858687
-0.16336285 0.13769555 -0.13320372 0.05608577 -0.26685023 -0.019413201 0.0055514593 -0.029639931
-0.014093469 -0.034011822 -0.116078556 0.0039759614 -0.07832099 -0.13552798 -0.14106172 -0.11013446
-0.10403595 -0.11871268 0.069828354 -0.03518676 -0.040630594 0.13833681 -0.0233461 -0.03477419
-0.035610966 0.2910894 -0.04360741 0.23939246 0.043151837 0.0028466405 -0.07327475 0.14085764
-0.031008957 -0.04249294 -0.26173782 -0.028671758 -0.122036226 -0.08783426 0.1518721 0.32927954
-0.012953458 0.10553137 -0.15652794 0.020980058 -0.08284996 0.10290269 0.03438671 0.07548544
-0.0852495 0.04413411 0.10747246 -0.0030115268 -0.16617668 -0.2364362 -0.01427285 -0.07011203
-0.032221697 -0.08139966 0.23547542 0.07540695 -0.15337712 -0.029761225 -0.197913 0.14381069
-0.15637688 0.0009110351 0.12282856 -0.04774894 -0.14611682 -0.10731338 -0.17131808 0.077958204

fc_advantage.0.bias f4 [20]
00000000: 12db 9cbe acd6 85bf c008 6bbf de80 67bf
00000010: 78ac d7be 739a acbe f5ab 34be f6c0 5cbe
00000020: e086 a9be 8a2f 6f3d a2fd 36be 1387 2ebe
00000030: fe99 cdbc 899b 8d3c cb65 2f3e d366 f23d
00000040: 3b61 023d 6902 d43e c760 433e d541 953e
-0.30635887 -1.0456138 -0.91810226 -0.9043101 -0.4212377 -0.33711585 -0.17643721 -0.21557984
-0.33110714 0.058394946 -0.1787019 -0.17043714 -0.025097843 0.017286079 0.17128675 0.118360184
0.031831007 0.4140809 0.19079886 0.29151788

fc_value.0.weight f4 [1, 32]
00000000: 61bc 143d 577b 563f 5101 d63d 8017 183d
00000010: 7ba1 4d3f 0a3a 443f 8818 5b3f 57e7 023f
00000020: be38 8d3d 7fca 4d3f 7b0b 623f b14f 703d
00000030: cf66 7c3d 7db2 1bbd 2810 973d ba17 8b3b
00000040: 2d89 4f3d 1be9 4f3f 74f5 84bd c615 5f3f
00000050: a154 2a3f 7a10 203d bc0d 023d 3c05 863f
00000060: d4ec 413f 0c98 363f 198b 753f 0a05 f03d
00000070: c207 543d 8f4e cd3d 4921 673f 5211 5d3f
0.036312465 0.8378195 0.1044947 0.037131786 0.80324525 0.7665106 0.85584307 0.51134247
0.06895588 0.8038711 0.8829877 0.05866975 0.061621483 -0.038012017 0.073761284 0.004244772
0.05066793 0.81215066 -0.06492129 0.871426 0.66535383 0.039078213 0.03175138 1.0470347
0.75751996 0.71325755 0.9591537 0.11719711 0.05176521 0.100247495 0.90285164 0.86354554
