save/client-4/eval.pth (torch, 42501 bytes, 27 tensors)

layer1_task.0.weight f4 [32, 3]
0.0513567 -0.17418213 -0.2741496 0.37181857 0.31826392 -0.4929943 0.13257337 -0.056162972
0.047261707 0.017678194 -0.089032054 -0.28654727 -0.1377098 -0.10264649 -0.09439042 -0.028632376
-0.3972751 0.097990885 0.35507795 -0.20554444 0.02790853 -0.3552236 0.023696635 0.5111713
0.23858576 0.44279465 0.28511012 0.33213022 0.28395152 0.4246802 0.06435372 -0.009101128
-0.55171174 0.20132633 0.30497083 0.30067503 -0.39198226 0.2909498 0.5472319 0.044520147
0.06059843 -0.10036835 -0.15486011 -0.1608581 -0.095133424 0.037581112 0.006307182 0.010095892
0.20213616 0.6336448 -0.12145027 0.081092075 0.1684769 -0.21530022 -0.07533176 -0.014206451
-0.32902086 -0.09665824 -0.1528797 -0.035337467 -0.16224845 -0.05453317 0.28547686 0.21069908
0.20794283 -0.055992357 -0.03647867 -0.10896608 -0.1641012 -0.14130813 0.13962436 -0.18246308
0.22902113 0.16644156 -0.017267417 -0.2151932 0.19627075 0.10048076 0.22962402 -0.06773828
0.006775637 -0.052058678 -0.060521435 -0.028805222 0.10644059 0.0068847905 0.17663625 -0.052232716
-0.39862844 -0.11136781 -0.03479172 0.23890366 0.4873719 0.036798935 -0.3071839 0.026588466
00000000: 675b 523d cd5c 32be 565d 8cbe 015f be3e
00000010: 7df3 a23e c069 fcbe 50c1 073e 250b 66bd
00000020: 7e95 413d dcd1 903c 7056 b6bd 53b6 92be
00000030: cc03 0dbe 5338 d2bd c44f c1bd 728e eabc
00000040: a467 cbbe 72af c83d c7cc b53e 3e7a 52be
00000050: 6ea0 e43c dedf b5be 721f c23c 1fdc 023f
00000060: d34f 743e fbb5 e23e f4f9 913e f90c aa3e
00000070: 1862 913e af6f d93e e2cb 833d e61c 15bc
00000080: fb3c 0dbf 7d28 4e3e 2325 9c3e 14f2 993e
00000090: e6b1 c8be 5ff7 943e 6417 0c3f c25a 363d
000000a0: 0f36 783d ec8d cdbd a693 1ebe fcb7 24be
000000b0: 50d5 c2bd a7ee 193d 7aac ce3b 3d69 253c
000000c0: c8fc 4e3e 8c36 223f ebba f8bd 9a13 a63d
000000d0: 3585 2c3e a977 5cbe 8a47 9abd 2dc2 68bc
000000e0: 6c75 a8be c1f4 c5bd 7f8c 1cbe 05be 10bd
000000f0: 7524 26be 2c5e 5fbd 062a 923e 80c1 573e
00000100: f7ee 543e 3e58 65bd a86a 15bd 9c29 dfbd
00000110: 250a 28be 14b3 10be b0f9 0e3e 9ad7 3abe
00000120: 8484 6a3e a86f 2a3e 6674 8dbc 9b5b 5cbe
00000130: 33fb 483e dbc8 cd3d 8f22 6b3e 5eba 8abd
00000140: 2a06 de3b 7b3b 55bd 53e5 77bd eef8 ebbc
00000150: 86fd d93d cf99 e13b 22e0 343e f9f1 55bd
00000160: 0719 ccbe ce14 e4bd c381 0ebd 29a3 743e
00000170: cf88 f93e 7bba 163d 3547 9dbe 0ed0 d93c

layer1_task.0.bias f4 [32]
0.009235295 -0.014767144 -0.005515151 -0.013995148 -0.0060524074 -0.005336183 0.009529833 0.005617043
0.0055232276 0.00842805 -0.008985131 -0.0013851302 0.01403062 0.0050955005 -0.005647128 4.3411274e-06
0.00576702 -0.011573317 0.005911124 0.013760686 -0.0017764264 0.0052719656 0.0069554085 -0.009797828
0.0034313397 0.0035422908 -0.0032348623 -0.0012819525 -0.0033448085 -0.0094763525 0.00072743953 -0.0065739336
00000000: a24f 173c e4f1 71bc 71b8 b4bb e84b 65bc
00000010: 4653 c6bb 26db aebb 0423 1c3c 2c0f b83b
00000020: 31fc b43b ce15 0a3c 5f36 13bc 428d b5ba
00000030: b0e0 653c 28f8 a63b 8b0b b9bb 00aa 9136
00000040: 45f9 bc3b 039e 3dbc 1ab2 c13b 8074 613c
00000050: fbd6 e8ba 74c0 ac3b 32ea e33b 1287 20bc
00000060: 54e0 603b c725 683b fcff 53bb 3007 a8ba
00000070: 9334 5bbb b442 1bbc a4b1 3e3a 276a d7bb

layer1_task.2.weight f4 [32]
1.0057669 0.99972826 1.009228 1.0014825 1.0019189 0.98349136 1.0030841 0.99124956
1.0012815 0.9994755 1.0163875 0.992605 0.99607396 1.0010014 1.0043607 0.9846909
0.9955778 1.013154 0.9859639 0.99995977 1.0010005 1.0097153 1.0098263 0.9876354
1.0009485 0.9958777 1.0019128 0.98723984 1.0125599 1.0001465 0.99776626 1.013595
00000000: f8bc 803f 31ee 7f3f 622e 813f 9430 803f
00000010: e13e 803f 17c6 7b3f 0f65 803f 88c2 7d3f
00000020: fe29 803f a0dd 7f3f fc18 823f 5c1b 7e3f
00000030: b4fe 7e3f d020 803f e48e 803f b414 7c3f
00000040: 30de 7e3f 08af 813f 2168 7c3f 5dfd 7f3f
00000050: c920 803f 5a3e 813f fd41 813f acd5 7c3f
00000060: 151f 803f d7f1 7e3f ae3e 803f c0bb 7c3f
00000070: 909b 813f cd04 803f 9c6d 7f3f 7bbd 813f

layer1_task.2.bias f4 [32]
0.021983508 -0.010099969 0.009060332 -0.0038298285 0.0024068789 -0.013565518 0.010289458 -0.01014251
0.0029328123 0.01014026 0.0209721 -0.0052528167 0.006413428 9.11462e-05 0.00527081 -0.023770425
0.0023276154 0.008436553 -0.018856648 0.0007315293 0.003710798 0.024056857 0.00882148 -0.015004936
0.011645904 0.009531117 0.0011307495 -0.016059622 0.014874495 -0.00049540726 0.0023064301 0.016628243
00000000: c216 b43c 577a 25bc c971 143c dcfd 7abb
00000010: babc 1d3b e841 5ebc 1d95 283c c52c 26bc
00000020: 6d34 403b 5523 263c aecd ab3c d21f acbb
00000030: bc27 d23b be25 bf38 c2b6 ac3b 32ba c2bc
00000040: e88a 183b 7839 0a3c 4279 9abc 1ac4 3f3a
00000050: dc30 733b e312 c53c f887 103c 43d7 75bc
00000060: 76ce 3e3c 6728 1c3c a835 943a 788f 83bc
00000070: 27b4 733c 38de 01ba 7a27 173b f437 883c

layer1_task.2.running_mean f4 [32]
1868.2794 13284.081 4813.627 596.56793 -4980.1504 -1112.1733 12191.024 -12649.601
8792.583 12049.325 2471.8538 7024.482 -13527.145 1615.7664 -5564.6504 1450.7511
6902.8115 2638.1873 -2450.3005 -3203.983 -5678.5713 7170.599 -1134.2356 -4851.292
8096.5425 -7618.348 8149.321 -1741.6 3951.4165 -2036.6036 -1203.9386 1472.0625
00000000: f188 e944 5390 4f46 046d 9645 5924 1544
00000010: 34a1 9bc5 8c05 8bc4 197c 3e46 67a6 45c6
00000020: 5562 0946 4d45 3c46 a97d 1a45 db83 db45
00000030: 945c 53c6 86f8 c944 34e5 adc5 0958 b544
00000040: 7eb6 d745 ffe2 2445 cf24 19c5 ba3f 48c5
00000050: 9274 b1c5 cb14 e045 8ac7 8dc4 569a 97c5
00000060: 5704 fd45 c912 eec5 91aa fe45 33b3 d9c4
00000070: aaf6 7645 5193 fec4 097e 96c4 0002 b844

layer1_task.2.running_var f4 [32]
1.1933337e+07 5.836035e+08 7.121436e+07 1.1105192e+06 8.170267e+07 4.158977e+06 5.681534e+08 4.892791e+08
2.2330646e+08 4.8228426e+08 1.9232806e+07 1.5342958e+08 6.7309536e+08 7.438805e+06 9.225351e+07 7.030812e+06
1.5687883e+08 2.3224944e+07 2.2869914e+07 3.9388772e+07 1.0628064e+08 1.6292658e+08 4.1960735e+06 7.214089e+07
2.457542e+08 1.8944197e+08 2.3273758e+08 9.390773e+06 5.0946572e+07 1.2899991e+07 4.1653625e+06 7.3608335e+06
00000000: 9916 364b 5524 0b4e a3d4 874c ba8f 8749
00000010: e2d5 9b4c 04d8 7d4a 5575 074e 744e e94d
00000020: 2ef6 544d 97f8 e54d 13bc 924b 6552 124d
00000030: 7b7a 204e aa03 e34a a9f5 af4c 3890 d64a
00000040: 7f9c 154d 3831 b14b cd7b ae4b 9941 164c
00000050: d8b6 ca4c ff60 1b4d d30d 804a 0b99 894c
00000060: 965e 6a4d 7baa 344d b3f4 5d4d b54a 0f4b
00000070: 8358 424c 97d6 444b ca3b 7e4a 83a2 e04a

layer1_1vm.0.weight f4 [64, 40]
-0.2458354 -0.04887636 -0.11595117 -0.13022944 -0.22074611 -0.111942835 -0.18495272 0.022892613
-0.13275045 -0.042454816 0.1925155 -0.2904504 -0.15077998 -0.03660313 0.08680043 0.2860263
-0.1939803 -0.10367744 -0.07588877 -0.07581605 0.098394476 0.16269928 -0.18577416 0.27510616
0.04491931 0.04521343 0.26356754 -0.055640187 0.14791761 0.0016792458 0.25759465 -0.087999284
-0.18373679 -0.16629103 -0.30348164 -0.090980165 -0.17361666 -0.11801844 0.09742156 0.045954797
-0.038606204 -0.03267221 -0.08278055 0.09835126 0.13487871 -0.21696047 0.20139031 0.07583838
0.061729908 0.30891693 -0.16383266 0.09425682 -0.34046036 0.26497978 0.3167987 -0.14783879
0.055348467 -0.06128418 0.028668098 0.2840852 0.025934888 -0.10797787 0.26658103 0.1937825
0.101561606 0.039766744 0.14027047 0.18931286 0.012922604 -0.084795624 -0.27725852 -0.21287102
0.10958107 0.22842805 0.1429606 -0.15862177 -0.07547748 0.15149055 0.028774567 0.050003015
-0.11298005 0.20779812 -0.1185998 0.095112994 -0.10775696 0.002516239 0.010273649 -0.04841029
0.15949105 0.023516405 -0.27696872 0.18270418 0.12759331 -0.11001924 0.1382569 -0.032860104
0.096966505 -0.081502244 -0.3165251 -0.30674824 0.3415832 0.060374647 0.15061787 -0.128029
-0.15938264 -0.122311875 -0.10668248 0.10112214 -0.117148176 0.34358814 0.0036253529 0.0758341
-0.029165544 0.056227922 -0.053712133 0.13091631 -0.023255523 0.17161794 0.22521867 0.23392537
0.44329298 -0.052001465 0.15171002 -0.047976367 -0.083516 0.018627694 0.04198888 0.038431894
0.115484454 -0.10614984 0.061910957 0.09589284 -0.008750008 -0.10813097 -0.05712635 -0.03220069
-0.12218146 -0.0107977 0.085676715 0.02069469 0.24054293 -0.094523646 -0.37433696 0.07876769
-0.103074394 -0.19893068 0.107113026 -0.16995947 0.2945078 0.22965558 -0.034067187 -0.051080164
-0.040766694 0.11010424 0.1118327 0.11452609 -0.07671286 -0.10775848 0.111710384 -0.05328058
-0.05957666 -0.085114166 0.12440948 -0.17273752 0.103949 -0.116728015 0.0040665474 -0.09937111
-0.13988374 0.07495022 0.104964316 0.07380412 0.0049040234 0.17909136 0.07715457 0.0023833688
0.005020012 0.22095348 0.053512204 -0.072184116 -0.18393898 0.04848623 -0.08964743 0.272554
0.12724465 0.011999045 -0.04506313 -0.15635262 -0.05814316 -0.026136428 -0.1995109 -0.21204121
-0.067210615 0.121560834 0.12366273 -0.06326459 -0.022405017 -0.111933775 -0.14139335 -0.031188853
0.16663754 0.03175413 -0.14556527 -0.23219252 0.007840631 0.023274098 0.19416226 -0.034222625
-0.23834248 0.09078509 0.110785946 -0.15626071 -0.021200536 0.1505706 -0.07706553 -0.11252111
-0.19631726 -0.2983929 -0.006950686 4.352338e-05 -0.015391262 0.03054279 -0.017116362 -0.1914071
0.12226808 -0.09063743 0.034338433 -0.14195003 -0.15876426 0.2757909 -0.14885764 -0.1923704
-0.21497793 0.16851188 -0.05662182 0.04861471 0.048008535 0.023363758 0.038662143 0.19841053
0.013471258 -0.20856233 0.03878036 -0.07437058 0.13192649 -0.016651025 -0.10601246 -0.1969084
-0.039693117 -0.035762772 0.105614886 -0.15838888 -0.11426125 0.011879304 -0.083599746 -0.0728529
00000000: 46bc 7bbe 9432 48bd cf77 edbd de5a 05be
00000010: 450b 62be 4942 e5bd 3f64 3dbe 4a89 bb3c
00000020: bcef 07be 1ae5 2dbd c922 453e eab5 94be
00000030: 1166 1abe 2aed 15bd 6dc4 b13d 0a72 923e
00000040: c6a2 46be d654 d4bd 926b 9bbd 7245 9bbd
00000050: 0b83 c93d a49a 263e 953b 3ebe b7da 8c3e
00000060: 4ffd 373d b831 393d 53f2 863e f7e6 63bd
00000070: b777 173e 241a dc3a 72e3 833e f838 b4bd
00000080: 7f25 3cbe 3248 2abe f261 9bbe cf53 babd
00000090: 91c8 31be a7b3 f1bd f484 c73d 193b 3c3d
000000a0: 8a21 1ebd 4cd3 05bd d988 a9bd 636c c93d
000000b0: a51d 0a3e e32a 5ebe 4339 4e3e 2751 9b3d
000000c0: 80d8 7c3d 5c2a 9e3e c0c3 27be b809 c13d
000000d0: d250 aebe 6eab 873e 7033 a23e 0d63 17be
000000e0: 13b5 623d 1f05 7bbd 5cd9 ea3c 9e73 913e
000000f0: 6775 d43c 8023 ddbd 4f7d 883e eb6e 463e
00000100: 88ff cf3d 74e2 223d 10a3 0f3e 3bdb 413e
00000110: 54b9 533c 54a9 adbd d4f4 8dbe dcfa 59be
00000120: 0a6c e03d 0be9 693e 4364 123e bf6d 22be
00000130: f093 9abd 5720 1b3e a4b8 eb3c f6cf 4c3d
00000140: 1662 e7bd 08c9 543e 74e4 f2bd 9aca c23d
00000150: aeaf dcbd 7ce7 243b cf52 283c de49 46bd
00000160: 9f51 233e 7aa5 c03c d8ce 8dbe ce16 3b3e
00000170: d2a7 023e c451 e1bd 3793 0d3e 5198 06bd
00000180: 6096 c63d a6ea a6bd 940f a2be 1b0e 9dbe
00000190: fee3 ae3e 684b 773d 923b 1a3e 091a 03be
000001a0: 3435 23be a67e fabd 587c dabd 2019 cf3d
000001b0: 62eb efbd c9ea af3e 5497 6d3b e94e 9b3d
000001c0: 94ec eebc 404f 663d 4101 5cbd ed0e 063e
000001d0: 5e82 bebc 9dbc 2f3e b99f 663e 228a 6f3e
000001e0: 4cf7 e23e 7dff 54bd df59 1b3e de82 44bd
000001f0: 700a abbd 1b99 983c 88fc 2b3d c36a 1d3d
00000200: 1d83 ec3d 1665 d9bd 5896 7d3d 7763 c43d
00000210: 325c 0fbc c573 ddbd 52fd 69bd dfe4 03bd
00000220: 463a fabd d6e8 30bc 4677 af3d e987 a93c
00000230: e350 763e 9d95 c1bd 18a9 bfbe f450 a13d
00000240: ab18 d3bd 7cb4 4bbe 135e db3d db09 2ebe
00000250: bac9 963e d52a 6b3e 098a 0bbd 6f39 51bd
00000260: fafa 26bd 557e e13d 8b08 e53d a88c ea3d
00000270: a21b 9dbd 7ab0 dcbd 6ac8 e43d bd3c 5abd
00000280: a806 74bd 5650 aebd 66ca fe3d 1be2 30be
00000290: 37e3 d43d 190f efbd ac40 853b 1583 cbbd
000002a0: af3d 0fbe 807f 993d 88f7 d63d 9d26 973d
000002b0: eeb1 a03b ba63 373e 3703 9e3d 4b32 1c3b
000002c0: ea7e a43b a141 623e 9d2f 5b3d 44d5 93bd
000002d0: 805a 3cbe 7f99 463d 1299 b7bd 338c 8b3e
000002e0: 6c4c 023e a497 443c 1e94 38bd e71a 20be
000002f0: 8627 6ebd 101c d6bc 964c 4cbe 5521 59be
00000300: b8a5 89bd e3f4 f83d e342 fd3d de90 81bd
00000310: ba8a b7bc 893d e5bd 6bc9 10be c47f ffbc
00000320: 08a3 2a3e 9e10 023d 100f 15be e0c3 6dbe
00000330: fd75 003c 52a9 be3c 79d2 463e 062d 0cbd
00000340: 0d10 74be 89ed b93d bee3 e23d cf02 20be
00000350: bfac adbc 2e2f 1a3e 88d4 9dbd 7871 e6bd
00000360: 6407 49be f4c6 98be 95c2 e3bb e08c 3638
00000370: a22b 7cbc e034 fa3c 9d37 8cbc 3900 44be
00000380: b067 fa3d 1ea0 b9bd 75a6 0c3d 595b 11be
00000390: 1993 22be 7734 8d3e 236e 18be bffc 44be
000003a0: 2d23 5cbe 618e 2c3e 48ec 67bd 3820 473d
000003b0: 99a4 443d 5a65 bf3c 325c 1e3d 212c 4b3e
000003c0: 8db6 5c3c 5d91 55be 28d8 1e3d 9a4f 98bd
000003d0: bd17 073e bb67 88bc 101d d9bd 5ba2 49be
000003e0: 4095 22bd fc7b 12bd 9e4c d83d b230 22be
000003f0: cd01 eabd 6aa1 423c 5836 abbd e733 95bd

layer1_1vm.0.bias f4 [64]
0.0004907528 -0.0046472647 -0.012449782 0.009858511 0.002851964 0.0010653326 -0.0013861011 -0.0013871827
-0.0046587614 -0.0018346069 -0.005659024 -0.00017479341 0.0067664115 -0.005837586 -0.0046543083 -0.0038253518
-0.004679415 -0.008163996 0.0010929876 0.005189371 -0.003499195 -0.00046834827 -0.0065177344 -0.012009539
-0.0056630904 -0.0008889686 -0.0025025685 -0.0059823887 0.00208569 0.005154576 0.006472611 0.0014396167
0.004572988 -0.0023049822 0.0057040974 0.00986602 -0.0039358195 0.005268839 -0.0013501062 -0.000824619
-0.0025732708 -0.0001739192 -0.0045084786 0.004191301 0.0031891451 -0.007996995 0.0031972022 0.010428937
-0.005236718 0.0009756227 -0.0055043753 0.004751353 0.008165506 -0.0025701923 0.003333322 0.0012256938
-0.002347671 -0.0017750337 0.013529392 -0.0037559047 0.0028749353 0.00087754056 0.008814759 -0.00081864605
00000000: dda5 003a 1548 98bb 2cfa 4bbc 9885 213c
00000010: 04e8 3a3b a1a2 8b3a d6ad b5ba 21d2 b5ba
00000020: 86a8 98bb 3177 f0ba 566f b9bb c048 37b9
00000030: c6b8 dd3b 3849 bfbb 2b83 98bb c1b2 7abb
00000040: c755 99bb 48c2 05bc 9442 8f3a 990b aa3b
00000050: c052 65bb a48c f5b9 b892 d5bb a8c3 44bc
00000060: 7291 b9bb ac09 69ba 2202 24bb ea07 c4bb
00000070: 12b0 083b b8e7 a83b 3218 d43b 85b1 bc3a
00000080: 01d9 953b 2f0f 17bb 70e9 ba3b 16a5 213c
00000090: 0cf8 80bb 3aa6 ac3b 0cf6 b0ba 3f2b 58ba
000000a0: 52a4 28bb 145e 36b9 dcbb 93bb 2e57 893b
000000b0: fa00 513b d405 03bc 2788 513b 22de 2a3c
000000c0: c698 abbb eec0 7f3a 0c5e b4bb 3db1 9b3b
000000d0: 9dc8 053c ac70 28bb dd73 5a3b 76a7 a03a
000000e0: 62db 19bb 3fa8 e8ba 62aa 5d3c a025 76bb
000000f0: 6969 3c3b c00a 663a c76b 103c 689a 56ba

layer1_1vm.2.weight f4 [64]
1.0069443 1.0061157 1.0046488 0.9902618 0.98816353 0.99194616 1.0134187 1.0060304
0.99856514 1.0029454 1.0072011 0.99223816 0.9982945 0.99896467 1.0216202 0.9982415
0.99880326 1.0000154 0.98942125 1.0043466 1.0057825 0.9972314 1.0070457 1.0118121
0.98982143 0.9911156 1.0112419 1.009222 1.0092399 1.0052365 0.998672 0.9943273
1.0042443 0.9976531 0.99335456 1.0001957 0.99516976 0.99165016 0.9944088 1.0145348
1.0094581 1.0078881 0.9953064 0.99369425 1.0081848 0.99710613 0.9886103 1.0013354
0.9973134 1.0003246 1.0041381 0.9903302 1.004043 1.0014523 0.98897016 0.98982805
0.9979273 1.0006263 0.9974864 1.0038176 0.9956631 0.9954113 0.99915993 1.0016464
00000000: 8de3 803f 66c8 803f 5598 803f cc81 7d3f
00000010: 49f8 7c3f 2ff0 7d3f b4b7 813f 9bc5 803f
00000020: f7a1 7f3f 8460 803f f7eb 803f 5203 7e3f
00000030: 3a90 7f3f 26bc 7f3f 73c4 823f c18c 7f3f
00000040: 92b1 7f3f 8100 803f b64a 7d3f 6e8e 803f
00000050: 7bbd 803f 8f4a 7f3f e0e6 803f 0f83 813f
00000060: f064 7d3f c1b9 7d3f 6070 813f 302e 813f
00000070: c62e 813f 97ab 803f f8a8 7f3f 3c8c 7e3f
00000080: 148b 803f 3266 7f3f 7c4c 7e3f 6a06 803f
00000090: 72c3 7e3f c9dc 7d3f 9391 7e3f 47dc 813f
000000a0: ec35 813f 7a02 813f 66cc 7e3f bf62 7e3f
000000b0: 330c 813f 5942 7f3f 9115 7d3f c22b 803f
000000c0: ee4f 7f3f a30a 803f 9987 803f 4886 7d3f
000000d0: 7b84 803f 972f 803f 262d 7d3f 5f65 7d3f
000000e0: 2a78 7f3f 8614 803f 455b 7f3f 187d 803f
000000f0: c7e3 7e3f 46d3 7e3f f2c8 7f3f f335 803f

layer1_1vm.2.bias f4 [64]
0.0066975243 0.0061650965 0.0014916857 -0.009400941 -0.012339 -0.008302097 0.012810643 0.0068093133
-0.0038726134 0.0031893463 0.0055356487 -0.007409524 -0.0005808836 -0.0015344495 0.02198918 -0.0025958195
-0.0014451458 -0.0012686478 -0.0086774845 0.0049079917 0.0049031684 -0.0012463806 0.0068614716 0.008307649
-0.01122909 -0.008557406 0.011091624 0.008395097 0.009342392 0.005123038 -0.00042761513 -0.005699444
0.00090816314 -0.0027600199 -0.0059233634 -0.0017093477 -0.0037295911 -0.009038797 -0.005648532 0.014497411
0.009319615 0.0077164653 -0.003923827 -0.006631038 0.008124359 -0.0021740634 -0.009556392 0.0045214384
-0.0029226358 -0.00050419325 0.00339945 -0.009436348 0.004771163 0.00019798265 -0.012248203 -0.008133524
-0.0012337565 0.0004349146 -0.002457882 0.0029456404 -0.0045357803 -0.0043699844 -0.00016894261 -0.0004603346
00000000: e876 db3b 9404 ca3b ab84 c33a 6806 1abc
00000010: 8429 4abc 8505 08bc bbe3 513c a920 df3b
00000020: accb 7dbb 5a04 513b 6364 b53b 98cb f2bb
00000030: 7046 18ba 951f c9ba a722 b43c a01e 2abb
00000040: 0c6b bdba c248 a6ba 022c 0ebc 38d3 a03b
00000050: c2aa a03b 985d a3ba 32d6 e03b ce1c 083c
00000060: 38fa 37bc 5d34 0cbc a5b9 353c 978b 093c
00000070: d510 193c 28df a73b 8831 e0b9 67c2 babb
00000080: cc11 6e3a 73e1 34bb c618 c2bb 310c e0ba
00000090: 286c 74bb 7617 14bc 5217 b9bb 8d86 6d3c
000000a0: 4cb1 183c 67da fc3b 7293 80bb 2e49 d9bb
000000b0: 081c 053c bb7a 0ebb 6a92 1cbc 9328 943b
000000c0: b189 3fbb d62b 04ba 4fc9 5e3b ea9a 1abc
000000d0: 6b57 9c3b 9099 4f39 b0ac 48bc 7942 05bc
000000e0: 00b6 a1ba 4005 e439 6b14 21bb a50b 413b
000000f0: e2a0 94bb 1632 8fbb 3026 31b9 1059 f1b9

layer1_1vm.2.running_mean f4 [64]
-5902.0244 3287.928 4341.7803 3869.7014 -6683.4976 -6180.095 -6318.38 -7899.893
5405.0063 -7670.951 -2642.5034 -1359.4143 -2426.4895 4847.1816 11005.662 8701.413
4375.1494 -1463.1581 7916.474 6655.1416 4322.821 -282.88852 -151.12396 5611.9976
2376.7195 -8613.291 -9533.864 -2975.5657 -9591.28 2896.381 -1247.915 -7670.123
694.55237 -7602.689 5967.4 4526.407 9778.63 519.3486 -1643.665 -13910.171
-3943.2039 -3517.4229 -2126.2764 -3949.375 -8696.298 2549.04 10637.455 11685.096
10373.028 -5588.8184 4751.304 10570.598 2522.9333 -3418.9363 5519.1006 -607.9113
-5100.4663 -5959.232 1250.2485 -4412.169 12873.344 -10575.132 5705.155 -2177.3308
00000000: 3270 b8c5 d97e 4d45 3eae 8745 39db 7145
00000010: fbdb d0c5 c320 c1c5 0a73 c5c5 25df f6c5
00000020: 0de8 a845 9cb7 efc5 0e28 25c5 42ed a9c4
00000030: d5a7 17c5 7479 9745 a6f6 2b46 a7f5 0746
00000040: 32b9 8845 0fe5 b6c4 cb63 f745 22f9 cf45
00000050: 9116 8745 bb71 8dc3 bc1f 17c3 fb5f af45
00000060: 838b 1445 2a95 06c6 75f7 14c6 0df9 39c5
00000070: 1fdd 15c6 1906 3545 48fd 9bc4 fcb0 efc5
00000080: 5aa3 2d44 8395 edc5 337b ba45 4273 8d45
00000090: 85ca 1846 4fd6 0144 4875 cdc4 af58 59c6
000000a0: 4373 76c5 c4d6 5bc5 6ce4 04c5 00d6 76c5
000000b0: 31e1 07c6 a450 1f45 d235 2646 6294 3646
000000c0: 1d14 2246 8ca6 aec5 6f7a 9445 642a 2546
000000d0: efae 1d45 fbae 55c5 ce78 ac45 53fa 17c4
000000e0: bb63 9fc5 db39 bac5 f447 9c44 5ae1 89c5
000000f0: 6025 4946 873c 25c6 3d49 b245 4b15 08c5

layer1_1vm.2.running_var f4 [64]
9.881283e+06 3.6437578e+06 5.665752e+06 4.083616e+06 1.204198e+07 8.861837e+06 1.0929621e+07 1.6644628e+07
8.750222e+06 1.8771612e+07 2.5729558e+06 595647.44 1.85694e+06 6.4938745e+06 3.5585084e+07 2.3480912e+07
5.257025e+06 809160.7 1.6699759e+07 1.3112334e+07 4.880312e+06 152254.12 60023.31 9.052335e+06
1.6289715e+06 2.1710216e+07 2.4201456e+07 2.5984285e+06 2.843047e+07 2.504181e+06 588880.9 1.7630852e+07
273317.16 1.7248026e+07 9.772961e+06 6.507041e+06 2.9031238e+07 207155.12 1.0083042e+06 6.1434564e+07
4.58891e+06 3.9097015e+06 1.2369189e+06 5.0488445e+06 2.1239068e+07 2.0196315e+06 3.3027026e+07 3.8339784e+07
3.2651254e+07 7.5180145e+06 7.262773e+06 3.2893888e+07 1.8630479e+06 3.34273e+06 8.711055e+06 169562.9
7.601159e+06 1.0485386e+07 610470.5 5.279832e+06 4.6902684e+07 3.34624e+07 8.379723e+06 1.4329254e+06
00000000: c3c6 164b b765 5e4a b0e7 ac4a 803e 794a
00000010: fcbe 374b 8d38 074b d5c5 264b 14fa 7d4b
00000020: 8e84 054b 4e37 8f4b 6f0a 1d4a f76b 1149
00000030: 60ad e249 652d c64a 0fbf 074c 2825 b34b
00000040: 826e a04a 8b8c 4549 6fd1 7e4b 0e14 484b
00000050: 70ef 944a 88af 1448 4f77 6a47 af20 0a4b
00000060: 5cd9 c649 c4a2 a54b 78a4 b84b 7298 1e4a
00000070: 43e8 d84b d4d7 184a 0ec5 0f49 4283 864b
00000080: a574 8548 8d97 834b a11f 154b 4294 c64a
00000090: a37d dd4b c84c 4a48 032b 7649 b15a 6a4c
000000a0: dc0a 8c4a 16a1 6e4a b7fd 9649 1914 9a4a
000000b0: 8e0a a24b 7c89 f649 e9f9 fb4b 3241 124c
000000c0: fb1b f94b 7d6e e54a 6aa4 dd4a e0f5 fa4b
000000d0: 3f6c e349 2806 4c4a 8feb 044b ba96 2548
000000e0: 0ef8 e74a 8afe 1f4b 680a 1549 b020 a14a
000000f0: 67eb 324c 404c ff4b 96ba ff4a ebea ae49

layer1_2vm.0.weight f4 [32, 64]
-0.00588025 -0.10449077 -0.27400056 0.069447786 -0.100943595 0.102126785 -0.16757247 -0.18519382
0.0074008126 -0.07178328 -0.027974317 -0.27801523 -0.0020698404 -0.21114627 0.039127387 -0.008528815
0.019135367 -0.316433 0.027979156 0.06647452 0.18811192 0.17922553 -0.04954109 -0.22084133
0.26192525 0.06279707 -0.12008869 -0.045276467 -0.11781674 0.054425627 0.19690613 -0.16200781
-0.01804888 0.24102335 -0.09680803 0.07325532 -0.10150096 0.103939265 -0.19504273 -0.12810257
-0.034085516 -0.06789729 0.13566808 -0.08333782 0.33217877 -0.0837046 -0.12056716 -0.03620306
-0.06385038 -0.4719707 -0.017801035 -0.18285456 0.10897924 -0.12505065 -0.065661326 -0.08867939
0.2098378 -0.016132725 -0.19753923 0.07779358 -0.1474155 -0.18841243 0.0024805001 0.17089096
-0.37953493 0.12520579 0.21892351 0.28341308 0.007234164 0.12609558 0.23543377 0.23432046
0.008142163 -0.20840241 0.17061736 -0.0048720906 0.11581542 -0.041667253 0.03631482 0.15582004
-0.03657172 -0.091741174 -0.23586188 -0.110394925 0.071762815 0.18093993 0.080229804 0.17815012
-0.3377384 0.07461076 -0.013863344 -0.03453707 0.00097020087 -0.4187164 -0.010564268 -0.074898
-0.12122346 -0.11275628 -0.10213928 -0.18651292 0.020917293 0.1386032 0.2045658 0.113864265
-0.18961748 0.07311601 -0.10000605 0.0724397 -0.36508274 -0.07538214 0.13299425 0.024727007
-0.110321514 -0.042820808 0.013769047 0.038432144 -0.096392296 -0.13006592 -0.11055252 -0.1609963
0.2873715 -0.042849615 0.14707927 -0.013182621 -0.0016178518 -0.037589945 0.06252297 -0.10366734
0.24514388 0.057665855 0.04444104 0.013637567 -0.34556413 -0.073550016 -0.00039302732 -0.076116875
-0.16182023 -0.19273375 -0.04647914 -0.032292552 -0.13312766 -0.075281605 -0.15220706 -0.16774075
-0.008968938 0.099955715 -0.04838454 -0.10797332 -0.004519683 -0.13478753 0.12721075 0.031983107
-0.3003997 -0.052905466 -0.27222297 0.13104098 0.18800095 -0.20217042 0.101982035 0.023990415
-0.15674603 0.02174191 -0.006524325 -0.05206233 0.011627156 -0.16538243 0.024566418 -0.06669916
0.016935512 -0.1552776 0.03508663 -0.02446319 -0.2817513 0.008046831 -0.021463292 -0.27403948
0.045355015 -0.15950942 0.21811652 0.040166914 -0.12729487 0.14790015 -0.034353573 0.05586775
0.02920413 -0.088790625 -0.049463935 -0.17605977 -0.24700883 -0.128156 0.02416713 0.02686844
-0.119792156 -0.020506367 -0.31195772 0.030860195 0.027559847 0.021114945 -0.0808792 -0.0060759876
-0.0013591361 0.16385305 0.1893116 -0.08845605 -0.13212514 -0.05572415 -0.0703334 -0.14590725
-0.056434244 0.016398598 0.0014478279 0.053658742 -0.14299695 0.2051188 0.24682714 0.06692728
-0.034246087 -0.098504856 0.25333494 -0.022518247 0.23291095 0.06999786 -0.046448696 -0.011915801
0.15053979 -0.28864592 0.020936882 0.29332745 -0.18982375 -0.044485934 -0.06641102 -0.19243832
0.17209254 -0.004636592 0.07981085 -0.25316715 0.029813722 0.044372585 -0.04214741 -0.028531648
0.12396498 0.021255152 0.10778056 -0.15808383 -0.20076244 -0.0057054586 0.12988906 -0.03281496
-0.1456644 -0.16606966 -0.1664006 -0.18669824 -0.29276258 0.05242698 -0.047643773 -0.16978475
00000000: 1daf c0bb 42ff d5bd cd49 8cbe a43a 8e3d
00000010: 84bb cebd d927 d13d 1e98 2bbe 73a3 3dbe
00000020: 8482 f23b 1d03 93bd 652a e5bc 0358 8ebe
00000030: 29a6 07bb ba36 58be 0a44 203d 71bc 0bbc
00000040: c6c1 9c3c 8203 a2be 8b34 e53c cb23 883d
00000050: 69a0 403e e686 373e 99eb 4abd 3b24 62be
00000060: 111b 863e c09b 803d 0ff1 f5bd d173 39bd
00000070: e749 f1bd 68ed 5e3d c3a1 493e 60e5 25be
00000080: 3fdb 93bc d3ce 763e 4a43 c6bd e306 963d
00000090: bcdf cfbd 1cde d43d 48b9 47be 522d 03be
000000a0: 419d 0bbd bc0d 8bbd 93ec 0a3e 05ad aabd
000000b0: 5613 aa3e 516d abbd eaeb f6bd a949 14bd
000000c0: fdc3 82bd 25a6 f1be 7ad3 91bc 3a3e 3bbe
000000d0: 8230 df3d 470d 00be 7279 86bd 8a9d b5bd
000000e0: b8df 563e c728 84bc b947 4abe 3e52 9f3d
000000f0: 17f4 16be 30ef 40be e38f 223b 0afe 2e3e
00000100: 6752 c2be f235 003e 7c2d 603e 851b 913e
00000110: 910c ed3b 331f 013e 8d15 713e b4f1 6f3e
00000120: b566 053c 7167 55be 51b6 2e3e 0fa6 9fbb
00000130: a330 ed3d 48ab 2abd d9be 143d 4a8f 1f3e
00000140: 3acc 15bd cce2 bbbd c785 71be bc16 e2bd
00000150: 62f8 923d 5148 393e 864f a43d fc6c 363e
00000160: 0cec acbe 87cd 983d 1423 63bc be76 0dbd
00000170: 1455 7e3a ff61 d6be c015 2dbc 1f64 99bd
00000180: 0144 f8bd c4ec e6bd 662e d1bd 3efd 3ebe
00000190: be5a ab3c ffed 0d3e b279 513e ab31 e93d
000001a0: 162b 42be d9bd 953d f9cf ccbd 445b 943d
000001b0: 20ec babe f461 9abd a52f 083e 4b90 ca3c
000001c0: 3ff0 e1bd df64 2fbd 9297 613c 066b 1d3d
000001d0: 5369 c5bd 0030 05be 5c69 e2bd 37dc 24be
000001e0: 5b22 933e 1483 2fbd f39b 163e ecfb 57bc
000001f0: 190e d4ba eaf7 19bd 0b0c 803d 8b4f d4bd
00000200: ff06 7b3e 0833 6c3d cf07 363d 1a70 5f3c
00000210: c8ed b0be 64a1 96bd 3c0f ceb9 2ae3 9bbd
00000220: 34b4 25be ff5b 45be e960 3ebd 3245 04bd
00000230: 9e52 08be 3e2d 9abd 2bdc 1bbe 3bc4 2bbe
00000240: 74f2 12bc 95b5 cc3d de2e 46bd 1e21 ddbd
00000250: d919 94bb be05 0abe 8943 023e b800 033d
00000260: fdcd 99be 67b3 58bd cf60 8bbe 9b2f 063e
00000270: 5283 403e c305 4fbe f5db d03d 8c87 c43c
00000280: 0882 20be 171c b23c 01ca d5bb 4f3f 55bd
00000290: d47f 3e3c 035a 29be 833f c93c 9299 88bd
000002a0: 58bc 8a3c 1701 1fbe 00b7 0f3d 0767 c8bc
000002b0: b541 90be dbd6 033c c9d3 afbc e74e 8cbe
000002c0: 2ec6 393d 7056 23be f059 5f3e 1086 243d
000002d0: 9659 02be 2373 173e 55b6 0cbd 95d5 643d
000002e0: 803d ef3c dcd7 b5bd b29a 4abd 0349 34be
000002f0: e2ef 7cbe 543b 03be 25fa c53c 341b dc3c
00000300: 9755 f5bd f8fc a7bc ecb8 9fbe 85ce fc3c
00000310: 30c5 e13c 40f9 ac3c fea3 a5bd 1419 c7bb
00000320: 0a25 b2ba 18c9 273e e6da 413e 7228 b5bd
00000330: d04b 07be 023f 64bd f50a 90bd b668 15be
00000340: 9827 67bd 5a56 863c 0bc5 bd3a 45c9 5b3d
00000350: cb6d 12be aa0a 523e 41c0 7c3e 2b11 893d
00000360: a045 0cbd eabc c9bd 1eb5 813e 3078 b8bc
00000370: 3580 6e3e 0a5b 8f3d fd40 3ebd 7e3a 43bc
00000380: 1a27 1a3e 66c9 93be d383 ab3c 042f 963e
00000390: 2861 42be e236 36bd 8002 88bd 8d0e 45be
000003a0: 0739 303e 8eee 97bb df73 a33d 209f 81be
000003b0: e83b f43c 07c0 353d c3a2 2cbd 34bb e9bc
000003c0: 5ae1 fd3d 491f ae3c 0ebc dc3d bae0 21be
000003d0: ab94 4dbe dbf4 babb a301 053e fb68 06bd
000003e0: 0c29 15be 2a0e 2abe eb64 2abe d32d 3fbe
000003f0: fae4 95be acbd 563d 1e26 43bd 0edc 2dbe

layer1_2vm.0.bias f4 [32]
0.010658065 -0.003825388 -0.00043220015 -0.0040017716 0.013745463 -0.0040962636 0.003012079 0.0017190648
0.0022978797 0.0034132767 0.0018141695 -0.006478746 -0.00068722386 -0.0014916379 0.004552371 -0.0043513793
-0.01189811 -0.0010529193 0.005265603 0.004251425 0.0056595877 0.023463964 -0.00902324 0.005952162
0.0063461335 -0.0058526006 0.0065390626 -0.00351766 -0.010100513 -0.0015949631 0.013150318 -0.0081482055
00000000: 2a9f 2e3c 5cb3 7abb ec98 e2b9 4b21 83bb
00000010: a734 613c f339 86bb 4d66 453b 3e52 e13a
00000020: 0698 163b 48b1 5f3b 6dc9 ed3a a94b d4bb
00000030: d026 34ba 1083 c3ba 0e2c 953b 0496 8ebb
00000040: 4af0 42bc 1c02 8aba 148b ac3b 8a4f 8b3b
00000050: 1074 b93b 8037 c03c 36d6 13bc 5b0a c33b
00000060: 3af3 cf3b 2cc7 bfbb a245 d63b 8b88 66bb
00000070: 9f7c 25bc 150e d1ba 6e74 573c 0d80 05bc

layer1_2vm.2.weight f4 [32]
1.0011922 0.97043276 1.0016309 0.9981971 0.9748515 0.98713636 1.0004454 1.005205
1.0155565 0.99103963 1.0073903 1.0006564 1.0217116 1.0000063 1.0128278 0.99972093
0.9935163 1.0059719 1.0013247 1.0041846 1.0116445 1.0155908 1.0214624 0.9748494
0.9946237 1.0012039 0.99995345 0.9900264 1.0099083 0.98084694 0.99571633 0.98962593
00000000: 1127 803f 486e 783f 7135 803f d889 7f3f
00000010: de8f 793f f8b4 7c3f 980e 803f 8faa 803f
00000020: c1fd 813f c6b4 7d3f 2af2 803f 8215 803f
00000030: 72c7 823f 3500 803f 57a4 813f b6ed 7f3f
00000040: 1657 7e3f b0c3 803f 682b 803f 1f89 803f
00000050: 917d 813f e1fe 813f 48bf 823f bb8f 793f
00000060: a99f 7e3f 7327 803f f3fc 7f3f 5f72 7d3f
00000070: ad44 813f c918 7b3f 44e7 7e3f 2058 7d3f

layer1_2vm.2.bias f4 [32]
0.0031908033 -0.036887843 0.012883461 -0.00988658 -0.014254014 -0.008573192 -0.002476834 0.005451976
0.011498478 -0.019935645 0.014124867 -0.0010329122 0.017266287 0.0015768812 0.024041697 -0.004912643
-0.015569139 0.012674726 0.0052573374 -0.0056321686 0.011814427 0.023162827 0.024160955 -0.023374086
-0.0052268086 -0.0009737421 0.002647105 0.015650854 0.01965077 -0.028587876 -0.0051905443 -0.00800463
00000000: cc1c 513b b517 17bd 2715 533c 52fb 21bc
00000010: ab89 69bc 9376 0cbc 6152 22bb 7da6 b23b
00000020: 1d64 3c3c 1450 a3bc fc6b 673c c862 87ba
00000030: 0772 8d3c 5aaf ce3a 18f3 c43c 3dfa a0bb
00000040: b415 7fbc a7a9 4f3c be45 ac3b 0e8e b8bb
00000050: 4c91 413c f8bf bd3c 32ed c53c 037b bfbc
00000060: a645 abbb ba42 7fba 0d7b 2d3b 3836 803c
00000070: a7fa a03c 1f31 eabc 7115 aabb da25 03bc

layer1_2vm.2.running_mean f4 [32]
-0.79827833 -0.13283567 -0.9873014 -0.48495644 -0.9034243 -0.058810838 -0.32893053 0.7189373
-0.7343063 0.021535784 0.8593408 -0.07584172 -0.2846195 -0.28175598 -0.028790861 0.6437562
0.47246647 -0.5087199 0.48901963 -0.17579156 0.737819 0.2310014 -0.37583113 -0.30301648
-0.2944496 -0.24084854 -0.015655061 -0.21085411 -0.72876173 -0.15834883 -0.09983357 0.07970929
00000000: f85b 4cbf 1306 08be c9bf 7cbf 364c f8be
00000010: d146 67bf a2e3 70bd 9569 a8be 460c 383f
00000020: 7ffb 3bbf d06b b03c c2fd 5b3f e752 9bbd
00000030: a6b9 91be 5242 90be d0da ebbc 35cd 243f
00000040: 20e7 f13e 783b 02bf c860 fa3e b402 34be
00000050: b5e1 3c3f a28b 6c3e f06c c0be fa24 9bbe
00000060: 19c2 96be 00a1 76be 0b3f 80bc 24ea 57be
00000070: 2190 3abf 3226 22be 8b75 ccbd a03e a33d

layer1_2vm.2.running_var f4 [32]
1.0204021 0.72609216 0.9110656 0.66251206 0.90787375 0.6405462 0.81767476 0.9268483
0.8461118 0.6738181 0.7982534 0.5201712 0.77451515 0.6761882 0.7119583 0.7245819
0.82962024 0.6401301 0.75034505 0.71704066 0.9673368 0.9535817 0.5381732 0.55793697
0.54179 0.8837412 1.0190288 0.7058991 1.1294259 0.54982406 0.54656947 0.5021068
00000000: 899c 823f 2de1 393f 983b 693f 649a 293f
00000010: 6a6a 683f d6fa 233f 2253 513f ee45 6d3f
00000020: c89a 583f 587f 2c3f 565a 4c3f f129 053f
00000030: a046 463f ab1a 2d3f e642 363f 337e 393f
00000040: fe61 543f 91df 233f 9d16 403f fa8f 373f
00000050: 62a3 773f ee1d 743f b8c5 093f f5d4 0e3f
00000060: c0b2 0a3f dd3c 623f 896f 823f ceb5 343f
00000070: 0791 903f 45c1 0c3f faeb 0b3f 128a 003f

layer2.0.weight f4 [32, 64]
-0.08046501 0.09414585 -0.022538666 0.058751993 -0.040867895 0.0063846842 -0.18235694 0.042585075
0.19282833 -0.23327956 0.073167495 0.021017466 -0.000618499 -0.047547624 0.08008318 0.14667816
-0.034364928 0.0022536987 0.20367198 0.122904435 -0.05926691 -0.12581171 -0.04343082 -0.077932745
0.0047510136 0.10398404 0.05847927 -0.20092449 0.09395639 0.11269083 0.07312658 0.06642005
-0.24724995 0.20742117 -0.15566333 0.20447361 0.054337054 -0.082873024 -0.045679234 -0.24167815
0.084046826 -0.086888984 -0.08303368 0.025964212 0.1653612 0.1906831 0.15038772 0.21156564
0.34517047 0.3610925 -0.058552697 0.0068724602 0.19597371 -0.2880247 -0.13582622 0.18839392
0.14780283 -0.1536891 -0.050764445 0.04710112 -0.0884501 0.011644344 0.02148035 -0.09377364
0.113572516 0.025620865 0.020627704 0.0065659303 -0.16597722 0.20508699 0.24390756 -0.16720954
-0.07167738 0.30437467 -0.116347514 -0.15592584 -0.068022825 0.07936497 -0.14996234 0.07191215
-0.13155028 -0.0013146047 -0.22133203 -0.025582988 0.11517141 -0.06512514 -0.08458586 0.22531217
-0.20660895 0.2144679 0.02818351 0.104217075 -0.024247939 0.13748008 -0.07851034 -0.1967111
0.2542835 -0.11396602 -0.04827888 0.20393725 0.27603126 -0.101925164 -0.13551375 0.07814551
-0.14595766 0.18361136 -0.013512354 -0.01116968 -0.015857793 0.29074016 0.10628579 0.096475154
0.01600828 0.1212081 0.31805006 -0.07401096 0.06425375 0.06649762 0.25325805 -0.20573032
0.051968407 0.04333956 0.033631112 0.2645039 -0.2956778 -0.07905812 -0.013553562 0.01863605
0.19712897 0.1642384 0.20436059 -0.035223484 -0.122574076 0.23175876 0.13897972 0.13259035
0.1907351 0.20416825 -0.10448298 0.10224601 -0.065902114 -0.09768387 0.076119624 0.030734155
0.08184434 -0.002613265 0.06657312 0.034406573 0.028999776 -0.1395056 -0.01990465 0.28904212
-0.17249908 0.062033653 0.12254528 -0.25349778 -0.07546584 0.12872283 0.10985136 -0.19539607
-0.19571508 -0.056964938 0.10743249 0.03747227 -0.016028095 0.14223215 0.0074506234 0.05210127
-0.0016158903 0.09308618 0.044255152 -0.08244604 0.095598385 -0.060900617 -0.14853941 0.06786771
-0.03248122 -0.310039 0.030615332 -0.10270455 0.11755431 -0.047713757 -0.19928536 -0.10534574
-0.09563805 0.11623153 0.1237583 -0.0007272101 -0.14696336 0.25318462 -0.15393841 -0.097929835
-0.3240731 -0.19602647 0.11569477 0.20921795 0.25877455 -0.037843008 -0.19124976 -0.019030351
-0.0064548906 -0.22816977 -0.18610479 0.008333086 -0.312998 -0.060128298 0.0012564283 0.4098565
0.025224878 0.0027090542 -0.0040424564 -0.35646763 -0.1552095 0.14548428 -0.16143018 -0.048450865
0.08485576 -0.23189536 0.1166084 -0.023261145 0.12793022 -0.21090858 0.00016211497 -0.01970808
-0.025637435 0.112609744 0.20999658 0.06593925 0.09572175 -0.085299745 -0.09453653 -0.0036925427
0.06470937 -0.036165368 0.13932107 0.013896752 -0.099652395 0.035096865 -0.20198882 0.283973
-0.021601835 -0.10247737 -0.17604844 0.006469517 -0.24382037 -0.1140517 -0.011331947 -0.20134827
0.18152061 0.54019636 0.1698824 -0.25292617 -0.2164779 -0.13050619 0.1757989 -0.0542741
00000000: d7ca a4bd 8acf c03d 02a3 b8bc eea5 703d
00000010: 1865 27bd 9d36 d13b c7bb 3abe b06d 2e3d
00000020: ca74 453e d6e0 6ebe d7d8 953d d22c ac3c
00000030: c422 22ba 4cc1 42bd a602 a43d cd32 163e
00000040: 3dc2 0cbd cab2 133b 638f 503e 52b5 fb3d
00000050: dcc1 72bd c9d4 00be 84e4 31bd 349b 9fbd
00000060: 64ae 9b3b 96f5 d43d f687 6f3d 26bf 4dbe
00000070: 356c c03d 73ca e63d 63c3 953d 3c07 883d
00000080: 172f 7dbe 3766 543e 3566 1fbe 8861 513e
00000090: 8890 5e3d 55b9 a9bd 261a 3bbd 7a7a 77be
000000a0: be20 ac3d daf2 b1bd 900d aabd e6b2 d43c
000000b0: 7254 293e 6e42 433e 3dff 193e aaa4 583e
000000c0: 2fba b03e 1ee1 b83e f4d4 6fbd 6032 e13b
000000d0: 55ad 483e f977 93be 0716 0bbe 56ea 403e
000000e0: a059 173e ad60 1dbe 61ee 4fbd 1bed 403d
000000f0: 5325 b5bd ebc7 3e3c 8ff7 af3c 650c c0bd
00000100: b598 e83d d9e2 d13c 6efb a83c 0427 d73b
00000110: eff5 29be 5302 523e e7c2 793e fa38 2bbe
00000120: 97cb 92bd ffd6 9b3e 9b47 eebd 06ab 1fbe
00000130: 8d4f 8bbd 1a8a a23d ba8f 19be ad46 933d
00000140: 1eb5 06be d04e acba dda4 62be 6a93 d1bc
00000150: fdde eb3d 5460 85bd 5a3b adbd 3cb8 663e
00000160: 4c91 53be 799d 5b3e 1be1 e63c c36f d53d
00000170: 9da3 c6bc 94c7 0c3e 07ca a0bd a26e 49be
00000180: 7231 823e 0467 e9bd 13c0 45bd edd4 503e
00000190: f853 8d3e 24be d0bd 1ec4 0abe c10a a03d
000001a0: ed75 15be 9e04 3c3e ec62 5dbc 0901 37bc
000001b0: 34e8 81bc e5db 943e 5dac d93d c494 c53d
000001c0: cc23 833c f43b f83d 75d7 a23e 0f93 97bd
000001d0: 7897 833d e72f 883d 0aab 813e f8aa 52be
000001e0: d3dc 543d d384 313d c7c0 093d 0e6d 873e
000001f0: 1563 97be 39e9 a1bd c20f 5ebc a1aa 983c
00000200: 2ddc 493e 1c2e 283e e743 513e 8046 10bd
00000210: 1e08 fbbd 2b52 6d3e b350 0e3e c4c5 073e
00000220: 1050 433e 7b11 513e 2cfb d5bd 5b66 d13d
00000230: b0f7 86bd 7b0e c8bd 9be4 9b3d 32c6 fb3c
00000240: 019e a73d 5043 2bbb 7d57 883d e8ed 0c3d
00000250: f090 ed3c 8eda 0ebe 140f a3bc 54fd 933e
00000260: 99a3 30be 0017 7e3d 05f9 fa3d 76ca 81be
00000270: d68d 9abd ebcf 033e c0f9 e03d e815 48be
00000280: 8969 48be 1154 69bd 9105 dc3d 867c 193d
00000290: 5a4d 83bc 4ea5 113e 5c24 f43b 2468 553d
000002a0: 48cc d3ba f8a3 be3d e444 353d 78d9 a8bd
000002b0: 16c9 c33d ed72 79bd b71a 18be 3afe 8a3d
000002c0: 070b 05bd 6fbd 9ebe 01cd fa3c c356 d2bd
000002d0: 50c0 f03d 806f 43bd 7611 4cbe 82bf d7bd
000002e0: e2dd c3bd cc0a ee3d fe74 fd3d 3ea2 3eba
000002f0: 907d 16be 6aa1 813e 08a2 1dbe 708f c8bd
00000300: e9ec a5be 2abb 48be 61f1 ec3d 3b3d 563e
00000310: 197e 843e 4501 1bbd fad6 43be 8ae5 9bbc
00000320: 8c83 d3bb 56a5 69be 4192 3ebe 7f87 083c
00000330: 4641 a0be 1749 76bd bdae a43a b6d8 d13e
00000340: 67a4 ce3c 638a 313b 9576 84bb ed82 b6be
00000350: 3def 1ebe d5f9 143e f44d 25be 6a74 46bd
00000360: dbc8 ad3d fa75 6dbe 63d0 ee3d 288e bebc
00000370: 2400 033e 6bf8 57be 68fd 2939 d772 a1bc
00000380: 9905 d2bc f09f e63d 5809 573e 280b 873d
00000390: c409 c43d a2b1 aebd 5e9c c1bd 96fe 71bb
000003a0: 5986 843d 2322 14bd 2faa 0e3e 34af 633c
000003b0: 8e16 ccbd bbc1 0f3d 28d6 4ebe e964 913e
000003c0: 55f6 b0bc a8df d1bd 0b46 34be 3efe d33b
000003d0: 0cac 79be f093 e9bd a1a9 39bc 3e2e 4ebe
000003e0: 8ae0 393e 4f4a 0a3f a7f5 2d3e 8a7f 81be
000003f0: 62ac 5dbe 6aa3 05be a004 343e 854e 5ebd

layer2.0.bias f4 [32]
-0.046867505 0.042709354 -0.040014535 -0.023780061 0.020760385 0.018018195 0.015280057 0.03467153
-0.02799875 0.053967685 0.023936098 -0.031026276 -0.016775431 0.00034590717 -0.032907296 0.01248635
-0.040439297 0.049080707 -0.026184358 -0.018549738 0.0019522717 -0.016297484 -0.027230883 -0.023171736
-0.050240736 -0.022902368 0.053610604 0.038677365 0.055608556 -0.009625295 0.05293445 -0.03727589
00000000: 24f8 3fbd 01f0 2e3d 48e6 23bd 67ce c2bc
00000010: af11 aa3c e59a 933c 3459 7a3c bc03 0e3d
00000020: a25d e5bc 380d 5d3d a315 c43c d12a febc
00000030: a16c 89bc e05a b539 cdc9 06bd 8c93 4c3c
00000040: ada3 25bd da08 493d 9480 d6bc 9ff5 97bc
00000050: 5ee3 ff3a 4d82 85bc 4d13 dfbc a7d2 bdbc
00000060: 3bc9 4dbd bf9d bbbc cb96 5b3d 286c 1e3d
00000070: ccc5 633d 6ab3 1dbc cbd1 583d 9bae 18bd

layer2.2.weight f4 [32]
0.9455776 1.0522249 0.9529058 1.0538433 1.0307244 0.9560898 1.019936 1.0534575
0.96223134 1.0588759 0.94617116 0.9589292 1.0534818 1.0555258 1.0552416 1.0565249
0.94337934 1.0502045 1.0543929 1.0447905 0.94296825 0.94258946 0.96625966 1.0343649
0.94514686 1.0567535 1.0531107 1.0508333 1.058108 0.95033455 1.0553441 0.94317645
00000000: 6011 723f 4eaf 863f a2f1 733f 56e4 863f
00000010: c7ee 833f 4dc2 743f 438d 823f b2d7 863f
00000020: cb54 763f 3f89 873f 4638 723f 627c 753f
00000030: 7ed8 863f 781b 873f 2812 873f 353c 873f
00000040: 4f81 713f 1a6d 863f 59f6 863f b2bb 853f
00000050: 5e66 713f 8b4d 713f cb5c 773f 1266 843f
00000060: 25f5 713f b343 873f 55cc 863f b581 863f
00000070: 1570 873f 2049 733f 8415 873f 0374 713f

layer2.2.bias f4 [32]
-0.054333135 0.05191583 -0.048432246 0.054735024 0.0359835 -0.048770275 0.018946579 0.055951104
-0.042798396 0.05788216 -0.054478243 -0.04355571 0.05373176 0.054531865 0.055211704 0.05672448
-0.056529853 0.051997256 0.054554902 0.047787175 -0.056314994 -0.056753285 -0.038694147 0.04448938
-0.05608231 0.056452215 0.053736545 0.05385008 0.057609867 -0.05487975 0.05749965 -0.056430075
00000000: 6c8c 5ebd b1a5 543d e460 46bd d531 603d
00000010: 6f63 133d 57c3 47bd db35 9b3c fc2c 653d
00000020: 5f4d 2fbd d815 6d3d 9424 5fbd 7967 32bd
00000030: d515 5c3d ce5c 5f3d ab25 623d ee57 683d
00000040: d98b 67bd 13fb 543d f674 5f3d 7cbc 433d
00000050: 8daa 66bd 2276 68bd c17d 1ebd 7f3a 363d
00000060: 90b6 65bd 703a 673d da1a 5c3d e791 5c3d
00000070: 53f8 6b3d 97c9 60bd c184 6b3d 3923 67bd

layer2.2.running_mean f4 [32]
0.46020776 0.5038193 0.28730866 -0.38076624 0.70318884 -0.22669275 0.3823016 0.12751083
0.01227817 0.3442034 -0.4199425 0.31113943 -0.5844021 -0.7347924 -0.5740283 -1.1063592
0.05465082 0.30029243 -0.18433371 -0.582961 0.79141605 -0.014194568 0.053714894 -0.15782683
0.052424006 -0.6142873 0.34437263 0.43291593 0.36898783 0.66329753 0.46567872 0.6317409
00000000: 5aa0 eb3e 4dfa 003f 1f1a 933e cbf3 c2be
00000010: 2f04 343f 2522 68be 09bd c33e 3392 023e
00000020: 612a 493c 6e3b b03e b402 d7be ab4d 9f3e
00000030: 609b 15bf 5b1b 3cbf 85f3 12bf 2e9d 8dbf
00000040: 8ad9 5f3d eebf 993e fac1 3cbe ef3c 15bf
00000050: 3e9a 4a3f 5590 68bc 2604 5c3d 5b9d 21be
00000060: 8eba 563d ef41 1dbf 9c51 b03e 28a7 dd3e
00000070: f9eb bc3e decd 293f 716d ee3e c6b9 213f

layer2.2.running_var f4 [32]
0.5887959 0.6055254 0.54703444 0.76096815 0.9246004 0.7959475 0.7806402 0.8499794
0.61141247 0.5782547 0.7026107 0.44774172 0.7790034 0.75550634 1.251795 1.0165544
0.62162995 0.5370533 0.5805124 0.82435054 0.7789837 0.5687967 0.8955328 0.48514625
0.5155363 0.7874398 0.6098191 0.758245 0.56729615 0.66998553 1.2042327 0.8292814
00000000: 54bb 163f b603 1b3f 730a 0c3f cfce 423f
00000010: 9db2 6c3f 37c3 4b3f 09d8 473f 4098 593f
00000020: 8785 1c3f 8008 143f 4bde 333f 673e e53e
00000030: c46c 473f dd68 413f d23a a03f 741e 823f
00000040: 2423 1f3f 537c 093f 769c 143f a308 533f
00000050: 7a6b 473f a99c 113f a341 653f 1765 f83e
00000060: 30fa 033f a895 493f 1b1d 1c3f 581c 423f
00000070: 523a 113f 2c84 2b3f 4c24 9a3f c94b 543f

fc_advantage.0.weight f4 [20, 32]
0.1429722 0.17619345 0.20255761 -0.029855214 0.3287891 0.19312449 -0.38033208 -0.03267465
0.24211521 -0.0046484773 0.18376015 -0.34461096 0.1394479 -0.26683813 0.10597951 -0.007590849
0.046494424 -0.2181922 -0.040783025 -0.09431256 0.15437081 -0.081850834 -0.061091147 0.011184753
-0.147584 -0.21478984 -0.33084443 -0.18625772 -0.011828016 -0.005189985 0.044452082 0.48305658
-0.22936185 -0.108358584 0.08269682 0.30005297 -0.0962413 0.11093471 -0.0557586 -0.15834059
-0.2082146 0.00065155816 -0.22196048 -0.18650466 -0.17737046 -0.013834105 -0.28836003 0.3764922
0.19764096 -0.09169871 0.03577023 -0.3576605 -0.06856928 0.04772625 0.03602279 0.010337429
0.01917312 -0.14090161 0.023639698 0.39664733 -0.17335163 -0.20834519 -0.053924832 -0.30620515
0.27814102 -0.21723405 0.20505744 -0.18751153 0.2317701 -0.09352 0.04831235 -0.20195417
-0.03394463 -0.040759794 -0.018574625 0.08972412 0.009264602 -0.154832 -0.31439295 -0.04404319
-0.01436741 0.13709077 0.38574216 0.5635039 -0.22485526 0.201469 0.08460353 0.058365718
-0.06371126 -0.10487 -0.54372406 0.15509814 0.1303418 0.050258067 -0.026894528 0.20356591
-0.3132323 -0.05367148 -0.37847245 -0.14770658 -0.22670121 -0.16744679 0.10034108 0.08201896
0.13276906 -0.21271712 0.14199151 0.16584837 -0.39647293 -0.0058304793 -0.10572244 -0.0046045417
0.12935035 -0.2829233 -0.28393373 0.2157288 -0.08332229 -0.021643274 -0.03363302 -0.28198394
-0.010548052 -0.047501322 -0.120518014 0.043646608 -0.25445732 -0.4094561 -0.11272054 -0.025966749
-0.09079577 0.033970688 0.075906806 -0.015972376 -0.031681806 0.042358257 0.4613269 -0.13504016
-0.60657656 0.07926973 -0.060026385 0.10754318 -0.16954964 0.008060712 0.31697547 0.09404027
-0.0958254 0.061051622 -0.03967649 -0.39533988 -0.10123781 -0.35064697 -0.0154859135 -0.105170436
-0.31597143 0.026037678 -0.09682086 0.17851338 0.024172943 -0.050478112 -0.16532643 -0.31365216
-0.19234668 -0.18788122 0.123002514 -0.24983692 -0.08789247 0.49141735 0.080008306 -0.25619778
-0.09754677 -0.12459387 0.33344465 -0.023529552 0.04747613 0.18083766 0.18823011 -0.00186976
-0.124907255 0.12081999 0.3217492 -0.32076082 -0.038720146 0.2301087 0.22340941 -0.18918298
-0.06171638 -0.24566367 -0.124848254 -0.13214324 -0.41878963 -0.12341979 0.17162976 -0.25183353
0.058928594 -0.09269208 0.0074593574 -0.10144482 -0.12521215 -0.118466794 0.2856317 -0.09835231
0.011949783 -0.10801263 -0.06455746 -0.121423565 -0.003967757 -0.41844365 -0.019417193 -0.11500137
-0.44785857 -0.22406144 0.0164899 -0.068630986 0.17655417 0.105509445 -0.18688749 -0.51936305
-0.43464667 -0.113102905 0.053355668 0.16686882 -0.22412026 0.055419117 0.060780577 -0.11977036
-0.08612915 -0.26343745 -0.20605138 -0.020142673 0.09257479 0.022576565 -0.033547547 0.038107652
-0.17651655 -0.431569 -0.39570123 -0.047271535 -0.06801655 0.018840441 -0.1115741 -0.31757057
0.19520505 0.055493798 0.15043621 0.14023805 -0.19842775 -0.017993156 -0.31122977 0.21421766
0.13772888 0.2901238 0.098200455 0.080228984 -0.3991968 -0.108347446 0.12750506 0.16215111
00000000: 4e67 123e 0e6c 343e 436b 4f3e ec92 f4bc
00000010: 0b57 a83e 6dc2 453e e3ba c2be dbd5 05bd
00000020: 0ded 773e 4152 98bb 9f2b 3c3e d970 b0be
00000030: 6ecb 0e3e 029f 88be c90b d93d a8bc f8bb
00000040: f070 3e3d c76d 5fbe 1a0c 27bd f226 c1bd
00000050: 6213 1e3e 69a1 a7bd b63a 7abd 4140 373c
00000060: 4320 17be def1 5bbe 7164 a9be 58ba 3ebe
00000070: 4bca 41bc c010 aabb 6313 363d 3153 f73e
00000080: d5dd 6abe 1beb ddbd f35c a93d 8ba0 993e
00000090: 291a c5bd bd31 e33d 2163 64bd 0924 22be
000000a0: 3536 55be 54cd 2a3a 9c49 63be 14fb 3ebe
000000b0: 9aa0 35be 71a8 62bc eda3 93be 96c3 c03e
000000c0: 6462 4a3e 89cc bbbd ce83 123d 471f b7be
000000d0: 0d6e 8cbd 9a7c 433d a28c 133d 525e 293c
000000e0: f210 9d3c 8348 10be 0aa8 c13c 5c15 cb3e
000000f0: 1783 31be 7158 55be 49e0 5cbd ecc6 9cbe
00000100: 8068 8e3e 9a72 5ebe 94fa 513e 0603 40be
00000110: 2455 6d3e 6a87 bfbd 2ce3 453d 13cd 4ebe
00000120: 8609 0bbd bef3 26bd d029 98bc 48c1 b73d
00000130: 8fca 173c 488c 1ebe 1df8 a0be a266 34bd
00000140: 4965 6bbc 8661 0c3e ff7f c53e cb41 103f
00000150: 7540 66be e44d 4e3e 9e44 ad3d e410 6f3d
00000160: 0d7b 82bd 15c6 d6bd 8031 0bbf 0cd2 1e3e
00000170: 5278 053e 67db 4d3d ea51 dcbc 9573 503e
00000180: fc5f a0be a0d6 5bbd 24c7 c1be 6540 17be
00000190: 5d24 68be 2c77 2bbe a07f cd3d 8ef9 a73d
000001a0: 9df4 073e 84d2 59be 3966 113e 28d4 293e
000001b0: 80fe cabe 9b0d bfbb 0285 d8bd b2e1 96bb
000001c0: 6b74 043e 53db 90be c35f 91be 03e8 5c3e
000001d0: e0a4 aabd 3c4d b1bc c7c2 09bd 3360 90be
000001e0: bdd1 2cbc bf90 42bd 26d2 f6bd c9c6 323d
000001f0: 3b48 82be 3ba4 d1be 07da e6bd 38b8 d4bc
00000200: 22f3 b9bd d924 0b3d 0775 9b3d 80d8 82bc
00000210: c8c4 01bd da7f 2d3d 0a33 ec3e f847 0abe
00000220: 9a48 1bbf 2b58 a23d 3ade 75bd 993f dc3d
00000230: 6c9e 2dbe 1411 043c 9c4a a23e 2f98 c03d
00000240: 1b40 c4bd 4411 7a3d d183 22bd fd69 cabe
00000250: c555 cfbd 0088 b3be a1b8 7dbc 9963 d7bd
00000260: 02c7 a1be f84c d53c 044a c6bd 36cc 363e
00000270: 5606 c63c 23c2 4ebd 554b 29be 0497 a0be
00000280: 87f6 44be ef63 40be bee8 fb3d 40d5 7fbe
00000290: f800 b4bd 0e9b fb3e 65db a33d 5b2c 83be
000002a0: 9ac6 c7bd 122b ffbd 42b9 aa3e 0cc1 c0bc
000002b0: 5576 423d 822d 393e 65bf 403e bc12 f5ba
000002c0: 60cf ffbd 7970 f73d 50bc a43e c33a a4be
000002d0: 0499 1ebd 9da1 6b3e 70c5 643e 2fb9 41be
000002e0: 51ca 7cbd 428f 7bbe 71b0 ffbd 8f50 07be
000002f0: 986b d6be 84c3 fcbd b6bf 2f3e 53f0 80be
00000300: 1c5f 713d 58d5 bdbd a06d f43b 4dc2 cfbd
00000310: 9d37 00be b89e f2bd 513e 923e f06c c9bd
00000320: 06c9 433c ba35 ddbd b436 84bd ebac f8bd
00000330: f503 82bb 3f3e d6be ce10 9fbc d785 ebbd
00000340: b84d e5be 5d70 65be d415 873c 678e 8cbd
00000350: 9eca 343e 5615 d83d 6f5f 3fbe faf4 04bf
00000360: 028a debe 7fa2 e7bd 798b 5a3d a9df 2a3e
00000370: c87f 65be 28ff 623d 0ef5 783d 2a4a f5bd
00000380: 7b64 b0bd 46e1 86be 22ff 52be 3f02 a5bc
00000390: da97 bd3d 7df2 b83c 2769 09bd c516 1c3d
000003a0: c1c0 34be 9df6 dcbe 5a99 cabe cc9f 41bd
000003b0: 434c 8bbd 4557 9a3c f680 e4bd 9c98 a2be
000003c0: d5e3 473e 774d 633d f30b 1a3e 909a 0f3e
000003d0: a530 4bbe 6266 93bc 8259 9fbe e05b 5b3e
000003e0: cd08 0d3e 1b8b 943e 521d c93d 184f a43d
000003f0: 8663 ccbe 44e5 ddbd b090 023e f10a 263e

fc_advantage.0.bias f4 [20]
-0.01683632 -0.055944033 -0.04422493 -0.035398453 -0.040400792 -0.033744227 -0.032165255 -0.035850935
-0.046611752 -0.019896183 -0.015398903 -0.025286172 -0.01746169 -0.027204495 0.01211824 0.021296004
0.015593378 0.024175305 0.02090226 0.030032847
00000000: 52ec 89bc 9225 65bd 3325 35bd f8fd 10bd
00000010: 4d7b 25bd 6337 0abd b7bf 03bd 6ed8 12bd
00000020: f7eb 3ebd 52fd a2bc ae4b 7cbc f224 cfbc
00000030: d10b 8fbc f6db debc 958b 463c f574 ae3c
00000040: 5e7b 7f3c 4a0b c63c 373b ab3c 7207 f63c

fc_value.0.weight f4 [1, 32]
-0.30075806 0.10580718 -0.12663114 0.21107566 0.06587781 -0.058100365 0.11611958 0.16430594
-0.08138727 0.30324605 -0.16901183 -0.055216547 0.20063809 0.23413478 0.37438 0.33325085
-0.28649577 0.18021071 0.18997842 0.15804356 -0.24179585 -0.7405525 -0.019139316 0.092310436
-0.28450048 0.2068017 0.21569663 0.120783105 0.36123466 -0.118745364 0.14276011 -0.57285833
00000000: f6fc 99be 6fb1 d83d 98ab 01be 3824 583e
00000010: f2ea 863d a6fa 6dbd 1ad0 ed3d d13f 283e
00000020: 5eae a6bd 1143 9b3e 7011 2dbe bf2a 62bd
00000030: 1274 4d3e 07c1 6f3e bcae bf3e db9f aa3e
00000040: 93af 92be 2889 383e b489 423e 2cd6 213e
00000050: 5599 77be d994 3dbf 0eca 9cbc 410d bd3d
00000060: 0caa 91be d3c3 533e 94df 5c3e 225d f73d
00000070: c0f3 b83e c530 f3bd b52f 123e d8a6 12bf
