save/client-4/eval.pth (torch, 42501 bytes, 27 tensors)

layer1_task.0.weight f4 [32, 3]
0.024502339 0.015161965 -0.2827147 -0.14563213 -0.017330412 -0.020306783 -0.3813218 0.061994746
0.3302452 -0.05243283 0.076071635 0.30167 -0.008965992 -0.3592078 0.027417697 0.16622637
0.0029781691 -0.028140355 -0.30127063 -0.23462127 0.07908288 -0.11743586 0.12375816 0.07642945
-0.02843955 0.38741696 0.030970523 0.04414504 -0.20903637 -0.204236 0.029676035 0.061358158
0.13734503 0.019318739 0.44555628 -0.1557119 -0.23433307 -0.21598782 0.13913946 -0.09262556
0.43375644 -0.03519782 -0.1135872 -0.2671737 -0.34859106 0.11585116 0.17280637 0.35685134
0.22531086 0.30390057 0.5213694 0.040215634 -0.0018174886 -0.18897429 0.16177377 -0.10226535
0.16405922 -0.024102552 -0.27497754 -0.038116205 -0.551972 -0.08871809 -0.043741543 0.17309722
-0.35353917 0.035296045 0.11737205 0.15597256 -0.061104428 -0.21581948 0.10200324 0.05886523
-0.07081922 0.055652395 -0.07880323 0.16773619 0.034759063 -0.22666077 0.23365636 0.09594145
0.11923345 -0.020010445 -0.13737755 0.099623166 -0.2476854 -0.00020339317 -0.065419406 0.31883395
-0.32170424 0.11106105 0.14096524 0.00029062736 -0.2600326 0.13466941 -0.6318238 0.20919508
00000000: 21b9 c83c e469 783c fbbf 90be 9720 15be
00000010: 82f8 8dbc 695a a6bc 9c3c c3be 34ee 7d3d
00000020: e615 a93e cfc3 56bd 72cb 9b3d 7e74 9a3e
00000030: 19e6 12bc 16ea b7be 149b e03c 3f37 2a3e
00000040: 632d 433b 9a86 e6bc 2540 9abe 8f40 70be
00000050: 34f6 a13d 3682 f0bd eb74 fd3d 0b87 9c3d
00000060: 0ffa e8bc 845b c63e e5b5 fd3c 6ed1 343d
00000070: a10d 56be 3e23 51be 281b f33c b152 7b3d
00000080: 2da4 0c3e 5542 9e3c f41f e43e f172 1fbe
00000090: 02f5 6fbe e92b 5dbe 937a 0e3e 78b2 bdbd
000000a0: 5315 de3e 972b 10bd 68a0 e8bd feca 88be
000000b0: 877a b2be 5f43 ed3d 27f4 303e 38b5 b63e
000000c0: e4b7 663e db98 9b3e 7778 053f 26b9 243d
000000d0: cc38 eeba 7a82 41be 06a8 253e 7f70 d1bd
000000e0: 24ff 273e b772 c5bc dbc9 8cbe bd1f 1cbd
000000f0: 094e 0dbf d4b1 b5bd 552a 33bd 6640 313e
00000100: 1603 b5be 9692 103d c260 f03d 45b7 1f3e
00000110: a348 7abd c8ff 5cbe 13e7 d03d ab1c 713d
00000120: ab09 91bd c4f3 633d 9663 a1bd 09c3 2b3e
00000130: 855f 0e3d c319 68be 9d43 6f3e f37c c43d
00000140: ab30 f43d f2ec a3bc b3ac 0cbe 3b07 cc3d
00000150: 3ea1 7dbe f045 55b9 9cfa 85bd 343e a33e
00000160: 6bb6 a4be fa73 e33d 3159 103e 585f 9839
00000170: fe22 85be c7e6 093e 34bf 21bf 3c37 563e

layer1_task.0.bias f4 [32]
0.006650375 -0.012867249 0.0077554076 -0.0039498582 -0.008795692 -0.014491444 -0.0054461854 -0.001098701
-0.007688896 -0.00012517264 -0.01037697 0.008058695 0.009171222 0.0073218504 0.006702696 -0.008182216
-0.0033556782 -0.0038835239 -0.006627921 -0.008858994 -0.0018702043 -0.011785964 -0.003467261 -0.00061121
0.008393456 0.00019337446 0.01054607 -0.008060856 0.0054252446 -0.0109308995 0.0061295405 -0.004607161
00000000: 64eb d93b 27d1 52bc 1321 fe3b d06d 81bb
00000010: ce1b 10bc 866d 6dbc ea75 b2bb 4a02 90ba
00000020: 22f3 fbbb c640 03b9 2b04 2abc 9e08 043c
00000030: e542 163c 22ec ef3b 4aa2 db3b b40e 06bc
00000040: f0ea 5bbb b882 7ebb 082f d9bb 5025 11bc
00000050: a521 f5ba ea19 41bc fd3a 63bb 9c39 20ba
00000060: b584 093c 90c4 4a39 6cc9 2c3c ae11 04bc
00000070: 40c6 b13b 8417 33bc 50da c83b abf7 96bb

layer1_task.2.weight f4 [32]
0.997375 1.0006613 0.9981302 1.0145807 1.0065886 1.018674 0.99901915 0.99590635
0.99871373 0.984143 1.0155643 0.996134 1.0068922 0.99758124 1.0016494 1.0027338
1.0074524 1.007486 0.9959097 0.98665464 1.0038744 1.001178 0.9901455 1.0148178
1.0143838 0.9928273 0.9826841 1.0208994 0.9922829 1.0085241 0.9924383 1.0165546
00000000: f853 7f3f ab15 803f 7685 7f3f c8dd 813f
00000010: e5d7 803f e963 823f b8bf 7f3f b8f3 7e3f
00000020: b4ab 7f3f ccf0 7b3f 03fe 813f a302 7f3f
00000030: d8e1 803f 7c61 7f3f 0c36 803f 9559 803f
00000040: 33f4 803f 4df5 803f f0f3 7e3f 6695 7c3f
00000050: f57e 803f 9a26 803f 2d7a 7d3f 8de5 813f
00000060: 54d7 813f ee29 7e3f 2f91 7b3f d5ac 823f
00000070: 4106 7e3f 5117 813f 7010 7e3f 761e 823f

layer1_task.2.bias f4 [32]
0.0007459535 -0.0032787984 -0.0104828905 0.013862613 0.005510776 0.0074194283 -0.0007178162 0.0121932225
0.0013391227 -0.02219196 0.014113469 0.005813984 -0.0024128803 0.0020021636 0.013333541 -0.0064830333
0.008653589 0.009580469 -0.0074163685 -0.01802715 0.0047427444 -0.0032857482 -0.016103724 0.0034233655
0.013115419 -0.009204695 -0.02188841 0.010137903 -0.0037853834 -0.0033423572 -0.005609925 0.011074822
00000000: 188c 433a 1ce1 56bb 6ec0 2bbc 0320 633c
00000010: bd93 b43b ad1e f33b d42b 3cba 15c6 473c
00000020: 8085 af3a eacb b5bc 2e3c 673c 3c83 be3b
00000030: 6a21 1ebb bb36 033b ed74 5a3c a06f d4bb
00000040: c8c7 0d3c 66f7 1c3c 0205 f3bb acad 93bc
00000050: 0669 9b3b b555 57bb f5eb 83bc 8b5a 603b
00000060: 0ee2 563c 4acf 16bc 534f b3bc 7219 263c
00000070: 3214 78bb 730b 5bbb 76d3 b7bb 2c73 353c

layer1_task.2.running_mean f4 [32]
804.97833 -6063.433 -16002.844 -2091.0825 -636.9391 6507.6025 -12572.004 -4484.577
-1349.1804 1931.3723 1266.4426 603.4148 -8713.102 -4156.862 -4842.517 4995.728
9229.21 1447.9634 6231.9263 -1143.7177 -21921.084 6523.4214 4891.3345 -8930.741
-3077.4258 6606.9336 8779.916 -586.91516 -9214.508 12249.028 5839.293 5322.3765
00000000: 9d3e 4944 777b bdc5 600b 7ac6 52b1 02c5
00000010: 1a3c 1fc4 d25c cb45 0470 44c6 9e24 8cc5
00000020: c6a5 a8c4 ea6b f144 2a4e 9e44 8cda 1644
00000030: 6824 08c6 e5e6 81c5 2354 97c5 d31d 9c45
00000040: d734 1046 d4fe b444 69bf c245 f7f6 8ec4
00000050: 2b42 abc6 5fdb cb45 adda 9845 f78a 0bc6
00000060: d056 40c5 7877 ce45 aa2f 0946 92ba 12c4
00000070: 08fa 0fc6 1d64 3f46 587a b645 0353 a645

layer1_task.2.running_var f4 [32]
2.734759e+07 1.2845533e+09 8.655263e+09 1.6667869e+08 1.700616e+07 9.226582e+08 5.159348e+09 6.7457926e+08
3.3053164e+07 7.317973e+07 3.3413912e+07 1.4510148e+07 1.7523524e+09 5.674623e+08 7.8802003e+08 8.50019e+08
3.0087311e+09 7.579209e+07 1.3770267e+09 4.2695836e+07 1.6995286e+10 8.609721e+08 8.569344e+08 2.6931484e+09
3.190654e+08 1.5570808e+09 1.6101882e+09 1.3131868e+07 1.7999338e+09 3.28462e+09 1.2185339e+09 1.0038318e+09
00000000: 43a5 d04b 7521 994e 35f9 0050 0af5 1e4d
00000010: 28bf 814b 96fa 5b4e b4c2 994f 0dd5 204e
00000020: f62c fc4b 4a94 8b4c 8ced fe4b 4468 5d4b
00000030: 8de5 d04e 264b 074e ede0 3b4e 0ba9 4a4e
00000040: 9855 334f db8f 904c 8527 a44e 27df 224c
00000050: df3f 7d50 9145 4d4e 204f 4c4e 2f86 204f
00000060: 6a24 984d 569e b94e 0bf3 bf4e 5c60 484b
00000070: 9f91 d64e 53c7 434f b442 914e 0855 6f4e

layer1_1vm.0.weight f4 [64, 40]
0.00833934 0.103912495 0.03499424 -0.01824069 0.19724002 -0.03862295 0.031439643 -0.1131358
-0.09680681 -0.050132893 -0.08951679 -0.19505882 -0.08238035 -0.019351706 -0.18008429 0.08694629
-0.040343218 0.015558881 0.066806145 -0.24938706 0.27266553 -0.06260959 -0.06477436 -0.046265442
-0.104862325 -0.025482278 0.13863087 -0.17566034 0.010210457 -0.22691426 -0.22622432 -0.07211676
-0.0060622212 -0.0117708575 0.21320789 0.018299282 0.12491469 -0.06030376 0.118479446 0.05046309
0.027528713 -0.1995511 0.08102493 0.24155395 0.04724443 0.13692391 -0.10151441 -0.006482496
-0.3126098 -0.075174175 -0.06302138 -0.0057547567 0.14323029 0.050269444 -0.1607098 -0.07469566
0.23721161 0.17400561 0.04826469 0.17565027 -0.079965845 -0.093951896 -0.120706975 0.12909293
-0.19286582 -0.11001082 0.032405246 0.22650976 0.17039174 -0.18405184 -0.08675017 -0.0022202013
0.08391902 0.071851306 0.07142268 -0.0039895233 -0.3019975 0.18159628 0.16278268 -0.005442956
0.0038288925 -0.21589048 -0.060438853 0.046624716 -0.1637467 0.058690637 0.1022445 0.047091223
-0.17998055 -0.17152256 -0.002184863 0.049954966 0.021180354 0.029140059 0.009215604 -0.01677678
-0.069925405 0.19851121 0.014416797 0.0384951 0.06567085 -0.02523664 0.07504612 -0.10121926
0.18118113 -0.0027276105 -0.050069116 0.09779247 -0.19471899 -0.11891575 -0.124276444 0.011917273
0.064509645 -0.010900084 0.03169556 0.20211944 0.05306277 -0.024848847 0.10076475 -0.26518136
-0.1207887 -0.03758438 0.17998329 -0.17735282 0.014586936 0.060628496 -0.013127028 0.0022407104
-0.092609875 -0.014956811 -0.037469156 0.09795873 0.003717768 -0.08272755 -0.20004362 -0.10915518
0.005148503 -0.13869622 -0.00456088 0.22232465 -0.010692509 0.17932406 0.04907369 0.02202217
-0.19750613 0.07047789 0.15530184 0.0855336 0.09455572 0.27253622 -0.08164615 0.098430716
-0.33100268 -0.22999528 -0.16118059 -0.23021516 0.05794169 0.11951439 -0.17690387 0.043361302
-0.10877525 -0.1296124 -0.24329458 -0.18820725 -0.29386324 -0.053613752 -0.10299302 0.081899814
0.09939753 0.09489561 0.08857957 -0.06301176 0.17340556 0.0774742 -0.14042681 0.019006614
-0.13058633 0.13157868 0.040657517 0.15185389 -0.047307365 -0.10695429 0.14987606 0.22891489
0.11708163 0.038923547 -0.035020676 -0.14539713 -0.19415703 0.07779014 0.13509652 0.146777
0.042631336 0.2616968 -0.013745516 0.061207373 -0.18492715 -0.046628125 0.1765178 0.1864811
-0.07037925 -0.04004682 0.07275631 -0.04742761 0.033289857 0.07288364 0.0076466054 0.04512816
0.053113606 0.10218897 -0.12060799 -0.16994238 0.088170014 0.06463581 0.05270239 0.15338895
0.28090128 0.2740382 0.022241702 0.020815453 -0.06934741 0.14079523 0.016965311 0.24085405
0.040056214 -0.07530628 -0.00648553 0.03787047 0.0278276 -0.08702188 0.030443966 0.072694086
-0.015704677 -0.28882545 0.017293394 -0.22097711 -0.078898065 -0.027921949 0.28965673 0.14080186
-0.12399304 -0.21450329 -0.009625983 0.10264174 -0.08387685 -0.13796887 -0.08347692 -0.096698664
0.014865379 -0.06293032 -0.11750697 0.109181784 -0.2686136 0.02431709 -0.056362137 0.27599937
00000000: baa1 083c 13d0 d43d 1f56 0f3d 806d 95bc
00000010: 4af9 493e 1933 1ebd dbc6 003d beb3 e7bd
00000020: a642 c6bd 2658 4dbd 9454 b7bd 80bd 47be
00000030: 07b7 a8bd 7887 9ebc 0468 38be e610 b23d
00000040: ee3e 25bd adea 7e3c a9d1 883d 525f 7fbe
00000050: d19a 8b3e 7539 80bd 6ba8 84bd d580 3dbd
00000060: 0fc2 d6bd 36c0 d0bc 40f5 0d3e 4ee0 33be
00000070: c349 273c 365c 68be 59a7 67be f4b1 93bd
00000080: 99a5 c6bb 8eda 40bc 2b53 5a3e 60e8 953c
00000090: 46d3 ff3d 1301 77bd 5aa5 f23d 63b2 4e3d
000000a0: e583 e13c 2057 4cbe 66f0 a53d eb59 773e
000000b0: 6083 413d c835 0c3e c9e6 cfbd 1e6b d4bb
000000c0: 640e a0be ebf4 99bd 5a11 81bd 6692 bcbb
000000d0: f6aa 123e 55e7 4d3d 1c91 24be 0afa 98bd
000000e0: 9ae7 723e 872e 323e 32b1 453d aadd 333e
000000f0: 22c5 a3bd da69 c0bd 3835 f7bd f030 043e
00000100: 9e7e 45be 5a4d e1bd 5dbb 043d 2df2 673e
00000110: 2c7b 2e3e 1678 3cbe 13aa b1bd cc80 11bb
00000120: bcdd ab3d c726 933d 0e46 923d 8cba 82bb
00000130: 6b9f 9abe 60f4 393e 81b0 263e d35a b2bb
00000140: 28ee 7a3b 6512 5dbe bb8e 77bd 8ff9 3e3d
00000150: 37ad 27be 9865 703d 9065 d13d bae2 403d
00000160: d24c 38be 9ca3 2fbe eb2f 0fbb 949d 4c3d
00000170: 6c82 ad3c 22b7 ee3c 0bfd 163c 756f 89bc
00000180: 0d35 8fbd 8646 4b3e 6e34 6c3c 0aad 1d3d
00000190: 707e 863d 12bd cebc c8b1 993d 0b4c cfbd
000001a0: 8c87 393e b6c1 32bb 4615 4dbd 6b47 c83d
000001b0: 6a64 47be 1a8a f3bd a684 febd aa40 433c
000001c0: a21d 843d 4496 32bc 34d3 013d 66f8 4e3e
000001d0: 5958 593d cf8f cbbc c05d ce3d dac5 87be
000001e0: 1160 f7bd 14f2 19bd 8a4d 383e fa9b 35be
000001f0: 0bfe 6e3c 9655 783d bf12 57bc e2d8 123b
00000200: 3faa bdbd 6a0d 75bc 4279 19bd 969e c83d
00000210: cca5 733b 106d a9bd 3cd8 4cbe c08c dfbd
00000220: c6b4 a83b 6206 0ebe 6f73 95bb 13a9 633e
00000230: a22f 2fbc baa0 373e 7e01 493d d667 b43c
00000240: 0c3f 4abe b656 903d 7207 1f3e 3d2c af3d
00000250: 6ea6 c13d de89 8b3e 1936 a7bd 0b96 c93d
00000260: 2f79 a9be e283 6bbe 860c 25be 86bd 6bbe
00000270: 4454 6d3d f6c3 f43d 4a26 35be 9f9b 313d
00000280: 8fc5 debd 1db9 04be 3722 79be 67b9 40be
00000290: 3e75 96be 189a 5bbd 01ee d2bd 17bb a73d
000002a0: ef90 cb3d a158 c23d 3569 b53d 4f0c 81bd
000002b0: 3a91 313e cbaa 9e3d 0ccc 0fbe c2b3 9b3c
000002c0: 6cb8 05be 90bc 063e 7f88 263d 967f 1b3e
000002d0: 5ec5 41bd da0a dbbd 1c79 193e aa68 6a3e
000002e0: 7ec8 ef3d 4c6e 1f3d d771 0fbd fce2 14be
000002f0: 1ad1 46be 7050 9f3d be56 0a3e b64c 163e
00000300: 329e 2e3d 1ffd 853e df34 61bc 95b4 7a3d
00000310: 8b5d 3dbe 22fd 3ebd 15c1 343e e7f4 3e3e
00000320: ff22 90bd 2208 24bd 4301 953d 7443 42bd
00000330: f25a 083d 0544 953d 6090 fa3b 4ed8 383d
00000340: a78d 593d 7348 d13d 5201 f7bd 6005 2ebe
00000350: 7b92 b43d c85f 843d 76de 573d fe11 1d3e
00000360: 4bd2 8f3e bc4e 8c3e 3b34 b63c 2b85 aa3c
00000370: 0406 8ebd a02c 103e d6fa 8a3c 72a2 763e
00000380: fc11 243d 2e3a 9abd 9284 d4bb 111e 1b3d
00000390: b5f6 e33c 8738 b2bd a065 f93c a3e0 943d
000003a0: 18a7 80bc eee0 93be e0aa 8d3c d347 62be
000003b0: 4f95 a1bd 92bc e4bc e34d 943e 5d2e 103e
000003c0: 10f0 fdbd c0a6 5bbe 4db6 1dbc d535 d23d
000003d0: a0c7 abbd b647 0dbe f3f5 aabd f309 c6bd
000003e0: eb8d 733c 9de1 80bd 7fa7 f0bd b39a df3d
000003f0: b987 89be a234 c73c fcdb 66bd ca4f 8d3e

layer1_1vm.0.bias f4 [64]
0.006430453 0.0012611932 0.0047642183 0.0008919306 0.004425583 0.0015867007 -0.0013682587 0.0004327753
0.002391932 -0.0008431789 0.0046546217 -2.9263716e-05 0.0005474394 0.002151307 0.003203454 0.003655902
-0.002397591 -0.003066633 -0.0056588817 0.006468389 0.00048794615 0.002982102 0.0024806594 0.0010978382
0.00021282728 0.0032952102 0.0027005437 0.000107363696 0.0026062352 -0.004290525 0.0011944671 0.0011583775
0.0011851359 0.002831778 0.0016155484 -0.00023014465 -0.0018451228 0.0043212688 -0.006541758 -0.00041995535
0.0058436855 -0.0023581793 -0.00030064586 -0.0015058323 -0.0030953325 0.003150295 -0.004070981 0.00096125173
-0.005053658 -0.0005216076 -0.0011791657 0.0007643108 -0.0047363057 0.0012467252 -0.00029894165 -0.00062345294
0.002050687 0.004915012 -0.0009052109 -0.005775084 -0.0047017154 -0.00047215231 -0.0053445217 -0.0030449547
00000000: 8db6 d23b 9f4e a53a 291d 9c3b 73d0 693a
00000010: 7b04 913b d7f8 cf3a 2557 b3ba 1ee6 e239
00000020: f6c1 1c3b c708 5dba cc85 983b 5a7b f5b7
00000030: 0982 0f3a f1fc 0c3b 0af1 513b dc97 6f3b
00000040: e720 1dbb 90f9 48bb 246e b9bb c8f4 d33b
00000050: 06d3 ff39 5f6f 433b 8f92 223b 56e5 8f3a
00000060: 632a 5f39 74f4 573b 9bfb 303b 7228 e138
00000070: 5fcd 2a3b 8897 8cbb aa8f 9c3a b3d4 973a
00000080: 9056 9b3a 5a95 393b cfc0 d33a fc52 71b9
00000090: 0cd8 f1ba 6e99 8d3b 3e5c d6bb 742d dcb9
000000a0: 637c bf3b af8b 1abb 01a0 9db9 595f c5ba
000000b0: 10db 4abb 2e75 4e3b dd65 85bb 83fc 7b3a
000000c0: 2899 a5bb 7ebc 08ba 3c8e 9aba 085c 483a
000000d0: 0333 9bbb 2869 a33a 45bb 9cb9 386f 23ba
000000e0: d264 063b 1c0e a13b ad4b 6dba ea3c bdbb
000000f0: d910 9abb 368b f7b9 1921 afbb dd8d 47bb

layer1_1vm.2.weight f4 [64]
0.99305207 0.9875279 0.9937935 1.0004061 0.99952585 0.99836236 0.9972149 0.98674273
1.0026958 1.0027972 0.99550295 1.0146434 1.0064191 0.99118084 1.0020692 0.9967776
1.0034518 0.99432313 0.9905439 1.0039413 1.0107235 1.0018641 1.0074344 1.0080682
0.99083406 1.0073496 0.98889 1.003841 1.0094353 1.0024925 0.9987346 0.9989842
0.98755765 1.0086359 1.0011901 0.9983907 1.0059204 1.0097045 1.0022748 0.9990042
1.0131356 0.99206895 0.9890702 1.0049816 1.000166 0.9845703 0.9948134 1.0065235
0.99242675 0.9974529 0.9937816 0.9884648 1.0093015 0.9908864 1.0060782 0.9983291
1.0082915 0.99404955 0.9930517 1.01054 1.0035399 0.9973888 1.0088619 1.001192
00000000: a938 7e3f a1ce 7c3f 4069 7e3f 4f0d 803f
00000010: ede0 7f3f ad94 7f3f 7a49 7f3f 2c9b 7c3f
00000020: 5658 803f a95b 803f 48d9 7e3f d6df 813f
00000030: 57d2 803f 07be 7d3f ce43 803f d12c 7f3f
00000040: 1c71 803f f68b 7e3f 4994 7d3f 2681 803f
00000050: 635f 813f 153d 803f 9cf3 803f 6108 813f
00000060: 4da7 7d3f d5f0 803f e527 7d3f dd7d 803f
00000070: 2d35 813f ad51 803f 12ad 7f3f 6ebd 7f3f
00000080: 94d0 7c3f fb1a 813f ff26 803f 8896 7f3f
00000090: 00c2 803f ff3d 813f 8a4a 803f bdbe 7f3f
000000a0: 6dae 813f 3bf8 7d3f b433 7d3f 3da3 803f
000000b0: 7105 803f cd0c 7c3f 17ac 7e3f c3d5 803f
000000c0: ae0f 7e3f 1359 7f3f 7968 7e3f 070c 7d3f
000000d0: cb30 813f bbaa 7d3f 2cc7 803f 7f92 7f3f
000000e0: b20f 813f 087a 7e3f a338 7e3f 6059 813f
000000f0: ff73 803f df54 7f3f 6322 813f 0f27 803f

layer1_1vm.2.bias f4 [64]
-0.008112773 -0.011252022 -0.0071841646 0.00064556673 -0.0013778792 -0.00069932174 -0.0029971146 -0.013162566
0.0029188048 0.0019326393 -0.0012368568 0.013213849 0.006151948 -0.0090082055 0.003058753 -0.002742285
0.0029061767 -0.0042325878 -0.008732222 0.004940064 0.011201193 0.0021771756 0.007817181 0.007719365
-0.007835827 0.0074808407 -0.012138831 0.0040818625 0.008393865 0.0016480826 -0.0025480448 -0.001121188
-0.013158499 0.0068527926 0.0017788042 -0.0015041374 0.0057016276 0.012108342 0.004374702 -0.0015264413
0.0129811205 -0.008285206 -0.01014861 0.0036559445 0.00026227394 -0.013960923 -0.005265146 0.006148647
-0.0073988903 -0.00083605247 -0.007216254 -0.010925492 0.010116702 -0.008724688 0.0056089927 -0.0011498869
0.00600998 -0.00052058627 -0.0056110527 0.009549387 0.0026692678 -0.0024023699 0.008457879 -0.00027961202
00000000: 70eb 04bc 675a 38bc 2469 ebbb 403b 293a
00000010: f499 b4ba b052 37ba 3d6b 44bb cea7 57bc
00000020: 6b49 3f3b 9d50 fd3a 071e a2ba e67e 583c
00000030: 4896 c93b 2797 13bc 5c75 483b e8b7 33bb
00000040: 8e75 3e3b 85b1 8abb 9811 0fbc 43e0 a13b
00000050: 3585 373c f2ae 0e3b a213 003c baf2 fc3b
00000060: d761 00bc d721 f53b f3e1 46bc 25c1 853b
00000070: 6c86 093c 7a04 d83a 19fd 26bb d4f4 92ba
00000080: bf96 57bc 648d e03b c426 e93a 7a26 c5ba
00000090: b8d4 ba3b 1162 463c a959 8f3b df12 c8ba
000000a0: c4ae 543c acbe 07bc 5b46 26bc 9298 6f3b
000000b0: d081 8939 5bbc 64bc 3f87 acbb 977a c93b
000000c0: 6472 f2bb 882a 5bba 5376 ecbb d600 33bc
000000d0: 86c0 253c fef1 0ebc a4cb b73b cdb7 96ba
000000e0: 5eef c43b f477 08ba ecdc b7bb 0875 1c3c
000000f0: e2ee 2e3b 1471 1dbb ea92 0a3c e498 92b9

layer1_1vm.2.running_mean f4 [64]
7227.081 -1274.1672 1991.4048 -12888.609 1071.5941 7655.1797 2386.7935 9963.255
-9861.838 -4914.8564 1375.0197 9573.284 -3011.9065 7597.8184 12186.537 10166.84
7834.2383 11145.134 12470.078 4460.751 -4783.4 4779.133 1157.847 -2591.8135
-6115.248 4372.055 12085.532 -10509.201 7797.7944 8344.801 22417.996 -8212.87
9456.049 2071.4148 4366.501 -843.10535 7932.058 407.68576 -1920.1576 -8408.669
3384.4304 -12190.533 15950.678 10924.323 3298.1155 2543.352 -597.014 -8366.859
788.5522 1100.6793 -18100.0 -4193.231 -831.6419 7151.9946 6155.27 -6913.9224
419.13055 3371.2014 -7665.042 -3804.2844 11749.666 9827.56 -788.061 -8207.922
00000000: a6d8 e145 5a45 9fc4 f4ec f844 7062 49c6
00000010: 03f3 8544 7039 ef45 b22c 1545 05ad 1b46
00000020: 5a17 1ac6 da96 99c5 a1e0 ab44 2395 1546
00000030: 813e 3cc5 8c6e ed45 266a 3e46 5cdb 1e46
00000040: e8d1 f445 8924 2e46 50d8 4246 0266 8b45
00000050: 337b 95c5 1059 9545 1bbb 9044 04fd 21c5
00000060: fc19 bfc5 71a0 8845 21d6 3c46 ce34 24c6
00000070: 5bae f345 3463 0246 fe23 af46 7b53 00c6
00000080: 32c0 1346 a376 0145 0274 8845 bec6 52c4
00000090: 77e0 f745 c7d7 cb43 0b05 f0c4 ad62 03c6
000000a0: e386 5345 227a 3ec6 b63a 7946 4bb1 2a46
000000b0: d921 4e45 a2f5 1e45 e540 15c4 70bb 02c6
000000c0: 5723 4544 bd95 8944 0068 8dc6 d909 83c5
000000d0: 15e9 4fc4 f57f df45 295a c045 610f d8c5
000000e0: b690 d143 39b3 5245 5688 efc5 8dc4 6dc5
000000f0: aa96 3746 3d8e 1946 e703 45c4 b03f 00c6

layer1_1vm.2.running_var f4 [64]
1.4106397e+07 602132.2 1.331186e+06 4.498259e+07 384421.0 1.4818931e+07 2.0869214e+06 2.8549172e+07
2.5218784e+07 6.9952895e+06 728081.25 2.6370714e+07 2.9093982e+06 1.7538342e+07 4.3372828e+07 3.2321744e+07
1.742727e+07 3.486037e+07 3.7592372e+07 5.113755e+06 5.9948645e+06 6.597194e+06 417093.34 1.802023e+06
1.0578014e+07 6.467034e+06 3.691459e+07 3.3063994e+07 1.6001524e+07 1.8582504e+07 1.4818843e+08 1.7515566e+07
2.487624e+07 1.3545682e+06 5.438037e+06 272278.53 1.6958514e+07 141255.67 1.0914276e+06 2.0935238e+07
3.343116e+06 4.3509684e+07 7.8155336e+07 3.3730256e+07 3.4302365e+06 1.6989545e+06 208290.58 1.7781902e+07
305492.9 371205.75 9.5064264e+07 5.456683e+06 281870.53 1.4307641e+07 9.831549e+06 1.4232604e+07
153301.34 2.6939108e+06 1.6144014e+07 4.600328e+06 4.615776e+07 2.7808398e+07 314485.06 2.2073406e+07
00000000: 1d3f 574b 4301 1349 907f a249 5098 2b4c
00000010: a0b4 bb48 731e 624b 4bc0 fe49 1ad0 d94b
00000020: 7067 c04b b37a d54a 14c1 3149 4d31 c94b
00000030: 5993 314a 93ce 854b 4774 254c 6898 f64b
00000040: a3f5 844b 54fb 044c 4d67 0f4c 360f 9c4a
00000050: e1f2 b64a 9454 c94a aba8 cb48 38f9 db49
00000060: 5e68 214b b45b c54a 68d1 0c4c 1d42 fc4b
00000070: f429 744b f4c5 8d4b d152 0d4d 17a2 854b
00000080: 68ca bd4b 425a a549 aaf4 a54a d1f2 8448
00000090: 1962 814b ebf1 0948 1d3b 8549 23b9 9f4b
000000a0: 300c 4c4a edf9 254c c911 954c b4ab 004c
000000b0: 725d 514a 5464 cf49 a568 4b48 47aa 874b
000000c0: 9d2a 9548 b840 b548 1952 b54c 5686 a64a
000000d0: d1a1 8948 3951 5a4b 7d04 164b 1c2c 594b
000000e0: 56b5 1548 5b6c 244a 8e56 764b 1064 8c4a
000000f0: f013 304c 4729 d44b a28e 9948 1f68 a84b

layer1_2vm.0.weight f4 [32, 64]
0.12464557 -0.002605258 0.07463926 -0.07418138 0.2125225 0.0052407393 0.15574354 -0.013711004
0.059281163 -0.1323063 0.08036038 0.017717803 0.07069075 -0.12696919 0.24447852 -0.13344546
-0.04803253 0.00019533688 0.17269208 0.05503912 -0.2381893 -0.22906166 -0.08652176 -0.016961383
-0.017721085 -0.009292677 -0.027774384 0.03599218 0.018893102 -0.07132571 0.09307514 -0.28068075
-0.13495453 0.12393124 0.110501245 -0.056651395 -0.17841513 0.0849095 -0.15839842 -0.10411842
0.10836295 0.09915923 -0.004264542 0.18442154 -0.047293015 0.024940392 -0.26024976 -0.10553842
-0.10369279 0.12672466 -0.06635354 -0.1901246 0.15853985 -0.038077552 0.04703048 -0.14258394
-0.112256095 0.27324146 -0.07892267 -0.28103864 0.10771561 -0.031653553 -0.16577935 -0.10829595
0.09974118 0.11203976 0.17640088 -0.18426162 0.19164838 0.04664354 -0.33431676 -0.19062263
0.17847022 -0.1942812 0.20290555 -0.06129567 -0.16982445 -0.110164195 -0.19702066 -0.1440306
-0.083105184 -0.0095592 0.47948194 0.23105457 -0.24967475 -0.002741259 -0.12114726 0.018807301
0.028226841 0.013525432 0.070323855 -0.06507794 0.06341473 0.0294222 -0.055604555 0.16526422
0.0913455 -0.27236387 -0.2229349 -0.054263644 0.09741588 -0.2776615 -0.087667674 -0.13314168
-0.19107315 0.009988723 0.012755196 -0.18748245 0.01919038 -0.072586276 -0.113995105 0.09913606
-0.20604919 -0.16275267 -0.04619487 0.06943808 -0.19108348 -0.082506895 0.039408967 0.11503809
-0.03489903 -0.22736882 0.08651865 0.112843215 -0.07531709 -0.008754564 0.17209578 -0.046858817
-0.24295649 0.095602065 0.032252975 0.06423505 0.11348673 0.26857072 -0.17985804 -0.23550554
0.22306177 -0.1948742 0.18313822 -0.1393575 -0.35721707 0.13520882 0.10589575 0.23612694
0.14231174 0.08581617 -0.11066569 -0.18593575 -0.18589179 0.11605092 -0.16128378 0.099272706
-0.25862187 0.17793328 -0.29894915 0.02441217 0.061200198 -0.10876603 -0.15882467 -0.12058619
-0.083595484 0.04042247 0.13673565 -0.08902063 0.21299417 -0.090765655 0.04812272 0.029984504
0.02233053 -0.23377785 0.056961197 -0.02912501 0.027199239 0.063965484 0.10724209 -0.11213481
-0.10480357 -0.16370328 -0.12222025 0.09319196 -0.1398967 0.042656053 -0.04651592 -0.16737208
0.36624423 -0.03145487 0.19190545 0.0765996 0.1095072 0.12566578 -0.1553568 -0.0758301
0.010716072 -0.1430404 0.010862766 -0.02822835 -0.068957254 0.06729911 0.007092481 -0.14529446
-0.013947975 0.15141596 -0.060320795 -0.20856352 0.12296326 -0.066424 -0.27127767 -0.119570695
-0.0058040824 0.057180054 -0.010110418 -0.09071365 0.21754634 0.072311975 0.012149099 0.0679189
-0.040909108 -0.26176208 0.044620305 -0.06902441 -0.06745358 -0.05414122 0.15086553 -0.20099832
-0.011029592 -0.04491727 -0.06310466 0.17240214 0.043541834 -0.0058873864 -0.08469874 -0.014900161
-0.006665902 0.13083974 0.000824064 -0.050991643 0.13634506 0.1969084 0.28500605 0.029720401
0.051715817 -0.22332843 0.056915686 -0.05190577 -0.18985172 0.079706036 0.15548797 0.06760984
0.16299915 0.008979546 -0.016634684 -0.29922923 -0.022332804 -0.28691426 -0.11007922 0.061706625
00000000: 2d46 ff3d fabc 2abb 78dc 983d 68ec 97bd
00000010: 809f 593e 82ba ab3b 3c7b 1f3e 1ea4 60bc
00000020: ced0 723d 4d7b 07be fc93 a43d ed24 913c
00000030: 50c6 903d 3604 02be 9458 7a3e eda5 08be
00000040: c2bd 44bd 58d3 4c39 31d6 303e b370 613d
00000050: e5e7 73be 248f 6abe 5232 b1bd 99f2 8abc
00000060: cf2b 91bc 5040 18bc 1b87 e3bc 896c 133d
00000070: b5c5 9a3c 3713 92bd 2e9e be3d 63b5 8fbe
00000080: 8531 0abe a9cf fd3d 7a4e e23d 4b0b 68bd
00000090: 75b2 36be 08e5 ad3d 3233 22be 0a3c d5bd
000000a0: 65ed dd3d ff13 cb3d 92bd 8bbb 00d9 3c3e
000000b0: 52b6 41bd cb4f cc3c 753f 85be 8724 d8bd
000000c0: e35c d4bd 1cc4 013e 5de4 87bd 06b0 42be
000000d0: 4558 223e 35f7 1bbd 08a3 403d 8601 12be
000000e0: 86e6 e5bd 4ee6 8b3e 35a2 a1bd 4ce4 8fbe
000000f0: 009a dc3d 28a7 01bd 10c2 29be 44ca ddbd
00000100: 1b45 cc3d 1a75 e53d 6fa2 343e 14af 3cbe
00000110: 793f 443e 4c0d 3f3d 912b abbe 9432 43be
00000120: e6c0 363e a7f1 46be 79c6 4f3e 2b11 7bbd
00000130: 76e6 2dbe c49d e1bd c9bf 49be c27c 13be
00000140: 0d33 aabd 319e 1cbc a87e f53e 9299 6c3e
00000150: bdaa 7fbe b2a6 33bb 0e1c f8bd c511 9a3c
00000160: fa3b e73c c699 5d3c f405 903d 9547 85bd
00000170: 95df 813d d306 f13c 9ac1 63bd 063b 293e
00000180: 5913 bb3d 4773 8bbe 0c49 64be 8e43 5ebd
00000190: fa81 c73d a629 8ebe 1c8b b3bd 4b56 08be
000001a0: aea8 43be bea7 233c 2bfb 503c 66fb 3fbe
000001b0: 2535 9d3c 1da8 94bd 4476 e9bd d907 cb3d
000001c0: 8ffe 52be a3a8 26be d536 3dbd 8d35 8e3d
000001d0: 63ab 43be 60f9 a8bd 4c6b 213d 1799 eb3d
000001e0: 49f2 0ebd 5fd3 68be b130 b13d 581a e73d
000001f0: d93f 9abd 4e6f 0fbc e039 303e 08ef 3fbd
00000200: 96c9 78be 04cb c33d b21b 043d aa8d 833d
00000210: bb6b e83d 1a82 893e b52c 38be 5d28 71be
00000220: 4e6a 643e 1a8d 47be 9688 3b3e bcb3 0ebe
00000230: 28e5 b6be 2e74 0a3e dfdf d83d 43cb 713e
00000240: 2bba 113e 63c0 af3d b1a4 e2bd f165 3ebe
00000250: 6b5a 3ebe 1bac ed3d 9327 25be 7d4f cb3d
00000260: 166a 84be 2434 363e dd0f 99be 08fc c73c
00000270: 0fad 7a3d b9c0 debd efa2 22be e4f5 f6bd
00000280: 1c34 abbd 0892 253d 6e04 0c3e 7350 b6bd
00000290: 251b 5a3e 58e3 b9bd 541c 453d 10a2 f53c
000002a0: 84ee b63c 7663 6fbe 2550 693d 9397 eebc
000002b0: f0d0 de3c 5600 833d bea1 db3d efa6 e5bd
000002c0: 41a3 d6bd d5a1 27be 9c4e fabd 6ddb be3d
000002d0: 1541 0fbe 1db8 2e3d 7a87 3ebd 9663 2bbe
000002e0: 5d84 bb3e d2d6 00bd dd82 443e 40e0 9c3d
000002f0: 5045 e03d 88ae 003e da15 1fbe d04c 9bbd
00000300: 7792 2f3c 2f79 12be bef9 313c 243f e7bc
00000310: 7639 8dbd 1ed4 893d 0b68 e83b 12c8 14be
00000320: 0c86 64bc c90c 1b3e f012 77bd ad91 55be
00000330: 29d4 fb3d 4e09 88bd e8e4 8abe 7be1 f4bd
00000340: 2c30 bebb a235 6a3d 2ba6 25bc 14c8 b9bd
00000350: 78c4 5e3e 4d18 943d 040d 473c 1019 8b3d
00000360: 4f90 27bd ae05 86be c8c3 363d ab5c 8dbd
00000370: 1a25 8abd 2fc3 5dbd 7e7c 1a3e 81d2 4dbe
00000380: 76b5 34bc 2cfb 37bd 043d 81bd 308a 303e
00000390: ec58 323d faea c0bb 8876 adbd ce1f 74bc
000003a0: a46d dabb dafa 053e 0006 583a 9ddc 50bd
000003b0: 0a9e 0b3e 5ba2 493e 50ec 913e 3378 f33c
000003c0: f7d3 533d 35b0 64be 6c20 693d 259b 54bd
000003d0: 7d68 42be eb3c a33d 3d38 1f3e 0777 8a3d
000003e0: 40e9 263e f21e 133c 7645 88bc 9334 99be
000003f0: 49f3 b6bc 6de6 92be 3771 e1bd 16c0 7c3d

layer1_2vm.0.bias f4 [32]
9.744917e-05 -0.009695678 0.0020743804 -0.007382648 -0.0024421162 -0.0049598897 0.007422049 0.0035517022
-0.014012055 0.00049114483 0.0050433045 -0.0040869634 0.009203902 -0.0035366896 -0.008392129 0.008057337
0.0026137154 0.005262117 -0.0049012154 -0.019153409 0.009109385 0.0014619471 -0.0046852184 0.0012634974
0.010036352 0.0014434359 0.0021968738 -0.00697109 -0.016152643 0.016584571 0.012453895 -0.0014863934
00000000: a05d cc38 9fda 1ebc 54f2 073b 24ea f1bb
00000010: e90b 20bb 9286 a2bb a934 f33b adc3 683b
00000020: d192 65bc 2cc0 003a 4e42 a53b efeb 85bb
00000030: f7cb 163c cec7 67bb 247f 09bc ec02 043c
00000040: de4a 2b3b d66d ac3b 609a a0bb 9ce7 9cbc
00000050: 883f 153c ce9e bf3a 7686 99bb f09b a53a
00000060: 836f 243c ac31 bd3a 6df9 0f3b be6d e4bb
00000070: 8c52 84bc 5edc 873c 6c0b 4c3c 16d3 c2ba

layer1_2vm.2.weight f4 [32]
0.9951684 1.0083121 1.0126728 1.012774 1.0057399 0.99010295 1.0043051 1.0106356
1.0066975 0.9877721 0.998926 1.0147383 0.997502 0.9844768 0.9969093 0.9912243
0.9887528 0.99188304 0.98664653 0.9798308 1.0022173 1.0038526 0.9916689 1.000455
1.0101159 0.9914213 0.98543215 0.9974495 0.98667365 1.0103598 1.0003368 0.9858511
00000000: 5bc3 7e3f 5f10 813f 439f 813f 94a2 813f
00000010: 16bc 803f 6377 7d3f 128d 803f 825c 813f
00000020: 77db 803f a2de 7c3f 9db9 7f3f f2e2 813f
00000030: 4b5c 7f3f ac06 7c3f 7335 7f3f e0c0 7d3f
00000040: e71e 7d3f 0cec 7d3f de94 7c3f 31d6 7a3f
00000050: a848 803f 3e7e 803f 03de 7d3f e90e 803f
00000060: 7a4b 813f c9cd 7d3f 4845 7c3f da58 7f3f
00000070: a596 7c3f 7853 813f 090b 803f bd60 7c3f

layer1_2vm.2.bias f4 [32]
-0.00824898 0.019754447 0.008431371 0.029060803 0.0031995233 -0.0063675083 0.004289191 -0.0019409256
-0.0006581724 -0.022583364 -0.005831929 0.006948091 -0.013561109 -0.01464217 0.017913917 0.0025892172
-0.020053366 -0.008486078 -0.0075451843 -0.017420439 -0.00051351136 0.0075506074 0.01760447 -0.008978001
0.007700965 -0.0076569845 -0.008944954 -0.0026457817 -0.019989615 0.024168061 0.003998911 -0.019806668
00000000: bb26 07bc 14d4 a13c bc23 0a3c ec10 ee3c
00000010: 18af 513b 88a6 d0bb 588c 8c3b a866 feba
00000020: 3489 2cba bf00 b9bc c419 bfbb d0ac e33b
00000030: 6a2f 5ebc b6e5 6fbc 35c0 923c dbaf 293b
00000040: f546 a4bc 3109 0bbc 983d f7bb 4fb5 8ebc
00000050: 2a9d 06ba 166b f73b 4037 903c 7718 13bc
00000060: 6058 fc3b 71e7 fabb db8d 12bc da64 2dbb
00000070: 43c1 a3bc 19fc c53c 4c09 833b 9841 a2bc

layer1_2vm.2.running_mean f4 [32]
-0.35832378 -0.62343335 -0.17429906 -0.20893827 -0.4538744 0.19279124 -0.4342036 0.11376696
0.42228326 -0.37832075 0.3751827 0.6321597 -0.1468787 -0.013189987 -0.32983178 -0.37808695
-0.42059687 -0.1675777 0.5078463 0.09835945 -0.83671147 0.37386692 -0.4330199 -0.14566463
-0.08328777 0.51228166 -0.017814973 0.5222269 0.08179806 0.5314065 0.40714985 -0.21941817
00000000: 3776 b7be 5499 1fbf 747b 32be eaf3 55be
00000010: 3a62 e8be 116b 453e ef4f debe a7fe e83d
00000020: 8335 d83e 42b3 c1be f217 c03e 38d5 213f
00000030: 5f67 16be d11a 58bc b6df a8be 9d94 c1be
00000040: 7958 d7be 7d99 2bbe 3702 023f ae70 c93d
00000050: b932 56bf 7c6b bf3e c9b4 ddbe 1c29 15be
00000060: c792 aabd e424 033f b5f0 91bc aab0 053f
00000070: be85 a73d 420a 083f f275 d03e 28af 60be

layer1_2vm.2.running_var f4 [32]
0.56169283 0.5883662 0.6593694 0.50085956 0.5850665 0.5907545 0.6028892 0.55878764
0.41115755 0.5980766 0.5815164 0.65259475 0.5333856 0.6612825 0.5522515 0.71745074
0.437676 0.4423137 0.7907308 0.49393776 0.9558856 0.5453079 0.5853583 0.5654849
0.5342034 0.45231232 0.44518483 0.5183431 0.4835436 0.69305706 0.5128481 0.5400744
00000000: 1acb 0f3f 2b9f 163f 6fcc 283f 5538 003f
00000010: ebc6 153f b03b 173f f256 1a3f b50c 0f3f
00000020: 3e83 d23e 8c1b 193f 42de 143f 7310 273f
00000030: f58b 083f cf49 293f 5b60 0d3f daaa 373f
00000040: 1217 e03e f176 e23e 556d 4a3f 69e5 fc3e
00000050: ebb4 743f 4c99 0b3f 0bda 153f 9ec3 103f
00000060: 8ec1 083f 7b95 e73e 44ef e33e 22b2 043f
00000070: 0793 f73e 306c 313f 034a 033f 5142 0a3f

layer2.0.weight f4 [32, 64]
0.002131059 -0.008038389 -0.040556442 0.24476376 0.08286012 0.0997635 0.26277757 0.07281336
0.11804966 -0.10614883 0.22317487 0.04858304 -0.067043245 0.0142214205 -0.009631015 -0.013604901
0.27144724 -0.17560476 -0.122106664 -0.10484561 0.0721801 0.05692313 -0.04436833 -0.066960335
0.16772483 0.020718986 -0.1856675 0.22045302 -0.1744838 0.07307035 0.08061001 0.12198059
-0.13709311 0.25973344 0.062605195 0.15172438 0.22698744 0.13248652 0.0022853133 0.029804967
-0.06555072 -0.110539615 -0.08592434 0.12932424 -0.09874315 -0.03560064 0.38747102 -0.08667284
-0.094778486 -0.12639199 0.034183923 -0.19235115 -0.022524366 0.13363653 0.37194663 -0.17421024
-0.107650004 -0.15534297 -0.21253735 0.047664363 -0.13769083 0.05467856 0.18064575 -0.2902629
0.13820149 0.0008434747 -0.018630538 0.0026324166 0.23112325 -0.03962058 -0.11236145 0.0028616893
-0.25795764 -0.011014096 0.21405767 -0.061807707 -0.028006578 0.024681102 0.19705757 0.046324547
0.12513176 0.06833229 -0.054189146 0.052344043 -0.31612194 0.13726793 -0.03922652 0.15817606
-0.01658808 0.11493146 0.015168767 -0.039630927 0.074625514 -0.21282446 0.22411543 -0.18014908
-0.08528661 -0.094687626 -0.015801683 -0.16065581 -0.03158048 0.05495806 -0.039916746 0.08721381
0.065249726 0.43645808 -0.13040152 -0.25513548 0.11706818 0.1016158 0.10545391 -0.3712548
-0.093703374 -0.028594889 0.15169613 0.12560533 -0.004883395 -0.050965887 -0.12461435 -0.13500823
-0.11471318 -0.11484435 -0.13784307 -0.009979478 -0.00505094 0.018012716 0.02164337 0.23327962
-0.12894659 -0.023865042 -0.13220659 0.07011788 0.14297707 0.011596102 -0.051790185 0.16917172
0.049251683 0.14636187 0.15418915 -0.15972859 0.12016248 0.04067085 0.03252272 -0.057858504
0.004044669 0.062737346 -0.12507676 0.18628962 0.20311806 0.053399917 -0.04281144 0.008239283
-0.008578602 -0.27674764 -0.01581605 0.004187888 -0.0199543 0.21727468 0.0238302 -0.1055818
0.22937346 0.027829446 0.35476083 0.06340792 0.081992626 -0.12871954 -0.089509524 -0.00832544
-0.09171144 0.014474988 -0.15627922 -0.08017108 0.20906168 0.20923848 -0.071748 0.007953093
-0.048317146 0.16996814 -0.23632127 -0.08371342 -0.0018420289 0.088716604 -0.06947899 0.082700916
-0.16033384 -0.11416848 0.06470217 0.14060956 -0.11165584 0.16222277 0.08465263 0.19097543
-0.011790745 -0.07759266 0.09859311 -0.1655189 0.17905918 0.18710715 -0.23366928 -0.20129545
-0.090497784 0.2074835 -0.0759611 -0.02438907 -0.04294612 -0.08103499 0.1012138 -0.04929736
0.2199129 0.17528668 0.25659123 0.20699108 -0.09425398 0.3343867 0.005728187 0.19687977
-0.14096646 0.098367475 0.06463567 -0.04309706 -0.24574918 0.15414105 0.119782746 0.032192886
0.016063835 0.24904382 -0.2384931 0.19327192 -0.33666244 -0.08498425 -0.058949295 0.0843034
0.025885072 -0.0072552585 0.035281453 0.22976393 0.014568373 0.26520282 0.12651739 -0.10677521
-0.10776027 -0.06078776 0.14425376 -0.04845454 -0.073748395 -0.01572437 0.09636473 -0.050899733
0.08273857 -0.06901464 0.0015082697 0.15689369 0.28851306 0.078774326 0.30409008 0.015323055
00000000: 3da9 0b3b 72b3 03bc 831e 26bd 5aa3 7a3e
00000010: 91b2 a93d ce50 cc3d c88a 863e 2c1f 953d
00000020: 05c4 f13d 8f64 d9bd f487 643e 02ff 463d
00000030: f84d 89bd f600 693c 68cb 1dbc 17e7 5ebc
00000040: 22fb 8a3e bcd1 33be 0f13 fabd 4cb9 d6bd
00000050: 29d3 933d 3a28 693d 91bb 35bd 8022 89bd
00000060: 0fc0 2b3e ddba a93c 9f1f 3ebe 70be 613e
00000070: e2ab 32be e8a5 953d dc16 a53d f6d0 f93d
00000080: 2362 0cbe c8fb 843e 2737 803d a35d 1b3e
00000090: 656f 683e 8caa 073e 32c5 153b 8c29 f43c
000000a0: 753f 86bd 9862 e2bd 1af9 afbd 936d 043e
000000b0: d939 cabd fad1 11bd 9a62 c63e 8881 b1bd
000000c0: 391b c2bd e76c 01be 7104 0c3d b3f7 44be
000000d0: 0585 b8bc 04d8 083e ca6f be3e 2b64 32be
000000e0: 9b77 dcbd 3a12 1fbe 64a3 59be b53b 433d
000000f0: d3fe 0cbe a0f6 5f3d 33fb 383e 579d 94be
00000100: b184 0d3e a11c 5d3a 129f 98bc 9f84 2c3b
00000110: 93ab 6c3e 3049 22bd c31d e6bd 2e8b 3b3b
00000120: 0613 84be 7874 34bc ef31 5b3e 142a 7dbd
00000130: 0d6e e5bc 0630 ca3c 76c9 493e cfbe 3d3d
00000140: 8a22 003e cdf1 8b3d 70f5 5dbd b566 563d
00000150: bcda a1be f78f 0c3e fdab 20bd e8f8 213e
00000160: bae3 87bc 2f61 eb3d 6c86 783c 0a54 22bd
00000170: 43d5 983d a8ee 59be 847e 653e 0079 38be
00000180: bfaa aebd 96eb c1bd 8872 81bc f582 24be
00000190: 895a 01bd b41b 613d be7f 23bd 279d b23d
000001a0: a6a1 853d 6f77 df3e fa87 05be 1ea1 82be
000001b0: 71c1 ef3d f21b d03d 38f8 d73d 1c15 bebe
000001c0: 8ee7 bfbd d43f eabc 3b56 1b3e af9e 003e
000001d0: e304 a0bb 9bc1 50bd cf35 ffbd 993f 0abe
000001e0: beee eabd 8433 ebbd bc26 0dbe f780 23bc
000001f0: 5b82 a5bb 678f 933c 704d b13c dae0 6e3e
00000200: 930a 04be 9f80 c3bc 2a61 07be f799 8f3d
00000210: 9568 123e 94fd 3d3c f221 54bd 5a3b 2d3e
00000220: 22bc 493d e3df 153e c3e3 1d3e e48f 23be
00000230: bf17 f63d 7a96 263d 8b36 053d 0afd 6cbd
00000240: 2589 843b 707c 803d 1f14 00be b5c2 3e3e
00000250: 2efe 4f3e dfb9 5a3d 0c5b 2fbd 0ffe 063c
00000260: 448d 0cbc deb1 8dbe a990 81bc 8d3a 893b
00000270: 3377 a3bc 417d 5e3e 8d37 c33c 453b d8bd
00000280: e0e0 6a3e 94fa e33c 36a3 b53e 03dc 813d
00000290: c0eb a73d 0ecf 03be c550 b7bd 6d67 08bc
000002a0: 35d3 bbbd 8028 6d3c a907 20be bc30 a4bd
000002b0: 4414 563e 9d42 563e 9ef0 92bd b14d 023c
000002c0: 33e8 45bd 210c 2e3e 34fe 71be f171 abbd
000002d0: 3c70 f1ba 0db1 b53d 004b 8ebd 195f a93d
000002e0: 8e2e 24be 2ad1 e9bd 9282 843d f4fb 0f3e
000002f0: d1ab e4bd ba1d 263e 5c5e ad3d 108f 433e
00000300: f82d 41bc e7e8 9ebd 2feb c93d c97d 29be
00000310: 4a5b 373e 0499 3f3e 0047 6fbe 6520 4ebe
00000320: e756 b9bd 8e76 543e 7e91 9bbd 96cb c7bc
00000330: 45e8 2fbd acf5 a5bd 2e49 cf3d 07ec 49bd
00000340: d930 613e 5a7e 333e ed5f 833e 78f5 533e
00000350: 3b08 c1bd bc34 ab3e 84b3 bb3b da9a 493e
00000360: 8359 10be e374 c93d b55f 843d 8b86 30bd
00000370: aca5 7bbe 27d7 1d3e a850 f53d b0dc 033d
00000380: 4e98 833c 5805 7f3e 8937 74be 13e9 453e
00000390: 055f acbe 390c aebd d174 71bd 43a7 ac3d
000003a0: ee0c d43c 85bd edbb 4983 103d 3c47 6b3e
000003b0: 2fb0 6e3c aac8 873e c68d 013e f6ac dabd
000003c0: 6bb1 dcbd 96fc 78bd 42b7 133e 4578 46bd
000003d0: 6609 97bd 65d0 80bc df5a c53d 3d7c 50bd
000003e0: d772 a93d 8c57 8dbd 22b1 c53a bda8 203e
000003f0: fcb7 933e 6f54 a13d b2b1 9b3e 8d0d 7b3c

layer2.0.bias f4 [32]
0.04974589 -0.029168172 0.020251375 0.028999664 -0.03003371 -0.022834448 -0.030601589 -0.0052719163
0.008408161 -0.0037099721 0.031977158 0.014555483 -0.003609802 -0.022822976 -0.011147371 -0.008183747
-0.002541718 -0.007481733 0.016774142 0.04565975 -1.6696053e-05 -0.0022827508 0.011361774 -0.04779336
0.0054355515 0.025064724 -0.0091153085 -0.0076805465 -0.039627235 -0.015620705 0.009801017 0.0043848297
00000000: 59c2 4b3d 17f2 eebc 36e6 a53c b490 ed3c
00000010: 4109 f6bc 4f0f bbbc 2fb0 fabc 0ac0 acbb
00000020: 62c2 093c 0123 73bb 7bfa 023d 1f7a 6e3c
00000030: 6e92 6cbb 40f7 babc 76a3 36bc 1f15 06bc
00000040: f492 26bb 5329 f5bb ed69 893c b805 3b3d
00000050: 800e 8cb7 349a 15bb bc26 3a3c f8c2 43bd
00000060: b61c b23b 8954 cd3c 6058 15bc 18ad fbbb
00000070: 2b50 22bd fced 7fbc 7294 203c 9eae 8f3b

layer2.2.weight f4 [32]
1.0510014 0.9525249 1.022072 1.0447233 1.0458906 0.98079866 0.9450465 0.9936233
1.0504998 0.94850904 1.0545539 0.9467643 0.94650966 1.0345176 0.9726144 1.0018753
0.945646 0.97968584 0.9668656 1.0451123 0.9686524 1.0210176 1.0141692 0.9490703
1.0107785 0.9464991 0.99895847 1.0000734 0.96141946 0.9796619 1.0331851 0.9672826
00000000: 3787 863f acd8 733f 41d3 823f 7eb9 853f
00000010: bedf 853f 9f15 7b3f 91ee 713f 195e 7e3f
00000020: c776 863f 7dd1 723f 9ffb 863f 255f 723f
00000030: 754e 723f 136b 843f 42fd 783f 733d 803f
00000040: db15 723f b1cc 7a3f 8184 773f 3dc6 853f
00000050: 9bf9 773f b4b0 823f 4cd0 813f 45f6 723f
00000060: 3161 813f c44d 723f bebb 7f3f 6802 803f
00000070: 961f 763f 1fcb 7a3f 693f 843f d59f 773f

layer2.2.bias f4 [32]
0.05119216 -0.04031842 0.022120252 0.045782864 0.048454445 -0.022906968 -0.056004338 -0.009039095
0.051537782 -0.05145327 0.052987706 -0.053369645 -0.05333106 0.038619615 -0.03206775 -0.0014351094
-0.052005533 -0.017973538 -0.034146834 0.04523348 -0.031623416 0.023594378 0.016000044 -0.050550796
0.011597592 -0.05368925 -0.0021905946 0.004500453 -0.036451742 -0.020752857 0.035737213 -0.032356158
00000000: dfae 513d ed24 25bd 8835 b53c d086 3b3d
00000010: 2b78 463d 65a7 bbbc ce64 65bd b618 14bc
00000020: 4819 533d aac0 52bd a309 593d 219a 5abd
00000030: ab71 5abd 9a2f 1e3d 7959 03bd 481a bcba
00000040: c103 55bd 3e3d 93bc 8ddd 0bbd be46 393d
00000050: 8e87 01bd ff48 c13c 8612 833c 5a0e 4fbd
00000060: d403 3e3c 42e9 5bbd 1490 0fbb 8978 933b
00000070: 6c4e 15bd e501 aabc 2f61 123d e487 04bd

layer2.2.running_mean f4 [32]
0.40191752 0.015285094 0.44432434 0.7359262 -0.3816103 0.24875712 0.030695233 0.13783
0.8134364 -0.011886245 0.7280394 -0.48264113 -0.004340946 -0.22207716 0.020792441 -0.14356603
0.83481485 0.5273865 -0.052713837 0.5606032 -0.5853325 -0.3021165 0.24842584 0.22133875
-0.51838267 -0.10071524 -0.0016783399 -0.3508101 0.02833076 0.09113506 -0.55780077 -0.5176232
00000000: 22c8 cd3e 556e 7a3c 7b7e e33e a965 3c3f
00000010: 6d62 c3be 30ba 7e3e 9274 fb3c 4f23 0d3e
00000020: 5e3d 503f 86be 42bc ca60 3a3f bd1c f7be
00000030: 7f3e 8ebb 3268 63be e954 aa3c f902 13be
00000040: 6db6 553f cd02 073f 77ea 57bd b183 0f3f
00000050: 5ad8 15bf 04af 9abe 5863 7e3e a0a6 623e
00000060: bab4 04bf cb43 cebd befb dbba 629d b3be
00000070: e915 e83c 05a5 ba3d 08cc 0ebf f482 04bf

layer2.2.running_var f4 [32]
0.6638997 0.56838596 0.6409685 1.6161284 0.6822656 0.59311897 0.6095726 0.5613403
1.05273 0.71528864 0.7369663 0.4659999 1.1060624 0.75285476 0.42120892 0.6170488
1.0759964 0.6030635 0.6655658 0.63758165 0.7024184 0.6181006 0.32770792 0.6809328
0.7128174 0.5854275 0.48471966 0.8942882 0.5938214 0.46592295 0.47485188 0.7575187
00000000: 55f5 293f be81 113f 8316 243f 4cdd ce3f
00000010: f5a8 2e3f a5d6 173f f30c 1c3f ffb3 0f3f
00000020: dbbf 863f 281d 373f d3a9 3c3f 8a97 ee3e
00000030: 7493 8d3f 17bb 403f b2a8 d73e e9f6 1d3f
00000040: 40ba 893f 5f62 1a3f 8562 2a3f 8d38 233f
00000050: b1d1 333f d73b 1e3f 55c9 a73e 9d51 2e3f
00000060: 337b 363f 94de 153f 2d2d f83e 12f0 643f
00000070: ae04 183f 748d ee3e c91f f33e bfec 413f

fc_advantage.0.weight f4 [20, 32]
-0.2637439 -0.16344635 0.5018763 0.028914073 -0.1647177 -0.075642616 -0.16823673 -0.11580223
0.14600423 -0.04543557 -0.059683245 -0.066838585 -0.12864828 0.05238905 0.17263165 0.14438811
-0.18691945 0.18174267 -0.07354659 -0.08305082 0.040287998 0.07503816 -0.27448207 -0.1390869
0.10788447 -0.12903954 0.034530584 0.1219164 -0.1927115 0.05033674 -0.25592625 -0.17714374
-0.030291088 -0.18643597 -0.41104108 -0.25896823 0.057938866 -0.18049754 -0.25071824 -0.34068617
-0.0005096807 0.20908995 0.14060284 0.10692611 0.16373567 -0.18758228 0.09897807 -0.15249518
-0.05111678 -0.35837716 -0.18499956 -0.12490831 0.15115412 -0.35857323 0.23333405 0.019673755
-0.21006383 -0.27545506 0.1017474 0.13592418 0.16506526 -0.017084245 0.031031586 -0.1124136
0.0596752 0.10699107 -0.41642374 0.09713511 0.0042801015 -0.0038005456 -0.12421906 -0.055610567
-0.097031035 -0.22237748 0.08667643 -0.2133239 -0.022701753 -0.10398831 0.13058855 0.12768131
-0.023432592 0.03461621 0.35464424 -0.23884378 0.077060886 -0.17921808 -0.2049588 -0.14973393
-0.12812513 -0.36035556 0.0595043 -0.040815994 0.26989192 -0.23371586 0.23487894 0.15060891
-0.19055285 -0.16638368 -0.3019146 -0.27027828 0.12917021 0.09945884 -0.15062997 -0.21211737
0.21330348 0.04678659 0.54139924 0.00058552297 -0.18544471 -0.017347995 -0.23622897 0.13613182
0.21646273 -0.31064156 0.10077834 -0.009830074 0.20902422 -0.019293556 -0.106290564 0.13699888
-0.27568868 0.02204647 -0.2711153 0.18823183 0.08737421 -0.1962545 0.09246546 -0.17401348
-0.16636665 -0.090368636 0.19887334 0.3000405 0.17352852 -0.37317932 -0.33000347 0.14861883
-0.081793584 0.34867483 0.13588507 0.03542786 0.33764443 -0.09648298 -0.21247849 -0.4083564
0.06246131 0.06499803 -0.11740948 0.23651423 -0.25074494 0.019255424 -0.24076837 -0.2596441
0.16503343 0.20601201 0.20960988 -0.3281866 -0.086055465 0.10828563 -0.17538299 0.2164893
0.011429302 0.025401589 -0.31896314 -0.006386771 0.29855186 -0.17524126 0.040093005 0.32659888
-0.027163198 0.09645103 -0.20977728 0.43287608 0.22917797 0.12621447 -0.23269255 0.027159037
-0.013791488 -0.047078334 -0.23131007 0.3482763 -0.19439194 -0.42944473 -0.02583298 0.032802947
0.25358275 0.15687007 -0.09811502 -0.12975472 0.019692687 -0.13872336 0.08015365 -0.12705047
0.1429819 0.0057273395 -0.10610836 -0.002402914 -0.23351923 0.38968182 0.07976769 0.24424528
-0.16869019 0.19134691 -0.19743054 -0.08160487 -0.12762563 -0.42483962 -0.3108617 -0.15330629
-0.2010097 -0.28679946 -0.17560396 0.18306263 -0.40679887 -0.0349484 0.12817551 0.08974935
-0.008142447 0.25354937 -0.0129831955 0.13551445 -0.1678299 -0.19812258 -0.3092071 0.04177081
-0.22335453 -0.08403816 -0.06500406 -0.13248838 0.13772312 -0.0018957938 0.21589224 0.16054615
-0.030103063 -0.17351367 -0.1306302 -0.17258312 -0.43468252 0.13072442 0.3045929 0.35670212
0.08659094 -0.24617493 -0.07854433 0.32206237 0.13388312 -0.19339488 -0.0212078 -0.064220004
-0.277653 0.048021246 -0.06403409 0.16151315 0.19192378 -0.03988394 0.11047261 0.036412325
00000000: 7109 87be 7b5e 27be f77a 003f 35dd ec3c
00000010: c2ab 28be 84ea 9abd 4046 2cbe b829 edbd
00000020: 2282 153e a61a 3abd 6b76 74bd abe2 88bd
00000030: 60bc 03be e795 563d 5ac6 303e 7ada 133e
00000040: d067 3fbe c01a 3a3e 989f 96bd 8c16 aabd
00000050: 0705 253d 9bad 993d ea88 8cbe cc6c 0ebe
00000060: 88f2 dc3d f122 04be f16f 0d3d 4eaf f93d
00000070: 2a56 45be e62d 4e3d c408 83be 2b65 35be
00000080: 0425 f8bc 12e9 3ebe fa73 d2be 7c97 84be
00000090: 4e51 6d3d 59d4 38be 245e 80be 6b6e aebe
000000a0: 189c 05ba ad1b 563e 31fa 0f3e 14fc da3d
000000b0: 53aa 273e 9215 40be 04b5 ca3d b227 1cbe
000000c0: d45f 51bd 367d b7be 8670 3dbe eecf ffbd
000000d0: 25c8 1a3e e996 b7be 1fef 6e3e db2a a13c
000000e0: f91a 57be 7208 8dbe f160 d03d b52f 0b3e
000000f0: de06 293e 42f4 8bbc f435 fe3c 1a39 e6bd
00000100: fc6d 743d 221e db3d 7e35 d5be c6ee c63d
00000110: 1840 8c3b 9312 79bb 9066 febd e8c7 63bd
00000120: 35b8 c6bd ecb6 63be 6a83 b13d 9571 5abe
00000130: 07f9 b9bc d3f7 d4bd 01b9 053e e4be 023e
00000140: b5f5 bfbc bac9 0d3d ee93 b53e 7793 74be
00000150: 19d2 9d3d f284 37be b8e0 51be da53 19be
00000160: 3c33 03be 8680 b8be c8ba 733d ac2e 27bd
00000170: 462f 8a3e 3653 6fbe 1b84 703e 3939 1a3e
00000180: 4920 43be 7c60 2abe 8d94 9abe ea61 8abe
00000190: 3245 043e 14b1 cb3d be3e 1abe 4c35 59be
000001a0: 3a6c 5a3e 4ca3 3f3d 2499 0a3f c87d 193a
000001b0: 38e5 3dbe 621d 8ebc 02e6 71be 2466 0b3e
000001c0: 68a8 5d3e 690c 9fbe e064 ce3d 520e 21bc
000001d0: 720a 563e 850d 9ebc deae d9bd 6f49 0c3e
000001e0: 1127 8dbe cc9a b43c a0cf 8abe d8bf 403e
000001f0: 40f1 b23d f1f6 48be 885e bd3d 9730 32be
00000200: 055c 2abe 3113 b9bd 74a5 4b3e e99e 993e
00000210: 76b1 313e 5c11 bfbe 37f6 a8be 892f 183e
00000220: 6583 a7bd 8285 b23e 7525 0b3e ce1c 113d
00000230: bbdf ac3e de98 c5bd f693 59be 1714 d1be
00000240: 6ed7 7f3d b01d 853d 6274 f0bd c930 723e
00000250: a461 80be 8dbd 9d3c fc8b 76be 12f0 84be
00000260: 86fe 283e d0f4 523e f9a3 563e 1308 a8be
00000270: d93d b0bd dbc4 dd3d 9997 33be 5faf 5d3e
00000280: f841 3b3c fe16 d03c 234f a3be 1e48 d1bb
00000290: cadb 983e 7272 33be 9038 243d f837 a73e
000002a0: 5b85 debc 1e88 c53d dbcf 56be efa1 dd3e
000002b0: a1ad 6a3e 5e3e 013e f546 6ebe a17c de3c
000002c0: b1f5 61bc 36d5 40bd 8cdc 6cbe 4551 b23e
000002d0: ae0e 47be 2ee0 dbbe b09f d3bc 625c 063d
000002e0: 99d5 813e 8ca2 203e 87f0 c8bd 6cde 04be
000002f0: 8f52 a13c 7f0d 0ebe 9927 a43d 8519 02be
00000300: d969 123e 68ac bb3b 574f d9bd 357a 1dbb
00000310: aa1f 6fbe 6084 c73e 3e5d a33d 6f1b 7a3e
00000320: 1fbd 2cbe 72f0 433e 3b2b 4abe 7420 a7bd
00000330: 4bb0 02be 9484 d9be 4429 9fbe 53fc 1cbe
00000340: 7dd5 4dbe 61d7 92be 86d1 33be c574 3b3e
00000350: f147 d0be 0e26 0fbd 7140 033e 82ce b73d
00000360: e667 05bc 39d1 813e 78b7 54bc 4dc4 0a3e
00000370: 9adb 2bbe a5e0 4abe 6550 9ebe de17 2b3d
00000380: 0db7 64be 331c acbd d920 85bd 09ab 07be
00000390: 4a07 0d3e 497c f8ba db12 5d3e 3666 243e
000003a0: b39a f6bc 91ad 31be ecc3 05be a1b9 30be
000003b0: b58e debe 9fdc 053e 9af3 9b3e a9a1 b63e
000003c0: 9756 b13d 4815 7cbe dadb a0bd 5ce5 a43e
000003d0: a818 093e 4f09 46be fbbb adbc c785 83bd
000003e0: 8928 8ebe edb1 443d 4e24 83bd b463 253e
000003f0: ab87 443e 585d 23bd 773f e23d 1725 153d

fc_advantage.0.bias f4 [20]
-0.018959355 -0.053246006 -0.029190868 -0.043720387 -0.037176203 -0.041907124 -0.048163883 -0.047395915
-0.043748233 -0.028786153 -0.031729843 -0.02914768 -0.036424905 -0.037597857 0.005450681 0.010789674
0.009010966 0.010903833 2.5249785e-05 0.019612594
00000000: a650 9bbc 7c18 5abd b021 efbc 2614 33bd
00000010: 1346 18bd cea6 2bbd 7e47 45bd 3822 42bd
00000020: 5931 33bd f0d0 ebbc 27f7 01bd 1ec7 eebc
00000030: 4832 15bd 3600 1abd a09b b23b 2cc7 303c
00000040: bba2 133c fea5 323c 80cf d337 97aa a03c

fc_value.0.weight f4 [1, 32]
0.60206884 -0.12664124 0.11323734 0.13713883 0.23254466 -0.06264597 -0.12776212 0.03112825
0.21844934 -0.17322712 0.20258372 -0.49370936 -0.415224 0.082837515 -0.03949695 -0.023178093
-0.21094732 0.004629492 -0.14086625 0.3385652 -0.049353037 0.065790996 0.06471591 -0.14089051
-0.011851548 -0.21562296 0.0049753543 0.033647425 -0.11651551 0.002119973 0.089648575 -0.03225488
00000000: 2f21 1a3f 3eae 01be fae8 e73d 1f6e 0c3e
00000010: 3020 6e3e 884c 80bd 13d4 02be ac00 ff3c
00000020: 2fb1 5f3e 7362 31be 1b72 4f3e 79c7 fcbe
00000030: 3d98 d4be b7a6 a93d 8ec7 21bd fcdf bdbc
00000040: 9302 58be feb2 973b 3e3f 10be 6b58 ad3e
00000050: 6926 4abd 6ebd 863d c689 843d 9a45 10be
00000060: ff2c 42bc 44cc 5cbe 4c08 a33b e2d1 093d
00000070: af9f eebd 3fef 0a3b ac99 b73d b11d 04bd
