save/client-4/eval.pth (torch, 21957 bytes, 27 tensors)

layer1_task.0.weight f4 [16, 3]
0	0xbe8665e9	-0.26249626
1	0xbeb32dc5	-0.34995857
2	0x3ea2e7d1	0.31817487
3	0x3eb7c6c7	0.35893843
4	0x3f21d970	0.6322241
5	0x3eccaa05	0.39973465
6	0x3ed47026	0.41491812
7	0xbf267369	-0.6501985
8	0x3df23636	0.11826746
9	0x3e442a59	0.1915678
10	0xbcc8bfd1	-0.024505528
11	0x3e91fb8a	0.28512222
12	0x3f1e9179	0.61940724
13	0xbf1d91f0	-0.6155081
14	0xbf095e20	-0.5365925
15	0xbe69665b	-0.22792952
16	0x3ead28e5	0.33820263
17	0x3e97ee04	0.2967378
18	0x3eb78967	0.35847017
19	0xbe101cce	-0.14073488
20	0x3e9e28e5	0.30890575
21	0x3d6ac3a7	0.057315495
22	0x3dcd099c	0.100115985
23	0x3e0cfe2b	0.13768832
24	0x3e86945b	0.2628506
25	0xbd4b466f	-0.049627718
26	0x3d35293d	0.04422878
27	0xbe1148e0	-0.14187956
28	0x3ea72f44	0.32653248
29	0xbe3f2b24	-0.186688
30	0xbe89799b	-0.2685059
31	0xbdac2b36	-0.08406679
32	0xbe972615	-0.29521242
33	0xbeb0a1b3	-0.34498367
34	0x3e03797a	0.12839308
35	0xbe090be5	-0.13383444
36	0x3e8a895b	0.2705792
37	0xbe99e6e8	-0.3005898
38	0x3e87e296	0.2654006
39	0xbe441bac	-0.19151181
40	0xbd2574c4	-0.04039456
41	0xbcb27534	-0.021784402
42	0xbea1b844	-0.31585896
43	0xbea94db6	-0.330671
44	0x3c27751d	0.010220793
45	0x3ebed538	0.37272048
46	0x3e2535b0	0.16133761
47	0x3e04ef85	0.12981994

layer1_task.0.bias f4 [16]
0	0xbb212113	-0.0024586364
1	0xbd74fdc6	-0.05981233
2	0x3cde2e56	0.027121704
3	0x3d13784b	0.036003392
4	0x3c6ddabd	0.014517483
5	0xbd4d83c5	-0.050174493
6	0x3cbf0dcc	0.023322009
7	0x3ddca180	0.10772991
8	0x3d141f61	0.036162738
9	0x3cb15f6d	0.021651948
10	0x3cca85ff	0.024722097
11	0x3bd1beb4	0.0064009074
12	0x3d0aba52	0.033869095
13	0xbc611689	-0.013738283
14	0xbc90264b	-0.017596385
15	0xbd7679f5	-0.0601749

layer1_task.2.weight f4 [16]
0	0x3f82c4df	1.021633
1	0x3f7e09e0	0.9923382
2	0x3f76238d	0.96147996
3	0x3f6f39ed	0.9344776
4	0x3f808229	1.0039722
5	0x3f869bfe	1.0516355
6	0x3f8482ad	1.0352379
7	0x3f7c9f27	0.9868035
8	0x3f815599	1.0104247
9	0x3f764c14	0.96209836
10	0x3f7879ac	0.97060657
11	0x3f8128a4	1.0090528
12	0x3f864e51	1.049265
13	0x3f814c7b	1.0101465
14	0x3f7fcd8d	0.9992302
15	0x3f81b381	1.0132905

layer1_task.2.bias f4 [16]
0	0x3cca02c8	0.02465953
1	0xbccc34a0	-0.024927437
2	0xbd18bff2	-0.03729243
3	0xbd6521b0	-0.05594033
4	0x3bf40955	0.0074474015
5	0x3d4bf8c5	0.049797792
6	0x3d29838f	0.04138523
7	0x3d21d7a1	0.03951228
8	0x3caa9b1d	0.020825917
9	0xbd0f4d90	-0.03498608
10	0xbbff42e6	-0.0077899573
11	0x3c792b0e	0.015208019
12	0x3d793ffb	0.060852032
13	0x3bfb7fe6	0.007675159
14	0xbba7caca	-0.00512061
15	0xbb9ad74b	-0.004725372

layer1_task.2.running_mean f4 [16]
0	0xc6b11cbf	-22670.373
1	0x46fb3c3a	32158.113
2	0x470991c3	35217.76
3	0x46860aac	17157.336
4	0x474bd208	52178.03
5	0xc69b7b37	-19901.607
6	0x46f0fa3a	30845.113
7	0x45a58c0c	5297.506
8	0x46b6d48f	23402.28
9	0xc640c3eb	-12336.9795
10	0xc6b04cea	-22566.457
11	0xc6ef4b2b	-30629.584
12	0x46bf155e	24458.684
13	0xc67f46e0	-16337.719
14	0xc6d09c4a	-26702.145
15	0x46f9106b	31880.209

layer1_task.2.running_var f4 [16]
0	0x4cf0915a	1.261268e+08
1	0x4d64a8d5	2.3976686e+08
2	0x4dace15c	3.625563e+08
3	0x4c846534	6.941328e+07
4	0x4e3a9e91	7.827385e+08
5	0x4cb27357	9.355948e+07
6	0x4d7e2eff	2.665308e+08
7	0x4ab72f5e	6.002607e+06
8	0x4cf2108a	1.2691157e+08
9	0x4c1f83ec	4.1815984e+07
10	0x4d16d74e	1.5816829e+08
11	0x4d556d0f	2.2379339e+08
12	0x4cfeb314	1.335359e+08
13	0x4c902264	7.55679e+07
14	0x4d48571b	2.1007198e+08
15	0x4d894312	2.8785926e+08

layer1_1vm.0.weight f4 [32, 40]
0	0xbc54fbd9	-0.012999498
1	0xbd65eb3c	-0.05613254
2	0x3d012343	0.03152777
3	0xbda9ccdd	-0.08291028
4	0xbe1634fc	-0.1466865
5	0xbdc14b6e	-0.09438215
6	0x3d83247e	0.06403445
7	0x3e8128e8	0.25226521
8	0xbd8191d8	-0.063266456
9	0xbd714622	-0.058904774
10	0xbd7e843f	-0.06213784
11	0xbd8e5b37	-0.069509916
12	0xbe0799cf	-0.13242267
13	0x3e18e263	0.1493011
14	0xbcf4b462	-0.02987117
15	0xbd20910d	-0.03920083
16	0x3da6a702	0.08137323
17	0xbb6511e6	-0.0034953295
18	0xbea8d2aa	-0.32973224
19	0x3d331e4c	0.043730065
20	0xbe57d55c	-0.21077484
21	0x3d06add0	0.032880604
22	0xbda6512b	-0.0812095
23	0xbd567858	-0.052360862
24	0xbd4c8bbb	-0.049937945
25	0xbe5261dc	-0.20545143
26	0xbe3a7de5	-0.18212087
27	0x3dfdf783	0.12400725
28	0xbddb2396	-0.10700147
29	0x3da97260	0.082737684
30	0x3d11a79c	0.035560235
31	0x3cd7998d	0.026318336
32	0x3e1198a5	0.14218386
33	0x3ee30d9c	0.4434632
34	0x3c51b3d0	0.012799218
35	0x3defc918	0.117082775
36	0x3e33728b	0.17524163
37	0x3eeb31ff	0.45936581
38	0x3daa1ce9	0.083062954
39	0xbce96912	-0.028492484
40	0xbe18bb26	-0.14915141
41	0x3e8e67d3	0.27813587
42	0xbe6024a5	-0.21888979
43	0x395ec5d6	0.0002124527
44	0x3e84cee2	0.2593909
45	0x3d4f83c8	0.050662786
46	0xbd331d4f	-0.043729123
47	0xbdf523b9	-0.11969704
48	0xbf086229	-0.5327478
49	0xbd963f8d	-0.0733634
50	0x3dbb7e66	0.09154968
51	0x3e9968db	0.2996281
52	0xbe0cae8e	-0.13738462
53	0x3e2324b2	0.15931967
54	0xbdb882a0	-0.0900929
55	0x3cb94a57	0.022618456
56	0xbd3fa0fb	-0.046784382
57	0xbc0e7bfd	-0.008696553
58	0x3e901378	0.28139853
59	0x39db1638	0.0004178749
60	0xbd0b78f3	-0.034050893
61	0xbeb6e4ee	-0.35721534
62	0x3de03796	0.10948102
63	0xbe758312	-0.2397578
64	0x3e539a29	0.20664276
65	0x3e209d53	0.15685014
66	0x3e894bf2	0.26815754
67	0xbe04ea88	-0.12980092
68	0x3ce9480e	0.028476741
69	0xbe0960f7	-0.13415895
70	0x3d481598	0.04884872
71	0x3c8ed036	0.017433267
72	0xbd74a967	-0.059731867
73	0xbdc5b551	-0.09653724
74	0xbd8d2cd0	-0.06893313
75	0x3e892f2a	0.26793796
76	0xbe52460a	-0.2053453
77	0xbc0f9c52	-0.008765297
78	0x3e550d63	0.20805888
79	0x3da73068	0.0816353
80	0xbc0bc351	-0.008530454
81	0xbc217063	-0.009853455
82	0x3e16b220	0.14716387
83	0x3e70cf18	0.235165
84	0xbcd2e69f	-0.025744734
85	0xbe039bf7	-0.12852465
86	0x3b3586f8	0.0027698856
87	0x3d262edd	0.040572036
88	0x3e0232e1	0.12714721
89	0x3c6fc3fc	0.014634129
90	0x3def2f7e	0.1167898
91	0x3e1cb3bd	0.1530294
92	0x3d97582b	0.073898636
93	0xbcac453d	-0.02102911
94	0xbddfeb6d	-0.10933576
95	0x3e217158	0.15765893
96	0xbdbfbc26	-0.09362058
97	0x3e5cb266	0.21552429
98	0xbb9ab004	-0.0047206897
99	0xbe3f5f08	-0.18688595
100	0x3df16d24	0.11788395
101	0xbd8d8869	-0.06910784
102	0x3d31b48f	0.043385085
103	0xbcc7ea1e	-0.024403628
104	0x3dfab160	0.12240863
105	0x3f23a315	0.6392072
106	0x3cdbcb4a	0.026830334
107	0x3e478923	0.19485907
108	0xbeb721e9	-0.3576806
109	0xbe858085	-0.26074615
110	0xbefd235e	-0.49441046
111	0x3e9cecbc	0.30649364
112	0xbd9c04d5	-0.07618109
113	0x3e82e844	0.2556783
114	0x3d51aa77	0.05118796
115	0xbdfd6144	-0.123720676
116	0xbb746877	-0.0037293711
117	0x3e7d531d	0.24738736
118	0x3e2d5e30	0.16930461
119	0x3da22805	0.07917789
120	0xbabf1d80	-0.0014580935
121	0xbc296ee1	-0.010341377
122	0x3e452ebf	0.19256113
123	0x3cc4a9e8	0.024006799
124	0xbdebe4c5	-0.11518244
125	0xbdbbc376	-0.091681406
126	0xbd88b5a5	-0.06675271
127	0x3ec6c0c8	0.38818955
128	0x3e259281	0.16169168
129	0x3d79815e	0.06091439
130	0xbd8468b7	-0.06465285
131	0x3d6b5957	0.057458248
132	0x3da91236	0.082554266
133	0xbc6765c4	-0.014123384
134	0x3e562c68	0.20915377
135	0x3e072f19	0.1320156
136	0x3ecc0a34	0.39851534
137	0xbdd77144	-0.105196506
138	0x3e77f967	0.24216233
139	0x3d858690	0.065198064
140	0xbdef0064	-0.116699964
141	0xbea73aa9	-0.32661942
142	0xbe4855b7	-0.19563948
143	0xbe61baa4	-0.22043854
144	0x3d93cee6	0.07217197
145	0xbe4120be	-0.18860146
146	0x3e1e7325	0.15473612
147	0xbec7a08f	-0.38989684
148	0xbe075be0	-0.13218641
149	0x3d6159d0	0.055017292
150	0x3e0440be	0.12915322
151	0xbd8c6682	-0.06855489
152	0x3e823628	0.25431943
153	0x3dee52d8	0.11636895
154	0x3cee8bd4	0.02911941
155	0x3d890499	0.0669033
156	0x3e4ebce5	0.20189245
157	0x3db8de8d	0.09026823
158	0x3e12c63a	0.1433343
159	0xbe2740a3	-0.1633325
160	0x3e038633	0.12844162
161	0x3e1e3d81	0.1545315
162	0xbe1fc4dd	-0.15602441
163	0x3c320756	0.010866007
164	0xbcd8216b	-0.026383122
165	0x3e87c74c	0.2651924
166	0xbe8677d7	-0.26263306
167	0x3dc2adab	0.09505781
168	0xbde7f9bf	-0.11326932
169	0x3e0a616c	0.13513726
170	0x3eceb184	0.4036981
171	0x3cc57c1d	0.024107033
172	0xbe856f12	-0.26061302
173	0x3e038ad1	0.12845923
174	0x3d7ea974	0.06217332
175	0xbee63be5	-0.4496757
176	0x3e9355c0	0.2877636
177	0x3ec38ea4	0.38194764
178	0xbd1cb2cb	-0.038256448
179	0x3d98298a	0.07429798
180	0x3ecd0165	0.40040126
181	0x3db8c47f	0.09021854
182	0xbc7ebd0d	-0.015548003
183	0x3e35fd0c	0.17772311
184	0x3e055c79	0.13023557
185	0xbe7387bd	-0.23782249
186	0xbea40ccd	-0.32041016
187	0xbd8338a4	-0.06407288
188	0xbe4fc5e6	-0.20290336
189	0xbeaa0be9	-0.33212212
190	0xbd9059fd	-0.07048414
191	0x3e9dd694	0.30827773
192	0x3dd5c205	0.10437397
193	0x3d8a7eb2	0.067624465
194	0x3e6d713a	0.23187724
195	0x3dbbdabd	0.091725804
196	0x3d59561c	0.053060636
197	0xbdd34411	-0.10315717
198	0xbc7553df	-0.01497361
199	0x3dda1e82	0.1065035
200	0x3e14b24a	0.14521137
201	0x3d845088	0.064606726
202	0xbe5d9035	-0.21637042
203	0x3d1569a6	0.036477707
204	0xbe974c8c	-0.29550588
205	0xbd742bd6	-0.059612118
206	0xbe18f466	-0.1493698
207	0xbe805cc3	-0.25070772
208	0x3d58c064	0.052917853
209	0xbe22dc85	-0.15904434
210	0x3e2565d6	0.16152129
211	0xbeae55d2	-0.3404985
212	0x3e7dcc26	0.24784908
213	0xbe70dc71	-0.23521592
214	0x3e19c067	0.15014802
215	0x3ccd65a4	0.02507288
216	0xbe65de26	-0.22448024
217	0x3d04995a	0.03237281
218	0xbe83c181	-0.2573357
219	0x3d8386ad	0.06422172
220	0xbcbc3b29	-0.022977429
221	0xbe1d86df	-0.1538348
222	0xbdd17e4a	-0.10229166
223	0xbd7406ec	-0.059576914
224	0x3e35ce3c	0.17754453
225	0xbec3c7cb	-0.38238367
226	0xbd38562b	-0.04500405
227	0xbdf22407	-0.11823278
228	0xbe7ba63f	-0.24575137
229	0x3e0a4c0c	0.13505572
230	0x3d6c7075	0.057724435
231	0x3d336f80	0.043807507
232	0x3d82c2e7	0.06384831
233	0xbe09f83c	-0.134736
234	0xbef3ca48	-0.47615266
235	0xbd3d754f	-0.046254452
236	0x3c82ffd0	0.015991122
237	0x3e46f7a7	0.1943041
238	0xbc4c3fe4	-0.012466405
239	0xbaa81688	-0.0012824098
240	0xbd4df950	-0.05028659
241	0x3d9e675d	0.07734559
242	0x3e688a80	0.22709084
243	0xbda2d000	-0.07949829
244	0x3e2d40f4	0.16919309
245	0xbd28a23b	-0.04117034
246	0x3e130a7e	0.14359471
247	0xbead3c1e	-0.33834928
248	0x3d18b99b	0.037286382
249	0xbd9a1be7	-0.07524853
250	0xbe099705	-0.13436516
251	0x3e7fbec4	0.24975115
252	0xbd3f8657	-0.046758976
253	0x3dcde3c0	0.100532055
254	0xbe1068f1	-0.14102532
255	0x3eab87b5	0.33501974

layer1_1vm.0.bias f4 [32]
0	0xbc6ea38b	-0.014565359
1	0x3cc75ca0	0.02433616
2	0xbb152d59	-0.0022762625
3	0x3d3753cb	0.044757646
4	0x3d840df3	0.06447973
5	0xbcace2fe	-0.021104332
6	0x3b1ead80	0.00242123
7	0xbc2db85d	-0.010603038
8	0xbc82ba94	-0.015958108
9	0x3ac1d365	0.0014787732
10	0xbca8eb59	-0.020620035
11	0xbca5e7bb	-0.0202521
12	0x3c9591b0	0.018257946
13	0xbb673440	-0.0035278946
14	0xbcf00ce0	-0.029303014
15	0xbd205477	-0.039143052
16	0xbbf9dd85	-0.007625284
17	0xbc83d730	-0.01609382
18	0x3bd37983	0.0064536943
19	0xbc7e6366	-0.015526628
20	0xbc7822db	-0.015145029
21	0xbcc3588a	-0.02384593
22	0xbc109080	-0.008823514
23	0xbc915e13	-0.017745053
24	0x3c278145	0.010223691
25	0x3d624bd6	0.055248104
26	0x3ce20044	0.027588017
27	0xbcd2108b	-0.025642654
28	0x3b5602ab	0.0032655399
29	0x3a47ae17	0.0007617189
30	0x3bcb4c56	0.0062041683
31	0x3d0a36ba	0.033743598

layer1_1vm.2.weight f4 [32]
0	0x3f843754	1.0329385
1	0x3f757b57	0.95891327
2	0x3f7d3c19	0.98919827
3	0x3f7e4edf	0.993391
4	0x3f81aa4e	1.0130098
5	0x3f7dd49a	0.9915253
6	0x3f79543d	0.9739416
7	0x3f845464	1.0338254
8	0x3f7ec5cf	0.9952058
9	0x3f80b3ae	1.0054834
10	0x3f82df43	1.0224384
11	0x3f8061ee	1.0029886
12	0x3f73c160	0.9521694
13	0x3f7e5f2a	0.9936396
14	0x3f819be0	1.0125694
15	0x3f87a19e	1.0596197
16	0x3f8389db	1.0276445
17	0x3f78598d	0.97011644
18	0x3f781f8f	0.96923155
19	0x3f827252	1.0191138
20	0x3f79cd5f	0.97578996
21	0x3f803826	1.0017135
22	0x3f80a14c	1.0049224
23	0x3f8113c3	1.0084156
24	0x3f800add	1.0003315
25	0x3f80569e	1.0026433
26	0x3f7c150b	0.9846961
27	0x3f820960	1.0159111
28	0x3f808af9	1.0042411
29	0x3f7c8039	0.9863315
30	0x3f8228bb	1.016868
31	0x3f7ee1bc	0.99563193

layer1_1vm.2.bias f4 [32]
0	0x3d00a788	0.03140977
1	0xbccfbc0a	-0.025358219
2	0xbc0af994	-0.008482356
3	0xbc1540ee	-0.009109719
4	0x3cbae015	0.022811929
5	0xbc54e3b4	-0.012993742
6	0xbcf1579e	-0.029460724
7	0x3d32d35e	0.043658607
8	0xbb523671	-0.0032075907
9	0x3bccc0cd	0.0062485696
10	0x3ccf4261	0.025300207
11	0xbb009bd9	-0.0019624142
12	0xbd5384db	-0.051640373
13	0xbbd859d8	-0.006602507
14	0x3c0d755e	0.00863394
15	0x3d623d76	0.055234395
16	0x3caa4530	0.020784944
17	0xbcc3b93a	-0.023892034
18	0xbceed028	-0.029151991
19	0x3c9bc3d1	0.019014271
20	0xbcde01f3	-0.027100539
21	0x3bcb82b9	0.0062106517
22	0x3bc3e1b1	0.0059778322
23	0xbc16190b	-0.009161244
24	0x3adda560	0.0016910248
25	0x3c25ed4b	0.010127376
26	0x3b322c73	0.0027187138
27	0x3c83f2bb	0.016106954
28	0x3c2b5fb4	0.010459829
29	0xbc3ead68	-0.011638023
30	0xbb25f049	-0.0025320223
31	0x3c85357e	0.016260859

layer1_1vm.2.running_mean f4 [32]
0	0xc51dc733	-2524.45
1	0x44eae644	1879.1958
2	0xc48245be	-1042.1794
3	0x460bc9a6	8946.412
4	0x45256162	2646.0864
5	0xc5b2d287	-5722.316
6	0xc4f34605	-1946.1881
7	0x450a7d48	2215.83
8	0x45caed29	6493.645
9	0x44ec1cc2	1888.8987
10	0xc581083e	-4129.0303
11	0xc590f6b0	-4638.836
12	0xc5365309	-2917.1897
13	0xc2544f7a	-53.077614
14	0xc5890e82	-4385.8135
15	0xc5968ae2	-4817.3604
16	0x449cf93a	1255.7883
17	0xc58fdaa0	-4603.328
18	0xc4aa0a09	-1360.3136
19	0xc5b7fd38	-5887.6523
20	0xc5e7d7ba	-7418.966
21	0x448ed960	1142.793
22	0xc5e5734c	-7342.412
23	0xc500e989	-2062.596
24	0x44e0ebc0	1799.3672
25	0x461f6923	10202.284
26	0x44d67b6d	1715.857
27	0xc54fc15c	-3324.085
28	0xc4dbc59e	-1758.1755
29	0xc4b1c7d4	-1422.2446
30	0x4505e688	2142.4082
31	0x452df9ae	2783.605

layer1_1vm.2.running_var f4 [32]
0	0x49bb03cb	1.5320254e+06
1	0x495a64f5	894543.3
2	0x48da4a86	447060.2
3	0x4b7a309e	1.6396446e+07
4	0x49e291b0	1.856054e+06
5	0x4aeefb08	7.830916e+06
6	0x495eb014	912129.25
7	0x49a893ac	1.3809815e+06
8	0x4b14f46b	9.761899e+06
9	0x498dd0c4	1.1617525e+06
10	0x4a8569c8	4.371684e+06
11	0x4ace05c8	6.750948e+06
12	0x4a09e24d	2.2590912e+06
13	0x4788f171	70114.88
14	0x4ab1b306	5.822851e+06
15	0x4aaaacfe	5.592703e+06
16	0x48f29174	496779.62
17	0x4a978e91	4.9662165e+06
18	0x4908f570	560983.0
19	0x4b20732f	1.0515247e+07
20	0x4b5e30d0	1.4561488e+07
21	0x48923cce	299494.44
22	0x4b428f90	1.2750736e+07
23	0x499432d1	1.2140421e+06
24	0x4957a239	883235.56
25	0x4bc58c9e	2.589318e+07
26	0x497c73d2	1.0340451e+06
27	0x4a2616c2	2.7212005e+06
28	0x493af974	765847.25
29	0x48f00d16	491624.7
30	0x499acc71	1.2681101e+06
31	0x49c462c3	1.6087924e+06

layer1_2vm.0.weight f4 [16, 32]
0	0xbd8c7470	-0.06858146
1	0xbeb20eac	-0.3477682
2	0x3e01645b	0.12635939
3	0xbca30e0a	-0.019904155
4	0x3e01a4cd	0.12660523
5	0xbd544950	-0.05182773
6	0xbe73a99e	-0.23795173
7	0xbdf34448	-0.11878258
8	0xbe813139	-0.25232866
9	0x3db64403	0.08899691
10	0x3d677cee	0.056515627
11	0xbe4af343	-0.1981936
12	0xbda12e6b	-0.07870182
13	0xbd5c8398	-0.053836435
14	0xbe0fd5a7	-0.14046346
15	0x3dbc7d12	0.09203543
16	0xbd1bb87b	-0.03801773
17	0x3e2d7b50	0.16941571
18	0x3ed81788	0.42205453
19	0xbd39dcbb	-0.04537652
20	0x3e8687a5	0.26275364
21	0xbd19a036	-0.037506305
22	0x3ce544bd	0.027986879
23	0xbd8982bd	-0.067143895
24	0xbc955fe9	-0.01823421
25	0x3e8ae74f	0.271296
26	0x3d80d8a4	0.06291321
27	0x3d3109a7	0.043222096
28	0x3e5adc99	0.21373214
29	0xbef241b3	-0.4731575
30	0x3da10048	0.07861382
31	0xbdb2e7a5	-0.08735589
32	0xbcd416b7	-0.025889738
33	0x3e701bca	0.234481
34	0x3e06b186	0.13153657
35	0x3d5cb4a1	0.0538832
36	0xbd714f23	-0.05891336
37	0xbe968664	-0.29399407
38	0xbeaf4f61	-0.3424025
39	0xbe3548e9	-0.17703594
40	0xbe6d4cfe	-0.23173901
41	0xbe8a93ad	-0.27065793
42	0xbc20998a	-0.009802232
43	0xbd2290db	-0.039688926
44	0x3d010416	0.031498037
45	0x3b0aba25	0.002116808
46	0xbecebe67	-0.4037964
47	0xbeaa8df1	-0.33311418
48	0x3a6f1c29	0.00091213227
49	0x3e9ab9af	0.3021979
50	0xbde977d0	-0.113998055
51	0xbec5ba45	-0.38618675
52	0xbde31bc1	-0.11089278
53	0xbdc621ef	-0.09674441
54	0xbe3c412a	-0.18384233
55	0xbcb720d8	-0.022354528
56	0x3e0f07e2	0.13967851
57	0xbe6806c4	-0.22658831
58	0xbea6ffbd	-0.32616988
59	0xbe265dc6	-0.16246709
60	0x3dce5a08	0.10075766
61	0x3de509e9	0.11183531
62	0x3bb48778	0.005509313
63	0x3e9c3152	0.30506378
64	0x3e963db0	0.2934394
65	0x3cd3292d	0.02577647
66	0xbee1da78	-0.4411199
67	0xbe0e4d1d	-0.13896604
68	0xbcb0cc6b	-0.02158185
69	0xbf07181f	-0.5277118
70	0xbdfd40f8	-0.123659074
71	0xbe6f55bb	-0.23372547
72	0x3dd6851c	0.10474607
73	0xbe80fa51	-0.25190976
74	0x3dc74129	0.09729225
75	0x3d76698c	0.06015925
76	0xbdfd5835	-0.1237034
77	0x3d9ca42e	0.07648502
78	0x3e83f063	0.25769338
79	0x3ebad29a	0.364888
80	0x3e239d89	0.15978064
81	0x3e5d3c85	0.21605118
82	0x3dae5a51	0.0851332
83	0x3e67eadf	0.2264819
84	0xbde82785	-0.11335663
85	0x3c56f86c	0.013120752
86	0x3ed986b1	0.42485574
87	0xbd23ce82	-0.039991863
88	0xbc9cea69	-0.019154744
89	0xbea58427	-0.32327387
90	0x3dd597f1	0.10429371
91	0x3ed60300	0.41799164
92	0x3dd90c1d	0.105980136
93	0xbd3ae4c6	-0.04562833
94	0x3e026912	0.12735394
95	0xbdb3b5cf	-0.087749116
96	0x3e26a019	0.1627201
97	0xbe1798f0	-0.14804435
98	0xbe71f4bd	-0.23628516
99	0xbe49c3a2	-0.19703534
100	0x3c35463a	0.011064107
101	0xbcaf0351	-0.021363886
102	0xbd92a0aa	-0.071595505
103	0xbe9de6d0	-0.30840158
104	0x3e3e9552	0.18611649
105	0x3d4fa189	0.05069116
106	0xbeaaad31	-0.3333526
107	0x3e34f558	0.17671716
108	0x3dbcaaf2	0.09212293
109	0x3e0ae5f2	0.1356428
110	0x3e5defe2	0.2167354
111	0xbdb1cc3c	-0.08681533
112	0xbd328550	-0.043584168
113	0xbe904a5e	-0.28181738
114	0xbdc6a81a	-0.097000316
115	0xbe53cf19	-0.2068447
116	0xbdc3b020	-0.095550776
117	0xbe151c5f	-0.14561604
118	0x3e36aa52	0.1783841
119	0x3d814811	0.06312574
120	0x3e863f6e	0.26220268
121	0xbdb3f6d6	-0.087873146
122	0xbe37a33b	-0.17933361
123	0xbe763f71	-0.24047638
124	0x3d75350c	0.059865043
125	0xbe61dd3e	-0.22057053
126	0xbd358038	-0.044311732
127	0xbe046314	-0.1292842
128	0xbd7bdf23	-0.061492097
129	0xbdbc2f4a	-0.09188707
130	0x3cc45df5	0.023970583
131	0x3d0f634a	0.0350068
132	0x3e801628	0.25016904
133	0x3dea78cc	0.114488214
134	0x3d935528	0.07193977
135	0xbea55f56	-0.32299298
136	0xbe1b3385	-0.15156372
137	0xbe9371a4	-0.28797638
138	0x3dc3d6dd	0.09562466
139	0x3dd80d24	0.105493814
140	0x3ddf4e85	0.10903648
141	0xbeb971aa	-0.3621953
142	0x3ec917f5	0.3927609
143	0xbea0766f	-0.31340358
144	0x3e12eb97	0.14347683
145	0x3ead7908	0.33881402
146	0xbdb1e714	-0.08686653
147	0x3daba52c	0.083811134
148	0xbe3904cb	-0.18068235
149	0xbe7b7f1b	-0.24560206
150	0x3e4cc213	0.19995908
151	0x3e886ce4	0.26645577
152	0x3da9542d	0.082680084
153	0xbedcd658	-0.4313228
154	0x3e91e0bf	0.2849178
155	0xbde6ed3a	-0.11275716
156	0xbf12c00c	-0.5732429
157	0x3d6b7ea4	0.05749382
158	0xbee7d737	-0.45281383
159	0xbe56f1d1	-0.20990683
160	0x3d230c9c	0.039806947
161	0x3e793a62	0.24338678
162	0xbe9f0c10	-0.3106389
163	0x3d8eaa6c	0.06966099
164	0xbe4a5516	-0.1975902
165	0x3e1f6ae9	0.15568127
166	0xbdcf083d	-0.10108993
167	0xbe361904	-0.1778298
168	0x3e294357	0.16529594
169	0xbea1b430	-0.31582785
170	0xbe80524d	-0.2506279
171	0xbe0d2d29	-0.13786758
172	0x3e4af70f	0.19820808
173	0x3e002519	0.12514152
174	0xbd53b40a	-0.05168537
175	0x3ce07141	0.027397754
176	0xbe92f772	-0.2870441
177	0x3df016bc	0.11723086
178	0xbe8d1202	-0.275528
179	0x3e40f4ea	0.18843427
180	0xbd5751eb	-0.052568357
181	0x3e12abe0	0.14323378
182	0xbdc6653e	-0.09687279
183	0xbe8f2858	-0.27960467
184	0x3cfe1a79	0.031018483
185	0x3d86537d	0.06558893
186	0xbe1f5877	-0.1556109
187	0x3e0b1471	0.13582017
188	0xbe893256	-0.26796216
189	0x3e15c61f	0.14626358
190	0xbe57e88b	-0.21084802
191	0x3c03b62e	0.0080390405
192	0xbe15d3ea	-0.1463162
193	0xbed49748	-0.41521668
194	0xbe560785	-0.20901306
195	0x3b28c0c0	0.0025749654
196	0xbeccd6d5	-0.40007654
197	0xbc91c952	-0.017796192
198	0x3cab1314	0.02088312
199	0x3ca40fe9	0.020027118
200	0xbd21a530	-0.039464176
201	0x3e8f59b1	0.27998117
202	0xbe2bae7c	-0.1676578
203	0x3e63c55a	0.22243252
204	0x3da3df26	0.080015466
205	0xbdc96b77	-0.098349504
206	0x3e5f51ff	0.21808623
207	0xbda727fa	-0.08161922
208	0xbd1a30ec	-0.03764431
209	0xbd806a6c	-0.06270298
210	0x3e7f5168	0.24933398
211	0x3c6a906a	0.014316658
212	0xbe371e1b	-0.17882578
213	0x3eac55e3	0.33659276
214	0xbe491b0e	-0.19639227
215	0x3dbda78b	0.09260472
216	0xbcfb3758	-0.030666038
217	0xbe191ec0	-0.14953136
218	0x3d7c4601	0.0615902
219	0xbe53ab75	-0.20670874
220	0x3e80a4d0	0.25125742
221	0xbdf4a3e8	-0.11945325
222	0x3dbbfff5	0.09179679
223	0x3dcc4c36	0.099754736
224	0xbe546a73	-0.20743732
225	0x3e2026ac	0.15639752
226	0xbdd3b793	-0.103377484
227	0xbd8fcd7b	-0.07021614
228	0xbea64de9	-0.32481316
229	0x3d2a439c	0.041568384
230	0xbed0ee5b	-0.4080685
231	0x3dc452b7	0.09586089
232	0x3e29072b	0.1650664
233	0xbdeb28eb	-0.11482414
234	0xbe0845b3	-0.13307838
235	0x3ea891df	0.3292379
236	0x3ead55b8	0.3385446
237	0x3e463721	0.19356968
238	0x3b4e7612	0.003150348
239	0xbe9e9501	-0.30973056
240	0x3dd39ec1	0.10333014
241	0xbe9f22e9	-0.31081322
242	0xbe97a720	-0.29619694
243	0xbdd1e116	-0.1024801
244	0xbe441ae9	-0.1915089
245	0x3c648f34	0.013950158
246	0xbdaa2909	-0.08308608
247	0x3e18c40a	0.14918533
248	0x3d7acde5	0.061231513
249	0xbdd74eb9	-0.10513062
250	0x3e0a1548	0.1348468
251	0x3e104704	0.1408959
252	0x3d1b5593	0.037923407
253	0xbeeeb4f6	-0.46622437
254	0x3d4037a2	0.046928056
255	0xbcf3e254	-0.029771008

layer1_2vm.0.bias f4 [16]
0	0x3cb84dd1	0.022498043
1	0xbd040850	-0.03223449
2	0x3d30f2f9	0.043200467
3	0xbd15d305	-0.036578197
4	0xbcaee51c	-0.021349482
5	0xbcc9af9b	-0.024619868
6	0xbcff59a4	-0.031170674
7	0xbb24d332	-0.0025150296
8	0x3b88a6d1	0.0041702767
9	0xbccfd21e	-0.025368746
10	0x3cd048e6	0.025425386
11	0x3cd9fd3b	0.026610008
12	0xbc7cd6ac	-0.015432041
13	0xbc891ff4	-0.01673887
14	0x3d1471b4	0.03624125
15	0xbbff3724	-0.0077885557

layer1_2vm.2.weight f4 [16]
0	0x3f7e3a2c	0.99307513
1	0x3f80267b	1.0011743
2	0x3f838548	1.0275049
3	0x3f7de786	0.991814
4	0x3f7b70f4	0.9821923
5	0x3f7dd64c	0.99155116
6	0x3f81070e	1.0080278
7	0x3f830046	1.0234458
8	0x3f762627	0.96151966
9	0x3f7f89ae	0.9981946
10	0x3f818add	1.0120503
11	0x3f7a773c	0.9783819
12	0x3f779d57	0.96724457
13	0x3f773a92	0.96573746
14	0x3f84228e	1.0323045
15	0x3f7e7d61	0.99410063

layer1_2vm.2.bias f4 [16]
0	0x3bc6fc68	0.0060725696
1	0x3b0c06da	0.0021366389
2	0x3d713397	0.05888709
3	0xbad81890	-0.0016486812
4	0xbd181e7f	-0.03713846
5	0x3c814eee	0.015784707
6	0x3d1f5f20	0.038909078
7	0x3d2425b7	0.04007503
8	0xbd36b241	-0.04460359
9	0x3c8b0fe1	0.016975345
10	0xba217b32	-0.000616002
11	0x3cb587ef	0.022159545
12	0xbd0a4b3b	-0.03376315
13	0xbd4fd32c	-0.0507385
14	0x3d3bd327	0.045855667
15	0xbd28d391	-0.04121739

layer1_2vm.2.running_mean f4 [16]
0	0xbd420fc6	-0.047378324
1	0xbf809e76	-1.0048358
2	0x3e95e960	0.29279613
3	0xbf2574c7	-0.64631313
4	0xbf047931	-0.51747423
5	0xbf1e81cf	-0.6191682
6	0xbe632f35	-0.22185977
7	0xbef7e53d	-0.48417082
8	0x3d3fd471	0.04683346
9	0xbee6f42f	-0.45108172
10	0xbe00bc98	-0.12571943
11	0x3e6f7eb8	0.23388183
12	0xbf272efd	-0.65306073
13	0xbcac17ba	-0.021007407
14	0x3ea4eafe	0.32210535
15	0xbe9acca2	-0.30234247

layer1_2vm.2.running_var f4 [16]
0	0x3f08320e	0.5320138
1	0x3f968f91	1.1762563
2	0x3f88906f	1.0669078
3	0x3f1f62c7	0.622601
4	0x3f814e02	1.0101931
5	0x3f19a83e	0.6002234
6	0x3eefa6b7	0.4680688
7	0x3f6df976	0.9295877
8	0x3f11d1a1	0.56960493
9	0x3ef6acef	0.48178813
10	0x3f5e9ba7	0.86956257
11	0x3f13e865	0.5777648
12	0x3f525308	0.82157946
13	0x3f617f82	0.88085186
14	0x3f815c21	1.010624
15	0x3f1c0c7c	0.6095655

layer2.0.weight f4 [16, 32]
0	0xbe2628d3	-0.1622651
1	0xbd88691b	-0.06660672
2	0x3dcefcf6	0.10106842
3	0x3e8a243a	0.26980764
4	0xbd97e4e5	-0.07416705
5	0xbcc5cafb	-0.02414464
6	0x3e44b2c8	0.19208825
7	0x3e892546	0.2678625
8	0x3e8eb12c	0.27869546
9	0xbe3574f0	-0.1772039
10	0xbed5ba64	-0.41743767
11	0x3e2fce30	0.17168498
12	0x3e815bf3	0.25265464
13	0x3e845d18	0.25852275
14	0x3c6f7062	0.0146141965
15	0xbe11d8d7	-0.14242874
16	0xbe01676f	-0.12637113
17	0xbea3b98a	-0.31977493
18	0xbe1bb492	-0.15205601
19	0x3daf0f1b	0.08547803
20	0x3e57f598	0.2108978
21	0xbdd80ecb	-0.105496965
22	0x3e8081d0	0.2509904
23	0x3de4ac65	0.11165694
24	0x3e14b7e2	0.1452327
25	0xbe3ecaf7	-0.18632112
26	0x3b256cae	0.002524178
27	0x3e050e28	0.12993681
28	0x3e02329b	0.12714617
29	0xbe783eb2	-0.24242666
30	0x3cc4361e	0.023951586
31	0x3e3a8694	0.182154
32	0x3e53210b	0.20618074
33	0xbe43e91b	-0.19131891
34	0x3dc7b490	0.097512364
35	0xbe5e7c4f	-0.21727107
36	0xbd240c24	-0.04005064
37	0x3e941e78	0.28929496
38	0xbbc0d790	-0.005885072
39	0x3e60b4c7	0.21943961
40	0x3df9a1fa	0.12189098
41	0x3e097e06	0.1342698
42	0xbe060981	-0.13089563
43	0x3c683f5c	0.014175262
44	0xbec7b3f4	-0.3900448
45	0x3e1f6ea0	0.15569544
46	0x3d95607a	0.07293792
47	0xbe7d50d5	-0.24737866
48	0xbe0b727c	-0.13617891
49	0x3e33ae03	0.17546849
50	0x3daeff0e	0.085447416
51	0x3dea7f87	0.11450105
52	0xbe2db4d3	-0.1696351
53	0xbcaeb876	-0.021328192
54	0x3df85d73	0.12127199
55	0xbe270a78	-0.16312587
56	0x3d7a5e58	0.06112513
57	0x3bf1c233	0.0073778867
58	0x3e9ca5b2	0.30595165
59	0xbe480482	-0.1953297
60	0xbcf43d92	-0.029814515
61	0xbd9ca392	-0.07648386
62	0xbf0c49a1	-0.5479985
63	0x3e87bc63	0.26510915
64	0x3e24b87d	0.16086002
65	0xbdfa061f	-0.12208199
66	0xbea44d21	-0.32090095
67	0x3e9c104e	0.3048119
68	0xbeb2b30c	-0.34902227
69	0xbe4f31eb	-0.20233886
70	0x3dffa57c	0.124827355
71	0xbce839ec	-0.028347932
72	0xbe8afa4b	-0.27144083
73	0x3e368ce6	0.17827186
74	0xbe8d13b2	-0.2755409
75	0x3e48cd5e	0.19609591
76	0xbebc9035	-0.3682877
77	0xbb933322	-0.0044921795
78	0xbd23d7bc	-0.040000662
79	0xbe411a31	-0.18857647
80	0x3d26f58a	0.040761508
81	0xbf1c3e40	-0.61032486
82	0xbe952aea	-0.29134303
83	0x3ec46525	0.38358417
84	0x3e8349c1	0.25642207
85	0xbedd3659	-0.43205526
86	0x3dc7ec21	0.09761835
87	0x3c937886	0.018001806
88	0xbd093309	-0.033495937
89	0xbdf71334	-0.120642096
90	0xbd594c5f	-0.05305135
91	0xbde6bb6f	-0.11266219
92	0xbe9dd11a	-0.30823594
93	0x3cdbeca7	0.026846243
94	0xbea0081e	-0.31256193
95	0x3ea6b981	0.32563403
96	0x3e581bf5	0.21104415
97	0xbe5f321a	-0.21796456
98	0x3e3b63ab	0.18299739
99	0xbc18f900	-0.00933671
100	0x3d1bc27b	0.038027268
101	0xbec762db	-0.38942608
102	0xbd02a8f8	-0.031899422
103	0x3e234589	0.15944494
104	0x3cbdcf41	0.023170115
105	0xbcd5dd5d	-0.02610653
106	0xbd28a255	-0.041170437
107	0x3eaaeb60	0.33382702
108	0x3c1fdf15	0.009757777
109	0x3e132524	0.14369637
110	0xbe296fd1	-0.16546561
111	0xbd40bdb9	-0.047055934
112	0xbe2c9216	-0.16852602
113	0x3e0c3405	0.13691719
114	0x3db82596	0.08991544
115	0xbded4470	-0.11585319
116	0xbe22de7c	-0.15905184
117	0xbdb8cd92	-0.090235844
118	0x3e5f44e3	0.21803622
119	0xbdd9440d	-0.10608683
120	0x3ea2549e	0.31705183
121	0xbd84370f	-0.06455814
122	0xbeb3e307	-0.35134146
123	0x3cb192dd	0.021676475
124	0x3d807595	0.06272427
125	0x3d8a248e	0.067452535
126	0xbeec6981	-0.46174243
127	0x3e6a23e6	0.22865257
128	0x3e6e54fb	0.23274605
129	0xbda5ca38	-0.08095211
130	0x3e13a6cd	0.14419098
131	0x3e159495	0.14607461
132	0x3e3b6206	0.18299112
133	0xbd9cecca	-0.076623514
134	0xbb916b5b	-0.0044378466
135	0x3e9cc9fb	0.3062285
136	0xbebcfe75	-0.36912885
137	0xbdd8c125	-0.105837144
138	0x3e4b8920	0.19876528
139	0xbdfaa8ed	-0.12239251
140	0xbe032419	-0.12806739
141	0xbe75f96d	-0.2402093
142	0x3deb4b32	0.11488952
143	0x3e848ffa	0.25891095
144	0xbe69c2b4	-0.2282818
145	0x3d9be1ca	0.07611425
146	0xbc0e7aa2	-0.00869623
147	0xbe84f749	-0.25969914
148	0x3e3981bd	0.18115897
149	0x3d3258a6	0.043541573
150	0x3e2acb05	0.16679008
151	0x3dad039f	0.08447956
152	0x3e0ce079	0.13757505
153	0xbe6acbce	-0.22929308
154	0xbe45fe8c	-0.19335383
155	0x3ce03149	0.027367251
156	0xbe4279b5	-0.1899174
157	0x3dd36758	0.10322446
158	0xbd6d3421	-0.057911042
159	0xbe1b70e0	-0.15179777
160	0x3e9397ba	0.28826696
161	0xbe30bd31	-0.17259671
162	0xbe085805	-0.13314827
163	0xbd92f210	-0.07175076
164	0x3c70fbe8	0.014708497
165	0x3e2215f3	0.15828685
166	0xbe342d52	-0.17595413
167	0x3e277b63	0.16355662
168	0x3e82a3f2	0.25515705
169	0xbe113f71	-0.14184357
170	0x3e169d0f	0.1470835
171	0xbd36b566	-0.04460659
172	0xbe9bd939	-0.30439165
173	0x3d789628	0.060690075
174	0x3e6e52e7	0.23273812
175	0xbdce70b7	-0.100800924
176	0xbe9aa68b	-0.30205187
177	0xbdb3c083	-0.08776953
178	0x3cafa77f	0.021442173
179	0xbde2361a	-0.11045475
180	0x3eb930c5	0.3617002
181	0xbdf594e2	-0.11991288
182	0x3dd4a69f	0.10383343
183	0x3ddb68fb	0.10713383
184	0x3e660369	0.22462238
185	0xbdfab3e4	-0.12241343
186	0x3e7ab021	0.2448125
187	0x3c20cf4a	0.009815047
188	0x3e99e57f	0.30057904
189	0x3ebc1398	0.367337
190	0xbf330799	-0.6993347
191	0xbf033780	-0.5125656
192	0x3e9e58b6	0.30927056
193	0x3e8317d8	0.2560413
194	0xbc8d5e65	-0.017256925
195	0x3b3c9d3d	0.0028780245
196	0x3d6102ff	0.054934498
197	0x3de2e5a9	0.110789604
198	0x3efa1583	0.48844537
199	0xbe15ca8a	-0.14628044
200	0x3eb7f75f	0.35930917
201	0x3e5db4ef	0.21651052
202	0x3e40236f	0.18763517
203	0x3e3eea7d	0.18644138
204	0xbddca29b	-0.10773202
205	0x3e903f2d	0.281732
206	0x3e77ffd0	0.24218678
207	0xbe209fc4	-0.15685946
208	0xbdf6bd22	-0.12047793
209	0xbe969dc4	-0.2941724
210	0x3e304526	0.17213878
211	0xbeee106e	-0.4649691
212	0x3cf47b68	0.029844001
213	0x3dd02b7f	0.10164546
214	0x3e094962	0.134069
215	0xbc32ff4c	-0.010925125
216	0xbe2f851e	-0.17140624
217	0xbd38d1cb	-0.04512195
218	0x3df2894d	0.11842594
219	0x3e6c59e4	0.23081166
220	0xbda8ceef	-0.082425945
221	0x3d101ffb	0.03518675
222	0xbe447253	-0.19184236
223	0xbe28d12d	-0.16486044
224	0x3d8357de	0.06413244
225	0x3d98489b	0.074357234
226	0x3e66e4f1	0.22548272
227	0x3eb11543	0.34586534
228	0x3e48fb2c	0.19627064
229	0x3eda8ff4	0.42687953
230	0x3f10a105	0.56495696
231	0xbe00da79	-0.1258334
232	0x3e1f3d34	0.15550691
233	0xbd5cccb5	-0.05390616
234	0xbe5be12a	-0.21472612
235	0xbdbaf9bb	-0.091296636
236	0xbcfc3722	-0.030788008
237	0xbeb2ea26	-0.34944266
238	0x3ed69cc1	0.4191647
239	0x3ec404c0	0.38284874
240	0x3ce122c7	0.027482403
241	0x3d450dce	0.04810887
242	0x3dde484d	0.10853634
243	0x3cb8b789	0.022548454
244	0xbe25cd64	-0.16191632
245	0xbdf06a13	-0.11738982
246	0x3daddb53	0.084890984
247	0xbec6b81e	-0.38812345
248	0x3d543f3b	0.051818114
249	0xbd9f6301	-0.07782555
250	0x3ee3dd0a	0.44504577
251	0xbd638fcf	-0.05555707
252	0xbeb757e6	-0.3580925
253	0xbe9e21fa	-0.30885297
254	0x3e9e0f4a	0.3087104
255	0xbe0ac056	-0.13549933

layer2.0.bias f4 [16]
0	0x3d1505fd	0.036382664
1	0x3d4e8df6	0.050428353
2	0xbd9914ad	-0.07474647
3	0xbd59410a	-0.05304054
4	0x3d39c467	0.04535332
5	0xbc11be51	-0.008895473
6	0x3dc71a5f	0.09721827
7	0x3ddb0273	0.106938265
8	0x3d81612a	0.06317361
9	0xbd8ed84b	-0.06974848
10	0xbd590eeb	-0.052992743
11	0x3b7b060b	0.0038303162
12	0x3d4653f1	0.048419897
13	0x3db558e0	0.08854842
14	0x3bedde16	0.0072591407
15	0xbd2bb0e1	-0.04191673

layer2.2.weight f4 [16]
0	0x3f8886d1	1.0666143
1	0x3f67d0df	0.90553087
2	0x3f8ed8af	1.1159877
3	0x3f65e360	0.8980007
4	0x3f65eaad	0.8981121
5	0x3f677d11	0.9042521
6	0x3f8fcd66	1.1234558
7	0x3f8e11b2	1.109915
8	0x3f8f0c6d	1.1175667
9	0x3f65a286	0.89701116
10	0x3f8df356	1.1089885
11	0x3f8f7497	1.1207455
12	0x3f63f13f	0.8903999
13	0x3f8c1471	1.0943738
14	0x3f894fc7	1.0727471
15	0x3f66d634	0.901706

layer2.2.bias f4 [16]
0	0x3d8327c6	0.064040706
1	0xbdc1bf96	-0.0946037
2	0x3dee7b8f	0.11644661
3	0xbde12f50	-0.10995352
4	0xbdcba87c	-0.09944245
5	0xbdd85db0	-0.105647445
6	0x3e0205b8	0.12697494
7	0x3df57b46	0.11986403
8	0x3df35387	0.11881166
9	0xbddde452	-0.10834564
10	0x3de42174	0.11139193
11	0x3df557d5	0.11979643
12	0xbddf52fd	-0.10904501
13	0x3dcdcf32	0.10049285
14	0x3da570f2	0.08078183
15	0xbdcff8e3	-0.10154893

layer2.2.running_mean f4 [16]
0	0x3ebad6d5	0.3649203
1	0xb9ab01ae	-0.00032616913
2	0xbf87ab52	-1.0599158
3	0xbe32a464	-0.17445523
4	0x3c66cd39	0.014087015
5	0xbdab30d1	-0.0835892
6	0x3f33f0ad	0.7028912
7	0x3f321137	0.6955752
8	0x3f52c103	0.8232576
9	0xbe5514ff	-0.2080879
10	0xbf478891	-0.7794276
11	0xbf82448d	-1.017717
12	0x3d68c928	0.056832463
13	0x3f4c43e6	0.79791105
14	0xbf004133	-0.50099486
15	0xbdc830cd	-0.09774933

layer2.2.running_var f4 [16]
0	0x3eec1e8a	0.4611705
1	0x3ed55cfc	0.41672504
2	0x3f76d0a3	0.96412104
3	0x3f261e37	0.64889854
4	0x3ea7b67c	0.32756412
5	0x3f2f6219	0.6850906
6	0x3f20cf83	0.6281664
7	0x3f8410e9	1.031766
8	0x3f05bde5	0.5224288
9	0x3f3c6cb8	0.7360339
10	0x3f3b7057	0.7321829
11	0x3f527eea	0.82224905
12	0x3e3f44a2	0.18678525
13	0x3f938dad	1.1527611
14	0x3edbfd77	0.42966816
15	0x3e92097c	0.2852286

fc_advantage.0.weight f4 [20, 16]
0	0x3b9ca37a	0.00478023
1	0x3e1106da	0.1416277
2	0x3d915fd1	0.07098354
3	0x3da1bf58	0.07897824
4	0x3e36b0ce	0.17840883
5	0x3ebd3c6f	0.3696017
6	0xbecad4e3	-0.39615545
7	0x3cf100d3	0.029419338
8	0xbeb27c04	-0.3486024
9	0x3e41c80e	0.18923971
10	0xbbc47fbb	-0.005996672
11	0x3ef4cd82	0.4781304
12	0xbe036791	-0.12832476
13	0x3dcf685b	0.10127326
14	0x3e2e8435	0.1704262
15	0x3a54a4e7	0.00081117306
16	0xbef0749d	-0.4696397
17	0xbebde661	-0.37089828
18	0xbdd5e680	-0.10444355
19	0xbd8e1d6d	-0.06939206
20	0x3e51eb76	0.20499977
21	0xbe32fa01	-0.17478181
22	0x3d61043d	0.054935683
23	0x3e8dd38c	0.2770046
24	0xbe241d60	-0.1602683
25	0xbe67c525	-0.22633798
26	0xbe97e1e1	-0.2966452
27	0xbe0cf250	-0.1376431
28	0xbf042f5b	-0.5163476
29	0xbe498a77	-0.19681726
30	0x3db50461	0.08838726
31	0xbf120d54	-0.5705159
32	0xbe877922	-0.26459605
33	0xbe323c78	-0.1740588
34	0x3d3a60dd	0.045502532
35	0xbe8198b0	-0.25311804
36	0x3eb638c7	0.35590193
37	0x3d2351e9	0.039873037
38	0xbe8c6d9f	-0.27427384
39	0xbecb7c96	-0.3974349
40	0x3e075b8b	0.13218515
41	0xbe407600	-0.18795013
42	0x3d357d08	0.044308692
43	0xbe3c0500	-0.18361282
44	0xbd8410a5	-0.06448487
45	0xbe25b794	-0.16183311
46	0x3e73b41c	0.23799175
47	0xbecd1f14	-0.40062773
48	0xbe81c077	-0.25342152
49	0xbe84f5e6	-0.25968856
50	0x3e89fa2e	0.26948684
51	0x3e1a14f4	0.15047055
52	0x3e2bedf0	0.16789985
53	0xbe399ab6	-0.18125424
54	0x3d8bc0ed	0.06823907
55	0x3e4155c9	0.1888038
56	0x3e0a41ed	0.13501711
57	0x3c35c3ab	0.011094014
58	0xbe844262	-0.25831896
59	0xbe9ce951	-0.30646756
60	0xbebcceaf	-0.36876437
61	0xbefc3d00	-0.4926529
62	0x3e1ff81f	0.15621994
63	0xbe54162c	-0.20711583
64	0xbe7e5e48	-0.24840653
65	0x3daf7ac8	0.085683405
66	0x3d4bb8d5	0.049736816
67	0x3e23bb64	0.15989453
68	0x3eef1f30	0.46703482
69	0x3f0196cf	0.5062074
70	0xbe84ede5	-0.2596275
71	0xbe323c7e	-0.17405888
72	0x3e630923	0.22171454
73	0x3eebd205	0.4605867
74	0x3dfcc791	0.12342752
75	0x3d7a3ff2	0.06109614
76	0xbe7e5487	-0.24836932
77	0x3f41d41a	0.75714266
78	0x3d21e0f8	0.039521188
79	0x3ec30ec0	0.3809719
80	0xbdbdde0a	-0.09270866
81	0xbe020067	-0.12695466
82	0x3b8a6188	0.0042230524
83	0xbe322d28	-0.17400038
84	0xbe6c46f7	-0.23073946
85	0xbea7a75d	-0.32744876
86	0xbd0483a0	-0.03235209
87	0x3d352949	0.044228826
88	0xbdf7881c	-0.12086508
89	0x3ee481e2	0.44630343
90	0xbe043517	-0.12910877
91	0xbf0017e4	-0.50036454
92	0x3d9b8e1d	0.07595465
93	0x3eb1b281	0.347065
94	0xbe94902e	-0.2901625
95	0xbd1cb7af	-0.03826111
96	0xbe8ecce2	-0.27890688
97	0xbe1fb30a	-0.15595642
98	0xbe3bb611	-0.18331172
99	0x3d3bec97	0.045879927
100	0x3e08efe8	0.13372767
101	0xbe71775f	-0.23580693
102	0xbebb0ebb	-0.36534676
103	0xbecf28e1	-0.40460876
104	0xbe01e079	-0.12683286
105	0xbe271ca2	-0.16319516
106	0x3dc79d44	0.09746793
107	0x3dee9f03	0.11651423
108	0x3dfa982d	0.122360565
109	0xbee1e99a	-0.44123536
110	0xbcaf0fd5	-0.021369854
111	0xbca1a2ef	-0.019731013
112	0x3d812492	0.06305803
113	0xbacab440	-0.0015465096
114	0x3c1183ce	0.008881522
115	0xbeec9cf9	-0.4621351
116	0x3e98f4cb	0.29874262
117	0xb9ad2759	-0.00033026448
118	0xbe147d3d	-0.145009
119	0xbc520b20	-0.012820035
120	0x3e1c8d1b	0.15288202
121	0xbe22e727	-0.1590849
122	0x3dcfb954	0.101427704
123	0xbedf0027	-0.43554804
124	0xbed77d02	-0.4208756
125	0x3ee1ce5a	0.44102746
126	0x3e5ba638	0.21450126
127	0xbe53db40	-0.20689106
128	0xbee2e375	-0.4431416
129	0xbda97afc	-0.082754105
130	0x3ce1973d	0.027537936
131	0x3c6ffcab	0.014647643
132	0x3d601157	0.054704037
133	0xbe0af30f	-0.13569282
134	0xbe246c03	-0.16056828
135	0xbe26c5ac	-0.16286343
136	0x3e013a48	0.12619889
137	0xbe5767e0	-0.21035719
138	0xbe8f7ebb	-0.28026375
139	0x3d37a6e5	0.044836897
140	0x3e7537b9	0.23947038
141	0xbdeb3dee	-0.114864215
142	0x3e60b2ea	0.2194325
143	0x3ed0fab7	0.4081628
144	0x3d4cf38c	0.050036952
145	0xbdb935a7	-0.090434365
146	0xbdfe3898	-0.12413138
147	0x3ee41e13	0.44554195
148	0x3df1a83e	0.11799668
149	0x3de4b6b2	0.11167659
150	0x3e5c0e8e	0.21489927
151	0xbe82b71b	-0.25530323
152	0xbd95d371	-0.0731572
153	0xbe61d16b	-0.22052543
154	0x3cc53e5c	0.024077587
155	0xbdae4b33	-0.08510437
156	0xbf05c89d	-0.52259237
157	0xbd2d7efb	-0.042357426
158	0xbea327f9	-0.31866434
159	0x3d2027a5	0.039100308
160	0xbdcaed30	-0.09908521
161	0x3eeddeea	0.46459132
162	0x3e668c2b	0.22514407
163	0x3e479c56	0.19493231
164	0x3e3f5390	0.1868422
165	0x3d984bf4	0.07436362
166	0xbdeb348d	-0.11484633
167	0xbc89e95b	-0.016834905
168	0x3e9f5be4	0.31124794
169	0xbef9001a	-0.4863289
170	0xbf01ee8a	-0.50754607
171	0x3c07eda4	0.008296404
172	0xbbe8e3c7	-0.0071072313
173	0x3c47845d	0.012177554
174	0x3ecf0251	0.40431455
175	0xbe3b97f4	-0.18319684
176	0xbdc58d8e	-0.0964614
177	0xbe8efb79	-0.27926233
178	0xbe31fb5b	-0.17381041
179	0xbe5a353c	-0.2130937
180	0xbdf93b21	-0.12169481
181	0xbd18a144	-0.03726317
182	0x3df2bd19	0.11852474
183	0x3e0d36e5	0.13790472
184	0xbe2bab9a	-0.1676468
185	0x3dc51696	0.096234486
186	0x3e5557ca	0.2083427
187	0xbea91c2a	-0.330293
188	0xbe7bee43	-0.24602608
189	0xbda30564	-0.079600126
190	0xbdf3a5bb	-0.11896845
191	0xbe58a40e	-0.21156332
192	0x3eac3f69	0.33642128
193	0x3d345bb5	0.04403277
194	0x3f18fb03	0.59758013
195	0x3e583655	0.21114476
196	0x3e970c79	0.29501703
197	0x3d58cda5	0.052930493
198	0x3dbe70d8	0.09298867
199	0x3ed6dbc1	0.41964534
200	0xbe0b79bc	-0.13620657
201	0xbe718e9d	-0.23589559
202	0xbea0a71b	-0.3137749
203	0xbedbf839	-0.42962816
204	0x3ef8f73e	0.4862613
205	0x3ea7f861	0.32806686
206	0x3dd0006d	0.10156331
207	0x3c5162fe	0.012779949
208	0xbef3d625	-0.47624317
209	0x3ea77011	0.32702687
210	0xbf19cd9a	-0.6007935
211	0xbc8906b4	-0.01672683
212	0xbde6fcf0	-0.11278713
213	0xbba615cc	-0.0050685164
214	0x3e179ff4	0.14807111
215	0xbc992665	-0.018695066
216	0xbe885fbf	-0.26635548
217	0xbd56a1f5	-0.052400548
218	0x3d4d1cb9	0.05007622
219	0xbdb5ec94	-0.08883014
220	0xbe31c8de	-0.17361781
221	0xbe717f82	-0.23583797
222	0x3e1819f7	0.14853655
223	0xbe43c304	-0.19117361
224	0xbe6684e4	-0.22511631
225	0xbe64e857	-0.22354256
226	0x3ebca8a7	0.36847422
227	0xbe45f258	-0.19330728
228	0x3e1f8dba	0.15581408
229	0x3d1b400a	0.03790287
230	0x3e2f3b8b	0.17112558
231	0x3e94412c	0.28955972
232	0x3b42aea4	0.0029706145
233	0xbe3cacf1	-0.18425347
234	0x3dbbc467	0.0916832
235	0xbcc3d450	-0.02390495
236	0xbde81e70	-0.113339305
237	0x3e2790d5	0.16363843
238	0xbe7b33ee	-0.24531528
239	0xbe0f7fc6	-0.14013585
240	0x3f33c57a	0.702232
241	0x3ebbbc17	0.3666694
242	0x3db148da	0.086564735
243	0x3e47ae16	0.19500002
244	0x3e0087c5	0.12551792
245	0x3e1817aa	0.14852777
246	0x3d5e0449	0.054203305
247	0x3da87760	0.08225894
248	0x3f3efeab	0.7460734
249	0x3d95013c	0.07275626
250	0x3e5626de	0.20913264
251	0x3b9069fe	0.0044071665
252	0xbe1aa8da	-0.15103474
253	0x3e95fdb6	0.2929513
254	0xbeb746a1	-0.35796073
255	0x3ded2673	0.11579599

fc_advantage.0.bias f4 [20]
0	0xbdbd1bc8	-0.092338145
1	0xbdecf82b	-0.11570772
2	0xbc9faf55	-0.019492785
3	0x3b36a124	0.0027867043
4	0x3cbbd44a	0.022928376
5	0xbc7b9886	-0.015356189
6	0xbdecee5c	-0.11568901
7	0x3d4c69d2	0.049905606
8	0xbdec065e	-0.11524652
9	0xbdafe4d0	-0.085885644
10	0xbd28ced7	-0.041212883
11	0xbd7527d5	-0.05985244
12	0x3d7588cc	0.059944913
13	0xbdecfa65	-0.115711965
14	0x3d3965af	0.04526299
15	0x3dc3c132	0.095583335
16	0x3db102f8	0.08643144
17	0x3c6c027f	0.014404892
18	0xbdecf08d	-0.11569319
19	0xbdb5aa5a	-0.088703826

fc_value.0.weight f4 [1, 16]
0	0x3c312e28	0.010814227
1	0xbdf2fbf4	-0.118644625
2	0x3f541900	0.82850647
3	0xbe469b42	-0.19395164
4	0xbd8dc0ea	-0.06921561
5	0xbe1c8044	-0.15283304
6	0x3e43f57c	0.19136614
7	0x3e192305	0.14954765
8	0x3ecacd2b	0.39609656
9	0xbe893b40	-0.26803017
10	0x3e804017	0.25048897
11	0x3f2c53b0	0.67315197
12	0xbe4bc3fb	-0.1989898
13	0x3e0193b3	0.12653999
14	0x3e4826a4	0.1954599
15	0xbde02645	-0.10944799
