save/client-4/eval.pth (torch, 21957 bytes, 27 tensors)

layer1_task.0.weight f4 [16, 3]
00000000: fed4 e1be 5f39 a53e ca1a 0e3d 09c9 f53d
00000010: d6ba 773e 4be9 cbbb 2742 e93e e42b 733e
00000020: 0d5d b5be b289 18bf 40a8 e43e f6a8 0e3e
00000030: 3780 bdbe 6d70 5f3e 396a a1be e422 85be
00000040: d08d 9fbe 2a81 153e 1954 053f 03ff 583e
00000050: 1b20 913c 6659 29bf b959 003f c4f7 203d
00000060: 0e94 30bf 24f6 6ebe 380b c13e e652 24bf
00000070: a1d8 3e3e c320 68be e555 523c 97ba 53bd
00000080: fc50 acbd d1f3 c83d 33c8 c73c 747f b2be
00000090: 76e1 843c 4fc2 ef3d 1924 cdbd c27f cf3d
000000a0: e96f 203e c0b5 6cbc 67f6 0c3e f926 09be
000000b0: 8f4a 5abe 939d a23c 026b 0dbf 98c8 8c3e
-0.44107813 0.32270333 0.034693517 0.12001235 0.24192366 -0.006222879 0.45558283 0.23747212
-0.35422555 -0.59585106 0.44659615 0.13931641 -0.37011883 0.21820231 -0.31526354 -0.26003182
-0.31162882 0.14600053 0.5208145 0.21191029 0.017715504 -0.66152036 0.50136906 0.039298788
-0.68975914 -0.23336083 0.37703872 -0.6418899 0.18637325 -0.22668748 0.012837862 -0.051691618
-0.08413884 0.09812129 0.024387455 -0.34862864 0.01622079 0.11706983 -0.10016651 0.1013179
0.1566769 -0.014447629 0.1376587 -0.13393773 -0.21317504 0.019850528 -0.55241406 0.2749679

layer1_task.0.bias f4 [16]
00000000: 80b2 523b a9a5 9dbd f9e7 9c3d 6594 c4ba
00000010: 1c85 253d f1b9 043d a74b 7e3d d43e 583c
00000020: 4eac b2bc e840 ff3c 65ea a9bd d310 8cbd
00000030: 61bd 693c 074a 2e3c e644 31bc c325 b73c
0.0032149851 -0.07697613 0.07661433 -0.0014997838 0.040410146 0.03240389 0.062083866 0.013198573
-0.021810677 0.03115888 -0.0829666 -0.068391465 0.014266343 0.010637767 -0.010819649 0.022356873

layer1_task.2.weight f4 [16]
00000000: 1785 7c3f 00f1 833f 7892 8c3f a2cf 743f
00000010: caf9 793f 7081 7c3f 07ef 793f 06db 803f
00000020: 0845 863f 7003 6d3f 51ad 863f 81d9 823f
00000030: 28d5 893f 67a9 823f da93 883f 56fb 833f
0.9864058 1.0307922 1.0982199 0.9562932 0.9764677 0.98635006 0.9763035 1.0066841
1.0489817 0.9258337 1.0521642 1.0222627 1.0768175 1.0207947 1.0670121 1.0311077

layer1_task.2.bias f4 [16]
00000000: de03 60bc e22b a73c 99ff cc3d 7e71 46bd
00000010: 5560 96bc 3646 5abb 04fc 05bc 6d5e a63c
00000020: 1f61 793d 4eb1 a2bd 98d4 223d ca23 cfba
00000030: dce5 b23d c247 e93c 7cff 8b3d 3200 373d
-0.013672797 0.020406667 0.10009689 -0.04844808 -0.018356482 -0.003330601 -0.008177761 0.020308698
0.060883638 -0.079439744 0.039753526 -0.0015803513 0.087352484 0.0284766 0.06835839 0.04467792

layer1_task.2.running_mean f4 [16]
00000000: 94c7 19c7 a261 2246 c1f6 1647 d59f 46c7
00000010: 5a97 fcc6 aa23 b2c6 227b 3347 6a77 6ac7
00000020: 2269 6cc7 a7bf 5bc7 1040 8144 4a3c 0246
00000030: 3df4 a744 2204 0a46 16cd 3946 f73c f244
-39367.58 10392.408 38646.754 -50847.832 -32331.676 -22801.832 45947.133 -60023.414
-60521.133 -56255.652 1034.002 8335.072 1343.6324 8833.033 11891.271 1937.9052

layer1_task.2.running_var f4 [16]
00000000: 413e a04d 2ad0 d34b 44d2 c34d df33 294e
00000010: b56a 7c4d aa9d e94c 679c ea4d a531 294e
00000020: 6423 4b4e 002c 3b4e b3d0 9348 5c56 7d4b
00000030: 6099 cb48 8bc6 934b f1ff ff4b 5303 7349
3.360543e+08 2.7762772e+07 4.1066714e+08 7.0968723e+08 2.6467822e+08 1.22482e+08 4.9201482e+08 7.0965075e+08
8.5202355e+08 7.8505574e+08 302725.6 1.6602716e+07 416971.0 1.9369238e+07 3.3554402e+07 995381.2

layer1_1vm.0.weight f4 [32, 40]
00000000: 9a7f 823d 8430 31be 72e5 4f3e c457 0b3e
00000010: 335a 58bd fc4f aebd c38d 0fbd 478b ad3d
00000020: e2df 25be 13d9 f5bd 3c11 133e 9e60 78be
00000030: 3902 1abb ac5a 59be a2c7 7abe 11e2 5abd
00000040: 0954 02be 9176 fa3b bd81 9e3d 605e f63c
00000050: aed0 94be 32bf 21be d07d d6bd c686 62bd
00000060: 9d06 b3bd 9a60 f03d d9a2 85be b09a 923d
00000070: f4f4 bdbd 18b4 1fbe bae2 7abe aac5 683d
00000080: 7d68 203d e5e0 713e 7b1b 5b3e ee47 9d3e
00000090: 0a90 41be 9c3a ddba d9d3 45bd 8f3f 72be
000000a0: c0d2 ae3d 6ce0 8dbc 7e7b 273e 58b1 093e
000000b0: 2367 99bd 25fd ebbd beb7 873e e174 8bbd
000000c0: 9e97 61be 3b89 b2bd fa52 4d3c 4c3e 963e
000000d0: 0074 263e 615f 3a3d 6d2a 02be ecc1 2abe
000000e0: 40ff e13d 8c80 bc3d 35ef 8abe ed0e 36bc
000000f0: de36 c03e ea26 5cbe 2f22 f93d 76f1 683e
00000100: e172 9dbc b3db 4cbb 871f 563e ae3a b0bd
00000110: 8521 de3d 73ae 7ebe 36ce 583e 9257 183e
00000120: 7e26 c4bd 669a 243e 7f25 44bd 566a 16be
00000130: ca8b 1e3e dcb0 dc3d d513 203e f340 bbbd
00000140: 900b 9e3d 18b6 343e 4708 b7bd e615 7ebd
00000150: f218 093e bf6c f4bd 28b0 ee3d 4751 e5bd
00000160: e190 6c3e f2f7 a8bd 0983 20be 170f 10bd
00000170: 6bf3 1ebd 78b1 ecbe d0e4 0fbe 2fce c9bd
00000180: 4bee 0a3e 8f34 c03c 221a febd 58f6 fe3c
00000190: e553 483e 6f3b 9abe 881d 033e 98ef 9f3c
000001a0: b583 55be 1f72 86bd 680f f23d cbd6 efbd
000001b0: 999a c2bd e043 a7bd 171e fcbc 02f5 00bd
000001c0: b3d5 0ebc bd5b 81be fd6a 32be da52 3d3d
000001d0: 29d4 93bd 7739 2e3e aa05 32be d8ef 163e
000001e0: 2e8f 473e a35c 54bd 2af5 d2be f7be 233e
000001f0: d097 aabe d744 c8bd ea8e c6bd be89 6bbe
00000200: 33d9 35bd cc44 ccbd f1e4 3abe 48f5 3abd
00000210: 7cce 70bd 28f4 9bbe f347 77bd fccd 35be
00000220: f516 ea3c 8c77 213e 4d5a 87be 5bb6 b4be
00000230: f152 6d3e f08d 18be 22da 42be ce3b acbe
00000240: 623d 75bd a7e5 be3e f249 bebd 4ec7 23be
00000250: 26d7 0fbe 6325 2ebe 213d 8b3e b5e9 0abe
00000260: 9edb 3bbe 12a6 a43d b2f9 10be d62b 56bd
00000270: 278b 753e 42c0 e53d 268c 913e f2a9 3bbc
00000280: c0e9 aa3d c163 123d 0055 b43c b9f8 033d
00000290: 598e da38 69e8 483e cef9 8dbc 56ae 633c
000002a0: 5443 4abe 5013 dd3d f358 4bbd b386 2dbe
000002b0: 336b 2f3d 20c8 51bd 5943 a93e 695e 44be
000002c0: 0df8 a7be eeac 7e3c c7b5 1ebe 2fe4 31be
000002d0: ac10 afbd 22dd 473c 0484 91be ad7f 07bd
000002e0: 94bf 4ebd 48b5 a73d 5a44 95bd a661 84bc
000002f0: 0c3f e5bd 594c aa3d 54c2 603d 5e8a 31be
00000300: d5e7 f6bd 58f7 13bd b361 64be ebcd 3c3d
00000310: 17da 733b 4d0b 693e 4d5a 07be fd26 87bd
00000320: d55a 413e a3ab fd3d 179c 033e a551 a1bc
00000330: 0287 b33e f497 a63c dd7f f83d 7cc8 a2bd
00000340: ffc2 ae3e ee96 323e b762 463d 4129 09be
00000350: 9bb7 19be 7929 9fbc 7221 30be cfbb 053d
00000360: 5d58 793e 08b0 d83d 00e5 e0be 3eda 6bbe
00000370: cd01 983e 1a63 9fbe c551 383e 014c 8cbd
00000380: 1d18 c9bb 4c03 f33c a514 3abe e610 b53d
00000390: 6f62 bfbd d693 a93b b36e a7bd a3e6 60be
000003a0: 52b7 57be a915 51bd b8af 813e 6ed7 f03d
000003b0: 2d3f 4e3e 5bc2 f8bd 1d29 8c3e 3610 a23d
000003c0: cbf7 993d 0b3f 2ebe 04e6 fbbd d3aa f3bd
000003d0: 11e8 df3d 0a29 95be 3236 39bd c34f 593e
000003e0: 8048 7ebd 50e4 a1be c99d 93bd 39a4 843e
000003f0: dda4 5cbe c9f7 98be fe6a 8e3e a0ad 143e
0.06371994 -0.17303663 0.2030237 0.13607699 -0.052820396 -0.085113496 -0.035047304 0.08473831
-0.16198686 -0.12004294 0.14362043 -0.24255607 -0.002349986 -0.21225995 -0.24490216 -0.05343825
-0.1272737 0.0076435287 0.07739589 0.030074298 -0.2906546 -0.15795591 -0.104732156 -0.05530431
-0.08741496 0.11737175 -0.26100805 0.071584105 -0.09275237 -0.15596044 -0.24500552 0.056829132
0.039162148 0.23620947 0.21397202 0.3071894 -0.18902603 -0.0016878429 -0.048297737 -0.23657058
0.08536291 -0.017318927 0.16355702 0.13446558 -0.07490375 -0.11522893 0.26507372 -0.06809402
-0.22030494 -0.08717581 0.01253199 0.29344404 0.16255188 0.045501117 -0.12711497 -0.16675538
0.11035013 0.09204206 -0.27135625 -0.011111957 0.3754186 -0.2149922 0.12164723 0.2274836
-0.019219818 -0.003125888 0.20910464 -0.08604942 0.10846237 -0.24871235 0.21172413 0.14877155
-0.09577654 0.16074523 -0.04788732 -0.14689001 0.15483013 0.10775921 0.15632565 -0.091432475
0.07717049 0.17647588 -0.08937126 -0.062032603 0.13388422 -0.11934804 0.11654693 -0.11197143
0.23102142 -0.08250417 -0.15674986 -0.03517064 -0.03880636 -0.46229148 -0.14052129 -0.098537795
0.13567464 0.023462562 -0.12407328 0.031123325 0.19563253 -0.3012347 0.12804234 0.019523427
-0.20851023 -0.065647356 0.11819345 -0.117108904 -0.095021434 -0.08167243 -0.030776067 -0.031483658
-0.008717942 -0.25265303 -0.17423625 0.04622159 -0.07218201 0.17014109 -0.17384973 0.1473993
0.19488212 -0.051846158 -0.4120267 0.15990816 -0.3331895 -0.09778755 -0.096952274 -0.23001763
-0.04439659 -0.099740595 -0.18251397 -0.045644075 -0.05879067 -0.30459714 -0.06037135 -0.17754358
0.0285754 0.1576826 -0.26436082 -0.35295376 0.23176171 -0.14897895 -0.19028524 -0.33639377
-0.059872992 0.37284586 -0.09291448 -0.15993997 -0.14046916 -0.1700645 0.27195075 -0.13565715
-0.18345496 0.08039488 -0.14157751 -0.0522879 0.23978864 0.11218311 0.28427237 -0.011454092
0.083453655 0.035739664 0.022013187 0.032219622 0.000104215644 0.19619907 -0.01733103 0.013896545
-0.19752246 0.10794699 -0.049645375 -0.16945915 0.042826843 -0.051216245 0.33059195 -0.1917664
-0.32806435 0.015544159 -0.1549903 -0.17372201 -0.08548102 0.012198718 -0.28421032 -0.033080745
-0.050475672 0.081888735 -0.07288428 -0.016159844 -0.11193666 0.083153434 0.054872826 -0.17337939
-0.12055937 -0.036124557 -0.22302894 0.046094816 0.003720885 0.22758217 -0.13218041 -0.06599233
0.18882306 0.12386253 0.12852512 -0.019692251 0.3506394 0.020336129 0.12133763 -0.079483956
0.34133145 0.17440388 0.048433986 -0.13394643 -0.15011446 -0.019428955 -0.17200258 0.03264981
0.24350114 0.1058045 -0.43924713 -0.23032472 0.29688874 -0.31130296 0.17999943 -0.06850434
-0.0061369077 0.029664658 -0.18171938 0.08841114 -0.093449466 0.005175094 -0.08175411 -0.21962981
-0.21066025 -0.051046047 0.25329375 0.1175984 0.20141287 -0.12146445 0.27375117 0.07913248
0.07517966 -0.17016236 -0.122997314 -0.118978165 0.10932935 -0.29132873 -0.0452177 0.21221833
-0.06208086 -0.316195 -0.072078295 0.25906542 -0.21547265 -0.29876545 0.27816004 0.14519358

layer1_1vm.0.bias f4 [32]
00000000: 27d6 edbb 7b0c 183b f808 2cbd 9e05 b8bd
00000010: e641 5ebd d2e7 ad3c 8f2b ea3b 7301 593d
00000020: db4f c0bc 9277 bd3c 8fb9 173c a584 843c
00000030: 013b 913c f3a9 ae39 6899 95bc 7252 863c
00000040: 0521 9cbc 40d6 03b8 09e8 753b 9bf8 abbc
00000050: f344 48bd f14f 07bd 01e5 bcbb 127d a73c
00000060: c9f4 eebc 47b8 533d c0d3 12bd e862 8e3d
00000070: 2cdd 7f3c 1008 c93c e7b9 eebc 34d1 12bd
-0.007258195 0.0023200798 -0.04200074 -0.089854464 -0.054262064 0.021228705 0.007146306 0.052979898
-0.023475578 0.023128305 0.009260549 0.016176531 0.01772833 0.00033314488 -0.018261626 0.016396735
-0.019058714 -3.143237e-05 0.0037522337 -0.020992568 -0.04889388 -0.033035222 -0.005764604 0.02044538
-0.029169457 0.051689412 -0.03584647 0.069524586 0.015616696 0.024539977 -0.02914138 -0.035844043

layer1_1vm.2.weight f4 [32]
00000000: 05bf 803f 4f3c 7b3f 903b 843f 50a1 843f
00000010: 26ee 833f edd8 813f ce66 823f f69a 7f3f
00000020: 79c2 7f3f 4ed6 803f 54c9 7e3f fe83 703f
00000030: 27de 863f 8b35 803f 4218 853f 02d3 813f
00000040: 2d5f 7e3f 7002 833f 5048 753f cb41 803f
00000050: 1f4d 823f f0bb 7d3f dd74 7e3f 3289 7e3f
00000060: c53f 853f 7234 833f 0d14 823f f6c1 773f
00000070: 7a83 803f d972 723f 2d5a 7c3f 5087 863f
1.0058295 0.981389 1.0330677 1.0361729 1.0307052 1.0144325 1.0187624 0.99845827
0.99906117 1.0065401 0.9952595 0.93951404 1.0536546 1.001634 1.0398028 1.014252
0.99363977 1.0235119 0.95813465 1.0020078 1.0179785 0.99114895 0.9939707 0.99428093
1.0410086 1.025038 1.0162369 0.96780336 1.0040123 0.94706494 0.985751 1.0510044

layer1_1vm.2.bias f4 [32]
00000000: 3494 b63b 34b5 91bc a42b 623c d669 cf3a
00000010: 5e5d 003d f0a6 513c 51e8 5f3c fa44 993c
00000020: dbaa 09bc b0a6 2b3c 682c e8bb 9d5a 4fbd
00000030: c073 6a3d b8ed bb39 8645 063d 643c 613c
00000040: 78c6 c2bb 96ce ba3c ad1d 39bd 2e35 2e3c
00000050: 01e4 bb3c 6a9c 5fbc 61c3 b2bb d683 b8bb
00000060: dbf4 383d 4492 003d 27a8 303c 9a80 1a3b
00000070: df3a 5b3c ab2b 48bd 5060 61bc 4285 893c
0.0055718664 -0.0177866 0.01380435 0.0015824388 0.031339042 0.012796149 0.013666228 0.018709648
-0.0084025515 0.010476753 -0.0070853718 -0.050623525 0.057239294 0.00035844534 0.032781146 0.013747308
-0.0059440695 0.022803586 -0.045194317 0.010632796 0.02293587 -0.013648132 -0.00545542 -0.0056309504
0.045155387 0.03138949 0.010782278 0.0023575188 0.013380735 -0.04886977 -0.013755873 0.016787175

layer1_1vm.2.running_mean f4 [32]
00000000: 2f07 f0c5 ed93 e745 d244 4bc5 c351 4fc5
00000010: 5426 f9c5 4eff 9d45 b250 4dc5 37bf b545
00000020: 3625 d644 8691 9645 656b f9c4 0fea 9ac4
00000030: 0577 9c45 156e a8c5 f289 bdc4 6f80 ab45
00000040: bc97 7c45 57e5 07c5 3030 56c5 fe69 02c6
00000050: 980f 0ec5 8496 85c5 2444 b7c4 b54b cac4
00000060: 0ca1 9ec5 3a30 4546 4f9c 9dc5 28bc 3d44
00000070: fff7 4446 a504 d845 4cb2 2745 b959 dd44
-7680.898 7410.4907 -3252.3013 -3317.11 -7972.791 5055.913 -3285.0435 5815.902
1713.1628 4818.1904 -1995.3561 -1239.3143 5006.8774 -5389.7603 -1516.3108 5488.054
4041.4834 -2174.3337 -3427.0117 -8346.498 -2272.9746 -4274.8145 -1466.1294 -1618.3658
-5076.131 12620.057 -5043.5386 758.93994 12605.999 6912.5806 2683.1436 1770.8038

layer1_1vm.2.running_var f4 [32]
00000000: 48af 704b e3cc 294b 9f1f 444a 6284 464a
00000010: 57d0 7e4b d547 c34a 6bd0 1e4a c090 ed4a
00000020: 44fd 2749 ae31 b14a c221 8549 a6e3 c448
00000030: 41ce cc4a 1f36 ce4a 994e 3c49 0fd4 024b
00000040: 39fb 854a 3b1f 8b49 b968 4d4a bd55 8c4b
00000050: c8cc 8549 0a04 8f4a 6220 f148 3c67 3649
00000060: e9d5 b64a 00b3 074c 0432 ae4a 57cd 4e49
00000070: d747 0d4c e738 344b 1bd7 e249 f6e8 e949
1.5773512e+07 1.1128035e+07 3.2132878e+06 3.2525045e+06 1.6699479e+07 6.3989545e+06 2.6020108e+06 7.784544e+06
688084.25 5.806295e+06 1.0906162e+06 403229.2 6.7110725e+06 6.7571355e+06 771305.56 8.573967e+06
4.3903005e+06 1.1396874e+06 3.3654222e+06 1.8393978e+07 1.096089e+06 4.686341e+06 493827.06 747123.75
5.9911565e+06 3.5572736e+07 5.708034e+06 847061.44 3.7035868e+07 1.1811047e+07 1.8582754e+06 1.9161908e+06

layer1_2vm.0.weight f4 [16, 32]
00000000: 33ec e43c eb03 233d 8764 6fbe 630d acbd
00000010: 7cf0 26be ef54 863e 7a48 6dbc 89a8 cd3c
00000020: 0361 9ebe d85b a63d 81ee a7bd 4a69 ed3d
00000030: 579e 753e 4517 bb3e 5118 dbbe 4751 8dbe
00000040: c3a7 84be 3a3b 023d 66c6 2c3d e374 89bd
00000050: d124 acbe 424a 693e 5700 883e 067c 623e
00000060: c0a6 943e 1efa 1ebe f308 afbd 3906 20be
00000070: 6c52 5fbe f7aa 913e 2fd5 b23d a408 7ebe
00000080: 9855 ecbe 9920 0bbe e391 a8be 7fef 193d
00000090: 3560 45be ff7a 9b3e c448 34bd dbd5 bd3c
000000a0: 98d9 483e f2df fe3d a9b4 8d3d b30d 593d
000000b0: b99c 29bd 7e66 4d3e 29c8 63bd f89e ea3e
000000c0: 38f4 d63d 0c52 163e df9b 853e a69c c33e
000000d0: 32fb aabe 4374 afbe 223a cfbe c387 403c
000000e0: 05f3 553e 4747 b53c c90f e6bd ccb0 7e3e
000000f0: b7fc 9a3d 2214 723d 713a 61bd 1ec3 b9be
00000100: 0fd0 5dbe c3aa 4dbe 00b6 edbc 2a04 1d3d
00000110: 01fd 01be a5ba 7f3e 8e8e 863e ea79 0c3d
00000120: 044a 89be 4871 9e3d 28de da3d 48da bdbd
00000130: 1792 213e 6bdd 943d 9c0c 8b3d b59c c43d
00000140: 2f8b 213e 4ec8 49be af6f 8d3e 0b64 9b3e
00000150: f5b0 34be 2634 aebe 56cd d53e 5f57 533e
00000160: 8127 8bbe 8151 82bd 6c65 ebbe 47ae 973d
00000170: 4e60 cc3b e76c 5c3e 2927 5fbc fe1e 133e
00000180: e9c7 7a3e ebc4 683d 780f 1abe 4fcd 233e
00000190: 783d 93bd ab60 dbbd bf84 6d3d ac32 c6be
000001a0: c9ab d93e 8fcd 193d 6f27 403e 00b6 54bd
000001b0: f621 ee3d 968d 663e ad86 123e 10f4 653e
000001c0: cf4d 94bd 9e6a 2c3e d35a a43d 8b29 9cbb
000001d0: 8675 02bd bf50 3fbd 2765 d9bc a506 7f3d
000001e0: 0c90 823d 6ae2 363e b1ac a73e 85dc 763d
000001f0: cbd6 e6bd 9557 8fbd 163a 623e 684e e33d
00000200: 5565 4b3d 4e8d 34be 4d7f c43d 93cc cb3e
00000210: d650 553d 1f3d 5cb9 63f1 3e3e e9b9 d03e
00000220: 9588 24be 4b69 7cbe 5737 aa3d 5dcd 4fbd
00000230: 9a3a 053f d99f 20bd fc59 ac3e 3ef5 803d
00000240: 867a f5be bb8b 85be 54fd 22be 60a0 f33d
00000250: 84af a6bd 71c2 ffbd c5e6 11be 5dec 683d
00000260: aed4 953e bebd e8be 0f06 503e 02fb 023f
00000270: b70c 87bd bc26 08be d8c8 4b3e 1cec 0d3e
00000280: 56ef f33e 1293 0ebe 8bd8 7ebe d6f6 533d
00000290: 95f7 d93d 7e5d c6bd a4df 763c 1087 2fbc
000002a0: 4daa a9be c76e a13e 62b7 ab3b 7221 de3e
000002b0: 9e48 953d 75e7 293e 1dec febd c5c8 8d3e
000002c0: 6bb5 7ebe 7392 f73d e2b9 943e cb3f bbbd
000002d0: 7d00 263e 0d79 95be 6e74 533e e10b 413e
000002e0: 109e a3be 47fa 80be da8a 833d d247 b5bd
000002f0: 33ae 0c3f bed2 82bb 1dba 553e 75d2 f1bc
00000300: dc87 0a3d f882 9b3c a19a 923e a013 023e
00000310: 9203 8cbe 4aba 0dbe 128c 813d b5ba 91be
00000320: b9fe b23d 3979 9abe ee95 613e 49d6 6c3e
00000330: 941b 48bd facb 15be 1cc6 32be 90a7 193c
00000340: f125 243e 64f3 4ebe 0528 113e d4cb 823e
00000350: e42f 853e f879 af3d 3c19 043e e2ce 42be
00000360: 6e41 0abe 9484 2ebe a25e 053e c0c7 273e
00000370: 3083 123e ecea c4bb 5227 8f3d 43f8 f13d
00000380: 8d54 2abe db95 f03d 04ba 0c3d 3479 13be
00000390: 4dd9 ff3c 7391 623d 4748 2abe bdfb 033e
000003a0: c093 02bf d7a8 ee3d 6318 143e 4e29 523e
000003b0: bfe4 fe3c bc09 613e 56b3 7abe c87b 91be
000003c0: 9f67 babd 6922 52bd e3c6 dd3b 357b 33be
000003d0: 8ec3 d43c ef8b 21bd df85 8abc e475 723c
000003e0: 887d d7b9 037b f83c 5b45 55be 6923 09be
000003f0: b666 8a3e 513e 163d 39b3 aabd cb1d b13c
0.02794466 0.03979866 -0.23378192 -0.08400991 -0.16302675 0.26236674 -0.014482612 0.025104778
-0.3093339 0.081229866 -0.08199788 0.11592348 0.23986183 0.3654119 -0.4279199 -0.27601072
-0.25909242 0.031794764 0.042181395 -0.067117475 -0.3362184 0.22782233 0.2656276 0.22117624
0.2903347 -0.155251 -0.08546629 -0.15627374 -0.21808785 0.28450748 0.08732068 -0.24807984
-0.46159053 -0.13586654 -0.32923803 0.037581917 -0.19274981 0.30367276 -0.044014707 0.023173263
0.19614255 0.12445058 0.06919224 0.05299158 -0.041409228 0.20058629 -0.05561081 0.4582441
0.104958 0.14679736 0.26095483 0.3820545 -0.33394772 -0.34268388 -0.4047404 0.011751118
0.20893486 0.022128714 -0.112334795 0.2487213 0.07567733 0.05910123 -0.054987375 -0.36281675
-0.216614 -0.20084672 -0.029017448 0.03833405 -0.1269417 0.24973543 0.26280636 0.034295954
-0.26814282 0.077364504 0.10686904 -0.092701495 0.15778385 0.072687946 0.067895144 0.09600202
0.1577575 -0.19705316 0.2762427 0.30349764 -0.17645629 -0.3402416 0.4175822 0.20638798
-0.27178577 -0.06363202 -0.45975816 0.07406288 0.0062370664 0.21525918 -0.013620176 0.14367291
0.24490322 0.05682842 -0.15044963 0.15996288 -0.071894586 -0.10711797 0.057987925 -0.38710535
0.42513874 0.03754955 0.18765043 -0.05193138 0.11627571 0.22514948 0.14309187 0.22456384
-0.07241403 0.16837546 0.08025136 -0.0047656945 -0.03185036 -0.046707865 -0.026537491 0.062262196
0.06375131 0.17859808 0.3274894 0.060268898 -0.11271437 -0.06999127 0.2209247 0.11098939
0.049657185 -0.17632028 0.09594593 0.39804515 0.052079044 -0.00021003604 0.18646769 0.40766838
-0.16067727 -0.24649541 0.083113365 -0.05073296 0.52042544 -0.039214943 0.33662403 0.06296776
-0.4794504 -0.26083168 -0.1591695 0.118958235 -0.08138946 -0.12488259 -0.14248188 0.05686604
0.29263824 -0.45457262 0.20314811 0.5116426 -0.06594222 -0.13296026 0.19900835 0.138596
0.47643536 -0.1392329 -0.24887292 0.051749073 0.10642926 -0.09685801 0.0150679685 -0.010713354
-0.33137742 0.3152983 0.005240367 0.43384892 0.07289241 0.165922 -0.12447379 0.27692237
-0.24873893 0.1208848 0.29048067 -0.09143027 0.16211124 -0.29193917 0.20649883 0.18852188
-0.3195653 -0.25190946 0.06422968 -0.08851589 0.54953307 -0.0039924076 0.20871778 -0.029519299
0.03382097 0.01898335 0.28633597 0.12702799 -0.27346474 -0.13840595 0.063255444 -0.2846276
0.08739991 -0.3017061 0.2202985 0.23128618 -0.048854426 -0.14628592 -0.17458385 0.009378329
0.16030098 -0.20210034 0.14175422 0.25546134 0.260131 0.085681856 0.12900251 -0.19024232
-0.13501522 -0.17042762 0.13024381 0.16384792 0.14307857 -0.00600945 0.06989922 0.1181493
-0.16633816 0.11747333 0.034357086 -0.14401704 0.031231547 0.055314492 -0.16629134 0.12889
-0.510067 0.116532974 0.14462428 0.20523569 0.031114934 0.2197637 -0.24482474 -0.2841475
-0.091017954 -0.051302347 0.006768094 -0.17527469 0.025972154 -0.03944009 -0.016909538 0.014798615
-0.00041101524 0.030332094 -0.20827238 -0.13392414 0.27031487 0.036680523 -0.08334965 0.021620652

layer1_2vm.0.bias f4 [16]
00000000: 253d 95bc cc53 ab3c 3a1e b83c 5e53 833d
00000010: 4d89 a7bc 6bea 5e3c da2e 72bb 839a 9b3b
00000020: f2f5 3fbd 9d20 01bd f02e 423d 59ab 84bc
00000030: 9751 9a3b 71da e03c adcd 37bc 7616 a7bc
-0.018217633 0.02091398 0.02247535 0.064123854 -0.020451212 0.013605694 -0.0036954195 0.004748644
-0.04686541 -0.031525243 0.047408044 -0.016194986 0.0047094333 0.027447911 -0.0112184705 -0.020396452

layer1_2vm.2.weight f4 [16]
00000000: e597 773f bda7 7e3f e1d2 733f 6934 803f
00000010: 343e 883f 5ed6 743f ee95 7a3f 3131 823f
00000020: 4828 873f a6b6 7f3f b835 7b3f 91ef 743f
00000030: 07f7 763f ce3c 7d3f d6a2 753f 65e6 843f
0.9671615 0.994747 0.9524365 1.0015994 1.0643983 0.956396 0.97885025 1.0171262
1.0559168 0.99888074 0.98128843 0.9567805 0.96470684 0.98920906 0.9595159 1.0382811

layer1_2vm.2.bias f4 [16]
00000000: dee6 62bb 654e 23bd 57db d93b ff71 1f3d
00000010: 767e 2b3d be3a 1abc 9993 8abc c563 183d
00000020: 39ee 7c3d c1ca 0bbd d118 0f3d b525 d03c
00000030: ab3b 1abc 21bc 253c b388 31bc 8cda 813d
-0.003462247 -0.039869685 0.006648462 0.038927075 0.04186865 -0.009413419 -0.016916083 0.037204523
0.061750624 -0.034128908 0.034935776 0.025408605 -0.00941364 0.010115654 -0.010835814 0.06340513

layer1_2vm.2.running_mean f4 [16]
00000000: 0542 86be 9896 8c3d dbd9 853e 55ca 583f
00000010: fd5e 053f f625 113f 52f6 7a3e c592 a8be
00000020: da18 8cbe 9f9e 153e 92cf 383e 523a d7be
00000030: d3f4 853e 99dc 453e 998a 1d3d df91 36bf
-0.26222244 0.06864661 0.26142773 0.84683734 0.52098066 0.5669855 0.24508026 -0.32924476
-0.2736271 0.1461129 0.18047932 -0.42036682 0.2616335 0.19322433 0.038462255 -0.7131633

layer1_2vm.2.running_var f4 [16]
00000000: 9f8c 3f3f dc7f 893f 48c7 663f 93ea 123f
00000010: 2283 5d3f a07f 603f cf26 123f e088 a83e
00000020: ea12 2b3f e9a5 793f 9248 4d3f ebb7 b03f
00000030: 20af 1b3f d688 003f 1396 5b3f 1bbc 313f
0.74823946 1.0742145 0.9014783 0.5738918 0.8652822 0.8769474 0.5709047 0.32916927
0.66825736 0.97518784 0.8018886 1.3806127 0.60814095 0.50208795 0.8577587 0.6942765

layer2.0.weight f4 [16, 32]
00000000: 1bf7 7f3d 280d 023e 5efd 833d baae 83bd
00000010: 29d0 55be 87f8 5dbe e685 d63d 6b23 913e
00000020: f166 a63e 7dd7 ba3c 792e 953e 69c7 b43c
00000030: 44c2 bf3e bf6e ba3d 5f5d 793e 4449 0cbe
00000040: 648b 27bd 6733 563e 1ef5 a2be 2366 9b3e
00000050: 4b48 263d 3826 353d 9d66 eebc be90 a7be
00000060: 063b ad3e de57 863e 416b 913d bf7b 243d
00000070: 3ac7 88be 6e96 0bbe 981c dcbe 48c8 8cbd
00000080: 1aee 313e 07a9 373d 6b90 06be 3039 edbc
00000090: 3a8a 4abe 79e1 5e3e 83be 5e3e ce7f f03c
000000a0: 768d 0b3e 9340 84be ee16 663e e8ea 223e
000000b0: 1596 2f3e 3d34 cf3e 74c0 693e 707c 4fbd
000000c0: 7a07 17be d09b 263d 8a8f 143e f4ac 813e
000000d0: 4c9a 073e dfb1 95be 4626 b73e e69b 423b
000000e0: a6c6 133f bcba 17be 9445 c6bd 3ab1 183e
000000f0: 5824 a6be e585 953c e8e2 f83e b9a2 fabb
00000100: 50d2 9cbe 3782 87be f4eb f53c 852e 78be
00000110: d7e1 fb3c 05e5 bf3e 5006 563e 71d7 eb3d
00000120: d99b 933e 7ab5 22be ac70 f2bd 3f84 22be
00000130: 77d3 573e 5763 f23e 9730 60be f7f4 e03d
00000140: 8fa0 773c 2a9f 01bd d055 743e 906a fd3d
00000150: 2089 8e3e c7a2 8c3e 17bf 3bbd 40f2 a03d
00000160: 3047 373e 77f4 d23d 38a6 8ebd 612d 013e
00000170: ee05 743d 9399 f1bd 76f9 8f3d bdfe 8bbe
00000180: cae8 81be b8cb 7fbd d71f 37be 682a 2abb
00000190: 7f63 0cbe 2384 5cbe b514 953d 9504 a53e
000001a0: 3f7e 94be c002 23bd 4885 60bd 7561 08be
000001b0: e80a 493e 8bf7 bcbd 68e4 d0be f287 203e
000001c0: d0e1 3c3b d6b3 5f3d cf09 79bd 98fa bbbe
000001d0: 9fc9 9abd b6b8 a3be 6f40 fb3d 06a9 4dbd
000001e0: c650 c63d e532 043d af27 6b3d d427 4e3e
000001f0: a7cf f03d 2c5d 08be fd2d d53d 8188 383d
00000200: 058b 183e aad9 58be 7359 153d ccf6 7a3d
00000210: f37f 253e 87f3 35be b7ae 9abe c18d 2c3d
00000220: 5987 ab3d 2950 57bd f38a ccbe 1870 c7bd
00000230: d65b d13d 152b 603e 6378 b2ba b1bd 46be
00000240: 4758 603d c223 a13d 42c7 163e 229b 0abc
00000250: 9883 7b3e 6545 463d 7589 ce3d 5906 6dbe
00000260: 3c50 aabd 4883 49be 5b2c a0be 43be 0ebe
00000270: ad8c 163e 8ad2 f2bc afc2 b8bd e5d5 96be
00000280: fbe9 0dbe 8171 c83d a9ed d83e fe99 fa3c
00000290: 245f 4ebe b1c9 f73e 9fd3 c23d 4e84 a43e
000002a0: 6e7d 273e 6d00 4cbe fcfc 0fbe 1f25 8e3d
000002b0: f4ad 413f de3d 9c3e e638 93bc 31a2 64be
000002c0: c195 9abe e348 b6be fdd9 c13c 0f52 4b3d
000002d0: 5459 d13d 9b81 01bf 600c 0a3e d3c4 da3e
000002e0: 79b3 953e c976 65bc 2672 1ebe a83a ad3d
000002f0: 5212 0f3e 4e25 e8bd 92c7 d63d 4054 f33d
00000300: 46e2 0e3e 5580 d1bd 2f99 f83d 0e3c cdbe
00000310: 759a 513e 8380 2abe bde6 1fbe 63a0 073d
00000320: 0dfb 953e 8140 2cbe 75d6 963d 42d6 433e
00000330: 2bf3 073d 2086 093d 33a7 87bd 651d 6abd
00000340: a38d 5d3b ae17 84bd 0847 9a3e 5f50 65bd
00000350: c728 133b b7b2 753d 2b67 1a3e 7b5b cbbe
00000360: 589f efbe 6152 d43d c9ac 113e e31d debd
00000370: 2461 c13d 5633 123e d5e2 9a3d 89af a73a
00000380: 053d 8d3c 9c7f 0c3e 489b e23c cdf3 58be
00000390: 068b c13d 1f46 99be f896 12be 44ee 35bd
000003a0: 44ea 30be f9dd c6bd 04d4 a0bd eaba c43e
000003b0: 6c97 b93e cbb2 43be ce27 243e a698 abbd
000003c0: 665a d0bd 4dd1 1dbc 8b7a 8e3e bdcf efbc
000003d0: 9f05 833e fb20 a53d d29a 46be b786 09be
000003e0: 2e02 903d d2ff 96be feae cbbc 9750 8bbb
000003f0: 0568 763e 629f fe3c 4982 cc3d fd20 f0bd
0.062491518 0.12700331 0.0644481 -0.06429811 -0.20880188 -0.21676837 0.10474758 0.28347334
0.32500413 0.022807831 0.29137018 0.022067742 0.374529 0.091031544 0.24352024 -0.13699824
-0.040904418 0.20918046 -0.31827635 0.30351362 0.040596288 0.0442259 -0.029101664 -0.32727617
0.33834094 0.26238912 0.07100535 0.040157076 -0.26714498 -0.13631603 -0.42990565 -0.06874138
0.17375985 0.04483893 -0.13141029 -0.028957933 -0.19779292 0.21765698 0.21752362 0.029357817
0.13628182 -0.25830516 0.22469684 0.15909922 0.17147096 0.40469542 0.22827321 -0.050655782
-0.14748946 0.040675938 0.14507881 0.25327265 0.13242453 -0.29237267 0.35771388 0.0029694973
0.5772499 -0.14817327 -0.0968124 0.14911357 -0.32449603 0.018252322 0.48610616 -0.0076487926
-0.30629206 -0.26466534 0.030019738 -0.24236496 0.030747337 0.37479416 0.20900846 0.115157016
0.2882984 -0.1588954 -0.11837897 -0.1587076 0.21076761 0.47341415 -0.21893536 0.10984223
0.015113964 -0.03164593 0.2386086 0.12373841 0.27838993 0.2746794 -0.045836534 0.078587055
0.1789825 0.10300534 -0.069652975 0.12614967 0.059575967 -0.1179687 0.07030003 -0.27342787
-0.25372916 -0.06245014 -0.1788324 -0.0025965218 -0.1370983 -0.21534781 0.0727934 0.32230058
-0.29002568 -0.039797544 -0.054814607 -0.13318427 0.19633067 -0.092269026 -0.4079926 0.15676859
0.0028821118 0.054614864 -0.06080037 -0.36714625 -0.075579874 -0.3197686 0.12268149 -0.05021002
0.09683375 0.0322751 0.057410892 0.2013238 0.117583565 -0.13316792 0.10409162 0.045052055
0.14896782 -0.21176782 0.03646226 0.06127052 0.1616209 -0.1776868 -0.30211422 0.042127375
0.08375425 -0.05256668 -0.3994976 -0.09738177 0.102225944 0.21891434 -0.00136162 -0.19408299
0.054771688 0.078681484 0.14724448 -0.008459838 0.24561918 0.048406024 0.100848116 -0.23146953
-0.08316085 -0.19678986 -0.3128384 -0.13939767 0.14702101 -0.029641408 -0.09021508 -0.29460064
-0.13858788 0.09787274 0.4236882 0.030591007 -0.20153481 0.48396066 0.0951302 0.3213219
0.16356441 -0.19922037 -0.1406135 0.06940674 0.75656056 0.3051595 -0.017971467 -0.22327496
-0.30192378 -0.35602483 0.023663515 0.049638804 0.10222116 -0.5058839 0.13481283 0.4272829
0.2923849 -0.014005371 -0.15473232 0.084584534 0.13971832 -0.1133524 0.10487284 0.11881304
0.13953504 -0.102295555 0.121385925 -0.4008488 0.20469077 -0.16650586 -0.15615363 0.03311194
0.292931 -0.16821481 0.07365123 0.19124702 0.033190887 0.033575177 -0.066236876 -0.05715694
0.0033806346 -0.06449829 0.30132318 -0.05598485 0.0022454725 0.05998489 0.15078418 -0.39718232
-0.46801257 0.10367275 0.14226069 -0.10845544 0.09442356 0.14277396 0.07562796 0.0012793402
0.01724101 0.13720554 0.027661934 -0.21186753 0.09450345 -0.2993631 -0.14315403 -0.04441668
-0.17276865 -0.09710307 -0.07852939 0.38423854 0.36248338 -0.19111173 0.1603081 -0.08378725
-0.10173492 -0.009632421 0.27827868 -0.029273862 0.25590226 0.08062931 -0.19394997 -0.13430296
0.07031666 -0.2949205 -0.024863716 -0.0042515504 0.24063118 0.031081859 0.099857874 -0.11725042

layer2.0.bias f4 [16]
00000000: 103d 6d3d 6c06 c53d 23ec 073e 75af 03bd
00000010: 00c7 adbd 4043 053e a1e0 373d cf58 adbc
00000020: 2e0a 1cbd 5231 c73c 0e67 7ebd 5dda 073d
00000030: e6a7 6abc df1d 28bd 6583 023e 4b27 323d
0.057919562 0.096203655 0.13273673 -0.03214975 -0.08485222 0.13013935 0.044891957 -0.021160511
-0.038095646 0.02431551 -0.06211 0.03316723 -0.014322257 -0.041044112 0.12745436 0.043494504

layer2.2.weight f4 [16]
00000000: ae76 893f c573 933f 750c 923f 61ed 8c3f
00000010: 96c5 933f 15dc 933f be01 643f ae21 603f
00000020: 9123 933f ae6b 893f 8cad 933f b7d7 753f
00000030: 8b43 933f d9b0 933f 77c9 933f 84ad 8f3f
1.0739343 1.1519705 1.1410052 1.1009942 1.1544673 1.1551539 0.8906516 0.8755139
1.1495229 1.0735986 1.1537337 0.9603228 1.1504987 1.1538345 1.1545857 1.1224828

layer2.2.bias f4 [16]
00000000: 1305 913d 4944 1f3e 0fb9 1b3e c786 c73d
00000010: 0676 1f3e 7a30 1d3e aeb8 d5bd fb6e 07be
00000020: 3c23 1c3e b655 983d bc1f 1a3e e260 3cbd
00000030: fb00 1b3e caa3 1f3e 5c26 213e 1e32 113e
0.07081046 0.15553392 0.15207313 0.097425036 0.15572366 0.15350524 -0.104356155 -0.1322593
0.15247816 0.07438223 0.15051168 -0.045990832 0.15137093 0.15589824 0.15737289 0.14179274

layer2.2.running_mean f4 [16]
00000000: 5e35 163f 97ba 923f be35 393f 8a94 13bf
00000010: 4d5e 0ebf 6e2d 843f 5677 b23c e2b1 ed3c
00000020: 8573 a3bf 92ca ddbd 7015 5fbf 0e84 b1bd
00000030: fe9b 42bf fd1f 59bf 6dad 7e3f 3544 203e
0.5867518 1.1463193 0.7234763 -0.5764853 -0.5561264 1.0326364 0.02178542 0.029015485
-1.2769629 -0.10829653 -0.87142086 -0.086677656 -0.76019275 -0.84814435 0.99483377 0.15651019

layer2.2.running_var f4 [16]
00000000: cb6c 3b3f 9ef7 8b3f 5504 403f c463 053f
00000010: 635b cb3e c204 843f b5b7 ed3e 2f67 d33e
00000020: bc31 783f 9aaa 303f 817b 543f 2553 c63e
00000030: 5b67 353f 2689 283f 75b4 7f3f c934 ef3e
0.7321288 1.0934942 0.7500661 0.52105355 0.3971816 1.0313952 0.4642922 0.4128966
0.9695089 0.6901032 0.8300095 0.3873531 0.7086083 0.6583427 0.9988473 0.4671996

fc_advantage.0.weight f4 [20, 16]
00000000: 9860 ea3d d7a2 c83e 4bdc 233f 41c4 473e
00000010: 9e70 283e 4879 3a3f 4aa2 573e 12d3 83bd
00000020: 2703 aabe 85ee 843e 4847 143e c342 593e
00000030: cdb1 053d ef3f 523e ee1c ba3e 6a60 ad3e
00000040: 919a 113f 6ba3 c0be 3db0 b8be 46e0 5dbd
00000050: 0e06 0a3f b7f9 e13e a024 c83e e346 0f3e
00000060: eb08 9b3e 3f44 50be df9a a53d 9126 dd3e
00000070: be6b fa3d fbc4 ba3e c64a 1ebe 6d9e 343d
00000080: 7f27 db3b 37e7 8abe 424e 9a3e b48a 0a3e
00000090: d878 0dbd 9097 e43e 79c5 053e 9681 f4bd
000000a0: 2c01 643c 3f34 183e 85b0 d93d 4cc5 e8be
000000b0: 9e01 fbbe 96f0 193e 21a0 c53e a2fa 563e
000000c0: 5940 a33e b506 e2bd 8e81 ac3d 2034 ab3e
000000d0: 6dc7 983e f7f8 a9bd a9e9 db3e 32d8 3bbe
000000e0: 05ba ab3e 909c 6b3d f081 813e fdfe 7cbe
000000f0: b18f 1a3d d56d 973d 56ae c33d a2aa 713e
00000100: 2dde 60be ff0e 91bd 7012 703e 8eca 33be
00000110: 73c6 283e afaf 813e 74d9 633e 4265 933c
00000120: 0a6a 3bbb b5c6 e73e 8677 fc3e 688b 893e
00000130: d41c 533e f550 573e 2064 623e f336 ecbb
00000140: 3f97 5b3c 6916 bebe 6c52 8d3e 7f16 6abe
00000150: f43f b73c bc87 a13e c799 82be ae19 523e
00000160: b724 82be c107 1f3e 8a42 d63e c526 153f
00000170: aaca 453e d138 42be 7908 b6bd 2c54 2abd
00000180: 2c46 03bd 8ed2 a3be 81fb c1be 0958 debd
00000190: 4293 a0be 6edb 49be a3ca 603d 2d0e 74bd
000001a0: 8d35 01bf c38c 003e 7ff4 0cbe a34d 87be
000001b0: d2e1 d83d 6ac2 073e d7d1 9ebe 9b38 f0bd
000001c0: f85a 3c3e f0f6 9c3d ea51 6abe fa1b 36bc
000001d0: 1be3 82be 4257 d3bc 76a0 01bd e04a f1bd
000001e0: da40 f5bb 7707 3c3a 8655 16bf 099b 383e
000001f0: a79e b7be 6722 0fbd a3dc 92bd ba98 e3be
00000200: 4a35 f7bd dccc 97be 9e6f f0bd 5bbe b8be
00000210: 6d3f c5bd 137a 84be ac55 873e 4982 abbc
00000220: 3ea0 4d3c 4e65 afbe ba77 da3c 1d8a b53c
00000230: 437a 7cbe d163 433c 2730 0bbe 87bc abbe
00000240: cc88 a2be 4c2a 513e 560c 78bc 97e5 d03d
00000250: ab6e b53e 0a40 9ebe 8980 e6be aad6 c7bd
00000260: 5175 2f3c 65c4 3c3e 5f3f 9cbe 79d4 efbe
00000270: 0211 cc3c f8bf d63d b3ee 0b3d d88b 13be
00000280: b128 803d 8567 3fbd f12f 57be 1d46 44be
00000290: 5feb 883e 0432 bebe 63be bebd 3f9b af3e
000002a0: 37de a43d dd77 34bd 09ff 50be 60b8 23bd
000002b0: 08d8 543d bc7e 36be 8236 a4be 53ec 93be
000002c0: 397d bbbe a211 aabe 0365 5fbd 79ee a2bd
000002d0: 78bd 50be 1113 8dbe a3a5 35be 91ec c8bd
000002e0: 7ddf d7be 4c4d a9be 1ae7 353e a304 c83d
000002f0: 0175 f7bd 571a d6be 6f46 7f3e 3385 3e3e
00000300: ef0d 553e ec70 033f c0df ed3e 5990 cc3e
00000310: b0b6 d83e faf9 ef3d 052f 88bd f361 8cbd
00000320: d899 233f 9ded 233e 2fd5 e53d 4105 793e
00000330: b962 583e a65c 8b3d 2fc8 e23e fb3f ffbd
00000340: 612f 8d3e fbd2 a1bd 8500 953e d5a2 153e
00000350: ecb1 f7bd 1d87 dc3d 4ade 1ebe 5844 c13e
00000360: fdcc b1bd 234d 013f e6a8 263e 20df 9a3e
00000370: 1796 2c3e 596a 8c3e 9caa afbe 84ea d5bd
00000380: 7509 473e 6b92 e53e a83e 2c3e e613 1fbd
00000390: e6d0 d7bd 917b c63e 1d20 41bd e13b 4bbe
000003a0: 05fa 46bd 868e 6d3e 7544 46be a66d f93e
000003b0: bf6b c83e 83c2 d73e 6284 a73d 2381 053e
000003c0: e82b 9f3e a07d 46be 1d34 263f a337 243f
000003d0: 45a4 22be 45e1 17be 2748 b4bc 3d19 863e
000003e0: 056a 8d3e 7dba 213e 3529 423e e4e8 b43e
000003f0: 7e25 b73d 3c78 7cbc eda4 5abd ad02 533e
0.11444205 0.39186737 0.64008015 0.19508459 0.1644921 0.7284131 0.21058002 -0.06436743
-0.3320553 0.25963226 0.14480317 0.21216874 0.032640267 0.20532201 0.36350197 0.3386262
0.56876475 -0.37624678 -0.3607196 -0.054168962 0.5391549 0.4413583 0.39090443 0.13991885
0.3028024 -0.20338534 0.0808618 0.43193486 0.122275814 0.3647841 -0.15458211 0.0440964
0.006688058 -0.27129528 0.3013783 0.13529474 -0.034539074 0.44646883 0.13063611 -0.11938779
0.013916295 0.1486368 0.106293716 -0.45463026 -0.4902467 0.15033183 0.3859873 0.20994046
0.3188503 -0.110364355 0.08423148 0.33438206 0.2983965 -0.082994394 0.42951706 -0.1834419
0.3354036 0.057522357 0.25294447 -0.24706645 0.03773469 0.07393996 0.09554736 0.23600248
-0.21959753 -0.070829384 0.23444533 -0.17557737 0.16481952 0.25329348 0.2225092 0.01799262
-0.002859714 0.4526879 0.4930994 0.2686417 0.20616466 0.21026976 0.22108507 -0.007208699
0.013402759 -0.37126473 0.27601945 -0.22860144 0.022369362 0.3154887 -0.25507948 0.20517609
-0.25418636 0.15530302 0.4184764 0.5826228 0.19315591 -0.18966986 -0.08888335 -0.04158418
-0.032049343 -0.31996578 -0.37887195 -0.10856635 -0.3136235 -0.19712612 0.05488075 -0.05958383
-0.50472337 0.12553696 -0.13765143 -0.2642642 0.10589947 0.13257757 -0.3101947 -0.11729547
0.18394077 0.07664287 -0.2288281 -0.011115069 -0.25563893 -0.025798444 -0.031647168 -0.117818594
-0.0074845375 0.0007172743 -0.5872425 0.18027891 -0.3586323 -0.034944918 -0.07170989 -0.4445246
-0.12070711 -0.29648483 -0.11740039 -0.3608273 -0.09631238 -0.25874385 0.2643255 -0.020936148
0.012550412 -0.34256977 0.026668418 0.022160584 -0.24656014 0.011925654 -0.13592587 -0.33542272
-0.31744993 0.20426291 -0.01513966 0.10200041 0.35435995 -0.30908233 -0.4501994 -0.09757741
0.010709123 0.18434294 -0.30517098 -0.4684179 0.024910454 0.10485834 0.03416319 -0.14408815
0.06257761 -0.046729583 -0.21014382 -0.19167371 0.26742074 -0.37147534 -0.09313657 0.3429813
0.080501966 -0.044059623 -0.20409788 -0.039970756 0.051963836 -0.17821783 -0.32072836 -0.2889124
-0.36618975 -0.33216578 -0.05453969 -0.07955641 -0.20384777 -0.2755361 -0.17738967 -0.098107465
-0.42162696 -0.33066785 0.1776394 0.097665094 -0.120828636 -0.4181697 0.24929212 0.18605499
0.20806096 0.5134418 0.4645977 0.3995388 0.4232688 0.11717601 -0.06649593 -0.0685462
0.6390662 0.16008611 0.11222302 0.2431841 0.2113141 0.06804781 0.44293353 -0.12463375
0.2757521 -0.079015695 0.2910196 0.14612897 -0.12094483 0.10767958 -0.15514484 0.37747455
-0.086816765 0.50508326 0.16275367 0.30248356 0.1685413 0.27424887 -0.34309852 -0.10445121
0.19437201 0.4483827 0.16820776 -0.038837336 -0.10537891 0.3876615 -0.047149766 -0.1984706
-0.04857828 0.231989 -0.19362052 0.48716468 0.39144704 0.42140588 0.08179547 0.13037543
0.31088185 -0.1938386 0.6492327 0.64147395 -0.15882976 -0.14832027 -0.022007061 0.2619113
0.2761995 0.15793796 0.18961032 0.3533393 0.08942698 -0.0154095255 -0.05337994 0.2060649

fc_advantage.0.bias f4 [20]
00000000: f599 183e f599 183e 074a d9bd f599 183e
00000010: f599 183e 72ef 933b e3ad afbd 13db afbd
00000020: ee14 90bd c6cd 2bbd 4bfc 0dbe d2f9 08be
00000030: e0b0 183e f599 183e f599 183e f599 183e
00000040: 9433 023e f599 183e 0dde 183e f599 183e
0.1490248 0.1490248 -0.10609823 0.1490248 0.1490248 0.004514628 -0.08578088 -0.08586707
-0.07035242 -0.041944288 -0.13865773 -0.13376549 0.14911222 0.1490248 0.1490248 0.1490248
0.12714988 0.1490248 0.14928456 0.1490248

fc_value.0.weight f4 [1, 16]
00000000: 1f2c 59bd bea9 56be f7e9 5abe a1c4 e1bd
00000010: 3ffa c9be 36ef 0fbf d7b1 8d3d 9a92 7e3d
00000020: 5bfa 31be 4625 09be 68ad 07bf bff5 febb
00000030: ede9 26bf e264 0dbf dec2 0dbf 5303 53be
-0.053020593 -0.20963189 -0.21378313 -0.11023832 -0.39448735 -0.5622438 0.06918686 0.06215153
-0.1738066 -0.13393125 -0.5299897 -0.00778076 -0.6520069 -0.5523206 -0.5537547 -0.20606737
