save/client-0/eval.pth (torch, 21957 bytes, 27 tensors)

layer1_task.0.weight f4 [16, 3]
00000000: 09cf b3be b643 a2be 5bb2 6a3e 1665 533e
00000010: 6b6c 443f e68e 7f3e 25c5 ca3e e8d1 2cbf
00000020: 6b3c cb3d a83d 413e 2aaa 89bc c83a 8f3e
00000030: f8f2 1a3f 917f 1dbf 5b46 0bbf 53c3 60be
00000040: b899 bb3e 1553 9c3e 0cd5 d23e 3afb eabd
00000050: 5394 b93e 8b9d 333e 2ace da3b fe6d 873e
00000060: 22cf 6b3e fd74 82bd eab7 bcbb cd33 40be
00000070: f11e 953e 9384 6ebe acfe a6be 4309 b9bd
00000080: 5e79 b4be e2a7 c2be 170a 913d db84 2fbe
00000090: 5713 903e a944 93be 7a3c 8e3e 4b95 b6bd
000000a0: c7d9 e7bd a251 a53d 79ab babe eb40 92be
000000b0: 6c00 1ebd 134a ba3e d6fe 713e 2720 d73d
-0.35118893 -0.31692284 0.229196 0.2064403 0.7672793 0.24956855 0.39603534 -0.6750779
0.09923633 0.18871176 -0.016804773 0.27974534 0.6052699 -0.61522776 -0.5440423 -0.2194951
0.36640716 0.30532137 0.41178167 -0.11473699 0.36245975 0.17540567 0.0066774087 0.26451105
0.23028234 -0.0636997 -0.005759229 -0.1876976 0.2912517 -0.2329276 -0.32616174 -0.0903497
-0.35248846 -0.3801871 0.070820026 -0.17140524 0.28139755 -0.2876332 0.27780515 -0.08915194
-0.113208346 0.08072211 -0.36458948 -0.28565153 -0.03857462 0.3638464 0.23632368 0.105041794

layer1_task.0.bias f4 [16]
00000000: fe80 fa3c 4219 9a3d 56f3 123b 5103 333d
00000010: 766c 723c 5bf6 b3bc bb03 4a3d 9125 6a3c
00000020: aff7 b43c 064e 5fbc 6c09 973c 139d 51bd
00000030: 8ccc 3f3d 4b41 b1bd d9a6 e03c eda9 723c
0.030579086 0.07524349 0.0022422872 0.043704335 0.014796367 -0.021968057 0.049319964 0.014291183
0.022090761 -0.013629442 0.01843711 -0.05117519 0.04682593 -0.08655032 0.02742331 0.014811021

layer1_task.2.weight f4 [16]
00000000: b827 7e3f 6163 763f d717 7b3f 4da5 6f3f
00000010: 4ba9 793f c776 833f eeb1 843f 2f6c 723f
00000020: e824 813f c757 713f 401f 833f 7483 803f
00000030: 544e 813f 1aec 723f f7fa 813f a96d 7c3f
0.99279356 0.9624539 0.9808325 0.93611604 0.97523946 1.0270623 1.03668 0.94696325
1.0089388 0.9427456 1.0243912 1.0040116 1.0102029 0.9489151 1.0154713 0.9860483

layer1_task.2.bias f4 [16]
00000000: 2ab8 6f3b 7686 63bb 7d80 e9bc be7b 86bd
00000010: d5c1 debc 0c68 58ba dda1 903d 6fa1 98bd
00000020: 6566 e83c 7536 20bd dfb0 523c a1e2 e1bc
00000030: 7b1a 293d 9fb7 b2bd 0c6c 17bc d85c 05bc
0.0036578276 -0.0034717596 -0.02850365 -0.06566571 -0.027192036 -0.000825525 0.07062123 -0.07452666
0.028369138 -0.039114434 0.012859552 -0.027573885 0.04128502 -0.08726429 -0.009242069 -0.008139811

layer1_task.2.running_mean f4 [16]
00000000: e62a 42c6 236b e145 53ad 5546 7246 d645
00000010: 1c70 a646 8fb9 eac5 80b7 6146 d072 c545
00000020: 7933 fa45 b5c0 d2c5 91af 3bc6 9a6e 51c6
00000030: 96b0 1d46 35f8 47c5 d590 49c6 81e3 4846
-12426.725 7213.392 13675.331 6856.8057 21304.055 -7511.195 14445.875 6318.3516
8006.434 -6744.0884 -12011.892 -13403.65 10092.146 -3199.513 -12900.208 12856.876

layer1_task.2.running_var f4 [16]
00000000: 1f9a 5b4c 6b40 a94b b2a4 924c c793 834b
00000010: c259 214d 57f3 b04b 08ec 9b4c 239e 5f4b
00000020: 2653 c24b a56a 804b 3779 3e4c 8a9f 874c
00000030: 0936 114c 8cc9 634a fdf0 6c4c 8214 794c
5.7567356e+07 2.218415e+07 7.688334e+07 1.7246094e+07 1.6918838e+08 2.3193262e+07 8.174803e+07 1.4655011e+07
2.547054e+07 1.6831818e+07 4.9931484e+07 7.110562e+07 3.8066212e+07 3.732067e+06 6.2112756e+07 6.5294856e+07

layer1_1vm.0.weight f4 [32, 40]
00000000: 4018 20bc 1690 9cbd 215c 0e3d 3b8e fdbd
00000010: c2e6 12be 3b1c aebd f3c0 893d c8bc c23e
00000020: d2ea 75bd 8459 9abd 564b 71bd 6fc2 963c
00000030: 9b4b 04be 7466 833d a542 dabc 0f44 95bd
00000040: 7143 ad3d 5221 c6bd 882b a7be 6d85 0b3d
00000050: 2187 54be c935 ef3a bbb4 9fbd 5f1b 98bd
00000060: d652 3fbd b2ab 18be ab2f 37be a02c ab3c
00000070: 2487 d4bd 1ec2 233e 78e0 1e3d 2755 e03a
00000080: dee6 143e 3113 e63e ae4b 833c b5cc b23d
00000090: c3c0 363e 199d ca3e 56b9 b03d c99c 85bc
000000a0: a650 3abe a7c1 9e3e 13dd 80be 89a6 6dbc
000000b0: 4b08 683e 5ac5 3b3d 8eb9 9cbd 4e35 1abd
000000c0: 85c7 10bf 944e 073c efa6 703d 273b c93e
000000d0: 0c44 2ebe 1e45 b93d 91ad fbbd 2906 af3d
000000e0: 69fb a2bd 3911 67bd 7791 7e3e 4d54 873a
000000f0: 5ce7 88bd 3c9f 90be a10c 9d3d 9e82 3dbe
00000100: ac04 323e f8ff 6b3e 6e02 713e b87a 26be
00000110: e58d 8dbb 63f5 f8bd 947f 833c f8fb 923d
00000120: 9a7f bdbd 5c84 ddbc bb57 d0bd 567b 983e
00000130: 85db 73be 2087 a53c e777 333e 667b a03d
00000140: 4767 81bc b7de 11bc 7141 0f3e 0132 183e
00000150: 2d36 07bd eed2 01be 6652 93bb be46 68bc
00000160: 5c84 f53d 283d 44bb 154e e03d 1a6c 093e
00000170: ca76 883d 8052 c7bd d0cc eebd 4e5f 253e
00000180: 869d cebd 9edf 673e e562 44bc 9f9a 3cbe
00000190: bc8b e23d 2055 78bd cdf1 133d 825b 3d3c
000001a0: 14d0 eb3d e139 253f a845 a03c 42b9 363e
000001b0: 4eda babe 2b16 51be de6d 00bf de94 a53e
000001c0: 2fe6 aabd 5bbc 7e3e a7e7 333d d226 c5bd
000001d0: 8425 34bc ca93 3e3e 87ed 253e 37c2 8e3d
000001e0: 01d9 e1bd 6f94 79bc 0181 ab3d 3382 d6bc
000001f0: 8c60 65be 7e9a bdbc 14c9 33be 29f4 d53e
00000200: 1e91 583d 1633 093e a1a2 31be 590b 983d
00000210: 1129 d7bc 4218 4abd 407c cd3d 2154 623e
00000220: 1553 943e 29da a4bd 288b 083e 926e 3c3d
00000230: 85ee 66be 9683 78be 01e2 9bbe 8865 53be
00000240: fe1a 16bd 8291 e9bd b213 3c3d 0c49 e0be
00000250: 23ca 76be b3fa ef3d fe93 a63c 4e90 44bd
00000260: 1cfe 143e 7ade 5a3e b439 a3bd d136 913d
00000270: 479d be3d 3869 003d f05f 0d3d d057 52be
00000280: 8b32 a23d 7d4c 0d3e cf31 52be e8c9 cfbd
00000290: 39e2 9abd c724 723e 4cae 9fbe 9caf 643d
000002a0: af69 26be 529d 043e 037b b53e d075 c33c
000002b0: 90a5 9ebe ba36 6cbd 7ed5 533c e4e7 e8be
000002c0: 8b3e 743e 1d6c 863e 1233 b3bd b3f9 ee3d
000002d0: f4ca b33e 33f3 ba3d 62b1 84bd 7044 4f3e
000002e0: 15df a53d 8731 67be 3d43 bdbe fa6e 55bd
000002f0: 6e19 81be 26a3 81be b133 f5bd 21e1 aa3e
00000300: b5d0 613d 13f9 7b3d 2b04 3b3e 8cee c73c
00000310: 5820 7a3b b2ed 39be 5584 83bd 3694 043e
00000320: 8a52 183e 79f0 483e 12f0 59be 01c0 1c3e
00000330: 7a7c 95be 30f4 febc 4f54 15be 2b56 c3be
00000340: 1b41 673d e937 b8bd f205 293e c61a edbe
00000350: 1db6 803e 7d35 c3bd 7560 1d3e 0665 443d
00000360: 023e 62be 92b3 773d 70f1 81be 1d74 fa3d
00000370: 173a 9fbc c8cc d2bd 163e cabd 8e3a 33bd
00000380: 656e 393e 1782 01bf aad5 29bd fdbe e6bc
00000390: 0c06 78be e0d8 b73d b8f0 7a3d fe05 a33d
000003a0: 0603 8a3d 58b5 bebd 39fa f1be a14c 9abb
000003b0: da00 a03c d202 9a3e 133e 12bc 6d64 0e3d
000003c0: 0ca9 38bd 7e12 823d b5de 6d3e a56a c1bd
000003d0: 2d95 323e 8230 8dbd c65e 183e b795 d3be
000003e0: 4e0a 2e3d ac75 26bd c342 04be 218a 0b3e
000003f0: 7735 2abd 0693 b23d cf14 0bbe f4b0 ab3e
-0.009771407 -0.0764467 0.03475583 -0.12380644 -0.1434584 -0.08501478 0.06726255 0.38034654
-0.060038395 -0.07536605 -0.058909737 0.01840326 -0.12919466 0.06416026 -0.026643107 -0.07288372
0.08460129 -0.09674324 -0.326504 0.03406279 -0.20754673 0.0018250282 -0.077981435 -0.074270956
-0.046709858 -0.14909247 -0.17889278 0.020895302 -0.103773385 0.15992019 0.03878829 0.0017115221
0.14541194 0.44936517 0.016027298 0.08730451 0.1784697 0.3957298 0.086291 -0.016310113
-0.18194827 0.3100712 -0.25168666 -0.014505037 0.22659414 0.045842506 -0.07652579 -0.03764849
-0.5655444 0.008258481 0.05875295 0.39302942 -0.17018145 0.09046386 -0.122889645 0.08546097
-0.07958109 -0.05641291 0.24860178 0.0010324806 -0.06684753 -0.28246486 0.076684244 -0.18506858
0.17384595 0.23046863 0.23536083 -0.16257751 -0.0043198937 -0.12156179 0.016052045 0.071769655
-0.09252854 -0.027040653 -0.10172983 0.29781598 -0.23814209 0.020206034 0.17526208 0.078360364
-0.015796317 -0.008903197 0.13989808 0.14862825 -0.03301065 -0.1267812 -0.0044959066 -0.0141770225
0.11988136 -0.0029943679 0.10952393 0.13420144 0.06663282 -0.097325325 -0.11660159 0.16149637
-0.10088639 0.22643897 -0.011986469 -0.18418358 0.110618085 -0.060628057 0.03611927 0.011557462
0.11514297 0.6454144 0.019564465 0.17844108 -0.36494678 -0.20418613 -0.50167644 0.3234014
-0.08344685 0.2487654 0.043922093 -0.09626545 -0.010995273 0.18611065 0.1620389 0.06970637
-0.11027718 -0.015233143 0.08374215 -0.02618513 -0.22400111 -0.023144957 -0.17557174 0.41787842
0.05287277 0.13398394 -0.17347194 0.074240394 -0.0262647 -0.04933954 0.100334644 0.22102405
0.28969637 -0.08049423 0.13334334 0.046003886 -0.22551925 -0.24268946 -0.30445865 -0.206442
-0.036646836 -0.114047065 0.04591722 -0.4380573 -0.24100547 0.11717739 0.02033424 -0.047989182
0.1455006 0.2137393 -0.079699904 0.070905335 0.09307342 0.031350344 0.03451532 -0.2054131
0.079197966 0.13798709 -0.20526813 -0.101459324 -0.0756268 0.23646842 -0.31187665 0.055831537
-0.16251253 0.12950638 0.35445413 0.023859888 -0.3098569 -0.05766938 0.0129293185 -0.45489419
0.23851983 0.2625436 -0.08749975 0.1166872 0.35115778 0.09128418 -0.064791456 0.2024095
0.0809919 -0.22577487 -0.3696536 -0.05210779 -0.25214714 -0.25319785 -0.1197275 0.33374885
0.05513068 0.061516833 0.18263309 0.02440574 0.003816625 -0.1815708 -0.06421725 0.12947163
0.14875236 0.19622983 -0.21282986 0.15307619 -0.2919653 -0.031122297 -0.14582942 -0.38151678
0.056458574 -0.08995039 0.16506174 -0.4630949 0.2513894 -0.095316865 0.15368827 0.047947906
-0.22093967 0.060473986 -0.25379515 0.12229178 -0.01943688 -0.10292965 -0.09875123 -0.043757014
0.18108518 -0.50589126 -0.04146353 -0.028167242 -0.24221057 0.089769125 0.061264724 0.07960127
0.06738858 -0.09311932 -0.47261217 -0.004708842 0.019531656 0.30080277 -0.008925932 0.034763742
-0.04508309 0.06351183 0.23229487 -0.09444169 0.17439719 -0.06894018 0.14879903 -0.4132516
0.042490296 -0.040639564 -0.12916093 0.13626911 -0.041554894 0.08719449 -0.13582157 0.33533442

layer1_1vm.0.bias f4 [32]
00000000: 13c0 39bc 109d 0abc b856 1cbc 2b32 83bd
00000010: 21d9 793c 86df 8fbc 40b2 f93b 6ef4 263d
00000020: 65e8 a3bc 571d 123c 204c e33b e997 763c
00000030: d200 033d dd53 663c be0a bdbb 07bd 02bd
00000040: a641 0c3d 58fe 813b 9e84 8f39 f893 7fbc
00000050: de1d d33c 2644 443b c679 393d 79f4 93bc
00000060: 891b 67bc 17ae 3ebb 7ad8 34bc 7484 23bc
00000070: 610c 77bc 3252 8fba d5e3 423c 4d30 d43c
-0.011337298 -0.008460298 -0.00954216 -0.06406053 0.0152495215 -0.017562639 0.007620126 0.04076045
-0.020008275 0.008918128 0.006936565 0.015050867 0.031983204 0.0140580805 -0.005769103 -0.03191855
0.034242295 0.0039670877 0.00027373893 -0.015599243 0.025771078 0.0029947846 0.045282148 -0.01806091
-0.014105686 -0.0029095465 -0.01103794 -0.00998031 -0.015078635 -0.001093453 0.01189514 0.025901938

layer1_1vm.2.weight f4 [32]
00000000: d8e3 7e3f da3d 6b3f 6bcf 803f 1679 7f3f
00000010: d346 7f3f 5b95 7e3f f371 7c3f 1390 833f
00000020: 229c 733f 3511 823f 703a 813f e7a0 823f
00000030: f04f 7b3f a854 753f 2e58 7f3f ddc7 813f
00000040: 6985 823f f017 793f 9ccf 7c3f 7ba9 853f
00000050: 7d49 7e3f 73c9 813f 5a11 833f 528a 833f
00000060: 50aa 773f ca8b 773f 9b81 823f 35fb 803f
00000070: aa4c 843f 8aa5 7c3f 64f4 773f 3dee 793f
0.9956641 0.91891253 1.0063299 0.9979414 0.99717444 0.9944665 0.9861137 1.0278343
0.95160115 1.0161501 1.0095959 1.0205353 0.9816885 0.958323 0.99743927 1.0139118
1.0196964 0.9730215 0.98754287 1.0442346 0.99330884 1.0139602 1.023967 1.0276587
0.9674425 0.96697676 1.0195802 1.0076662 1.0335896 0.9869009 0.96857285 0.9762915

layer1_1vm.2.bias f4 [32]
00000000: 7ba8 04bc 5cff a7bd 7b40 cb3b 9d5a 20bb
00000010: 1042 88bb 3ed1 86bb 405d 2cbc 598f f23c
00000020: bb27 53bd b5f2 4e3c 5929 313c 4064 923c
00000030: 6e31 8cbc e9b6 26bd c1cd e53b 9155 2b3c
00000040: acc6 0a3d 2fd4 e7bc 8d83 95bc c4b1 343d
00000050: 887f 5fbb 3cc2 963c e6c7 b63c e346 d73c
00000060: 1118 94bc 2949 13bd db60 0b3d 7fe6 763c
00000070: 8313 1a3d 16a4 6bbc afaa f2bc c944 5bbb
-0.0080968095 -0.08203003 0.006202755 -0.0024468072 -0.004158266 -0.004114299 -0.010520279 0.02960937
-0.05155156 0.012631108 0.010813081 0.017870069 -0.017113414 -0.04070178 0.007013053 0.010457412
0.033880875 -0.02829942 -0.018251205 0.044114843 -0.0034103114 0.018403165 0.022312116 0.026278919
-0.018077882 -0.035958443 0.034027915 0.015069603 0.037616264 -0.014382383 -0.029622404 -0.0033457747

layer1_1vm.2.running_mean f4 [32]
00000000: 95b4 20c5 800e aac4 dc37 10c5 7e89 11c5
00000010: 682d 17c5 f34a 98c5 9e60 cbc4 0420 ef45
00000020: 3bf3 c045 b7c6 1645 8df0 d6c4 9727 dbc4
00000030: 445b 93c4 3483 0745 116c 30c5 56e3 84c5
00000040: 7390 9745 ebb0 17c5 94e4 e5c4 318a bcc5
00000050: 236a 66c5 ecb7 6b45 d46c 11c5 4fba d7c4
00000060: 929d 7cc4 357d 9045 33c7 ddc4 8d20 f2c4
00000070: 24b0 6bc5 1eca e1c4 72a6 1745 704b c144
-2571.2864 -1360.4531 -2307.4912 -2328.5933 -2418.838 -4873.3687 -1627.0193 7652.002
6174.404 2412.4197 -1719.5172 -1753.2372 -1178.852 2168.2002 -2822.7542 -4252.417
4850.056 -2427.0574 -1839.1431 -6033.274 -3686.6335 3771.495 -2326.8018 -1725.8221
-1010.46204 4623.651 -1774.225 -1937.0172 -3771.0088 -1806.3162 2426.4028 1546.3574

layer1_1vm.2.running_var f4 [32]
00000000: fd28 c649 cf63 0b49 6a71 a449 1ce0 a749
00000010: d8c6 bc49 cffa af4a ea2c 0e49 3021 664b
00000020: ee8b 1f4b 3a8b bc49 da47 4349 86a0 5549
00000030: 91c8 c048 9572 8049 9bbd f549 4354 604a
00000040: ef2b b24a eb50 9649 2b7d 7849 2324 f64a
00000050: 03c9 514a 33e2 434a f891 a249 6454 3349
00000060: 0779 8448 5d3d a54a 42e4 4f49 25d9 7249
00000070: 6b0d 594a 0c9d 5149 fec4 9c49 8a77 e048
1.6233276e+06 570940.94 1.3471172e+06 1.3752355e+06 1.546459e+06 5.7665035e+06 582350.6 1.5081776e+07
1.0456046e+07 1.5445512e+06 799869.6 875016.4 394820.53 1.0522426e+06 2.0131074e+06 3.6754088e+06
5.8383275e+06 1.2313894e+06 1.0178107e+06 8.0655535e+06 3.4371208e+06 3.2093568e+06 1.331775e+06 734534.25
271304.22 5.4145745e+06 851524.1 994706.3 3.5561868e+06 858576.75 1.2842558e+06 459708.3

layer1_2vm.0.weight f4 [16, 32]
00000000: 5d8a 0fbe 7387 aebe d0a7 fc3d aa89 cabc
00000010: c1b4 c63d 6fcf 81bd 2dc6 81be ae79 32be
00000020: bd37 84be 601d 663d df7f 66bc 194c 55be
00000030: 945d 1bbd 9c59 b2bd 80d2 28be d6ff a03d
00000040: 3672 afbd f0a1 1b3e dd8a e33e 8901 99bd
00000050: 5850 743e 0a34 85bd d845 b5bc 5a28 c2bd
00000060: 1419 5ebd f80d 673e 32c1 253d c661 823c
00000070: aafa 503e b332 eabe ffa4 5e3d bf51 acbd
00000080: c6d1 8db9 7c46 853e a236 013e 3d23 cf3d
00000090: fca1 2abd 4cc5 85be 8185 bcbe 7cb2 5dbe
000000a0: c712 4cbe 577d 65be 9c62 903c ad80 73bc
000000b0: 3e9e 0e3d a7b5 9d3b 5807 b4be d508 a8be
000000c0: a74e 303c 6074 8b3e d834 e4bd b434 ccbe
000000d0: 0d4a 18be 3e0d 8abd c784 58be ed8a 343c
000000e0: a73a 543e 8cc8 56be 84ea b0be f79b 33be
000000f0: 3c81 123e 5d4b 963d 18d3 0e3d fc14 963e
00000100: 92b0 9f3e 4d14 853d 3355 d3be 00b1 38be
00000110: c578 1ebd 8f2a 06bf 3157 05be 38d8 9abe
00000120: 5e7f 483d 80e4 82be 6f30 453d 22bb 9f3d
00000130: 3463 e0bd 1fa6 193d 0d50 8c3e 415b a53e
00000140: 5223 373e 16fb 553e 8396 ee3d fcc4 873e
00000150: 8195 16be 10b6 593c 4271 cb3e ef71 57bd
00000160: 9bdc 4aba 64f8 aabe e4c0 e83d 162b e23e
00000170: bf4e f73d ec2c 9abd 9e68 003e 416b 2bbd
00000180: dbb7 023e 9bfd 35be ce25 83be 3f42 50be
00000190: c205 de3c 378b 02bc ab94 47bd 5b9b acbe
000001a0: c82f 3d3e e934 333d e496 9abe aad9 433e
000001b0: 72e4 b13d 6d7d 003e 4407 613e 4ef7 cebc
000001c0: 8563 b1bd 48b3 99be 3459 0abe 0ebe 6abe
000001d0: e5cc aebd 42bb 35be 51f9 4f3e 2617 863d
000001e0: 8621 603e 525a c9bd 344a 4abe fcc2 79be
000001f0: b125 313d 7df1 51be 7d69 a5bd 5f46 11be
00000200: 47a3 dfbc 1104 c5bc 483a 7dbc 54ad c93d
00000210: 3504 853e 7bfd 023e 2beb d53d c692 8cbe
00000220: 0f14 a7bd e063 82be c458 ad3d b9c2 f33c
00000230: bb4b b63d 0b03 abbe a5cc c73e d494 86be
00000240: 7a12 253e 1956 b13e b23b f0bd 8ca5 b23d
00000250: eb46 1bbe 9ce8 6cbe 6a45 763e da2e b13e
00000260: 23e1 ed3d 9abb c6be ac4b a53e abcc 96bd
00000270: d7d2 07bf 5ede 143e 276f debe 199d 61be
00000280: 9803 5c3d 851d 7d3e 544a 92be 9ead cc3d
00000290: a9d1 57be b6fe 163e 9419 74bd 6262 55be
000002a0: a26d 1c3e b2ad 9abe 31b9 78be 43ae 06be
000002b0: 625b 823e a376 e03d 37f0 61bd f196 a33d
000002c0: 7695 7ebe ae8d 103e 031e 73be f12f 483e
000002d0: 1fb3 61bd 5d61 123e d78d d1bd f998 65be
000002e0: 7fcc 6e3d d1f0 9d3d 2b9f 22be 7cae 0c3e
000002f0: 70b8 86be b1b3 093e bcbb 40be f35c 493d
00000300: 31e4 a8bd bb77 b0be 90f5 38be 26e9 3d3d
00000310: 08c1 babe 4ce5 303c 794c 883d 6fd1 f63c
00000320: 109b 8f3b aae2 8c3e b1df 25be da6f 763e
00000330: 5fdd f13d d23e 8fbd 870d 3c3e 71f2 b2bd
00000340: 3182 4d3d 0557 a4bd 0e25 923e 8c35 ae3d
00000350: 4804 49be c761 a53e ac75 33be f12e e33d
00000360: 6ab8 a63c ec15 29be 4258 c23d 273e 26be
00000370: eacb a03e fcdf 9cbd baf6 083e f97a 313e
00000380: b5c9 39be c408 153e a473 adbd e5b6 78bd
00000390: 6690 99be ef89 493d 7bfb c9be b68f 903d
000003a0: c2fd 243e 4559 08be ba45 2abe f3f8 9c3e
000003b0: 40c4 be3e 0f91 0d3e bb40 06bd 5647 8fbe
000003c0: dd22 103e b39b 9cbe 6908 9ebe 90cf 91bd
000003d0: 3065 02be aef5 9d3c 6750 16be e835 453e
000003e0: d2ae dc3d 41b6 a5bd f241 033e 6580 203e
000003f0: b4f9 843c c7e2 f2be 445e cdba f70d 05bc
-0.14017625 -0.34087715 0.12336695 -0.024723846 0.09702445 -0.06338393 -0.2534651 -0.1742923
-0.25823775 0.056180358 -0.014068573 -0.2082981 -0.03793104 -0.08708498 -0.1648655 0.07861297
-0.08566706 0.15198493 0.44441882 -0.07470996 0.23858774 -0.06504066 -0.02212803 -0.09480353
-0.054223135 0.22563922 0.04046745 0.015915763 0.20408121 -0.45741805 0.05435657 -0.08414029
-0.0002704991 0.26030338 0.12618497 0.10114143 -0.041658387 -0.26127088 -0.36820605 -0.21650118
-0.19929038 -0.22411095 0.017625146 -0.014862222 0.03481888 0.0048129144 -0.35161853 -0.32819238
0.01076094 0.27237225 -0.11142892 -0.3988396 -0.14871998 -0.06740807 -0.211444 0.011019451
0.20725499 -0.2097494 -0.3455392 -0.17539965 0.14307112 0.07338593 0.034869283 0.29312885
0.311894 0.06498013 -0.4127594 -0.1803627 -0.038689394 -0.5240869 -0.13021542 -0.30243087
0.04894959 -0.25564957 0.048141893 0.077993646 -0.109564215 0.03751194 0.27404824 0.32296184
0.17884567 0.20896563 0.116498016 0.26517475 -0.14705469 0.013288036 0.39734846 -0.05259889
-0.0007738561 -0.33392632 0.11364916 0.44173497 0.120755665 -0.075280994 0.12539908 -0.041850332
0.12765448 -0.17772524 -0.2561478 -0.20337771 0.027102355 -0.007967762 -0.048725765 -0.33712277
0.18475258 0.04375163 -0.30193245 0.19126001 0.086861506 0.12547846 0.21975428 -0.025264408
-0.0866156 -0.30019593 -0.13510591 -0.22924063 -0.08535174 -0.17747214 0.2030995 0.06547384
0.21887788 -0.0983168 -0.19754869 -0.24390787 0.043248836 -0.20502277 -0.08076761 -0.14187
-0.027299536 -0.02404979 -0.01545579 0.09847513 0.25979772 0.12792008 0.10445245 -0.2745573
-0.08158123 -0.25466824 0.08464196 0.029755937 0.08901163 -0.3340076 0.3902332 -0.26285422
0.1612033 0.34636 -0.11730136 0.08722982 -0.15163772 -0.23135608 0.24049917 0.34606057
0.11615207 -0.38815004 0.32284296 -0.07363256 -0.5305609 0.14537951 -0.43444178 -0.22032584
0.053714365 0.24718292 -0.28572333 0.09994052 -0.21076073 0.14745602 -0.059594706 -0.20838311
0.15276197 -0.30210644 -0.24289395 -0.13152413 0.25460345 0.10960128 -0.055160727 0.07987774
-0.24861702 0.14116547 -0.23741917 0.19549538 -0.055102464 0.14294954 -0.10232132 -0.22421636
0.05830049 0.07711948 -0.1588103 0.13738436 -0.2631259 0.13447453 -0.18821615 0.04916091
-0.08246649 -0.34466347 -0.18062425 0.046364926 -0.36475396 0.010796856 0.06655211 0.030129163
0.0043824986 0.2751668 -0.16198613 0.24066105 0.11809801 -0.06994404 0.18364535 -0.08737648
0.05017299 -0.0802441 0.28543895 0.08506307 -0.1963054 0.3230116 -0.17525357 0.11092938
0.020351607 -0.16512269 0.0948949 -0.16234647 0.31405574 -0.07659909 0.13375369 0.17332067
-0.18143351 0.14554125 -0.08469322 -0.060721297 -0.2999298 0.04920381 -0.39449677 0.07058661
0.16112426 -0.13315304 -0.16628161 0.30658683 0.37259102 0.13824867 -0.032776576 -0.27984113
0.140758 -0.3058754 -0.3086579 -0.071196675 -0.12733912 0.019282188 -0.14679109 0.19258845
0.10775532 -0.08091403 0.12818125 0.15673979 0.016232349 -0.47438642 -0.0015668352 -0.008121005

layer1_2vm.0.bias f4 [16]
00000000: 0d12 e1bc 391e afbc e641 ccba d656 69bd
00000010: 0505 3a3d 6cc3 90bc 8aea d63c 9104 8f3c
00000020: dbce 0b3c 462d 12bd d83a 75bb 7b8f f33c
00000030: 59ee 1a3c 966d 873b b83f 5e3d 858f 7c3b
-0.027474428 -0.021376716 -0.0015583604 -0.05696758 0.045414943 -0.01767131 0.026234884 0.017458232
0.008533205 -0.035687707 -0.0037419107 0.029731503 0.009456241 0.0041329367 0.054259986 0.0038537693

layer1_2vm.2.weight f4 [16]
00000000: eb0a 883f b3c9 813f d42f 833f df0d 853f
00000010: 0dc3 793f d69e 773f cead 833f 0bfd 833f
00000020: c05a 7d3f 82a7 833f 6bdc 7d3f e167 7f3f
00000030: 8c4f 843f c002 803f 3e17 8a3f 1ed6 7b3f
1.0628332 1.0139679 1.0248971 1.0394858 0.9756325 0.9672674 1.0287416 1.0311598
0.989666 1.0285494 0.99164456 0.9976788 1.0336776 1.0000839 1.0788343 0.9837359

layer1_2vm.2.bias f4 [16]
00000000: 43f9 8c3d 1a7c 273d 6a39 1b3b c0b6 5a3d
00000010: c393 63bd c53b 833b e719 4fbb 8480 1d3d
00000020: ae95 96bc 6f72 3a3d 3ae0 123c 2fed 9b3c
00000030: 757b 193d 9e25 9e39 f229 953d 882e 07bd
0.068834804 0.040889837 0.0023685344 0.05339694 -0.05556084 0.004004928 -0.0031601132 0.03845264
-0.01838192 0.04551929 0.008964593 0.019033996 0.037471253 0.00030164135 0.07283391 -0.03300336

layer1_2vm.2.running_mean f4 [16]
00000000: e710 d0be 637c 5cbf 3ab1 3f3e 8433 43bf
00000010: 95ca aebd 5ab3 dbbe ce59 643e 336a d0be
00000020: 67e1 f13d 5124 05bf 2560 91be 95d6 613e
00000030: ff94 eebe 7eee 403e aaab d03e 9c66 64be
-0.40637895 -0.861273 0.1871995 -0.7625048 -0.08534733 -0.42910272 0.22299883 -0.40706024
0.1181057 -0.5200854 -0.28393665 0.22054513 -0.4659805 0.18840978 0.4075597 -0.22304767

layer1_2vm.2.running_var f4 [16]
00000000: e2d7 453f 1101 903f c77b 963f 3780 513f
00000010: a776 6d3f 7f20 1e3f 6479 2c3f ae3c 803f
00000020: b29f 123f dc8d 2d3f ae98 9e3f 2583 463f
00000030: 6ea6 5d3f e513 883f a8ec 8e3f 5080 3a3f
0.77282536 1.1250325 1.1756524 0.81836265 0.92759174 0.61768335 0.6737273 1.0018518
0.57274926 0.67794585 1.2390344 0.7754386 0.86582077 1.0631071 1.1165972 0.7285204

layer2.0.weight f4 [16, 32]
00000000: 8217 0dbe 3d48 80bd 43de df3d 169b a23e
00000010: 9b5c c7bc f7f8 5ebd b8b7 5b3e 0d4f 8a3e
00000020: a850 ac3e c487 30be f1e5 d6be 6d1d 2e3e
00000030: 2fa1 a73e 78a7 763e 21b1 6e3d f15a 17be
00000040: de23 e0bd f556 9bbe 7a9a 17be 8146 253d
00000050: 1592 3a3e 1e99 f1bd 9884 6b3e 4712 a73d
00000060: de34 2a3e 3512 40be bb73 cabc 1e49 f23d
00000070: 5ed9 cd3d 8d84 6cbe 5cdc 0b3d 7557 153e
00000080: 1ea0 343e 9d54 1cbe 2433 363e 9e74 33be
00000090: 59a5 e83b 2f51 853e 342a 3f3d 3a51 8a3e
000000a0: 58a6 403e e6d6 b73d db22 47be 9d95 6bbd
000000b0: b827 a9be 5533 0e3e 6e43 113e 0671 4fbe
000000c0: b2a6 50be 1d59 3a3e b016 cb3d f4d1 9c3d
000000d0: 68cd 3fbe 627e ddbc 0c28 a83d 8c64 3ebe
000000e0: 988d 573d 4ed4 c03c fe40 aa3e a1b2 5dbe
000000f0: 918f 16bd 694a 95bd d46b 10bf c5de 8a3e
00000100: 6697 6f3e 10fb 0abe cdfd b8be 39ca 933e
00000110: 4849 bbbe 9578 16be 8e49 f03d f807 91bd
00000120: 0cba 8bbe e825 513e df03 89be f818 503e
00000130: 60d7 b5be f86f 673d 5d9c ad3c cb6b 5ebe
00000140: 338c 873c 7255 11bf aa24 98be 426a c73e
00000150: 7fb6 813e b44c cdbe 7701 973d 0f46 943c
00000160: 6ac0 c8bd 85a9 c0bd ccff a1bd eaeb d8bd
00000170: 7c90 a5be 6403 2d3d 99f5 b3be 39a8 933e
00000180: 15ad 2d3e 7ca5 5bbe baed 4e3e 9faf c03c
00000190: 2644 9a3d 9328 b4be 41d4 09bc 219d 2b3e
000001a0: fb90 853d 1045 9d3c b0ba 74bc 5513 bb3e
000001b0: 8a9e 083d 8723 c83d e8e6 06be 9088 20bd
000001c0: 99da 76be 805b 0f3e a0b4 c33d 92cd bdbd
000001d0: 6df7 34be 1e18 e1bd c01c 8b3e 5131 efbd
000001e0: 69a4 b13e 0c74 8fbd 7cd9 a6be ba1b 87bb
000001f0: aeb4 e23d f279 f93d e55a c3be bb17 923e
00000200: 2082 613e 7703 fabd 7acb f53d 29a1 da3d
00000210: c705 0d3e 9599 94bd defb 44bd 02f5 6e3e
00000220: 6254 c6be bf81 cabd a97c 663e 1671 f7bd
00000230: fea6 1ebe adaa 6ebe 7aaa 103e 68e9 783e
00000240: b752 69be e3a5 c73d dcce 2dbc c106 8dbe
00000250: 36dd 123e 59f6 c33c bae4 c03d 434b 193d
00000260: befb 123e 8da3 9dbe 7665 16be 0939 463d
00000270: 6846 81be 134b 4f3d 89da f1bd 3666 29be
00000280: d018 9d3e afdd 2cbe 97ed 16be 03d6 bbbd
00000290: d2c0 453b e6eb 483e 0fdc 31be 7334 0a3e
000002a0: 327b 753e e046 cdbd 2fab 303e 8e32 cb3c
000002b0: 98ff a2be a2a6 3b3d b70c 753e 5b40 a2bd
000002c0: 7f73 afbe b6e7 d3bd 2637 5e3d 1e36 d3bd
000002d0: d8f6 c33e 5fd9 81bd 910a e33d 5e19 e03d
000002e0: 1a1b 6d3e ce14 e8bd 56a8 983e 90e4 d4bc
000002f0: a54f 9d3e 803d a93e 980e 2fbf 20f8 e4be
00000300: cfab 7a3e 72ab 7c3e 9570 46bd bd3c b3bb
00000310: 8798 dc3b f31c a63d 143d e93e 5849 17be
00000320: d04c a93e c350 513e 22f3 213e ea50 ee3d
00000330: ba76 eabd 003d 8e3e 0dfe 523e 81de 35be
00000340: 8ae1 a9bd d94a babe 12b6 423e 20bc 0fbf
00000350: 6ffc 51bc 4d9c da3d 5ccd 043e 4fb4 22bd
00000360: f3b6 51be efca 9ebd 819c a83d 87ed 6a3e
00000370: 78c3 a1bd 2bf2 933d c033 86be 113c 47be
00000380: 2796 583d a4f4 033e e34f 683e 6408 c33e
00000390: ffd0 703e ffe8 c83e 8357 153f ff36 ccbd
000003a0: b0be 503e 1d22 a7bd 2063 4cbe 3b7d 1dbe
000003b0: 25be 31bc 8ffa c6be ee37 ba3e bacb bd3e
000003c0: 0612 0c3d c428 3a3d 3138 913d ba9d 1bbd
000003d0: a6e9 77be 3a43 06be d0e6 953d cb90 bfbe
000003e0: dfb1 143c be7b c6bc ec76 ca3e 8dbf 89bd
000003f0: 1637 adbe ef0d b8be f619 943e 7f72 15be
-0.13778499 -0.06263778 0.10931065 0.31758946 -0.02433615 -0.05443665 0.21456802 0.27013436
0.33655286 -0.1723929 -0.41972306 0.17003413 0.3274016 0.24087322 0.058274392 -0.14780785
-0.10944341 -0.3033978 -0.14805022 0.04035044 0.18219788 -0.11796783 0.22999799 0.08157783
0.1662173 -0.18756945 -0.024713388 0.11830352 0.10051225 -0.23097439 0.034145698 0.14584143
0.17639205 -0.15266652 0.17792946 -0.17524955 0.007099789 0.260385 0.046671107 0.27015096
0.18813455 0.089765355 -0.1944689 -0.05751573 -0.33038116 0.13886769 0.14185879 -0.20257959
-0.20376089 0.18198057 0.09916437 0.07657233 -0.187307 -0.027037803 0.08210763 -0.18593043
0.05262527 0.023538735 0.3325271 -0.21650173 -0.03675801 -0.07289583 -0.5641453 0.27123085
0.23397598 -0.13572335 -0.36131135 0.2886522 -0.36579347 -0.14694436 0.117327794 -0.07081598
-0.2729038 0.20424616 -0.26760766 0.20322025 -0.3551588 0.056503266 0.021192724 -0.21720807
0.016546344 -0.56771004 -0.29715472 0.38948256 0.25334546 -0.40097582 0.07373326 0.018099813
-0.09802325 -0.09407333 -0.079101175 -0.10591872 -0.32336795 0.04223956 -0.35148314 0.2883928
0.16960557 -0.21449846 0.20207873 0.023521243 0.075325295 -0.35187206 -0.008412422 0.16759159
0.065217935 0.01919797 -0.014937088 0.36538187 0.03335432 0.09772401 -0.13174021 -0.039192736
-0.24106826 0.13999748 0.09555936 -0.09267725 -0.1767251 -0.10990928 0.27170372 -0.11679328
0.34695747 -0.07004556 -0.32587802 -0.0041231783 0.11069618 0.12181462 -0.38155285 0.2853373
0.22022295 -0.12207692 0.12001701 0.1067527 0.13771735 -0.07255856 -0.04809176 0.2333565
-0.38736254 -0.09888028 0.22508492 -0.12082116 -0.1549339 -0.23307295 0.14127532 0.24307787
-0.2278546 0.09748437 -0.010608401 -0.27544215 0.14342198 0.023921179 0.09418626 0.03742529
0.14353845 -0.30788842 -0.14687142 0.048394237 -0.25249028 0.050608706 -0.118092604 -0.16542897
0.30682993 -0.1688144 -0.14739071 -0.09171679 0.0030174744 0.19621238 -0.17369102 0.1349657
0.23972777 -0.10023284 0.17252801 0.02480438 -0.31835628 0.04581321 0.23930632 -0.07922431
-0.34267804 -0.1034693 0.054251812 -0.103130564 0.38274264 -0.06340288 0.11086 0.109423384
0.2315487 -0.11332093 0.2981593 -0.025987893 0.30724826 0.33054733 -0.68381643 -0.44720554
0.24479602 0.24674776 -0.04844721 -0.005469887 0.00673205 0.081109904 0.4555441 -0.14774072
0.33066416 0.20440964 0.15815404 0.11636527 -0.114484265 0.27780914 0.20604725 -0.1776066
-0.08294971 -0.3638523 0.19014767 -0.5614643 -0.0128165325 0.10674343 0.12968963 -0.039722737
-0.20479946 -0.0775355 0.08232976 0.22942172 -0.07898611 0.07223924 -0.26211357 -0.19456507
0.05287757 0.12886292 0.22686724 0.3809234 0.23517226 0.39240262 0.5833666 -0.09971427
0.20385242 -0.081608035 -0.19959688 -0.15379803 -0.010848557 -0.38863036 0.36370796 0.37069494
0.034196876 0.045449033 0.07090796 -0.037992217 -0.24210224 -0.13111582 0.073194146 -0.37415156
0.009075611 -0.024228927 0.39543855 -0.067259885 -0.3383109 -0.3594813 0.28926057 -0.14594458

layer2.0.bias f4 [16]
00000000: cf2d 0fbc 730a 8b3c e41a 80bc 9d37 d4bd
00000010: 66fc 553c 5aab 26bd 25cf 503d b0ec 9a3c
00000020: 4d54 d53d 4741 e5bd e828 58bd 1a74 cfbc
00000030: 9c64 293b a53e e33d 2f03 5bbc a13c 043c
-0.008738949 0.016972756 -0.015637822 -0.1036217 0.013060665 -0.040690757 0.0509788 0.01891169
0.1041647 -0.11194091 -0.052773386 -0.025323916 0.0025847321 0.11095933 -0.013367458 0.008071096

layer2.2.weight f4 [16]
00000000: 41a5 7f3f 6143 6a3f a070 903f 7b18 643f
00000010: 497d 663f e121 6b3f d408 883f 2117 833f
00000020: b26c 903f 903a 633f dbdf 903f fbb1 903f
00000030: d8c0 653f 3a5d 8c3f 9e79 8e3f 2596 863f
0.9986153 0.9150906 1.128437 0.89099854 0.9003492 0.9184857 1.0627694 1.0241433
1.1283171 0.88761234 1.1318315 1.1304315 0.8974738 1.096595 1.1130865 1.051457

layer2.2.bias f4 [16]
00000000: c604 24bc 59f0 b1bd 730e 043e d609 dabd
00000010: 0471 cbbd f066 c1bd 8a48 973d f29f cf3c
00000020: 3051 033e e2a5 e1bd c428 063e c14c 053e
00000030: 3b6a cfbd a9c7 d03d 9826 e73d f8f9 003d
-0.010010904 -0.08688421 0.12896137 -0.10646407 -0.099336654 -0.09443462 0.073868826 0.025344823
0.1282394 -0.11017968 0.13101488 0.1301756 -0.10127684 0.10194332 0.11286658 0.03148839

layer2.2.running_mean f4 [16]
00000000: 6e86 b33e e66c 58bd d1bf 84bf 6b85 70bd
00000010: 35e8 b1be 49a9 5abd aa0d bf3e 0328 1c3f
00000020: 8e03 603f b02c 2d3d ced2 61bf ea13 a0bf
00000030: 4c97 843c c99b 383f bda2 23bf 3ad1 7f3e
0.350635 -0.05283823 -1.0371038 -0.058720987 -0.34747472 -0.0533841 0.37315112 0.60998553
0.87505424 0.042278945 -0.8821229 -1.2506077 0.016185425 0.7211271 -0.63920194 0.24982157

layer2.2.running_var f4 [16]
00000000: 7ae1 2c3f b53b fd3e 633f 943f 2069 f83e
00000010: 72e5 a83e 2370 533f 29a8 003f 022b bd3f
00000020: 480d 323f 7bae 0f3f e17c 273f 16bf 823f
00000030: 38ad a33e 0efc 8a3f c637 223f 7729 cc3e
0.6753155 0.49459615 1.1581844 0.48517704 0.32987553 0.8259298 0.5025659 1.477875
0.69551516 0.5612561 0.65424925 1.0214565 0.31968093 1.0858171 0.63366354 0.39875385

fc_advantage.0.weight f4 [20, 16]
00000000: b56f 4a3e 4b16 573e 6479 0f3e 5ad1 573e
00000010: 60b8 ae3e 8231 e33e 92a7 8abe d84b 563e
00000020: 1148 30be 3be4 9a3e 000e 1c3e f457 183f
00000030: ce7b b2bd 329b 8a3e 48c1 6c3e 13e5 933d
00000040: 32ea e0be 3d65 bfbe 4d07 e7bd 141c 53bd
00000050: 2f5f 503e 66e3 3bbe 5854 473d d273 8c3e
00000060: 9678 1bbe 90a9 6cbe 9a68 9abe d970 11be
00000070: 5ff9 05bf a2b9 4ebe adb8 bc3d 4feb 14bf
00000080: d9b6 76be f6a7 81be c179 3f3c a82b 80be
00000090: 3455 bb3e 921d 00bd d83d a4be 64af a8be
000000a0: c429 153e b955 87be 63ea 58bc 4940 60be
000000b0: 2280 c2bd eb1b 2bbe f49f 293e 3a3d fdbe
000000c0: 0b50 c9be d849 c8be d6eb 033e 8133 6a3d
000000d0: 7f49 0b3d 6cef 9dbe 3f47 25bd 1b97 333d
000000e0: 4ba8 833b 9e49 ecbd 276a c6be 2f41 e8be
000000f0: d9c0 00bf f9f1 24bf b517 673d fd19 b4be
00000100: 785d 6dbe fc79 0a3e 6bef 003e f708 693e
00000110: 7c49 083f 08cd 133f c367 53be 1ab5 24be
00000120: 9507 793e b19e 023f 6b14 4c3e fde9 013e
00000130: 1141 5cbe 9d9e 4f3f 1e5c c93d d7ed de3e
00000140: 9686 62be ea2b 3abe 4e4d 94bd 7c8f 8bbe
00000150: ec21 abbe 6ac4 d8be 48c9 16be 6964 64bd
00000160: 1141 74be 0498 b53e 7684 5fbe a4fb 1bbf
00000170: b63f d6bb 465d 5f3e 7445 cebe b4d8 0dbe
00000180: deb8 24be 5854 8cbd 9bfb bebd e8a5 d43d
00000190: 58ad 523e 8267 09be 0daa 82be 3c08 98be
000001a0: a757 39bd 4370 abbd c176 353e a078 363e
000001b0: 730c 373e 43e3 adbe 6b80 933d 78b2 a33d
000001c0: 0134 85bd 7c73 a33c 4b88 8c3c bf1a 02bf
000001d0: 81e4 6d3e 28d9 9dbc ee28 1fbe b734 90bd
000001e0: 41aa 853d 28ef 23be b7fb d13d e08c dabe
000001f0: 908e c2be a55d b53e 8908 623e e6d0 46be
00000200: 2478 e1be 55ec 153d 81f8 363e a343 c13d
00000210: c788 303e 5e7b fc3b 6df7 9dbd 21ce ebbd
00000220: e128 f23d f55e a8bd 974f 10be 4149 403e
00000230: ac78 c33e 2a46 a0bd d417 b83e 82f2 053f
00000240: 8a69 8c3d eb5a ce3c ab69 aabc 5796 0e3f
00000250: a3a1 5e3e 5f1d 6f3e b356 a93e 3b95 34be
00000260: d878 d6bc 18e0 cbbd 1fe1 f53d 7e2b db3c
00000270: af28 cfbe 6907 7a3d 9fed 5ebe fa75 403e
00000280: ee2d c93c 9942 ef3e 2478 773e a3a3 793e
00000290: 0d62 883e 12c3 f53d 596f 9dbd 56b0 813d
000002a0: ba12 d03e 3ebd ccbe b793 e8be f47c 0d3d
000002b0: 8422 c1bd 50f2 003e 6e24 bc3e 8a92 0abe
000002c0: f54a febd 1c07 8abe 8dde 35be e493 4ebe
000002d0: 3ab4 15be 71cb 4bbd 6baa a33d a080 ae3d
000002e0: ba33 27be 3eae a63d 2315 463e d6e5 a6be
000002f0: d8de 91be 31fc 5abd 26ec 00be 7a09 7abe
00000300: 2af8 2b3e 86a2 fdbd 47f5 d43e 1daf 653d
00000310: e772 073e f23e f6bd 44d0 b9bd 3432 753e
00000320: ec80 99be 3c9b cabe 97da fbbe ff20 1bbf
00000330: d6a1 9b3e 1d84 273e d2d5 bbbd e086 27be
00000340: 5d68 cebe 5bea bf3e e205 11bf 301d 203d
00000350: 5223 2bbd 195d b93c a50b 473e 2bb3 a93d
00000360: fbdd 35be d966 d9bb fb6c ed3d 8755 07bd
00000370: c082 0cbe 50cc 10be 57e5 473e 2892 20be
00000380: e5cf c2be 0ede bcbe 8f7c 523e aba2 afbe
00000390: 1a2f 463c 46fd cfbd 2c26 273b f800 0f3e
000003a0: 5916 21be 9f41 a7be 72f0 86bd 8bdf 33be
000003b0: 242a 84be 6df5 2cbc 6feb d1be fbfe 97be
000003c0: 30e4 1a3f 936b 933e 327f e13c 5c15 013e
000003d0: 5540 333d 2d90 a43d 699d adbc 8539 9fbc
000003e0: 482f 2c3f d2fc 433c da1e 1d3e 4842 8abd
000003f0: 9730 4ebe 52b9 553e 3802 d4be 323f 413d
0.19769175 0.21004598 0.1401115 0.21075955 0.34125042 0.4437371 -0.2708097 0.2092737
-0.17214991 0.3025225 0.15239716 0.59509206 -0.0871502 0.2707153 0.23120606 0.07221427
-0.43928677 -0.37381926 -0.112806894 -0.05154045 0.2034881 -0.18348464 0.04866442 0.27432114
-0.15182719 -0.23111558 -0.3015793 -0.14203204 -0.52333635 -0.20188001 0.092149116 -0.5817155
-0.24093188 -0.25323457 0.011686743 -0.25033307 0.36588442 -0.0312782 -0.32078433 -0.32946312
0.14566714 -0.2643259 -0.013239476 -0.21899523 -0.09497096 -0.16709869 0.16564924 -0.49460775
-0.3931888 -0.39118838 0.12882933 0.057178024 0.03400564 -0.30846727 -0.04035115 0.043845277
0.004017865 -0.11537479 -0.38752863 -0.4536223 -0.5029426 -0.6443172 0.056419093 -0.35176077
-0.23180187 0.13523096 0.1259133 0.22757326 0.5323713 0.5773473 -0.2064505 -0.1608471
0.24319299 0.51023394 0.19929664 0.12686916 -0.21509196 0.811014 0.09832023 0.43540832
-0.22121653 -0.18180814 -0.07241307 -0.27257907 -0.33424318 -0.42337352 -0.1472522 -0.05575982
-0.23852946 0.3546754 -0.21827874 -0.6093085 -0.0065383567 0.21812925 -0.40287364 -0.13852197
-0.16086146 -0.06852025 -0.09325334 0.103832066 0.20573938 -0.13418391 -0.25520363 -0.29693782
-0.045249607 -0.083710216 0.17721082 0.17819452 0.17875843 -0.3396245 0.07202228 0.079930246
-0.065040596 0.019952528 0.017154833 -0.5082206 0.23231699 -0.019268587 -0.15542957 -0.070413046
0.06526614 -0.160092 0.10253089 -0.42685604 -0.37999392 0.35423008 0.22073568 -0.19415626
-0.44036973 0.036602337 0.17868234 0.09436729 0.17239676 0.007705136 -0.07713208 -0.11513925
0.11824203 -0.082212366 -0.14092861 0.18777944 0.38178003 -0.07825883 0.3595568 0.5232316
0.068560675 0.025189837 -0.02080234 0.5569815 0.21741347 0.23351048 0.3307396 -0.17635052
-0.02618067 -0.09954852 0.12005829 0.026754137 -0.40460727 0.061042223 -0.21770333 0.18795004
0.024558034 0.46730497 0.24166924 0.24378829 0.26637307 0.12000097 -0.076872535 0.063324615
0.40639287 -0.3998813 -0.45425197 0.034542993 -0.094304115 0.12592435 0.36746544 -0.13532463
-0.12416641 -0.2695855 -0.17760678 -0.20173603 -0.14619532 -0.049754564 0.07991489 0.08520627
-0.16328326 0.08138703 0.19344 -0.32597226 -0.2849033 -0.053463165 -0.12590083 -0.24417678
0.16793886 -0.123845145 0.41593382 0.056075204 0.13227426 -0.120237246 -0.09072927 0.23944932
-0.29981172 -0.3957156 -0.49190208 -0.60597223 0.3039691 0.16358991 -0.09171642 -0.16360044
-0.40313998 0.37483487 -0.566496 0.039090335 -0.04178173 0.0226274 0.19438036 0.08286127
-0.1776046 -0.006634575 0.11593052 -0.03304055 -0.13721752 -0.14140439 0.1952108 -0.15680754
-0.38049236 -0.36888164 0.20555328 -0.34303793 0.012096191 -0.1015573 0.002550493 0.13965213
-0.15731181 -0.32667252 -0.0658883 -0.17565744 -0.258134 -0.010556561 -0.40999934 -0.29686722
0.60504436 0.2879301 0.027526472 0.12605804 0.043762524 0.08035312 -0.021193223 -0.019436607
0.67259645 0.0119621325 0.153438 -0.067509234 -0.20135723 0.20871475 -0.41407943 0.04717941

fc_advantage.0.bias f4 [20]
00000000: b95a 833d 77d9 e7bd e21a 50bd e37b 00be
00000010: 0117 9e3d 4e70 00be cccb 25bd 74b1 7e3d
00000020: 7f9a 813b 1ad3 dc3c 4add 9f3c 6b9a 88bd
00000030: 9e6b 00be fc31 82bd cf5b 00be 730f 973c
00000040: 8feb 933d addf 42bd c381 9f3d 6084 fdbd
0.06413788 -0.11320775 -0.050806887 -0.12547259 0.077192314 -0.12542841 -0.04047756 0.06218095
0.003955185 0.02695613 0.019514699 -0.06670078 -0.12541053 -0.0635719 -0.12535022 0.018439984
0.072226636 -0.047576595 0.07788422 -0.12378764

fc_value.0.weight f4 [1, 16]
00000000: cc0e 843c ed83 ebbd 06c9 563f 9e78 3fbe
00000010: 4fe6 71bd 152a 13be 8107 4c3e 4478 1f3e
00000020: 61b8 cf3e 9bba 84be f013 863e e9f9 2e3f
00000030: 8ce5 43be cda6 083e e615 563e a1d5 c5bd
0.016120337 -0.11499772 0.8390049 -0.18698356 -0.05905753 -0.14371522 0.19924738 0.15573221
0.40570357 -0.2592362 0.26187086 0.6835008 -0.19130534 0.1334488 0.20906791 -0.09659887
