save/client-0/eval.pth (torch, 42501 bytes, 27 tensors)

layer1_task.0.weight f4 [32, 3]
0	0x3c59c5a2	0.013291748
1	0x3cd69d40	0.02619803
2	0xbe95ccee	-0.2925791
3	0xbe1ded2a	-0.15422502
4	0xbc1fcf41	-0.009754003
5	0xbcd0d21f	-0.025490819
6	0xbec9497e	-0.39313883
7	0x3d4d1419	0.050067995
8	0x3ea6c1b3	0.32569656
9	0xbd7566ec	-0.059912607
10	0x3d8a6df5	0.06759254
11	0x3e96ddf4	0.29466212
12	0xbca5df4c	-0.020248078
13	0xbeb22191	-0.34791234
14	0x3c843768	0.016139701
15	0x3e2c811c	0.16846126
16	0x3b036ef8	0.0020055156
17	0xbccf484c	-0.025303029
18	0xbe9bc635	-0.30424657
19	0xbe6d5028	-0.23175108
20	0x3da2dce1	0.079522856
21	0xbdeae832	-0.11470069
22	0x3e01abbc	0.12663168
23	0x3da2e705	0.0795422
24	0xbce9b1e2	-0.028527204
25	0x3ec65180	0.38734055
26	0x3cfcda27	0.030865742
27	0x3d641b5a	0.055690147
28	0xbe4a5170	-0.19757628
29	0xbe4631c3	-0.1935492
30	0x3d14bc14	0.036312178
31	0x3d6232b7	0.055224147
32	0x3e11947a	0.14216796
33	0x3c85f944	0.01635421
34	0x3ee5c85d	0.44879428
35	0xbe227390	-0.15864396
36	0xbe685fc1	-0.22692777
37	0xbe64ca26	-0.22342739
38	0x3e14ff74	0.14550573
39	0xbdd5712d	-0.10421977
40	0x3ed825e0	0.42216396
41	0xbd3f0471	-0.046635095
42	0xbde35ad2	-0.11101307
43	0xbe8a152f	-0.26969287
44	0xbeb11b16	-0.34590977
45	0x3dfac5be	0.122447476
46	0x3e2a38ec	0.16623276
47	0x3eb867ae	0.360166
48	0x3e67ee2d	0.2264945
49	0x3e9af897	0.30267784
50	0x3f05f45e	0.52326
51	0x3d15a668	0.03653565
52	0xbc58d31c	-0.013233926
53	0xbe461386	-0.19343385
54	0x3e210f7c	0.15728563
55	0xbdda3359	-0.10654325
56	0x3e270c95	0.16313393
57	0xbccadb2b	-0.02476271
58	0xbe8c752e	-0.2743315
59	0xbd1f50ba	-0.038895346
60	0xbf0cbfed	-0.54980356
61	0xbdba5229	-0.09097702
62	0xbd278af8	-0.040904015
63	0x3e2d32ec	0.16913956
64	0xbeb7182a	-0.35760623
65	0x3d04ade6	0.032392405
66	0x3df85ad3	0.12126698
67	0x3e1bbd70	0.15208983
68	0xbd69a380	-0.05704069
69	0xbe648dca	-0.22319713
70	0x3dc1eecc	0.09469375
71	0x3d5acbdd	0.053417075
72	0xbd999960	-0.07499957
73	0x3d53b360	0.051684737
74	0xbdaa384f	-0.08311521
75	0x3e20fdc6	0.15721807
76	0x3d3d43c2	0.046207197
77	0xbe6cc176	-0.23120674
78	0x3e68b1d9	0.22724093
79	0x3dd75b64	0.10515478
80	0x3df18d44	0.117945224
81	0xbc689916	-0.014196655
82	0xbe12c536	-0.14333043
83	0x3dd7e110	0.10540974
84	0xbe7c3aee	-0.24631855
85	0xbba05229	-0.0048926068
86	0xbd873f03	-0.066038154
87	0x3ea32f44	0.31871998
88	0xbea4cea2	-0.32188898
89	0x3dd9d464	0.106362134
90	0x3e16d9df	0.14731549
91	0x3c3ef0fc	0.011654135
92	0xbe84fb91	-0.2597318
93	0x3e05a437	0.13050924
94	0xbf22d0fb	-0.6360013
95	0x3e519135	0.20465548

layer1_task.0.bias f4 [32]
0	0xbb806859	-0.003918689
1	0xbb576124	-0.0032864297
2	0xbb7d11e3	-0.0038615398
3	0xbc6494dd	-0.013951507
4	0x3aefe19c	0.001830149
5	0xbc3dd41c	-0.011586215
6	0x3b887788	0.00416464
7	0xbc261b75	-0.010138382
8	0x3b88c9ae	0.0041744327
9	0xbc12f5e6	-0.00896976
10	0xbc2c747d	-0.01052582
11	0x3ba9b7a6	0.0051793633
12	0x3ad488cf	0.0016215089
13	0xbb7d1200	-0.0038615465
14	0xbb666f4b	-0.003516155
15	0xbc048e2c	-0.008090537
16	0x3bf166fe	0.007367014
17	0xbb518b51	-0.0031973908
18	0xb9e70c1a	-0.0004406877
19	0xbb873282	-0.004125894
20	0x3b986d0e	0.004651672
21	0xb8f843c0	-0.00011838181
22	0xbbe323f2	-0.0069317752
23	0xbbf1ac51	-0.007375278
24	0x3bf149fc	0.007363556
25	0xbc16f212	-0.0092129875
26	0xba2d45d8	-0.0006609834
27	0xbb8caaa3	-0.0042928024
28	0x3aa148dd	0.001230504
29	0xbc2069d6	-0.009790858
30	0x3ab884d8	0.0014077676
31	0xbb09c675	-0.002102283

layer1_task.2.weight f4 [32]
0	0x3f804bb9	1.0023109
1	0x3f8015b2	1.0006621
2	0x3f7c952b	0.9866511
3	0x3f81d199	1.0142089
4	0x3f80b93d	1.005653
5	0x3f81c2c7	1.0137566
6	0x3f8143e4	1.0098844
7	0x3f80ee15	1.0072657
8	0x3f80f386	1.0074317
9	0x3f7b31ab	0.9812266
10	0x3f820012	1.0156271
11	0x3f801d77	1.0008992
12	0x3f80d2f4	1.0064378
13	0x3f802017	1.0009793
14	0x3f81a1dd	1.0127522
15	0x3f7fbdf1	0.998992
16	0x3f7f7e36	0.9980196
17	0x3f80f243	1.0073932
18	0x3f7d24a1	0.98884016
19	0x3f7bda30	0.983798
20	0x3f806ed4	1.0033822
21	0x3f7d543b	0.9895665
22	0x3f802a79	1.0012962
23	0x3f8071ab	1.0034689
24	0x3f81bba5	1.013539
25	0x3f7f48d8	0.99720526
26	0x3f7c163c	0.98471427
27	0x3f81c1eb	1.0137304
28	0x3f7c5f3b	0.9858281
29	0x3f7ffc1c	0.99994063
30	0x3f7f3641	0.9969216
31	0x3f81e9d4	1.0149484

layer1_task.2.bias f4 [32]
0	0xbbdbd55f	-0.0067087854
1	0xbb55c6ad	-0.003261964
2	0xbc288026	-0.010284459
3	0x3c44bf03	0.012008431
4	0x3b8d0bd7	0.00430439
5	0x3c265b5e	0.01015362
6	0x3c2b5ad1	0.010458664
7	0x3c4c4ac8	0.012469001
8	0x3c4e09f8	0.012575619
9	0xbccd22f3	-0.02504108
10	0x3c683a73	0.014174092
11	0x3c4a65b3	0.012353349
12	0x3c130fec	0.008975964
13	0xbc200f07	-0.009769208
14	0x3c7fdb52	0.015616255
15	0xbc3280b3	-0.010894942
16	0xb99c467c	-0.00029807154
17	0x3c1904d4	0.00933953
18	0xbbfd884a	-0.007737194
19	0xbc9057ed	-0.017620051
20	0x3b9b7936	0.004744674
21	0xbc68d80a	-0.014211664
22	0xbc37621c	-0.011192825
23	0xba22c274	-0.00062087853
24	0x3c6a3934	0.014295865
25	0xbbdb6213	-0.006695041
26	0xbca812f1	-0.020516844
27	0x3c5034aa	0.012707869
28	0xbc777d61	-0.015105576
29	0xbaa27725	-0.0012395127
30	0xbbac6d93	-0.0052620857
31	0x3c8060a1	0.015671076

layer1_task.2.running_mean f4 [32]
0	0x44510127	836.018
1	0xc5c84d7d	-6409.686
2	0xc684b86c	-16988.21
3	0xc50b9a4e	-2233.644
4	0xc42ab662	-682.84973
5	0x45d5f77e	6846.9365
6	0xc64efe93	-13247.644
7	0xc5929ce1	-4691.61
8	0xc4b29a02	-1428.8127
9	0x45005841	2053.5159
10	0x44a90329	1352.0988
11	0x4420d098	643.2593
12	0xc60fd3a7	-9204.913
13	0xc588fdf7	-4383.7456
14	0xc5a0af4d	-5141.9126
15	0x45a4f99e	5279.202
16	0x4617894d	9698.325
17	0x44bf8d1d	1532.4098
18	0x45cdf16c	6590.1777
19	0xc49530c7	-1193.5243
20	0xc6b6bf47	-23391.639
21	0x45dbc31f	7032.39
22	0x45a422be	5252.343
23	0xc6143b10	-9486.766
24	0xc54a992b	-3241.573
25	0x45d6f0e8	6878.1133
26	0x46106d03	9243.253
27	0xc41824fc	-608.5779
28	0xc6180b00	-9730.75
29	0x464c539c	13076.902
30	0x45c12595	6180.6978
31	0x45b310b4	5730.088

layer1_task.2.running_var f4 [32]
0	0x4bd0ba7b	2.7358454e+07
1	0x4e9941d6	1.2856143e+09
2	0x50011382	8.662157e+09
3	0x4d1f1773	1.6681963e+08
4	0x4b81d985	1.7019658e+07
5	0x4e5c5177	9.240816e+08
6	0x4f99d947	5.162307e+09
7	0x4e20f93f	6.751723e+08
8	0x4bfc8a57	3.3100974e+07
9	0x4c8bd3e5	7.330999e+07
10	0x4bff7459	3.348293e+07
11	0x4b5d95fb	1.4521851e+07
12	0x4ed12b4a	1.7546376e+09
13	0x4e076937	5.679549e+08
14	0x4e3bfceb	7.8847866e+08
15	0x4e4ad25d	8.50696e+08
16	0x4f3378d4	3.0110403e+09
17	0x4c90a456	7.583403e+07
18	0x4ea43ec1	1.377788e+09
19	0x4c22f174	4.2714576e+07
20	0x507d7128	1.7008206e+10
21	0x4e4d8b47	8.6211424e+08
22	0x4e4c7840	8.576082e+08
23	0x4f20aa87	2.6955302e+09
24	0x4d983bd2	3.1925715e+08
25	0x4eb9c399	1.5583018e+09
26	0x4ec021f8	1.6117258e+09
27	0x4b487336	1.3136694e+07
28	0x4ed6e8dc	1.8027924e+09
29	0x4f43f644	3.2876964e+09
30	0x4e916181	1.2195432e+09
31	0x4e6f8059	1.0045415e+09

layer1_1vm.0.weight f4 [64, 40]
0	0x3ba773a1	0.0051102196
1	0x3dd4d013	0.103912495
2	0x3d021c24	0.03176512
3	0xbc956d80	-0.01824069
4	0x3e458f84	0.19293028
5	0xbd1e3319	-0.03862295
6	0x3cde3f82	0.027129892
7	0xbde7b3be	-0.1131358
8	0xbdd28ae2	-0.10280396
9	0xbd4d5826	-0.050132893
10	0xbdc39cd0	-0.09551394
11	0xbe47bd80	-0.19505882
12	0xbdad7ee9	-0.08471472
13	0xbc9e8778	-0.019351706
14	0xbe3acbf6	-0.18241867
15	0x3db210e6	0.08694629
16	0xbd2eceb5	-0.0426776
17	0x3c7eeaad	0.015558881
18	0x3d6c39c0	0.057672262
19	0xbe7f5f52	-0.24938706
20	0x3e86ed9f	0.26353166
21	0xbd803975	-0.06260959
22	0xbd975d35	-0.07390825
23	0xbd3d80d5	-0.046265442
24	0xbde976d9	-0.113996215
25	0xbcd0c036	-0.025482278
26	0x3e075606	0.13216409
27	0xbe33e04e	-0.17566034
28	0x39f06b50	0.0004585632
29	0xbe685c36	-0.22691426
30	0xbe6e8e23	-0.23296408
31	0xbd93b1f4	-0.07211676
32	0xbc869c9d	-0.0164321
33	0xbc40da8e	-0.0117708575
34	0x3e4ff990	0.20310044
35	0x3c95e860	0.018299282
36	0x3df210f1	0.118196376
37	0xbd770113	-0.06030376
38	0x3de4e305	0.11176113
39	0x3d4eb263	0.05046309
40	0x3ce815b4	0.028330661
41	0xbe4c5720	-0.1995511
42	0x3da794da	0.08182688
43	0x3e7759eb	0.24155395
44	0x3d43d138	0.04780695
45	0x3e0c35c8	0.13692391
46	0xbdcebfde	-0.100951895
47	0xbbd46b1e	-0.006482496
48	0xbe9fe18d	-0.3122677
49	0xbd99f4eb	-0.075174175
50	0xbd805dfe	-0.062679276
51	0xbbbc9266	-0.0057547567
52	0x3e12fdc5	0.14354618
53	0x3d4de755	0.050269444
54	0xbe243e4d	-0.16039391
55	0xbd98fa0a	-0.07469566
56	0x3e733a69	0.2375275
57	0x3e322e87	0.17400561
58	0x3d46f8da	0.048577167
59	0x3e33ddaa	0.17565027
60	0xbda3214e	-0.07965337
61	0xbdc069da	-0.093951896
62	0xbdf69164	-0.1203945
63	0x3e0430f0	0.12909293
64	0xbe452cb4	-0.19255334
65	0xbde14d5a	-0.11001082
66	0x3d05f74a	0.032706536
67	0x3e67f22d	0.22650976
68	0x3e2ec5f7	0.17067705
69	0xbe3c7816	-0.18405184
70	0xbdb11710	-0.08646977
71	0xbb1180cc	-0.0022202013
72	0x3dac72e8	0.08420354
73	0x3d9326c7	0.071851306
74	0x3d92d467	0.07169419
75	0xbb82ba8c	-0.0039895233
76	0xbe9a7d0a	-0.30173522
77	0x3e39f460	0.18159628
78	0x3e26f543	0.16304497
79	0xbbb25ad3	-0.005442956
80	0xbba746ae	-0.005104861
81	0xbe5d1265	-0.21589048
82	0xbd8e133a	-0.06937261
83	0x3d3ef98f	0.046624716
84	0xbe31be52	-0.17357758
85	0x3d706598	0.058690637
86	0x3dbd435c	0.092413634
87	0x3d40e2ba	0.047091223
88	0xbe435db6	-0.19078717
89	0xbe2fa39c	-0.17152256
90	0xbc54da2f	-0.012991472
91	0x3d4c9d94	0.049954966
92	0x3c8d3539	0.017237293
93	0x3ceeb722	0.029140059
94	0x3bacc548	0.005272541
95	0xbc896f75	-0.01677678
96	0xbd97485a	-0.07386847
97	0x3e4b4686	0.19851121
98	0x3c2f2de8	0.010692097
99	0x3d1dad0a	0.0384951
100	0x3d7dbb41	0.061946157
101	0xbccebd12	-0.02523664
102	0x3d9210f8	0.07132143
103	0xbdcf4c0b	-0.10121926
104	0x3e35b724	0.17745644
105	0xbb32c1b6	-0.0027276105
106	0xbd7a3088	-0.06108144
107	0x3dc8476b	0.09779247
108	0xbe4b5317	-0.19855915
109	0xbdf38a1a	-0.11891575
110	0xbe0aa5c4	-0.13539797
111	0x3c4340aa	0.011917273
112	0x3d725ea4	0.059172288
113	0xbc329644	-0.010900084
114	0x3ce3b23e	0.027794953
115	0x3e4ef866	0.20211944
116	0x3d2a1ed5	0.04153331
117	0xbccb8fcf	-0.024848847
118	0x3db6c0fe	0.08923529
119	0xbe87c5da	-0.26518136
120	0xbdf452cd	-0.119298555
121	0xbd19f214	-0.03758438
122	0x3e39d42b	0.18147342
123	0xbe359bfa	-0.17735282
124	0x3c8a6ad9	0.016896652
125	0x3d785596	0.060628496
126	0xbc313b17	-0.010817311
127	0x3b12d8e2	0.0022407104
128	0xbdb538aa	-0.088486984
129	0xbc750d6a	-0.014956811
130	0xbd089619	-0.03334627
131	0x3dc89e96	0.09795873
132	0x3c05326d	0.008129698
133	0xbda96d10	-0.08272755
134	0xbe4853ad	-0.1956317
135	0xbddf8cc0	-0.10915518
136	0x3c1ca35d	0.009560433
137	0xbe0e0662	-0.13869622
138	0x3826dd40	3.978354e-05
139	0x3e63a913	0.22232465
140	0xbbc79e1c	-0.006091846
141	0x3e37a0ba	0.17932406
142	0x3d5bd9a4	0.053674355
143	0x3cb467d6	0.02202217
144	0xbe458903	-0.19290547
145	0x3d9056b6	0.07047789
146	0x3e240102	0.1601601
147	0x3daf2c3d	0.0855336
148	0x3dcc5580	0.09977245
149	0x3e8b89de	0.27253622
150	0xbd9c2ea1	-0.07626081
151	0x3dc9960b	0.098430716
152	0xbea6b1ee	-0.32557625
153	0xbe6b83e2	-0.22999528
154	0xbe1f4a04	-0.15555578
155	0xbe6bbd86	-0.23021516
156	0x3d821ba1	0.06352926
157	0x3df4c3f6	0.11951439
158	0xbe2f6d8b	-0.17131631
159	0x3d319b9f	0.043361302
160	0xbdceeb46	-0.101034686
161	0xbe04b91d	-0.1296124
162	0xbe713513	-0.23555402
163	0xbe40b967	-0.18820725
164	0xbe920ed9	-0.28526953
165	0xbd5b9a18	-0.053613752
166	0xbdc1546b	-0.094399296
167	0x3da7bb17	0.081899814
168	0x3ddfa80a	0.10920723
169	0x3dc258a1	0.09489561
170	0x3dc98050	0.09838927
171	0xbd810c4f	-0.06301176
172	0x3e32cd78	0.17461193
173	0x3d9eaacb	0.0774742
174	0xbe0e8fce	-0.13922045
175	0x3c9bb3c2	0.019006614
176	0xbe047c2e	-0.12937996
177	0x3e06bc90	0.13157868
178	0x3d2ceea4	0.042219773
179	0x3e1b7f96	0.15185389
180	0xbd3b5f39	-0.04574511
181	0xbddb0ada	-0.10695429
182	0x3e1b12a5	0.15143831
183	0x3e6a68aa	0.22891489
184	0x3df2fb91	0.11864389
185	0x3d1f6e4c	0.038923547
186	0xbccc02df	-0.024903713
187	0xbe14e2fc	-0.14539713
188	0xbe4500ea	-0.1923863
189	0x3d9f5070	0.07779014
190	0x3e14dfe2	0.1453853
191	0x3e164cb6	0.146777
192	0x3d51a073	0.051178407
193	0x3e85fd1f	0.2616968
194	0xbc426077	-0.011863819
195	0x3d7ab495	0.061207373
196	0xbe3d9479	-0.18513669
197	0xbd3efd22	-0.046628125
198	0x3e348a27	0.17630826
199	0x3e3ef4e7	0.1864811
200	0xbd9634c2	-0.073342815
201	0xbd240822	-0.04004682
202	0x3d8eef80	0.06979275
203	0xbd424374	-0.04742761
204	0x3cfa0c6d	0.030523503
205	0x3d954405	0.07288364
206	0x3b9fea85	0.004880252
207	0x3d38d84e	0.04512816
208	0x3d529c13	0.051418375
209	0x3dd14873	0.10218897
210	0xbdfa7a1c	-0.12230322
211	0xbe2e0560	-0.16994238
212	0x3d9eb749	0.077498026
213	0x3d845fc8	0.06463581
214	0x3d2c2813	0.042030405
215	0x3e1d11fe	0.15338895
216	0x3e8a5b7f	0.2702293
217	0x3e8c4ebc	0.2740382
218	0x3c506f4b	0.012721847
219	0x3caa852b	0.020815453
220	0xbda1852a	-0.07886727
221	0x3e102ca0	0.14079523
222	0x3bf3f902	0.0074454555
223	0x3e76a272	0.24085405
224	0x3cfa2764	0.030536361
225	0xbd9a3a2e	-0.07530628
226	0xbbfae592	-0.0076567614
227	0x3d1b1e11	0.03787047
228	0x3c9198bd	0.017773027
229	0xbdb23887	-0.08702188
230	0x3cf2d676	0.029643279
231	0x3d94e0a3	0.072694086
232	0xbcd4ce7e	-0.02597737
233	0xbe93e0ee	-0.28882545
234	0x3be2eb70	0.006925039
235	0xbe6247d3	-0.22097711
236	0xbdb64bac	-0.08901152
237	0xbce4bc92	-0.027921949
238	0x3e8f204c	0.27954328
239	0x3e102e5d	0.14080186
240	0xbe00e5f4	-0.1258772
241	0xbe5ba6c0	-0.21450329
242	0xbc3c9517	-0.011510155
243	0x3dd235d5	0.10264174
244	0xbdaf4c3f	-0.08559465
245	0xbe0d47b6	-0.13796887
246	0xbdae7a92	-0.08519472
247	0xbdc609f3	-0.096698664
248	0x3c5cdb2f	0.013479992
249	0xbd80e19d	-0.06293032
250	0xbdf37dd6	-0.11889236
251	0x3ddf9ab3	0.109181784
252	0xbe898c6e	-0.26864952
253	0x3cc734a2	0.02431709
254	0xbd6701a2	-0.05639804
255	0x3e8d4fca	0.27599937

layer1_1vm.0.bias f4 [64]
0	0x3bd14692	0.0063865865
1	0x3ab9289e	0.0014126485
2	0x3b960d6e	0.0045792377
3	0x3a6ae30a	0.0008960223
4	0x3b8d0bf3	0.004304403
5	0x3abd9beb	0.0014466023
6	0xbac69df4	-0.0015153275
7	0x39e10088	0.0004291574
8	0x3b1b3889	0.002368482
9	0xba66e480	-0.0008807853
10	0x3b9291d7	0.004472952
11	0xb7fb473b	-2.9954701e-05
12	0x3a0da09f	0.00054026576
13	0x3b0a8e0b	0.0021141793
14	0x3b56065e	0.0032657604
15	0x3b6f48e4	0.0036511952
16	0xbb1cd016	-0.002392774
17	0xbb4870ec	-0.0030584885
18	0xbbb98ae4	-0.005662309
19	0x3bd40d57	0.006471317
20	0x39fbd2bc	0.0004803146
21	0x3b4005f2	0.0029300419
22	0x3b27e0d9	0.0025616197
23	0x3a90b19a	0.0011039258
24	0x397f4b52	0.00024346754
25	0x3b57b6c7	0.003291534
26	0x3b2e7700	0.0026621222
27	0x38e2c9da	0.000108141176
28	0x3b3028d3	0.0026879802
29	0xbb8caf20	-0.0042933375
30	0x3a9d0d60	0.0011982135
31	0x3a99a733	0.0011722803
32	0x3aa416fd	0.0012519058
33	0x3b365629	0.0027822352
34	0x3ad70666	0.0016405105
35	0xb98920ab	-0.00026155016
36	0xbaf4af16	-0.0018667902
37	0x3b7c6cc2	0.0038516973
38	0xbbd44f61	-0.0064791893
39	0xb9ed708b	-0.00045288014
40	0x3bbf58e8	0.005839456
41	0xbb1a9e93	-0.0023593053
42	0xb998f6b7	-0.00029175516
43	0xbac82eda	-0.0015272752
44	0xbb4e9d56	-0.0031526885
45	0x3b498bdf	0.0030753536
46	0xbb7cd8f3	-0.003858146
47	0x3a7d218e	0.0009656184
48	0xbb8f9528	-0.0043817945
49	0xba87e4b7	-0.0010367845
50	0xba9b1e87	-0.0011834659
51	0x3a4748fa	0.0007602122
52	0xbb9cc2c6	-0.004783961
53	0x3aa036a8	0.001222332
54	0xb99289e6	-0.00027950032
55	0xba29c122	-0.00064756174
56	0x3b02a60b	0.0019935395
57	0x3b9a2e47	0.0047052237
58	0xba7b1092	-0.00095773593
59	0xbbbec440	-0.0058217347
60	0xbb9a1b6e	-0.004702977
61	0xba013c1e	-0.00049299176
62	0xbbaed798	-0.0053357594
63	0xbb479e58	-0.003045937

layer1_1vm.2.weight f4 [64]
0	0x3f7f25d0	0.9966707
1	0x3f7cdcdd	0.9877451
2	0x3f80a168	1.0049257
3	0x3f7e5b67	0.9935822
4	0x3f810f57	1.0082806
5	0x3f80117e	1.0005338
6	0x3f7d104a	0.9885298
7	0x3f7f9080	0.99829865
8	0x3f7f9374	0.9983437
9	0x3f80a6b1	1.005087
10	0x3f7e2f12	0.99290574
11	0x3f822846	1.016854
12	0x3f80e236	1.0069034
13	0x3f7dcb4f	0.9913835
14	0x3f7f404d	0.9970749
15	0x3f803248	1.0015345
16	0x3f80634d	1.0030304
17	0x3f8094ef	1.0045451
18	0x3f7e330e	0.99296653
19	0x3f8109d4	1.0081124
20	0x3f815fd6	1.0107372
21	0x3f7f4095	0.9970792
22	0x3f80f62d	1.0075127
23	0x3f7fc46c	0.9990909
24	0x3f7d6f90	0.98998356
25	0x3f80db49	1.006692
26	0x3f7fd3f3	0.99932784
27	0x3f7fca14	0.9991772
28	0x3f7f6aea	0.9977251
29	0x3f81af27	1.0131577
30	0x3f7fb965	0.99892265
31	0x3f7dceab	0.99143475
32	0x3f7e1410	0.9924936
33	0x3f7fd6e0	0.9993725
34	0x3f80928f	1.0044726
35	0x3f809eb2	1.004843
36	0x3f80c320	1.0059547
37	0x3f7f7d42	0.99800503
38	0x3f80622d	1.0029961
39	0x3f7d3c84	0.98920465
40	0x3f81c938	1.0139532
41	0x3f7da2ec	0.99076724
42	0x3f7e4234	0.9931977
43	0x3f80e841	1.0070878
44	0x3f800fd7	1.0004834
45	0x3f7efab2	0.9960128
46	0x3f805e90	1.0028858
47	0x3f805bbc	1.0027995
48	0x3f7e10d7	0.99244446
49	0x3f811276	1.0083759
50	0x3f80b536	1.0055301
51	0x3f7f2e0e	0.9967965
52	0x3f7fbf07	0.9990086
53	0x3f805095	1.0024592
54	0x3f80873a	1.0041268
55	0x3f7e3e22	0.9931356
56	0x3f806998	1.0032225
57	0x3f7f0ca8	0.99628687
58	0x3f7e2edf	0.9929027
59	0x3f8159d7	1.0105542
60	0x3f7e9dbd	0.9945944
61	0x3f7fe700	0.99961853
62	0x3f8064fe	1.003082
63	0x3f7dbe2d	0.9911831

layer1_1vm.2.bias f4 [64]
0	0xbb9b9cac	-0.0047489014
1	0xbc2a8686	-0.010408049
2	0x3b83611b	0.0040093786
3	0xbbcad457	-0.0061898637
4	0x3c0076be	0.00784081
5	0x3ab0fbc0	0.0013502762
6	0xbc393e2e	-0.011306329
7	0xbaec0a7e	-0.0018008498
8	0xbabc99a1	-0.0014389047
9	0x3ba364ce	0.004986382
10	0xbb8909ae	-0.004182062
11	0x3c805ada	0.015668321
12	0x3bdc1f22	0.0067175785
13	0xbc0b4205	-0.008499627
14	0xbae9ae02	-0.0017828348
15	0x3b38174c	0.0028090058
16	0x3b09c239	0.0021020307
17	0x3bbc4f0a	0.005746727
18	0xbbd0a24c	-0.0063670035
19	0x3c09ba78	0.008406274
20	0x3c2243b8	0.009903841
21	0xbb1fed0a	-0.002440276
22	0x3c030a82	0.007998111
23	0xba845266	-0.0010095357
24	0xbc17cc54	-0.009265024
25	0x3bdbd018	0.0067081563
26	0xbac706f5	-0.0015184568
27	0xba3e5a2c	-0.00072613615
28	0xbb65a475	-0.003504065
29	0x3c4556f0	0.012044653
30	0xbb0c876d	-0.0021443025
31	0xbc083661	-0.008313746
32	0xbc07e12e	-0.008293433
33	0xbb2e680a	-0.0026612305
34	0x3ba59504	0.0050531644
35	0x3ba3625d	0.004986091
36	0x3bbb159f	0.0057093645
37	0x39dc7290	0.00042047026
38	0x3b947e62	0.0045316676
39	0xbc37ce4d	-0.0112186195
40	0x3c611be6	0.013739562
41	0xbc1e52fb	-0.009663339
42	0xbbc3475e	-0.0059594354
43	0x3bc478f2	0.005995863
44	0x3a014efc	0.0004932729
45	0xbb1544e8	-0.0022776667
46	0x3b64d7aa	0.0034918585
47	0x3ac02b76	0.001466139
48	0xbbf2e59c	-0.0074126255
49	0x3c2759b0	0.010214254
50	0x3b93ee13	0.0045144646
51	0xbb53665b	-0.0032257054
52	0xb8ab6f50	-8.174649e-05
53	0x3b425063	0.0029649965
54	0x3b6b84d6	0.003593733
55	0xbbd37d38	-0.006454136
56	0x3a61e164	0.00086166547
57	0x3ab08038	0.0013465947
58	0xbbb83dcd	-0.0056226016
59	0x3c1ba606	0.009500032
60	0xbbd41b44	-0.006472977
61	0x38cdfba0	9.8220306e-05
62	0x3b31c63e	0.0027126218
63	0xbc273bcd	-0.010207129

layer1_1vm.2.running_mean f4 [64]
0	0x45d7c871	6905.055
1	0xc4a090ca	-1284.5247
2	0x44f4f46b	1959.6381
3	0xc646389b	-12686.151
4	0x448e1de7	1136.9344
5	0x45eb79ee	7535.241
6	0x4517cdd4	2428.8643
7	0x461bd814	9974.02
8	0xc618966f	-9765.608
9	0xc595fc38	-4799.5273
10	0x44b45528	1442.6611
11	0x46175862	9686.096
12	0xc53c650a	-3014.315
13	0x45eae676	7516.8076
14	0x46407ab0	12318.672
15	0x461ee80f	10170.015
16	0x45ef1845	7651.0337
17	0x462d8bff	11106.999
18	0x463c8760	12065.844
19	0x458a2a67	4421.3003
20	0xc592623d	-4684.28
21	0x4591acea	4661.6143
22	0x448fb846	1149.7585
23	0xc51a3532	-2467.3247
24	0xc5b52833	-5797.025
25	0x458ed06e	4570.0537
26	0x4633f22c	11516.543
27	0xc626427a	-10640.619
28	0x45eed632	7642.7744
29	0x4602a72b	8361.792
30	0x46b04696	22563.293
31	0xc5f5620c	-7852.256
32	0x4613e9e2	9466.471
33	0x4504c984	2124.5947
34	0x458cd367	4506.4253
35	0xc44a9e88	-810.47705
36	0x45f0b720	7702.8906
37	0x43b62ab6	364.33368
38	0xc4e64913	-1842.2836
39	0xc6016ef2	-8283.736
40	0x455ef083	3567.032
41	0xc642fad9	-12478.712
42	0x467baf70	16107.859
43	0x46285ab6	10774.678
44	0x454b0169	3248.0881
45	0x451afa04	2479.626
46	0xc3f38d09	-487.10184
47	0xc5fc3fbf	-8071.9683
48	0x445cdc71	883.4444
49	0x44726754	969.6145
50	0xc690bd3f	-18526.623
51	0xc5872d72	-4325.6807
52	0xc4518c36	-838.1908
53	0x45e01955	7171.1665
54	0x45bb929e	6002.327
55	0xc5d7b642	-6902.782
56	0x43adb5e4	347.42102
57	0x454c8d8e	3272.8472
58	0xc5f233cf	-7750.476
59	0xc571da70	-3869.6523
60	0x4640737d	12316.872
61	0x461d4850	10066.078
62	0xc42ed2e2	-699.29504
63	0xc601f933	-8318.3

layer1_1vm.2.running_var f4 [64]
0	0x4b64c29e	1.499203e+07
1	0x490ec1ec	584734.75
2	0x49961af0	1.229662e+06
3	0x4c2e0ed6	4.562825e+07
4	0x48b40cfd	368743.9
5	0x4b6116a0	1.4751392e+07
6	0x49e22ec8	1.852889e+06
7	0x4bdcee3e	2.895782e+07
8	0x4bc9bc60	2.644192e+07
9	0x4ae68df5	7.5548105e+06
10	0x4925e9bc	679579.75
11	0x4bc4e758	2.580856e+07
12	0x4a34d2de	2.9626155e+06
13	0x4b84bd03	1.7398278e+07
14	0x4c2288e0	4.260749e+07
15	0x4be85c35	3.0455914e+07
16	0x4b8f134c	1.8753176e+07
17	0x4c0c62ec	3.6801456e+07
18	0x4c20942e	4.2094776e+07
19	0x4aa8437f	5.5136635e+06
20	0x4ab501cc	5.931238e+06
21	0x4acbe49e	6.681167e+06
22	0x48d4df61	435963.03
23	0x49cf7d86	1.6997608e+06
24	0x4b2be55b	1.1265371e+07
25	0x4aa7433b	5.4808615e+06
26	0x4c25d16c	4.346821e+07
27	0x4bf2b6ed	3.1813082e+07
28	0x4b870022	1.7694788e+07
29	0x4b8ce89c	1.8469176e+07
30	0x4d09b1d6	1.4438333e+08
31	0x4b8e3711	1.8640418e+07
32	0x4bbe81c5	2.4970122e+07
33	0x499d2470	1.28731e+06
34	0x4a9dcf1e	5.171087e+06
35	0x489630e3	307591.1
36	0x4b872366	1.7712844e+07
37	0x480f378a	146654.16
38	0x4969ab03	957104.2
39	0x4bac8924	2.26146e+07
40	0x4a46e075	3.2583972e+06
41	0x4c1ad1a6	4.0584856e+07
42	0x4c92b9af	7.692633e+07
43	0x4c019e18	3.3978464e+07
44	0x4a3c93cd	3.0896512e+06
45	0x49f266eb	1.9857574e+06
46	0x482e21bb	178310.92
47	0x4b97784c	1.9853464e+07
48	0x48b4468b	369204.34
49	0x48a218c8	331974.25
50	0x4ca6118c	8.706774e+07
51	0x4aaa6ecc	5.584742e+06
52	0x48915606	297648.2
53	0x4b523f88	1.3778824e+07
54	0x4b28d65f	1.1064927e+07
55	0x4b5d37d0	1.4497744e+07
56	0x48017fab	132606.67
57	0x4a21e540	2.652496e+06
58	0x4b8019e4	1.6790472e+07
59	0x4a85188e	4.361287e+06
60	0x4c24f437	4.3241692e+07
61	0x4bbb4f33	2.4551014e+07
62	0x486a98a9	240226.64
63	0x4ba22d46	2.1256844e+07

layer1_2vm.0.weight f4 [32, 64]
0	0x3dff92d7	0.12479179
1	0x3b8bfacf	0.004271842
2	0x3dafc24f	0.08581983
3	0xbd9123ea	-0.07086928
4	0x3e5c9bd0	0.21543813
5	0x3c57aca4	0.013163719
6	0x3e2988fb	0.1655616
7	0xbb59e827	-0.0033249946
8	0x3d66bfd7	0.056335296
9	0xbe0c0978	-0.13675487
10	0x3db59742	0.08866741
11	0x3cc92295	0.024552623
12	0x3d747bd7	0.059688415
13	0xbe030831	-0.12796094
14	0x3e82b2fe	0.25527185
15	0xbdfc59a4	-0.12321785
16	0xbd4f663e	-0.050634615
17	0x3b274435	0.0025522832
18	0x3e3a539d	0.18195958
19	0x3d8268d9	0.06367654
20	0xbe7809c8	-0.24222481
21	0xbe616e44	-0.22014719
22	0xbd9d3ab6	-0.07677214
23	0xbc2dcd82	-0.010608079
24	0xbc64d140	-0.013965905
25	0x3a14d7ed	0.00056779274
26	0xbca6e216	-0.020371478
27	0x3cc976ae	0.024592724
28	0x3cacd535	0.021097759
29	0xbd7a2ea8	-0.06107965
30	0x3dc8b64a	0.09800394
31	0xbe8cbace	-0.2748627
32	0xbe085c77	-0.13316523
33	0x3e03595a	0.12827054
34	0x3de277af	0.11057984
35	0xbd5823aa	-0.052768387
36	0xbe3903da	-0.18067876
37	0x3dc3afe3	0.09555032
38	0xbe1ec5f5	-0.15505202
39	0xbdc70a29	-0.09718735
40	0x3de001c4	0.10937837
41	0x3dc51c8f	0.09624588
42	0xbb7a8c9e	-0.0038230787
43	0x3e45838f	0.19288467
44	0xbd1edf12	-0.038786955
45	0x3d12888b	0.03577475
46	0xbe898efd	-0.26866904
47	0xbde6aeac	-0.11263785
48	0xbdc4bc20	-0.096061945
49	0x3e0aff80	0.13574028
50	0xbd90064b	-0.0703245
51	0xbe413963	-0.18869548
52	0x3e2b24a3	0.16713195
53	0xbd0046a7	-0.03131738
54	0x3d6cbd03	0.057797443
55	0xbe136345	-0.14393337
56	0xbdd05f40	-0.101744175
57	0x3e90bfde	0.28271383
58	0xbd93b13e	-0.07211541
59	0xbe8afdaa	-0.27146655
60	0x3deced46	0.11568694
61	0xbcce6d4f	-0.025198607
62	0xbe1e84ab	-0.15480296
63	0xbdd36581	-0.10322095
64	0x3dc7f5c7	0.09763675
65	0x3deb8c60	0.11501384
66	0x3e2db4a2	0.16963437
67	0xbe3bd75e	-0.18343875
68	0x3e3d20f7	0.18469606
69	0x3d4354e4	0.04768838
70	0xbeac0ff8	-0.33605933
71	0xbe433c86	-0.19066057
72	0x3e33ea1e	0.17569777
73	0xbe45f3e4	-0.19331318
74	0x3e4e8146	0.20166501
75	0xbd940a57	-0.07228535
76	0xbe247739	-0.16061105
77	0xbddcb70b	-0.107771
78	0xbe4c68aa	-0.19961801
79	0xbe1473e4	-0.14497334
80	0xbdabc42f	-0.083870284
81	0xba842bb0	-0.0010083821
82	0x3ef6fe91	0.48241094
83	0x3e6b3148	0.22968018
84	0xbe8284ae	-0.25491852
85	0x3c173971	0.009230004
86	0xbdfb1a0d	-0.12260828
87	0x3c86c3a3	0.016450709
88	0x3d07512f	0.033036407
89	0x3c6d7f54	0.014495689
90	0x3d89eb7a	0.06734367
91	0xbd9da456	-0.0769736
92	0x3d663454	0.056202248
93	0x3d03d454	0.032184914
94	0xbd740fe6	-0.059585474
95	0x3e24efbd	0.16107078
96	0x3dd10470	0.102059245
97	0xbe8aa97f	-0.2708244
98	0xbe6b5ee4	-0.22985417
99	0xbd597efe	-0.053099625
100	0x3dca2a88	0.098713934
101	0xbe89b5f7	-0.2689664
102	0xbd9c6681	-0.076367386
103	0xbe06ea3b	-0.1317529
104	0xbe446af2	-0.19181421
105	0x3ca08b00	0.01959753
106	0x3c1fe4d4	0.009759147
107	0xbe40c9a4	-0.1882692
108	0x3c7b18ae	0.015325708
109	0xbd96e2e8	-0.07367498
110	0xbdf9cc29	-0.121971436
111	0x3dcd3bda	0.100211814
112	0xbe506540	-0.20351124
113	0xbe271dc7	-0.16319953
114	0xbd20521c	-0.039140806
115	0x3d8cba52	0.06871475
116	0xbe3ed1e3	-0.18634753
117	0xbda70ff8	-0.08157343
118	0x3d224022	0.039611943
119	0x3df09052	0.11746277
120	0xbd20d9cd	-0.03927021
121	0xbe69d08a	-0.22833458
122	0x3db7131a	0.0893919
123	0x3dfb7170	0.12277496
124	0xbda607d5	-0.081069626
125	0xbc043bab	-0.008070867
126	0x3e2ae0c9	0.16687311
127	0xbd2a4626	-0.041570805
128	0xbe74b59a	-0.238974
129	0x3dca5531	0.0987953
130	0x3d00327d	0.03129815
131	0x3d99b4d9	0.07505197
132	0x3df600c8	0.12011868
133	0x3e895bca	0.26827842
134	0xbe2d3d2e	-0.1691787
135	0xbe74c5c3	-0.23903565
136	0x3e5c64df	0.21522854
137	0xbe49fda8	-0.19725668
138	0x3e3a18c8	0.18173516
139	0xbe1039ec	-0.14084595
140	0xbebaf080	-0.36511612
141	0x3e14d099	0.14532699
142	0x3dd9da18	0.10637301
143	0x3e73c4d3	0.23805551
144	0x3e1ad360	0.15119696
145	0x3d9d5508	0.07682234
146	0xbde45fb4	-0.111510664
147	0xbe3b7dee	-0.18309757
148	0xbe3f0894	-0.18655616
149	0x3ded482d	0.11586032
150	0xbe24fae1	-0.16111328
151	0x3dccad71	0.09994019
152	0xbe83ef4e	-0.25768512
153	0x3e33c3b7	0.17555128
154	0xbe9941e5	-0.29933086
155	0x3cb6cb30	0.022313684
156	0x3d765af5	0.060145337
157	0xbdf20107	-0.11816602
158	0xbe22cd0c	-0.15898532
159	0xbdea9493	-0.114541195
160	0xbdaa16b6	-0.08305113
161	0x3d4509dd	0.04810511
162	0x3e0d0814	0.13772613
163	0xbdb32fa6	-0.087493226
164	0x3e59a421	0.21254016
165	0xbdbab3fa	-0.09116359
166	0x3d6e40dc	0.058167323
167	0x3cfe5022	0.03104407
168	0x3cbb18f4	0.022839047
169	0xbe788e4c	-0.24273032
170	0x3d5d7669	0.054068003
171	0xbcc7bde3	-0.024382537
172	0x3cdb7673	0.02678988
173	0x3d7f5b74	0.062343076
174	0x3deb63b2	0.11493625
175	0xbde7026b	-0.11279758
176	0xbddda7a2	-0.10822989
177	0xbe2945ca	-0.16530529
178	0xbe03c7ae	-0.1286914
179	0x3dc29fa7	0.095031075
180	0xbe0fee7e	-0.14055821
181	0x3d329f74	0.043609098
182	0xbd41a9b2	-0.047280975
183	0xbe26d739	-0.16293038
184	0x3eb6cb3e	0.35701936
185	0xbcb48797	-0.02203731
186	0x3e390b93	0.18070821
187	0x3dad4982	0.08461286
188	0x3dd023a8	0.10163051
189	0x3e0061e1	0.12537338
190	0xbe1fecd5	-0.15617688
191	0xbd9acd9f	-0.0755875
192	0x3c1683f4	0.0091867335
193	0xbe0f6131	-0.1400192
194	0x3c94e10b	0.018173715
195	0xbc91b029	-0.017784195
196	0xbd8b8fa1	-0.068145044
197	0x3d8c3aa1	0.0684712
198	0x3c857bd5	0.0162944
199	0xbe178bc7	-0.14799415
200	0xbb6ae099	-0.0035839437
201	0x3e24b615	0.16085084
202	0xbd76829e	-0.06018316
203	0xbe5595ea	-0.20857969
204	0x3e04c7e5	0.12966879
205	0xbd75fcb3	-0.060055446
206	0xbe854207	-0.26026937
207	0xbdf4a63a	-0.11945768
208	0x3ba4125e	0.0050070724
209	0x3d8d444c	0.06897792
210	0xbc096158	-0.008385025
211	0xbdbc5f94	-0.091979176
212	0x3e5e466f	0.21706556
213	0x3d9844e1	0.074350126
214	0x3c33e471	0.010979758
215	0x3d8304f4	0.06397429
216	0xbd3c00a9	-0.045899067
217	0xbe8608a5	-0.2617847
218	0x3d51725b	0.05113445
219	0xbda46455	-0.08026949
220	0xbd825ead	-0.06365714
221	0xbd83072a	-0.06397851
222	0x3e1a748a	0.15083519
223	0xbe51b116	-0.20477709
224	0xbc987663	-0.018611139
225	0xbd2e2000	-0.042510986
226	0xbd6844e7	-0.056706335
227	0x3e26bb9d	0.16282506
228	0x3d58f27a	0.05296562
229	0xbc1e0fa3	-0.009647283
230	0xbd9fb0ec	-0.07797417
231	0xbc60ee41	-0.013728679
232	0x3b8e64fb	0.004345534
233	0x3dfc77fc	0.12327573
234	0x38ef3e00	0.000114079565
235	0xbd273809	-0.040824924
236	0x3e0ae97b	0.13565628
237	0x3e5512c9	0.20807947
238	0x3e921cde	0.2853765
239	0x3ca5a1ef	0.020218818
240	0x3d580331	0.05273742
241	0xbe64f24c	-0.22358054
242	0x3d678b4f	0.05652934
243	0xbd569acf	-0.05239373
244	0xbe4246ae	-0.18972275
245	0x3da26c91	0.07930864
246	0x3e2a23b2	0.16615179
247	0x3d89d1a1	0.06729437
248	0x3e324791	0.17410113
249	0x3c16ca60	0.009203523
250	0xbc1fb551	-0.009747819
251	0xbe974a8e	-0.29549068
252	0xbc72dc18	-0.014822982
253	0xbe924666	-0.28569335
254	0xbddf4961	-0.10902668
255	0x3d83938d	0.064246275

layer1_2vm.0.bias f4 [32]
0	0x3c1f33e9	0.009716966
1	0xbc381119	-0.011234545
2	0x3ae93086	0.001779095
3	0xbbf1f718	-0.007384192
4	0x3b845edb	0.004039628
5	0x3b46e52c	0.0030349
6	0x38ff5440	0.0001217504
7	0xba5fc7dc	-0.0008536556
8	0xbc6eff0f	-0.014587178
9	0xb85c0580	-5.245721e-05
10	0x3bb2758d	0.005446142
11	0x3bac24c1	0.005253405
12	0xbae0566e	-0.0017115602
13	0xbb450b80	-0.003006667
14	0xbc6c110e	-0.014408363
15	0x3b61701a	0.0034399093
16	0x3b2fa9b2	0.0026804027
17	0x3ba3bd7c	0.0049969535
18	0x398719b0	0.00025768345
19	0xbcc72ea9	-0.024314241
20	0xbb203c4f	-0.002445001
21	0x3bcbe472	0.006222301
22	0xbbafad37	-0.005361225
23	0x3a942436	0.0011302296
24	0xba976122	-0.0011549334
25	0x3c149509	0.009068736
26	0x3bcabb7d	0.006186901
27	0x3b43ba49	0.0029865673
28	0xbbcc2db4	-0.006231034
29	0x3c9ca008	0.019119278
30	0x3bbf9cd1	0.0058475514
31	0x3b20d302	0.0024539833

layer1_2vm.2.weight f4 [32]
0	0x3f7e4aec	0.9933307
1	0x3f8167fd	1.010986
2	0x3f80c826	1.006108
3	0x3f81f3de	1.0152547
4	0x3f80df6f	1.0068187
5	0x3f7eb52c	0.99495196
6	0x3f7e7a69	0.99405533
7	0x3f814fa7	1.0102433
8	0x3f80b2dd	1.0054585
9	0x3f79f7b1	0.9764357
10	0x3f807d6c	1.0038276
11	0x3f815f20	1.0107155
12	0x3f7e3905	0.99305755
13	0x3f7e9770	0.99449825
14	0x3f7f8f1f	0.9982776
15	0x3f806027	1.0029343
16	0x3f7bd353	0.9836933
17	0x3f7d32e7	0.98905796
18	0x3f7d353a	0.9890934
19	0x3f793371	0.9734412
20	0x3f805651	1.0026342
21	0x3f80ccdf	1.0062522
22	0x3f7e213d	0.9926947
23	0x3f808b30	1.0042477
24	0x3f7f8c3f	0.99823374
25	0x3f7e4db1	0.993373
26	0x3f7d653e	0.9898261
27	0x3f7edf19	0.9955917
28	0x3f7bba42	0.9833108
29	0x3f82487b	1.0178369
30	0x3f813878	1.0095358
31	0x3f7e6bbb	0.99383134

layer1_2vm.2.bias f4 [32]
0	0xbc20bf82	-0.009811284
1	0x3c774155	0.01509126
2	0x3c01676e	0.007898195
3	0x3c95a5e6	0.018267583
4	0x3c69fca6	0.0142814275
5	0x39069358	0.00012834126
6	0xbbd59501	-0.006518007
7	0x3aa68bbf	0.0012706443
8	0xbc452242	-0.0120320935
9	0xbcda8e47	-0.026679171
10	0xbb070d9c	-0.0020607477
11	0x3c74e08a	0.014946112
12	0xbc9d9c72	-0.019239638
13	0xbc702b01	-0.01465869
14	0x3c8572ce	0.016290095
15	0x3bf6ee54	0.007535735
16	0xbc3d1d02	-0.0115425605
17	0xbc401974	-0.0117248185
18	0xbbe7a02a	-0.0070686536
19	0xbcebbaad	-0.028775537
20	0x3bd92e27	0.0066278162
21	0x3c23803b	0.009979303
22	0x3c43160a	0.01190711
23	0xbbdc0e2c	-0.0067155566
24	0xbb7ec85c	-0.0038876748
25	0xbc04d13e	-0.008106528
26	0xbbc15922	-0.005900518
27	0xbbc6b7db	-0.0060643977
28	0xbca10829	-0.019657211
29	0x3cc4afe6	0.024009656
30	0x3c141999	0.009039306
31	0xbc555ec9	-0.013023087

layer1_2vm.2.running_mean f4 [32]
0	0xbeb7bce1	-0.3588629
1	0xbf15d88c	-0.5853355
2	0xbe59a6ce	-0.21255037
3	0xbe43ae12	-0.19109371
4	0xbee6caa1	-0.4507647
5	0x3e3e4a10	0.1858294
6	0xbeecaece	-0.46227115
7	0x3e0c978a	0.13729683
8	0x3ee38ca1	0.4444323
9	0xbeb80106	-0.3593828
10	0x3eb99c18	0.36251903
11	0x3f1e470c	0.6182716
12	0xbe1f6702	-0.15566638
13	0x3b4c0d7c	0.0031135967
14	0xbeb6782b	-0.35638556
15	0xbebc0669	-0.3672364
16	0xbedc3fdc	-0.4301747
17	0xbe348fa8	-0.17632926
18	0x3ef9e01c	0.48803794
19	0x3ded3479	0.11582274
20	0xbf5a50b4	-0.85279393
21	0x3eb9c159	0.36280325
22	0xbed7ac45	-0.4212362
23	0xbe2471fa	-0.16059104
24	0xbdceb579	-0.10093207
25	0x3f0620d2	0.5239383
26	0xbccf488e	-0.025303151
27	0x3f0844eb	0.5323016
28	0x3da0a277	0.07843488
29	0x3f03c58e	0.5147332
30	0x3ed814c2	0.42203337
31	0xbe55fec2	-0.20897964

layer1_2vm.2.running_var f4 [32]
0	0x3f0f1b63	0.55901164
1	0x3f106d7d	0.56417066
2	0x3f2832fe	0.6570281
3	0x3eee2d15	0.4651877
4	0x3f1b2006	0.6059574
5	0x3f163fad	0.5869091
6	0x3f1341c4	0.57522225
7	0x3f093cd8	0.53608465
8	0x3ec74a7a	0.3892401
9	0x3f1494b4	0.580394
10	0x3f0db8cf	0.5536012
11	0x3f20b47a	0.62775385
12	0x3f00fc15	0.50384647
13	0x3f1ddc58	0.6166434
14	0x3f061c24	0.5238669
15	0x3f36503a	0.71216166
16	0x3ed06955	0.40705362
17	0x3edd1ce4	0.43186104
18	0x3f469b23	0.7758047
19	0x3ef31144	0.4747411
20	0x3f7519c2	0.9574243
21	0x3f0c4cff	0.54804987
22	0x3f11e59c	0.5699098
23	0x3f0a6640	0.5406227
24	0x3f0107ef	0.5040273
25	0x3ee8d3e4	0.4547416
26	0x3ed1c68b	0.4097179
27	0x3f094c66	0.536322
28	0x3ee2df1b	0.4431084
29	0x3f2f54de	0.6848887
30	0x3f046ea0	0.517313
31	0x3f002f05	0.50071746

layer2.0.weight f4 [32, 64]
0	0xbaef580f	-0.0018260496
1	0xbc7d33f9	-0.015454286
2	0xbd467379	-0.048449967
3	0x3e72c7aa	0.23708978
4	0x3d99b651	0.07505477
5	0x3dc287cb	0.09498557
6	0x3e866929	0.26252106
7	0x3d86b554	0.06577554
8	0x3de1ed39	0.11031575
9	0xbdefae7d	-0.11703203
10	0x3e5f99f8	0.21836078
11	0x3d347c72	0.044063993
12	0xbd87b1c9	-0.06625707
13	0x3c69d70d	0.0142724635
14	0xbc34906d	-0.011020762
15	0xbc975d5a	-0.01847713
16	0x3e855fbf	0.2604961
17	0xbe33af80	-0.17547417
18	0xbe03f2a7	-0.12885533
19	0xbde5bf66	-0.11218147
20	0x3d981024	0.074249536
21	0x3d567577	0.052358117
22	0xbd4455ff	-0.047933575
23	0xbd99a33b	-0.07501837
24	0x3e23bd14	0.15990096
25	0x3c1411ce	0.009037448
26	0xbe3f1fca	-0.1866447
27	0x3e562dd4	0.2091592
28	0xbe3b286f	-0.18277143
29	0x3d9691eb	0.073520504
30	0x3d9c7bdf	0.07640814
31	0x3df014db	0.11722728
32	0xbe0c1af9	-0.13682164
33	0x3e866465	0.2624847
34	0x3d868be7	0.06569653
35	0x3e1fc6e5	0.15603216
36	0x3e748179	0.23877515
37	0x3e080939	0.13284768
38	0x3aca2c2e	0.0015424544
39	0x3d28dd5c	0.04122673
40	0xbd6125e7	-0.054967787
41	0xbdcf98c1	-0.10136557
42	0xbdb0b25b	-0.086277686
43	0x3e0b2bfe	0.13591
44	0xbdd97577	-0.10618108
45	0xbd0ac60c	-0.03388028
46	0x3ec77da9	0.3896306
47	0xbda1c371	-0.078986056
48	0xbdc2e300	-0.09515953
49	0xbe0bb43e	-0.13642976
50	0x3d252ae5	0.04032411
51	0xbe4593b9	-0.19294633
52	0xbca651d7	-0.020302696
53	0x3e147eab	0.14501445
54	0x3ebf1735	0.37322393
55	0xbe33a217	-0.17542301
56	0xbdeace20	-0.114650965
57	0xbe1bb91d	-0.15207334
58	0xbe55fac5	-0.20896442
59	0x3d414036	0.047180377
60	0xbe0d46ce	-0.13796541
61	0x3d8437af	0.06455933
62	0x3e42d241	0.19025518
63	0xbe98fc3e	-0.29879946
64	0x3e0e4b18	0.13895833
65	0x38aab782	8.140413e-05
66	0xbcf6ade2	-0.03011221
67	0x3c1ee895	0.009699007
68	0x3e6ca373	0.23109226
69	0xbce6cf20	-0.028174937
70	0xbdeea20f	-0.11652004
71	0x3c449f9b	0.0120009435
72	0xbe7f5151	-0.24933363
73	0x3866bdc0	5.501299e-05
74	0x3e5b0255	0.21387608
75	0xbd727a85	-0.059198875
76	0xbd2296f3	-0.039694738
77	0x3ca158a8	0.019695595
78	0x3e52be41	0.20580389
79	0x3d402fd8	0.046920627
80	0x3e000b0e	0.12504217
81	0x3d8ccb4a	0.06874712
82	0xbd40bf0b	-0.047057193
83	0x3d4dc006	0.050231956
84	0xbea291fa	-0.31751996
85	0x3e17a437	0.14808737
86	0xbce6e3d8	-0.028184816
87	0x3e17f0d7	0.14837967
88	0xbc0b7053	-0.008510667
89	0x3df528b5	0.11970655
90	0x3c74c365	0.014939164
91	0xbd050f83	-0.032485496
92	0x3d9713a1	0.07376791
93	0xbe598922	-0.21243718
94	0x3e6ee9bd	0.23331352
95	0xbe376091	-0.17907931
96	0xbd9e2d4f	-0.07723486
97	0xbdd3e9e0	-0.103473425
98	0xbcbf6c1d	-0.023366982
99	0xbe19c48e	-0.15016386
100	0xbd1ee2e8	-0.038790613
101	0x3d408e95	0.047010977
102	0xbd217de3	-0.039426696
103	0x3d9b3a02	0.075794235
104	0x3d5f700d	0.05455022
105	0x3ed9a347	0.42507383
106	0xbe0d2fdc	-0.13787788
107	0xbe865049	-0.26233128
108	0x3df9918d	0.12185965
109	0x3de0d911	0.10978902
110	0x3dce8896	0.100846455
111	0xbec3981a	-0.38201982
112	0xbdaf6ab6	-0.08565275
113	0xbca144d7	-0.019686146
114	0x3e1c3d0d	0.15257664
115	0x3dfc7f47	0.12328964
116	0xbb70bc33	-0.003673327
117	0xbd4fc3e9	-0.050723944
118	0xbe093560	-0.13399267
119	0xbe0a3ee9	-0.13500561
120	0xbdeb1c88	-0.11480051
121	0xbde94105	-0.113893546
122	0xbe0cc14b	-0.1374561
123	0xbc1105cd	-0.008851481
124	0xbc1e250c	-0.009652387
125	0x3cb1f390	0.021722585
126	0x3cc109be	0.023564216
127	0x3e7a0e03	0.24419408
128	0xbe0c63b7	-0.13709913
129	0xbc89c291	-0.01681641
130	0xbdf635a2	-0.120219484
131	0x3da7818f	0.08179008
132	0x3e1c6ff3	0.1527708
133	0x3b95d237	0.0045721787
134	0xbd38b82d	-0.04509752
135	0x3e373969	0.17892994
136	0x3d5cbb65	0.05388965
137	0x3e15f158	0.14642847
138	0x3e1d62e9	0.15369762
139	0xbe238b9e	-0.15971228
140	0x3df7379f	0.12071156
141	0x3d548d3e	0.05189251
142	0x3d344528	0.044011265
143	0xbd6cc123	-0.057801377
144	0xbb5e1136	-0.003388477
145	0x3d6f1821	0.05837262
146	0xbe0727de	-0.13198802
147	0x3e46b204	0.19403845
148	0x3e5ae6aa	0.21377054
149	0x3d5a7a42	0.05333925
150	0xbd32ac07	-0.04362109
151	0x3c04f55e	0.008115141
152	0xbb74dd36	-0.0037363297
153	0xbe8e7813	-0.27825984
154	0xbc9a6f80	-0.018851995
155	0x3c80d091	0.015724452
156	0xbc549b88	-0.012976535
157	0x3e5e242e	0.21693489
158	0x3cc24b72	0.023717616
159	0xbdd7c0c5	-0.10534815
160	0x3e61fdf8	0.22069538
161	0x3ce3b26a	0.027795035
162	0x3eb1e6bb	0.34746346
163	0x3d8f7379	0.070044465
164	0x3db02c51	0.08602203
165	0xbdefcffa	-0.1170959
166	0xbdaea3ed	-0.0852736
167	0xbb0624f3	-0.00204688
168	0xbda84983	-0.08217146
169	0x3cbf596b	0.023358067
170	0xbe1fc4bc	-0.15602392
171	0xbdaa0c41	-0.083031185
172	0x3e523b00	0.20530319
173	0x3e5dc8a1	0.21658565
174	0xbd80e3c4	-0.06293443
175	0x3aac55d2	0.0013148135
176	0xbd3c2365	-0.045932192
177	0x3e3332df	0.17499875
178	0xbe66a8c4	-0.22525316
179	0xbd93822c	-0.07202563
180	0xb945dc0a	-0.00018869355
181	0x3db5733c	0.0885987
182	0xbd6c1cc4	-0.05764462
183	0x3d9b9d0b	0.07598313
184	0xbe1cd87e	-0.1531696
185	0xbde49d61	-0.1116283
186	0x3d8d1cb1	0.06890238
187	0x3e0fff6a	0.14062276
188	0xbde4b3a1	-0.11167074
189	0x3e21cdac	0.15801114
190	0x3dac62d1	0.08417285
191	0x3e3aab45	0.18229397
192	0xbba705c6	-0.005097124
193	0xbd9f5e49	-0.07781655
194	0x3db41cce	0.087945566
195	0xbe2c63b8	-0.16834915
196	0x3e387b5f	0.18015812
197	0x3e337d08	0.17528164
198	0xbe70a9b4	-0.23502237
199	0xbe5716c3	-0.21004777
200	0xbdd0aadb	-0.10188838
201	0x3e48ac1e	0.19596907
202	0xbda20d55	-0.07912699
203	0xbd11e064	-0.035614386
204	0xbd590ece	-0.052992634
205	0xbdbd4132	-0.09240951
206	0x3dc6fefd	0.09716604
207	0xbd78774f	-0.060660657
208	0x3e5c00e5	0.21484716
209	0x3e2beb42	0.16788962
210	0x3e7f5b52	0.2493718
211	0x3e486d27	0.19572888
212	0xbdc52fe6	-0.096282765
213	0x3ea98dfd	0.3311614
214	0x3b5ce4aa	0.003370563
215	0x3e3d8520	0.18507814
216	0xbe1c1e81	-0.15246011
217	0x3db1578a	0.08659275
218	0x3d838d11	0.06423391
219	0xbd41d96f	-0.0473265
220	0xbe8064e7	-0.25076982
221	0x3e1e8a3f	0.15482424
222	0x3deb590d	0.114915945
223	0x3cab6192	0.020920549
224	0x3c9f4594	0.019442357
225	0x3e7e3bc7	0.24827491
226	0xbe6e6b76	-0.2328318
227	0x3e514b2d	0.20438834
228	0xbeacc6b9	-0.33745363
229	0xbdb0709e	-0.0861523
230	0xbd6596ca	-0.056052007
231	0x3d967e09	0.07348258
232	0x3cee8f8b	0.029121181
233	0xba05d4f6	-0.0005105281
234	0x3d0e7039	0.034774993
235	0x3e6aec55	0.22941716
236	0x3c91dd92	0.017805848
237	0x3e886e23	0.26646528
238	0x3e030b7a	0.12797347
239	0xbddd8359	-0.10816068
240	0xbdd05485	-0.10172371
241	0xbd7cbfc2	-0.061706312
242	0x3e197c5e	0.14988849
243	0xbd4bce3e	-0.049757235
244	0xbd978b07	-0.07399564
245	0xbbf8eb44	-0.007596405
246	0x3dc632a6	0.09677629
247	0xbd3d3736	-0.04619523
248	0x3db5f284	0.08884147
249	0xbd6fe6c2	-0.058569677
250	0x3a9f7bde	0.0012167653
251	0x3e27b55a	0.16377774
252	0x3e913982	0.28364187
253	0x3d98a150	0.07452643
254	0x3e9a359d	0.3011903
255	0x3c38e000	0.0112838745

layer2.0.bias f4 [32]
0	0x3d4c2322	0.049838193
1	0xbd2578d4	-0.040398434
2	0x3d03f3d0	0.03221494
3	0x3d1d4839	0.038398955
4	0xbce76a02	-0.02824879
5	0xbc806c12	-0.015676532
6	0xbd116b81	-0.035502914
7	0xbb9b33f1	-0.0047364165
8	0x3c9bc688	0.019015566
9	0x3b08b6de	0.002086095
10	0x3cbe6bf9	0.023244845
11	0x3cd28e2a	0.025702555
12	0xbaa1f42a	-0.0012356092
13	0xbc5b5d5c	-0.013388958
14	0xbc371cab	-0.011176269
15	0xbb89d6fe	-0.0042065373
16	0xbb5cb425	-0.003367671
17	0xbb814242	-0.003944666
18	0x3ba00bc4	0.004884215
19	0x3d149945	0.03627898
20	0xb9ccdd98	-0.00039075012
21	0xbb8ec7e1	-0.0043573235
22	0x3c440b86	0.011965638
23	0xbd43c0c9	-0.047791276
24	0xbab7b605	-0.0014016038
25	0x3cbcfd7d	0.023070091
26	0x3af2c89e	0.0018522923
27	0xba4e2a2c	-0.00078645605
28	0xbd204dbe	-0.03913664
29	0xbcd46007	-0.025924696
30	0x3a01b8e4	0.00049485103
31	0x3bdfc1eb	0.0068285367

layer2.2.weight f4 [32]
0	0x3f868d4b	1.0511869
1	0x3f73d0e2	0.95240605
2	0x3f845746	1.0339134
3	0x3f85b7f6	1.0446765
4	0x3f868629	1.0509692
5	0x3f7d2dfe	0.98898304
6	0x3f71fc7f	0.94525903
7	0x3f7e6c61	0.99384123
8	0x3f867658	1.0504866
9	0x3f72c331	0.9482909
10	0x3f8703d0	1.0548038
11	0x3f725b5c	0.94670653
12	0x3f724e92	0.9465114
13	0x3f8467b1	1.0344144
14	0x3f78d7e5	0.9720443
15	0x3f7d7606	0.99008214
16	0x3f720b6e	0.9454869
17	0x3f7cf69f	0.98813814
18	0x3f74d3ad	0.9563549
19	0x3f86f9c8	1.0544977
20	0x3f74f568	0.9568696
21	0x3f842577	1.0323933
22	0x3f82d129	1.0220081
23	0x3f73038a	0.94927275
24	0x3f82775c	1.0192676
25	0x3f724d76	0.94649446
26	0x3f7fc701	0.9991303
27	0x3f802042	1.0009844
28	0x3f74d874	0.9564278
29	0x3f784c17	0.96991104
30	0x3f843ec6	1.0331657
31	0x3f749374	0.95537496

layer2.2.bias f4 [32]
0	0x3d525074	0.051346257
1	0xbd484df7	-0.048902478
2	0x3d0b510b	0.034012835
3	0x3d3bad1f	0.045819398
4	0x3d50c5a8	0.05096975
5	0xbc771b62	-0.015082212
6	0xbd63feed	-0.055663038
7	0xbc0d8e65	-0.0086399065
8	0x3d53159d	0.051534284
9	0xbd527fd6	-0.051391445
10	0x3d597a57	0.053095188
11	0xbd5a765e	-0.05333554
12	0xbd5a44b7	-0.053288188
13	0x3d1dd07c	0.038528904
14	0xbd03fb99	-0.032222364
15	0xbc5af140	-0.013363183
16	0xbd57853a	-0.05261729
17	0xbc1ded18	-0.009639047
18	0xbd3b7f3c	-0.045775637
19	0x3d5b9072	0.05360455
20	0xbd30ae03	-0.0431347
21	0x3d107b12	0.03527362
22	0x3cc6944b	0.024240633
23	0xbd4e7a18	-0.050409406
24	0x3c3d298c	0.01154555
25	0xbd5b9621	-0.05360997
26	0xbb219b98	-0.0024659391
27	0x3b7b96ad	0.003838937
28	0xbd44a3d2	-0.048007794
29	0xbd004e32	-0.031324573
30	0x3d12bb69	0.03582326
31	0xbd34c37b	-0.044131737

layer2.2.running_mean f4 [32]
0	0x3ed284dc	0.4111699
1	0x3c014c7d	0.007891771
2	0x3ee1653a	0.44022542
3	0x3f43af91	0.7643977
4	0xbebea49c	-0.37234962
5	0x3e6bad7a	0.23015395
6	0x3cb03c38	0.02151309
7	0x3e178d9b	0.14800112
8	0x3f4898f3	0.7835838
9	0xbc5dd271	-0.013538943
10	0x3f4076d3	0.7518131
11	0xbef7085b	-0.48248562
12	0xbc5cbe9f	-0.013473182
13	0xbe77e9a1	-0.24210216
14	0x3cd9c4ff	0.026583193
15	0xbe1a5e9f	-0.15075158
16	0x3f5d5934	0.8646424
17	0x3f018c2f	0.5060453
18	0xbd54480a	-0.051826514
19	0x3f12a234	0.5727875
20	0xbf1282e6	-0.57230985
21	0xbea7c788	-0.32769418
22	0x3e788a13	0.24271421
23	0x3e6fc613	0.23415403
24	0xbf0d9910	-0.5531168
25	0xbdcdb1b3	-0.10043659
26	0x3c2395e9	0.009984472
27	0xbeadc26f	-0.33937404
28	0x3d201c63	0.03908957
29	0x3dbfb0d4	0.09359899
30	0xbf1298fc	-0.57264686
31	0xbefd006d	-0.49414387

layer2.2.running_var f4 [32]
0	0x3f2e1947	0.6800732
1	0x3f1d5adb	0.6146676
2	0x3f1f5785	0.6224292
3	0x3fc14cfd	1.510162
4	0x3f188dd4	0.5959141
5	0x3f0ddc4e	0.55414283
6	0x3f1f9f97	0.6235289
7	0x3f10ef23	0.56614894
8	0x3f73f64e	0.95297706
9	0x3f2715ef	0.65267843
10	0x3f3ad4b5	0.72980815
11	0x3ef3f909	0.47650936
12	0x3f87445e	1.0567739
13	0x3f3d5dd2	0.73971283
14	0x3edfc18b	0.4370235
15	0x3f2334bc	0.6375234
16	0x3f88f5ea	1.0700047
17	0x3f1a1639	0.6019016
18	0x3f2753de	0.65362346
19	0x3f19b5b4	0.6004288
20	0x3f3098a7	0.6898293
21	0x3f1e31c6	0.617947
22	0x3ea57187	0.32313177
23	0x3f301ea2	0.6879674
24	0x3f3d5069	0.7395082
25	0x3f1855b9	0.595058
26	0x3eebf246	0.46083277
27	0x3f5a2ef6	0.85227907
28	0x3f1aee44	0.60519814
29	0x3ef04b10	0.46932268
30	0x3eea9716	0.45818394
31	0x3f2e86dc	0.6817453

fc_advantage.0.weight f4 [20, 32]
0	0xbe81f621	-0.25383094
1	0xbe276aa9	-0.16349281
2	0x3f0376e6	0.513533
3	0x3cf41fb2	0.02980027
4	0xbe2a381a	-0.16622964
5	0xbdab34ea	-0.08359702
6	0xbe2bc510	-0.16774392
7	0xbdf7bba5	-0.12096337
8	0x3e1ac709	0.15114988
9	0xbd33df21	-0.043913964
10	0xbd71dcd5	-0.059048492
11	0xbd61fb7e	-0.055171482
12	0xbe0339d9	-0.12815036
13	0x3d58e600	0.05295372
14	0x3e3314ec	0.1748845
15	0x3e10d378	0.14143169
16	0xbe3f8344	-0.18702418
17	0x3e39c6fb	0.18142311
18	0xbda4b3e9	-0.08042128
19	0xbdb47c37	-0.088127546
20	0x3d1078a5	0.035271306
21	0x3d98c273	0.07458963
22	0xbe8c7a05	-0.27436844
23	0xbe073114	-0.13202316
24	0x3ddc7946	0.107653186
25	0xbdfa899d	-0.12233279
26	0x3d2e2406	0.042514823
27	0x3df5d0f4	0.12002745
28	0xbe4b05bc	-0.19826406
29	0x3d5edfe1	0.054412726
30	0xbe880d80	-0.265728
31	0xbe35b514	-0.17744857
32	0xbcf89d9d	-0.030348593
33	0xbe3efd1b	-0.1865124
34	0xbed2758a	-0.411053
35	0xbe8496b7	-0.25896236
36	0x3d65d12c	0.056107685
37	0xbe425619	-0.18978156
38	0xbe805d42	-0.2507115
39	0xbeb313ae	-0.34975952
40	0xb9e74838	-0.0004411356
41	0x3e55ecee	0.20891163
42	0x3e0ff0a2	0.14056638
43	0x3dda4c5c	0.10659096
44	0x3e27b910	0.1637919
45	0xbe4059d1	-0.18784262
46	0x3dc9de67	0.09856873
47	0xbe20b066	-0.1569229
48	0xbd51cdb6	-0.051221572
49	0xbeb7ac4f	-0.3587365
50	0xbe447d03	-0.19188313
51	0xbe06d651	-0.13167693
52	0x3e137c4d	0.14402886
53	0xbeb7d1ad	-0.35902157
54	0x3e6ef366	0.23335037
55	0x3c9d746b	0.019220551
56	0xbe57adcd	-0.21062393
57	0xbe8d34cd	-0.27579346
58	0x3dcf09cc	0.101092905
59	0x3e08fe47	0.13378249
60	0x3e212a42	0.15738776
61	0xbc8bf1fc	-0.01708316
62	0x3cacfe53	0.021117365
63	0xbde73837	-0.11290019
64	0x3d60b95d	0.054864276
65	0x3dd6900c	0.104766935
66	0xbed573c4	-0.41689885
67	0x3dcc2fac	0.0997003
68	0xbb9fe8cc	-0.0048800465
69	0xbc07e6a4	-0.008294735
70	0xbded1f79	-0.115782686
71	0xbd63a356	-0.05557569
72	0xbdc8fce7	-0.09813862
73	0xbe6ffd5a	-0.2343649
74	0x3d98ecc6	0.07467036
75	0xbe5e4ed7	-0.21709763
76	0xbc48b885	-0.012251024
77	0xbdd70b91	-0.10500253
78	0x3e035706	0.12826166
79	0x3e007661	0.12545158
80	0xbcbff57a	-0.023432482
81	0x3d06ddfc	0.032926545
82	0x3eb57db9	0.3544748
83	0xbe796605	-0.24355324
84	0x3d85488d	0.065079786
85	0xbe42be1c	-0.19017833
86	0xbe5d82b6	-0.21631894
87	0xbe1b8caa	-0.15190378
88	0xbe062c09	-0.13102736
89	0xbeb88752	-0.3604074
90	0x3d729f99	0.059234235
91	0xbd33ca8a	-0.04389433
92	0x3e86b637	0.26310894
93	0xbe64da9b	-0.22349016
94	0x3e6464c8	0.2230407
95	0x3e19af6c	0.15008324
96	0xbe3a9892	-0.18222263
97	0xbe2218a7	-0.15829717
98	0xbe9a95e7	-0.3019249
99	0xbe8a0b40	-0.26961708
100	0x3e09ef5d	0.13470216
101	0x3db8b74d	0.09019337
102	0xbe1a22d8	-0.15052354
103	0xbe627e0e	-0.22118399
104	0x3e5a7f24	0.21337563
105	0x3d3f94ad	0.046772648
106	0x3f0a96c4	0.541363
107	0x39834ca8	0.0002504338
108	0xbe3dbd3e	-0.18529221
109	0xbc135a0b	-0.008993636
110	0xbe725157	-0.23663841
111	0x3e06df14	0.13171035
112	0x3e5d8da6	0.21636066
113	0xbe9f3b81	-0.31100085
114	0x3dc03c33	0.09386482
115	0xbc884283	-0.016633278
116	0x3e573517	0.21016346
117	0xbc500d86	-0.012698537
118	0xbdd9a72f	-0.10627591
119	0x3e0bd280	0.13654518
120	0xbe89c758	-0.269099
121	0x3cb1d7fc	0.021709435
122	0xbe8b2518	-0.27176738
123	0x3e3f2d90	0.18669724
124	0x3da33805	0.07969669
125	0xbe48f5f9	-0.19625081
126	0x3da91108	0.082552016
127	0xbe32b012	-0.17449978
128	0xbe29e9fd	-0.16593166
129	0xbdb94bae	-0.09047638
130	0x3e4fb86b	0.20285194
131	0x3e999f2b	0.30004248
132	0x3e333b9b	0.17503206
133	0xbec1693d	-0.37775603
134	0xbea8f5cc	-0.33000028
135	0x3e0ee31d	0.13953824
136	0xbda1f8ad	-0.07908759
137	0x3eb26fad	0.34850827
138	0x3e0fbc1c	0.14036602
139	0x3d1fc7fb	0.039009076
140	0x3eace5a5	0.33768955
141	0xbdc473e2	-0.095924154
142	0xbe55fb7e	-0.20896718
143	0xbed31347	-0.41225645
144	0x3d81b5f8	0.06333536
145	0x3d846168	0.06463891
146	0xbdfe6828	-0.1242221
147	0x3e6fbf1c	0.23412746
148	0xbe839123	-0.25696668
149	0x3c9a15b6	0.01880918
150	0xbe71eeda	-0.23626271
151	0xbe82df3d	-0.25560942
152	0x3e286b37	0.16447149
153	0x3e56ab97	0.20963894
154	0x3e55f66d	0.20894785
155	0xbea6f56e	-0.32609123
156	0xbdb6f9ac	-0.0893434
157	0x3dddc446	0.10828452
158	0xbe3a1492	-0.1817191
159	0x3e60fa27	0.21970426
160	0x3cb0a006	0.02156068
161	0x3cd20666	0.025637817
162	0xbe9d3908	-0.30707574
163	0xbbd10f56	-0.006380002
164	0x3e97f981	0.29682544
165	0xbe328009	-0.17431654
166	0x3d24409d	0.040100683
167	0x3ea2924f	0.3175225
168	0xbcddef5a	-0.02709167
169	0x3dc528ef	0.09626948
170	0xbe545a54	-0.20737582
171	0x3edd75e1	0.43253997
172	0x3e6abcb9	0.22923554
173	0x3e00fa55	0.12595494
174	0xbe6a7a74	-0.22898275
175	0x3cba0f81	0.022712471
176	0xbc63d886	-0.013906604
177	0xbd424dfc	-0.047437653
178	0xbe73e8fb	-0.23819344
179	0x3eb278cc	0.34857786
180	0xbe4c801e	-0.19970748
181	0xbedc1ae9	-0.4298928
182	0xbcd37ce0	-0.025816381
183	0x3d0614fb	0.032734852
184	0x3e82dd73	0.25559577
185	0x3e2c5d22	0.16832402
186	0xbdba8fbf	-0.09109449
187	0xbdf63225	-0.12021283
188	0x3c44dbeb	0.012015323
189	0xbe0e0d60	-0.1387229
190	0x3d98f452	0.074684754
191	0xbe009050	-0.12555051
192	0x3e1bea51	0.15226103
193	0x3bc1dbdc	0.005916102
194	0xbdc17239	-0.09445614
195	0xbb1d0a22	-0.0023962338
196	0xbe70e53d	-0.23524947
197	0x3ec89298	0.39174342
198	0x3da3625b	0.07977744
199	0x3e70d3ed	0.23518343
200	0xbe22a8a3	-0.15884642
201	0x3e4b68f4	0.19864255
202	0xbe3e4a4d	-0.18583031
203	0xbd8f3d91	-0.06994165
204	0xbe02a40f	-0.12757896
205	0xbed94d58	-0.4244182
206	0xbe9cfefc	-0.30663288
207	0xbe1c6f51	-0.15276839
208	0xbe4df167	-0.20111619
209	0xbe92f6f9	-0.2870405
210	0xbe3adf72	-0.182493
211	0x3e3f44e4	0.18678623
212	0xbece5509	-0.40299252
213	0xbcbfa8b8	-0.023395881
214	0x3e07d5a9	0.13265099
215	0x3db77eda	0.08959742
216	0x3ac0a8cf	0.0014698746
217	0x3e865bc6	0.26241893
218	0xbc1c7794	-0.009549994
219	0x3e0892df	0.13337277
220	0xbe32a89b	-0.1744713
221	0xbe4ae029	-0.19812073
222	0xbe9d5ebb	-0.30736336
223	0x3d4aa8c2	0.049477346
224	0xbe60bb0e	-0.21946356
225	0xbdaab3df	-0.08335089
226	0xbd840dcc	-0.06447944
227	0xbe07a9e1	-0.13248397
228	0x3e0b2733	0.13589172
229	0xbc372d0f	-0.011180176
230	0x3e5d4b32	0.21610716
231	0x3e1b1ad6	0.15146956
232	0xbcf2c061	-0.029632749
233	0xbe2d661b	-0.16933481
234	0xbe05cd83	-0.13066678
235	0xbe2f2702	-0.17104724
236	0xbede7f6c	-0.4345659
237	0x3e069788	0.13143742
238	0x3e9bbe0c	0.30418432
239	0x3eb45c8c	0.35226858
240	0x3db11df3	0.086482905
241	0xbe7c7374	-0.24653417
242	0xbda64e68	-0.081204236
243	0x3ea1a194	0.31568587
244	0x3e01ccd3	0.1267579
245	0xbe467edc	-0.1938433
246	0xbcad9404	-0.021188743
247	0xbd7bef1c	-0.06150733
248	0xbe8e720e	-0.27821392
249	0x3d4ce0bf	0.050019022
250	0xbd829991	-0.06376947
251	0x3e23e439	0.16005029
252	0x3e3cab38	0.1842469
253	0xbd109139	-0.035294745
254	0x3dcdf15d	0.10055802
255	0x3d1d7709	0.0384436
