save/client-0/eval.pth (torch, 42501 bytes, 27 tensors)

layer1_task.0.weight f4 [32, 3]
0	0xbf0828e8	-0.5318742
1	0x3e27b7be	0.16378686
2	0xbc4b5735	-0.0124109285
3	0x3d8a52d6	0.06754081
4	0x3c2aa027	0.01041416
5	0xbd9df15c	-0.07712051
6	0x3e932a87	0.28743383
7	0x3dd7f439	0.10544629
8	0x3e8e019a	0.27735597
9	0xbe633ae1	-0.2219043
10	0x3db05893	0.08610644
11	0xbd52d7c1	-0.05147529
12	0x3e251b0d	0.161236
13	0xbea3b9ad	-0.31977597
14	0xbe14e10a	-0.1453897
15	0x3f01f599	0.5076538
16	0x3da7d4e9	0.08194906
17	0x3e11cb7c	0.1423778
18	0xbea57e3e	-0.32322878
19	0xbe159a16	-0.1460956
20	0x3ece06aa	0.4023946
21	0xbd82cfd0	-0.06387293
22	0xbe771d99	-0.24132384
23	0x3ed81ece	0.42211002
24	0xbe01c8f5	-0.12674315
25	0xbf0e8032	-0.5566436
26	0x3e964a8a	0.29353744
27	0xbec11034	-0.37707675
28	0xbef14a1d	-0.47126856
29	0x3e66a477	0.22523676
30	0xbe70c98e	-0.23514387
31	0x3da401eb	0.08008178
32	0x3e940161	0.28907302
33	0x3e8ae7b1	0.27129892
34	0xbe143d1b	-0.14476435
35	0x3ded8ecf	0.11599504
36	0x3e9aa0c6	0.30200785
37	0x3dfe7dad	0.124263145
38	0xbed30b92	-0.41219765
39	0xbe8fd3d7	-0.28091308
40	0x3ebab8ee	0.36469215
41	0x3dc093d8	0.09403199
42	0x3dad1241	0.08450747
43	0xbe60d112	-0.21954754
44	0xbe17ff0f	-0.14843391
45	0x3e8be9f1	0.2732692
46	0x3da25a8f	0.07927429
47	0x3dabbd3e	0.083857045
48	0xbc823924	-0.015896387
49	0xbe0f8396	-0.1401504
50	0x3da755cc	0.08170661
51	0xbd9f7637	-0.077862196
52	0xbe47bf63	-0.19506602
53	0xbeb42cbe	-0.35190386
54	0x3ee05d3c	0.43821132
55	0x3e88dd28	0.2673123
56	0x3e53e2bf	0.20691966
57	0xbe45ca9a	-0.19315568
58	0xbdbd8b1e	-0.0925505
59	0x3e3520da	0.17688313
60	0xbd119e7d	-0.035551537
61	0x3e994367	0.29934236
62	0x3d5e3580	0.05425024
63	0x3dc3051a	0.095224574
64	0x3ec47540	0.38370705
65	0xbe400b0a	-0.18754211
66	0x3e100975	0.14066108
67	0xbee3fc1b	-0.4452828
68	0x3e3bfdec	0.18358582
69	0x3d7adcfa	0.061245896
70	0xbed63ba9	-0.41842392
71	0x3ebbf964	0.36713707
72	0x3df2544a	0.11832483
73	0x3e4bf1b4	0.19916421
74	0x3e057dd4	0.13036281
75	0x3e1f104d	0.15533562
76	0xbd736c7d	-0.059429634
77	0x3db9c85b	0.09071418
78	0xbe41fd72	-0.18944338
79	0x3ba405b5	0.005005563
80	0x3f18445b	0.594793
81	0xbcc2ca09	-0.023777978
82	0x3e934b6a	0.28768474
83	0x3ea2603a	0.3171404
84	0xbc9d5b59	-0.019208597
85	0xbe332954	-0.17496234
86	0xbd5b246c	-0.05350153
87	0x3e4a77a8	0.19772208
88	0xbf09dd34	-0.53853154
89	0x3e724cec	0.23662156
90	0x3f258461	0.6465512
91	0x3e916fce	0.28405613
92	0xbcd6ecb4	-0.026235916
93	0xbc64ef50	-0.013973072
94	0x3e4df6e2	0.2011371
95	0x3e9eda77	0.3102605

layer1_task.0.bias f4 [32]
0	0xbc59fd22	-0.0133049805
1	0x3b2397ff	0.0024962423
2	0x3d1e07fe	0.03858184
3	0x3ce63fde	0.028106626
4	0x3d2d2098	0.042267412
5	0x3cca7c24	0.024717398
6	0x3d554182	0.052064426
7	0xbbe2e889	-0.006924693
8	0x3d4d1513	0.050068926
9	0xbc4447c7	-0.011980004
10	0x3d026a80	0.031839848
11	0x3ce3fede	0.027831491
12	0x3cf878ca	0.030331034
13	0x3c865aae	0.016400661
14	0x3b87cf96	0.004144619
15	0xbcf1bc7c	-0.029508822
16	0x3c8e0d75	0.017340401
17	0x3ccaab1b	0.024739793
18	0x3bb59876	0.0055418564
19	0x3d1c1b82	0.03811217
20	0x3cdde04d	0.027084494
21	0x3d733b68	0.059382826
22	0x3d2130ba	0.03935311
23	0x39cff9bb	0.0003966818
24	0x3bbba2ae	0.00572618
25	0xbbeb33e0	-0.007177815
26	0x3c067b95	0.008208175
27	0x3c80e5ab	0.015734514
28	0x3d08993f	0.033349272
29	0xbb41c1aa	-0.0029564896
30	0xbc978259	-0.018494772
31	0x3d544c61	0.051830653

layer1_task.2.weight f4 [32]
0	0x3f8957ee	1.0729959
1	0x3f80ac51	1.0052587
2	0x3f80f25f	1.0073966
3	0x3f8b7559	1.0895187
4	0x3f84e5a9	1.0382587
5	0x3f801b70	1.0008373
6	0x3f8898bd	1.0671612
7	0x3f83c329	1.0293933
8	0x3f8bfb73	1.0936111
9	0x3f826582	1.0187228
10	0x3f869393	1.0513786
11	0x3f838115	1.0273768
12	0x3f82108d	1.0161301
13	0x3f86291e	1.0481298
14	0x3f80a33e	1.0049818
15	0x3f82be01	1.0214235
16	0x3f7befc7	0.98412746
17	0x3f8552a8	1.041585
18	0x3f6bf37c	0.921684
19	0x3f6b5f96	0.9194273
20	0x3f75e287	0.9604878
21	0x3f7144e1	0.94245726
22	0x3f70c3c9	0.94048744
23	0x3f86ca7a	1.0530541
24	0x3f7603b0	0.96099377
25	0x3f765c7e	0.9623488
26	0x3f8d8c70	1.1058483
27	0x3f933aec	1.1502357
28	0x3f7121a2	0.94191945
29	0x3f8c751e	1.0973241
30	0x3f881bd1	1.0633489
31	0x3f6f4637	0.93466514

layer1_task.2.bias f4 [32]
0	0x3d824b11	0.06361974
1	0x3cf4062b	0.029788097
2	0x3d3a8936	0.04554101
3	0x3d8dd90e	0.069261655
4	0x3db0d568	0.08634454
5	0x3d52765d	0.05138241
6	0x3d41d870	0.04732555
7	0x3d0106b2	0.031500526
8	0x3d9cf5b7	0.07664054
9	0x3cb5f66a	0.022212226
10	0x3d192b94	0.037395075
11	0x3d942115	0.072328724
12	0x3d21e7db	0.039527755
13	0x3d206867	0.039162066
14	0x3c1bfac1	0.009520234
15	0x3b9001c2	0.004394741
16	0xbb49e777	-0.003080813
17	0x3d2e6dc0	0.042585135
18	0xbddcf179	-0.10788245
19	0xbdacd9a5	-0.0843995
20	0xbd60962c	-0.054830715
21	0xbcf654ca	-0.030069727
22	0xbd02ae5a	-0.031904556
23	0x3dfdeb7e	0.12398432
24	0xbbae9041	-0.005327255
25	0xbd2466af	-0.04013699
26	0x3dade969	0.08491785
27	0x3e12d8d5	0.14340527
28	0xbc5e5c98	-0.013571881
29	0x3dd2c6a4	0.10291794
30	0x3d8a2d67	0.06746941
31	0xbd565976	-0.05233141

layer1_task.2.running_mean f4 [32]
0	0xc708f262	-35058.383
1	0x4588e6c7	4380.847
2	0x468db290	18137.281
3	0xc66c7ed7	-15135.71
4	0x462f43f1	11216.985
5	0x4709c349	35267.285
6	0xc6ac1c47	-22030.139
7	0xc58602f6	-4288.37
8	0xc607c3d6	-8688.959
9	0xc6c1ca0e	-24805.027
10	0xc677ad10	-15851.266
11	0x468bf03f	17912.123
12	0x46a4421f	21025.06
13	0xc692148b	-18698.271
14	0x45b9ac98	5941.574
15	0x468fcfe7	18407.951
16	0xc4876d36	-1083.4128
17	0xc5a37e0c	-5231.756
18	0x46df5258	28585.172
19	0xc64ebce8	-13231.227
20	0xc50dcda4	-2268.8525
21	0x45c9b865	6455.0493
22	0x46166335	9624.802
23	0x458303ec	4192.49
24	0x45ff5a08	8171.254
25	0x46240478	10497.117
26	0xc646fe3f	-12735.562
27	0xc4c38180	-1564.0469
28	0xc4a3a680	-1309.2031
29	0x4650d836	13366.053
30	0x472db1b7	44465.715
31	0xc46b77f4	-941.87427

layer1_task.2.running_var f4 [32]
0	0x4e685da7	9.746129e+08
1	0x4b62adc0	1.4855616e+07
2	0x4d8097b3	2.6967818e+08
3	0x4d19a95f	1.6112587e+08
4	0x4c9e854b	8.311049e+07
5	0x4e4e05c5	8.6412115e+08
6	0x4da6047e	3.4816403e+08
7	0x4b4f58b1	1.3588657e+07
8	0x4c423e75	5.0919892e+07
9	0x4de4f90e	4.801909e+08
10	0x4d341876	1.8884387e+08
11	0x4d65200a	2.4025514e+08
12	0x4d909e6c	3.0328768e+08
13	0x4d80333f	2.6885526e+08
14	0x4bad17c0	2.2687616e+07
15	0x4d663e74	2.4142829e+08
16	0x4948ce20	822498.0
17	0x4b993022	2.007866e+07
18	0x4e1c7c3e	6.56347e+08
19	0x4ce8366e	1.2174629e+08
20	0x4a7e1512	4.1628845e+06
21	0x4bd74fb8	2.8221296e+07
22	0x4c7d701a	6.6437224e+07
23	0x4b397782	1.2154754e+07
24	0x4c27b376	4.3961816e+07
25	0x4c9c5c4d	8.197796e+07
26	0x4cdf5e02	1.1710875e+08
27	0x49dce995	1.8097146e+06
28	0x4995c919	1.2270431e+06
29	0x4cf51254	1.284881e+08
30	0x4ea592d1	1.3889312e+09
31	0x491770a6	620298.4

layer1_1vm.0.weight f4 [64, 40]
0	0xbc00d9fa	-0.00786447
1	0xbde0f0ff	-0.10983466
2	0xbd733137	-0.059373107
3	0xbe77ee45	-0.24211986
4	0x3e68b3a4	0.22724777
5	0x3e1f410f	0.15552162
6	0x3e06a41c	0.1314854
7	0xbdff3241	-0.12460757
8	0xbe3204f4	-0.17384702
9	0xbcdec2cb	-0.027192494
10	0xbe21c75e	-0.15798709
11	0x3e6fa70f	0.23403572
12	0xbd36a65d	-0.04459225
13	0x3d71d177	0.059037652
14	0xbd751c0f	-0.059841212
15	0xbda470e7	-0.08029347
16	0xbd8d46ed	-0.06898294
17	0x3e6d68df	0.23184536
18	0x3ce9edde	0.028555807
19	0x3e03eae4	0.12882572
20	0xbdad976f	-0.08476149
21	0x3e2eb23c	0.17060179
22	0x3dc9687f	0.09834384
23	0x3e42265c	0.18959945
24	0xbe034b9e	-0.12821814
25	0x3e04e4ef	0.12977956
26	0xbdc58726	-0.09644918
27	0x3e745228	0.23859465
28	0x3c336ed4	0.010951716
29	0xbdddd1f0	-0.10831058
30	0x3cc31ad7	0.02381651
31	0x3e0596db	0.13045828
32	0x3dd5c0a7	0.10437136
33	0xbd379f79	-0.04482982
34	0xbeadaada	-0.33919412
35	0x3d9be14c	0.07611331
36	0x3e3b9929	0.18320145
37	0xbda7c3ea	-0.081916645
38	0xbd858982	-0.06520368
39	0xbe69c032	-0.22827223
40	0xbe47a1f0	-0.19495368
41	0xbc9579f9	-0.018246638
42	0x3cee2047	0.029068125
43	0xbde13d22	-0.10997988
44	0xbddd2b64	-0.10799292
45	0xbde6f488	-0.112771094
46	0x3e4f6484	0.20253187
47	0xbe9819a8	-0.29707074
48	0xbe7d1d7a	-0.24718276
49	0xbad41fbf	-0.0016183777
50	0xbde6df2b	-0.11273035
51	0x3eb3a8c4	0.35089695
52	0x3cc52969	0.024067597
53	0xbdda6214	-0.10663238
54	0xbe617413	-0.22016935
55	0x3f3faa2b	0.7486903
56	0xbd3727fe	-0.044715874
57	0x3ec6261c	0.3870095
58	0xbd952c95	-0.07283894
59	0x3f003b0d	0.50090104
60	0x3e62499f	0.22098397
61	0x3f0a00ca	0.53907454
62	0x3cdb84a4	0.026796646
63	0x3e8ec70a	0.2788623
64	0xbe550b01	-0.20804979
65	0x3d9f3fd0	0.07775843
66	0x3d5e41ed	0.05426209
67	0x3f146586	0.5796741
68	0x3d8b202a	0.06793244
69	0xbcffd7fd	-0.03123092
70	0xbdd2e3e9	-0.10297377
71	0x3decf410	0.11569989
72	0xbcf3aa2c	-0.02974423
73	0x3b046044	0.002019898
74	0x3ea79005	0.32727066
75	0xbe2cd41e	-0.16877791
76	0x3d67904d	0.0565341
77	0xbeef10c2	-0.46692473
78	0x3d45092c	0.04810445
79	0x3da07292	0.078343526
80	0xbd1b384a	-0.03789548
81	0xbe172c83	-0.14763074
82	0xbe52b267	-0.20575868
83	0xbdbd741c	-0.09250662
84	0xbe2df732	-0.16988829
85	0x3cab1faf	0.020889131
86	0x3e0d72c7	0.13813315
87	0x3dc3222b	0.095280014
88	0xbe8f77cb	-0.28021082
89	0x3e609dfb	0.21935265
90	0xbe25fc10	-0.16209435
91	0x3ee52561	0.4475508
92	0xbec3f53e	-0.38273042
93	0x3ececa52	0.40388733
94	0x3e0a5b35	0.13511355
95	0x3e56943d	0.20954986
96	0xbea1d82b	-0.31610236
97	0x3f02d115	0.51100284
98	0x3ce584fb	0.028017512
99	0xbdad9d22	-0.08477236
100	0x3d358e41	0.044325117
101	0x3df37e2c	0.118893
102	0x3e355526	0.17708263
103	0x3e9eb994	0.3100096
104	0xbeeab6d7	-0.4584262
105	0x3eaf4bd5	0.34237543
106	0xbb7a4653	-0.003818889
107	0x3ed3065b	0.41215786
108	0x3dcf556a	0.10123713
109	0xbd2987f4	-0.04138942
110	0xbe807976	-0.25092667
111	0xbdb0e0d9	-0.08636636
112	0xbe4ece6b	-0.2019593
113	0xbd7356c7	-0.05940893
114	0x3ca7f2c9	0.020501511
115	0xbb169a3e	-0.002298012
116	0xbdbc0860	-0.09181285
117	0xbd89e9bd	-0.06734035
118	0x3e55c7e1	0.20877029
119	0x3e89078c	0.2676357
120	0x3e0e7463	0.13911586
121	0xbe21dc98	-0.15806806
122	0x3e190e5a	0.14946881
123	0x3d8d5339	0.06900639
124	0x3ea3c2b8	0.31984496
125	0xbdff5ca7	-0.12468844
126	0xbc1605cf	-0.009156658
127	0x3e06048a	0.13087669
128	0x3d8ca4a7	0.068673424
129	0x3e8c640a	0.27420074
130	0x3baa7a1e	0.005202546
131	0x3d25c1bc	0.040467963
132	0xbd886280	-0.066594124
133	0x3c8a18b4	0.016857482
134	0x3e800aca	0.2500823
135	0x3e8192d9	0.25307348
136	0xbdc77f8d	-0.09741125
137	0x3e0c087b	0.1367511
138	0xbdaa5d57	-0.083185844
139	0xbda0bdae	-0.078486785
140	0x3e005813	0.12533598
141	0x3eacc043	0.33740434
142	0xbe1bef68	-0.15228045
143	0x3e62d512	0.22151592
144	0xbe081d6d	-0.13292475
145	0xbeb3ed1b	-0.35141835
146	0x3d99772f	0.074934356
147	0x3e37b022	0.17938283
148	0x3e2344c8	0.15944207
149	0xbda6e502	-0.081491485
150	0xbe244dd3	-0.16045313
151	0x3dd29275	0.10281841
152	0xbe00866a	-0.12551275
153	0x3ed18d14	0.40927947
154	0xbd83bd17	-0.064325504
155	0x3e32d172	0.1746271
156	0xbe1bb691	-0.15206362
157	0x3e995f0c	0.29955328
158	0xbc5cb1f3	-0.013470161
159	0x3e4e09f9	0.20120992
160	0x3bfc479b	0.0076989657
161	0x3c4a4681	0.012345911
162	0xbe944fc3	-0.28967103
163	0x3e5363a9	0.20643486
164	0x3e3bb5e0	0.18331099
165	0xbdf18fd2	-0.1179501
166	0xbe0f7adf	-0.14011715
167	0xbdf89ce0	-0.121392965
168	0xbe7192c9	-0.2359115
169	0x3e0ec346	0.13941678
170	0x3e18cea9	0.14922585
171	0x3e17caea	0.148235
172	0xbced0edf	-0.028937755
173	0x3e219c26	0.15782222
174	0x3e28f73c	0.16500562
175	0x3d9d3fac	0.0767816
176	0xbd0f3c4f	-0.034969624
177	0xbc7c9458	-0.015416227
178	0xbe0402c0	-0.12891674
179	0x3ec6358a	0.38712722
180	0x3e9320a4	0.2873584
181	0x3ede62cf	0.4343476
182	0x3dbe4451	0.09290374
183	0x3e3616f2	0.1778219
184	0xbe02b7f0	-0.12765479
185	0xbc945fff	-0.01811218
186	0xbd3e1bd7	-0.04641327
187	0x3ca85a68	0.020550922
188	0xbdab7e14	-0.08373657
189	0x3e825b86	0.25460452
190	0x3ea0d31a	0.31411058
191	0x3dd1fe03	0.10253527
192	0xbd8940cf	-0.067018144
193	0xbe486646	-0.19570264
194	0x3d38fe46	0.04516437
195	0x3f046e89	0.51731163
196	0x3c3dbea8	0.0115811005
197	0x3dadde91	0.08489717
198	0x3ed0aa1c	0.40754783
199	0x3e64cbc0	0.2234335
200	0xbe519237	-0.20465933
201	0xbdb81676	-0.08988659
202	0x3d4f301d	0.050582994
203	0xbe8251d7	-0.25453064
204	0x3e0db003	0.13836674
205	0xbe91c96a	-0.2847398
206	0xbdffbcce	-0.124871835
207	0xbe742f08	-0.23846066
208	0xbe22ca40	-0.15897465
209	0xbddbab66	-0.10726051
210	0x3d745727	0.059653427
211	0xbdaae41d	-0.083442904
212	0x3e1a1fd6	0.15051207
213	0xbe3f88d5	-0.18704541
214	0xbe53760f	-0.20650505
215	0xbed32b7b	-0.4124411
216	0xbda70505	-0.08155254
217	0xbdc4660b	-0.09589776
218	0x3e28aa39	0.16471185
219	0xbd4b9376	-0.049701177
220	0xbdb4383c	-0.08799788
221	0x3c6813e3	0.014164898
222	0x3e2a3e22	0.16625264
223	0x3e349fb6	0.1763905
224	0x3d844377	0.064581804
225	0xbe4a3d62	-0.19749978
226	0xbe34ae42	-0.17644599
227	0xbe2e672f	-0.17031549
228	0x3cf1ced4	0.029517569
229	0x3ddd8f8a	0.108183935
230	0xbdd8a0c1	-0.105775364
231	0xbdea87e7	-0.114517026
232	0x3e8b5e54	0.27220404
233	0x3dba4ef3	0.090970896
234	0xbdf88421	-0.121345766
235	0xbd08343a	-0.033252932
236	0xbdcfc88e	-0.10145675
237	0xbe63001f	-0.22168015
238	0x3da72922	0.08162142
239	0xbe3c4b27	-0.18388043
240	0x3dcb72fe	0.099340424
241	0x3dd256e3	0.102704786
242	0xbd5f6d83	-0.054547798
243	0xbe849eb6	-0.25902337
244	0x3d39a775	0.045325715
245	0x3d58e8d1	0.052956406
246	0x3dbbc930	0.09169233
247	0xbe0e5d3f	-0.13902758
248	0xbdea957c	-0.11454293
249	0xbee4e458	-0.44705462
250	0xbe192e72	-0.14959124
251	0x3dc683b6	0.096930906
252	0x3d3f2267	0.046663668
253	0xbe639ad1	-0.22227027
254	0xbe28f6ef	-0.16500448
255	0xbe1d4406	-0.1535798

layer1_1vm.0.bias f4 [64]
0	0xbac73a1b	-0.0015199812
1	0xbb39ff5b	-0.0028380963
2	0xbc565bb9	-0.013083392
3	0xba227c99	-0.0006198376
4	0xbd226f4f	-0.039656933
5	0x3cc37f3c	0.023864381
6	0xbd3a3833	-0.045463752
7	0x3d0f6613	0.035009455
8	0xbc1e7ad5	-0.00967284
9	0x3c2a9749	0.010412046
10	0xbcc358cb	-0.02384605
11	0xbcc37087	-0.023857368
12	0xbcdcdd0d	-0.026960874
13	0x3dda9e0a	0.10674675
14	0xbd22dcff	-0.03976154
15	0x3cf69ece	0.03010502
16	0x3d387178	0.045030087
17	0x3d2e6eb8	0.04258606
18	0x3c366459	0.011132323
19	0x3ca2f1ee	0.019890752
20	0xbcf7077f	-0.030154942
21	0xbb4a6584	-0.0030883262
22	0xbe7380ec	-0.23779649
23	0xbce73290	-0.028222352
24	0xbc8dce56	-0.017310303
25	0x3bc6e05a	0.0060692253
26	0x3c758e21	0.014987499
27	0x3e17c3ca	0.14820781
28	0xbd4cb0cb	-0.04997329
29	0x3d4d2716	0.050086103
30	0x3d46fc2c	0.048580334
31	0xbd20e3e2	-0.039279826
32	0xbd39dfe6	-0.04537954
33	0xbc87e0e0	-0.016586721
34	0xbce14217	-0.027497334
35	0x3d08fc20	0.03344357
36	0xbce94a4a	-0.028477807
37	0xbd0c2a76	-0.03422018
38	0xbdbdc11e	-0.0926535
39	0x3cbbe70f	0.022937326
40	0x3cc5161b	0.024058392
41	0x3c65a6f2	0.014016854
42	0xbcc64a92	-0.02420548
43	0xbc549776	-0.012975564
44	0x3c6d225c	0.014473524
45	0xb96619d8	-0.00021944137
46	0x3b991c9f	0.0046726014
47	0x3ca1ce96	0.019751828
48	0xbcc716d7	-0.024302883
49	0x3dbc9873	0.09208765
50	0x3d6d5417	0.057941522
51	0xbd6a0a38	-0.05713865
52	0x3cf80ea1	0.030280413
53	0x3c269863	0.010168168
54	0xbb954ff9	-0.0045566526
55	0x3d7df30c	0.061999366
56	0x3c43ada2	0.011943253
57	0x3cbaa0fd	0.022781843
58	0xbd3c2809	-0.045936618
59	0x3cae62a6	0.021287274
60	0xbb488f57	-0.0030603015
61	0x3cfbedad	0.030752981
62	0xbdd82f11	-0.10555852
63	0x3c204045	0.009780948

layer1_1vm.2.weight f4 [64]
0	0x3f827f7d	1.0195156
1	0x3f8156b3	1.0104584
2	0x3f78a6bb	0.9712941
3	0x3f802fa8	1.0014544
4	0x3f828b31	1.0198728
5	0x3f7f0672	0.9961921
6	0x3f7d4fa5	0.9894965
7	0x3f81b8fc	1.0134578
8	0x3f818ecc	1.0121703
9	0x3f834ecc	1.0258422
10	0x3f758ee7	0.95921177
11	0x3f8131dc	1.0093341
12	0x3f8234d7	1.0172375
13	0x3f8417f3	1.0319809
14	0x3f7e67eb	0.99377316
15	0x3f832167	1.0244569
16	0x3f844e3b	1.0336374
17	0x3f77ec1d	0.96844655
18	0x3f7d706e	0.9899968
19	0x3f7f20d6	0.9965948
20	0x3f8252fc	1.0181575
21	0x3f7e1e67	0.9926514
22	0x3f84a992	1.0364249
23	0x3f73a2fa	0.9517056
24	0x3f7736de	0.96568096
25	0x3f7da4ce	0.99079597
26	0x3f836e09	1.0267955
27	0x3f7ebfc6	0.99511373
28	0x3f855d9c	1.0419192
29	0x3f824523	1.0177349
30	0x3f847132	1.0347044
31	0x3f843950	1.032999
32	0x3f847772	1.0348952
33	0x3f875ff2	1.0576155
34	0x3f7efb49	0.9960218
35	0x3f80bc9a	1.0057557
36	0x3f7b9a40	0.9828224
37	0x3f7cd064	0.9875548
38	0x3f7dad95	0.9909299
39	0x3f7d5c7c	0.98969245
40	0x3f7e3ecb	0.99314564
41	0x3f83ed2e	1.0306756
42	0x3f7418e5	0.95350486
43	0x3f7e876f	0.99425405
44	0x3f73e090	0.9526453
45	0x3f80d3ae	1.00646
46	0x3f81124a	1.0083706
47	0x3f7133e2	0.9421979
48	0x3f83e2ae	1.0303552
49	0x3f734b03	0.95036334
50	0x3f783fc4	0.969723
51	0x3f7dbb4d	0.99113923
52	0x3f76a04b	0.9633834
53	0x3f7cf4ea	0.9881121
54	0x3f71e523	0.9449026
55	0x3f7d8cfa	0.9904324
56	0x3f7e5ce3	0.99360484
57	0x3f7e2595	0.99276096
58	0x3f826d90	1.0189686
59	0x3f852722	1.0402567
60	0x3f77bda6	0.96773756
61	0x3f82bedd	1.0214497
62	0x3f81f48b	1.0152754
63	0x3f80b972	1.0056593

layer1_1vm.2.bias f4 [64]
0	0x3caa2ffa	0.02077483
1	0x3c0ceb16	0.008600971
2	0xbd0781d0	-0.033082783
3	0x3bc67728	0.006056685
4	0x3c672524	0.014107976
5	0x3a846924	0.0010102135
6	0x3bd7f6d6	0.0065907044
7	0x3c504553	0.012711841
8	0x3c1f9796	0.009740731
9	0x3ce6a09b	0.028152755
10	0xbd1d002b	-0.03833024
11	0xbb5c7a5e	-0.0033642272
12	0x3b63457a	0.0034678862
13	0x3c86d607	0.016459478
14	0xbc9d3c98	-0.019193932
15	0x3cc9051c	0.02453857
16	0x3d093da4	0.03350605
17	0xbd040fa6	-0.032241486
18	0xbbac1a00	-0.005252123
19	0xbbcbed37	-0.0062233466
20	0x3c7c571b	0.015401627
21	0xbba4e3a2	-0.0050320188
22	0x3d09b027	0.033615258
23	0xbd4a297a	-0.04935596
24	0xbd0a8d01	-0.033825878
25	0xbaf092d6	-0.0018354307
26	0x3d2a01d7	0.04150566
27	0xbc32dd25	-0.010916983
28	0x3d54ebcd	0.05198269
29	0x3cb70fb9	0.022346364
30	0x3ccdb44a	0.025110383
31	0x3d0fa431	0.035068695
32	0x3d0b0636	0.03394147
33	0x3d68a2a7	0.056795742
34	0x3aa532f1	0.0012603683
35	0x3c9de9b6	0.019276481
36	0xbc58583c	-0.01320463
37	0xbc3fe398	-0.011711977
38	0x38ef3128	0.00011405564
39	0xba71376e	-0.000920168
40	0xbbcb2682	-0.006199659
41	0x3cfe2a36	0.031025987
42	0xbd47ef97	-0.048812475
43	0xbc4c47b1	-0.012468264
44	0xbd1a4eb8	-0.03767273
45	0x3bc2cb70	0.005944662
46	0x3c7d232a	0.015450278
47	0xbd522dcb	-0.051313203
48	0x3d17e86f	0.0370869
49	0xbd207ca9	-0.039181385
50	0xbd0f8310	-0.0350371
51	0xbc4689a3	-0.012117776
52	0xbd0c8423	-0.034305703
53	0xbc813d7a	-0.015776385
54	0xbd67360b	-0.056448024
55	0xbbf7112d	-0.0075398893
56	0xbc7fe23f	-0.015617906
57	0xbb089601	-0.0020841362
58	0x3cd88dde	0.026434835
59	0x3d408900	0.047005653
60	0xbccc61fd	-0.024949068
61	0x3c96c497	0.018404288
62	0x3cb222e3	0.02174515
63	0x3c489530	0.0122426

layer1_1vm.2.running_mean f4 [64]
0	0xc886a8c3	-275782.1
1	0xc8133f71	-150781.77
2	0xc87b4fa0	-257342.5
3	0xc7bdb7b1	-97135.38
4	0x487859e1	254311.52
5	0xc888ddb9	-280301.78
6	0x47a2c0b8	83329.44
7	0x484ea11e	211588.47
8	0xc8d3faf3	-434135.6
9	0xc785e573	-68554.9
10	0xc8bcb1ee	-386447.44
11	0xc922c0bb	-666635.7
12	0xc8d7dc2e	-442081.44
13	0x4856540f	219472.23
14	0xc892062b	-299057.34
15	0xc7521581	-53781.504
16	0xc7279d23	-42909.137
17	0x480ac679	142105.89
18	0x482e7d22	178676.53
19	0x47b0c5a2	90507.266
20	0x4868c6ed	238363.7
21	0xc8b401fe	-368655.94
22	0xc836b435	-187088.83
23	0x4808e17e	140165.97
24	0x47b710e7	93729.805
25	0xc81fd6f6	-163675.84
26	0x48558fd0	218687.25
27	0xc8664b03	-235820.05
28	0xc5e480c6	-7312.0967
29	0x488573a6	273309.2
30	0xc801df8e	-132990.22
31	0xc87a9cbb	-256626.92
32	0x489876a6	312245.2
33	0x48e90b06	477272.2
34	0x48286753	172445.3
35	0x4864b80c	234208.19
36	0xc81ce591	-160662.27
37	0xc85146fa	-214299.9
38	0xc8360d32	-186420.78
39	0x4875fe70	251897.75
40	0x47e7191c	118322.22
41	0xc8852255	-272658.66
42	0xc8dc1c49	-450786.28
43	0xc7fcd1a9	-129443.32
44	0xc7d3cd02	-108442.016
45	0xc8317106	-181700.1
46	0x4888d3d1	280222.53
47	0xc7acff81	-88575.01
48	0xc8033a25	-134376.58
49	0x48b43959	369098.78
50	0xc81ef15f	-162757.48
51	0xc8943fc1	-303614.03
52	0x488df141	290698.03
53	0x47b04583	90251.02
54	0x483b859f	192022.48
55	0x47b958b5	94897.414
56	0x490137d1	529277.06
57	0xc797fe09	-77820.07
58	0x48c1e659	397106.78
59	0xc8534b32	-216364.78
60	0xc90e34f6	-582479.4
61	0xc8be48cb	-389702.34
62	0x486f261e	244888.47
63	0x4914a174	608791.25

layer1_1vm.2.running_var f4 [64]
0	0x5094f9cc	1.999519e+10
1	0x4fa34919	5.4789535e+09
2	0x505b1334	1.4701875e+10
3	0x4f06b11e	2.2597545e+09
4	0x5065d6e9	1.5424267e+10
5	0x50831b40	1.759681e+10
6	0x4ed5e44f	1.7942547e+09
7	0x5021383a	1.0819267e+10
8	0x51416c0c	5.192134e+10
9	0x4ea2dc5a	1.366175e+09
10	0x5104a905	3.561071e+10
11	0x51bb7a9a	1.00651975e+11
12	0x51504646	5.590826e+10
13	0x5067f0ff	1.5565323e+10
14	0x50a6f56a	2.240881e+10
15	0x4e3c82ab	7.9067e+08
16	0x4ddb130e	4.594324e+08
17	0x4f95a8a5	5.021715e+09
18	0x4ff675d3	8.2698337e+09
19	0x4ee273f9	1.8996256e+09
20	0x5061c93c	1.5152247e+10
21	0x50ea5208	3.1449956e+10
22	0x50127bd3	9.830354e+09
23	0x4fa19c56	5.422755e+09
24	0x4ee247e9	1.8981818e+09
25	0x4fd2abcc	7.0689485e+09
26	0x50289242	1.131263e+10
27	0x50649511	1.5339898e+10
28	0x4d2a8248	1.7879155e+08
29	0x50970699	2.0270336e+10
30	0x4f54b6e6	3.5687562e+09
31	0x509ba01e	2.0887695e+10
32	0x50a9a1e0	2.2767665e+10
33	0x5150afd9	5.6018964e+10
34	0x4fe61e20	7.721468e+09
35	0x5055550f	1.4316486e+10
36	0x4fc10c50	6.477619e+09
37	0x5016d508	1.0122174e+10
38	0x50109da8	9.705005e+09
39	0x504fcd96	1.3945428e+10
40	0x4f563f50	3.5944735e+09
41	0x50a131d4	2.1635178e+10
42	0x51229765	4.3645293e+10
43	0x4f7d8df6	4.2539392e+09
44	0x4f11de88	2.44728e+09
45	0x4ff8a3c3	8.3429637e+09
46	0x508c0ea0	1.879815e+10
47	0x4f02462f	2.1856376e+09
48	0x4f74c2db	4.1064108e+09
49	0x510ef322	3.837278e+10
50	0x4fbb665d	6.2880957e+09
51	0x508abe9e	1.8621985e+10
52	0x50c03e0b	2.5802332e+10
53	0x4edeb345	1.8681453e+09
54	0x4fed264e	7.957421e+09
55	0x4eff32d8	2.1407611e+09
56	0x518aaf4d	7.445582e+10
57	0x4ec0a411	1.6159889e+09
58	0x5104e0c9	3.5669185e+10
59	0x5030cef8	1.1865416e+10
60	0x5172fef0	6.52287e+10
61	0x510527ce	3.5743654e+10
62	0x5052c215	1.4143739e+10
63	0x51a8483e	9.034582e+10

layer1_2vm.0.weight f4 [32, 64]
0	0xbd279fc3	-0.040923845
1	0xbdd111ba	-0.10208459
2	0x3cceedb6	0.025259834
3	0x3d4bd589	0.04976419
4	0x3e1d8516	0.153828
5	0x3e18cac7	0.14921103
6	0xbd8b5902	-0.06804086
7	0xbd525b82	-0.0513568
8	0x3d740797	0.05957755
9	0xbcc0c8bf	-0.023533223
10	0x3df19c95	0.11797444
11	0xbdc59981	-0.09648419
12	0x3dc03642	0.09385349
13	0xbdc88bde	-0.097923025
14	0xbc8350de	-0.016029771
15	0x3dd3ae79	0.103360124
16	0xbe05b396	-0.13056788
17	0xbe75df74	-0.24011022
18	0x3e2277c7	0.15866004
19	0xbe01fac0	-0.1269331
20	0x3c70b500	0.014691591
21	0x3e7ad91d	0.24496885
22	0x3e003f2b	0.12524097
23	0x3ebd4a30	0.36970663
24	0x3cdd89f9	0.02704333
25	0x3bf79fc9	0.0075568897
26	0xbe0282a3	-0.12745146
27	0x3e7eec71	0.24894883
28	0xbd207dda	-0.03918252
29	0xbc37e257	-0.011223397
30	0x3e25df21	0.16198398
31	0xbd976b4d	-0.07393513
32	0x3e80f2c9	0.2518523
33	0xbe281c3d	-0.16417022
34	0xbe3c861e	-0.18410537
35	0xbdc8e824	-0.09809902
36	0xbe28d077	-0.16485773
37	0xbe4a7068	-0.19769442
38	0xbdccc36b	-0.099982105
39	0xbcabccea	-0.020971734
40	0x3e22030f	0.1582148
41	0xbeea682d	-0.45782605
42	0xbea346de	-0.31890005
43	0x3cc7539d	0.024331862
44	0x3e3aa4c3	0.18226914
45	0xbbff4dfb	-0.0077912784
46	0x3d720440	0.059086084
47	0xbda02e6e	-0.07821356
48	0xbe23ebd7	-0.16007935
49	0xbd6b99fa	-0.05751989
50	0xbd869f03	-0.06573298
51	0x3e33cffe	0.17559811
52	0x3e1071c2	0.14105895
53	0xbdc10fa7	-0.094268136
54	0x3d1aa1e0	0.037752032
55	0x3e5595dc	0.20857948
56	0xbda19346	-0.07889418
57	0xbdd847ca	-0.10560568
58	0xbdd12824	-0.10212734
59	0xbd10c4f6	-0.035344087
60	0xbe8a6d28	-0.27036405
61	0xbdf0c731	-0.11756743
62	0xbd8482a2	-0.06470229
63	0xbda9e712	-0.08296026
64	0xbd222048	-0.039581567
65	0xbd3fa1a9	-0.04678503
66	0x3da6d9d1	0.08147014
67	0xbd936187	-0.07196336
68	0x3ca93f5c	0.020660095
69	0x3d45e983	0.048318397
70	0x3d07faac	0.033198044
71	0x3c33e02c	0.01097874
72	0x3e280f31	0.16412045
73	0xbb9d47c0	-0.004799813
74	0x3e401ef3	0.18761806
75	0x3df4f345	0.119604625
76	0xbe8e208a	-0.277592
77	0xbe669228	-0.22516692
78	0x3d1d8b7e	0.03846311
79	0x3d0f44d8	0.034977764
80	0xbdd78704	-0.10523799
81	0x3b4f2347	0.003160672
82	0xbe4e2013	-0.20129423
83	0x3c5d0a4f	0.013491227
84	0x3dc10988	0.09425646
85	0xbd3afae0	-0.04564941
86	0xbe71704a	-0.23577991
87	0xbda76336	-0.0817322
88	0x3d41bbe9	0.047298346
89	0x3ca0270f	0.019549875
90	0xbe0d4a3c	-0.1379785
91	0xbc6db54f	-0.014508559
92	0xbddf36eb	-0.10899147
93	0x3e02f184	0.12787443
94	0xbe9547b4	-0.29156268
95	0x3d15cd32	0.036572643
96	0xbb13d264	-0.0022555823
97	0x3ce85d6e	0.028364863
98	0xbc45b2d4	-0.012066562
99	0xbe0c942f	-0.13728403
100	0xbe2aabce	-0.16667101
101	0x3cc617c9	0.024181264
102	0xbe033602	-0.12813571
103	0xbe7e11c1	-0.2481146
104	0xbea1663a	-0.31523305
105	0xbd1ed6b2	-0.03877897
106	0xbe36c538	-0.1784867
107	0xbe2746ba	-0.16335574
108	0x3d3a2d33	0.04545326
109	0x3e7f7c2a	0.24949709
110	0xbdadad50	-0.08480322
111	0x3e47a89c	0.19497913
112	0xbe03e94d	-0.12881966
113	0x3e9c6a56	0.30549878
114	0x3e248b68	0.16068804
115	0xbd4c708f	-0.04991203
116	0xbe283dd2	-0.16429833
117	0x3c80a4bb	0.01570355
118	0xbd33b5cf	-0.043874558
119	0xbdfb6f2b	-0.12277063
120	0xbe5914df	-0.21199368
121	0x3e6edf73	0.23327427
122	0x3e305ed3	0.17223673
123	0x3e81bd97	0.25339958
124	0x3cd8dfb3	0.026473856
125	0xbe34a045	-0.17639263
126	0xbeac6c3e	-0.33676332
127	0x3bfb77b4	0.007674182
128	0x3e55b86e	0.20871136
129	0xbc5c3a48	-0.01344163
130	0x3e83fba6	0.2577793
131	0xbe183fc2	-0.14868072
132	0x3c90ff51	0.01769987
133	0xbe405b7b	-0.18784897
134	0xbc328dda	-0.010898078
135	0x3e137403	0.14399724
136	0x3e81f0fa	0.25379163
137	0xbb968c1c	-0.004594339
138	0x3eaae939	0.3338106
139	0xbe0ab681	-0.13546182
140	0x3e6f670f	0.23379157
141	0xbdb9e422	-0.09076716
142	0xbea10b37	-0.3145387
143	0x3df136c7	0.11778026
144	0xbdd8cbfa	-0.105857804
145	0x3e4f24dc	0.20228904
146	0xbdd618b3	-0.1045393
147	0x3d2478bf	0.040154215
148	0xbd705a1f	-0.058679696
149	0xbc6bedbf	-0.014399945
150	0xbe04a84b	-0.12954824
151	0xbe2b551f	-0.1673169
152	0xbd256428	-0.04037872
153	0x3ec13a4e	0.37739795
154	0x3cf9a856	0.030475777
155	0xbdcaa518	-0.098947704
156	0xbd92b8e8	-0.07164174
157	0xbe324d7e	-0.17412373
158	0xbd9184c1	-0.07105399
159	0x392df697	0.00016590428
160	0x3e37e507	0.17958461
161	0xbd79d5f3	-0.060995053
162	0xbe1b80fb	-0.15185921
163	0x3d0da6bc	0.03458284
164	0xbd4088a1	-0.0470053
165	0xbc0b8386	-0.008515244
166	0x3eaf4971	0.3423572
167	0x3e9a870a	0.30181152
168	0x3e2bba6e	0.16770336
169	0xbeefdbc8	-0.46847367
170	0xbd5740b5	-0.052551944
171	0x3da9fd5e	0.08300279
172	0x3e0941a5	0.13403948
173	0xbe2f5dd5	-0.17125638
174	0xbd9578c7	-0.07298427
175	0x3d1e9fac	0.038726494
176	0xbcf2568c	-0.029582284
177	0xbe31dfaf	-0.17370485
178	0xbe9c8dab	-0.30576834
179	0xbe39c05f	-0.1813979
180	0x3cdbde44	0.026839383
181	0xbe6facb7	-0.23405729
182	0xbe664553	-0.22487383
183	0xbd6233bd	-0.055225123
184	0xbe8a56ca	-0.2701934
185	0x3df35535	0.11881486
186	0xbe7643f6	-0.24049363
187	0xbe6685b6	-0.22511944
188	0xbe126b50	-0.14298749
189	0x3d5416be	0.0517795
190	0x3e506dd7	0.203544
191	0xbd91359f	-0.070903055
192	0xbe10c455	-0.14137395
193	0xbe04f7b5	-0.12985118
194	0x3dd635fc	0.104595155
195	0xbde55f84	-0.11199859
196	0xbd878338	-0.06616825
197	0xbe2c772e	-0.16842338
198	0xbdca7afd	-0.098867394
199	0x3d093d37	0.033505645
200	0xbe1f3412	-0.15547207
201	0xbe57c68a	-0.2107183
202	0x3d6e0667	0.058111575
203	0x3e5ec042	0.21753028
204	0xbe3777dc	-0.17916816
205	0x3e24bde1	0.16088058
206	0xbe4e55ae	-0.20149872
207	0xbe0417a3	-0.12899642
208	0x3e235258	0.1594938
209	0xbe2b716c	-0.16742486
210	0xbdf0cd52	-0.11757912
211	0x3e680a01	0.22660066
212	0xbe04b781	-0.12960626
213	0xbd5753fe	-0.052570336
214	0x3d95f97c	0.07322976
215	0x3d33cc21	0.043895844
216	0x3cba9075	0.02277396
217	0x3dc8b38c	0.09799871
218	0xbd401c59	-0.046902034
219	0xbe307912	-0.17233685
220	0x3e19d632	0.15023115
221	0xbdc623ee	-0.09674822
222	0xbc5cfbf5	-0.013487806
223	0x3dec3bcd	0.115348436
224	0x3e4565dd	0.19277139
225	0x3ce97a46	0.028500687
226	0xbe27e241	-0.16394903
227	0xbd91c123	-0.07116916
228	0x3e534999	0.20633544
229	0x3e43361b	0.19063608
230	0x3d8e312a	0.06942971
231	0x3e5bdff3	0.21472149
232	0x3e24cab0	0.16092944
233	0xbe1f192b	-0.15536945
234	0x3dc362d0	0.09540331
235	0xbe7ef2fc	-0.24897379
236	0xbba18e19	-0.0049302694
237	0xbdb7d3fa	-0.08975978
238	0xbe102124	-0.14075142
239	0xbce4b53a	-0.027918447
240	0xbe4d8654	-0.20070773
241	0xbe7f4271	-0.24927689
242	0xbcf13ffa	-0.029449452
243	0x3d2c1b58	0.042018265
244	0x3e5a7d97	0.21336971
245	0x3c75e009	0.015007027
246	0x3dc0e418	0.094185054
247	0xbdffc254	-0.12488237
248	0xbe187bcf	-0.14890979
249	0x3e0ed8f6	0.13949952
250	0x3aa33856	0.0012452703
251	0x3d4063cc	0.046970174
252	0xbd286561	-0.041112307
253	0x3e0693fb	0.13142388
254	0x3d83af62	0.06429936
255	0x3d80f03d	0.06295822

layer1_2vm.0.bias f4 [32]
0	0xbc4a177d	-0.012334702
1	0xbc84debc	-0.01621949
2	0xbce83345	-0.02834476
3	0xbc991160	-0.018685043
4	0x3d036065	0.03207435
5	0x3cedafd0	0.029014498
6	0xbca3802e	-0.019958582
7	0xbcf23946	-0.029568326
8	0xbcdf49d0	-0.027256876
9	0xbd40c51d	-0.047062982
10	0x3c7d8057	0.015472493
11	0x3c1dad47	0.009623832
12	0xbcd89815	-0.026439706
13	0x3c31e194	0.010857005
14	0xbc858c33	-0.016302204
15	0xbc0230ca	-0.0079462025
16	0xbcc903b2	-0.024537895
17	0x3ca8a69b	0.020587256
18	0x3d4c17bf	0.049827334
19	0x3d5f61d1	0.054536644
20	0xbcf6c426	-0.030122828
21	0xbcb135bf	-0.021632073
22	0x3d2b4776	0.041816197
23	0xbcd83814	-0.026393928
24	0x3cfd6f23	0.030936783
25	0xbc2d84c5	-0.010590737
26	0x3b1b39a4	0.002368548
27	0x3ca5f044	0.02025617
28	0xbb86c268	-0.0041125305
29	0xbbb39ca5	-0.00548132
30	0x3c8366d2	0.01604024
31	0x3cbd0e2d	0.023078049

layer1_2vm.2.weight f4 [32]
0	0x3f7052f8	0.938766
1	0x3f751579	0.9573589
2	0x3f6edce7	0.9330582
3	0x3f6c3c8e	0.922799
4	0x3f7c3808	0.98522997
5	0x3f7b77ca	0.9822966
6	0x3f6a295d	0.91469365
7	0x3f8543e3	1.0411342
8	0x3f84fc72	1.038954
9	0x3f758a59	0.95914227
10	0x3f7be7c0	0.984005
11	0x3f836512	1.0265219
12	0x3f780241	0.9687844
13	0x3f79fb30	0.97648907
14	0x3f6b44fd	0.9190214
15	0x3f79ad68	0.9753022
16	0x3f6b9d69	0.92037064
17	0x3f8101cd	1.0078675
18	0x3f6df313	0.92949027
19	0x3f724e3e	0.9465064
20	0x3f803d64	1.0018735
21	0x3f733b6c	0.95012546
22	0x3f7ce7e2	0.98791325
23	0x3f7dc404	0.9912722
24	0x3f7f506b	0.99732083
25	0x3f6b4019	0.9189468
26	0x3f79b3aa	0.9753977
27	0x3f831719	1.0241424
28	0x3f7af905	0.98036224
29	0x3f811355	1.0084025
30	0x3f7906ee	0.972762
31	0x3f77e49d	0.9683321

layer1_2vm.2.bias f4 [32]
0	0xbccfb80c	-0.025356315
1	0x3b931c9f	0.004489496
2	0xbd140ecb	-0.03614692
3	0xbceceb0d	-0.028920675
4	0x3c3abaee	0.011397107
5	0x3bb19daf	0.0054204087
6	0xbda60f43	-0.0810838
7	0x3d6efbca	0.058345594
8	0x3db05e1a	0.086116984
9	0xbca1291f	-0.019672928
10	0x3adf1875	0.0017020839
11	0x3d133165	0.03593578
12	0xbc9f0f1a	-0.01941638
13	0xbc900172	-0.017578814
14	0xbd22121c	-0.03956805
15	0xbc83d0fd	-0.016090864
16	0xbd85f323	-0.06540515
17	0x3c0f9093	0.0087624965
18	0xbd3f075c	-0.046637878
19	0x3a11aa98	0.00055567315
20	0x3d1cadb8	0.03825161
21	0xbc7e70ee	-0.015529854
22	0x3c6e931e	0.014561443
23	0x3c3d98fa	0.011572117
24	0x3cc2f4c7	0.02379836
25	0xbd8fbe70	-0.07018745
26	0x3afcd378	0.0019289097
27	0x3d370070	0.04467815
28	0xbd0f2509	-0.03494743
29	0x3d211161	0.039323214
30	0x3b9de03c	0.0048179906
31	0xbd672e8d	-0.05644088

layer1_2vm.2.running_mean f4 [32]
0	0xbeaecf82	-0.3414269
1	0xbf3e1877	-0.7425608
2	0xbefee0e4	-0.49780953
3	0xbe922fdc	-0.2855214
4	0x3ea05ecb	0.3132232
5	0x3ed0968b	0.40739855
6	0xbf957ef5	-1.1679369
7	0xbf8842ff	-1.0645446
8	0xbf50fddd	-0.81637365
9	0xbf5ee458	-0.87067175
10	0x3f4b7379	0.7947307
11	0x3f99e869	1.2024051
12	0xbea7499e	-0.32673353
13	0xbd8e2322	-0.06940295
14	0xbf2205aa	-0.6328989
15	0x3db77d3a	0.08959432
16	0x3eaa6300	0.33278656
17	0x3ea0acc8	0.31381822
18	0x3f5167b6	0.81798875
19	0x3f3bfa3a	0.7342869
20	0xbf5cc3d4	-0.8623631
21	0xbf10bf73	-0.5654213
22	0x3edcdd79	0.4313772
23	0xbf786cda	-0.97041094
24	0x3f307516	0.6892866
25	0x3f04fc18	0.51947165
26	0xbf871289	-1.0552531
27	0x3ef04ef7	0.46935245
28	0xbf3f6587	-0.74764293
29	0xbed3b811	-0.4135137
30	0x3e69f36b	0.22846763
31	0xbea11f0b	-0.31468996

layer1_2vm.2.running_var f4 [32]
0	0x3f3ddcea	0.74165213
1	0x3f58bfd4	0.84667706
2	0x3f97448a	1.1817791
3	0x3f14b355	0.5808614
4	0x3f445524	0.76692414
5	0x3f6ad818	0.9173598
6	0x3faf8fc1	1.3715745
7	0x3f8884cf	1.066553
8	0x3f3bbd13	0.7333538
9	0x3f624b2e	0.88395965
10	0x3f4d368d	0.8016136
11	0x3fa48d8b	1.2855695
12	0x3f02bd60	0.51070213
13	0x3f2bd314	0.67118955
14	0x3f379ddb	0.71725243
15	0x3f1fd98a	0.62441313
16	0x3f89b5f8	1.0758657
17	0x3f3b7042	0.73218167
18	0x3f90d899	1.13161
19	0x3f406964	0.75160813
20	0x3f2cd78a	0.67516387
21	0x3f08c3a2	0.5342351
22	0x3f24d6ba	0.64390147
23	0x3f7a7b2c	0.97844195
24	0x3f6eaac0	0.93229294
25	0x3f5d0a59	0.86343914
26	0x3f4ade6d	0.79245645
27	0x3f2899eb	0.6585986
28	0x3f37a30e	0.71733177
29	0x3f60171d	0.8753527
30	0x3f6e046c	0.929755
31	0x3f53402a	0.8251978

layer2.0.weight f4 [32, 64]
0	0xbcf62744	-0.03004802
1	0xbe70114c	-0.23444098
2	0x3cfc30f0	0.030785054
3	0xbdb1a816	-0.08674638
4	0xbef0b573	-0.47013435
5	0xbe31ac64	-0.17350918
6	0xbdc1d707	-0.09464841
7	0xbe72f29b	-0.23725359
8	0x3e4a5628	0.19759429
9	0x3dea5518	0.114420116
10	0xbe4d7c0d	-0.20066853
11	0xbe7541f4	-0.2395094
12	0xbe2768c5	-0.1634856
13	0x3db4ee08	0.08834463
14	0xbdda650d	-0.10663805
15	0x3e66cb64	0.22538525
16	0x3cd69106	0.0261922
17	0xbd86d175	-0.065829195
18	0x3e33cb67	0.1755806
19	0xbc80dabf	-0.015729306
20	0x3e19d594	0.1502288
21	0x3d07960d	0.033102084
22	0xbe300348	-0.17188752
23	0xbdf8150a	-0.12113388
24	0xbd0f0cc7	-0.034924295
25	0xbe7167d2	-0.2357476
26	0x3d176a44	0.036966577
27	0x3ddd0147	0.10791259
28	0xbd02fcda	-0.03197942
29	0x3d9bf844	0.07615712
30	0x3e5ec82b	0.21756046
31	0x3df94e0f	0.121730916
32	0x3e625dfb	0.22106163
33	0x3e55e0c6	0.20886526
34	0x3d422dab	0.047406834
35	0xbd2f8460	-0.042850852
36	0xbb664a27	-0.0035139413
37	0xbde2ec8e	-0.110802755
38	0x3e28e072	0.16491869
39	0x3dbb181d	0.091354586
40	0x3d305896	0.043053232
41	0xbdfed634	-0.124432
42	0x3e666aea	0.22501722
43	0xbd8dd72b	-0.06925806
44	0xbd59a61d	-0.053136934
45	0x3e76a413	0.24086027
46	0xbcd5d181	-0.026100876
47	0xbe6e4d67	-0.23271714
48	0x3d3a35ba	0.045461394
49	0xbf1143d9	-0.5674415
50	0xbc03cbc7	-0.00804419
51	0x3e11d4a2	0.14241269
52	0xbdec5544	-0.115397006
53	0x3caf69d2	0.021412764
54	0x3db4866a	0.088147
55	0xbe8e6f9e	-0.27819532
56	0xbc3ab269	-0.011395075
57	0x3daf3526	0.08555059
58	0xbd0a9aaf	-0.033838924
59	0x3de96a91	0.11397279
60	0x3c57ad0c	0.013163816
61	0x3e190c2d	0.14946051
62	0x3cd77ad6	0.02630369
63	0xbd2da1fb	-0.042390805
64	0x3e957184	0.29188168
65	0xbd396905	-0.04526617
66	0xbe896156	-0.26832074
67	0x3d88a270	0.066716075
68	0xbde6a360	-0.1126163
69	0x3e8dcd70	0.276958
70	0x3da4420d	0.08020411
71	0x3ea554b6	0.32291192
72	0x3e53fa64	0.20700985
73	0xbb8b0342	-0.0042423317
74	0xbdb59009	-0.08865363
75	0xbe0386cd	-0.12844391
76	0x3e85d846	0.26141566
77	0x3d69ed9d	0.05711137
78	0x3d28ccbb	0.04121087
79	0x3d3dbb3f	0.04632115
80	0x3ec19b99	0.37814024
81	0x3d5232de	0.051318042
82	0xbe8265fa	-0.25468427
83	0xbe429dd3	-0.19005518
84	0xbce3a8e4	-0.027790494
85	0x3ddf62a4	0.10907486
86	0x3dd255b1	0.102702506
87	0x3e0f68a1	0.14004757
88	0xbde07d8a	-0.10961445
89	0xbe52175c	-0.20516723
90	0x3e014570	0.12624145
91	0x3dc2c4e4	0.0951021
92	0x3e1a1288	0.15046132
93	0xbcdf311d	-0.027245099
94	0xbdbe4592	-0.09290613
95	0x3e0af341	0.13569357
96	0x3dd8e097	0.10589712
97	0xbd68668f	-0.056738432
98	0xbd2e23f3	-0.042514753
99	0xbe1623a0	-0.14662027
100	0x3dd51b30	0.10405576
101	0x3dbd2527	0.09235602
102	0xbe745048	-0.2385875
103	0xbcb85510	-0.022501498
104	0xbdde353a	-0.10849996
105	0xbeda91dc	-0.42689407
106	0xbd8cc9e8	-0.06874448
107	0xbe2ecf57	-0.17071281
108	0x3db18257	0.086674385
109	0xbd27e902	-0.040993698
110	0x3db6e636	0.08930628
111	0x3e4c426e	0.19947216
112	0x3e5425c8	0.20717537
113	0xbcbc9bf1	-0.023023577
114	0x3da07d28	0.07836372
115	0xbdea37b7	-0.11436408
116	0xbc833f83	-0.016021496
117	0x3e8372dc	0.25673568
118	0xba91a793	-0.0011112563
119	0x3e36c282	0.17847636
120	0xbd6e175f	-0.058127757
121	0x3dc4a9ee	0.09602724
122	0xbe362f92	-0.17791584
123	0x3a5b518b	0.0008366338
124	0x3c4c28cc	0.012460899
125	0x3e00d20c	0.12580127
126	0x3e11c3b2	0.14234808
127	0xbe0b5244	-0.136056
128	0xbd4f6abd	-0.050638903
129	0xbd302c1c	-0.043010816
130	0x3ce44ec2	0.027869586
131	0x3d904415	0.070442356
132	0xbdb1dee8	-0.08685094
133	0x3afa9d26	0.001912032
134	0xbd047281	-0.032335762
135	0xbd0275e2	-0.031850703
136	0x3e71e7da	0.236236
137	0xbc424c86	-0.011859065
138	0xbdef4b6d	-0.11684308
139	0xbe6efab2	-0.2333782
140	0x3d410633	0.047125053
141	0x3d804024	0.06262234
142	0x3e73df9c	0.23815769
143	0xbe6a1792	-0.22860554
144	0xbe697ca9	-0.2280146
145	0x3e824101	0.2544022
146	0x3de1ca8b	0.1102496
147	0x3dc27623	0.09495189
148	0x3e74a307	0.23890315
149	0xbd86da04	-0.06584552
150	0xbe8bb875	-0.27289167
151	0xbe1c6087	-0.15271197
152	0xbdc8a92c	-0.09797892
153	0x3e730f45	0.23736294
154	0x3e6fe65c	0.23427719
155	0xbdcde67d	-0.10053728
156	0xbee38cd2	-0.44443375
157	0xbe5eaafe	-0.21744916
158	0xbd396213	-0.045259546
159	0x3df1e83e	0.11811875
160	0xbce2b66c	-0.027674876
161	0xbde72115	-0.11285607
162	0x3e0d7238	0.13813102
163	0x3e6a9018	0.2290653
164	0xbd7499b1	-0.059716884
165	0xbdc5954b	-0.09647616
166	0xbe36cedc	-0.17852348
167	0xbda969fe	-0.082721695
168	0x3e7a7440	0.24458408
169	0xbe613597	-0.21993099
170	0xbe0f1e53	-0.13976412
171	0xbe891578	-0.26774192
172	0xbe32e344	-0.17469507
173	0xbda81364	-0.082068235
174	0xbea3b3d2	-0.3197313
175	0x3e65afa7	0.22430287
176	0xbe46d631	-0.19417645
177	0xbe0edd72	-0.13951662
178	0xbe098f0f	-0.13433479
179	0xbe3ed170	-0.18634582
180	0x3d744ef2	0.0596456
181	0x3dffa49f	0.12482571
182	0xbdc0acb7	-0.09407943
183	0xbdb56298	-0.08856696
184	0x3d2428f0	0.040078104
185	0x3dc84359	0.097784705
186	0x3d2eb6bb	0.042654734
187	0xbe4516ad	-0.19246931
188	0xbc583a57	-0.013197503
189	0xbda3eea6	-0.08004503
190	0x3e3ec4b7	0.18629728
191	0x3db5e907	0.08882337
192	0x3d8c1c86	0.06841378
193	0x3d92af8f	0.071623914
194	0x3dd488f9	0.10377688
195	0x3c0830cc	0.008312415
196	0xbdbb8bc1	-0.09157515
197	0x3d050c66	0.032482527
198	0x3da4cc88	0.08046824
199	0x3e36d732	0.17855528
200	0x3d49f7dc	0.049308643
201	0x3d7b8b59	0.06141219
202	0x3cc3dba5	0.023908446
203	0x3e5d32c2	0.21601394
204	0x3e0cbb91	0.13743426
205	0x3e6bb118	0.23016775
206	0x3d05ae00	0.032636642
207	0xbe29df2f	-0.16589044
208	0x3e2af7e6	0.16696128
209	0xbccc5074	-0.024940707
210	0xbdbd5e13	-0.09246459
211	0x3de4587c	0.111496896
212	0xbdc35b2b	-0.09538873
213	0x3e1720a3	0.14758544
214	0x3d6cb972	0.057794042
215	0xbca9d4a1	-0.020731272
216	0x3d954359	0.07288236
217	0xbd56e0a1	-0.052460317
218	0xbd58a8f3	-0.052895498
219	0xbe6b6588	-0.2298795
220	0xbcbe809c	-0.023254685
221	0x3ed2c78a	0.4116786
222	0xbdb96fc5	-0.090545215
223	0x3e8530ec	0.26013887
224	0xbe6e4ae2	-0.23270753
225	0x3e1ac336	0.1511353
226	0x3db9c840	0.09071398
227	0x3dd6e0d7	0.104921035
228	0xbd8c39e3	-0.068469785
229	0x3e0dc31c	0.1384396
230	0x3e35eb43	0.17765526
231	0xbe8f0a15	-0.2793738
232	0x3ddb07e3	0.10694864
233	0xbd398004	-0.0452881
234	0x3e4331d4	0.19061977
235	0x3e1b2919	0.15152396
236	0xbd91052b	-0.07081064
237	0x3e8f29d9	0.27961615
238	0xbe90976e	-0.28240532
239	0x3e89e1a3	0.2692996
240	0xbe0abd82	-0.13548854
241	0x3e8f6ae1	0.2801123
242	0x3d7b8c7b	0.06141327
243	0x3e57f7c5	0.2109061
244	0x3d950047	0.072754435
245	0xbcb23413	-0.021753347
246	0x3e92a654	0.28642523
247	0x3e14453f	0.1447954
248	0xbd100798	-0.035163492
249	0xbe12bd80	-0.14330101
250	0x3dfc2877	0.123124056
251	0xbd7ff182	-0.06248618
252	0xbe1a3f2d	-0.15063162
253	0xbd6926e2	-0.056921847
254	0xbe186aa6	-0.14884433
255	0x3db5fc50	0.088860154

layer2.0.bias f4 [32]
0	0x3d3fa936	0.04679223
1	0xbcbbc121	-0.02291924
2	0xbbe5b5d5	-0.0070102015
3	0x3dc1293f	0.09431695
4	0xbd9a2bd7	-0.07527893
5	0xbcfcea8f	-0.030873565
6	0xbd9963b2	-0.074897185
7	0xbd320a9c	-0.04346715
8	0x3e00eb1c	0.12589687
9	0x3c64d520	0.013966829
10	0x3d6f77b2	0.05846376
11	0xbd7e4ab1	-0.06208295
12	0xbc6d6493	-0.014489311
13	0xbd764625	-0.06012549
14	0x3d281f91	0.04104573
15	0xbca6d277	-0.02036403
16	0x3d754de7	0.059888747
17	0xbd9fb1a0	-0.07797551
18	0xbd82ecf4	-0.063928515
19	0x3e06f8f9	0.13180913
20	0x3bb23802	0.0054388056
21	0xbca10bf0	-0.019659013
22	0x3e139670	0.14412856
23	0xbd9344fa	-0.071908906
24	0x3dffd3a5	0.1249154
25	0x3ddecfc5	0.10879473
26	0x3dc4738c	0.09592351
27	0x3e098f15	0.13433488
28	0x3d07ef6d	0.03318732
29	0xbb636d11	-0.003470246
30	0xbd33f736	-0.04393693
31	0x3d9fa33e	0.07794808

layer2.2.weight f4 [32]
0	0x3f557300	0.833786
1	0x3f7826d0	0.96934223
2	0x3f924e5a	1.1430161
3	0x3f959a3c	1.1687694
4	0x3f64833f	0.89262766
5	0x3f963e05	1.1737677
6	0x3f95d595	1.1705805
7	0x3f854ac1	1.0413438
8	0x3f94504c	1.1587005
9	0x3f73c383	0.952202
10	0x3f942be4	1.1575894
11	0x3f963b7d	1.1736904
12	0x3f939c1a	1.1532013
13	0x3f923c86	1.142472
14	0x3f906c4e	1.1283052
15	0x3f9410fc	1.1567683
16	0x3f8dbf0d	1.1073929
17	0x3f590a15	0.8478101
18	0x3f74f20b	0.9568183
19	0x3f94dd88	1.1630106
20	0x3f8072d1	1.0035039
21	0x3f6e02a2	0.9297277
22	0x3f944d42	1.1586077
23	0x3f91be7c	1.1386256
24	0x3f9044ec	1.1271033
25	0x3f95b7f2	1.1696761
26	0x3f925d80	1.1434784
27	0x3f944639	1.158393
28	0x3f860df3	1.0473007
29	0x3f94dbca	1.1629574
30	0x3f950006	1.1640632
31	0x3f96cd47	1.1781396

layer2.2.bias f4 [32]
0	0xbe209ef0	-0.1568563
1	0xbc9e67fa	-0.01933669
2	0x3e1b2d64	0.15154034
3	0x3e2fe163	0.17175822
4	0xbe09070f	-0.13381599
5	0x3e39d37a	0.18147078
6	0x3e2cc287	0.16871081
7	0x3d660dc0	0.056165457
8	0x3e2a0162	0.1660209
9	0xbd894ab7	-0.06703704
10	0x3e1bdabd	0.15220161
11	0x3e2b9841	0.16757299
12	0x3e3aa3c7	0.18226539
13	0x3e1b99f3	0.15195446
14	0x3dcd1763	0.10014226
15	0x3e1b4be9	0.15165676
16	0x3dcfec9e	0.10152553
17	0xbe282c9e	-0.1642327
18	0xbd678f49	-0.05653313
19	0x3e2cddc3	0.1688147
20	0xbc8634ea	-0.016382653
21	0xbdb603c3	-0.08887436
22	0x3e2d980d	0.16952534
23	0x3e10233b	0.1407594
24	0x3e027de5	0.12743337
25	0x3e327a23	0.17429404
26	0x3e1979bf	0.14987849
27	0x3e2d70cc	0.1693756
28	0x3d45b88b	0.048271697
29	0x3e2e1a60	0.17002249
30	0x3e2c3a7f	0.1681919
31	0x3e37917d	0.17926593

layer2.2.running_mean f4 [32]
0	0xbed38622	-0.41313273
1	0x3f2423df	0.64117235
2	0xbf52104c	-0.8205612
3	0x3fa4d0bc	1.2876201
4	0xbde0a006	-0.10968022
5	0xbf653d86	-0.89547
6	0xbfa35f5b	-1.2763475
7	0xbf10ac3e	-0.5651282
8	0x3f458e28	0.7717004
9	0x3ba02822	0.0048875967
10	0x3f38822a	0.72073615
11	0xbf9ef133	-1.2417358
12	0xbe55e12e	-0.2088668
13	0xbf4b453a	-0.79402506
14	0x3f5359ef	0.825591
15	0xbec8e468	-0.3923676
16	0x3fb66d99	1.4252197
17	0xbd3d97a7	-0.046287205
18	0xbe14bbbc	-0.1452474
19	0x3f9cb9b4	1.2244172
20	0xbf5f938f	-0.8733453
21	0x3ea8ee80	0.3299446
22	0x3f8711fd	1.0552365
23	0xbf8e40f6	-1.1113575
24	0x3f50e732	0.81602776
25	0x3f8ce2c9	1.1006709
26	0x3f2ab684	0.66684747
27	0x3fb10a8e	1.3831346
28	0x3ec0ae0c	0.37632787
29	0xbf8e9418	-1.1138945
30	0xbfb498dc	-1.4109149
31	0x3fbbea96	1.4680965

layer2.2.running_var f4 [32]
0	0x3f69f649	0.91391426
1	0x3f8d20de	1.1025655
2	0x3f75d55d	0.9602869
3	0x3f7b5831	0.98181444
4	0x3f14bdab	0.5810191
5	0x3f6c06e1	0.92197996
6	0x3f79da64	0.9759886
7	0x3f6f2a9f	0.9342441
8	0x3fa3eb05	1.2806097
9	0x3fc8a707	1.5675973
10	0x3f63f155	0.8904012
11	0x3f7040b3	0.93848723
12	0x3fae32d9	1.3609267
13	0x3fa9f837	1.3278874
14	0x400848d9	2.1294463
15	0x3fe475e0	1.7848473
16	0x4034d7d6	2.8256736
17	0x3f61bbf0	0.88177395
18	0x3f8e293d	1.1106335
19	0x3f89bc10	1.0760517
20	0x3f39d8b0	0.72596264
21	0x3fa0d364	1.2564511
22	0x400688bd	2.1020958
23	0x3f94a964	1.1614194
24	0x3fed118e	1.8520982
25	0x3f5759c2	0.84121335
26	0x3fbea5c1	1.4894334
27	0x3f9c1ecb	1.2196897
28	0x3ff8d48c	1.9439864
29	0x402cef46	2.702104
30	0x401c284b	2.4399593
31	0x400d9181	2.2120059

fc_advantage.0.weight f4 [20, 32]
0	0x3d3b4504	0.045720115
1	0xbe823864	-0.25433648
2	0xbeb2427b	-0.34816346
3	0xbc7bdd84	-0.015372638
4	0x3e418536	0.18898472
5	0x3c478d51	0.012179689
6	0xbe41374b	-0.18868749
7	0xbe83f2bb	-0.25771126
8	0x3e6d2714	0.23159438
9	0xbe222d88	-0.15837681
10	0xbe45dc73	-0.19322376
11	0xbcd436cf	-0.025905041
12	0xbe85de8e	-0.26146358
13	0x3ed2cd16	0.41172093
14	0xbeab1b05	-0.33419052
15	0x3e2dbe94	0.16967231
16	0x3e705e21	0.23473407
17	0x3e84d0fc	0.25940692
18	0xbe3c8deb	-0.18413512
19	0xbbcbfb95	-0.0062250593
20	0xbe1d42a8	-0.15357459
21	0xbdbb21b9	-0.091372915
22	0xbd5cdbc0	-0.053920507
23	0xbee5d44b	-0.4488853
24	0xbd785e71	-0.06063694
25	0xbe38b69a	-0.18038407
26	0xbce25a38	-0.02763091
27	0x3c99c129	0.018768864
28	0xbd91cee8	-0.07119542
29	0xbe1eb93b	-0.15500347
30	0x3ec0aa40	0.3762989
31	0xbe6ebc1d	-0.23313947
32	0x3f055742	0.5208627
33	0x3f00602c	0.50146747
34	0x3d946f3e	0.0724778
35	0xbd12afb5	-0.0358121
36	0x3ea5efc3	0.32409486
37	0x3e81cd1b	0.25351796
38	0x3e4500dd	0.1923861
39	0x3bcdfd9a	0.006286335
40	0xbd167522	-0.0367328
41	0x3e8dbdd9	0.27683905
42	0x3cf9cfff	0.030494688
43	0x3eaf8754	0.34282935
44	0xbcad5cc0	-0.02116239
45	0x3eb7eec7	0.3592436
46	0x3e99439e	0.299344
47	0x3eca9998	0.39570308
48	0x3eaecbe2	0.34139925
49	0x3ddccad3	0.10780873
50	0x3df418c7	0.119187884
51	0x3ec6429b	0.3872269
52	0x3e455db7	0.1927403
53	0x3e160ec6	0.14654073
54	0xbd3f8d58	-0.046765655
55	0x3ea9983f	0.33123967
56	0x3dab77c8	0.08372456
57	0x3eaf9720	0.34294987
58	0x3de70a9a	0.11281319
59	0x3eb63047	0.35583708
60	0x3c35cbb4	0.01109593
61	0x3ef0cba8	0.47030377
62	0x3e11bd30	0.14232326
63	0x3ea42ac1	0.3206387
64	0xbe711934	-0.2354477
65	0xbdc0c6f0	-0.09412944
66	0xbe960ebe	-0.29308122
67	0x3c3b10c1	0.011417569
68	0x3d8cf6d2	0.06883015
69	0xbe3c4b85	-0.18388183
70	0xbe4333f8	-0.19062793
71	0x3ca41b2a	0.020032484
72	0x3dede196	0.11615293
73	0x3e715ed8	0.23571336
74	0x3d65a22a	0.056062855
75	0xbe781823	-0.24227957
76	0xbea55b81	-0.32296374
77	0x3e654aa6	0.22391757
78	0x3e4ac16f	0.19800352
79	0x3e2156cc	0.15755767
80	0xbeaa1c53	-0.33224735
81	0x3e847862	0.25873095
82	0x3e7a81e9	0.2446362
83	0xbdfef93b	-0.12449881
84	0x3e878ba6	0.2647373
85	0x3d9696ba	0.073529676
86	0x3cbe29d9	0.023213314
87	0xbdf527c1	-0.11970473
88	0x3ea9dbee	0.33175606
89	0xbe5f6280	-0.21814919
90	0x3d90ef5d	0.07076905
91	0xbdd9f628	-0.10642654
92	0xbe8be2f9	-0.27321604
93	0xbcc915c2	-0.024546508
94	0xbe252e2a	-0.16130891
95	0xbed6f4b5	-0.41983572
96	0xbe962e70	-0.29332304
97	0xbe308016	-0.17236361
98	0xbee4998b	-0.44648394
99	0xbdfbe9fb	-0.123004876
100	0x3e0d47ab	0.1379687
101	0xbd9aa9ee	-0.07551943
102	0x3e0bb178	0.13641918
103	0x3e2949b2	0.16532019
104	0x3e86a6a5	0.26299015
105	0x3ebe1e5b	0.37132534
106	0x3e50ff51	0.20409895
107	0xbd9a35b2	-0.07529773
108	0xbe6dbe32	-0.23217085
109	0x3df80119	0.12109584
110	0xbd0bd98d	-0.03414302
111	0xbe9b909a	-0.3038376
112	0xbdb98bbf	-0.090598576
113	0x3e3af620	0.18257952
114	0x3bff62c3	0.0077937557
115	0xbe3ed7f2	-0.18637064
116	0xbe8d967e	-0.2765388
117	0xbdf3756c	-0.11887631
118	0x3e78c9d1	0.24295737
119	0x3cf57b3a	0.029965986
120	0x3e94fbb7	0.29098293
121	0x3e84846a	0.25882274
122	0xbdb8569e	-0.09000896
123	0xbe540abb	-0.20707218
124	0xbec273a5	-0.37978855
125	0x3e2c71bb	0.1684026
126	0xbe434515	-0.19069321
127	0xbef0e15d	-0.4704694
128	0xbb6836ca	-0.0035433047
129	0x3e18d995	0.14926751
130	0xbe1f7b1a	-0.15574303
131	0x3e3ddf50	0.18542218
132	0xbd754a21	-0.059885148
133	0x3e7b94da	0.24568501
134	0x3e6ddf9f	0.23229836
135	0x3ca7d4c2	0.020487193
136	0x3e126a87	0.1429845
137	0xbd378f40	-0.04481435
138	0x3ca6ef00	0.020377636
139	0x3d0d1520	0.034443974
140	0x3e8ea8aa	0.27863055
141	0x3ec9ca51	0.39412168
142	0xbdb04356	-0.08606593
143	0x3ca24eaa	0.0198129
144	0x3e24c840	0.16092014
145	0x3e950ed5	0.29112878
146	0xbdde8562	-0.108652845
147	0xbcd981e8	-0.026551202
148	0x3e01efbd	0.12689109
149	0x3dce0fa5	0.10061578
150	0x3e949820	0.29022312
151	0xbd3c8f84	-0.046035305
152	0x3e052e23	0.13005881
153	0x3e9189af	0.28425357
154	0x3e14cdd6	0.14531645
155	0x3e6c8dd2	0.23100975
156	0xbe66cdc1	-0.22539426
157	0x3e6a9444	0.22908121
158	0x3e05e3e7	0.13075219
159	0x3e3157ab	0.17318599
160	0x3debcad9	0.115132995
161	0x3d5ace15	0.05341919
162	0xbc5c2f73	-0.013439047
163	0x3e828a3c	0.2549609
164	0x3e1ac005	0.15112312
165	0x3eb824e7	0.35965654
166	0x3de91ae5	0.11382083
167	0x3e762bbb	0.2404012
168	0x3d2c8641	0.042120222
169	0xbbcf1af4	-0.0063203517
170	0xbc6b1a72	-0.014349567
171	0x3d48465f	0.048895236
172	0x3ceb350b	0.028711816
173	0x3e909807	0.28240988
174	0x3e3f4cb6	0.18681607
175	0x3dd0e499	0.101998515
176	0x3e2a73fe	0.1664581
177	0x3e2836c9	0.16427149
178	0x3e885003	0.26623544
179	0x3f136347	0.5757336
180	0x3eadbf6b	0.33935103
181	0x3d283540	0.04106641
182	0x3df51d40	0.119684696
183	0xbcdca1d9	-0.026932644
184	0x3ea1b6a8	0.31584668
185	0x3e673944	0.22580439
186	0x3cdd8749	0.027042048
187	0xbdf0507a	-0.117341
188	0x3e7c3d54	0.2463277
189	0x3d0a0854	0.03369935
190	0x3e901036	0.28137368
191	0x3d8ad06d	0.06778035
192	0xbe9d5115	-0.30725923
193	0xbe5acf27	-0.21368085
194	0xbc4bee20	-0.01244691
195	0x3eb18392	0.34670693
196	0x3e21a3ac	0.15785092
197	0x3e00d884	0.12582594
198	0xbdc54db1	-0.09633959
199	0x3ddd45ce	0.1080433
200	0x3e59189c	0.21200794
201	0x3e875b01	0.26436618
202	0x3ec4165f	0.38298318
203	0xbe7322b5	-0.23743708
204	0x3e261b88	0.1622144
205	0x3eb109cf	0.34577796
206	0x3f0645ab	0.52450055
207	0x3e316d24	0.1732679
208	0x3f116e26	0.568087
209	0x3e33f547	0.17574035
210	0x3e8b84d6	0.27249783
211	0xbe1c087f	-0.15237616
212	0xbeb787f5	-0.35845914
213	0x3d097461	0.033558253
214	0x3b90f25a	0.004423422
215	0x3e025359	0.12727107
216	0xbe049b7c	-0.12949938
217	0x3f36ae6d	0.713599
218	0xbd2c146b	-0.04201166
219	0x3e1fa09e	0.15588614
220	0xbe63ddc3	-0.22252564
221	0xbd9db418	-0.07700366
222	0x3e695515	0.22786362
223	0xbdabce20	-0.083889246
224	0x3eb59b37	0.35469982
225	0x3e8a40dd	0.27002612
226	0xbdc6140d	-0.09671793
227	0x3e7f17fc	0.24911493
228	0x3cba30e5	0.022728393
229	0xbd626a0c	-0.055276915
230	0x3e607f6b	0.21923606
231	0x3d7dec95	0.0619932
232	0x3e8f9e13	0.2805029
233	0x3ec9ec94	0.39438307
234	0x3f18f8e9	0.59754807
235	0xbde08582	-0.109629646
236	0x3e8c7193	0.274304
237	0x3ea40e9d	0.320424
238	0x3e1bc285	0.15210922
239	0xbd9070f3	-0.07052793
240	0xbe013f30	-0.1262176
241	0x3e47319b	0.19452517
242	0x3e361be7	0.17784081
243	0xbc726941	-0.014795602
244	0x3e890e4e	0.26768726
245	0x3e562ce9	0.2091557
246	0x3e836276	0.25661057
247	0xbde07a9b	-0.10960885
248	0xbe993a1b	-0.29927143
249	0x3e00f316	0.1259273
250	0x3e380c03	0.17973332
251	0x3e47cef1	0.19512536
252	0x3e1ccfa1	0.15313579
253	0x3edf44d0	0.43607187
254	0xbd4d42fc	-0.05011271
255	0x3eb60341	0.35549358

fc_advantage.0.bias f4 [20]
0	0xbd64f063	-0.055893313
1	0x3e2b5455	0.16731389
2	0xbdd6ced6	-0.104886696
3	0xbdeae982	-0.11470319
4	0x3d8730bc	0.06601092
5	0x3db73c15	0.089470066
6	0x3d956251	0.07294143
7	0x3dfa8949	0.12233216
8	0x3dc6f40b	0.09714516
9	0x3e15c57d	0.14626117
10	0x3e038766	0.12844619
11	0x3e263813	0.16232328
12	0x3e26b934	0.16281587
13	0x3bc26307	0.005932215
14	0xbd4a4f2a	-0.049391903
15	0xbdaace4d	-0.0834013
16	0xbdd3e2c1	-0.10345984
17	0x3e011a54	0.126077
18	0x3e150581	0.14552881
19	0x3e158c59	0.1460432
