save/client-9/eval.pth (torch, 42501 bytes, 27 tensors)

layer1_task.0.weight f4 [32, 3]
000000 23 09 35 be dd 11 36 3c 61 b9 b1 3c ab 31 a2 3e
       -0.17679267 0.011112657 0.02169484 0.3167852
000010 4d 76 aa bd c4 d7 43 3e a6 eb 14 3e 08 20 b6 3e
       -0.08323345 0.19125277 0.14543018 0.35571313
000020 3a 28 29 bd 45 d3 b0 bd c2 f9 ae be 3e 4a ae bd
       -0.04129813 -0.086340465 -0.34174925 -0.08510254
000030 ef e3 05 bf ba 0e 3c 3e 64 ac 29 be ef ae a4 3d
       -0.52300924 0.18364993 -0.16569668 0.080411784
000040 23 73 28 3e d4 2e 7c 3e ac f6 ef bd 73 58 c4 3d
       0.16450171 0.24627239 -0.11716971 0.09587183
000050 33 c1 3a bd 15 9c 88 bd b1 42 dd 3d d4 af 64 be
       -0.045594405 -0.06670395 0.10803736 -0.22332698
000060 04 0d 57 3e a8 4a 98 3e 7e 07 62 be 73 4f 4d bd
       0.21001059 0.29744458 -0.2207317 -0.050124597
000070 2d d7 1b 3e 0b 51 a2 3d 60 07 34 bc 34 c3 5c 3d
       0.15218802 0.07925614 -0.010988086 0.053897098
000080 44 d8 a2 3d 4c af b3 3e 3b f6 fc be 5e b0 1a 3f
       0.07951406 0.35094678 -0.4940661 0.60425365
000090 eb bf 98 3d ed 6d 3f bd f4 5c 9b 3d 9a 4e b8 be
       0.074584804 -0.046735693 0.07586089 -0.35997468
0000a0 ee 39 83 3e f5 3a 46 bd d2 d9 1d bc 63 7f aa 3e
       0.25630134 -0.04839607 -0.009634452 0.33300313
0000b0 f8 d0 ba be 42 94 92 3d 97 15 69 be 48 87 f1 bd
       -0.36487556 0.07157184 -0.22762142 -0.11793381
0000c0 ab 72 29 bf 60 b5 ed be 95 c6 ad be cc 65 72 3e
       -0.66190594 -0.4642744 -0.3394057 0.23671645
0000d0 41 95 06 be 1b 31 d5 3d ea 87 a0 3e 34 41 45 3e
       -0.13142873 0.10409757 0.31353694 0.19263154
0000e0 3c a2 43 3e ec 56 f1 3d a7 cd e7 bd 7f 8c 1c 3e
       0.19104856 0.11784157 -0.11318522 0.1528797
0000f0 86 58 ff be e5 ea ac be 7a 35 c0 be ec 53 e3 bd
       -0.49872226 -0.3377296 -0.375408 -0.11099991
000100 cd d5 22 3c 2e 1b f2 3c 18 3f 59 3e 82 d0 c7 be
       0.009938669 0.029553976 0.21215475 -0.39026266
000110 d5 43 24 be b6 b4 22 3e db 21 1e 3d 36 31 13 be
       -0.16041501 0.15889248 0.038606506 -0.14374241
000120 aa c8 f6 3b 2a 1e 41 3e c8 73 8f 3e d0 05 c8 ba
       0.0075312452 0.18859163 0.28018022 -0.0015260521
000130 37 b6 52 3d c6 81 11 3e 0a ac 1a 3e d1 6c 1f 3e
       0.051443305 0.14209661 0.1510469 0.15568854
000140 4c 32 49 3f 82 32 2c be b3 b8 43 be 38 99 98 bd
       0.7859237 -0.16816142 -0.19113426 -0.07451099
000150 ae c7 b0 3e d5 33 b0 bd 05 bc 0d bd 1c b1 26 3e
       0.34527344 -0.08603636 -0.034603138 0.162785
000160 17 ed 7f be ec 64 0f be 50 d8 25 3e 69 96 05 be
       -0.24992786 -0.14003342 0.16195798 -0.13045658
000170 13 23 e6 bc 3a a2 af 3d dc 6c 9b be 55 5e 0d bd
       -0.028092897 0.08575864 -0.3035649 -0.03451379

layer1_task.0.bias f4 [32]
000000 e8 bd 09 bc dc 24 20 bc 8f 8e c7 3d 50 4b f4 3b
       -0.008407094 -0.009774413 0.09743988 0.007455267
000010 62 2c 84 3c fe 15 00 3e a9 14 a8 bc 0d 8e 20 bc
       0.016134445 0.1250839 -0.020517664 -0.009799493
000020 1b 1f cc bc f4 a3 aa 3b 52 c5 73 3d 27 1a b8 3d
       -0.024917176 0.005207533 0.05951435 0.08989363
000030 01 34 a6 bc 9b 6e 1d 3d aa 55 b6 3d dc eb d6 bc
       -0.02028847 0.03843556 0.08903058 -0.026235513
000040 ba 6b 89 bc 14 ba 9a 3c 42 38 66 bd 38 ad 43 3d
       -0.016775 0.018887557 -0.056205995 0.047772616
000050 5f 81 88 bc 5d d0 0b 3b e4 a5 2f 3d 02 6d f7 3d
       -0.016663251 0.002133391 0.042882815 0.120813385
000060 90 d1 fc 3c 08 4b a1 3d f1 63 b6 3c 3c 96 35 3c
       0.030861646 0.07875639 0.022264453 0.011083182
000070 20 c7 f7 bb 0b 81 88 bd 68 e5 ef 3d 02 16 5b bd
       -0.0075615793 -0.06665238 0.11713678 -0.053487785

layer1_task.2.weight f4 [32]
000000 ef 2c 70 3f e3 fe 7e 3f 0d 0a 71 3f 11 4d 85 3f
       0.93818563 0.99607676 0.9415596 1.0414144
000010 12 1c 85 3f 3f b2 7b 3f a4 29 6a 3f c7 b9 80 3f
       1.0399191 0.98318857 0.9146979 1.0056695
000020 3d c5 73 3f ce 8d 85 3f 8e cd 7b 3f 60 20 6f 3f
       0.95222837 1.04339 0.98360527 0.93408775
000030 db 78 7f 3f 4f a8 7f 3f c7 61 6c 3f 49 78 7e 3f
       0.99793786 0.99866194 0.92336696 0.9940229
000040 5b 16 84 3f 37 b2 75 3f 19 3a 79 3f ac 91 70 3f
       1.0319322 0.9597506 0.97354275 0.9397228
000050 cf 90 8b 3f a4 37 84 3f 32 98 77 3f 95 e0 70 3f
       1.0903567 1.032948 0.96716607 0.94092685
000060 cc 3f 80 3f b0 95 74 3f de 87 6a 3f 54 71 87 3f
       1.0019469 0.95540905 0.91613567 1.058146
000070 d4 0c 75 3f 05 8a 84 3f 07 61 78 3f e0 d0 7c 3f
       0.957227 1.035462 0.9702305 0.9875622

layer1_task.2.bias f4 [32]
000000 ca 8f 96 bd 4b 19 b4 bc b9 8c b6 3c ab 43 8b 3d
       -0.07351644 -0.021984717 0.022283899 0.06800016
000010 7b fa 95 3d 01 31 b6 3d 00 b4 c5 bd 83 c1 ed 3c
       0.07323166 0.088960655 -0.09653473 0.029022938
000020 23 42 c7 bd f6 1e 83 3d 4e aa 86 3d d4 46 47 bc
       -0.097294115 0.0640239 0.06575452 -0.012162883
000030 9f 63 af bc b1 40 4a 3d b6 28 0e 3d ee 08 2f 3c
       -0.021409808 0.0493781 0.034706794 0.010683281
000040 f4 4c 5f 3d 17 28 5d bc 86 ee 9a bd 81 a0 ba bc
       0.054516748 -0.013498328 -0.07565026 -0.022781612
000050 26 0b f1 3d bd 89 54 3d 58 26 8e 3b ab 16 39 3d
       0.117697045 0.05188917 0.004338067 0.045187633
000060 62 7c 73 3c a3 4b 36 3d ad b5 67 bd f4 3b c7 3d
       0.014861198 0.044505727 -0.056569744 0.09728232
000070 22 13 34 bd b2 6e a6 bc f3 9c 97 3d 3e aa 8d bd
       -0.04396356 -0.020316456 0.074029826 -0.06917237

layer1_task.2.running_mean f4 [32]
000000 5e 90 10 c6 da d8 78 46 27 bc dd 45 07 a4 97 c5
       -9252.092 15926.213 7095.519 -4852.5034
000010 9f 1a d1 c6 f8 b0 97 45 ef 00 b0 c5 c6 a9 6c c5
       -26765.31 4854.121 -5632.1167 -3786.6108
000020 4c 00 1f 46 bc 94 25 c5 63 d9 17 c2 ed db 8d 46
       10176.074 -2649.296 -37.96229 18157.963
000030 da 01 82 45 41 65 96 c6 20 cc ab c3 ba 6f 7e 45
       4160.2314 -19250.627 -343.59473 4070.983
000040 81 6e 08 c7 c9 ce 45 46 d6 c8 6c 46 2d e7 b0 45
       -34926.504 12659.696 15154.209 5660.897
000050 d6 2b ce c6 f7 f7 a6 c5 3c 0f 28 46 d9 a9 04 46
       -26389.918 -5342.9956 10755.809 8490.462
000060 9c 02 65 44 4e c5 83 43 be 73 ec 45 cc 4e 07 c6
       916.0408 263.54144 7566.468 -8659.699
000070 8d bc 8c 46 9c cc f2 45 f8 4c 07 46 2f bd 84 45
       18014.275 7769.576 8659.242 4247.648

layer1_task.2.running_var f4 [32]
000000 34 3f dc 4e cb 1b 72 4f cf 3a 48 4e fc 5a ef 4d
       1.8475648e+09 4.0619077e+09 8.398243e+08 5.0196467e+08
000010 43 31 68 50 09 60 e7 4d 38 da 2c 4e 50 ea 9c 4d
       1.558217e+10 4.8522883e+08 7.249956e+08 3.290752e+08
000020 7e 6e d3 4e 03 c0 21 4d 05 3d 1f 48 34 f6 dc 4f
       1.7736169e+09 1.6960722e+08 163060.08 7.4142454e+09
000030 bf de b6 4d 3f 16 ea 4f 7d a6 6a 4a c0 d9 a2 4d
       3.835064e+08 7.854653e+09 3.8445112e+06 3.4152243e+08
000040 c2 f8 bd 50 87 da 4b 4f fb 16 3c 4e 0c 41 26 4e
       2.5497571e+10 3.4200963e+09 7.8890566e+08 6.973202e+08
000050 e5 d8 5d 50 e2 09 1f 4e f1 66 17 4f 06 07 bc 4e
       1.4887917e+10 6.6705626e+08 2.540106e+09 1.5772884e+09
000060 b9 97 85 4b 14 a1 94 49 47 f8 90 4e 17 81 ba 4e
       1.7510258e+07 1.2175705e+06 1.2160951e+09 1.5645111e+09
000070 60 7a c9 4f 31 63 69 4e 88 f1 c3 4e 49 ff 93 4d
       6.760481e+09 9.78898e+08 1.643693e+09 3.1037264e+08

layer1_1vm.0.weight f4 [64, 40]
000000 84 c7 05 be 8f 51 16 be f7 b2 88 3d ae 73 91 bd
       -0.1306439 -0.1467955 0.0667476 -0.07102142
000010 b7 e3 c6 3a 01 0b 21 be 31 d3 28 be a5 10 77 3d
       0.0015174065 -0.15726854 -0.16486813 0.060318608
000020 f5 0d ea bd 4d 58 09 3e bb d9 9a bc 6c d8 45 3e
       -0.11428443 0.1341259 -0.01890265 0.1932084
000030 04 2d 9d 3d dd bd a4 bc e3 6b 90 3d 39 bf 0f be
       0.07674602 -0.020110065 0.07051828 -0.1403779
000040 3f 8a 0c 3e 0e ff 76 3e 42 49 67 3e c1 a9 b0 bd
       0.13724612 0.24120733 0.2258654 -0.08626128
000050 e1 b7 99 bc b8 ba 9a bd c3 88 98 3d 6a 29 19 3e
       -0.018764438 -0.07555145 0.0744796 0.14957204
000060 4c 2c e2 bd e6 d1 9d 3b a6 dd 07 3e 58 bc 7c be
       -0.11043605 0.0048162816 0.13268146 -0.24681222
000070 96 d2 17 be e9 3d 8c bc 35 ad 88 bd 69 f8 84 bd
       -0.14826426 -0.017119365 -0.066736616 -0.06492693
000080 95 57 ff bd 94 dc 99 be af 96 de 3c 83 56 b9 3d
       -0.12467877 -0.300511 0.02717146 0.09049704
000090 e6 dc 3f 3d 3b e8 9f be 7b df 43 3d 4e 03 47 be
       0.046841525 -0.31231865 0.04782055 -0.19434854
0000a0 26 80 7f 3e 8a 32 06 3e 9b 4c 08 be 42 28 60 3d
       0.24951228 0.13105217 -0.13310473 0.054725893
0000b0 f3 a4 3e 3e 18 6d 7f bd 9e 20 4f be 2e 6c 83 be
       0.1861761 -0.0623599 -0.20227286 -0.25668472
0000c0 cc 19 48 bd a0 e3 db 3d 87 2d 5b bd 15 fd 1f 3e
       -0.048852727 0.107367754 -0.053510215 0.15623887
0000d0 7f 2b 8a 3c 70 74 74 be e1 7e aa bc 13 59 98 3d
       0.016866444 -0.23872542 -0.020812454 0.074388646
0000e0 fe eb 5e be a4 7d 07 be be d6 5c 3d 47 9f af 3e
       -0.21769711 -0.13231522 0.05391573 0.34301206
0000f0 92 1b 0e 3d fa cb a3 bd 83 d4 5b bc 55 4d c9 3d
       0.03469426 -0.0799789 -0.013417366 0.09829203
000100 72 b6 34 be b6 c5 7a bc b4 5b 1e 3d a8 59 9d 3d
       -0.17647722 -0.015305927 0.038661674 0.07683116
000110 74 2b 6a bd 49 32 37 bd 2d d8 88 3d cb ab 3e bd
       -0.057170346 -0.04472569 0.06681857 -0.046550553
000120 a9 b3 10 bd 54 41 b3 3d de 1d 5f bc 90 a4 8b b9
       -0.035327587 0.08752695 -0.013617961 -0.00026634755
000130 a4 fb 9f 3d 8d 7b e1 bd 7d 49 37 be 3a 9a bf 3d
       0.078116685 -0.110098936 -0.17899127 0.09355588
000140 3c 72 56 bd d4 72 34 be 38 f0 dc bd a2 c8 a5 bd
       -0.052355036 -0.17621928 -0.107880056 -0.08094908
000150 74 55 7f 3c 10 d6 bb 3c a0 87 ac be db 9f 5d 3d
       0.015584338 0.022929221 -0.33697224 0.05410753
000160 f0 48 95 3d 24 ec 78 3e 25 40 ef 3d 17 5d 82 3e
       0.07289302 0.2430883 0.116821565 0.25461647
000170 83 fd f0 3d 8a d2 30 be 1d 4d de bd d2 13 84 3b
       0.117671035 -0.17267814 -0.10854552 0.004030683
000180 89 76 71 bd c4 76 88 bd 53 8c d3 bd 33 26 12 be
       -0.058950935 -0.06663278 -0.10329499 -0.14272384
000190 0d 11 52 be c5 1c 11 3e 62 00 51 bd 6e 4f 4c bd
       -0.20514317 0.14171131 -0.051025756 -0.049880438
0001a0 ee 1e 46 be 2d 1e 21 be c0 ea 89 3d ef 4a ab 3d
       -0.19347736 -0.15734167 0.06734228 0.08363902
0001b0 ca 0b b6 bd c9 ff 0b 3e b2 65 fc bd 43 61 48 bb
       -0.08888967 0.13671793 -0.12324084 -0.003057555
0001c0 12 ba 96 bd f2 b0 53 be ee df da 3d 87 2f c8 3d
       -0.07359709 -0.20672968 0.106872424 0.0977469
0001d0 cb 90 fb 3d 41 b6 0f 3e fe 37 01 be c5 8c 42 bd
       0.122834764 0.14034368 -0.12619016 -0.04749753
0001e0 e9 44 42 3e d6 76 8c 3c ca 9c 4f 3d c6 fc 16 be
       0.189716 0.01714651 0.050686635 -0.14744863
0001f0 b9 d7 a5 3d 32 ec 2b be 12 86 f8 3d e8 53 e1 bd
       0.080977865 -0.1678932 0.12134947 -0.11002332
000200 c5 ea 2e be 9b 29 60 3e 6b 14 a4 bd 4c ef 18 3e
       -0.17081745 0.21890871 -0.08011707 0.14935035
000210 d9 1f e9 3c 18 e2 e7 bc 03 01 8f 3c c8 0d b0 3d
       0.028457569 -0.028306052 0.017456537 0.085963786
000220 f5 ed 26 3d 0c 6a 1c be 43 96 fe bd 3c f9 7a 3c
       0.040754277 -0.15274829 -0.12431004 0.015318211
000230 41 89 a2 3d c0 ba 66 bd bf 8b 13 bd c2 ed f9 3d
       0.07936335 -0.056330442 -0.036021944 0.12203552
000240 71 0d 62 3e 55 5e 58 3e a9 8c 9d bd 12 4b aa 3d
       0.2207544 0.21129735 -0.076928444 0.083151
000250 96 65 4a 3e 2b 6d f8 bd 70 2a 04 3e 1f 66 ce bd
       0.19765314 -0.12130197 0.12906814 -0.10078072
000260 dd 35 15 be 88 fd a0 bd c7 8f 8c bc b1 9a 1d 3c
       -0.14571328 -0.07860857 -0.017158402 0.009619401
000270 55 3e 47 3e c6 4b b3 3d cc c0 f6 3d 3e 32 7a 3e
       0.19457372 0.08754687 0.12048492 0.24433228
000280 6b 39 aa 3d 39 fd 59 3e 15 68 c0 3d 05 55 8e 3d
       0.08311733 0.21288003 0.09394852 0.0694981
000290 f7 5d 7a be d2 1b ba be b2 43 2d 3e 22 be 43 3e
       -0.24449907 -0.3634935 0.16920355 0.19115499
0002a0 f5 3d d6 3d b1 3c 8b 3e 09 67 87 3d 94 00 95 bd
       0.10461036 0.2719474 0.06611449 -0.07275501
0002b0 a1 47 f7 3b 8a 41 57 3e 52 ab ed bd 1e 7c b3 bb
       0.0075463806 0.21021095 -0.116049424 -0.0054774424
0002c0 70 3c fa bd 9d 9d cf 3c e2 1b 8f bd bf d3 3d bd
       -0.12218559 0.02534371 -0.0698774 -0.046344515
0002d0 d3 11 21 3e 70 ab 1f be a9 ab 17 3e e9 b5 61 3e
       0.15729456 -0.15592742 0.14811577 0.2204205
0002e0 dd d2 39 be 31 45 23 be 04 49 3a bd 78 4b 30 bd
       -0.18146844 -0.15944363 -0.04547979 -0.043040723
0002f0 93 ad bc bd 72 9e 20 3e 92 cc 02 3e b4 88 01 3e
       -0.09212794 0.15685442 0.1277335 0.12649804
000300 d2 74 00 3d 6c 94 35 be 27 38 d9 3d e0 68 f1 3d
       0.03136141 -0.177324 0.10606413 0.117875814
000310 49 5d 10 be 74 d9 ae 3c 16 f9 d8 bd 4c 43 07 bd
       -0.14098085 0.021343924 -0.10594384 -0.033023164
000320 e1 54 17 3e e9 93 20 bd 89 55 a0 be 5a 37 86 be
       0.14778472 -0.039203558 -0.31315258 -0.26214105
000330 4b b7 4b be fe 22 bb be c6 0f 85 3e af ff c7 3d
       -0.1989414 -0.36550134 0.25988597 0.09765565
000340 6d 40 65 be 44 db 66 be 43 d3 08 bd 4c d9 82 be
       -0.22387858 -0.2254458 -0.0334046 -0.2555641
000350 64 96 32 bc 11 8e 89 be 71 85 86 3d 5b e6 2e be
       -0.010900114 -0.268662 0.06568421 -0.17080061
000360 c9 cb 1c be 65 e4 9a bd 42 28 46 3d 64 82 00 be
       -0.15312113 -0.07563094 0.048378237 -0.1254974
000370 3c ff f1 3d 37 73 c7 3d 3d 8f 30 3d aa 26 08 be
       0.1181626 0.09738772 0.043105353 -0.13295999
000380 c1 11 50 bd 4e 3d b4 be cd 9e 9e 3e 22 96 ca bd
       -0.05079818 -0.35203022 0.3098053 -0.09891917
000390 14 13 c4 3d 1c b7 4c 3d 05 27 f4 3c 17 24 3f be
       0.09573951 0.049979314 0.029803762 -0.18666111
0003a0 01 48 97 3d 58 2b 1e be 66 1c b1 bd 7a b2 15 3d
       0.073867805 -0.15446222 -0.08647995 0.03654716
0003b0 96 e2 81 bc 7f 95 a2 bd 81 4e 80 3d c9 d3 ba bc
       -0.015855115 -0.0793867 0.062649734 -0.022806065
0003c0 ee a6 c7 bc 37 0f 43 3e 5e aa 9a 3d fe 39 80 3d
       -0.02437159 0.19048773 0.07552026 0.06261061
0003d0 6c 9a 85 bd 18 23 96 be 6d 93 06 be 05 24 04 3d
       -0.06523594 -0.2932365 -0.13142176 0.032260913
0003e0 b1 0d 79 be dc 73 b5 3a cc 61 b7 bd 7a 96 05 3d
       -0.24321629 0.0013843733 -0.089542 0.03261421
0003f0 ba b6 4b 3b 9a d0 2e be e4 d8 20 be 83 d7 2e be
       0.0031084255 -0.17071763 -0.15707737 -0.17074399

layer1_1vm.0.bias f4 [64]
000000 43 50 17 3c 71 3b 3c bc 33 1c f6 3a e3 07 02 3d
       0.0092354445 -0.011488781 0.0018776715 0.031745803
000010 bd b7 3c 3b 56 a4 30 bd b7 2c b3 bc 3b 45 cb 3b
       0.002879604 -0.043125473 -0.021871908 0.0062033213
000020 e2 78 51 3c 29 96 00 bc 74 89 58 bc 00 37 04 3d
       0.012785168 -0.007848301 -0.013216365 0.032279015
000030 03 8e 1c 3c 82 7f b3 bc cc 87 d2 3a f4 74 d2 bc
       0.009555343 -0.021911386 0.0016062199 -0.025690533
000040 6d a9 dc bc d3 37 42 3c 00 07 c3 bc fc 70 0e 3d
       -0.026936257 0.01185413 -0.023807049 0.03477572
000050 4b 2f c1 3b bc e4 bc bc c0 97 91 bc 8c 84 91 bc
       0.0058955303 -0.023058288 -0.017772555 -0.017763399
000060 66 5b ff bc 9c 5e 50 bc 7b 90 9b 3c f9 f6 8c 3b
       -0.031171512 -0.012717869 0.018989792 0.0043019024
000070 fd d0 d8 3c b3 6a d4 3c 56 0c b8 ba fb d3 5c bb
       0.02646684 0.025929784 -0.0014041762 -0.0033695686
000080 d3 f0 5d 3c c2 e6 49 3b fe 27 82 bc ee 56 ea bb
       0.0135461865 0.0030807708 -0.01588821 -0.007151476
000090 d4 c0 ee bb 02 8f 9b 3a 7e c0 0e 3a 44 b1 34 3d
       -0.0072861705 0.0011868181 0.00054455537 0.044114366
0000a0 8b df ed bb c6 8b a9 3c 45 c9 45 bb 3e 7e e3 3c
       -0.0072593144 0.020696532 -0.003017978 0.027770158
0000b0 67 c0 0f bd 82 7e b4 bc 15 fc 8a bc 2a e5 68 3b
       -0.0350956 -0.02203298 -0.016965905 0.0035536983
0000c0 38 04 a0 39 bf f7 9a 3b d0 0c a2 b9 8a ab 16 bc
       0.0003052072 0.0047292407 -0.00030908594 -0.009196172
0000d0 17 a8 ac bc 71 fa ac 3c f0 59 66 bc 76 72 91 ba
       -0.021076245 0.021115514 -0.014059529 -0.0011096734
0000e0 77 44 16 3c 29 ab 56 bc ae 8c d9 3b 31 30 2a bd
       0.009171597 -0.013102331 0.006639085 -0.041549865
0000f0 80 1e 01 b9 51 5e 87 3c 5f d3 2e 3c cc bd 8f 3c
       -0.00012313761 0.016524466 0.010670512 0.017546557

layer1_1vm.2.weight f4 [64]
000000 53 68 81 3f 0b 40 7e 3f 01 a2 7f 3f 07 98 82 3f
       1.0109962 0.9931647 0.99856573 1.0202645
000010 65 af 80 3f dd 7b 85 3f 77 9b 82 3f 1e 42 81 3f
       1.0053526 1.0428425 1.0203694 1.0098302
000020 17 93 7b 3f 8b 3a 81 3f 57 e7 84 3f ac 5d 84 3f
       0.98271316 1.0095991 1.0383099 1.0341086
000030 4a 9d 80 3f 85 9e 84 3f 29 7d 79 3f e3 dc 80 3f
       1.0048001 1.0360876 0.97456604 1.0067409
000040 64 e8 83 3f 7a 8f 7f 3f c1 50 81 3f 77 6c 81 3f
       1.0305295 0.998283 1.0102769 1.0111226
000050 dc d3 6b 3f 18 ad 81 3f 4f 84 83 3f b9 4a 7e 3f
       0.92120147 1.0130949 1.0274752 0.9933277
000060 57 ab 81 3f 89 c0 82 3f 8e b4 82 3f 42 ea 7d 3f
       1.0130414 1.0215007 1.0211351 0.99185574
000070 33 5c 82 3f 47 9a 81 3f 4a e7 86 3f 23 79 7e 3f
       1.0184387 1.0125207 1.0539334 0.9940359
000080 0a f7 7a 3f 98 99 7e 3f eb b1 85 3f 94 66 82 3f
       0.980332 0.99453115 1.0444921 1.0187554
000090 9e e9 84 3f ec 69 76 3f 24 e4 7f 3f 35 ad 80 3f
       1.0383794 0.96255374 0.9995749 1.0052859
0000a0 54 59 83 3f ad e6 81 3f 2c 29 82 3f cc 83 7a 3f
       1.0261636 1.0148522 1.0168815 0.97857356
0000b0 02 d4 81 3f 26 06 7f 3f 1a cd 81 3f 2f dc 75 3f
       1.0142825 0.99618757 1.0140717 0.960391
0000c0 3e d7 85 3f 4d 79 77 3f 33 c9 7f 3f a6 ff 80 3f
       1.0456312 0.96669465 0.9991638 1.0078018
0000d0 86 aa 79 3f 1c 18 7f 3f 6b 7d 7b 3f 01 29 82 3f
       0.97525823 0.99646163 0.9823825 1.0168763
0000e0 9d 10 7e 3f 01 92 81 3f 6c e5 80 3f 0b 73 81 3f
       0.992441 1.0122682 1.0070014 1.0113233
0000f0 1b f0 80 3f e4 36 83 3f eb 33 7a 3f d1 c7 7b 3f
       1.0073274 1.0251126 0.9773547 0.9835177

layer1_1vm.2.bias f4 [64]
000000 77 35 83 3c 74 4a 28 bb ac 6e be 3a e7 63 c7 3c
       0.016016705 -0.0025679143 0.0014528832 0.02433963
000010 95 b3 0b 3c 0c 11 eb 3c 07 0f 92 3c 2a 6e 80 3b
       0.008526702 0.028694652 0.017829431 0.0039193826
000020 dc ad a5 bc 45 05 2d 3c ff fc 12 3d 71 10 01 3d
       -0.020224504 0.010560338 0.035885807 0.03150982
000030 63 a4 1c 3c da a2 1a 3d ee 3f f7 bc 09 e7 93 3b
       0.009560677 0.037752964 -0.030181851 0.0045136255
000040 07 e4 f5 3c 92 97 08 bb e9 72 1d 3c 6a fd 82 3c
       0.030015958 -0.0020842296 0.009609916 0.015989978
000050 63 ea 9f bd c6 dc 50 3c fc 5e c0 3c ca f3 b2 bb
       -0.078083776 0.012747949 0.023482792 -0.005461191
000060 b2 3c 0a 3c be b7 c1 3c 2b 87 b1 3c 57 a6 e3 bb
       0.008437322 0.023647185 0.021670898 -0.0069473195
000070 42 c9 a4 3c 9a e8 57 3c 8d c0 65 3d b9 66 23 bc
       0.020115498 0.013178015 0.056091834 -0.009973221
000080 7b d7 a6 bc d7 38 0a bc ec 22 37 3d fe 8c 9b 3c
       -0.020366421 -0.008436403 0.04471104 0.018988129
000090 7a ed 1e 3d 2f 80 09 bd b4 9a f3 3a 7d d4 54 3c
       0.038800694 -0.03356951 0.0018585534 0.012990114
0000a0 bc b8 db 3c eb 9d bf 3c de aa 8b 3c 81 3d a4 bc
       0.026821487 0.02339073 0.01704925 -0.020048859
0000b0 5c d4 17 3c ac 68 b2 39 e1 a6 77 3c ed a6 1f bd
       0.009266939 0.00034028792 0.015115471 -0.038977552
0000c0 13 b6 14 3d 32 6f eb bc 1c fa 15 3a 2c 49 31 3c
       0.036306452 -0.028739545 0.0005721168 0.010820668
0000d0 7c fe 0b bd 07 ae 12 3c 7c eb 82 bc 41 fb 99 3c
       -0.034178242 0.008952624 -0.015981428 0.018796565
0000e0 38 d6 7a bb 17 62 68 3c 40 de f0 3b 80 ed a7 39
       -0.0038274657 0.014183543 0.007350713 0.00032029673
0000f0 1e da 37 3c d6 b6 ee 3c c0 1e a8 bc e4 59 67 bc
       0.011221437 0.029139917 -0.020522475 -0.014120553

layer1_1vm.2.running_mean f4 [64]
000000 d9 4b 8f 44 20 6b a5 c5 54 5a bd c5 29 1a 2a 46
       1146.3702 -5293.3906 -6059.291 10886.54
000010 ae a0 32 c5 c9 f2 48 45 7f 20 79 c5 b3 25 e6 45
       -2858.0425 3215.174 -3986.031 7364.7124
000020 22 80 b2 45 a8 16 eb c5 12 24 88 c6 7e 64 8b 46
       5712.0166 -7522.832 -17426.035 17842.246
000030 93 21 14 c5 67 04 74 c5 10 2c 8c c5 7e 2e 88 45
       -2370.0984 -3904.2751 -4485.508 4357.8115
000040 2c e9 ce c5 e5 47 3b c6 ba 9c 7b c5 97 54 09 46
       -6621.1465 -11985.974 -4025.7954 8789.147
000050 ca 4e b4 c6 b7 65 c2 c5 9a 81 8d 43 38 03 55 c5
       -23079.395 -6220.7144 283.0125 -3408.2012
000060 41 65 a0 45 ed 2a 53 c5 c5 ef de c4 4c 2f da c5
       5132.6567 -3378.6829 -1783.4928 -6981.912
000070 76 92 44 46 d5 24 16 46 d9 85 0d c6 50 bf a9 45
       12580.615 9609.208 -9057.462 5431.914
000080 de b7 a0 45 5d d0 59 c5 43 a2 3a 44 bd 74 ad c5
       5142.9834 -3485.0227 746.53534 -5550.5923
000090 8a bf 31 c6 48 eb cc c6 48 a7 27 c5 1e 7c 88 46
       -11375.885 -26229.64 -2682.455 17470.059
0000a0 28 0d 9c c6 43 86 bc 45 88 3e 22 c6 0e 55 75 45
       -19974.578 6032.7827 -10383.633 3925.316
0000b0 40 d4 45 45 7c f0 d6 c5 c7 3e d0 c5 ee 26 03 c6
       3165.2656 -6878.0605 -6663.847 -8393.732
0000c0 d0 7a 86 44 71 f1 5b c5 25 f5 ed c5 12 18 02 c6
       1075.8379 -3519.09 -7614.643 -8326.018
0000d0 44 5a 30 c4 eb 60 cd 45 62 34 a9 c5 44 f7 7e c5
       -705.4104 6572.1147 -5414.548 -4079.454
0000e0 e7 c4 cd 46 b7 0f c8 45 35 2b f3 45 03 19 d6 44
       26338.451 6401.9644 7781.401 1712.7816
0000f0 5b 42 1e 46 31 1f 47 46 9b e0 aa c5 2b 57 8f c5
       10128.589 12743.798 -5468.0757 -4586.896

layer1_1vm.2.running_var f4 [64]
000000 c8 da 0c 49 b8 df ee 4a 32 86 17 4b fa 74 e2 4b
       576940.5 7.82742e+06 9.93029e+06 2.9682164e+07
000010 4d 66 18 4a be b2 41 4a b0 79 96 4a bb 7a 58 4b
       2.4969152e+06 3.1735515e+06 4.930776e+06 1.4187195e+07
000020 9e 14 ec 4a 6a b5 75 4b a8 c3 a8 4c 7c ef 81 4c
       7.735887e+06 1.6102762e+07 8.848109e+07 6.812362e+07
000030 17 a0 cf 49 1e d9 72 4a 2f 5e a6 4a 89 0c a7 4a
       1.7008669e+06 3.9788235e+06 5.4515435e+06 5.4738605e+06
000040 e1 ea 21 4b bd fe 05 4c 78 34 73 4a e3 df 98 4b
       1.0611425e+07 3.5126004e+07 3.98467e+06 2.0037574e+07
000050 c2 45 fc 4c 1e 66 27 4b 8b e9 8b 48 9f f8 39 4a
       1.3226344e+08 1.0970654e+07 286540.34 3.0469518e+06
000060 01 ea 02 4b 14 6e 53 4a 93 bd a1 49 8b 89 2e 4b
       8.579585e+06 3.464069e+06 1.3249784e+06 1.1438475e+07
000070 70 f5 0f 4c c6 cc b3 4b 67 d2 90 4b 9a 71 eb 4a
       3.773792e+07 2.3566732e+07 1.8982094e+07 7.715021e+06
000080 ce bf d0 4a 99 ef 4d 4a ac bb 27 49 3f 3f e9 4a
       6.840295e+06 3.3740542e+06 687034.75 7.6430395e+06
000090 b3 80 e2 4b 64 66 15 4d 85 af e7 49 b4 29 a7 4c
       2.9688166e+07 1.5665722e+08 1.8979686e+06 8.76415e+07
0000a0 97 96 a2 4c c0 c3 0e 4b d7 df cf 4b a8 81 88 4a
       8.5243064e+07 9.356224e+06 2.724651e+07 4.473044e+06
0000b0 63 8f 2d 4a 68 58 25 4b b1 92 32 4b cd 3f 7f 4b
       2.8436088e+06 1.0836072e+07 1.1702961e+07 1.6728013e+07
0000c0 35 98 80 49 8d de 56 4a 04 bd 64 4b b2 aa 92 4b
       1.0534466e+06 3.5204192e+06 1.4990596e+07 1.9223908e+07
0000d0 81 df 9a 48 44 18 2d 4b 8b 7c e2 4a c9 22 88 4a
       317180.03 1.134394e+07 7.4215095e+06 4.4609005e+06
0000e0 8b b1 13 4d 60 4f 24 4b 6f f3 6b 4b 6f 88 a0 49
       1.5486789e+08 1.0768224e+07 1.5463279e+07 1.3150859e+06
0000f0 44 5b df 4b da f6 23 4c c0 fc e6 4a 33 1a a8 4a
       2.9275784e+07 4.298225e+07 7.568992e+06 5.5083775e+06

layer1_2vm.0.weight f4 [32, 64]
000000 bc 37 09 be 7a c9 68 3d 75 2c cc bd 3d 6d 7e bc
       -0.13400167 0.056832768 -0.09969417 -0.015528974
000010 eb 9e e3 3c 79 0c 2c bd 15 47 3b 3d 16 5e c1 3c
       0.027785739 -0.042004082 0.045722086 0.023604434
000020 10 07 d8 bd 7c 15 60 be 77 e9 f3 bc fa 84 0d be
       -0.10548222 -0.21883196 -0.02977441 -0.13820258
000030 b8 11 00 bc 20 7d 2c be 3f a7 fa 3d 3a 07 bf 3a
       -0.0078167245 -0.16844606 0.12238931 0.0014574297
000040 9a d5 37 3e 97 c9 c3 bd ad ab 31 3e 9a 66 20 be
       0.17952576 -0.095599346 0.17350645 -0.1566414
000050 88 ab 33 3e 19 25 69 be 1a 8a 21 be 4b 90 b8 3d
       0.17545903 -0.22768058 -0.15775338 0.09011897
000060 51 67 8e 3e 5a 7d dc bb c6 06 35 3e e4 97 c9 3e
       0.278132 -0.0067288103 0.17678365 0.39373696
000070 6e f2 1e 3e ed 44 85 be 64 bc da 3d 6e c2 ef 3a
       0.15522167 -0.2602915 0.10680464 0.0018292197
000080 d6 2e 58 3c f9 e1 9c 3d bf 58 a1 3e e9 c8 4c 3d
       0.01319476 0.07660288 0.3151302 0.04999629
000090 49 c9 45 be 3b 17 6b 3c 45 3d 08 3e f8 99 5d 3e
       -0.19315065 0.0143488 0.13304622 0.21640766
0000a0 25 03 8f 3c 96 30 8d 3e ab 74 48 3e a6 ba 2d 3d
       0.017457554 0.2757613 0.19575755 0.04241433
0000b0 c2 0f 1a 3e b1 4d 08 3d 29 b0 f2 3d b7 89 9e bd
       0.15045074 0.033277217 0.11850006 -0.07741111
0000c0 e9 22 3e be 5b 48 17 3e 2d 49 dc bc 03 27 2e be
       -0.18568005 0.14773695 -0.026890362 -0.1700707
0000d0 7c 08 86 bd 7c 36 ce bd 65 08 84 bd c6 3d 95 3e
       -0.06544587 -0.10068986 -0.06446914 0.29148692
0000e0 da be 97 3d d2 99 3d bc ad 21 6c bc 8b 51 9a bd
       0.07409449 -0.011572318 -0.014412326 -0.07535084
0000f0 62 a6 9c bd 8c 05 2e bd 6d 48 a4 3e 21 e1 0d be
       -0.076489225 -0.04248576 0.32086506 -0.13855411
000100 f3 d6 e2 bd 3b a7 a3 bd 10 9a 46 bd c0 6e 77 be
       -0.110761546 -0.07990881 -0.04848677 -0.24163342
000110 1e 38 84 be 86 82 3d 3e 65 fb 0a be 7a ff 75 3d
       -0.25824064 0.18506822 -0.13572462 0.060058095
000120 de 04 92 bd 97 ab 94 bd 29 e2 fb be ba 28 20 3c
       -0.071298346 -0.07259291 -0.49195984 0.009775335
000130 d7 5b 59 be 82 4d 54 bd 6a 34 52 3d 3b 68 42 3e
       -0.2122644 -0.05183173 0.051319517 0.18985073
000140 ab 67 a4 be 05 76 e3 bd a8 c2 15 3d f2 a7 19 bd
       -0.32110342 -0.11106495 0.03656259 -0.03751368
000150 96 07 a5 bc 47 35 43 3e b9 17 1f be 8b e2 67 3e
       -0.020145219 0.19063292 -0.15536393 0.22645013
000160 e3 87 21 bd bf d3 77 3d 91 7b 10 bd ac 6c b5 bd
       -0.039436232 0.06050467 -0.035274092 -0.08858618
000170 5b dd 82 bd 88 5e 06 be 8f 25 f3 bd 31 3d 26 be
       -0.063898765 -0.13121998 -0.11872398 -0.1623428
000180 f3 b6 28 be 85 1b 48 3e 71 54 22 3e 98 16 c8 3c
       -0.1647604 0.19541748 0.15852524 0.024424836
000190 72 ec 39 be bb 2d 2a bd 40 2b 67 3d 5e ca 57 3e
       -0.18156603 -0.04154752 0.05643773 0.2107329
0001a0 84 e3 ce be 9e 44 c0 bd d5 d9 aa 3d 1b 16 78 bd
       -0.40407956 -0.09388088 0.083423294 -0.060567956
0001b0 fe 32 cf 3b bd dc 3f 3d ff 92 87 be 6a 7a 94 3d
       0.0063232174 0.04684137 -0.26479337 0.07249911
0001c0 e8 90 ea 3d 94 5d 7b 3c fa b8 48 be ab 5f c0 3c
       0.1145342 0.015342135 -0.19601813 0.023483118
0001d0 d3 52 fe 3c 47 cb f7 3d a3 8e 02 bd ca 2f a0 3c
       0.031045353 0.12099319 -0.03187431 0.019554038
0001e0 d4 91 81 bb 52 a3 f9 3c 55 6d 40 3e 67 1a ed 3d
       -0.0039541516 0.030473385 0.18791707 0.115773015
0001f0 49 fa 18 3e cb 61 01 bd 2e 24 66 3d 31 01 13 be
       0.14939226 -0.031587403 0.056186847 -0.14355923
000200 a0 19 f5 bd e0 13 b2 bc b9 ca ae 3d 1d 1e 89 3e
       -0.11967778 -0.021737993 0.0853476 0.26780787
000210 31 a7 c1 3d 28 a1 04 be 1d 0e e8 bc d4 1a b2 3d
       0.09455717 -0.12952101 -0.028327042 0.08696523
000220 b2 03 14 bd 0c ab 73 3e 5f 92 e6 be 5b 3c b3 3d
       -0.036136337 0.23795718 -0.45033547 0.08751746
000230 2c c0 6f bd 1a 22 68 be e0 3f 0c 3e 10 1c 11 3e
       -0.05853288 -0.22669259 0.13696241 0.14170861
000240 04 cd 63 3d 1b 48 88 3e d3 f4 c2 3d 29 d0 04 3e
       0.05561544 0.26617512 0.09519353 0.12970032
000250 df eb b1 bd a0 ba f4 bd 2d ed af 3e 6f 56 be 3d
       -0.08687567 -0.119496584 0.34360638 0.0929383
000260 f3 41 43 be 43 cf 7f 3e 3b a4 b5 bc 93 ff 19 bd
       -0.19068126 0.24981408 -0.022173038 -0.03759725
000270 6d 6a b3 bd 6f f1 1a bc 90 4d 43 be 85 8b 48 3c
       -0.087605335 -0.009456976 -0.19072556 0.012240295
000280 c5 58 a1 bd 2a be 27 be 26 7d 55 3c df 83 b3 bd
       -0.078782596 -0.16381136 0.013030326 -0.08765387
000290 32 7d 64 be f8 15 54 3c 7f 8f 20 be bb da ac 3d
       -0.22313383 0.012944691 -0.1567974 0.08440157
0002a0 d7 3f 1a 3e a6 a3 0a 3d a0 a5 bf 3d 13 67 fc bd
       0.15063415 0.033847474 0.09357762 -0.12324347
0002b0 9d b7 80 bd ca 29 a3 bc 8a c7 3b 3e ff 45 95 bd
       -0.062850215 -0.019917388 0.18337837 -0.07288741
0002c0 c5 05 c7 3d f2 33 87 3d 7a 60 01 be 18 07 78 be
       0.09717897 0.06601705 -0.12634459 -0.24221456
0002d0 5a a1 e5 bc db 35 2f 3d 5e ff 46 3e 23 7e 76 bd
       -0.02803104 0.04277597 0.19433352 -0.060178887
0002e0 fa e7 17 bc 71 0c e7 3d 3d e5 35 be 5e d2 4a 3e
       -0.009271616 0.1128167 -0.17763229 0.19806811
0002f0 6c e7 ba bc 0c 1f b1 bd b8 72 ab 3a 45 d5 00 3e
       -0.022815429 -0.086485 0.0013080454 0.12581356
000300 6f 59 6a 3e 49 a1 17 be 4e 8a 41 bb db 63 fb bd
       0.22885679 -0.14807619 -0.00295319 -0.12274905
000310 e7 40 dd bc e6 26 fb bd 03 df 26 3e cb af 9b bd
       -0.027008487 -0.12263279 0.1629601 -0.07601889
000320 08 da 1c be 99 d9 12 be 9b e7 97 be 55 90 d7 bc
       -0.15317547 -0.1434082 -0.29668888 -0.02631394
000330 f9 5e 2f 3c 54 58 83 be b4 68 bd bd 69 eb 9e bd
       0.010703796 -0.25653327 -0.09248486 -0.07759745
000340 76 84 f1 bd 31 1c 4c bd c6 29 07 bd 11 1f 38 be
       -0.11792843 -0.049831573 -0.032998823 -0.17980601
000350 21 4b db 3d 0b 6c 5c bd 52 bb e2 bd ef 98 01 3e
       0.10707689 -0.053813975 -0.11070885 0.12655996
000360 bd 5b 0c bd c3 43 12 be 71 e4 b8 bc b5 2c ee 3d
       -0.034267176 -0.14283662 -0.022569867 0.11629621
000370 2b 8e 73 be 0f 22 8d be 96 11 ea 3d ce a7 bc bc
       -0.23784702 -0.27565047 0.114291355 -0.023029234
000380 33 6e b0 3e c0 2d 83 3d fe bb 2a be 49 25 28 be
       0.34459075 0.064052105 -0.16673276 -0.16420473
000390 ae ee 23 bd 4d 3c f8 3c dc 42 93 be f6 19 30 be
       -0.040022545 0.030302191 -0.28761947 -0.17197403
0003a0 69 e4 0f be 88 74 58 3d 12 40 0c be 23 8f 01 3e
       -0.14051975 0.052845508 -0.13696316 0.12652259
0003b0 77 92 2c 3e cd 92 1f be 99 11 e0 3d 50 de 51 3e
       0.16852747 -0.15583344 0.109408565 0.20494962
0003c0 11 18 cd bd 2d 3a 92 3d 18 68 1a 3e 06 25 62 be
       -0.10014356 0.071400024 0.15078771 -0.22084436
0003d0 15 4a c4 3d 4b 66 c9 be 02 80 de 3b 8a 06 43 3d
       0.095844425 -0.39335856 0.006790162 0.047613658
0003e0 ed c4 a4 3d d0 e5 f1 bc 60 90 f1 3d 64 cf 31 be
       0.08045373 -0.029528528 0.117951155 -0.1736427
0003f0 e7 8c 9b 3d 91 ed 88 bd 3a a0 8e be 37 7c f6 bd
       0.07595234 -0.06685937 -0.27856618 -0.12035411

layer1_2vm.0.bias f4 [32]
000000 07 c5 9c 3d 6f 76 8b bc 30 19 c2 bc 0a ee 9c bc
       0.076547675 -0.017024247 -0.023693651 -0.019156475
000010 d0 e7 bb bc 21 cf c7 3c 86 a6 92 3d b8 ab 56 ba
       -0.022937685 0.024390759 0.07160668 -0.000818904
000020 43 94 9a 3d eb 37 b7 bb dc aa 04 3d 45 9a 3a 3c
       0.0754781 -0.0055913827 0.032389507 0.01138932
000030 d2 8c d3 bc a7 0c 56 3d c2 5b ad ba 83 8c 76 3b
       -0.025823984 0.05225816 -0.0013226198 0.0037620373
000040 67 ce 0b bd 26 ea ab ba 62 ea c2 bc a4 21 2d 3c
       -0.034132387 -0.0013116046 -0.023793403 0.010567103
000050 f6 b1 83 3d bb 8a 32 3d 71 1d 89 3b 80 18 65 b8
       0.06430428 0.043589335 0.004184418 -5.4620672e-05
000060 ec 51 ae bb 4a db 8d 3d f2 7d d2 bd b7 80 30 3d
       -0.0053198244 0.06926592 -0.102779284 0.043091502
000070 03 8c 4d 3d 37 44 fd 3d c6 df f3 3c fe 5c 03 bd
       0.050182354 0.123665266 0.02976979 -0.032071106

layer1_2vm.2.weight f4 [32]
000000 63 1a 8a 3f 53 0b 77 3f b3 05 7b 3f ba cb 83 3f
       1.0789303 0.96501654 0.9805557 1.0296547
000010 99 2e 80 3f dc 97 8d 3f f6 b3 82 3f 21 2c 77 3f
       1.001422 1.1061969 1.021117 0.9655171
000020 a4 74 83 3f d9 63 83 3f 64 ca 89 3f 79 55 81 3f
       1.0269971 1.0264846 1.076489 1.0104209
000030 46 2e 80 3f 05 b0 81 3f 1e 0f 76 3f 55 43 81 3f
       1.0014122 1.0131842 0.96116817 1.0098673
000040 3c 5d 80 3f 4c 5f 82 3f a8 72 89 3f 49 45 85 3f
       1.0028453 1.0185332 1.0738115 1.0411769
000050 d0 22 82 3f db 33 84 3f b5 bd 6f 3f 00 9c 75 3f
       1.0166874 1.0328325 0.93648845 0.9594116
000060 e5 4b 7d 3f 2b bb 83 3f da 37 65 3f 58 3a 86 3f
       0.9894393 1.0291494 0.8953835 1.0486555
000070 17 2f 78 3f 59 00 7c 3f bb 94 82 3f 95 bc 87 3f
       0.96946853 0.9843803 1.0201639 1.0604426

layer1_2vm.2.bias f4 [32]
000000 7c ba d6 3d b0 b2 32 3d 35 28 21 bd 56 fd 15 3d
       0.10484788 0.04362744 -0.039344985 0.036618553
000010 92 91 38 bd 34 88 86 3c af 6c 6f 3d 41 9d 97 3d
       -0.0450607 0.016422369 0.058453258 0.07403041
000020 5f cc b4 3d f6 c8 8d 3d 86 e7 88 3d a5 1f 43 3c
       0.08828043 0.06923096 0.066847846 0.0119094
000030 6f 97 25 bd 72 34 9e 3d 76 98 41 bd ee cd 82 3a
       -0.04042762 0.07724847 -0.04726454 0.0009979585
000040 f9 95 cd bc 70 bb b3 bb bc c3 a7 3d 82 15 65 3d
       -0.025095927 -0.005484991 0.0819163 0.055928715
000050 9c 49 45 3d df 99 03 3d c3 0a 64 bd c4 54 d9 bc
       0.048165902 0.032129165 -0.055674326 -0.026529677
000060 1d ef 8a bc 7a de 8c 3d de 10 fb bd 37 18 ad 3d
       -0.016959721 0.068783715 -0.122590765 0.08451884
000070 a4 a5 8a 3c 99 96 a5 3d 51 f1 f5 3c a5 f0 f4 3d
       0.016924687 0.08085365 0.030022295 0.11959962

layer1_2vm.2.running_mean f4 [32]
000000 c1 2f 18 3f 75 51 46 bf 30 9c f0 3d a4 f2 98 bf
       0.59447867 -0.77468044 0.117485404 -1.1949048
000010 c4 7b e2 3d 00 73 23 3e f6 e9 1a 3f fc 46 0d bf
       0.11058763 0.15961838 0.60513246 -0.5518644
000020 d3 38 30 3e b6 f8 af be da 4b 04 3f 54 7a 78 3e
       0.17209177 -0.3436944 0.5167824 0.24265414
000030 2e 88 13 3e 13 2b 00 3f a5 c0 24 bd c9 67 4a 3f
       0.14407417 0.50065726 -0.040222783 0.79064614
000040 a8 7a 0d 3f 66 61 22 be 84 19 7a bf d5 1a 84 bf
       0.55265284 -0.15857467 -0.97695184 -1.0320688
000050 6a 85 09 3f 29 7d a3 3e 77 9d 26 bf c8 fa 29 3f
       0.537192 0.31931427 -0.6508402 0.66398287
000060 28 46 d4 3e 6a 23 a4 3e f7 3e 18 3e 52 83 23 3f
       0.41459775 0.3205827 0.14867769 0.63872254
000070 f5 76 f4 3e 8d 46 ee 3e d3 8f bb 3e 57 fb 6f bf
       0.47747007 0.465382 0.36633167 -0.9374289

layer1_2vm.2.running_var f4 [32]
000000 e4 d8 62 3f 04 89 8a 3f 20 a7 4d 3f ba 9e 7e 3f
       0.886122 1.0823064 0.8033314 0.9946095
000010 e5 83 42 3f 74 f9 04 3f 39 ac 77 3f 35 6d 18 3f
       0.75982505 0.51943135 0.96747166 0.59541637
000020 74 09 46 3f 1c 12 0f 3f fc 81 43 3f 2c 7a f8 3e
       0.77358174 0.5588701 0.76370215 0.4853071
000030 15 85 05 3f 66 b9 87 3f aa 1d fe 3e 8b 48 37 3f
       0.5215619 1.0603454 0.49632007 0.71595067
000040 4f f0 46 3f d6 75 63 3f 1a 4c 32 3f 9a e8 63 3f
       0.7771043 0.8885168 0.6964737 0.89026797
000050 9d f2 48 3f 82 5f 40 3f 0c f0 24 3f 52 96 44 3f
       0.784952 0.75145733 0.6442878 0.7679187
000060 62 be 1c 3f ab 82 42 3f 20 fa 0a 3f 90 0b 4b 3f
       0.61228 0.75980633 0.5428791 0.7931452
000070 d3 ad 2e 3f 1f 19 3d 3f ca d9 16 3f cf eb 54 3f
       0.68233985 0.73866457 0.5892607 0.83172315

layer2.0.weight f4 [32, 64]
000000 b2 26 08 3e c5 04 44 3d 5c 0c 15 be 59 68 9f be
       0.13296011 0.04785611 -0.14555496 -0.31134298
000010 82 59 ea bd b9 bb 0b be a5 60 47 be 96 23 74 bd
       -0.114428535 -0.1364583 -0.1947046 -0.05960425
000020 93 6b c0 bd ff 6e 56 be 11 a7 77 bd 50 fc aa 3e
       -0.09395518 -0.20940779 -0.06046206 0.33395624
000030 f9 a4 99 3e 2d 00 ef bd 6f 2e 6a 3e 57 3a b1 bd
       0.30008677 -0.116699554 0.22869276 -0.086537056
000040 20 1b c8 bd 8c 53 3d 3d a1 e7 73 bd 74 1f 03 3e
       -0.09770799 0.046222255 -0.05954707 0.12804967
000050 4f be 9a be cc bd 29 3d 3a 0b 12 3d 52 69 d0 bd
       -0.3022332 0.04144077 0.035655238 -0.10176338
000060 06 6c be 3d 3d 6c 3f be f6 7d 62 be e7 6f 52 be
       0.092979476 -0.18693633 -0.22118363 -0.205505
000070 79 ef 1e bd c0 58 58 be 84 ad 5d be a2 7b 99 bd
       -0.038802598 -0.21127605 -0.21648222 -0.07494284
000080 60 71 f2 bb 64 30 81 be 8d e7 3b 3d 49 c1 a5 3c
       -0.0073987693 -0.25232232 0.04587512 0.020233767
000090 5c 62 12 3e f2 86 05 3e 2a 4e 97 be a8 4a 6d be
       0.14295334 0.13039759 -0.29551822 -0.2317301
0000a0 47 ed b6 3d 26 5f 3b be ac 37 d0 3d 3c 19 6d 3d
       0.08931976 -0.18298015 0.101668686 0.057885394
0000b0 cc d4 a9 3d 01 e8 0e be a9 97 5e be 29 91 85 3e
       0.08292541 -0.1395569 -0.21737541 0.2608731
0000c0 bb b8 19 be ae 66 49 be 92 23 48 bd f8 ed 9a 3d
       -0.15011875 -0.19668075 -0.048862047 0.0756492
0000d0 6c e6 c8 bd 1e da 5e be 33 51 0e 3e 90 18 cc 3b
       -0.098095745 -0.21762893 0.13898163 0.006228514
0000e0 0f aa 1a bd 94 f7 dd 3d 0e 0c 36 3c ec 3a d9 bd
       -0.037759837 0.108382374 0.0111112725 -0.106069416
0000f0 50 a9 fa 3d 6b 1c f2 bd 23 f8 4b 3e 39 5b 69 3d
       0.12239325 -0.118218265 0.19918875 0.056971762
000100 84 15 a3 3d 68 89 28 bc 77 75 93 be d9 72 b2 3d
       0.07963088 -0.010286666 -0.28800556 0.08713312
000110 1b e4 2b bb 98 b4 2e 3e 4b 3f 4e 3e 29 bd ad 3e
       -0.002622849 0.17061079 0.20141332 0.3393338
000120 b2 e6 25 bd 3d 2b e3 3d d4 05 24 be be ed 27 bd
       -0.04050321 0.110922314 -0.16017848 -0.040998213
000130 68 77 f4 3c 3a 24 74 3d 41 ff 33 3d 6c 43 06 be
       0.029842094 0.05960486 0.0439446 -0.13111657
000140 a1 16 af 3c 75 b5 d1 3d d7 05 96 3d e6 d1 50 3e
       0.021373095 0.10239688 0.073253326 0.2039257
000150 8a 83 a0 3e aa 50 8f bd c6 b5 13 3d 42 22 dc bd
       0.31350356 -0.06997807 0.036062025 -0.10748722
000160 4e 19 87 bd c9 90 c3 3d 7b 37 f2 3d ba cb 35 3e
       -0.06596623 0.095491 0.11826988 0.17753497
000170 a7 53 e3 3d 3a 21 44 3d 5c 82 cf 3d 3e 84 82 bd
       0.1109994 0.04788325 0.10132286 -0.063728794
000180 c2 5b 0f 3e 1e 59 9b bc fe e6 26 3d 3d 69 d7 bd
       0.13999847 -0.018963393 0.040747635 -0.105181195
000190 1c 48 4d 3d c0 ea ec 3d d8 87 10 3e 8f ef fe 3d
       0.050117597 0.115682125 0.1411432 0.12448036
0001a0 4b 12 b7 3d 50 55 54 ba c4 59 23 3e 36 f4 ac bd
       0.08939036 -0.0008099871 0.15952212 -0.08445017
0001b0 5a 3e 8d be c4 b0 24 bc 58 5c 76 bd 63 a3 88 bd
       -0.27586633 -0.01005191 -0.06014666 -0.066717885
0001c0 9c c6 27 be 2a 68 4c 3d b5 74 4a 3e 6c a3 ef bc
       -0.16384357 0.049904026 0.19771083 -0.02925273
0001d0 be f5 6a 3e a4 46 5e 3e e0 04 05 bd 3b 58 2e 3e
       0.22945306 0.21706635 -0.032475352 0.17025845
0001e0 4f f7 71 bc 14 a1 af 3d 4e 88 a2 bd 3c 73 22 be
       -0.014768436 0.08575645 -0.07936154 -0.15864271
0001f0 3e e4 ee 3b 36 ba 95 3e ce 08 e5 bd 7a 75 b1 3d
       0.007290392 0.2924363 -0.1118332 0.08664985
000200 12 57 74 bd 38 f0 71 3d ef 3a bf bd 4a 93 d3 bd
       -0.05965335 0.05906698 -0.093374126 -0.103308275
000210 f7 f2 45 3c 10 5e fe 3c 48 bb 3b 3d a7 79 4f 3c
       0.012081853 0.031050712 0.045832902 0.0126632815
000220 51 a2 77 be 5b fb 34 3e a3 5a 16 3e a3 54 ed bd
       -0.24183013 0.1767401 0.14683013 -0.11588409
000230 5c 00 e9 bd 1c 63 9e 3d f2 32 30 bd 4c 84 c6 3c
       -0.11377022 0.07733747 -0.043017335 0.024233006
000240 c6 c5 34 3e 99 a2 a7 3d 7c 34 44 3d b9 9d 07 3e
       0.1765357 0.0818531 0.047901616 0.1324376
000250 ae e4 2e bd 7c 28 b7 bc 13 40 59 3e c6 2b 28 3e
       -0.042698555 -0.022358172 0.21215849 0.16422948
000260 cc 15 a3 3c a7 cd 9f bd ef b8 ca 3d de f7 85 3e
       0.019907854 -0.07802897 0.098985545 0.2616567
000270 7d b0 3d be 9e 61 a0 3d 28 75 66 3e 4b 4d e0 bb
       -0.18524356 0.07831119 0.22505629 -0.0068451515
000280 81 a4 13 be 24 d2 a6 bd 15 5a 8d bd 71 2c 42 3e
       -0.14418222 -0.0814555 -0.069019474 0.18962266
000290 d2 6f 53 3e ce d2 e9 3d d5 6b 1a 3e 2d ae 72 bd
       0.20648125 0.11417161 0.15080197 -0.05924814
0002a0 db 83 25 be fc b1 bf 3d 9b 54 54 be 70 86 0a 3e
       -0.1616358 0.0936012 -0.207354 0.13527846
0002b0 e8 8f 95 3e 47 ee 21 3e 0b 1a 2d 3e 50 d7 df 3c
       0.29211354 0.15813552 0.16904466 0.027324349
0002c0 c8 95 56 bd af 8e 95 bd f5 9e a5 3d db 0b 4f 3e
       -0.052388936 -0.07302605 0.08086959 0.20219366
0002d0 0e c4 8d bd 48 82 a1 3d 4a 83 56 be 3f 05 0a bc
       -0.0692216 0.07886177 -0.2094852 -0.008424102
0002e0 1d bf 91 3e 61 4e 78 bd 82 79 5f 3e b2 13 34 3d
       0.2846612 -0.060621623 0.21823695 0.043964095
0002f0 aa dc 0b be 6c c2 e5 bd a0 0f 91 3d b7 93 80 be
       -0.13658395 -0.11218724 0.07083058 -0.25112697
000300 8c 9c 62 3d 57 cb ad bc 1c ff f8 3d da b2 2b 3e
       0.055325076 -0.021215124 0.12158033 0.16767445
000310 67 1c d4 bd d4 84 10 3e 82 3a c8 bc bf e6 38 bd
       -0.1035698 0.1411317 -0.024441961 -0.04514193
000320 5f 5d ac 3c 90 78 86 3d 0d 47 f3 bd 5e 58 18 3e
       0.021040617 0.06565964 -0.11878786 0.1487746
000330 c8 8b cc bc de bd 1f 3e 4d 0e 96 3d db c3 cd 3d
       -0.024968997 0.15599772 0.073269464 0.10047122
000340 91 52 81 3e 8a e4 b4 bd 4a 91 49 bd 92 39 b7 bc
       0.25258306 -0.08832653 -0.049210824 -0.022366319
000350 32 01 05 3e ae 18 0f bc 9f f1 88 bd 28 c0 08 3e
       0.12988737 -0.008733911 -0.066867106 0.13354552
000360 0a 5d 89 bd bf bf 09 3e d2 1b 22 bd 80 64 c3 bd
       -0.06707199 0.13452052 -0.039577313 -0.09540653
000370 97 28 bf 3d 9d d7 4f be 1d 8c 82 3d 43 01 31 3e
       0.09333914 -0.20297094 0.06374381 0.17285638
000380 c6 c4 db 3c ba b2 49 3d 23 71 cb 3d fb c6 41 be
       0.026827227 0.049242713 0.099336885 -0.18923561
000390 e0 25 32 3e f2 02 88 bd d9 97 58 3e c2 37 a2 3d
       0.1739726 -0.06641187 0.21151675 0.07920791
0003a0 2e 43 6e bd 08 c6 32 3e 02 2f 1d 3c 04 34 47 bd
       -0.058169536 0.17458355 0.009593727 -0.04863359
0003b0 de f9 1c be 53 d3 82 bd 8c 6d ce bc 98 99 93 bd
       -0.15329692 -0.06387963 -0.02519872 -0.0720703
0003c0 4e 1a 0c 3e ed d5 52 3e 4a f6 6f bd 96 93 cc be
       0.1368191 0.20589419 -0.05858449 -0.3995635
0003d0 b6 39 71 3e 83 c3 5a 3e 2b db d4 3d a4 75 50 3e
       0.23557171 0.21363644 0.103933655 0.20357376
0003e0 72 7b 1d 3e 34 ae d4 bd 4d 1a a2 3e 49 37 9c bd
       0.15379122 -0.10384789 0.3166069 -0.07627732
0003f0 8a ba 9a bc 94 9f 16 3d e9 05 86 3d ac e1 6b bd
       -0.018887777 0.03677328 0.06544096 -0.057588264

layer2.0.bias f4 [32]
000000 4e de 90 3d c7 c8 de 3e e5 2b 89 3e 3d 8d b7 3e
       0.07073651 0.43512556 0.267913 0.35849944
000010 fc f2 95 3e ac fb 24 3e 2a 44 ef 3d 7f 57 91 3e
       0.29286945 0.1611163 0.11682923 0.28387067
000020 e0 45 b4 3e e5 74 f2 3d c4 a3 a8 3d 71 72 ed 3e
       0.3520956 0.11838702 0.08234361 0.46376374
000030 84 37 d6 bd 0e bd 0f be 5a 22 48 3d a2 69 82 3e
       -0.104598075 -0.14036962 0.048860885 0.25471216
000040 01 72 fc 3e 63 31 ee 3e 94 d1 e9 3e f1 56 9f 3d
       0.49305728 0.46522054 0.45667708 0.07780255
000050 a6 4d c7 3b 4c 6f da 3d 18 d5 27 be cd f7 8a bd
       0.0060822545 0.106657594 -0.16389883 -0.067855455
000060 93 c7 d6 bc 15 27 b0 3d 87 24 7f 3e e6 41 3c 3d
       -0.026218211 0.08601204 0.24916278 0.045961283
000070 e0 2c 83 bd 4d 7c 85 3d 3a ce 12 3e 10 21 e6 3d
       -0.064050436 0.06517849 0.14336482 0.11236775

layer2.2.weight f4 [32]
000000 59 6a a3 3f df e9 c6 3f 2c f5 aa 3f ce 75 ba 3f
       1.276683 1.5540122 1.335607 1.4567201
000010 9f 8e aa 3f 19 55 ca 3f 41 d5 ca 3f 04 7b 88 3f
       1.3324775 1.580722 1.584633 1.0662541
000020 a6 d0 b2 3f 59 29 cc 3f e1 ea cd 3f b3 1f c2 3f
       1.3969924 1.5950118 1.6087304 1.5165924
000030 2b 0d 1c 3f ad 0a ed 3e 09 e8 c5 3f 06 f2 99 3f
       0.6095759 0.46297207 1.5461437 1.2026985
000040 2f 31 c7 3f 3e 72 c6 3f e4 e5 c3 3f 57 45 b0 3f
       1.5561885 1.5503614 1.5304532 1.3771161
000050 27 98 a3 3f ce 5b cb 3f c0 c4 83 3f 63 59 9c 3f
       1.2780808 1.5887392 1.0294418 1.2214779
000060 0e c2 89 3f 5a 09 cc 3f fe 2b 1a 3f 32 88 35 3f
       1.0762346 1.5940354 0.60223377 0.7091094
000070 6e db 4f 3f 62 c7 c9 3f 70 ef 2a 3f e7 c1 cd 3f
       0.811942 1.5763972 0.667716 1.6074799

layer2.2.bias f4 [32]
000000 1f 79 8f 3e 37 8c 1c 3f 3a af b9 3e a0 1b f4 3e
       0.28022096 0.6115145 0.362665 0.47677326
000010 b7 b4 c4 3e 25 d7 19 3f 28 08 1e 3f ff 18 b0 3d
       0.38419124 0.6009391 0.61731195 0.085985176
000020 87 3d e2 3e ed b2 1d 3f 44 c1 1f 3f e6 49 13 3f
       0.44187567 0.61601144 0.62404275 0.57534635
000030 fe 98 c6 be 64 f0 0e bf e9 bb 13 3f e5 b6 76 3e
       -0.387886 -0.55835557 0.57708603 0.24093206
000040 f4 51 1b 3f 9e 38 17 3f 7a ef 13 3f b8 49 cd 3e
       0.60671926 0.59070766 0.5778729 0.40095305
000050 71 0e 9a 3e 76 0f 1e 3f f2 bc f5 3c 97 73 6c 3e
       0.30089143 0.6174234 0.029997323 0.23090969
000060 11 c9 b8 3d a2 d0 1c 3f 55 0f cb be 37 39 99 be
       0.090227254 0.6125585 -0.39660135 -0.29926464
000070 f6 00 3e be 78 0e 1c 3f 9c 52 ad be 16 4e 21 3f
       -0.18555054 0.6095958 -0.33852088 0.63009775

layer2.2.running_mean f4 [32]
000000 a3 ef 81 bf f3 37 be 3f 9f 63 67 3f d4 10 8c 3f
       -1.0151256 1.4860824 0.90386385 1.0942636
000010 15 d6 82 3f d9 41 25 bf 69 3f 3a bf e7 a0 59 3f
       1.0221583 -0.645536 -0.72753006 0.8501114
000020 63 44 90 3f d0 8e 31 bf 54 59 36 bf 3e e3 c6 3f
       1.127087 -0.6935854 -0.71230054 1.5538099
000030 68 f4 50 bf bc 7c 4e bf b4 59 29 bf 36 35 41 3f
       -0.81622934 -0.8065908 -0.661525 0.7547182
000040 14 74 ef 3f 58 c2 aa 3f 6f 52 b5 3f 04 7c 6e bf
       1.8707299 1.3340559 1.4165782 -0.9315798
000050 30 3f 49 bf c8 db 4d bf 4c 9d 79 bf fe 26 78 bf
       -0.7861204 -0.80413485 -0.9750564 -0.969345
000060 bb 2a 70 bf 60 5e 2c bf eb 92 2a 40 23 c7 bd be
       -0.938152 -0.67331505 2.6652172 -0.37065992
000070 57 56 40 bf cc e0 21 bf db e6 08 40 83 9a 5c bf
       -0.75131744 -0.6323364 2.1390903 -0.86173266

layer2.2.running_var f4 [32]
000000 c5 19 89 3f da 9f 89 3f e6 90 31 3f 24 41 5a 3f
       1.0710989 1.0751908 0.6936172 0.85255647
000010 3c 4d 52 3f 5c ef 3b 3f bd d8 87 3f f3 bd d6 3f
       0.821491 0.7341211 1.0613018 1.6776718
000020 3b ad 5f 3f a2 c8 57 3f 41 cd 52 3f ed 37 9c 3f
       0.87373704 0.84290516 0.8234444 1.2204567
000030 b7 53 67 3f 45 9a 6b 3f f5 8e 1b 3f aa b0 1f 3f
       0.90362114 0.9203227 0.6076501 0.6237894
000040 64 b5 de 3f 01 c4 5f 3f b2 7d 83 3f b2 eb 79 3f
       1.7399106 0.87408453 1.0272734 0.9762527
000050 6b 78 32 3f ec c1 6a 3f 6a 15 1b 40 f1 0f 68 3f
       0.69714993 0.9170215 2.423182 0.90649325
000060 6c 27 60 3f f0 f1 4a 3f d5 99 38 40 3b 07 d7 3f
       0.87560153 0.7927542 2.8843892 1.6799082
000070 af 79 4b 3f c0 ce 38 3f 04 c6 27 40 c8 ea 80 3f
       0.7948255 0.72190475 2.621461 1.007165
