save/client-9/eval.pth (torch, 42501 bytes, 27 tensors)

layer1_task.0.weight f4 [32, 3]
0	0x3d524ac8	0.05134085
1	0xbe3263a9	-0.1742083
2	0xbe8c8ce1	-0.27451232
3	0x3ec26cd6	0.3797366
4	0x3e9eedd2	0.31040817
5	0xbef9b568	-0.48771214
6	0x3e08fc87	0.13377582
7	0xbd606f6a	-0.054793753
8	0x3d4686a1	0.048468236
9	0x3c388373	0.011261809
10	0xbdc412b7	-0.09573882
11	0xbe95fe9e	-0.2929582
12	0xbe0fba94	-0.14036018
13	0xbdcceb09	-0.10005767
14	0xbdc58d1d	-0.09646056
15	0xbcec254c	-0.028826378
16	0xbecb4dd5	-0.3970782
17	0x3dc851c5	0.09781221
18	0x3eb573d9	0.35439947
19	0xbe533099	-0.20624007
20	0x3cd876a6	0.026423763
21	0xbeba39ae	-0.3637213
22	0x3c84811f	0.016174851
23	0x3f021291	0.5080958
24	0x3e7ea2ba	0.24866763
25	0x3edd8bcd	0.43270722
26	0x3e96f2ca	0.29482108
27	0x3eaa01fb	0.33204636
28	0x3e916d71	0.2840381
29	0x3ed933c8	0.42422318
30	0x3d92f352	0.07175316
31	0xbc145fb6	-0.009056022
32	0xbf0bfe2b	-0.54684705
33	0x3e507f1a	0.20360985
34	0x3e9af748	0.30266786
35	0x3e9b2cae	0.30307525
36	0xbec49ef1	-0.38402513
37	0x3e9931c9	0.29920796
38	0x3f0db2e1	0.5535107
39	0x3d271362	0.04078997
40	0x3d8370b3	0.0641798
41	0xbdd541cd	-0.10412941
42	0xbe187f33	-0.14892273
43	0xbe2ac4fb	-0.16676705
44	0xbdb8740b	-0.090065084
45	0x3d2a5fe0	0.04159534
46	0x3bd61ab9	0.0065339473
47	0x3c8090b1	0.015693994
48	0x3e4614c0	0.19343853
49	0x3f2471bf	0.6423606
50	0xbe05030f	-0.12989448
51	0x3da72ce2	0.081628576
52	0x3e2c1f99	0.16808929
53	0xbe5a61a2	-0.21326306
54	0xbd9aa371	-0.07550705
55	0xbc6db64e	-0.014508797
56	0xbea8b260	-0.3294859
57	0xbdcf81d6	-0.10132186
58	0xbe17d2fb	-0.14826576
59	0xbd2562c5	-0.040377397
60	0xbe28930e	-0.16462347
61	0xbd54ac2f	-0.05192202
62	0x3e90856b	0.2822679
63	0x3e4b922d	0.1987998
64	0x3e611f9c	0.21984714
65	0xbd87175e	-0.06596254
66	0xbd1802b1	-0.03711194
67	0xbdde0ea1	-0.10842634
68	0xbe28d31b	-0.1648678
69	0xbe0c88fa	-0.13724127
70	0x3e13402b	0.14379947
71	0xbe37a72b	-0.17934863
72	0x3e6e97a5	0.23300035
73	0x3e265b91	0.16245867
74	0xbc7428e1	-0.014902324
75	0xbe5ed148	-0.21759522
76	0x3e46a241	0.19397832
77	0x3dc716c2	0.097211376
78	0x3e6a36d9	0.22872485
79	0xbd8c383f	-0.068466656
80	0x3bbcf01a	0.005765927
81	0xbd4f895c	-0.050668105
82	0xbd7e6367	-0.062106516
83	0xbce28bff	-0.027654646
84	0x3df12460	0.11774516
85	0xbb8925a7	-0.0041853967
86	0x3e36c652	0.1784909
87	0xbd5d07bf	-0.053962465
88	0xbecb2d52	-0.39683014
89	0xbde7a0a5	-0.113099374
90	0xbd2a950d	-0.041646052
91	0x3e6d8169	0.23193897
92	0x3ef6090d	0.4805378
93	0x3d3b49bf	0.045724627
94	0xbe98bcda	-0.29831582
95	0x3d11606b	0.035492342

layer1_task.0.bias f4 [32]
0	0x3aaf6f9d	0.0013384704
1	0xbb3f8056	-0.0029220781
2	0xbc0630a2	-0.008190306
3	0xbc56504a	-0.013080666
4	0xba84b7d1	-0.0010125582
5	0xbbb3a92a	-0.0054828124
6	0xbabcfc70	-0.0014418494
7	0xbaf272bf	-0.0018497332
8	0x3bc9cd43	0.0061585023
9	0x3ad177ee	0.0015981176
10	0x3a741dda	0.00093123096
11	0xbb59c3b0	-0.003322821
12	0x3c542998	0.01294937
13	0xba2b99c4	-0.0006546045
14	0xbc42c1fd	-0.011887071
15	0x39e26e48	0.00043188245
16	0xbbb021c0	-0.005375117
17	0xbc3ce63e	-0.011529503
18	0x3b8f6acf	0.0043767462
19	0x3c6433b2	0.013928341
20	0x3b17f4fa	0.002318679
21	0x3bd40b72	0.006471091
22	0x3a55e0d6	0.00081588083
23	0xbbbfaa5f	-0.0058491672
24	0x3c56bfa5	0.013107215
25	0xbb82fcd2	-0.0039974237
26	0xbbc33eab	-0.0059583983
27	0x3b393dc3	0.0028265573
28	0xbbb62b36	-0.0055593504
29	0xbbe286ac	-0.006913027
30	0xbbd9569e	-0.00663264
31	0xbc0d8651	-0.008637981

layer1_task.2.weight f4 [32]
0	0x3f803f9b	1.0019411
1	0x3f801e88	1.0009317
2	0x3f80ba6f	1.0056895
3	0x3f7f4301	0.99711615
4	0x3f7dbcdc	0.991163
5	0x3f7ce055	0.98779804
6	0x3f81ca21	1.013981
7	0x3f805c55	1.0028177
8	0x3f801344	1.0005879
9	0x3f7eedd2	0.99581635
10	0x3f80a4dd	1.0050312
11	0x3f8078f4	1.0036912
12	0x3f7e5c06	0.99359167
13	0x3f8055be	1.0026166
14	0x3f7fefaf	0.99975103
15	0x3f7c6a9d	0.9860018
16	0x3f80f1db	1.0073808
17	0x3f8157dd	1.0104939
18	0x3f7c769f	0.986185
19	0x3f7fdd85	0.99947387
20	0x3f802c73	1.0013565
21	0x3f813ffe	1.0097654
22	0x3f814667	1.009961
23	0x3f7cd6ef	0.9876546
24	0x3f7feb3b	0.9996831
25	0x3f80e9df	1.0071372
26	0x3f7fc483	0.9990923
27	0x3f7cc3bc	0.98736167
28	0x3f819f20	1.0126686
29	0x3f7e0bce	0.9923676
30	0x3f813bf8	1.0096426
31	0x3f814f47	1.0102319

layer1_task.2.bias f4 [32]
0	0x3c34492f	0.011003776
1	0xbbf84dea	-0.0075776475
2	0x3b9e7ca9	0.004836638
3	0xbbd83ff6	-0.0065994216
4	0xbbccfbdc	-0.00625561
5	0xbc7bc790	-0.015367404
6	0x3ca3aa69	0.019978719
7	0x3a76d9ac	0.0009416591
8	0x3b84f0fa	0.004057047
9	0x3b0fc2c0	0.0021936148
10	0x3c825f3e	0.015914556
11	0xbaf27efe	-0.0018500981
12	0x3bc5824d	0.006027496
13	0x3a5ef54a	0.0008505179
14	0x397b4510	0.00023962953
15	0xbca38f9a	-0.019965935
16	0x3b89d67d	0.004206477
17	0x3b8d67d7	0.004315357
18	0xbc3ea949	-0.01163704
19	0x3a745028	0.00093198055
20	0x3b63ae81	0.0034741464
21	0x3c8ee70c	0.017444156
22	0x3c0d5532	0.008626269
23	0xbc7d9285	-0.0154768275
24	0x3c36e1c4	0.011162225
25	0x3b95da0a	0.0045731114
26	0xbb5bf61d	-0.0033563443
27	0xbc831304	-0.016000278
28	0x3c7d5bd2	0.015463786
29	0xbc0448f6	-0.008074036
30	0x3c51676f	0.012781008
31	0x3bb486d4	0.005509237

layer1_task.2.running_mean f4 [32]
0	0x44e6f44e	1847.6345
1	0x464dac81	13163.126
2	0x45950eb8	4769.84
3	0x4413529c	589.2908
4	0xc59a34db	-4934.607
5	0xc489c35a	-1102.1047
6	0x463c6d2e	12059.295
7	0xc643c3d5	-12528.958
8	0x460858a0	8726.156
9	0x463ac4dc	11953.215
10	0x4519aa48	2458.6426
11	0x45d9ee51	6973.7896
12	0xc650cf6b	-13363.8545
13	0x44c7a076	1597.0144
14	0xc5aca3f1	-5524.4927
15	0x44b36cf6	1435.405
16	0x45d6356d	6854.678
17	0x45236aa9	2614.6663
18	0xc517c1a1	-2428.1018
19	0xc54641a8	-3172.1035
20	0xc5b02d8e	-5637.6943
21	0x45ddde10	7099.758
22	0xc48bf821	-1119.754
23	0xc595b2ae	-4790.335
24	0x45fbfaba	8063.341
25	0xc5eb48a1	-7529.0786
26	0x45fc5bc2	8075.4697
27	0xc4d80d0f	-1728.4081
28	0x45753430	3923.2617
29	0xc4fcf7f8	-2023.749
30	0xc4951254	-1192.5728
31	0x44b6b90d	1461.7828

layer1_task.2.running_var f4 [32]
0	0x4b3619d4	1.1934164e+07
1	0x4e0b2861	5.836698e+08
2	0x4c87dafc	7.122736e+07
3	0x49878aba	1.1103592e+06
4	0x4c9bdd2f	8.1717624e+07
5	0x4a7de23c	4.159631e+06
6	0x4e077a1b	5.682316e+08
7	0x4de95cf1	4.893978e+08
8	0x4d5503e2	2.233626e+08
9	0x4de606aa	4.8239955e+08
10	0x4b92c4bd	1.9237242e+07
11	0x4d125c2a	1.534696e+08
12	0x4e2082b5	6.7323014e+08
13	0x4ae30b2c	7.439766e+06
14	0x4caffd86	9.226962e+07
15	0x4ad699ba	7.032029e+06
16	0x4d15a3c2	1.5690858e+08
17	0x4bb1333e	2.322598e+07
18	0x4bae86bf	2.2875518e+07
19	0x4c164b66	3.939881e+07
20	0x4ccaba18	1.062873e+08
21	0x4d1b6257	1.6293208e+08
22	0x4a8018a5	4.1974585e+06
23	0x4c8997d7	7.2138424e+07
24	0x4d6a6ac2	2.4580406e+08
25	0x4d34a69f	1.8942616e+08
26	0x4d5dfda8	2.3277427e+08
27	0x4b0f4d78	9.39148e+06
28	0x4c425d3b	5.0951404e+07
29	0x4b44d8d2	1.2900562e+07
30	0x4a7e5aec	4.167355e+06
31	0x4ae0aad8	7.3619e+06

layer1_1vm.0.weight f4 [64, 40]
0	0xbe710a66	-0.23539123
1	0xbd75d6e5	-0.060019393
2	0xbdd81410	-0.105507016
3	0xbe055ade	-0.13022944
4	0xbe57038e	-0.2099745
5	0xbdfc162e	-0.12308918
6	0xbe325c88	-0.1741811
7	0x3c8eae49	0.01741709
8	0xbdf9424b	-0.121708475
9	0xbd4303a0	-0.04761088
10	0x3e50715f	0.20355748
11	0xbe9759cb	-0.29560694
12	0xbe0f129e	-0.13971946
13	0xbd2b0c0f	-0.041759547
14	0x3dc86b54	0.09786096
15	0x3e8fce30	0.28086996
16	0xbe3b4f53	-0.18291979
17	0xbddee41b	-0.108833514
18	0xbd84be0f	-0.06481563
19	0xbda5d57b	-0.08097359
20	0x3de0308e	0.10946761
21	0x3e2152d6	0.15754256
22	0xbe32e4d3	-0.17470102
23	0x3e8a36bc	0.26994884
24	0x3d655855	0.055992443
25	0x3d2412e5	0.04005708
26	0x3e8c9fd3	0.27465686
27	0xbd79064d	-0.060797025
28	0x3e22d6d1	0.15902258
29	0xbb63ea5a	-0.0034777136
30	0x3e899415	0.2687079
31	0xbdbec8e1	-0.09315658
32	0xbe30c382	-0.1726208
33	0xbe2f9003	-0.1714478
34	0xbe95b049	-0.29236057
35	0xbdc4e385	-0.096137084
36	0xbe2664a4	-0.16249329
37	0xbdfc42da	-0.123174384
38	0x3dde4cce	0.10854493
39	0x3d271c30	0.040798366
40	0xbd1db353	-0.038501095
41	0xbd176c13	-0.036968302
42	0xbda951bd	-0.082675435
43	0x3dc96c63	0.09835126
44	0x3e0a3929	0.13498367
45	0xbe628043	-0.2211924
46	0x3e4e54c7	0.20149527
47	0x3d974c0e	0.07387553
48	0x3d7d4676	0.061834775
49	0x3e9a77a1	0.30169395
50	0xbe27a842	-0.16372779
51	0x3dbc7a46	0.09203009
52	0xbeae4326	-0.34035605
53	0x3e868792	0.26275307
54	0x3ea2411c	0.316903
55	0xbe19aac6	-0.15006551
56	0x3d63227a	0.0554528
57	0xbd821200	-0.063510895
58	0x3cebb206	0.028771412
59	0x3e904fc1	0.28185847
60	0x3cd54e12	0.026038203
61	0xbde1b2f2	-0.11020459
62	0x3e888ad9	0.26668432
63	0x3e442732	0.19155577
64	0x3dd035b2	0.101664916
65	0x3d19c393	0.03754003
66	0x3e0fbe8b	0.1403753
67	0x3e3f9382	0.18708614
68	0x3c556a9e	0.013025908
69	0xbdb238c5	-0.08702234
70	0xbe8de717	-0.2771537
71	0xbe5c4295	-0.21509774
72	0x3de0a27e	0.10968493
73	0x3e67a152	0.22620133
74	0x3e127f56	0.14306387
75	0xbe24b578	-0.1608485
76	0xbd9a5e19	-0.07537479
77	0x3e18d89f	0.14926384
78	0x3cec8ffe	0.028877255
79	0x3d43b115	0.0477763
80	0xbde76199	-0.11297912
81	0x3e54d10a	0.20782867
82	0xbdf2e3f7	-0.11859887
83	0x3dc2ca9a	0.095112994
84	0xbddcb0a3	-0.10775878
85	0xbbbaf2ef	-0.0057052295
86	0x3c284b24	0.010271821
87	0xbd54df70	-0.0519709
88	0x3e235099	0.15948714
89	0x3cb8c02c	0.022552572
90	0xbe8dcf5b	-0.27697262
91	0x3e34f8ef	0.17673086
92	0x3e02a6bf	0.12758921
93	0xbded8d82	-0.11599256
94	0x3e0d9224	0.1382528
95	0xbd1f0fcc	-0.038833424
96	0x3dc6943c	0.09696242
97	0xbdb32663	-0.08747556
98	0xbea2101e	-0.3165292
99	0xbea01d0b	-0.31272158
100	0x3eaee374	0.34157908
101	0x3d5ed3eb	0.05440132
102	0x3e1a3a7e	0.15061375
103	0xbe0937e8	-0.13400233
104	0xbe233648	-0.15938675
105	0xbe035d32	-0.1282852
106	0xbdda7e92	-0.106686726
107	0x3dc2dd62	0.09514882
108	0xbdefedab	-0.117152534
109	0x3eacdbd9	0.3376148
110	0x3b6d4d30	0.0036209337
111	0x3d8f132a	0.06986077
112	0xbceef5d6	-0.029169958
113	0x3d4dd7c3	0.050254595
114	0xbd5c05f0	-0.0537166
115	0x3dffe21b	0.12494298
116	0xbcbe8bb9	-0.023259984
117	0x3e299ebe	0.16564462
118	0x3e669e8f	0.22521423
119	0x3e696c43	0.22795205
120	0x3ee26db3	0.4422432
121	0xbd5c5d23	-0.05379976
122	0x3e1a46ac	0.15066022
123	0xbd4482de	-0.047976367
124	0xbdad2a97	-0.08455389
125	0x3c89ddea	0.01682945
126	0x3d27bc39	0.040950987
127	0x3d2a75f1	0.041616384
128	0x3dea67aa	0.114455536
129	0xbde39a2b	-0.111133896
130	0x3d795f72	0.06088204
131	0x3dba2e62	0.09090878
132	0xbc2063d0	-0.009789422
133	0xbde7a8da	-0.11311503
134	0xbd6e3f39	-0.058165763
135	0xbd184f08	-0.037184745
136	0xbdfc5b39	-0.12322087
137	0xbc8148bd	-0.015781755
138	0x3dad6348	0.08466202
139	0x3c80b395	0.015710631
140	0x3e7546e4	0.23952824
141	0xbdcbcab2	-0.099507704
142	0xbec02e17	-0.37535164
143	0x3d971bdf	0.07378363
144	0xbdd52ca9	-0.10408909
145	0xbe50cf06	-0.20391473
146	0x3dd94369	0.106085606
147	0xbe332465	-0.17494352
148	0x3e9644dc	0.2934941
149	0x3e66104b	0.22467153
150	0xbd0fbe93	-0.035093855
151	0xbd65a398	-0.05606422
152	0xbd2b3493	-0.041798186
153	0x3dd74940	0.10512018
154	0x3de2f558	0.11081952
155	0x3de05793	0.109542035
156	0xbd9f3fba	-0.07775827
157	0xbde6e58e	-0.11274253
158	0x3de2a452	0.11066498
159	0xbd6ea6e6	-0.058264636
160	0xbd7e6fc7	-0.062118318
161	0xbda7a08f	-0.08184921
162	0x3df995d6	0.12186782
163	0xbe30e21b	-0.17273752
164	0x3dcf6bae	0.1012796
165	0xbde856c2	-0.11344673
166	0x3ab72060	0.001397144
167	0xbdc04bb5	-0.0938944
168	0xbe121421	-0.14265491
169	0x3d985064	0.07437208
170	0x3dd14aa4	0.10219315
171	0x3d921a08	0.07133871
172	0x3b0b523d	0.0021258735
173	0x3e34dd79	0.1766261
174	0x3d9852ab	0.07437643
175	0xb8ab95c6	-8.181813e-05
176	0x3b12ec35	0.0022418622
177	0x3e5fbb75	0.21848853
178	0x3d4fca56	0.050730072
179	0xbd98e252	-0.07465042
180	0xbe3f33d2	-0.18672112
181	0x3d3c8031	0.04602069
182	0xbdbd4bb6	-0.09242956
183	0x3e8a48f6	0.2700879
184	0x3dfee633	0.12446251
185	0x3c1c33d7	0.009533844
186	0xbd44003d	-0.04785179
187	0xbe22a142	-0.15881827
188	0xbd799910	-0.060936987
189	0xbcea4f25	-0.028602192
190	0xbe4f29ed	-0.20230837
191	0xbe5ba7cd	-0.2145073
192	0xbd8f60dd	-0.07000897
193	0x3df3e835	0.11909524
194	0x3df78708	0.12086302
195	0xbd869d9f	-0.065730326
196	0xbcce7c56	-0.025205772
197	0xbdea49d0	-0.1143986
198	0xbe13a79e	-0.1441941
199	0xbd09d8e9	-0.033654127
200	0x3e332c40	0.17497349
201	0x3d0b16e6	0.033957385
202	0xbe0c85d8	-0.13722932
203	0xbe6dc3e0	-0.23219252
204	0x3c8f7e63	0.01751632
205	0x3ccb8d35	0.024847606
206	0x3e50bae5	0.20383795
207	0xbd04f3d8	-0.03245911
208	0xbe68bf5f	-0.22729252
209	0x3dc13e7e	0.094357476
210	0x3df98519	0.121835895
211	0xbe2127d0	-0.15737844
212	0xbc24a09e	-0.01004806
213	0x3e190a3a	0.14945307
214	0xbd86fd6d	-0.06591306
215	0xbde8bb52	-0.113638535
216	0xbe3d9bd6	-0.18516478
217	0xbe99595f	-0.29950997
218	0x3b8c1ea0	0.0042761117
219	0xba8cf74a	-0.001075485
220	0xbb88760e	-0.004164464
221	0x3cf10c6e	0.029424872
222	0xbbc0fd40	-0.0058895648
223	0xbe45257f	-0.19252585
224	0x3e08b2e1	0.13349487
225	0xbdbbe9fa	-0.09175487
226	0x3d3b0787	0.045661476
227	0xbe128072	-0.1430681
228	0xbe16e2e6	-0.14734992
229	0x3e8ca1e5	0.27467266
230	0xbe0cb091	-0.1373923
231	0xbe462201	-0.19348909
232	0xbe506276	-0.2035006
233	0x3e2b694e	0.1673939
234	0xbd38c65e	-0.045111053
235	0x3d428bb6	0.04749652
236	0x3d73de1a	0.059537984
237	0x3cb63f0d	0.022246862
238	0x3d4d95b4	0.050191596
239	0x3e4a072c	0.19729298
240	0x3c959be4	0.018262811
241	0xbe5c74af	-0.21528886
242	0x3d327878	0.04357192
243	0xbd984f9a	-0.07437058
244	0x3e0cd71b	0.13753931
245	0xbcbb66cf	-0.022876171
246	0xbdcd9e52	-0.10039963
247	0xbe4b8039	-0.19873132
248	0xbd085b8e	-0.03329044
249	0xbd27f935	-0.041009147
250	0x3de56978	0.11201757
251	0xbe22f182	-0.1591244
252	0xbddcc554	-0.10779825
253	0x3c36a4f4	0.011147726
254	0xbd9df9df	-0.07713675
255	0xbd96b252	-0.07358231

layer1_1vm.0.bias f4 [64]
0	0x3ae4d676	0.0017458934
1	0xbb910b21	-0.0044263755
2	0xbc2d78a3	-0.010587844
3	0x3bc1c1a9	0.0059129787
4	0x3b3ecc82	0.0029113595
5	0x3a94ebfa	0.001136183
6	0xbb112db0	-0.0022152476
7	0xbaaf07a5	-0.0013353719
8	0xbb90f57c	-0.0044237953
9	0xbaed2f4a	-0.0018095758
10	0xbb519c5f	-0.0031984074
11	0xbb96ffac	-0.004608115
12	0x3b89d5c8	0.004206393
13	0x3a0f81b0	0.0005474342
14	0xbb14cd96	-0.0022705547
15	0x3a6b0b36	0.0008966209
16	0x39986224	0.0002906482
17	0xbbbefcff	-0.0058284993
18	0x3ba687d7	0.0050821113
19	0x3b5df150	0.0033865757
20	0xbb81864b	-0.0039527765
21	0xbb2f24f7	-0.0026724914
22	0x3b921c76	0.004458959
23	0xbbeca25b	-0.0072215027
24	0xbbabb9bc	-0.005240647
25	0xba8dcc59	-0.0010818347
26	0xba9331e5	-0.001123008
27	0xbb8fe48b	-0.004391258
28	0x3aead8f4	0.001791744
29	0x3c3834a0	0.0112430155
30	0x399aa53a	0.00029496272
31	0x3ab4cfcf	0.0013794842
32	0x3c09d514	0.008412618
33	0xbb2e1514	-0.0026562857
34	0x3c18af46	0.009319132
35	0x39c5ebe8	0.00037750532
36	0xbaa1f747	-0.001235702
37	0xbbc1555c	-0.005900068
38	0xbc03af13	-0.008037346
39	0xbab602bc	-0.0013886313
40	0xbb7d1b77	-0.0038621107
41	0xba059e6a	-0.0005097153
42	0xbbc5fd5b	-0.006042165
43	0x3bcf088d	0.006318158
44	0x3b50040f	0.00317407
45	0xbbec0fdf	-0.0072040404
46	0xbbaf664e	-0.005352772
47	0x3aceaed2	0.0015768653
48	0x38904af0	6.880413e-05
49	0x3a92f8f1	0.0011213106
50	0xbb9bcc58	-0.0047545843
51	0x3a32ce1e	0.0006820875
52	0xbaab7261	-0.0013080352
53	0x3ac8df9e	0.0015325432
54	0xbbae28d6	-0.0053149266
55	0xbbb25511	-0.0054422696
56	0xbb2804f4	-0.0025637718
57	0xbad81061	-0.0016484373
58	0x3b465b03	0.003026665
59	0xbba5afe9	-0.0050563705
60	0x3b8bd824	0.0042677093
61	0x3a58137f	0.0008242651
62	0x3b32d004	0.0027284632
63	0xbb660227	-0.0035096498

layer1_1vm.2.weight f4 [64]
0	0x3f80f2c9	1.0074092
1	0x3f816da9	1.0111591
2	0x3f7e6fcf	0.99389356
3	0x3f803783	1.0016941
4	0x3f7dd900	0.9915924
5	0x3f7de8cf	0.9918336
6	0x3f8049cf	1.0022525
7	0x3f7f536e	0.9973668
8	0x3f803746	1.0016868
9	0x3f7f01c4	0.9961207
10	0x3f801623	1.0006756
11	0x3f7dfd17	0.9921431
12	0x3f804665	1.0021483
13	0x3f8016ce	1.000696
14	0x3f822174	1.0166459
15	0x3f7eaecb	0.9948546
16	0x3f7fa062	0.998541
17	0x3f7f905b	0.99829644
18	0x3f8027de	1.0012167
19	0x3f808d31	1.0043088
20	0x3f801b03	1.0008243
21	0x3f80fa23	1.0076336
22	0x3f7edc9f	0.9955539
23	0x3f80184f	1.0007418
24	0x3f802f00	1.0014343
25	0x3f7d82ad	0.9902752
26	0x3f8097f0	1.0046368
27	0x3f80fd3d	1.0077282
28	0x3f7f73ed	0.99786264
29	0x3f80c0c2	1.0058825
30	0x3f80794c	1.0037017
31	0x3f804c5d	1.0023304
32	0x3f807758	1.0036421
33	0x3f80fbbe	1.0076826
34	0x3f807bf5	1.0037829
35	0x3f7f4d2b	0.99727124
36	0x3f801ddc	1.0009112
37	0x3f7e410b	0.99318
38	0x3f8021f1	1.0010358
39	0x3f80e9a1	1.0071298
40	0x3f816048	1.0107508
41	0x3f7f3154	0.99684644
42	0x3f7eddc0	0.99557114
43	0x3f7eeb63	0.9957792
44	0x3f80327d	1.0015408
45	0x3f807eae	1.003866
46	0x3f7f427f	0.9971084
47	0x3f7e6855	0.9937795
48	0x3f7d541e	0.9895648
49	0x3f80747a	1.0035546
50	0x3f8176d1	1.0114385
51	0x3f7ef4af	0.9959211
52	0x3f7e65ad	0.99373895
53	0x3f7d4ff0	0.989501
54	0x3f7faeb8	0.99875975
55	0x3f7d5e0c	0.9897163
56	0x3f805024	1.0024457
57	0x3f8197ed	1.0124489
58	0x3f7f2dda	0.9967934
59	0x3f7fa527	0.9986138
60	0x3f7ff9cd	0.9999054
61	0x3f8036aa	1.0016682
62	0x3f813727	1.0094956
63	0x3f8058b0	1.0027065

layer1_1vm.2.bias f4 [64]
0	0x3be3ad70	0.0069481656
1	0x3c337116	0.010952255
2	0xbc17739b	-0.009243871
3	0x3b03277b	0.0020012546
4	0xbc1101b5	-0.008850505
5	0xbc0ab00b	-0.0084648235
6	0x3acbb9ba	0.0015543022
7	0xbb0004a8	-0.0019534025
8	0xba19aa5f	-0.0005861874
9	0xbb6ccd62	-0.003613316
10	0xba86666c	-0.0010253913
11	0xbbf4e5cc	-0.007473683
12	0x3b56aceb	0.0032756876
13	0x3a38ab94	0.000704461
14	0x3c8a9724	0.016917773
15	0xbbae7a96	-0.005324672
16	0xbae49f26	-0.001744245
17	0xbb000c09	-0.0019538424
18	0x3b4c1013	0.003113751
19	0x3ba1a923	0.0049334927
20	0xb733cc00	-1.0716729e-05
21	0x3c067e4c	0.008208822
22	0xbba736c2	-0.005102963
23	0xbb429f27	-0.0029696913
24	0x39baf830	0.000356616
25	0xbc1b3627	-0.00947336
26	0x3b7cb51b	0.0038560096
27	0x3be463a8	0.0069698878
28	0xbb042fa7	-0.0020170005
29	0x3bbeeb90	0.005826421
30	0x3b8ab5f4	0.0042331163
31	0x3b48fdf5	0.0030668948
32	0x3a2195c0	0.0006163977
33	0x3bf1b06a	0.0073757665
34	0x3b9b084f	0.004731215
35	0xbb9bdbb4	-0.0047564153
36	0x3af4af93	0.0018668048
37	0xbc021910	-0.007940546
38	0x3a93250e	0.0011226253
39	0x3bc93c7c	0.0061412435
40	0x3c36081e	0.011110334
41	0xbb4f171a	-0.0031599463
42	0xbb7c4abb	-0.0038496691
43	0xbb94200e	-0.004520423
44	0x3ae065ce	0.0017120184
45	0x3b9a69ca	0.004712318
46	0xba969514	-0.001148852
47	0xbb779a7e	-0.0037781294
48	0xbc2ed4ca	-0.01067085
49	0x3b29c420	0.0025904253
50	0x3c359797	0.011083505
51	0xbb8f5967	-0.0043746713
52	0xbbb5cf1c	-0.005548371
53	0xbc408bae	-0.011752052
54	0xbb25df2b	-0.002531002
55	0xbc0bb81a	-0.00852778
56	0x3b333a6b	0.0027348052
57	0x3c4486a2	0.01199499
58	0xbb52f74f	-0.0032190864
59	0xbb141cef	-0.0022600254
60	0xb98c6cac	-0.00026783848
61	0x3ae7dbf2	0.001768945
62	0x3c31ec70	0.010859594
63	0x3a8c4760	0.0010702424

layer1_1vm.2.running_mean f4 [64]
0	0xc5b5becb	-5815.849
1	0x45523eb8	3363.92
2	0x458857a4	4362.955
3	0x45682c36	3714.7632
4	0xc5cf3ee2	-6631.8604
5	0xc5b8874f	-5904.9136
6	0xc5c23897	-6215.0737
7	0xc5e77736	-7406.9014
8	0x45a5e436	5308.5264
9	0xc5f31a26	-7779.2686
10	0xc5292dc8	-2706.8613
11	0xc4ab1424	-1368.6294
12	0xc51cd7c6	-2509.4858
13	0x45990d93	4897.697
14	0x4629ef06	10875.756
15	0x460d964a	9061.572
16	0x4586b9df	4311.234
17	0xc4ab217e	-1369.0466
18	0x45f1e68f	7740.82
19	0x45cc30da	6534.1064
20	0x4582bc36	4183.5264
21	0xc3d3c36a	-423.52667
22	0xc262d7cb	-56.710735
23	0x45b37599	5742.6997
24	0x45140a1c	2368.6318
25	0xc60988bb	-8802.183
26	0xc6115aec	-9302.73
27	0xc533a17f	-2874.0935
28	0xc6199665	-9829.599
29	0x4540c379	3084.217
30	0xc4b01938	-1408.7881
31	0xc5e652de	-7370.3584
32	0x444e055c	824.08374
33	0xc5eec95e	-7641.171
34	0x45b91712	5922.884
35	0x45878ebe	4337.843
36	0x4618766e	9757.607
37	0x43d7e12a	431.7591
38	0xc4d43608	-1697.6885
39	0xc6641d69	-14599.353
40	0xc580306c	-4102.0527
41	0xc55f3c78	-3571.7793
42	0xc50edde0	-2285.8672
43	0xc5790098	-3984.037
44	0xc6083cec	-8719.23
45	0x451d20ac	2514.042
46	0x46265107	10644.257
47	0x46321813	11398.019
48	0x462322cd	10440.7
49	0xc5a83f81	-5383.938
50	0x45922f01	4677.8755
51	0x46204d00	10259.25
52	0x4511afb5	2330.9817
53	0xc54b91ed	-3257.1204
54	0x45ad4730	5544.8984
55	0xc433344a	-716.817
56	0xc5a2478b	-5192.943
57	0xc5be6d10	-6093.633
58	0x44942678	1185.2021
59	0xc58f8510	-4592.633
60	0x464ce3fa	13112.994
61	0xc6207af8	-10270.742
62	0x45ae19fd	5571.2485
63	0xc50e62ad	-2278.1672

layer1_1vm.2.running_var f4 [64]
0	0x4b0f6290	9.39688e+06
1	0x4a50bafa	3.4198385e+06
2	0x4aa83db8	5.512924e+06
3	0x4a8f81d4	4.702442e+06
4	0x4b3cbb59	1.2368729e+07
5	0x4b13d332	9.687858e+06
6	0x4b1ec070	1.0403952e+07
7	0x4b8b96aa	1.8296148e+07
8	0x4b0ab370	9.089904e+06
9	0x4b809f2d	1.6858714e+07
10	0x4a166920	2.464328e+06
11	0x4911c4dc	597069.75
12	0x49d22711	1.7215701e+06
13	0x4ad7c615	7.0704745e+06
14	0x4c0c6362	3.680193e+07
15	0x4baaa4b6	2.2366572e+07
16	0x4abcdf87	6.1889955e+06
17	0x491ce1e5	642590.3
18	0x4b896ddd	1.8013114e+07
19	0x4b411a15	1.2655125e+07
20	0x4aa3c69a	5.366605e+06
21	0x481c98e7	160355.61
22	0x4739a3b5	47523.707
23	0x4b0bf4be	9.172158e+06
24	0x49c7109a	1.6307392e+06
25	0x4b9a85da	2.025362e+07
26	0x4bc64e58	2.5992368e+07
27	0x4a10fac2	2.3753445e+06
28	0x4bca5ac2	2.6523012e+07
29	0x4a1943dc	2.511095e+06
30	0x490c8300	575536.0
31	0x4b8f95f7	1.8820078e+07
32	0x48aa5083	348804.1
33	0x4b8bce4d	1.8324634e+07
34	0x4b280665	1.1011685e+07
35	0x4ac48512	6.439561e+06
36	0x4be8e832	3.0527588e+07
37	0x480d7ce7	144883.61
38	0x49a170c4	1.3225205e+06
39	0x4c4918f9	5.2716516e+07
40	0x4a8ffa0d	4.7178305e+06
41	0x4a810324	4.227474e+06
42	0x499bac13	1.2752664e+06
43	0x4a97b430	4.971032e+06
44	0x4ba1d90f	2.1213726e+07
45	0x49fc5197	2.0669949e+06
46	0x4bec7ca6	3.0996812e+07
47	0x4c17d037	3.9796956e+07
48	0x4c012746	3.385679e+07
49	0x4b04669d	8.677021e+06
50	0x4adfee5c	7.337774e+06
51	0x4c0189bc	3.3957616e+07
52	0x49e03d47	1.8369689e+06
53	0x4a46fadd	3.2600872e+06
54	0x4ae8ae78	7.624508e+06
55	0x4880a7b4	263485.62
56	0x4af601ab	8.0611415e+06
57	0x4b25240b	1.0822667e+07
58	0x48dc4846	451138.2
59	0x4a9f4499	5.2188925e+06
60	0x4c2cc387	4.5288988e+07
61	0x4c08832b	3.57859e+07
62	0x4b0032c2	8.401602e+06
63	0x49c986ba	1.6509032e+06

layer1_2vm.0.weight f4 [32, 64]
0	0xbc015146	-0.007892912
1	0xbdddc025	-0.10827664
2	0xbe905497	-0.28189537
3	0x3d917686	0.07102685
4	0xbdc7df99	-0.09759445
5	0x3de43aa8	0.11144
6	0xbe276304	-0.16346365
7	0xbe3e7a1a	-0.18601266
8	0xbb6be829	-0.0035996533
9	0xbda024af	-0.07819497
10	0xbd1a9c67	-0.037746813
11	0xbe8ff4fd	-0.281166
12	0xbc36cc05	-0.0111570405
13	0xbe624588	-0.22096837
14	0x3d11987a	0.035545804
15	0xbc09003f	-0.008361875
16	0x3c364481	0.011124731
17	0xbe9ef367	-0.31045076
18	0x3ca7aa0c	0.020466827
19	0x3d6a533c	0.057208285
20	0x3e3747cb	0.1789848
21	0x3e3f573d	0.18685623
22	0xbd244ed0	-0.040114224
23	0xbe6181e6	-0.22022209
24	0x3e805e17	0.25071785
25	0x3d707c42	0.05871225
26	0xbdf4047a	-0.11914916
27	0xbd679eed	-0.056548048
28	0xbdf09997	-0.11748045
29	0x3d379d9e	0.04482805
30	0x3e401b76	0.18760476
31	0xbe1da23e	-0.15393922
32	0xbce1442a	-0.027498323
33	0x3e75ea64	0.24015194
34	0xbdda5bd0	-0.10662043
35	0x3d953dcb	0.07287177
36	0xbdc1b9a6	-0.09459238
37	0x3dc0ebdc	0.094199866
38	0xbe47aa68	-0.19498599
39	0xbe02cde3	-0.12773852
40	0xbd0b87f5	-0.034065206
41	0xbd8db347	-0.0691896
42	0x3e006c67	0.12541352
43	0xbdb859f4	-0.09001532
44	0x3ea561ca	0.3230117
45	0xbdb47c58	-0.08812779
46	0xbe072af6	-0.13199982
47	0xbd400ee2	-0.046889193
48	0xbd992407	-0.07477575
49	0xbef3e2a3	-0.47633848
50	0xbcca400b	-0.024688741
51	0xbe458740	-0.19289875
52	0x3dc8a4fb	0.097970925
53	0xbe00859b	-0.12550966
54	0xbd93ac41	-0.07210589
55	0xbdb7cc74	-0.08974543
56	0x3e523e94	0.20531684
57	0xbcd59dce	-0.026076224
58	0xbe5238ae	-0.20529434
59	0x3d9c6fe4	0.07638529
60	0xbe1736ee	-0.14767048
61	0xbe3ee367	-0.18641435
62	0xbbe19c20	-0.0068850666
63	0x3e2e2a3b	0.17008297
64	0xbec4ab03	-0.38411722
65	0x3de87383	0.11350157
66	0x3e577077	0.21038996
67	0x3e950241	0.29103282
68	0x3b342aa7	0.0027491243
69	0x3dfd0294	0.12354007
70	0x3e69c00d	0.22827168
71	0x3e651aeb	0.2237355
72	0x3b7be2c5	0.0038434726
73	0xbe571156	-0.21002707
74	0x3e31ba7b	0.17356293
75	0xbc62bed8	-0.013839446
76	0x3e002e93	0.12517767
77	0xbd1dd230	-0.03853053
78	0x3d13eef2	0.036116548
79	0x3e1e5b9d	0.15464635
80	0xbd1b6cad	-0.03794544
81	0xbdbe2b57	-0.0928561
82	0xbe7dbc8c	-0.24778956
83	0xbddc28ba	-0.107499555
84	0x3d85838a	0.0651923
85	0x3e4493a7	0.1919695
86	0x3d96bafe	0.07359885
87	0x3e2c815a	0.16846219
88	0xbeb2c068	-0.3491242
89	0x3d983dde	0.07433675
90	0xbc92855c	-0.017885856
91	0xbd0f57ec	-0.03499596
92	0x39a819a4	0.0003206256
93	0xbed7890b	-0.42096743
94	0xbc223294	-0.009899754
95	0xbd9c4610	-0.07630551
96	0xbdfde1e2	-0.12396599
97	0xbdfbaa75	-0.122883715
98	0xbdc6aa4f	-0.097004525
99	0xbe3d40e1	-0.1848178
100	0x3ce26ecb	0.02764072
101	0x3e10c124	0.14136177
102	0x3e480afb	0.19535439
103	0x3dd6b89c	0.1048443
104	0xbe41c39f	-0.1892228
105	0x3d7dfd01	0.06200886
106	0xbde51c7d	-0.11187074
107	0x3d8e2a95	0.06941716
108	0xbebb350d	-0.36563912
109	0xbd9fa634	-0.077953726
110	0x3e07af6c	0.13250512
111	0x3caf0abe	0.021367427
112	0xbde67fe3	-0.11254861
113	0xbd003679	-0.03130195
114	0x3c7b8b7b	0.015353079
115	0x3d0ad06c	0.033890173
116	0xbdc7f28c	-0.09763059
117	0xbe085bf1	-0.13316323
118	0xbdfabc89	-0.122429915
119	0xbe2392e7	-0.15974008
120	0x3e919bac	0.2843908
121	0xbd3480bd	-0.044068087
122	0x3e15a40e	0.14613363
123	0xbc9166cb	-0.01774921
124	0xbb9e54fe	-0.004831909
125	0xbd0fee6f	-0.035139497
126	0x3d7aa5f0	0.061193407
127	0xbdc23d7b	-0.09484383
128	0x3e7e1097	0.24811016
129	0x3d645fb6	0.05575534
130	0x3d3a27fc	0.04544829
131	0x3ccb51e6	0.024819326
132	0xbeb2871c	-0.34868705
133	0xbd910b29	-0.07082207
134	0x36299600	2.5270274e-06
135	0xbdb3885f	-0.08766245
136	0xbe283a00	-0.16428375
137	0xbe39d7fb	-0.18148796
138	0xbd1b0ddc	-0.037855014
139	0xbd290eba	-0.04127381
140	0xbe082de2	-0.13298753
141	0xbd95afdf	-0.073089354
142	0xbe1c5f85	-0.15270813
143	0xbe22d99f	-0.15903328
144	0xbc0b136e	-0.008488519
145	0x3db66dad	0.08907638
146	0xbd4376ef	-0.047720846
147	0xbdc65ba4	-0.09685448
148	0xbb657b2e	-0.0035016048
149	0xbe08118c	-0.13287944
150	0x3e041024	0.12896782
151	0x3d307569	0.04308072
152	0xbe99c352	-0.3003183
153	0xbd3ca88c	-0.046059176
154	0xbe8826e1	-0.26592162
155	0x3e0e6bb9	0.1390828
156	0x3e405ad6	0.18784651
157	0xbe4cbd4b	-0.19994085
158	0x3de52e74	0.11190501
159	0x3d0e2e90	0.034712374
160	0xbe1e93f0	-0.15486121
161	0x3ccdeb34	0.025136568
162	0xbbd0f050	-0.0063763037
163	0xbd56e779	-0.052466843
164	0x3c848151	0.016174944
165	0xbe1f6863	-0.15567164
166	0x3d0c8c49	0.034313474
167	0xbd65b1b5	-0.056077678
168	0x3c62a516	0.013833305
169	0xbe1de278	-0.15418422
170	0x3d0e2059	0.034698818
171	0xbcbbae79	-0.022910343
172	0xbe8d5ed6	-0.27611417
173	0x3c02ab60	0.007975429
174	0xbcba2802	-0.022724155
175	0xbe8cde84	-0.27513516
176	0x3d6745e4	0.056463137
177	0xbe253ac9	-0.16135706
178	0x3e5f1ce4	0.21788365
179	0x3d257937	0.040398803
180	0xbdf17343	-0.117895626
181	0x3e21cdc9	0.15801157
182	0xbd0c6413	-0.034275126
183	0x3d5c7784	0.053824916
184	0x3cedb763	0.02901811
185	0xbdbf7088	-0.093476355
186	0xbd4edadf	-0.0505017
187	0xbe2be97d	-0.16788287
188	0xbe73d420	-0.23811388
189	0xbdfdd4be	-0.12394093
190	0x3cc902f6	0.024537545
191	0x3c79b392	0.015240567
192	0xbdeb83cf	-0.1149975
193	0xbcb85398	-0.022500798
194	0xbe9fd92e	-0.31220382
195	0x3cf8f140	0.030388474
196	0x3c8ad71a	0.016948272
197	0x3ce363f0	0.027757615
198	0xbdafb14e	-0.0857874
199	0x3b1fa6da	0.0024360926
200	0xbaa1b1f4	-0.0012336359
201	0x3e2ca91d	0.16861387
202	0x3e3ac563	0.1823936
203	0xbdbd1623	-0.09232738
204	0xbe0843ba	-0.13307086
205	0xbd404170	-0.046937406
206	0xbd90002d	-0.070312835
207	0xbe1567fd	-0.1459045
208	0xbd775637	-0.060384955
209	0x3c812f61	0.015769662
210	0x3c0c8cfb	0.008578534
211	0x3d4cb4f3	0.049977254
212	0xbe1425d7	-0.1446756
213	0x3e581040	0.21099949
214	0x3e727a3f	0.23679446
215	0x3d84f788	0.06492525
216	0xbd1171dd	-0.03550898
217	0xbdc9419f	-0.09826969
218	0x3e8158dd	0.2526311
219	0xbcd34c8c	-0.025793336
220	0x3e7390ca	0.23785701
221	0x3d8c34c6	0.06846003
222	0xbd4ab52a	-0.049489178
223	0xbb948883	-0.004532875
224	0x3e1d5b9d	0.15366979
225	0xbe94495f	-0.28962228
226	0x3ccf5070	0.02530691
227	0x3e962ada	0.29329568
228	0xbe428ffc	-0.19000238
229	0xbd369b01	-0.044581417
230	0xbd86cfd4	-0.06582609
231	0xbe4bd28e	-0.19904539
232	0x3e379ad6	0.17930159
233	0xbafe3b4a	-0.0019396332
234	0x3db1da02	0.0868416
235	0xbe7c7b38	-0.24656379
236	0x3d248b45	0.04017188
237	0x3d2e1d4e	0.042508416
238	0xbd2f74bf	-0.042835947
239	0xbce847a8	-0.02835448
240	0x3dfa37f0	0.122177005
241	0x3d0687e4	0.03284444
242	0x3ddcd8c5	0.10783533
243	0xbe220bf3	-0.15824871
244	0xbe480f76	-0.19537148
245	0xbc1c672e	-0.009546084
246	0x3e0266a1	0.12734462
247	0xbcaed239	-0.021340476
248	0xbe1531b4	-0.14569741
249	0xbe201ce9	-0.15636028
250	0xbe2c9b03	-0.16856007
251	0xbe417a01	-0.18894197
252	0xbe97838f	-0.2959256
253	0x3d6d36b9	0.057913516
254	0xbd4b84dd	-0.049687255
255	0xbe2603cc	-0.16212386

layer1_2vm.0.bias f4 [32]
0	0x39e0c588	0.00042871782
1	0xbbc5854c	-0.006027853
2	0xb83e8b00	-4.5428984e-05
3	0xbbb97d76	-0.005660708
4	0x3bb96892	0.0056582177
5	0x3bf00596	0.0073248846
6	0xbc0ffb08	-0.008787878
7	0x3c5692f4	0.01309656
8	0xbbbf360d	-0.005835301
9	0x3b831372	0.004000121
10	0x39d4b748	0.00040572346
11	0xbb292fe3	-0.0025815896
12	0xbc1c2459	-0.00953015
13	0x3c14782a	0.0090618525
14	0xbae97032	-0.0017809926
15	0x3b01de6f	0.0019816419
16	0xbaf1489e	-0.0018408482
17	0x3b13f884	0.0022578547
18	0xbb002a53	-0.0019556477
19	0x3b75aa80	0.003748566
20	0x3bc6337b	0.0060486174
21	0x3cc18448	0.023622647
22	0xbb7f5f3a	-0.0038966672
23	0xba8fa0fc	-0.0010958011
24	0x3bd5698a	0.0065128254
25	0xbb122eb6	-0.0022305674
26	0xbb0785a2	-0.0020679017
27	0x39ecb9b8	0.000451518
28	0xbc2bfc01	-0.010497094
29	0xbc0f8944	-0.008760754
30	0x3c5b1e45	0.013373916
31	0xbb69a077	-0.0035648623

layer1_2vm.2.weight f4 [32]
0	0x3f7fdd72	0.99947274
1	0x3f781d93	0.96920127
2	0x3f810c39	1.0081855
3	0x3f7c935c	0.9866235
4	0x3f7ac45f	0.9795589
5	0x3f7f2ebd	0.9968069
6	0x3f7ee9b7	0.9957537
7	0x3f8033a6	1.0015762
8	0x3f81a931	1.0129758
9	0x3f80548d	1.0025803
10	0x3f812a55	1.0091044
11	0x3f801997	1.0007809
12	0x3f81df86	1.0146339
13	0x3f80568f	1.0026416
14	0x3f8178f5	1.0115038
15	0x3f7f7615	0.99789554
16	0x3f7f11df	0.99636644
17	0x3f8037f8	1.001708
18	0x3f815f6e	1.0107248
19	0x3f8067e1	1.0031701
20	0x3f809a9b	1.0047182
21	0x3f829680	1.0202179
22	0x3f8253d7	1.0181836
23	0x3f7ba77f	0.98302454
24	0x3f7c3cfa	0.9853054
25	0x3f7f5b50	0.99748707
26	0x3f7f03ae	0.9961499
27	0x3f7eef9b	0.9958436
28	0x3f81a75b	1.0129198
29	0x3f7b20dd	0.9809702
30	0x3f806c81	1.0033113
31	0x3f7e9000	0.99438477

layer1_2vm.2.bias f4 [32]
0	0x3b42f3dd	0.0029747405
1	0xbd1948e8	-0.037423044
2	0x3c4e50b2	0.012592481
3	0xbca1bed4	-0.019744314
4	0xbc963a6c	-0.018338405
5	0xbaa05c3a	-0.0012234517
6	0xbc58ad61	-0.0132249305
7	0x3b4205e5	0.0029605564
8	0x3bf81f63	0.007572101
9	0xbc06bd8e	-0.008223904
10	0x3c7acd8c	0.015307795
11	0xbaf601a4	-0.00187688
12	0x3cadb6bc	0.021205299
13	0x3b98186a	0.0046415823
14	0x3cafe68b	0.021472236
15	0xbbd6ca13	-0.006554851
16	0xbc4cdce9	-0.012503841
17	0x3c1b4180	0.009476066
18	0x38a34920	7.786066e-05
19	0x3a961a20	0.0011451878
20	0x3c46a4e0	0.01212427
21	0x3cd633ea	0.026147801
22	0x3caf1600	0.021372795
23	0xbc86353b	-0.016382804
24	0xbc408c23	-0.011752161
25	0xbc13e289	-0.009026178
26	0x3ba9b311	0.005178817
27	0x3c59c264	0.013290975
28	0x3cbe8616	0.023257297
29	0xbcee8b48	-0.029119149
30	0xbb5a6514	-0.0033324407
31	0xbba74ab6	-0.005105342

layer1_2vm.2.running_mean f4 [32]
0	0xbf522849	-0.8209272
1	0xbe0e0e0b	-0.13872544
2	0xbf836974	-1.0266557
3	0xbeff7780	-0.4989586
4	0xbf734829	-0.9503198
5	0xbd5257ce	-0.05135327
6	0xbeaef502	-0.341713
7	0x3f38b29c	0.72147536
8	0xbf371364	-0.7151396
9	0x3c8a7c82	0.016905073
10	0x3f58ac8a	0.84638274
11	0xbd7d277c	-0.061805233
12	0xbeb08b94	-0.3448149
13	0xbe845698	-0.25847316
14	0xbd2269ed	-0.0396518
15	0x3f2eb479	0.6824413
16	0x3efd5732	0.49480587
17	0xbef469f8	-0.47737098
18	0x3f02b864	0.5106261
19	0xbe1f52bb	-0.15558903
20	0x3f41c18b	0.7568595
21	0x3e6d037b	0.23145859
22	0xbebedc25	-0.37277332
23	0xbeab659f	-0.33475968
24	0xbe9cf870	-0.30658293
25	0xbe737866	-0.23776397
26	0x3c2a0a70	0.010378465
27	0xbe39a7c1	-0.181304
28	0xbf3de4c9	-0.74177223
29	0xbe0ef80e	-0.13961813
30	0xbdef5a1c	-0.11687109
31	0x3da68b0b	0.08131989

layer1_2vm.2.running_var f4 [32]
0	0x3f8899c5	1.0671927
1	0x3f44e427	0.7691063
2	0x3f68732c	0.9080074
3	0x3f32038c	0.6953666
4	0x3f700570	0.93758297
5	0x3f1c793c	0.6112249
6	0x3f451c44	0.76996255
7	0x3f6c1014	0.92212033
8	0x3f54e596	0.8316282
9	0x3f2c0bef	0.6720571
10	0x3f4f408a	0.80957854
11	0x3f0af6f3	0.54283065
12	0x3f48c014	0.7841809
13	0x3f202c25	0.6256736
14	0x3f2bd382	0.6711961
15	0x3f3ab04b	0.7292525
16	0x3f4fc2bb	0.8115651
17	0x3f1a829d	0.6035555
18	0x3f3351a0	0.70046425
19	0x3f3d0066	0.7382873
20	0x3f7807a8	0.9688668
21	0x3f6c5e1d	0.92331105
22	0x3f0ccb84	0.5499804
23	0x3f08a37a	0.53374445
24	0x3f1358db	0.5755746
25	0x3f7172aa	0.9431559
26	0x3f83384b	1.0251554
27	0x3f37b724	0.71763825
28	0x3f945d18	1.159091
29	0x3f0c8e4a	0.54904616
30	0x3f06bb03	0.5262911
31	0x3f097d48	0.5370679

layer2.0.weight f4 [32, 64]
0	0xbd9e26b6	-0.07722227
1	0x3dc124b8	0.09430832
2	0xbc9a0246	-0.018799912
3	0x3d79d9c1	0.060998682
4	0xbd0332d4	-0.032030895
5	0x3c3c29cf	0.011484577
6	0xbe3944d1	-0.18092658
7	0x3d2e9fdb	0.04263292
8	0x3e496b07	0.19669734
9	0xbe6b8896	-0.23001322
10	0x3d985620	0.07438302
11	0x3ccf9454	0.025339283
12	0x3bd8d4f5	0.0066171833
13	0xbd4157a9	-0.04720274
14	0x3d9a811d	0.07544158
15	0x3e1f4ded	0.1555707
16	0xbd2cfdf5	-0.04223438
17	0x3b6c2dd8	0.0036038067
18	0x3e4fcf7c	0.20293993
19	0x3e020cba	0.12700167
20	0xbd558b01	-0.052134518
21	0xbe06ec1b	-0.13176005
22	0xbd13ef27	-0.036116745
23	0xbd9b4eee	-0.07583414
24	0x3b8c2c7d	0.0042777644
25	0x3de5a394	0.11212841
26	0x3d756111	0.059907023
27	0xbe46fee8	-0.19433177
28	0x3dc6712e	0.09689556
29	0x3dfceac7	0.12349468
30	0x3d900482	0.0703211
31	0x3d8a649b	0.0675747
32	0xbe7d1b7f	-0.2471752
33	0x3e54fc71	0.20799424
34	0xbe2865a6	-0.16445026
35	0x3e5155c5	0.20442875
36	0x3d632702	0.055457123
37	0xbdc08d29	-0.09401924
38	0xbd25fc12	-0.040523596
39	0xbe6bc916	-0.23025927
40	0x3db20b0c	0.08693513
41	0xbd9f0284	-0.07764152
42	0xbdbd3494	-0.09238544
43	0x3cd7b079	0.026329266
44	0x3e1e80ae	0.15478775
45	0x3e42b251	0.19013335
46	0x3e1e2237	0.1544274
47	0x3e4ebcfe	0.20189282
48	0x3eb1400b	0.34619173
49	0x3eb7cc46	0.35898036
50	0xbd6314a1	-0.055439595
51	0x3b9ef7e7	0.0048513296
52	0x3e4d0681	0.20022012
53	0xbe944b31	-0.28963616
54	0xbdfea540	-0.12433863
55	0x3e3f02cc	0.1865341
56	0x3e0b6122	0.13611272
57	0xbe1dd098	-0.15411603
58	0xbd51af57	-0.051192608
59	0x3d4b2ef7	0.049605336
60	0xbdb03f67	-0.08605843
61	0x3c56af8a	0.013103375
62	0x3c2516a3	0.010076198
63	0xbdbe571a	-0.09293957
64	0x3de68ee5	0.11257724
65	0x3cc66c2e	0.024221506
66	0x3ca63cf0	0.02029273
67	0x3ba7c153	0.0051194816
68	0xbe2a0d0f	-0.16606544
69	0x3e50fd60	0.20409155
70	0x3e780e6c	0.24224252
71	0xbe3420e5	-0.17590673
72	0xbd959d1e	-0.07305358
73	0x3e9b061a	0.30278093
74	0xbdefb11f	-0.11703705
75	0xbe2094df	-0.1568179
76	0xbd8c5be8	-0.06853467
77	0x3d9fc3a0	0.078009844
78	0xbe24443a	-0.16041651
79	0x3d909fbe	0.070617184
80	0xbe087d3f	-0.13329028
81	0xbb3428c8	-0.0027490128
82	0xbe616108	-0.2200967
83	0xbcde4483	-0.027132278
84	0x3ded2cb8	0.11580795
85	0xbd866108	-0.06561476
86	0xbdc06b91	-0.09395517
87	0x3e6856a1	0.22689296
88	0xbe5463f4	-0.20741254
89	0x3e5ba84e	0.21450922
90	0x3ce269b4	0.027638294
91	0x3dd62a95	0.10457341
92	0xbcb59533	-0.02216587
93	0x3e0fbe17	0.14037357
94	0xbdb4b016	-0.08822648
95	0xbe4af0b9	-0.19818391
96	0x3e7928a9	0.24331917
97	0xbdfd4f0b	-0.12368592
98	0xbd34c75c	-0.044135436
99	0x3e466e12	0.19377926
100	0x3e8d557b	0.2760428
101	0xbde286fa	-0.11060901
102	0xbe0dab35	-0.13834842
103	0x3da03ba6	0.07823877
104	0xbe0e7d3c	-0.1391496
105	0x3e33614b	0.17517583
106	0xbc09a884	-0.008401994
107	0x39a7b028	0.0003198397
108	0xbc2def69	-0.010616162
109	0x3e97fef5	0.29686704
110	0x3de3343d	0.11093948
111	0x3dad6298	0.08466071
112	0x3cca4be6	0.024694394
113	0x3df07411	0.11740888
114	0x3ea33648	0.3187735
115	0xbd89a429	-0.06720764
116	0x3d8885d5	0.066661514
117	0x3d917869	0.071030445
118	0x3e8341ee	0.25636238
119	0xbe54c8cb	-0.20779721
120	0x3d4ceb2d	0.05002897
121	0x3d2b9420	0.04188931
122	0x3d091fec	0.03347771
123	0x3e84b8e8	0.25922322
124	0xbe951822	-0.29119974
125	0xbda1d022	-0.07901026
126	0xbc6c1ff0	-0.014411911
127	0x3c9a456e	0.018831935
128	0x3e4a358c	0.19746989
129	0x3e2a90d5	0.16656812
130	0x3e558ad2	0.20853737
131	0xbd14f16a	-0.036363043
132	0xbe07bcdd	-0.1325564
133	0x3e6ebc3f	0.23313998
134	0x3e18224d	0.14856835
135	0x3e07e601	0.13271333
136	0x3e460080	0.19336128
137	0x3e50b438	0.20381248
138	0xbdd67547	-0.10471588
139	0x3dd025d8	0.10163468
140	0xbd839407	-0.06424718
141	0xbdc07895	-0.09397999
142	0x3d9478f8	0.072496355
143	0x3d085344	0.033282533
144	0x3da66298	0.08124274
145	0xbabd7fdb	-0.001445766
146	0x3d87cd74	0.06630984
147	0x3d0b6011	0.034027163
148	0x3cd09fe8	0.025466874
149	0xbe0a751b	-0.13521235
150	0xbcfa6375	-0.030565003
151	0x3e9039cc	0.28169096
152	0xbe30c97a	-0.17264357
153	0x3d81e0c5	0.063416995
154	0x3dfad78d	0.12248144
155	0xbe839b2f	-0.25704333
156	0xbd9bd8bc	-0.07609698
157	0x3e0277f4	0.12741071
158	0x3df8e7c0	0.12153578
159	0xbe487e17	-0.1957935
160	0xbe4645db	-0.19362585
161	0xbd6836c0	-0.05669284
162	0x3de34911	0.11097921
163	0x3d1949de	0.03742396
164	0xbc8ed134	-0.01743374
165	0x3e185dcd	0.14879532
166	0x3c008d6a	0.007846216
167	0x3d5a5acc	0.053309247
168	0x3bc59402	0.006029607
169	0x3dc1c35d	0.09461091
170	0x3d3544fb	0.044255238
171	0xbdbcfe57	-0.09228199
172	0x3dacfb1c	0.08446333
173	0xbd78fefd	-0.06079005
174	0xbe2196b2	-0.15780142
175	0x3d8b6cea	0.06807883
176	0xbd2eae7b	-0.042646866
177	0xbe9a23a7	-0.30105326
178	0x3c99da8a	0.018780965
179	0xbdd6cd9e	-0.10488437
180	0x3ddccc39	0.1078114
181	0xbd488207	-0.04895213
182	0xbe525bcd	-0.20542832
183	0xbdf042cd	-0.11731491
184	0xbdc4ebf6	-0.096153185
185	0x3ded3181	0.11581708
186	0x3e053524	0.13008553
187	0x3ba8d042	0.0051517794
188	0xbe0d7003	-0.1381226
189	0x3e8276b6	0.25481194
190	0xbe1ddd68	-0.15416491
191	0xbdb6daa7	-0.089284234
192	0xbea1586a	-0.31512767
193	0xbe3e3168	-0.18573534
194	0x3df23517	0.11826532
195	0x3e5817f5	0.21102889
196	0x3e830bbe	0.25594896
197	0xbd13f7f3	-0.036125135
198	0xbe42637d	-0.18983264
199	0xbc99a41b	-0.01875501
200	0xbb7a97a1	-0.003823735
201	0xbe694d3f	-0.22783373
202	0xbe3bd346	-0.18342313
203	0x3c1a3a48	0.009413309
204	0xbea06d60	-0.31333447
205	0xbd645488	-0.055744678
206	0xbbf5c0ae	-0.007499776
207	0x3ed3340e	0.41250652
208	0x3cce98ed	0.025219405
209	0x3bb3c7d4	0.005486468
210	0xb9b4c734	-0.00034480693
211	0xbeb5c15c	-0.35499084
212	0xbe23e339	-0.16004647
213	0x3e174091	0.14770724
214	0xbe2e273f	-0.17007159
215	0xbd2cfd2a	-0.042233624
216	0x3db2de98	0.08733863
217	0xbe6df920	-0.23239565
218	0x3df39039	0.11892743
219	0xbcbcb810	-0.023036987
220	0x3e05f462	0.13081506
221	0xbe62c2af	-0.22144578
222	0xbb7b6591	-0.00383601
223	0xbc14303a	-0.009044701
224	0xbcc7aa32	-0.024373148
225	0x3dd90bff	0.10597991
226	0x3e503234	0.20331651
227	0x3d86b64e	0.065777406
228	0x3dc61748	0.09672409
229	0xbdac8964	-0.08424643
230	0xbdbf673c	-0.09345862
231	0xbc752b9c	-0.014964011
232	0x3d942b4c	0.07234821
233	0xbd209df7	-0.039213147
234	0x3e1a31c2	0.15058044
235	0x3cc5ec40	0.024160504
236	0xbdcb9876	-0.09941189
237	0x3cdb52cb	0.026772877
238	0xbe56485c	-0.2092604
239	0x3e90fbcf	0.28317115
240	0xbc706447	-0.0146723455
241	0xbdc45cfa	-0.09588046
242	0xbe32d77c	-0.17465013
243	0x3c3b117f	0.011417746
244	0xbe720fda	-0.2363886
245	0xbddffa3a	-0.10936399
246	0xbc38037e	-0.011231301
247	0xbe55bfb6	-0.20873913
248	0x3e31ece1	0.17375518
249	0x3f08d0c9	0.5344358
250	0x3e26c2b1	0.16285206
251	0xbe7f1aa4	-0.24912506
252	0xbe654b13	-0.2239192
253	0xbe11c843	-0.1423655
254	0x3e35f0a5	0.1776758
255	0xbd86da34	-0.06584588

layer2.0.bias f4 [32]
0	0xbd3fa3bf	-0.04678702
1	0x3d30bb12	0.043147154
2	0xbd258482	-0.040409572
3	0xbcf92125	-0.030411312
4	0x3cab3baa	0.020902473
5	0x3c7d2c22	0.015452417
6	0x3c626e07	0.013820178
7	0x3d0d8251	0.034548108
8	0xbce70c91	-0.028204234
9	0x3d5f0eda	0.054457523
10	0x3c896f0a	0.01677658
11	0xbcfdf425	-0.031000206
12	0xbc8b08ca	-0.016971964
13	0xbc3e343f	-0.011609136
14	0xbce8d210	-0.028420478
15	0x3c4c4215	0.012466927
16	0xbd13eec3	-0.036116373
17	0x3d4969bd	0.049173106
18	0xbc68b2ae	-0.014202757
19	0xbbef2922	-0.0072986046
20	0xbc0b719c	-0.008510973
21	0xbc7f42ec	-0.01557992
22	0xbcdfbb62	-0.02731103
23	0xbcaeee90	-0.02135399
24	0xbd517e58	-0.05114588
25	0xbcb5c0c3	-0.022186643
26	0x3d565700	0.052329063
27	0x3d491d87	0.049100425
28	0x3d62d778	0.05538127
29	0xbcae4fc4	-0.02127827
30	0x3d5cc063	0.05389441
31	0xbd19ac54	-0.03751786

layer2.2.weight f4 [32]
0	0x3f722c32	0.94598687
1	0x3f86a664	1.0519528
2	0x3f73d468	0.9524598
3	0x3f86e276	1.053786
4	0x3f83f1bb	1.0308145
5	0x3f74d576	0.95638216
6	0x3f82530b	1.0181593
7	0x3f86cd36	1.0531375
8	0x3f765cd3	0.9623539
9	0x3f8781d9	1.0586501
10	0x3f722cec	0.94599795
11	0x3f77ebd3	0.96844214
12	0x3f86d694	1.0534234
13	0x3f871969	1.055463
14	0x3f870ba0	1.0550423
15	0x3f873c09	1.0565196
16	0x3f717d33	0.94331664
17	0x3f866ed8	1.0502577
18	0x3f86f683	1.054398
19	0x3f85be1d	1.0448643
20	0x3f7178b7	0.9432482
21	0x3f71502a	0.94262946
22	0x3f7758bc	0.9661977
23	0x3f855db5	1.0419222
24	0x3f7208ef	0.9454488
25	0x3f874383	1.0567478
26	0x3f86ca43	1.0530475
27	0x3f868571	1.0509473
28	0x3f876b74	1.0579667
29	0x3f735f18	0.95066977
30	0x3f87156b	1.0553411
31	0x3f71790a	0.94325316

layer2.2.bias f4 [32]
0	0xbd5d655c	-0.054051742
1	0x3d54fab3	0.051996898
2	0xbd484a2b	-0.048898857
3	0x3d5f7eb3	0.05456419
4	0x3d12c2d9	0.035830352
5	0xbd44dbe3	-0.048061263
6	0x3c8c8990	0.017155439
7	0x3d647f90	0.055785716
8	0xbd2c8489	-0.042118583
9	0x3d6cdc7e	0.057827465
10	0xbd602089	-0.054718528
11	0xbd33bdd9	-0.043882225
12	0x3d5c0bff	0.053722378
13	0x3d5f4a5e	0.05451428
14	0x3d61a636	0.05509015
15	0x3d684746	0.056708597
16	0xbd6795fa	-0.056539513
17	0x3d54d8a4	0.051964417
18	0x3d5dae12	0.054121085
19	0x3d43f8a0	0.04784453
20	0xbd65bf17	-0.05609044
21	0xbd688672	-0.056768842
22	0xbd1f9f2f	-0.03897017
23	0x3d38960f	0.045064982
24	0xbd65ba28	-0.056085736
25	0x3d675666	0.05647888
26	0x3d5afd7a	0.05346439
27	0x3d5bcb93	0.05366094
28	0x3d6b7c36	0.057491504
29	0xbd6119e6	-0.05495634
30	0x3d6b0403	0.057376873
31	0xbd66fc05	-0.05639269

layer2.2.running_mean f4 [32]
0	0x3ee5d458	0.44888568
1	0x3ef89566	0.48551482
2	0x3e8d440f	0.27590987
3	0xbebc1d3d	-0.36741057
4	0x3f2f6e2e	0.68527496
5	0xbe621522	-0.22078374
6	0x3ecee782	0.40411
7	0x3e04dea1	0.12975551
8	0x3c8bc00d	0.01705935
9	0x3eb938dd	0.36176196
10	0xbedc4755	-0.43023172
11	0x3e9edf2e	0.31029648
12	0xbf106363	-0.5640165
13	0xbf372d28	-0.7155328
14	0xbf0f5d55	-0.5600179
15	0xbf8b481a	-1.0881379
16	0x3d2e904d	0.042618085
17	0x3e967b22	0.29390818
18	0xbe425261	-0.18976738
19	0xbf13e43e	-0.57770145
20	0x3f48f301	0.78495795
21	0xbcc702c9	-0.02429332
22	0x3d22e09c	0.039764985
23	0xbe3b507b	-0.1829242
24	0x3d7deb52	0.061991997
25	0xbf1a384f	-0.6024217
26	0x3eb84c67	0.3599579
27	0x3eef9476	0.46792954
28	0x3eb7615b	0.35816464
29	0x3f25adfb	0.647186
30	0x3eefc351	0.46828702
31	0x3f192de7	0.59835666

layer2.2.running_var f4 [32]
0	0x3f1be905	0.60902435
1	0x3f1f6871	0.6226874
2	0x3f07c48f	0.530343
3	0x3f534375	0.82524806
4	0x3f6adf69	0.91747147
5	0x3f5976d0	0.8494692
6	0x3f58c2b8	0.8467212
7	0x3f60bad1	0.8778506
8	0x3f13d786	0.5775074
9	0x3f16ee55	0.58957416
10	0x3f3a954b	0.72884053
11	0x3edb2853	0.42804202
12	0x3f448538	0.76765776
13	0x3f3a4e32	0.72775567
14	0x3f9ead50	1.2396641
15	0x3f73aa38	0.9518161
16	0x3f146b10	0.57975864
17	0x3f076179	0.52883106
18	0x3f12f70e	0.57408226
19	0x3f4dbfe2	0.80370915
20	0x3f447a14	0.76748776
21	0x3f0de8ba	0.5543324
22	0x3f7e0c04	0.99237084
23	0x3ef16ccd	0.4715332
24	0x3f08ce97	0.5344023
25	0x3f3fd2f8	0.7493129
26	0x3f201e16	0.6254591
27	0x3f4ae615	0.7925733
28	0x3f0e61e7	0.5561814
29	0x3f3d54e6	0.7395767
30	0x3fa1c1d9	1.2637283
31	0x3f3996f6	0.72495973

fc_advantage.0.weight f4 [20, 32]
0	0x3e157a37	0.14597403
1	0x3e34c9d1	0.17655112
2	0x3e52be17	0.20580326
3	0xbd1c49be	-0.038156264
4	0x3ea8e21d	0.3298501
5	0x3e464962	0.19363931
6	0xbec7b35c	-0.39004028
7	0xbd093226	-0.03349509
8	0x3e6e5289	0.23273672
9	0x3b208726	0.0024494617
10	0x3e3c25b2	0.18373755
11	0xbeacc00a	-0.33740264
12	0x3e16dc5b	0.14732496
13	0xbe888f15	-0.26671663
14	0x3dd907c1	0.10597182
15	0xbbc8dcec	-0.0061298516
16	0x3d412076	0.047150098
17	0xbe671328	-0.22565901
18	0xbd1c4ee5	-0.038161177
19	0xbdb2d180	-0.08731365
20	0x3e25ba5e	0.16184375
21	0xbd973572	-0.07383241
22	0xbd6a252f	-0.057164367
23	0x3c36e3b8	0.011162691
24	0xbe140b8e	-0.14457533
25	0xbe544b4a	-0.20731845
26	0xbea8f98e	-0.33002895
27	0xbe3cf446	-0.18452558
28	0xbc31404e	-0.010818554
29	0xbbaaaa53	-0.0052082925
30	0x3d3b08fb	0.04566286
31	0x3efca162	0.49341875
32	0xbe6a9e64	-0.22911984
33	0xbddde48e	-0.10834609
34	0x3da9b94c	0.08287296
35	0x3e99a842	0.30011183
36	0xbdc51b3f	-0.096243374
37	0x3de40745	0.11134199
38	0xbd63d263	-0.055620562
39	0xbe21fe99	-0.15819778
40	0xbe54f734	-0.20797426
41	0x3a828fe8	0.00099611
42	0xbe631208	-0.22174847
43	0xbe3ef159	-0.18646754
44	0xbe357f18	-0.17724264
45	0xbc607514	-0.013699789
46	0xbe938a00	-0.28816223
47	0x3ec0ccd2	0.37656265
48	0x3e4a5963	0.19760661
49	0xbdbba869	-0.09162981
50	0x3d12a6ce	0.03580361
51	0xbeb71f4b	-0.35766062
52	0xbd8c01e9	-0.06836302
53	0x3d43fa80	0.047846317
54	0x3d14eb63	0.036357295
55	0x3c2bf6d9	0.010495865
56	0x3c9e0612	0.019290004
57	0xbe103b60	-0.1408515
58	0x3cc22272	0.023698065
59	0x3ecb1f71	0.39672425
60	0xbe31553f	-0.17317675
61	0xbe554373	-0.20826511
62	0xbd5badea	-0.053632654
63	0xbe9cb9e3	-0.3061057
64	0x3e8f127e	0.27943796
65	0xbe5484b0	-0.20753741
66	0x3e5d798f	0.21628402
67	0xbe4034e8	-0.18770182
68	0x3e7971c0	0.24359798
69	0xbdbf4699	-0.09339637
70	0x3d76a4b8	0.06021568
71	0xbe500e44	-0.20317942
72	0xbcbd3e91	-0.023101123
73	0xbd314ecd	-0.04328804
74	0xbc3bfe27	-0.011474169
75	0x3dca9ec3	0.09893563
76	0x3c4cd0bb	0.012500937
77	0xbe1e7545	-0.15474422
78	0xbe9b96e1	-0.3038855
79	0xbd13bf93	-0.03607137
80	0xbb709fcd	-0.0036716342
81	0x3e18a6d0	0.14907384
82	0x3ecba09b	0.3977097
83	0x3f12fc82	0.57416546
84	0xbe5d326c	-0.21601266
85	0x3e4e57a3	0.20150618
86	0x3da5f5f9	0.08103556
87	0x3d900775	0.07032672
88	0xbd688c19	-0.056774233
89	0xbdc6bc2c	-0.0970386
90	0xbf0a609f	-0.5405368
91	0x3e2549d0	0.16141438
92	0x3e1160cd	0.14197083
93	0x3d49775e	0.049186103
94	0xbce62bf6	-0.028097134
95	0x3e5a59c7	0.2132331
96	0xbe9ae2dd	-0.30251208
97	0xbd32dfe6	-0.043670557
98	0xbebba969	-0.36652687
99	0xbe0defe0	-0.13861036
100	0xbe5d77b8	-0.216277
101	0xbe2a77f4	-0.16647321
102	0x3ddfadad	0.10921798
103	0x3db5d024	0.0887759
104	0x3e1429f4	0.14469129
105	0xbe58ce78	-0.21172512
106	0x3e19a284	0.15003401
107	0x3e356f63	0.17718272
108	0xbec5c3b4	-0.38625872
109	0x3b967299	0.004591298
110	0xbdc285db	-0.09498187
111	0x3bf0ba8a	0.007346456
112	0x3e0f4931	0.13992764
113	0xbe8bb4e0	-0.27286434
114	0xbe8baeab	-0.272817
115	0x3e68daf1	0.2273977
116	0xbd9b12c1	-0.075719364
117	0xbc44a312	-0.01200177
118	0xbd08656f	-0.03329986
119	0xbe8acdb3	-0.2711006
120	0xbb5f5138	-0.003407551
121	0xbd4290f8	-0.047501534
122	0xbddfd2c4	-0.10928872
123	0x3d5e9f4e	0.054351144
124	0xbe7a93d3	-0.24470453
125	0xbecd1d44	-0.4006139
126	0xbde63fee	-0.11242662
127	0xbc78a894	-0.015176911
128	0xbda4fcba	-0.08056016
129	0x3d348ec6	0.04408147
130	0x3db167fa	0.0866241
131	0xbbdde64f	-0.0067718397
132	0xbd03f06c	-0.032211706
133	0x3d578bb0	0.05262345
134	0x3eeff020	0.46862888
135	0xbe03245c	-0.12806839
136	0xbf18a7ed	-0.59631234
137	0x3da92b13	0.08260169
138	0xbd658bf3	-0.05604167
139	0x3dd6cafe	0.104879364
140	0xbe2d56ca	-0.16927639
141	0x3ba8e5c0	0.0051543415
142	0x3ea01449	0.31265476
143	0x3dc2615b	0.09491225
144	0xbdb14a6c	-0.08656773
145	0x3d82733f	0.06369638
146	0xbd42815a	-0.04748664
147	0xbec7c6a3	-0.39018735
148	0xbdcefe55	-0.10107104
149	0xbeb924b5	-0.36160818
150	0xbbba36ee	-0.0056828177
151	0xbdeabd82	-0.11461927
152	0xbe9c5b90	-0.30538607
153	0x3d0e479e	0.03473627
154	0xbddb2ba2	-0.10701682
155	0x3e3713e0	0.17878675
156	0x3d0c8aa0	0.03431189
157	0xbd3d2a9f	-0.046183225
158	0xbe1e9f08	-0.15490353
159	0xbea097a0	-0.3136568
160	0xbe44bbaa	-0.19212213
161	0xbe4b63e5	-0.19862325
162	0x3de8ca4b	0.11366709
163	0xbe7e4534	-0.24831086
164	0xbdc84ad9	-0.09779901
165	0x3ef73619	0.4828346
166	0x3da3291e	0.07966827
167	0xbe821062	-0.25403124
168	0xbdd2660c	-0.1027337
169	0xbdff6527	-0.12470465
170	0x3ea58efc	0.3233565
171	0xbcaaa310	-0.020829707
172	0x3d24f582	0.040273197
173	0x3e35d8e2	0.17758515
174	0x3e35ceac	0.1775462
175	0xbb2053dc	-0.0024464047
176	0xbe0bd3a6	-0.13654956
177	0x3de18129	0.110109635
178	0x3ea4c024	0.32177842
179	0xbea43b44	-0.32076466
180	0xbd44b222	-0.048021443
181	0x3e5f7dd4	0.21825343
182	0x3e5bc3c6	0.214614
183	0xbe42037b	-0.1894664
184	0xbd6bee42	-0.057600267
185	0xbe815459	-0.25259665
186	0xbe09ffd1	-0.13476492
187	0xbe06ff90	-0.13183427
188	0xbed6ea42	-0.419756
189	0xbe080427	-0.13282834
190	0x3e300ab0	0.17191577
191	0xbe7e2a79	-0.2482089
192	0x3d4e3d58	0.05035147
193	0xbdc4e966	-0.0961483
194	0x3bfa1eba	0.0076330574
195	0xbdd9c36c	-0.10632977
196	0xbe0bd404	-0.13655096
197	0xbdf1d4a1	-0.11808134
198	0x3e8cf5eb	0.2753137
199	0xbdc9217c	-0.0982084
200	0x3c3d367d	0.011548636
201	0xbde5d083	-0.11221411
202	0xbd9c2f35	-0.076261915
203	0xbe06c619	-0.13161506
204	0xbc32b4cf	-0.010907366
205	0xbed83fca	-0.42236167
206	0xbcfe0ed8	-0.031012937
207	0xbe0158aa	-0.12631479
208	0xbeeb7032	-0.45984036
209	0xbe6985dd	-0.22804971
210	0x3bf07ebc	0.0073393267
211	0xbd9c3d2c	-0.07628855
212	0x3e33cd84	0.17558867
213	0x3dd8542d	0.1056293
214	0xbe48f085	-0.19623001
215	0xbf0633b5	-0.5242265
216	0xbede8a54	-0.4346491
217	0xbdeacc1e	-0.114647135
218	0x3d48ea81	0.049051765
219	0x3e2a543f	0.166337
220	0xbe654844	-0.22390848
221	0x3d60d61d	0.054891694
222	0x3d7a44c0	0.06110072
223	0xbdf4ff8a	-0.11962803
224	0xbdc1968c	-0.09452543
225	0xbe8746bf	-0.26421162
226	0xbe5df9c7	-0.21677314
227	0xbca1a97e	-0.01973414
228	0x3dc798a1	0.097459085
229	0x3c4fbdb0	0.012679502
230	0xbd1042f7	-0.035220113
231	0x3d19e848	0.037575036
232	0xbe3fb1f1	-0.18720223
233	0xbee187fb	-0.44049057
234	0xbecc528f	-0.39906737
235	0xbd6de151	-0.058076207
236	0xbda0cd30	-0.078516364
237	0x3c165f3c	0.009177979
238	0xbdd5619b	-0.104190074
239	0xbea02115	-0.3127524
240	0x3e3b9a49	0.18320574
241	0x3d848a9f	0.064717524
242	0x3e233c95	0.15941079
243	0x3e179361	0.14802314
244	0xbe449c1f	-0.1920018
245	0xbcda9f53	-0.0266873
246	0xbea462f7	-0.32106754
247	0x3e57661b	0.21035044
248	0x3e0d295d	0.1378531
249	0x3e8ed611	0.27897695
250	0x3dd9332c	0.106054634
251	0x3db2db55	0.087332405
252	0xbec801f5	-0.39063993
253	0xbdf15ff1	-0.117858775
254	0x3df00f22	0.11721636
255	0x3e1c748b	0.15278833
