save/client-1/eval.pth (torch, 42501 bytes, 27 tensors)

layer1_task.0.weight f4 [32, 3]
00000000: c1e5 503d 85b5 32be 9d6a 8cbe 925a c43e
00000010: 7ef5 9c3e 1e95 f9be 32da 053e fc66 83bd
00000020: e27b 363d 3694 453c 6085 c2bd c991 95be
00000030: 22bb 11be f0e3 c9bd d938 c4bd 6c6e 1cbd
00000040: 168e c6be 8e8e b53d 1f06 bb3e 9d0d 48be
00000050: 8412 043d 5a2d b7be e431 513c 448f 023f
00000060: 0625 783e eddb e03e 75a6 943e b5de af3e
00000070: 45a0 8b3e c625 dc3e 2d14 843d 7e4c 09bc
00000080: 5829 0cbf d41c 463e 5c23 a03e 8147 973e
00000090: b112 c5be 4dc1 983e a487 0c3f 8749 553d
000000a0: 1b1d 593d ecf1 c2bd fa56 23be b9e0 1fbe
000000b0: 697d c6bd 9264 2e3d 27de 60bb 40f8 4c3c
000000c0: 802c 443e 02ed 243f 33b5 04be 1e68 a53d
000000d0: 3efe 2c3e 79f9 5bbe c673 9abd ea0a 62bc
000000e0: a6d2 a6be a84c cfbd b7e5 17be b9fd 17bd
000000f0: 3e72 28be 80b9 55bd 90e2 923e 4881 4c3e
00000100: 7336 603e fe50 80bd 27e6 f6bc 7d11 edbd
00000110: 9084 22be 5641 0cbe 0383 133e 8892 38be
00000120: daee 6a3e c615 2a3e 9ef8 71bc 09fd 5bbe
00000130: 2394 493e 5e36 cf3d 50ea 6a3e 225c 8dbd
00000140: 1317 113c df9c 35bd 20bc 8bbd 1cb5 b6bc
00000150: 0f84 e43d 9a42 913b 5ebf 363e b4f2 5bbd
00000160: dd56 cbbe 3beb e7bd 9606 20bd 6a3d 703e
00000170: 346d f73e 18fb 193d 64dd 9cbe a6f5 e33c
0.05100036 -0.17452057 -0.2742509 0.3835035 0.30656046 -0.4874658 0.13071516 -0.06416127
0.044551738 0.012059262 -0.094980955 -0.29212788 -0.14231542 -0.09857929 -0.09581155 -0.038191244
-0.38780278 0.08865081 0.36528108 -0.19536443 0.03224422 -0.35776788 0.0127682425 0.50999856
0.24232873 0.4391779 0.29033247 0.343496 0.27270713 0.4299757 0.06449161 -0.008380054
-0.54750586 0.19346935 0.31276977 0.2954674 -0.38490823 0.29834977 0.5489447 0.052072074
0.053006273 -0.09518799 -0.15951148 -0.15613069 -0.09691889 0.04257638 -0.00343121 0.012510359
0.191576 0.64424145 -0.12959747 0.080764994 0.1689386 -0.21481885 -0.07541613 -0.013796547
-0.32582587 -0.10122043 -0.14833723 -0.037107203 -0.1644983 -0.05217886 0.28688478 0.19971192
0.2189577 -0.06265448 -0.030139042 -0.11575601 -0.15870881 -0.13696799 0.14405446 -0.18024647
0.22942677 0.16609868 -0.014768748 -0.21483244 0.19685416 0.101177916 0.22940946 -0.069023386
0.008855599 -0.044339057 -0.06822991 -0.022303157 0.11158001 0.0044329884 0.17846438 -0.053698257
-0.3971471 -0.113241635 -0.03906878 0.23460928 0.48325503 0.037592977 -0.30637658 0.027827095

layer1_task.0.bias f4 [32]
00000000: 28fe b439 c3b4 6dbc 61f3 11bc 1512 2cbc
00000010: 321a 103b de06 df3a 48a8 143c 1ebf a93b
00000020: 1233 e03b 9104 65bb 13a1 00bc 14e8 b6ba
00000030: a9c0 253b 1d0f 47bb d019 e2ba 04b3 f0bb
00000040: 6ea0 c83b 9411 42bc cca4 bf3b b506 4c3c
00000050: 3327 83b9 b658 e53b c276 93ba 70ae b8bb
00000060: 3449 5f3c a668 573b ab49 e2bb e789 afbb
00000070: 5a66 9b3b 0825 15ba 4305 87bb 4031 f4bb
0.00034521637 -0.014508429 -0.008908124 -0.010502358 0.002198827 0.0017015596 0.0090733245 0.0051802536
0.0068420256 -0.0034945349 -0.007850903 -0.0013954663 0.0025291836 -0.0030373998 -0.0017250124 -0.007345559
0.0061226403 -0.011845011 0.0058485027 0.012452771 -0.00025015473 0.0069991006 -0.0011250603 -0.005636029
0.013628293 0.0032868772 -0.0069057546 -0.0053570154 0.004742426 -0.0005689417 -0.0041205003 -0.00745216

layer1_task.2.weight f4 [32]
00000000: 26b2 813f be25 813f 9830 813f ea09 803f
00000010: 6fbb 7d3f 7c22 7c3f c9b6 803f 8449 803f
00000020: 650b 803f b7dd 803f 2414 813f 63ff 7d3f
00000030: fac3 7e3f 9126 813f d98c 803f 3415 7c3f
00000040: 7ddd 7e3f 0f82 813f 8f65 7c3f fe7a 803f
00000050: cc57 7d3f 3cb9 803f d945 813f a3f2 7c3f
00000060: 86f6 7d3f 97e4 803f 916f 803f c37a 7e3f
00000070: d35a 803f 7208 803f 4f94 803f 92e9 813f
1.0132492 1.0089643 1.0092955 1.0003026 0.99114126 0.9849012 1.0055782 1.0022435
1.0003477 1.0067662 1.0084271 0.99217814 0.99517787 1.0089895 1.0042983 0.98469853
0.99556714 1.0117816 0.98592466 1.0037534 0.9896209 1.0056529 1.0099441 0.98807734
0.9920429 1.006976 1.0034047 0.9940607 1.0027717 1.0002577 1.004526 1.0149405

layer1_task.2.bias f4 [32]
00000000: 1b4a 683c 48ff bd39 cba9 143c c50f 0ebc
00000010: 5cb8 d7bb 2b5e 82bc 609d a53c 8b48 cabb
00000020: 351d 3f3b 00ee 033c d44a 433c 580f b3ba
00000030: cc7d 2bbb 6f04 47bb 5bc6 ac3b 72c1 b3bc
00000040: 9b48 94bb f00f a13b 15f8 9abc 906e c13b
00000050: 6559 01bc a15c 813c ce45 103c 0812 7cbc
00000060: 0950 383b c85f 373c 529e b93a 0420 10bc
00000070: d2e8 c83b 9c0c 04ba 8c65 b33a 1cdf 853c
0.014177824 0.00036239089 0.009073685 -0.008670752 -0.0065832566 -0.015914043 0.020216644 -0.0061731986
0.0029161696 0.008052349 0.011919696 -0.0013661189 -0.002616751 -0.0030367633 0.0052726693 -0.021942828
-0.004525257 0.00491523 -0.018917123 0.0059030727 -0.0078948485 0.01579124 0.008805705 -0.015385158
0.0028123877 0.01119227 0.0014161563 -0.008796696 0.00613127 -0.00050372793 0.001368688 0.016341738

layer1_task.2.running_mean f4 [32]
00000000: 8002 6445 9779 c146 7f01 1346 e0c3 7144
00000010: 6f25 18c6 4ce5 0cc5 e3e8 af46 ad39 c1c6
00000020: 1686 8346 9c6f b046 46dc 8b45 3cfd 5146
00000030: ec17 c4c6 24ea 3c45 2c27 2bc6 9f66 2a45
00000040: 4260 5b46 8b52 9745 5398 91c5 b1b1 c7c5
00000050: 96b9 29c6 4155 5b46 2ec7 04c5 34a5 16c6
00000060: 807a 7146 d46b 6ec6 9ccb 7946 6ad1 39c5
00000070: f900 de45 9ffd 7ac5 9cd8 15c5 1335 3345
3648.1562 24764.795 9408.374 967.06055 -9737.358 -2254.331 22516.443 -24732.838
16835.043 22583.805 4475.534 13439.309 -25099.96 3022.6338 -10953.793 2726.4138
14040.064 4842.318 -4659.0405 -6390.2114 -10862.396 14037.313 -2124.4487 -9641.301
15454.625 -15258.957 15986.902 -2973.0884 7104.1216 -4015.8513 -2397.538 2867.3171

layer1_task.2.running_var f4 [32]
00000000: 3e6b 9d4b 2eab 7d4e 0eaa de4c a8b8 be49
00000010: 17ae 044d 2a4d f74a 6a7e 664e 9257 474e
00000020: adc7 b94d fbd7 3f4e 3a25 054c 4d3a 7a4d
00000030: 4aa5 814e 5e07 5b4b 1f61 184d 71fe 284b
00000040: af8f 684d f2ee 204c 99dc 164c e2d7 784c
00000050: 62fe 344d 5f1c 854d 92d1 d34a 974b f44c
00000060: 6003 cc4d 05cd 8d4d a7be b74d a600 6c4b
00000070: f71b a84c 5fbb 994b 8b77 024b f6b7 3b4b
2.0633212e+07 1.0639635e+09 1.1674021e+08 1.562389e+06 1.391251e+08 8.103573e+06 9.667611e+08 8.3610125e+08
3.8960886e+08 8.046507e+08 3.490327e+07 2.623828e+08 1.0875466e+09 1.435427e+07 1.5978136e+08 1.1075185e+07
2.4385816e+08 4.218772e+07 3.9547492e+07 6.5232776e+07 1.8978563e+08 2.7915363e+08 6.940873e+06 1.2808108e+08
4.2784666e+08 2.9737795e+08 3.8534064e+08 1.5466662e+07 8.8137656e+07 2.014995e+07 8.550283e+06 1.2302326e+07

layer1_1vm.0.weight f4 [64, 40]
00000000: bb0f 7cbe 2816 47bd b81e eebd de5a 05be
00000010: 465a 62be dbce efbd 40b3 3dbe 28af e73c
00000020: 603b 08be 3ef9 2cbd 25d7 443e 8f97 94be
00000030: 7cb1 1abe 0f0c 2bbd 972d b13d 30ce 8f3e
00000040: 31ee 46be 66e7 d3bd 2502 9cbd 1ad2 9abd
00000050: 78ec c83d 54d7 263e de86 3ebe 7df8 8c3e
00000060: 28d0 363d 05ce 2c3d c9cc 863e 049a 62bd
00000070: cd2c 173e 9497 023b 0cbe 833e 5a9b b3bd
00000080: 4470 3cbe ffec 29be 4f87 9bbe e38b b9bd
00000090: 3c13 32be b5f6 f0bd 9eef c63d 98af 3d3d
000000a0: 8bba fbbc 0804 f0bc b766 99bd 636c c93d
000000b0: c32e 123e 9872 60be 614a 563e bdfb a53d
000000c0: 908e 8e3d 35ac 9f3e 98b2 1fbe 6a22 c73d
000000d0: 4048 aabe 9287 863e 023c a63e c6aa 19be
000000e0: d57c 813d c143 6fbd 39b1 153d 61f3 923e
000000f0: 3e7f 0a3d 5624 d7bd e085 8c3e b04e 493e
00000100: cd21 e03d c39e 103d 39b4 173e b0a2 453e
00000110: c865 aa3c 995b a6bd 3fec 89be 9fb6 56be
00000120: 518e f03d b47c 6d3e 6675 1a3e 33d0 1ebe
00000130: 9f71 8abd a7b7 1e3e f420 163d 2d98 5b3d
00000140: 26f8 cfbd e3e0 483e 847a dbbd 9aca c23d
00000150: b745 c5bd 628f 62bb 43d1 b13c 8ee1 5ebd
00000160: 9d06 2f3e 6414 3d3c 59f4 87be 01d3 2e3e
00000170: d05c 0e3e 828d edbd 3548 193e cc0f 1fbd
00000180: 5d00 de3d 686a bfbd 1535 9cbe 952f a3be
00000190: 7dbe b43e 7b3f 463d 91f0 253e fa55 0fbe
000001a0: 3580 17be 67a6 05be 5c12 c3bd d500 b93d
000001b0: 6581 d8bd c533 aa3e beb5 763c 51de 823d
000001c0: a044 91bc b44e 373d 472d 2dbd a0a8 f43d
000001d0: d2b4 41bc be01 243e b954 723e c229 643e
000001e0: e174 dd3e f56f 5bbd 0855 103e de82 44bd
000001f0: 2b14 c1bd a689 5f3c 24d2 ff3c 3a3f 343d
00000200: 5779 d63d 3318 d8bd cc82 513d b19b c53d
00000210: 32d5 9fbc daa8 e7bd 6f08 8bbd 084f 18bd
00000220: 0622 08be b242 25bc 816d 993d 90e0 ae3c
00000230: 004c 6b3e 0ecb c1bd 892b c5be 14bc 9d3d
00000240: 7022 e9bd 3c18 53be 4a54 c53d 5914 31be
00000250: 4947 913e 69a6 6a3e 9c9d 37bd 909e 50bd
00000260: 860e 53bd b8b6 e03d c4fe ce3d 85f8 e93d
00000270: 6925 b3bd b684 dcbd a3be ce3d ed97 5fbd
00000280: 401d 70bd ac0b b0bd 8d5f 003e 1be2 30be
00000290: 00e6 d63d f218 f4bd 426d a53b da88 c8bd
000002a0: e736 0ebe 7164 973d 1805 d93d 2313 953d
000002b0: e497 c13b 79dd 343e 9711 a03d c695 abb8
000002c0: e064 c53b bc2b 613e 0e4d 5f3d baf4 95bd
000002d0: 2353 3bbe 5f8e 423d 598a b5bd 6e11 8b3e
000002e0: c953 033e 96b2 403c 5f75 34bd 97bb 20be
000002f0: a707 6abd b66e dcbc 7244 4bbe 7dfe 59be
00000300: 4795 87bd 8996 f73d 6c53 ff3d d2a9 82bd
00000310: 6447 afbc 2090 e6bd 00c1 0fbe 2b2f 02bd
00000320: f28b 2c3e 46c4 e33c 2626 13be e0c3 6dbe
00000330: 4fe7 273c d890 b53c 8d49 493e 24ac 1fbd
00000340: f90d 71be fbb9 ad3d e5e7 e83d 4c0a 26be
00000350: bc4d 95bc 3a0a 193e c8bc 97bd 52bb e8bd
00000360: 83fb 45be 77e6 9bbe 7f5a 81bb 00eb c2bb
00000370: 96f7 4abc 96a4 ce3c 2f3b 67bc aa73 48be
00000380: 1847 003e 3258 b7bd 4e1a 193d 4d3c 14be
00000390: 6b6d 1fbe b61c 8b3e 4143 15be 1558 4abe
000003a0: aef7 58be 7730 283e d42f 5bbd 7110 363d
000003b0: e965 513d b817 9a3c 821d 2b3d 5892 473e
000003c0: 3a79 523c cf51 55be d448 1c3d 9a4f 98bd
000003d0: ef9a 063e 2043 8dbc ac16 dabd 145d 48be
000003e0: e206 24bd e153 10bd cd93 d73d faab 21be
000003f0: 19b6 eabd f4a4 363c a4ea abbd 52b2 96bd
-0.24615376 -0.048605114 -0.11626953 -0.13022944 -0.22104749 -0.117093764 -0.1852541 0.028281763
-0.133039 -0.042229883 0.19222696 -0.2902188 -0.15106767 -0.041759547 0.08651274 0.28086996
-0.194268 -0.1034687 -0.076175965 -0.07559605 0.09810728 0.16293079 -0.18606135 0.27533332
0.044632107 0.042188663 0.26328114 -0.055322662 0.14763184 0.0019926773 0.25730932 -0.08769865
-0.18402201 -0.16594313 -0.3037667 -0.090598844 -0.1739015 -0.11765806 0.09713672 0.046310037
-0.030728599 -0.029298797 -0.074902944 0.09835126 0.1427565 -0.21918714 0.20926811 0.08104656
0.069607854 0.3118607 -0.15595472 0.09723361 -0.33258247 0.26275307 0.32467657 -0.15006551
0.06322638 -0.058414225 0.036545966 0.28701308 0.033812754 -0.105049774 0.2744589 0.19658923
0.10943947 0.035307657 0.14814843 0.19300342 0.020800486 -0.081229396 -0.26938054 -0.20968102
0.11745895 0.23192102 0.15083846 -0.15509109 -0.06759953 0.15499745 0.03665252 0.053611923
-0.101547524 0.19617037 -0.107167274 0.095112994 -0.09632438 -0.0034570326 0.02170623 -0.054414324
0.17092367 0.011540506 -0.2655361 0.17072679 0.13902593 -0.11599256 0.14968951 -0.038833424
0.10839913 -0.09346467 -0.30509248 -0.3187224 0.3530158 0.048400383 0.1620505 -0.13997641
-0.14795001 -0.13051759 -0.09524986 0.09033362 -0.10571555 0.33242622 0.015057979 0.0639006
-0.017732918 0.04475279 -0.042279508 0.11946225 -0.011822896 0.1601629 0.23665132 0.22281554
0.43253234 -0.053573567 0.14094937 -0.047976367 -0.09427675 0.013643658 0.031228133 0.04400561
0.104723625 -0.10551491 0.05115013 0.096488364 -0.01951084 -0.11311503 -0.06788718 -0.037184745
-0.13294229 -0.010086702 0.07491589 0.021347314 0.2297821 -0.09462558 -0.38509777 0.07701889
-0.113835216 -0.20614713 0.096352175 -0.17292918 0.283747 0.22915043 -0.044828042 -0.050932467
-0.051527523 0.10972351 0.101071864 0.114243545 -0.0874737 -0.107675 0.10094955 -0.054588247
-0.058621645 -0.08595976 0.1253645 -0.17273752 0.10493088 -0.119188204 0.005048425 -0.09791727
-0.13888131 0.073922046 0.10596675 0.07279041 0.0059079994 0.1766261 0.07815855 -8.181813e-05
0.006023988 0.2198934 0.054516844 -0.073220685 -0.18293433 0.047499057 -0.08864278 0.27161735
0.1282493 0.011761328 -0.044057246 -0.1569656 -0.057136204 -0.02690826 -0.19850329 -0.21288486
-0.06620269 0.12089259 0.12467083 -0.06380047 -0.021396346 -0.112579584 -0.14038467 -0.031783264
0.1685026 0.027803551 -0.14370021 -0.23219252 0.010248019 0.022163793 0.19656964 -0.038982525
-0.23540486 0.084827386 0.11372355 -0.16214865 -0.018225543 0.14945307 -0.07409054 -0.113638535
-0.19334225 -0.30449268 -0.0039475556 -0.0059484243 -0.012388131 0.025224965 -0.014113232 -0.19575372
0.1252712 -0.08952369 0.0373786 -0.14476128 -0.15569083 0.27170342 -0.14576437 -0.19760163
-0.21188232 0.16424738 -0.05351241 0.044449273 0.05112258 0.018810138 0.041776188 0.1948942
0.0128462855 -0.20831989 0.03815539 -0.07437058 0.1314504 -0.017243922 -0.106488556 -0.19566756
-0.040045626 -0.035236243 0.10526238 -0.1578826 -0.114605136 0.011147726 -0.083943635 -0.07358231

layer1_1vm.0.bias f4 [64]
00000000: b76e 47bb 094f 473b ae9b 8bba 0047 50ba
00000010: 004a 193b ba39 10b9 407b 3cbb d36e f1b9
00000020: 4bde 2abb b908 50bb 98dd 673b b2f7 34bb
00000030: 064d 143c 1a23 3abb 2baf 9fbb e1b2 953b
00000040: 9024 01bb 0bc7 c0bb 004d a4b8 74e6 093b
00000050: ae9c 2d3b 6691 8a3b 04a7 8f3b 423f 01bc
00000060: 5723 c7bb 1c4e 86bb 062a 18bb f9a7 29bc
00000070: f8d7 253b 4a62 943a 37c5 fa3b 5c9c 6c3a
00000080: 1a11 c93a e0b7 3fbb b9d5 373c 246d 1eba
00000090: 84b5 cfbb 10f5 16bb 8a7f 80ba ea41 95bb
000000a0: d3d8 ddbb 800a 6bbb 6a2d bcbb b237 373c
000000b0: 5a0c bc3b ae1f 38ba 62cf 9a3a a32d 293c
000000c0: 3f21 5e3b 003f 59bb c72b 84ba 94a5 853b
000000d0: fed9 863a fd39 493b acf7 c2bb 40db 8bba
000000e0: a69c 8ebb 28c8 1abb a1a9 233b 7a26 58bb
000000f0: 246a 86bb eec6 18bb f6f3 2fba 16e9 0b3b
-0.0030430981 0.00304121 -0.0010651255 -0.000794515 0.0023390055 -0.00013754415 -0.0028759986 -0.00046049673
-0.0026072438 -0.003174348 0.0035379883 -0.0027613458 0.009051567 -0.002840227 -0.0048731766 0.004568443
-0.001970563 -0.005883103 -7.834472e-05 0.0021041902 0.0026491093 0.0042287586 0.0043839235 -0.007888617
-0.006077211 -0.004098667 -0.0023218407 -0.010354989 0.002530573 0.0011320796 0.0076529044 0.0009025985
0.001534018 -0.0029253885 0.011220389 -0.0006043485 -0.006338777 -0.0023034252 -0.0009803635 -0.0045549767
-0.006770232 -0.0035864413 -0.0057427185 0.011182712 0.005738777 -0.00070237636 0.0011811072 0.010325822
0.0033894328 -0.0033149123 -0.0010083847 0.0040785763 0.0010288355 0.003070473 -0.005949935 -0.00106702
-0.00435217 -0.0023617838 0.0024972933 -0.0032981918 -0.0041020084 -0.002331193 -0.0006712073 0.0021348647

layer1_1vm.2.weight f4 [64]
00000000: 73ef 803f c51f 813f e613 7f3f 8218 803f
00000010: 2699 7e3f 5ce9 7d3f c538 813f 7fa4 7f3f
00000020: d3af 803f 35bd 7d3f fa5f 803f 5d93 7e3f
00000030: d9bb 7f3f ac4d 7d3f 88da 813f f68b 7e3f
00000040: 61aa 803f 5b32 803f 1819 803f f564 7f3f
00000050: 0efd 803f 4af3 7e3f 9de9 7e3f d591 813f
00000060: 852f 803f d03e 803f e935 803f a233 813f
00000070: 8b35 803f 2dbf 803f 2a23 7e3f da54 803f
00000080: 9a7c 803f f983 7f3f 0231 7f3f 2a8b 803f
00000090: ae55 803f 0a27 803f 9f7b 7e3f 72db 813f
000000a0: 6df7 7f3f 9437 7f3f 9cf2 7d3f 86f7 7b3f
000000b0: b166 7f3f 6207 813f c0e5 7d3f c5a5 803f
000000c0: f680 7f3f 8b9b 803f a606 803f 1a18 7f3f
000000d0: 6a4b 803f a9f4 7d3f 00fb 7c3f 1dce 7d3f
000000e0: 3f90 803f 059b 813f ec8e 803f ce28 803f
000000f0: 1bf8 7e3f 36c1 803f dbbe 7f3f 5b56 803f
1.0073074 1.008782 0.9963974 1.0007479 0.99452436 0.99184203 1.009545 0.99860376
1.0053657 0.9911683 1.002929 0.9944361 0.9989601 0.9894664 1.0144815 0.99432313
1.0051996 1.0015367 1.0007658 0.99763423 1.0077226 0.9958998 0.99575216 1.012263
1.0014502 1.0019169 1.0016452 1.0093882 1.001634 1.0058342 0.99272406 1.0025895
1.0038025 0.9981075 0.99684155 1.004247 1.0026147 1.0011914 0.9940738 1.0145094
0.99986917 0.9969418 0.9919832 0.98424566 0.9976607 1.0080378 0.99178696 1.0050589
0.99806154 1.0047468 1.0002029 0.9964615 1.0023015 0.99201447 0.98820496 0.9914263
1.004402 1.0125433 1.0043616 1.0012453 0.9959733 1.0058963 0.999006 1.0026354

layer1_1vm.2.bias f4 [64]
00000000: 20b3 e23b a6a4 0a3c 6375 c4bb 4a9c 843a
00000010: b31f c5bb a02f 0cbc 3658 143c 10e8 56ba
00000020: 0186 2d3b 5c77 0ebc 075b 083b e654 9dbb
00000030: 6c68 8239 0c11 30bc 9451 6a3c 9633 c4bb
00000040: 783b a43b 203d 333a e302 243b 9541 01bb
00000050: 1a02 e13b fc58 5dbb 7692 2cbb e54c 0d3c
00000060: c08a 1639 073d 1e3b 9abd cf3a 4234 0a3c
00000070: ca4f c43a b03a bd3b a4fd a0bb de86 7f3b
00000080: 3804 a83a 06f9 0cbb d31e 833b da1a 1e3b
00000090: 39a6 613b 0031 3a39 5c61 bbbb aae4 6d3c
000000a0: d543 c93b 059f 4fbb 00da 01bc e228 82bc
000000b0: 69ff 08bb 4073 123c 74c4 ef3a aaa0 f63b
000000c0: e835 96ba f414 833b b864 edb9 de5e 67bb
000000d0: 8e40 4e3b 4b91 19bc c02f 58bc 74f5 d2bb
000000e0: 72c6 983b 20bd 453c db61 983b 64d8 4939
000000f0: 3894 83bb 4ade c43b 1067 d439 10d7 c239
0.006918326 0.008462107 -0.005995439 0.0010117379 -0.0060157417 -0.008556277 0.009054234 -0.0008198032
0.0026477578 -0.00869545 0.002080621 -0.0048013804 0.00024873333 -0.010746252 0.014301676 -0.005987595
0.005011972 0.00068374164 0.0025026135 -0.0019722928 0.0068667056 -0.0033774963 -0.0026332415 0.00862429
0.00014356803 0.0024145262 0.0015849352 0.008435311 0.0014977392 0.0057748184 -0.004913049 0.00389903
0.001281864 -0.0021510734 0.0040014773 0.0024124891 0.0034431352 0.00017756596 -0.0057183933 0.01451985
0.0061421194 -0.0031680476 -0.00792551 -0.015888635 -0.002090419 0.008938611 0.00182928 0.007526477
-0.0011460157 0.0040003005 -0.00045279204 -0.0035304348 0.0031471583 -0.009373019 -0.013194978 -0.0064379517
0.0046623284 0.012069017 0.004650337 0.00019249466 -0.004015472 0.0060079442 0.0004051258 0.00037162798

layer1_1vm.2.running_mean f4 [64]
00000000: 8ec1 b6c5 ea66 5945 2212 8b45 8748 6545
00000010: a9be d0c5 7e63 b7c5 6ad2 c3c5 3075 f5c5
00000020: 8b93 a745 4b45 f9c5 139d 20c5 7456 a8c4
00000030: 1ab2 19c5 0208 9745 2ab7 2b46 b565 0846
00000040: 58fa 8945 e2dd a6c4 51b4 f545 2a84 cb45
00000050: 61eb 8545 c396 81c3 e90c 4cc2 231c b445
00000060: 2ff9 1545 f26c 0bc6 3612 12c6 4b32 3ac5
00000070: cc3e 16c6 3537 3a45 7af3 a2c4 9a95 f4c5
00000080: ddde 2a44 701a f2c5 c9f2 bd45 b6ad 8c45
00000090: d1e7 1d46 0d18 c443 bc8c c5c4 789d 60c6
000000a0: 99c8 80c5 f566 67c5 5fe5 02c5 0b3f 71c5
000000b0: 3272 07c6 e621 2545 6e02 2946 bc00 3046
000000c0: 6947 2546 c067 acc5 89eb 9345 4484 2446
000000d0: c23d 1a45 dad0 4cc5 4626 aa45 2e55 16c4
000000e0: fcfa 9ac5 d8d4 bac5 5028 9644 9068 8cc5
000000f0: 9630 4946 694e 28c6 2abd a945 31ae 08c5
-5848.1943 3478.4321 4450.2666 3668.533 -6679.8325 -5868.4365 -6266.302 -7854.6484
5362.443 -7976.6616 -2569.8171 -1346.7017 -2459.1313 4833.001 10989.791 8729.427
4415.293 -1334.9338 7862.5396 6512.5205 4285.4224 -259.17783 -51.012608 5763.517
2399.574 -8923.236 -9348.553 -2979.1433 -9615.699 2979.4504 -1303.6086 -7826.7
683.48224 -7747.3047 6078.348 4501.714 10105.954 392.1879 -1580.398 -14375.367
-4121.0747 -3702.4348 -2094.3357 -3859.9402 -8668.549 2642.1187 10816.607 11264.184
10577.853 -5516.9688 4733.442 10529.066 2467.8599 -3277.0532 5444.784 -601.33093
-4959.373 -5978.6055 1201.2598 -4493.0703 12876.146 -10771.603 5431.6455 -2186.887

layer1_1vm.2.running_var f4 [64]
00000000: 1240 1d4b 2179 5d4a 97f2 bd4a 9530 7f4a
00000010: 1bb7 3a4b 0cb1 234b dfa0 2f4b 512a 6e4b
00000020: 8fe3 074b 5612 7d4b 0a75 014a e900 1249
00000030: bf69 de49 0c39 df4a d883 064c dc2a bd4b
00000040: 0c5a aa4a 6232 2249 6a0c 844b dd97 434b
00000050: 1038 af4a 48e4 1848 f1c4 3d47 a127 0c4b
00000060: 6fef bb49 0a2c a04b 4513 c64b 7aef 194a
00000070: 8382 d94b 414e 0b4a c7b3 0b49 c67a 7b4b
00000080: 5155 8248 9808 864b 4a63 1d4b 47ea b04a
00000090: e0a1 c84b 7871 0d48 742d 7d49 2fe9 5e4c
000000a0: f259 914a be1b 694a c2f2 9f49 3be1 8c4a
000000b0: 7c85 9b4b 7349 0c4a 6b49 f44b 7bab 204c
000000c0: 8812 f54b ca5d f64a c4b0 db4a be0f 024c
000000d0: 5a19 d349 d7db 494a 37a5 f74a e4af 2148
000000e0: df6e 094b ac35 1e4b d306 d148 0c61 984a
000000f0: a4d6 2d4c 7cde fa4b 7d7f 094b b633 b849
1.0305554e+07 3.6286162e+06 6.2242035e+06 4.1810292e+06 1.2236571e+07 1.0727692e+07 1.1509983e+07 1.5608401e+07
8.905615e+06 1.6585302e+07 2.1210265e+06 598030.56 1.8220079e+06 7.314566e+06 3.5262304e+07 2.4794552e+07
5.582086e+06 664358.1 1.730786e+07 1.2818397e+07 5.741576e+06 156561.12 48580.94 9.185185e+06
1.5395659e+06 2.0994068e+07 2.5962122e+07 2.5220785e+06 2.8509446e+07 2.2823842e+06 572220.44 1.6480966e+07
266922.53 1.7568048e+07 1.031457e+07 5.7971555e+06 2.629728e+07 144837.88 1.03701525e+06 5.8434748e+07
4.762873e+06 3.8192475e+06 1.3102962e+06 4.6163495e+06 2.0384504e+07 2.2984608e+06 3.2019158e+07 4.2118636e+07
3.2122128e+07 8.072933e+06 7.198818e+06 3.409484e+07 1.7293232e+06 3.3072538e+06 8.1148435e+06 165567.56
9.006815e+06 1.0368428e+07 428086.6 4.993158e+06 4.5570704e+07 3.2881912e+07 9.011069e+06 1.5089828e+06

layer1_2vm.0.weight f4 [32, 64]
00000000: c44a 823b 6e98 ddbd 8ab5 91be 996f 8d3d
00000010: 5549 babd 53f2 e73d 98fa 1fbe d5e0 33be
00000020: d30e 76bb 5641 a9bd fb8d f7bc 41d6 8fbe
00000030: c809 f439 9a31 5abe 70a9 113d 264e 0abc
00000040: a834 973c 1d35 a4be c0c3 873c 19b2 673d
00000050: 69ff 343e adc4 363e 6ae5 50bd 6b78 6dbe
00000060: e0ce 823e 3bae 6d3d b0a2 f4bd 910d 39bd
00000070: 1d59 efbd 7888 523d e52a 3f3e 2363 28be
00000080: 697f 91bc 1812 753e 2d56 ddbd 5965 953d
00000090: 4bbb d2bd 44c6 d53d 73bb 3fbe c5cc 03be
000000a0: 0cc5 f7bc a837 74bd 9926 043e a0b7 c1bd
000000b0: 6703 a43e 92d5 c2bd 3734 febd a5b2 35bd
000000c0: 1b06 88bd da98 f2be bf47 cbbc 0b7e 3dbe
000000d0: 2a33 d83d 727f fcbd 023e 9dbd 82f8 b7bd
000000e0: d890 553e 0676 d0bc 0a96 55be c7e6 aa3d
000000f0: f2c3 19be c1a4 38be 0a6f 163a 0afa 2e3e
00000100: 79f7 c3be 9c9d ed3d e273 583e 8342 903e
00000110: e054 713a e4a2 fc3d 2591 713e 729e 643e
00000120: cc11 923b 1cd9 4bbe 1ebf 2d3e 108e 28bb
00000130: 49cf ed3d bf7e 2dbd 9ab2 1f3d 521e 213e
00000140: ae66 19bd c2b8 a7bd e239 7abe 78af debd
00000150: 6976 7f3d 69aa 393e 7f14 a43d f22f 2e3e
00000160: 16ae b2be c929 ae3d 30da 98bc c50a 0ebd
00000170: bfc5 5f3b eb4a d7be ee2f b2bc 8090 9abd
00000180: 762f e6bd f9bb fdbd 7aa0 d0bd 4016 3fbe
00000190: 94ce 853c e317 153e 0666 483e b0cf eb3d
000001a0: 970b 42be 3c62 803d 42f2 e3bd e8b5 8c3d
000001b0: 7987 babe 215a 9abd 0fbf 083e 332d af3c
000001c0: 3ce7 e0bd ae88 2ebd c37e 593c b28d 173d
000001d0: a057 c2bd 5f30 05be 31fc f6bd bf0c 2cbe
000001e0: eb95 963e 8050 3ebd eaf4 163e abb3 bcbc
000001f0: ab2d ecba 6cdb e5bc afc7 803d 7c70 d8bd
00000200: 538d 7e3e bda5 503d ecaa 1f3d 25d3 843c
00000210: a69e acbe deda 94bd ec7f 193c 4a5c b1bd
00000220: 9456 25be e0f4 39be 00d4 41bd 1b54 f9bc
00000230: 16de fcbd 9383 a3bd f2cf 1fbe 0910 2abe
00000240: 91a3 8bbc aa57 ca3d 3b43 4bbd cd49 d3bd
00000250: b055 26bc 3cbd 06be f5bf f73d 281b 343d
00000260: 5dbf 99be f503 6dbd dea8 8bbe cff9 0b3e
00000270: c300 4b3e 242e 52be fff8 d43d 326f fe3c
00000280: 4f27 2abe 361e 893c 29d6 5bbc de30 53bd
00000290: 3244 913c 889e 20be 8c05 db3c 78e2 65bd
000002a0: 1fe5 103c a817 17be 8b70 013d 8e30 8dbc
000002b0: c441 8ebe 8c87 163c 00fe b5bc c667 8cbe
000002c0: ae7a 4b3d 79c6 24be 1cc0 5e3e 0c9c 0b3d
000002d0: 9be9 edbd a51e 233e 3738 28bd 5178 6e3d
000002e0: 4efa b03c f49a b3bd 739e 4cbd 1695 29be
000002f0: e93a 79be b8dd f0bd 4210 933c da2f d83c
00000300: c282 e8bd 98d3 01bd 9eb2 a5be 4089 9a3c
00000310: 84e5 af3c 57fe d43c c1c5 a7bd 8bbd f4bb
00000320: 12a7 a9ba a1ac 243e dbe1 3f3e 22d7 ccbd
00000330: 9c9e 0bbe 2756 6dbd dfb3 a7bd ae6e 15be
00000340: 99cd 7bbd d448 b83c f5ad 05bb fe34 493d
00000350: b06a 1ebe 4c01 593e d272 733e 9eab 873d
00000360: 4f60 3abd 1486 e0bd f106 813e c18b b3bc
00000370: bddf 6c3e 8b6f 853d 43c7 68bd 38db 5bbb
00000380: 2580 153e a6bd 99be 71e3 873c 9a53 943e
00000390: 32da 4dbe cc0e 4bbd 9beb 87bd a7ae 4bbe
000003a0: 48c9 3a3e 7bfe 11bc 22e2 bb3d 0dee 82be
000003b0: 75e7 ea3c 8cee 183d fbf4 54bd 110d 23bd
000003c0: 0f46 e63d 55a8 f83c 15cb d23d 927b 25be
000003d0: 08be 46be 3265 c3bb 47c4 f13d a315 ebbc
000003e0: 4b1f 15be 8708 21be 495a 36be f8f5 36be
000003f0: 1ec5 95be fa38 433d 912f 73bd 3a63 26be
0.003976198 -0.10820089 -0.28458816 0.06906051 -0.09096018 0.113255166 -0.15622938 -0.17566235
-0.0037545457 -0.08264415 -0.030219069 -0.2809315 0.00046546594 -0.21307984 0.03556198 -0.008441484
0.018457726 -0.32071772 0.016572833 0.05656633 0.17675556 0.17848463 -0.051000036 -0.23190467
0.25548458 0.058027487 -0.11945093 -0.045178954 -0.11686919 0.051399678 0.18668707 -0.16444068
-0.01776095 0.23932683 -0.10807452 0.07294721 -0.102896295 0.10438207 -0.1872385 -0.12871082
-0.030245326 -0.05962339 0.12905349 -0.09458852 0.32033846 -0.095133916 -0.12412303 -0.04435982
-0.066417895 -0.4738224 -0.024814485 -0.18505113 0.10556634 -0.12328996 -0.07677843 -0.08982946
0.20856035 -0.025446903 -0.20858017 0.083447985 -0.15016153 -0.18031599 0.0005738592 0.1708757
-0.38274744 0.11602327 0.21137956 0.28175744 0.0009206068 0.123357564 0.23590524 0.22326067
0.004457688 -0.1990704 0.16967437 -0.0025719441 0.11611802 -0.042357203 0.038988687 0.15734223
-0.03745144 -0.08189537 -0.24436143 -0.10873312 0.062368784 0.18131413 0.08011722 0.17010477
-0.34898442 0.08504064 -0.018658727 -0.03467824 0.0034144965 -0.42049345 -0.02175137 -0.075470924
-0.11239521 -0.123893686 -0.101868585 -0.18660831 0.016333856 0.14559893 0.19570169 0.115142226
-0.18949734 0.06268737 -0.111301914 0.06870633 -0.36431482 -0.07536722 0.13354133 0.021383857
-0.109816045 -0.042610817 0.013274851 0.037000366 -0.094893694 -0.13006733 -0.120598204 -0.16801737
0.29411253 -0.04646349 0.14741865 -0.023034891 -0.0018018981 -0.02805873 0.062880866 -0.1056833
0.24858598 0.05093931 0.038981363 0.016213963 -0.3371479 -0.07268308 0.009368878 -0.08660181
-0.16146308 -0.18159819 -0.04732132 -0.030435612 -0.12347047 -0.0798408 -0.15606669 -0.1660768
-0.017045768 0.09880002 -0.049624663 -0.10316811 -0.010152265 -0.13158125 0.1209716 0.04397121
-0.3002881 -0.0578651 -0.27277273 0.13669513 0.1982451 -0.20525414 0.10399055 0.031058881
-0.16616558 0.016738039 -0.013417759 -0.051560275 0.017732713 -0.15685475 0.026736043 -0.05612418
0.008843689 -0.14755118 0.03160147 -0.017235067 -0.2778455 0.00918759 -0.022215843 -0.27422923
0.049677543 -0.16091336 0.21752971 0.034084365 -0.11616822 0.15929659 -0.041069236 0.05822021
0.02160373 -0.08769789 -0.049955796 -0.16560778 -0.24338879 -0.117610395 0.017952088 0.026390005
-0.11353065 -0.031695932 -0.32362837 0.018864274 0.021471746 0.026000185 -0.081920154 -0.0074688843
-0.0012943468 0.16081478 0.18738501 -0.10001971 -0.13634723 -0.05794349 -0.081886046 -0.14593002
-0.06147537 0.022495665 -0.0020397876 0.049122803 -0.15470386 0.21191901 0.23774269 0.0662453
-0.045502003 -0.109630734 0.25200608 -0.021917226 0.23132224 0.06515416 -0.056830656 -0.0033547413
0.14599665 -0.30027503 0.016587945 0.28970033 -0.20102766 -0.04957466 -0.06636735 -0.19890843
0.18240845 -0.0089107705 0.09173991 -0.25572243 0.02867482 0.03733687 -0.051991444 -0.039807383
0.11243831 0.030353704 0.10292641 -0.1616042 -0.19408429 -0.005962991 0.11805015 -0.02869684
-0.14562719 -0.15725909 -0.17807879 -0.17867267 -0.2925195 0.04766176 -0.059371535 -0.1624879

layer1_2vm.0.bias f4 [32]
00000000: d1d0 c53b 89af 67bb 00d9 fdb7 5e50 82bc
00000010: c942 403b 4211 83bb 772f 06bb 350e 1e3c
00000020: ca08 d23a a287 d4bb 6086 9e3b ca2b 8fbb
00000030: cde9 42bc 8aff adba 2d29 00bb e09b 09bb
00000040: 8581 56bc fa76 d93a 3905 fc3b 0a9d 45bb
00000050: 3d1a 543a 3826 683c 70b1 82bb 9c74 bf3b
00000060: 65b6 9c3a 0cb8 bf39 8026 823a 6efc a43b
00000070: 384a 0bbc 8bf9 43bc f3ae c53b fe90 0cbc
0.0060368557 -0.003535243 -3.0260999e-05 -0.015907463 0.0029336682 -0.00399986 -0.0020475069 0.009646942
0.0016024348 -0.0064858953 0.004837796 -0.0043692337 -0.011896563 -0.0013275009 -0.0019555793 -0.002099745
-0.013092403 0.0016591244 0.0076910523 -0.0030153417 0.0008091068 0.014169268 -0.0039884374 0.0058427583
0.0011956213 0.00036567484 0.0009929687 0.005034975 -0.008501582 -0.011961351 0.0060328185 -0.008579491

layer1_2vm.2.weight f4 [32]
00000000: 0243 7f3f b23e 783f ac84 7f3f 9840 7d3f
00000010: de9f 793f ef5a 7c3f 5f55 7f3f e8a9 813f
00000020: 66db 813f 3f3a 803f 360d 813f 1c24 803f
00000030: 5ace 823f 8f47 803f cd8c 803f 041e 7f3f
00000040: b51d 7e3f 05c5 7e3f 3567 813f bfb4 803f
00000050: ae55 813f 9d5b 813f a9b9 823f 3eac 793f
00000060: 2b83 7e3f 9f91 7e3f 6f1c 803f a0b2 7f3f
00000070: 5f41 813f 8aaf 7b3f efe4 7d3f 7041 7f3f
0.9971162 0.96970665 0.99811816 0.9892669 0.9750956 0.98576254 0.9973964 1.0129976
1.014508 1.0017775 1.0082157 1.001102 1.0219223 1.0021838 1.0042969 0.99655175
0.9926408 0.9951938 1.0109621 1.0055159 1.0104272 1.0106083 1.0212909 0.97528446
0.99418896 0.9944095 1.0008677 0.99881935 1.0098075 0.98314726 0.9917745 0.99709225

layer1_2vm.2.bias f4 [32]
00000000: fca6 de3b 1f53 19bd 2007 353b 0eba 07bc
00000010: ff9f b8bc 2c28 acbb f98d 1ebb 88b1 6e3c
00000020: 1c9f 323c 148c 02bc b8bc 723c ba9c d7ba
00000030: baa6 e93c 6a0f 303c a3db ab3c 5a24 d2bb
00000040: 3699 8bbc 74aa 1b3c 5c0b d93b bc7e ca3b
00000050: 42a5 403c fef6 853c 8f78 bb3c bd5f cabc
00000060: 6f0d 30bc 690e 95bb ed7c 393b d897 813c
00000070: a350 c43c b7ac e3bc 0138 79bc 38cb 05bc
0.0067948084 -0.037432786 0.0027622655 -0.008284105 -0.02253723 -0.0052538123 -0.002419351 0.014568694
0.010902192 -0.007967968 0.014815502 -0.0016449906 0.028521884 0.0107458625 0.020978754 -0.006413025
-0.01704083 0.009501088 0.0066236686 0.0061796587 0.0117581505 0.016353127 0.022884635 -0.024703855
-0.01074539 -0.004548837 0.0028303221 0.015819475 0.023964232 -0.027792318 -0.015211106 -0.008166127

layer1_2vm.2.running_mean f4 [32]
00000000: f67b 4bbf ed54 e0bd 40a6 70bf 4406 00bf
00000010: 45b1 64bf 948d a5bd b032 a0be 6349 403f
00000020: 54e1 34bf b88c 97bb 62ec 603f ba10 5cbd
00000030: eb4d 9dbe d8c8 83be 2b19 0dbd 160c 2a3f
00000040: 4484 fa3e 08f8 febe 68b6 003f 4b57 3abe
00000050: d0b4 3f3f de12 3c3e 5eda bfbe 04d8 98be
00000060: 0d9b 9dbe 5f80 67be 68a8 8fbc c755 2fbe
00000070: bf88 39bf fa9a 0ebe 4655 04be 3608 a53d
-0.79486024 -0.10953698 -0.9400368 -0.5000956 -0.8933299 -0.080836445 -0.31288671 0.7511198
-0.70656323 -0.0046249293 0.8786069 -0.05372689 -0.3072351 -0.2573917 -0.03444783 0.6642469
0.48929036 -0.49798608 0.5027833 -0.18197362 0.7488527 0.18366572 -0.37471288 -0.29852307
-0.30782357 -0.22607563 -0.017536357 -0.17122565 -0.7247428 -0.13926306 -0.12923154 0.08058207

layer1_2vm.2.running_var f4 [32]
00000000: d87c 833f c617 4a3f e00c 623f 7e21 303f
00000010: 8e01 613f 56f2 1b3f 9d56 493f f7f8 6f3f
00000020: da41 563f b61a 3a3f c90e 4f3f 7601 0c3f
00000030: 61d0 553f 7437 1c3f d875 2d3f ee84 3c3f
00000040: 5cf1 5d3f e75a 203f ce6d 2a3f 2ba7 363f
00000050: c997 753f a4f8 723f eec3 143f 4f97 0a3f
00000060: a847 103f 33eb 6d3f 5ac0 873f 6a00 363f
00000070: f07e 8f3f c811 073f 85e5 ff3e afc5 103f
1.0272474 0.78942525 0.88300896 0.68801105 0.87893 0.6091665 0.78647786 0.93739265
0.8369423 0.7269701 0.80881935 0.5468973 0.83521086 0.61022115 0.6775794 0.73640335
0.8669641 0.62638706 0.665738 0.7134883 0.9593473 0.94910645 0.58111465 0.5413713
0.5635934 0.9293701 1.0605576 0.7109438 1.1210613 0.5276151 0.49979797 0.5655164

layer2.0.weight f4 [32, 64]
00000000: 362f a8bd 05e3 ce3d 52fb 33bc 5d95 783d
00000010: 172b 25bd 443e fb3a 4161 30be b44f 503d
00000020: 3a4b 503e ea85 6cbe 1e81 ad3d fe62 033d
00000030: aefc 2cbb c308 35bd e791 8b3d c9a0 1e3e
00000040: b14e 11bd 40cd b2ba 6472 5b3e 97fc 003e
00000050: a0ab 72bd b8d1 00be 1026 1bbd 94f6 b1bd
00000060: c0b7 133c 4e4a d33d 465a 8c3d e1c6 47be
00000070: 45cf d73d 9b10 e73d d878 7b3d 7ba5 9b3d
00000080: ac62 75be d1da 523e 155a 23be f83e 553e
00000090: 1684 593d 7593 aebd 2466 48bd 83fe 77be
000000a0: 814c a63d 77ee a9bd eacb a8bd eee4 d43c
000000b0: 3ecd 283e 917e 433e 3f65 1a3e d21c 553e
000000c0: 610d b03e 64f6 b33e d7a7 88bd 680f 1d3b
000000d0: 81c2 413e a601 8fbe 15d2 0abe 56cd 463e
000000e0: ab5d 0b3e 7c4f 28be c8dc 50bd 9774 1d3d
000000f0: d7d9 bebd 487c 453c 2ec2 273c d03c c3bd
00000100: 6443 e83d c311 9d3c 69de ae3c 6c0e dfb9
00000110: 4ad3 2abe d59a 503e a88d 793e 9786 34be
00000120: e81e 93bd 21a6 9b3e 9ec3 ebbd 8415 1fbe
00000130: a923 8abd 9eed a23d eeb4 1bbe 55db 923d
00000140: 50a8 0dbe 813b 00bb 1496 6cbe 20ee a8bc
00000150: b0d5 eb3d 1ac6 84bd b188 c1bd 65af 663e
00000160: 69fe 52be 8064 5d3e cd75 f13c 7409 e63d
00000170: ed7b a9bc cb79 143e 74be a5bd 0fc0 49be
00000180: 3b99 813e 7569 f4bd 8b93 15bd c6c0 503e
00000190: 6c46 8d3e 3e5a d3bd 4ddc 0abe 479c 973d
000001a0: 5101 1abe a956 333e 8217 23bc f235 34bc
000001b0: aa9e a6bc 0fc2 923e f799 e33d af9a ae3d
000001c0: 3953 773c b78a f13d 1e14 9d3e 976e 99bd
000001d0: 7952 693d 8382 973d b39d 833e 303a 4bbe
000001e0: 415e 423d dd7b 253d 870e 063d de34 893e
000001f0: d695 92be 0dff 9abd 9828 bfbc 6e1d d43c
00000200: 12ab 553e 0865 333e 7fe9 5c3e 2632 cdbc
00000210: 04f0 fabd 743a 663e e613 193e d755 073e
00000220: fd81 4f3e a3e6 5a3e abbe bebd 667c e63d
00000230: 9676 86bd 8cb5 afbd 5d77 983d c78f 2b3d
00000240: fa81 be3d 21ef 113c bb6e 883d 4c28 103d
00000250: 6eb6 8b3c fcae 02be f95a ecbc 6a7b 903e
00000260: c42c 25be 4801 613d 3d66 093e 25c1 84be
00000270: 5344 83bd 4347 fd3d 4458 e23d 0959 3cbe
00000280: e3e4 48be bbbb 77bd d6a9 ed3d b251 193d
00000290: b348 eabb ec3e 163e 9650 9a3c d08a 5a3d
000002a0: 1e7c 23bb 199c b73d 9c2a 413d c3ae bfbd
000002b0: 8d30 b93d f2b4 4cbd 37d5 16be 87af 853d
000002c0: d0d4 30bd eca0 9cbe f2d2 f63c e0d9 c6bd
000002d0: e8aa eb3d 0ca1 3bbd 0dca 47be f0cf e5bd
000002e0: fcdb acbd 39fb 003e 2eee 053e 9fc6 293b
000002f0: 767f 13be 459f 813e f276 12be f691 c7bd
00000300: dc37 a6be 49e3 48be 2c02 e33d 65a1 4e3e
00000310: 24bb 833e 7764 d5bc 833a 4bbe c855 9cbc
00000320: 69e0 53bc eb39 6fbe 4708 46be 40b8 6338
00000330: 2b84 9ebe e958 85bd 82dd f1bb 8836 ce3e
00000340: 72f6 8c3c 4c03 86bb 6850 c539 9fd3 b5be
00000350: fad5 23be f163 0d3e 2944 2abe 2aa9 28bd
00000360: 4649 9f3d 106d 6abe 095d e73d d368 98bc
00000370: d49e fd3d a065 60be 94c2 9e3b 9e9f a3bc
00000380: 875e 6cbc 31bc dd3d a511 543e 8e07 713d
00000390: 5b1d b53d c7e9 aebd 0c12 cfbd c2bb 70bc
000003a0: c102 863d b3e0 2ebd a220 103e 50d7 c73c
000003b0: 4f7b d1bd 90b1 d73c 1e40 50be 4aae 913e
000003c0: d0e1 c6bc f37f d2bd dbfc 3cbe a087 22b9
000003d0: 5a84 70be 8380 e6bd c6b5 babc 7fb1 54be
000003e0: 8e12 323e 4523 083f 549d 263e 2aaa 84be
000003f0: 17c1 65be fdc0 06be c0b1 343e 6332 87bd
-0.0821213 0.10101894 -0.010985212 0.06068932 -0.040324297 0.0019168337 -0.172246 0.05085726
0.20341197 -0.23097959 0.08471893 0.03207683 -0.0026395726 -0.04419781 0.06814938 0.15491022
-0.035475437 -0.0013641492 0.21430355 0.12596355 -0.059245706 -0.12580001 -0.037878096 -0.08689609
0.009015977 0.10316907 0.06853156 -0.1950946 0.105375804 0.11282464 0.061394542 0.07599922
-0.23963422 0.20591284 -0.15952332 0.20824802 0.053104483 -0.08524219 -0.048925534 -0.24218182
0.08120061 -0.08297437 -0.082420185 0.025988068 0.16484544 0.1909125 0.15077685 0.20811775
0.34385207 0.3514892 -0.06672638 0.0023965482 0.18921854 -0.27930945 -0.13556702 0.19414267
0.1360995 -0.16436571 -0.050991803 0.038441267 -0.093188934 0.012053557 0.010239167 -0.095330834
0.11340979 0.019173509 0.021346288 -0.0004254462 -0.16682163 0.20371564 0.24370444 -0.17629467
-0.07183629 0.30400184 -0.115119204 -0.15535551 -0.06745083 0.07955478 -0.15205738 0.071707405
-0.13833737 -0.0019566717 -0.23104125 -0.02062136 0.11515367 -0.064830974 -0.094499 0.22527845
-0.20604862 0.21620369 0.029475117 0.11232272 -0.020688975 0.14499585 -0.08092967 -0.19702171
0.25312218 -0.11934177 -0.03651766 0.20386037 0.2759279 -0.10319947 -0.135606 0.074028544
-0.15039565 0.17513527 -0.009954335 -0.01099919 -0.020339329 0.2866368 0.11113351 0.08525597
0.015095525 0.11794036 0.3067941 -0.074917965 0.056963418 0.0739794 0.25706252 -0.19846416
0.04745317 0.04040133 0.032728698 0.26798147 -0.2862994 -0.07568178 -0.023334786 0.02589294
0.2086604 0.17519009 0.21573447 -0.025048327 -0.122528106 0.22483236 0.14948997 0.13216339
0.2026443 0.21377043 -0.09313711 0.11254196 -0.06565587 -0.08579549 0.07444642 0.041885164
0.09302135 0.00890711 0.06661745 0.03519468 0.017054763 -0.12762064 -0.028851973 0.28219157
-0.16130358 0.054932863 0.13417907 -0.25928608 -0.06409516 0.12367108 0.110519916 -0.18393339
-0.19618563 -0.060481768 0.11604659 0.037431426 -0.0071497797 0.1467244 0.018837254 0.05335504
-0.0024945806 0.0896532 0.047159776 -0.09359505 0.090424635 -0.04997725 -0.14729773 0.0652762
-0.043171704 -0.30591524 0.030129883 -0.09709525 0.11507207 -0.045807883 -0.1951067 -0.112213016
-0.08440396 0.12595834 0.1307914 0.002590574 -0.14404091 0.25316826 -0.14303187 -0.09744637
-0.32464492 -0.19617952 0.110843986 0.20178755 0.25728714 -0.026048882 -0.19846539 -0.019083872
-0.0129319215 -0.23361938 -0.19339095 5.4292614e-05 -0.3096021 -0.06511099 -0.007381142 0.4027598
0.017207358 -0.0040897485 0.00037634675 -0.35513017 -0.15999594 0.13807656 -0.16627564 -0.041176952
0.07777648 -0.22893167 0.11297042 -0.018604672 0.1238381 -0.21913767 0.004844973 -0.019973572
-0.014426834 0.1082691 0.20709856 0.058845095 0.0884349 -0.08540683 -0.10110864 -0.014693202
0.06543494 -0.04269476 0.14074948 0.024394661 -0.102285974 0.026329786 -0.20336959 0.28453285
-0.024277598 -0.102783106 -0.18455832 -0.00015500048 -0.23487988 -0.112549804 -0.022791754 -0.20770834
0.1738989 0.5317882 0.16270953 -0.25911075 -0.22436939 -0.13159557 0.17645931 -0.066014074

layer2.0.bias f4 [32]
00000000: 75b9 3fbd 6905 2e3d c2cf f1bc fa9e f9bc
00000010: 06e4 a93c 2391 773c 5cb6 8a3b 8011 0e3d
00000020: c040 87bc f331 5f3d 3555 863c 6fd3 c3bc
00000030: 5e45 50bc 76c8 32bb 9641 07bd 488b 413c
00000040: 2892 1dbd 698b 4a3d 3d79 6abc b7b2 3abc
00000050: d1ab f83a 0df5 85bc 4a7e 99bc caec abbc
00000060: 17e7 58bd b06d b8bc aa14 593d b133 2a3d
00000070: f0b5 643d a516 4bbc efaf 5b3d 63e3 f4bc
-0.046807725 0.04248563 -0.029518012 -0.030471314 0.020738613 0.015110287 0.0042331647 0.034684658
-0.016510367 0.054490995 0.016398052 -0.02390453 -0.012711851 -0.0027280129 -0.033021532 0.011812992
-0.038469464 0.049449358 -0.014311132 -0.011395148 0.0018972104 -0.0163522 -0.018736977 -0.020986933
-0.05295476 -0.02251324 0.052998222 0.041553203 0.05583757 -0.012395536 0.05363458 -0.029893583

layer2.2.weight f4 [32]
00000000: 5b0d 723f 82af 863f c976 763f 78e5 863f
00000010: 31ed 833f d474 773f f694 813f 0dd8 863f
00000020: 0810 773f 9a8b 873f cf37 723f 9067 753f
00000030: a5d8 863f ff1a 873f 4a12 873f 0a3b 873f
00000040: 977d 713f 6b65 863f 7af6 863f a0ac 853f
00000050: 1762 713f ba4d 713f 8c85 773f 9a65 853f
00000060: 7ff6 713f 5244 873f 66ca 863f ff86 863f
00000070: 2271 873f 046d 733f a614 873f e374 713f
0.9455163 1.0522311 0.96275 1.0538778 1.030676 0.9666264 1.0123584 1.0534683
0.96508837 1.0589478 0.9461641 0.9586115 1.0534865 1.0555114 1.0552456 1.0564892
0.9433226 1.04997 1.0543969 1.0443306 0.942903 0.94259226 0.9668815 1.0421631
0.9451675 1.0567725 1.0530517 1.0509948 1.05814 0.9508822 1.0553176 0.9431898

layer2.2.bias f4 [32]
00000000: 158f 5ebd 6ef9 543d 3ed3 1bbd 4622 603d
00000010: d9e7 123d 63c8 17bd 0c65 053c 54c7 643d
00000020: 9319 01bd 7321 6d3d a256 5fbd 1356 31bd
00000030: 7906 5c3d 156f 5f3d a525 623d 3e3d 683d
00000040: 688a 67bd 9366 543d df41 5f3d 10d1 413d
00000050: a1aa 66bd bad3 68bd f441 febc e93e 393d
00000060: 52f0 64bd 4252 673d b905 5c3d 4f0d 5c3d
00000070: b2f9 6b3d a90e 60bd 5795 6b3d 029e 67bd
-0.054335672 0.051995687 -0.038043253 0.054720186 0.03586564 -0.037056338 0.008141767 0.055854157
-0.03151853 0.057893228 -0.05452598 -0.043294977 0.05371711 0.054549295 0.055211682 0.05669903
-0.05652848 0.051855635 0.05450618 0.04731852 -0.05631507 -0.056842543 -0.031037308 0.04522601
-0.05589325 0.05647493 0.053716395 0.05372363 0.057611175 -0.05470148 0.05751547 -0.056547172

layer2.2.running_mean f4 [32]
00000000: 1676 ea3e 4653 fa3e 67d1 8f3e e5d1 c8be
00000010: c130 2d3f 6711 6bbe 33e8 c03e 5328 063e
00000020: e309 e13c 44e6 b23e dd37 e4be 0e05 9e3e
00000030: 6794 14bf 725c 37bf 6521 0ebf 3d3c 89bf
00000040: 242f 203d 9ea4 963e 8dee 49be 96d9 13bf
00000050: 6fe7 463f dd90 a2bc 36e5 0e3d 90fd 41be
00000060: b334 943d fa10 1cbf 8897 bd3e 008f ec3e
00000070: a329 c23e 7196 2f3f d0e8 ed3e a90d 213f
0.45793217 0.48891658 0.2808945 -0.39222637 0.6765252 -0.22955857 0.37677154 0.1310132
0.027470535 0.34941304 -0.4457387 0.3086323 -0.58038944 -0.71625435 -0.55519706 -1.0721508
0.039107457 0.29422468 -0.19719906 -0.57753885 0.7769689 -0.019844467 0.03488656 -0.18944383
0.07236614 -0.60963404 0.37029672 0.4620285 0.3792239 0.6858893 0.46466684 0.6291147

layer2.2.running_var f4 [32]
00000000: 9772 133f 87cc 243f a942 0b3f e308 613f
00000010: cf14 733f b184 613f c356 543f f46d 673f
00000020: 8f2c 0f3f cf37 103f ad89 273f 86cd d33e
00000030: d57f 4e3f faec 363f 128e 953f 9642 873f
00000040: 1405 133f 2d51 0a3f b41b 123f 40e2 3c3f
00000050: 1575 3f3f 3276 103f d5ba 643f 7ee4 f93e
00000060: 431c 0a3f ad3a 5d3f ea1c 2b3f 737e 453f
00000070: 76c0 0f3f 5902 313f fa73 9a3f 9fd5 3b3f
0.57596725 0.64374584 0.5439859 0.87904185 0.94953626 0.88093096 0.8294489 0.9040215
0.55927366 0.5633516 0.6544445 0.4136774 0.80663806 0.7145535 1.1683981 1.0567195
0.57429624 0.54030114 0.5707352 0.7378273 0.7478803 0.5643035 0.89347583 0.48807138
0.53949374 0.8641766 0.66840994 0.7714607 0.5615305 0.6914421 1.2066643 0.73372835

fc_advantage.0.weight f4 [20, 32]
00000000: abc9 1d3e c24b 383e bb57 563e 4223 ddbc
00000010: 63de ad3e 0088 513e e5d7 c1be 1d3d f4bc
00000020: 1232 7a3e 98e4 ef3b 5423 3c3e f16e aabe
00000030: 45ea 1a3e 0134 84be 664e f03d 1044 8d3b
00000040: 1ec0 503d cd25 5ebe 4153 1bbd 18df a9bd
00000050: b105 293e dfa4 8fbd 40b9 68bd 0b3c bc3c
00000060: a96b 13be 0863 50be 5e49 a3be b1a2 32be
00000070: 7035 0abc 069b d73b 97dc 413d 236b fd3e
00000080: 26ef 6abe 93e9 ddbd cc57 a93d 3c9f 993e
00000090: 8813 c5bd 7a0b e33d 965e 64bd 5132 22be
000000a0: 4a37 55be a4b4 273a 6b50 63be 74f6 3ebe
000000b0: 40a7 35be 10c8 62bc 2ba2 93be ebc3 c03e
000000c0: 0160 4a3e 74ce bbbd 3267 123d 0920 b7be
000000d0: d777 8cbd ee7e 433d 1d79 133d a545 293c
000000e0: c8e0 9c3c 7441 10be cdb7 c13c 4915 cb3e
000000f0: fa8b 31be b95d 55be 12f4 5cbd 8cc8 9cbe
00000100: b560 8e3e 43aa 60be b6f8 513e d296 40be
00000110: 2156 6d3e a252 c0bd 0fe8 453d ab3d 50be
00000120: 710d 0bbd 86ba 32bd ea5a 98bc 35cb b73d
00000130: 7863 173c 0d8e 1ebe 06fc a0be b9c7 41bd
00000140: 8e0f 70bc 9e60 0c3e 467d c53e e9f4 0f3f
00000150: a543 66be 664e 4e3e c243 a53d 130d 6f3d
00000160: e986 82bd 979a d8bd f3a7 0bbf 5ec6 1a3e
00000170: 5b5b 053e 69ef 473d d9a8 e8bc ad70 503e
00000180: f9c1 9cbe fed2 5bbd 4bc8 c1be 95f6 16be
00000190: 3e25 68be 9481 2bbe 0582 cd3d 1708 a83d
000001a0: 8ef3 073e 85d5 59be b288 113e b904 2a3e
000001b0: 2aa8 cabe 7c17 babb 81ba c8bd ca24 443b
000001c0: 466b 043e d4db 90be d5ec 8cbe 92e6 5c3e
000001d0: 52ad aabd 5f46 b1bc 2dd6 09bd fd5a 90be
000001e0: b231 2dbc 1ef5 24bd ebcc f6bd 3ac6 323d
000001f0: 8e4c 82be 08a7 d1be 29e3 e6bd 7bcc d4bc
00000200: 2c58 babd 64cb 0a3d fe6d 9b3d 699e 86bc
00000210: fdca 20bd 1462 2c3d 3acd ea3e c854 0abe
00000220: 074a 1bbf c688 943d 4bb0 82bd 4da2 d53d
00000230: eb34 34be f3b4 37bb d93b 9c3e ca03 ae3d
00000240: 5707 c6bd fbe8 5b3d 7423 42bd a681 ccbe
00000250: 6a33 cfbd 1764 b9be c357 86bc ccb8 e3bd
00000260: bdc0 a1be f384 d53c 314f dcbd 1d9a 373e
00000270: a62d c33c 0f44 5fbd 4e96 29be fc99 a0be
00000280: 660a 45be a952 44be 8594 e73d 9252 7fbe
00000290: 6194 c5bd 4de3 f63e 8ae2 a23d a132 83be
000002a0: 4734 d9bd 9c0d 00be 193f a63e 86ce b4bc
000002b0: e6ce 253d bbcf 353e dfa4 393e 92a9 2dbb
000002c0: 5abf 0bbe 7048 ea3d 45c9 a43e 7c72 a0be
000002d0: 634f 36bd c2b5 663e ae67 5b3e c474 41be
000002e0: 06e2 7cbd df2c 81be c3f2 08be 7350 07be
000002f0: fbe7 d6be e926 01be d1ba 2f3e 0ff0 80be
00000300: 42fb 4c3d c803 b2bd 38e6 8f3c 0033 d9bd
00000310: 9bcf 0bbe 7dce f2bd b3b5 913e 4988 c9bd
00000320: 6130 a03c 8d8a e6bd 35ea 8bbd a1ca 06be
00000330: 6420 35bc 7c13 d4be a2aa c5bc 7f69 01be
00000340: c427 ebbe ae80 5fbe 4219 6b3c f43e 9cbd
00000350: cd72 3d3e bf19 d83d 164d 49be 7d3e 06bf
00000360: b5fc dabe 26d5 eabd d6ee 683d 0240 2a3e
00000370: 7005 5ebe 946c 603d ed01 793d 8138 f5bd
00000380: 2d3c c2bd aa47 87be 822b 5ebe a514 a5bc
00000390: aa48 b43d 2c7b 483c 43f3 30bd e614 193d
000003a0: e820 40be a8b7 e1be 66a1 d0be b6ef 6dbd
000003b0: b620 a1bd e864 0c3c c878 e5bd a83b a5be
000003c0: 32a1 3b3e 87f4 623d 310d 1a3e 989b 0f3e
000003d0: 5484 4bbe c895 dbbc ee91 a4be 2af4 563e
000003e0: c3ff 0c3e 1ed3 8e3e 9bd0 c33d e94e a43d
000003f0: 8668 ccbe 21c1 f2bd 3168 ef3d 577c 1c3e
0.15408961 0.1799765 0.20931904 -0.026994351 0.3395873 0.20462036 -0.37860027 -0.029814297
0.24433163 0.0073209517 0.18372852 -0.33287767 0.15128429 -0.25820926 0.11733703 0.004311092
0.050964467 -0.21694107 -0.037921194 -0.08294505 0.16506077 -0.070138685 -0.056817293 0.02297785
-0.14396538 -0.20350277 -0.31891912 -0.17444874 -0.008435592 0.0065797595 0.04732951 0.494958
-0.2294279 -0.10835566 0.08268699 0.300043 -0.09622866 0.11086173 -0.055754267 -0.15839507
-0.20821872 0.0006397462 -0.22198646 -0.18648702 -0.17739582 -0.013841644 -0.28834662 0.37649474
0.19763185 -0.09170237 0.035742946 -0.35766628 -0.06858795 0.04772847 0.036004175 0.010331546
0.019150153 -0.14087468 0.023647213 0.39664677 -0.17338553 -0.20836534 -0.0539437 -0.30621755
0.27808157 -0.2193995 0.20505032 -0.18807533 0.23177387 -0.09390761 0.04831701 -0.20336024
-0.033948366 -0.043634914 -0.018598039 0.089743055 0.009240024 -0.15483876 -0.3144228 -0.04730961
-0.014652146 0.13708732 0.3857214 0.5623308 -0.22486742 0.20147094 0.080695644 0.058362078
-0.06373388 -0.10576361 -0.54553145 0.15114734 0.1302313 0.048812304 -0.028400825 0.20355482
-0.3061674 -0.053668015 -0.37848124 -0.14742501 -0.22670457 -0.16748649 0.10034565 0.08204668
0.13276502 -0.21272857 0.14212301 0.16603364 -0.39581424 -0.005679069 -0.09801198 0.0029929155
0.12931547 -0.28292716 -0.27524439 0.2157233 -0.083338395 -0.02164 -0.03365152 -0.2819442
-0.01057093 -0.040272824 -0.12050804 0.043646075 -0.25449032 -0.40947747 -0.11273796 -0.02597641
-0.09098849 0.033885375 0.07589339 -0.016432958 -0.039256085 0.042085722 0.458597 -0.13508904
-0.6065983 0.0725265 -0.063812815 0.10431347 -0.17598312 -0.0028031438 0.3051441 0.084968165
-0.09669369 0.053688984 -0.047397092 -0.39942664 -0.10117228 -0.36209175 -0.01639927 -0.111192316
-0.3159236 0.026064372 -0.10757292 0.17929883 0.023825478 -0.054508265 -0.16561243 -0.3136748
-0.19242248 -0.19172157 0.11307625 -0.24933842 -0.09647442 0.48220292 0.07953365 -0.25624564
-0.10605674 -0.12505192 0.32470015 -0.022071134 0.040480517 0.17755024 0.181293 -0.0026498777
-0.13647214 0.114395976 0.32184806 -0.31337345 -0.044509303 0.22530273 0.2142627 -0.18892199
-0.06173899 -0.25229546 -0.13373856 -0.13214283 -0.41973862 -0.126125 0.17161109 -0.2518315
0.050044306 -0.086921275 0.017565832 -0.106054306 -0.13653414 -0.11855791 0.28458938 -0.098404475
0.019554319 -0.11256895 -0.06831781 -0.13163234 -0.011055086 -0.41421115 -0.024129216 -0.126379
-0.45928776 -0.21826431 0.014349284 -0.07629195 0.18500824 0.10551786 -0.19658312 -0.524391
-0.42770925 -0.11466436 0.056868397 0.1662598 -0.21681762 0.05479105 0.060792852 -0.11973668
-0.09484134 -0.26421863 -0.21696284 -0.020151446 0.08802922 0.012236398 -0.043200742 0.037373446
-0.18762553 -0.4408543 -0.40748137 -0.058089934 -0.07867567 0.00856898 -0.11204678 -0.32272077
0.1832321 0.05540898 0.15044095 0.14024198 -0.19874698 -0.02680482 -0.32142586 0.20991579
0.1376944 0.27895445 0.09561273 0.080228634 -0.39923495 -0.11853243 0.11689795 0.15281807

fc_advantage.0.bias f4 [20]
00000000: 6008 a2bb 6c2f 65bd 7189 36bd 5a4e 10bd
00000010: 5719 25bd 0b43 2cbd 0c09 34bd 2b09 38bd
00000020: 4f28 3dbd e751 f3bc 072c 86bc 77e0 c9bc
00000030: 5942 efbc c44f e3bc 077e 823c 413c ee3c
00000040: 9850 c53c 4b9d 003d 1812 853c e85f fa3c
-0.004944846 -0.05595343 -0.044564668 -0.035230972 -0.04030737 -0.042056125 -0.04395394 -0.04493062
-0.04618102 -0.02970214 -0.016378416 -0.024643166 -0.029206442 -0.027747996 0.015929235 0.029081466
0.024086282 0.031400006 0.01624398 0.03056331

fc_value.0.weight f4 [1, 32]
00000000: 4df4 99be e7af d83d 04a9 01be d826 583e
00000010: 51e4 863d 20ae 6dbd d4cd ed3d 194e 283e
00000020: 33ac a6bd 9e44 9b3e a20a 2dbe 403d 62bd
00000030: b87a 4d3e 01c3 6f3e faac bf3e 869f aa3e
00000040: 62ae 92be 1e8a 383e dc90 423e b0d7 213e
00000050: 7094 77be fe94 3dbf 03a3 9cbc 5710 bd3d
00000060: 0aa7 91be c4bc 533e 9bdd 5c3e 6f5d f73d
00000070: 31f8 b83e 3426 f3bd a734 123e 08a6 12bf
-0.300692 0.10580426 -0.1266213 0.21108568 0.06586517 -0.058027387 0.11611524 0.16436042
-0.08138313 0.30325788 -0.16898587 -0.055234194 0.20066345 0.23414232 0.37436658 0.33324832
-0.2864867 0.18021438 0.19000572 0.15804935 -0.24177718 -0.7405547 -0.019120699 0.09231632
-0.28447753 0.20677477 0.21568911 0.12078368 0.36126855 -0.11872521 0.14277898 -0.57284594
