save/client-1/eval.pth (torch, 42501 bytes, 27 tensors)

layer1_task.0.weight f4 [32, 3]
0	0x3cc0f1f2	0.023552869
1	0x3c8253fd	0.01590919
2	0xbe915a36	-0.28389138
3	0xbe13296f	-0.14371274
4	0xbca4aa0a	-0.020100612
5	0xbc9d1133	-0.01917324
6	0xbec3f95c	-0.38276184
7	0x3d785732	0.06063003
8	0x3ea7b65c	0.32756317
9	0xbd46a8a9	-0.04850069
10	0x3da1a51c	0.0789282
11	0x3e9c6f11	0.30553487
12	0xbc4dfd71	-0.012572632
13	0xbeb64154	-0.35596716
14	0x3cc309d9	0.023808407
15	0x3e2803e9	0.16407742
16	0xbbb9b58c	-0.005667394
17	0xbcd07d09	-0.025450246
18	0xbe986d6e	-0.29770988
19	0xbe73fd38	-0.23827064
20	0x3da6eec6	0.08151011
21	0xbde72fb2	-0.11288394
22	0x3e03744d	0.12837334
23	0x3da622f5	0.08112136
24	0xbcea5ef8	-0.028609738
25	0x3ec6475b	0.38726315
26	0x3cfbfec3	0.030761128
27	0x3d5ceea2	0.053938515
28	0xbe4c2865	-0.19937284
29	0xbe479c5b	-0.19493239
30	0x3d0a64eb	0.03378765
31	0x3d6f0cbf	0.058361765
32	0x3e10e39b	0.14149325
33	0x3ca47e87	0.020079864
34	0x3ee3bd6d	0.44480458
35	0xbe1ea1ef	-0.1549146
36	0xbe6f41ab	-0.23364894
37	0xbe5ddae8	-0.21665537
38	0x3e10ba29	0.14133514
39	0xbdd427e6	-0.103591725
40	0x3ed87941	0.4228001
41	0xbd3c27aa	-0.045936264
42	0xbdf9fecf	-0.12206804
43	0xbe846a6b	-0.2586244
44	0xbeb6911e	-0.3565759
45	0x3df25048	0.11831719
46	0x3e2e6b97	0.1703323
47	0x3eb818d5	0.35956445
48	0x3e708ac7	0.2349044
49	0x3e96a1f1	0.29420426
50	0x3f067e26	0.5253624
51	0x3d0d5e86	0.034513973
52	0xbc0c5c6b	-0.008566956
53	0xbe44b8bb	-0.19211094
54	0x3e1c1268	0.15241396
55	0xbde3fd66	-0.11132316
56	0x3e255a8b	0.1614782
57	0xbcbf56c5	-0.023356805
58	0xbe8d3e36	-0.27586526
59	0xbd1928e0	-0.037392497
60	0xbf0a5d49	-0.5404859
61	0xbdcd61e3	-0.10028436
62	0xbd220f1d	-0.039565194
63	0x3e253087	0.16131793
64	0xbebb170f	-0.3654103
65	0x3ceb4d1f	0.028723298
66	0x3df1d56a	0.118082836
67	0x3e1eff10	0.15526986
68	0xbd78b09e	-0.06071531
69	0xbe68af88	-0.2272321
70	0x3db978ec	0.09056267
71	0x3d4b5b62	0.049647696
72	0xbd90828f	-0.07056152
73	0x3d65315c	0.055955276
74	0xbda24236	-0.07922785
75	0x3e20ad00	0.15690994
76	0x3d3e0ec0	0.046400785
77	0xbe6cb54d	-0.23116036
78	0x3e679d08	0.22618496
79	0x3dd7e24a	0.10541208
80	0x3def696c	0.116900295
81	0xbca3aadc	-0.019978933
82	0xbe0cd8cc	-0.13754576
83	0x3dcc1caa	0.09966405
84	0xbe76b3a1	-0.2409196
85	0xbc4548cb	-0.012041281
86	0xbd868967	-0.06569176
87	0x3ea29cf0	0.3176036
88	0xbea55976	-0.32294816
89	0x3ddc7b7d	0.10765741
90	0x3e0e7b10	0.13914132
91	0x3c4914e2	0.012273045
92	0xbe851831	-0.2599502
93	0x3e098d80	0.13432884
94	0xbf21d554	-0.6321614
95	0x3e53fd55	0.20702107

layer1_task.0.bias f4 [32]
0	0xbb5946de	-0.0033153812
1	0xbc64fa06	-0.013975626
2	0x3bd1544c	0.006388223
3	0xbb2604fa	-0.0025332556
4	0xbbfe3be7	-0.0077586058
5	0xbc864da4	-0.016394444
6	0x3ba836b0	0.0051334724
7	0xbc0d7d4a	-0.008635828
8	0x3b8c0510	0.0042730644
9	0x3a4a4c20	0.0007717032
10	0xbb4d1734	-0.0031294348
11	0x3b928666	0.004471588
12	0x3c0beb6a	0.008540014
13	0xbb4a96ce	-0.003091264
14	0x3c00e97c	0.007868167
15	0x388e06a0	6.772322e-05
16	0x3bbb7d2e	0.0057217097
17	0xba140266	-0.00056461093
18	0xbc11c31a	-0.0088966135
19	0xbbdb8e3a	-0.0067003043
20	0xbb2df483	-0.0026543445
21	0xbba93377	-0.005163606
22	0xbc27b830	-0.010236785
23	0xbc3df007	-0.0115928715
24	0x3c3f3d30	0.011672303
25	0x3a052030	0.00050783437
26	0x3c15be6b	0.009139637
27	0x3aef07e6	0.0018236607
28	0xbbc5afae	-0.0060329055
29	0xb99f1fa8	-0.0003035043
30	0x3bc4dd34	0.006007815
31	0xbb917b0a	-0.004439716

layer1_task.2.weight f4 [32]
0	0x3f80fb24	1.0076642
1	0x3f7d3b33	0.98918456
2	0x3f7cf121	0.98805434
3	0x3f81bbc8	1.0135431
4	0x3f7eb7ff	0.99499506
5	0x3f80eafa	1.0071709
6	0x3f8144cc	1.009912
7	0x3f80702b	1.0034231
8	0x3f8144ea	1.0099156
9	0x3f7e1903	0.99256915
10	0x3f80938d	1.0045029
11	0x3f7f1b94	0.99651456
12	0x3f7f6faa	0.9977976
13	0x3f7e42e6	0.9932083
14	0x3f819dd0	1.0126286
15	0x3f7f00e4	0.99610734
16	0x3f7f5c34	0.99750066
17	0x3f7fc057	0.9990286
18	0x3f7fd0de	0.9992808
19	0x3f7bdda4	0.9838507
20	0x3f81ef61	1.0151178
21	0x3f7d56bd	0.9896048
22	0x3f7d5d51	0.98970515
23	0x3f819b70	1.0125561
24	0x3f81e349	1.0147487
25	0x3f8035d4	1.0016427
26	0x3f7e7f47	0.9941296
27	0x3f82e79a	1.0226929
28	0x3f7f24db	0.9966561
29	0x3f80f277	1.0073994
30	0x3f7fd081	0.99927527
31	0x3f821028	1.016118

layer1_task.2.bias f4 [32]
0	0x3b6bf792	0.0036005718
1	0xbc7a1362	-0.01526341
2	0x3aa7b838	0.001279599
3	0x3c5efa6c	0.01360951
4	0xbbd3d055	-0.006464044
5	0x3b44760d	0.002997759
6	0x3c2b4a33	0.010454702
7	0x3c034deb	0.008014183
8	0x3c4e5a68	0.012594797
9	0xbc57f12e	-0.01318006
10	0x3b41ab8c	0.0029551713
11	0x3a8384d2	0.001003409
12	0x3a8d5a68	0.001078439
13	0xbc1fbf12	-0.009750145
14	0x3c8416c2	0.016124133
15	0xbbd2977e	-0.0064267507
16	0xbac0d3b4	-0.001471153
17	0x3aba3d2a	0.0014208902
18	0xbb858477	-0.004074629
19	0xbc8fba62	-0.017544929
20	0x3c8822fa	0.01661824
21	0xbc6e4521	-0.014542849
22	0xbc831574	-0.01600144
23	0x3bd5d25f	0.0065253223
24	0x3c85ed09	0.016348379
25	0x39c70854	0.00037962443
26	0xbc309f3e	-0.010780154
27	0x3cae4114	0.021271266
28	0xbb8c32a4	-0.004278498
29	0x3bec9209	0.007219557
30	0x3bcc7764	0.0062398184
31	0x3c6676a1	0.014066369

layer1_task.2.running_mean f4 [32]
0	0x444f64f4	829.5774
1	0xc5c4c9b1	-6297.2114
2	0xc67e6cf0	-16283.234
3	0xc5067874	-2151.5283
4	0xc422f192	-651.77454
5	0x45d224e2	6724.6104
6	0xc64c37af	-13069.921
7	0xc58f1925	-4579.143
8	0xc4aecb99	-1398.3624
9	0x44fbe7c0	2015.2422
10	0x44a1c09e	1294.0193
11	0x4417dc8e	607.44617
12	0xc60cbd29	-9007.29
13	0xc585730d	-4270.3813
14	0xc59b36da	-4966.8564
15	0x45a1c67e	5176.8115
16	0x4613ab6c	9450.855
17	0x44b9e604	1487.188
18	0x45c7b186	6390.1904
19	0xc4939e26	-1180.9421
20	0xc6b22147	-22800.639
21	0x45d524b9	6820.5903
22	0x459ccb9e	5017.452
23	0xc60eb561	-9133.345
24	0xc5471c89	-3185.7834
25	0x45d6049d	6848.5767
26	0x460e0c0a	9091.01
27	0xc4199e7f	-614.4765
28	0xc6126380	-9368.875
29	0x4646c95e	12722.342
30	0x45bd7a9e	6063.327
31	0x45ac9c80	5523.5625

layer1_task.2.running_var f4 [32]
0	0x4bd11319	2.7403826e+07
1	0x4e9986a9	1.2878696e+09
2	0x500131e2	8.67012e+09
3	0x4d1f3fe6	1.6698531e+08
4	0x4b81ead0	1.7028512e+07
5	0x4e5cce91	9.2613126e+08
6	0x4f9a2d80	5.1733463e+09
7	0x4e21147b	6.756185e+08
8	0x4bfd49dc	3.3199032e+07
9	0x4c8c5498	7.357357e+07
10	0x4bffa725	3.3508938e+07
11	0x4b5d8cad	1.4519469e+07
12	0x4ed1dd66	1.7604739e+09
13	0x4e079c8f	5.687961e+08
14	0x4e3c28c0	7.891968e+08
15	0x4e4b2bf9	8.5216416e+08
16	0x4f33adb0	3.0145044e+09
17	0x4c90d703	7.5937816e+07
18	0x4ea47f70	1.3799076e+09
19	0x4c2334a1	4.2783364e+07
20	0x507dee9e	1.7041095e+10
21	0x4e4e4c3c	8.6527565e+08
22	0x4e4cac72	8.5846336e+08
23	0x4f20de37	2.6989176e+09
24	0x4d988277	3.1983587e+08
25	0x4eba1441	1.5609448e+09
26	0x4ec0db3b	1.6177965e+09
27	0x4b491e8e	1.3180558e+07
28	0x4ed72065	1.8046122e+09
29	0x4f446725	3.295094e+09
30	0x4e91a21c	1.2216602e+09
31	0x4e6fe983	1.0062645e+09

layer1_1vm.0.weight f4 [64, 40]
0	0x3a88f642	0.0010449367
1	0x3dd1f7f3	0.10252371
2	0x3ce2eac5	0.027699837
3	0xbc489d18	-0.012244485
4	0x3e421740	0.18954182
5	0xbd05ab19	-0.032633875
6	0x3cc27d61	0.023741426
7	0xbde7b3be	-0.1131358
8	0xbdd6eb08	-0.104940474
9	0xbd630484	-0.05542423
10	0xbdc7fcf6	-0.09765045
11	0xbe4d51bb	-0.20050709
12	0xbdb117a0	-0.08647084
13	0xbcc7fa3a	-0.02441131
14	0xbe3c9851	-0.18417479
15	0x3da73c0c	0.0816575
16	0xbd360021	-0.044433717
17	0x3c27cf3d	0.010242281
18	0x3d666940	0.056252718
19	0xbe7d1629	-0.24715485
20	0x3e86338f	0.2621121
21	0xbd839999	-0.06425781
22	0xbd9a4574	-0.075327784
23	0xbd53f610	-0.051748335
24	0xbdec5f18	-0.11541575
25	0xbcf9a7ee	-0.030475583
26	0x3e0589bb	0.13040821
27	0xbe37ef97	-0.1796249
28	0xba04a08c	-0.0005059324
29	0xbe6a86cb	-0.22902982
30	0xbe701f1d	-0.23449369
31	0xbd956f71	-0.072966464
32	0xbc8cc562	-0.017183963
33	0xbc6498bf	-0.013952433
34	0x3e4f4385	0.202406
35	0x3c892388	0.016740575
36	0x3dea6f9c	0.11447069
37	0xbd869f63	-0.06573369
38	0x3ddd41b0	0.108035445
39	0x3d403ec5	0.04693486
40	0x3cf2bc68	0.029630855
41	0xbe51febe	-0.20507333
42	0x3daa3e86	0.08312707
43	0x3e788789	0.24270453
44	0x3d4aa285	0.049471397
45	0x3e06b604	0.13155371
46	0xbdcb5737	-0.09928744
47	0xbbd46b1e	-0.006482496
48	0xbe9eddab	-0.31028494
49	0xbda634a1	-0.08115507
50	0xbd789ce7	-0.06069651
51	0xbc3f824f	-0.011688783
52	0x3e150a7c	0.1455478
53	0x3d3551d4	0.04426749
54	0xbe223196	-0.15839228
55	0xbda5363d	-0.08066986
56	0x3e754720	0.23952913
57	0x3e2c0fcc	0.16802901
58	0x3d4f3e28	0.050596386
59	0x3e3194a8	0.17341864
60	0xbd9efea7	-0.07763415
61	0xbdcbc403	-0.09949496
62	0xbdf26ebd	-0.11837528
63	0x3dfc40aa	0.12317021
64	0xbe431b61	-0.19053413
65	0xbded98cd	-0.1160141
66	0x3d0e52aa	0.034746803
67	0x3e61e3fa	0.22059622
68	0x3e30e15b	0.17273466
69	0xbe424028	-0.18969786
70	0xbdacda06	-0.08440022
71	0xbbf5611c	-0.007488383
72	0x3db0accf	0.086267106
73	0x3d875a75	0.0660905
74	0x3d97155f	0.07377123
75	0xbc1bd498	-0.0095111355
76	0xbe996bd2	-0.29965073
77	0x3e33dd76	0.1756495
78	0x3e2917b3	0.16512947
79	0xbc39372c	-0.011304658
80	0x3b876796	0.0041322215
81	0xbe5786fb	-0.21047585
82	0xbd7650ac	-0.06013553
83	0x3d567c04	0.052364364
84	0xbe278cb1	-0.16362263
85	0x3d8428df	0.06453108
86	0x3dd1a69c	0.10236856
87	0x3d40e2ba	0.047091223
88	0xbe3851bd	-0.1799993
89	0xbe29895a	-0.16556302
90	0xbb106a76	-0.0022036112
91	0x3d653282	0.05595637
92	0x3ce71544	0.028208382
93	0x3d0ff022	0.035141118
94	0x3c85115e	0.016243633
95	0xbc359824	-0.011083636
96	0xbd80d057	-0.06289738
97	0x3e5165db	0.20449011
98	0x3cb16661	0.021655263
99	0x3d26d1e2	0.040727504
100	0x3d95517b	0.07290932
101	0xbca2f04f	-0.019889979
102	0x3da884d3	0.08228459
103	0xbdc30a61	-0.09523464
104	0x3e40f112	0.18841961
105	0x3b501ae9	0.003175432
106	0xbd4d42ac	-0.05011241
107	0x3dd3be8c	0.10339078
108	0xbe3ff865	-0.18747099
109	0xbde87e52	-0.11352219
110	0xbdfea1d3	-0.12433209
111	0x3c8c9a34	0.017163374
112	0x3d840e70	0.06448066
113	0xbba8e4b4	-0.0051542167
114	0x3d1f884e	0.03894835
115	0x3e546f80	0.20745659
116	0x3d59396e	0.053033285
117	0xbc9b19be	-0.018933173
118	0x3dce4e4b	0.10073527
119	0xbe84edf7	-0.25962803
120	0xbdeb358e	-0.11484824
121	0xbd0410b8	-0.032242507
122	0x3e3e62cc	0.18592376
123	0xbe3677dc	-0.1781916
124	0x3cb077ec	0.021541558
125	0x3d75d071	0.06001324
126	0xbbca41e5	-0.006172406
127	0x3b12d8e2	0.0022407104
128	0xbdac67d3	-0.084182404
129	0xbc16fa96	-0.009215018
130	0xbcede8d5	-0.029041687
131	0x3dd4750d	0.10373888
132	0x3c4a63d2	0.012352901
133	0xbd9dc108	-0.077028334
134	0xbe440096	-0.19140849
135	0xbdd40b71	-0.10353745
136	0x3c61d4c2	0.013783636
137	0xbe081e86	-0.13292894
138	0x3b87f4d1	0.0041490574
139	0x3e65f01a	0.22454873
140	0xbb01ee0c	-0.0019825725
141	0x3e3d031d	0.18458219
142	0x3d6cae86	0.057783626
143	0x3ce4972f	0.027904121
144	0xbe4153ca	-0.18879619
145	0x3d9c0aa7	0.07619219
146	0x3e2810b5	0.16412623
147	0x3dba9327	0.09110098
148	0x3dd4159e	0.10355686
149	0x3e8e4d19	0.27793196
150	0xbd94abb7	-0.072593145
151	0x3dd3ea74	0.10347453
152	0xbea4d3f2	-0.3219295
153	0xbe65f824	-0.2245794
154	0xbe1baac8	-0.15201867
155	0xbe6659a3	-0.22495131
156	0x3d893309	0.06699187
157	0x3e0056bf	0.12533091
158	0xbe2be1d7	-0.1678537
159	0x3d4834a9	0.048878346
160	0xbdd6372e	-0.104597434
161	0xbdfe675c	-0.12422058
162	0xbe74db07	-0.23911677
163	0xbe43ae69	-0.19109501
164	0xbe9445de	-0.28959554
165	0xbd67760d	-0.056509066
166	0xbdca307c	-0.09872529
167	0x3da7bb17	0.081899814
168	0x3dd472c6	0.10373454
169	0x3dc703bf	0.097175114
170	0x3dbe4b0c	0.09291658
171	0xbd781b31	-0.060572807
172	0x3e353688	0.17696583
173	0x3da44767	0.080214314
174	0xbe0c26be	-0.13686654
175	0x3caac332	0.02084503
176	0xbe02131e	-0.12702605
177	0x3e09872d	0.13430472
178	0x3d105375	0.03523584
179	0x3e1dc8cc	0.15408629
180	0xbd57fa68	-0.05272904
181	0xbdcfd1cc	-0.101474375
182	0x3e13ebda	0.14445439
183	0x3e6cd33c	0.23127455
184	0x3de4adf9	0.11165995
185	0x3d2d4b44	0.042308107
186	0xbcfb43c3	-0.03067196
187	0xbe0ecd4e	-0.13945505
188	0xbe4c6030	-0.19958568
189	0x3daacbb2	0.08339633
190	0x3e0ecc45	0.1394511
191	0x3e1baf1f	0.15203522
192	0x3d3e5c59	0.04647479
193	0x3e88db7e	0.2672996
194	0xbc9d1a75	-0.019177655
195	0x3d8886d3	0.06666341
196	0xbe3934be	-0.18086526
197	0xbd35eb1e	-0.04441368
198	0x3e38e9e2	0.18057969
199	0x3e4517fe	0.19247434
200	0xbda26c7f	-0.0793085
201	0xbd1d0d49	-0.038342748
202	0x3d82b7c3	0.06382706
203	0xbd29ac35	-0.041423995
204	0x3cc5103b	0.02405559
205	0x3da16a03	0.07881548
206	0xbad01914	-0.0015876614
207	0x3d38d84e	0.04512816
208	0x3d32a53a	0.043614604
209	0x3ddb8957	0.10719555
210	0xbe053ac4	-0.13010699
211	0xbe293061	-0.16522361
212	0x3d9db4b8	0.07700485
213	0x3d8e2750	0.06941092
214	0x3d2a22ef	0.04153722
215	0x3e228a7a	0.15873137
216	0x3e8a1ada	0.2697361
217	0x3e8ea0af	0.27856967
218	0x3c466622	0.012109311
219	0x3c983bb7	0.018583162
220	0xbda2c64f	-0.079479806
221	0x3e11bc5f	0.14232014
222	0x3bdfe6b1	0.0068329205
223	0x3e7b88c2	0.24563888
224	0x3cf522cd	0.02992382
225	0xbd915e17	-0.07098024
226	0xbc8355e9	-0.016032176
227	0x3d2830d4	0.04106219
228	0x3c90cfed	0.017677272
229	0xbdae63a8	-0.08515102
230	0x3caafe0a	0.020873088
231	0x3d969cea	0.07354148
232	0xbcd6c8be	-0.026218768
233	0xbe920190	-0.28516817
234	0x3be9c4b6	0.0071340455
235	0xbe60ca47	-0.21952163
236	0xbdb7b30c	-0.08969697
237	0xbcbbcde3	-0.022925323
238	0x3e8ec674	0.27885783
239	0x3e132c4f	0.14372371
240	0xbe014bc0	-0.12626553
241	0xbe6109fe	-0.21976468
242	0xbc42f1dc	-0.011898484
243	0x3dde7aca	0.10863264
244	0xbdb10adf	-0.086446516
245	0xbe072a79	-0.13199796
246	0xbdb03932	-0.08604659
247	0xbdc609f3	-0.096698664
248	0x3c4530f2	0.012035595
249	0xbd8d2823	-0.06892421
250	0xbdf6731f	-0.12033676
251	0x3dd351a4	0.10318306
252	0xbe8bab3a	-0.27279073
253	0x3c97562a	0.018473703
254	0xbd77f805	-0.060539264
255	0x3e8bf93e	0.27338594

layer1_1vm.0.bias f4 [64]
0	0x3b1f8588	0.0024341065
1	0xba65e82f	-0.0008770255
2	0x3c266ff3	0.010158527
3	0x3a80184c	0.0009772866
4	0x3b309128	0.0026941989
5	0xbb608d8b	-0.0034264054
6	0xba013ff0	-0.0004930487
7	0x3b118634	0.0022205235
8	0x3b2345c3	0.0024913407
9	0xbad50488	-0.0016251961
10	0x3c261e69	0.010139086
11	0xbb40bbcb	-0.0029408808
12	0x3b0cd4e6	0.0021489202
13	0xbafdab1d	-0.0019353364
14	0x3b57ef22	0.003294893
15	0x3bc1fd26	0.00592007
16	0xbb18a0f3	-0.0023289293
17	0xbb98a23e	-0.0046580127
18	0xbbf9e205	-0.0076258206
19	0x3c45ee8c	0.0120808
20	0x3aab9c4e	0.0013092847
21	0x3b804934	0.0039149765
22	0x3aed017c	0.0018082107
23	0x3b27b886	0.0025592162
24	0x3a1c5ca8	0.00059647346
25	0x3c12809c	0.008941796
26	0x3a8a5a40	0.0010555461
27	0x395ec2d8	0.00021244155
28	0xba496890	-0.00076831225
29	0xbc1912a3	-0.009342822
30	0x3b6d0717	0.0036167556
31	0x3aae7df7	0.0013312687
32	0xba4d6203	-0.0007834734
33	0x3af17204	0.001842082
34	0xbb4e4eac	-0.0031479998
35	0x3b9fa3e3	0.0048718317
36	0xbb932e5a	-0.0044916095
37	0xbaabc38e	-0.0013104544
38	0xbbea0b0f	-0.0071424316
39	0xb9f2c6e6	-0.00046306028
40	0x3734d100	1.0777498e-05
41	0xbb2b56a0	-0.0026144162
42	0x39d15a3d	0.0003993082
43	0xbb60524a	-0.0034228736
44	0x3aa292c0	0.0012403354
45	0x3c068658	0.008210741
46	0xbb6ae579	-0.0035842343
47	0x39e8c3c8	0.00044396357
48	0xbb27594a	-0.0025535398
49	0x3ad42135	0.0016184213
50	0xba9af17e	-0.0011821238
51	0x3ab769d4	0.0013993331
52	0xbbf6191e	-0.0075103184
53	0x3bc16f68	0.0059031732
54	0x3bae8c2e	0.0053267693
55	0xbaaed7d6	-0.0013339471
56	0xbb571b3e	-0.0032822634
57	0x3baf08be	0.0053416183
58	0xbb4c87c6	-0.0031208857
59	0xbbece0b0	-0.0072289333
60	0xbbbecc1e	-0.0058226725
61	0x3b8bad2c	0.004262587
62	0xbafdd0b4	-0.0019364567
63	0xbb2f20ad	-0.0026722357

layer1_1vm.2.weight f4 [64]
0	0x3f7e2693	0.9927761
1	0x3f7f25d5	0.996671
2	0x3f7edc1b	0.99554604
3	0x3f7e567d	0.9935072
4	0x3f7ffb24	0.99992585
5	0x3f800497	1.0001401
6	0x3f800c35	1.0003725
7	0x3f7d8eab	0.9904582
8	0x3f7e5698	0.9935088
9	0x3f808618	1.0040922
10	0x3f807df8	1.0038443
11	0x3f80ddba	1.0067666
12	0x3f7f2c27	0.99676746
13	0x3f80507a	1.002456
14	0x3f7e9dc0	0.9945946
15	0x3f80c4e3	1.0060085
16	0x3f818004	1.0117192
17	0x3f809481	1.004532
18	0x3f7dcad0	0.9913759
19	0x3f81175f	1.0085257
20	0x3f81614e	1.010782
21	0x3f8108bb	1.0080789
22	0x3f819086	1.012223
23	0x3f804280	1.0020294
24	0x3f7ff543	0.99983615
25	0x3f80d919	1.0066253
26	0x3f7d4628	0.98935175
27	0x3f7fe689	0.99961144
28	0x3f80df34	1.0068116
29	0x3f808b62	1.0042536
30	0x3f807c41	1.0037919
31	0x3f7da70b	0.9908301
32	0x3f7f85fa	0.99813807
33	0x3f81577f	1.0104827
34	0x3f8077bc	1.003654
35	0x3f7e58ee	0.99354446
36	0x3f7ed0b9	0.99537235
37	0x3f810984	1.0081029
38	0x3f8148d7	1.0100354
39	0x3f801b12	1.0008261
40	0x3f804403	1.0020756
41	0x3f7e6f7c	0.9938886
42	0x3f7dda6b	0.99161404
43	0x3f7f4883	0.9972002
44	0x3f800e8e	1.0004442
45	0x3f7cdf55	0.9877828
46	0x3f7fad52	0.9987384
47	0x3f814f7e	1.0102384
48	0x3f7de5b1	0.99178606
49	0x3f7f2c8b	0.9967734
50	0x3f807f9e	1.0038946
51	0x3f800228	1.0000658
52	0x3f80cfc3	1.0063404
53	0x3f805710	1.0026569
54	0x3f8045e8	1.0021334
55	0x3f7f801c	0.99804854
56	0x3f7fb132	0.99879754
57	0x3f7fb27e	0.9988173
58	0x3f7e5595	0.9934934
59	0x3f817deb	1.0116552
60	0x3f80c720	1.0060768
61	0x3f80cd27	1.0062608
62	0x3f81156a	1.008466
63	0x3f7dc5d9	0.99130017

layer1_1vm.2.bias f4 [64]
0	0xbc02db41	-0.0079868445
1	0xbb3149b8	-0.0027051996
2	0xbbab7f38	-0.0052336715
3	0xbbcbfbce	-0.006225086
4	0xb909cae4	-0.00013140921
5	0x3a22e11c	0.00062133535
6	0x39df3110	0.0004257043
7	0xbc25d9af	-0.010122701
8	0xbbc04488	-0.0058675446
9	0x3b6f04e9	0.0036471433
10	0x3be43560	0.0069643706
11	0x3bb3a0a9	0.0054817987
12	0xbb5e4472	-0.0033915308
13	0x3b257e80	0.0025252402
14	0xbba12c6f	-0.004918627
15	0x3bdcd4c1	0.0067392294
16	0x3c2fa59b	0.010720636
17	0x3bbdc064	0.005790757
18	0xbc009aff	-0.007849454
19	0x3c140a9c	0.009035733
20	0x3c349070	0.011020765
21	0x3c0a7882	0.008451583
22	0x3c4f51a0	0.012653738
23	0x3aec3a8a	0.0018022817
24	0x3a5077f4	0.0007952445
25	0x3bd80722	0.006592647
26	0xbc402a3e	-0.011728821
27	0xb9812e60	-0.0002463935
28	0x3bc78970	0.006089382
29	0x3b5d9772	0.0033812192
30	0x3b15f3fa	0.0022881017
31	0xbc102d48	-0.008799858
32	0xbb2e5c09	-0.002660515
33	0x3b01f03f	0.0019827036
34	0x3b81f066	0.0039654253
35	0xbbce4e05	-0.0062959217
36	0xbb83e4ea	-0.0040250914
37	0x3c1c6fcc	0.009548139
38	0x3c3fa5c0	0.011697233
39	0x3a0b1a74	0.0005306371
40	0x3b060426	0.002044925
41	0xbbee456c	-0.0072714593
42	0xbbfd7692	-0.007735082
43	0xbb66a411	-0.0035193006
44	0x399d7c70	0.00030038087
45	0xbc29eb0e	-0.010370983
46	0xba43e0c6	-0.00074721535
47	0x3c10c595	0.00883617
48	0xbc03510b	-0.008014928
49	0xbac42178	-0.0014963588
50	0x3b3e1d88	0.0029009301
51	0x3a1aecf8	0.0005909945
52	0x3be2217c	0.0069009643
53	0x3b48b721	0.0030626731
54	0x3aee385e	0.0018174758
55	0xbb2b8e3c	-0.0026177308
56	0xbb7798f9	-0.0037780388
57	0x3b87b6bf	0.004141658
58	0xbba47f72	-0.0050200755
59	0x3c2d9da6	0.010596668
60	0x3b9f55c0	0.004862517
61	0x3bd728cb	0.006566142
62	0x3c065f22	0.008201392
63	0xbc28cfe2	-0.010303469

layer1_1vm.2.running_mean f4 [64]
0	0x45dfcdb9	7161.7153
1	0xc4a7bb79	-1341.8585
2	0x4500fc61	2063.7737
3	0xc6486f94	-12827.895
4	0x4480b5ca	1029.6809
5	0x45e51256	7330.292
6	0x451999a5	2457.6028
7	0x461c1bce	9990.951
8	0xc6168bab	-9634.917
9	0xc59f5ad1	-5099.352
10	0x44b687a2	1460.2385
11	0x4616d05c	9652.09
12	0xc53e69a5	-3046.6028
13	0x45efd40e	7674.507
14	0x463df943	12158.315
15	0x46214ba3	10322.909
16	0x45f336f2	7782.868
17	0x462b190a	10950.26
18	0x463c3064	12044.098
19	0x458774cf	4334.601
20	0xc58e2a43	-4549.2827
21	0x45972c70	4837.5547
22	0x448d79e4	1131.8091
23	0xc51b130c	-2481.1904
24	0xc5b89311	-5906.3833
25	0x458fb114	4598.135
26	0x46352fd3	11595.956
27	0xc622921b	-10404.526
28	0x45ef9950	7667.164
29	0x46003d9f	8207.405
30	0x46ab8400	21954.0
31	0xc5f68422	-7888.5166
32	0x46128fdf	9379.968
33	0x44f7286e	1977.2634
34	0x45887368	4366.426
35	0xc437d33b	-735.3005
36	0x45f41729	7810.895
37	0x438e2dec	284.35876
38	0xc4e54a44	-1834.3208
39	0xc601d251	-8308.579
40	0x4555bc3c	3419.7646
41	0xc640407b	-12304.12
42	0x467a3309	16012.759
43	0x4628afdf	10795.968
44	0x45520c49	3360.7678
45	0x45198768	2456.463
46	0xc41189cf	-582.15326
47	0xc6003a9d	-8206.653
48	0x446077c8	897.8716
49	0x448696fa	1076.718
50	0xc68df673	-18171.225
51	0xc586aa79	-4309.309
52	0xc46a93ea	-938.31116
53	0x45dcb3ba	7062.466
54	0x45bb19ab	5987.2085
55	0xc5dadd25	-7003.643
56	0x43a33213	326.3912
57	0x454871f2	3207.1216
58	0xc5f4f549	-7838.6606
59	0xc56bd55b	-3773.3347
60	0x46403068	12300.102
61	0x461a96d0	9893.703
62	0xc42bd0ec	-687.2644
63	0xc5ffef1a	-8189.8877

layer1_1vm.2.running_var f4 [64]
0	0x4b4ea424	1.3542436e+07
1	0x48f1c17d	495115.9
2	0x49a22a2f	1.3284539e+06
3	0x4c26976a	4.367095e+07
4	0x48b6e035	374529.66
5	0x4b6f17ba	1.5669178e+07
6	0x49e9ad20	1.914276e+06
7	0x4be34530	2.9788768e+07
8	0x4bd0848c	2.733084e+07
9	0x4ad360cb	6.9264375e+06
10	0x49422b66	795318.4
11	0x4bc46509	2.5741842e+07
12	0x4a2bd3f3	2.8152288e+06
13	0x4b754d7e	1.6076158e+07
14	0x4c2fed2a	4.6118056e+07
15	0x4bee6757	3.1248046e+07
16	0x4b8ec7c4	1.8714504e+07
17	0x4c0c6d84	3.6812304e+07
18	0x4c1c9392	4.1045576e+07
19	0x4ab8ab79	6.0512605e+06
20	0x4ac27bfb	6.3728615e+06
21	0x4ac05aa9	6.3030605e+06
22	0x48d78f79	441467.78
23	0x49cad656	1.6616428e+06
24	0x4b23ea8e	1.0742414e+07
25	0x4ab988c6	6.079587e+06
26	0x4c1efa5d	4.1675124e+07
27	0x4c00199d	3.358066e+07
28	0x4b79a226	1.6359974e+07
29	0x4b9351b1	1.930941e+07
30	0x4d14ce0b	1.560332e+08
31	0x4b8a1885	1.810049e+07
32	0x4bc1c154	2.539588e+07
33	0x49966b33	1.2322304e+06
34	0x4aa5cf34	5.433242e+06
35	0x4858030c	221196.19
36	0x4b7cfbe9	1.6579561e+07
37	0x47e4efd7	117215.68
38	0x49985c6d	1.2481416e+06
39	0x4ba3cf68	2.1470928e+07
40	0x4a4195ed	3.1717072e+06
41	0x4c261f46	4.354793e+07
42	0x4c939f68	7.73968e+07
43	0x4c004fc9	3.3636132e+07
44	0x4a469f61	3.2542322e+06
45	0x49fa4eee	2.0505258e+06
46	0x485a7889	223714.14
47	0x4b937916	1.932958e+07
48	0x48af7698	359348.75
49	0x48c59320	404633.0
50	0x4cb35a5d	9.4032616e+07
51	0x4a979d7c	4.968126e+06
52	0x48b6ee57	374642.72
53	0x4b6341b6	1.4893494e+07
54	0x4b2b4968	1.1225448e+07
55	0x4b5eee47	1.4609991e+07
56	0x47f282c0	124165.5
57	0x4a23c54f	2.6832198e+06
58	0x4b6f78bd	1.5694013e+07
59	0x4a8f0edf	4.6877275e+06
60	0x4c1eee7e	4.166297e+07
61	0x4bd28e02	2.7597828e+07
62	0x48706123	246148.55
63	0x4b9f403a	2.0873332e+07

layer1_2vm.0.weight f4 [32, 64]
0	0x3e015a33	0.12632065
1	0x3b033997	0.002002334
2	0x3d9c210e	0.07623492
3	0xbd9cc49d	-0.076546885
4	0x3e56f5f2	0.20992258
5	0x3c1dcf4d	0.009631944
6	0x3e23f95c	0.16013092
7	0xbc416369	-0.011803486
8	0x3d621a20	0.055200696
9	0xbe10421a	-0.14087716
10	0x3da412ad	0.080113746
11	0x3c91496c	0.017735206
12	0x3d77d79e	0.060508363
13	0xbe09e9ac	-0.13468045
14	0x3e829b6a	0.25509197
15	0xbe085391	-0.13313128
16	0xbd750178	-0.059815854
17	0xbbc2a955	-0.005940596
18	0x3e34d7cf	0.1766045
19	0x3d694768	0.056952864
20	0xbe74cfde	-0.2390742
21	0xbe695446	-0.22786054
22	0xbdaecda1	-0.08535314
23	0xbc615f15	-0.0137555795
24	0xbc57161d	-0.013127831
25	0xbbcfa56a	-0.0063368576
26	0xbc978b47	-0.01849903
27	0x3cc861d8	0.024460718
28	0x3c3ea378	0.011635654
29	0xbd8f8749	-0.070082255
30	0x3db52bee	0.088462695
31	0xbe8bf451	-0.27334836
32	0xbe0fff78	-0.14062297
33	0x3df66f4c	0.12032947
34	0x3de525e5	0.111888684
35	0xbd57ca41	-0.05268312
36	0xbe41bfc6	-0.18920812
37	0x3dad2a76	0.084553644
38	0xbe2313b9	-0.15925492
39	0xbdc4cc31	-0.09609259
40	0x3dcd849d	0.100350596
41	0x3dbc776a	0.09202464
42	0xbc612ca8	-0.013743557
43	0x3e3dd9db	0.18540137
44	0xbd387d96	-0.045041643
45	0x3ccb15c9	0.024790661
46	0xbe84c600	-0.25932312
47	0xbde25bcc	-0.11052665
48	0xbdcde0c9	-0.1005264
49	0x3e02d6f7	0.12777315
50	0xbd72ffd2	-0.059326
51	0xbe41eba9	-0.18937553
52	0x3e2b25ba	0.1671361
53	0xbd180736	-0.037116252
54	0x3d4b6307	0.049654987
55	0xbe1062ac	-0.1410014
56	0xbde6d022	-0.11270167
57	0x3e8cd7ec	0.27508485
58	0xbda0e83c	-0.07856795
59	0xbe906db0	-0.28208685
60	0x3df4563b	0.1193051
61	0xbccaff54	-0.024779953
62	0xbe1e7e3b	-0.1547784
63	0xbdeab057	-0.114594154
64	0x3dd76d2b	0.10518869
65	0x3dfcf30c	0.12351045
66	0x3e353fbf	0.17700098
67	0xbe3c687c	-0.18399233
68	0x3e3a216a	0.18176809
69	0x3d434d48	0.047681123
70	0xbea63ee8	-0.3246987
71	0xbe393f9f	-0.18090676
72	0x3e35c68d	0.17751522
73	0xbe46c4ba	-0.19410983
74	0x3e53c9b3	0.20682411
75	0xbd78edf9	-0.060773823
76	0xbe2a5737	-0.16634832
77	0xbdea859f	-0.114512675
78	0xbe44b128	-0.19208205
79	0xbe0c064a	-0.13674274
80	0xbd93b621	-0.07212473
81	0x39b3a0e8	0.00034261425
82	0x3efad89b	0.48993382
83	0x3e741881	0.23837472
84	0xbe8004f0	-0.25003767
85	0x3c15ed27	0.00915078
86	0xbde2a263	-0.11066129
87	0x3c94b37a	0.018151987
88	0x3ce8b9b2	0.028408859
89	0x3c7797b7	0.015111855
90	0x3d8bbce5	0.06823138
91	0xbd8634e9	-0.065530606
92	0x3d69123c	0.056902155
93	0x3cf1fbd3	0.029539024
94	0xbd69e789	-0.057105575
95	0x3e24d7be	0.16097924
96	0x3dbee5d7	0.09321182
97	0xbe8cfd0c	-0.2753681
98	0xbe643b22	-0.22288182
99	0xbd4051d1	-0.046953026
100	0x3ddce59c	0.10785982
101	0xbe8b541c	-0.27212608
102	0xbdb063da	-0.08612795
103	0xbe09bce7	-0.13450967
104	0xbe391944	-0.18076044
105	0x3c11619c	0.00887337
106	0x3cad161b	0.021128705
107	0xbe34e736	-0.17666325
108	0x3cb6535f	0.022256551
109	0xbd91ee27	-0.07125502
110	0xbdfe918e	-0.12430106
111	0x3de0fd8c	0.1098586
112	0xbe4913f6	-0.1963652
113	0xbe1e0e78	-0.15435207
114	0xbd4d5e00	-0.050138474
115	0x3d72767c	0.059195027
116	0xbe45baef	-0.19309591
117	0xbda7777a	-0.08177085
118	0x3d23bd9a	0.03997574
119	0x3dfdb601	0.1238823
120	0xbce56a15	-0.028004685
121	0xbe6800b3	-0.22656517
122	0x3dbe8507	0.09302717
123	0x3deade26	0.11468153
124	0xbd9df809	-0.077133246
125	0xbac1634a	-0.0014754322
126	0x3e273498	0.16328657
127	0xbd4247b0	-0.047431648
128	0xbe70ae3e	-0.23503968
129	0x3dbcb901	0.09214974
130	0x3d090061	0.033447627
131	0x3d9b85ea	0.075939015
132	0x3de7dac5	0.11321024
133	0x3e8a837f	0.2705345
134	0xbe34426d	-0.17603464
135	0xbe7246d6	-0.23659834
136	0x3e5e38b6	0.21701321
137	0xbe486914	-0.19571334
138	0x3e3a4ad0	0.18192601
139	0xbe06f1f5	-0.13178237
140	0xbebc3a94	-0.36763442
141	0x3e14a095	0.14514382
142	0x3dc5ffd5	0.09667937
143	0x3e703941	0.2345934
144	0x3e12bcf1	0.14329888
145	0x3da167ba	0.078811124
146	0xbdd16635	-0.102245726
147	0xbe3a3c03	-0.18186955
148	0xbe3f7d90	-0.18700242
149	0x3dee52a2	0.11636855
150	0xbe25d8eb	-0.16196029
151	0x3db76863	0.08955457
152	0xbe846940	-0.2586155
153	0x3e361e55	0.17785008
154	0xbe954242	-0.29152113
155	0x3d0676f7	0.032828297
156	0x3d7a93a7	0.06117597
157	0xbddf51df	-0.109042875
158	0xbe268e5d	-0.16265245
159	0xbdeaf773	-0.114729784
160	0xbda83b8f	-0.08214485
161	0x3d299459	0.04140124
162	0x3e0c85d2	0.13722923
163	0xbdb746be	-0.0894904
164	0x3e569ecd	0.20959015
165	0xbdc15f69	-0.09442026
166	0x3d4a16e9	0.049338255
167	0x3cc3451a	0.023836661
168	0x3cbc8d4f	0.0230166
169	0xbe6f9dd8	-0.23400056
170	0x3d830716	0.06397836
171	0xbce7fa74	-0.028317668
172	0x3cbf4ed7	0.023353023
173	0x3d9220da	0.07135172
174	0x3dd6dd94	0.104914814
175	0xbdfca7ed	-0.12336717
176	0xbdd32626	-0.103100106
177	0xbe2590ca	-0.16168514
178	0xbe0860e4	-0.13318211
179	0x3dc9654f	0.09833776
180	0xbe165056	-0.14679083
181	0x3d4e817a	0.050416447
182	0xbd3ea01a	-0.046539403
183	0xbe252f3d	-0.16131301
184	0x3eb5c37e	0.3550071
185	0xbcb5ca4c	-0.02219119
186	0x3e39c600	0.18141937
187	0x3d989ce2	0.07451798
188	0x3dda0e97	0.10647314
189	0x3e0132e9	0.12617077
190	0xbe1bd323	-0.15217261
191	0xbdada2ea	-0.08478339
192	0x3bab3646	0.0052249758
193	0xbe12cd17	-0.14336048
194	0x3c6f20dd	0.014595238
195	0xbcbb0511	-0.022829564
196	0xbd847ba9	-0.06468899
197	0x3d8c0055	0.06836001
198	0x3c342c93	0.010996955
199	0xbe1ad409	-0.15119947
200	0xbc663b3c	-0.0140522085
201	0x3e1c4354	0.15260059
202	0xbd758761	-0.05994356
203	0xbe533c77	-0.20628534
204	0x3e08e169	0.13367237
205	0xbd8559b2	-0.06511249
206	0xbe894ec4	-0.26817906
207	0xbdf3bff8	-0.119018495
208	0xbbd35d5e	-0.006450339
209	0x3d874cb1	0.066064246
210	0xbc999cf4	-0.018751599
211	0xbdba5b73	-0.09099474
212	0x3e616407	0.22010814
213	0x3d99a8ad	0.075028755
214	0x3c4cbc64	0.012496088
215	0x3d9957a7	0.074874215
216	0xbd3edc65	-0.046596903
217	0xbe83b66f	-0.25725123
218	0x3d41e1dc	0.047334537
219	0xbd9b3fc9	-0.075805254
220	0xbd86c06d	-0.06579671
221	0xbd55779d	-0.052116025
222	0x3e26609f	0.16247796
223	0xbe4de55b	-0.20107023
224	0xbc911430	-0.017709821
225	0xbd113bde	-0.035457484
226	0xbd812a5c	-0.063069075
227	0x3e2cbeb2	0.1686962
228	0x3d3741c6	0.04474046
229	0xbc58885f	-0.013216107
230	0xbda90a51	-0.08253921
231	0xbb852e5d	-0.004064365
232	0xbb3522a0	-0.0027639046
233	0x3dfa943b	0.12235304
234	0x3b56791b	0.0032725993
235	0xbd496283	-0.049166214
236	0x3e11fe7d	0.14257236
237	0x3e4cf30a	0.20014587
238	0x3e8eb050	0.2786889
239	0x3cbcfbfe	0.023069378
240	0x3d5aab16	0.053385817
241	0xbe590fb3	-0.21197395
242	0x3d4cbad7	0.04998287
243	0xbd581b9e	-0.052760713
244	0xbe36c9bb	-0.17850392
245	0x3da94026	0.082641885
246	0x3e20e523	0.15712409
247	0x3d8a422a	0.06750901
248	0x3e28bbe0	0.16477919
249	0x3c3c3267	0.011486626
250	0xbc821c16	-0.015882533
251	0xbe98de4e	-0.29857105
252	0xbcb00e86	-0.0214913
253	0xbe8e6066	-0.2780792
254	0xbddfca81	-0.109272964
255	0x3d827f4f	0.063719384

layer1_2vm.0.bias f4 [32]
0	0x3b185735	0.0023245339
1	0xb9a5f400	-0.00031653047
2	0x3b2dbc69	0.0026510006
3	0xbbaf573e	-0.0053509763
4	0xbb2d6f43	-0.0026464022
5	0x3b22f795	0.0024866809
6	0x3c2775ea	0.010220984
7	0xbbf59c3a	-0.0074954303
8	0xbb59910c	-0.0033198027
9	0xbaf82b81	-0.0018933864
10	0xbbcc3e10	-0.0062329844
11	0x3c00cc2b	0.007861177
12	0x3b9cd101	0.0047856574
13	0x3b449845	0.0029997986
14	0xbc7fef85	-0.015621071
15	0x3c68c745	0.014207666
16	0xbc18bb3b	-0.009321983
17	0xbab81466	-0.0014044165
18	0xbbc321ba	-0.0059549483
19	0xbcb1d457	-0.021707697
20	0x3ba76fc8	0.005109761
21	0x3c3434d0	0.01099892
22	0x3a85bdc2	0.0010203647
23	0x3aa14c82	0.0012306126
24	0xba441ca8	-0.0007481077
25	0x3a8b9c46	0.0010651432
26	0xbafec512	-0.0019437394
27	0x3b8f5228	0.0043738075
28	0xbc64bc78	-0.01396095
29	0x3bf8217e	0.007572352
30	0x3b9c8ab7	0.0047772783
31	0x3905aa78	0.00012747373

layer1_2vm.2.weight f4 [32]
0	0x3f7eee00	0.9958191
1	0x3f813527	1.0094346
2	0x3f80529e	1.0025213
3	0x3f819e4f	1.0126437
4	0x3f800bad	1.0003563
5	0x3f7cdcc1	0.98774344
6	0x3f7e2586	0.99276006
7	0x3f7fbdb0	0.99898815
8	0x3f807831	1.003668
9	0x3f7bf2d8	0.98417425
10	0x3f7ffc41	0.99994284
11	0x3f81ce22	1.0141032
12	0x3f7f85b5	0.99813396
13	0x3f7dcf3e	0.9914435
14	0x3f7e992c	0.9945247
15	0x3f7e6ef1	0.99388033
16	0x3f7ca2cb	0.986859
17	0x3f7b0240	0.9805031
18	0x3f7d5674	0.9896004
19	0x3f7908c6	0.9727901
20	0x3f7e0c37	0.9923739
21	0x3f80ccd1	1.0062505
22	0x3f7df00e	0.9919442
23	0x3f80a718	1.0050993
24	0x3f7f927d	0.998329
25	0x3f7e4524	0.9932425
26	0x3f7bfd7c	0.9843366
27	0x3f7e4b46	0.9933361
28	0x3f7e1d70	0.9926367
29	0x3f8251e7	1.0181245
30	0x3f817522	1.0113871
31	0x3f7c9eb6	0.98679674

layer1_2vm.2.bias f4 [32]
0	0xbbdb7c7b	-0.006698189
1	0x3cbe39ea	0.023220975
2	0xb703d700	-7.858267e-06
3	0x3c8daabe	0.01729333
4	0x3bc65bb2	0.0060534114
5	0xbbee8dd6	-0.0072800918
6	0xbbf1fdc4	-0.0073849875
7	0xbbdf9969	-0.006823708
8	0xba4f6228	-0.000791105
9	0xbc9f1fa1	-0.019424262
10	0xbbea8060	-0.007156417
11	0x3c98b683	0.018641716
12	0xbc86c855	-0.016452948
13	0xbb8b55eb	-0.0042521856
14	0x3c92c28d	0.017915035
15	0xba9abba0	-0.0011805184
16	0xbc4c4462	-0.012467476
17	0xbca39296	-0.019967359
18	0xbbd1a10c	-0.006397372
19	0xbcd040a5	-0.02542145
20	0xbb8074cc	-0.0039201733
21	0x3c20b07a	0.0098077
22	0x3c30b21b	0.010784651
23	0x3a2c4b84	0.0006572532
24	0xbb6d4944	-0.0036207
25	0xbbf2b269	-0.007406522
26	0xbc4d8348	-0.012543507
27	0xbbb96cde	-0.00565873
28	0xbc976925	-0.018482754
29	0x3cc3baa8	0.023892716
30	0x3c171cb7	0.009223155
31	0xbca25f5e	-0.019820865

layer1_2vm.2.running_mean f4 [32]
0	0xbeb20abf	-0.34773824
1	0xbf161083	-0.58618945
2	0xbe3b0d63	-0.18266825
3	0xbe56aade	-0.20963618
4	0xbee1ee3e	-0.44127077
5	0x3e46f61a	0.19429818
6	0xbede0b78	-0.43368125
7	0x3dfd720c	0.12375268
8	0x3ed15836	0.40887612
9	0xbeb0ecaa	-0.3455556
10	0x3ec132ee	0.3773417
11	0x3f1c8846	0.61145437
12	0xbe33a39b	-0.1754288
13	0x3c858cc5	0.016302476
14	0xbeb32b48	-0.34993958
15	0xbec64752	-0.38726288
16	0xbed72547	-0.42020628
17	0xbe3f9971	-0.18710877
18	0x3f0c8e43	0.54904574
19	0x3dc80a6d	0.097676136
20	0xbf5d6f31	-0.8649779
21	0x3eb97e5d	0.3622922
22	0xbee13e10	-0.43992662
23	0xbe30f249	-0.17279924
24	0xbda5bbf3	-0.08092489
25	0x3f06a135	0.5258973
26	0xbc857eda	-0.01629584
27	0x3f09731d	0.53691274
28	0x3daaa364	0.083319455
29	0x3f083a91	0.53214365
30	0x3ed6da20	0.4196329
31	0xbe3dc1f3	-0.18531017

layer1_2vm.2.running_var f4 [32]
0	0x3f0f1010	0.55883884
1	0x3f0f31c8	0.55935335
2	0x3f1db699	0.61606747
3	0x3ef2bc98	0.4740951
4	0x3f1769bf	0.5914573
5	0x3f17b124	0.5925467
6	0x3f175452	0.5911304
7	0x3f0b8244	0.54495645
8	0x3ecac50e	0.39603466
9	0x3f1403ad	0.5781811
10	0x3f12f1a9	0.57399994
11	0x3f258b01	0.6466523
12	0x3efe2b4b	0.49642405
13	0x3f2c2b84	0.672539
14	0x3f0601b9	0.5234638
15	0x3f375d64	0.7162688
16	0x3ed41a4f	0.41426322
17	0x3eea3184	0.45740902
18	0x3f490992	0.7853023
19	0x3efe0cb4	0.49619067
20	0x3f70ab03	0.94010943
21	0x3f0dd381	0.55400854
22	0x3f16b930	0.58876324
23	0x3f09164b	0.5354964
24	0x3f03c63a	0.51474345
25	0x3eec3810	0.46136522
26	0x3ed2c2f9	0.41164377
27	0x3f08fa5b	0.5350701
28	0x3ee5d5ca	0.4488967
29	0x3f37162e	0.7151822
30	0x3f039ebd	0.5141409
31	0x3f0557fd	0.52087384

layer2.0.weight f4 [32, 64]
0	0xbc1d58bc	-0.009603675
1	0xbc02c476	-0.00798141
2	0xbd2616e2	-0.040549167
3	0x3e7a7d75	0.2446192
4	0x3da92dee	0.082607135
5	0x3db4a784	0.088210136
6	0x3e8695c7	0.26286146
7	0x3d955a32	0.07292594
8	0x3df1a4a5	0.117989816
9	0xbdf13314	-0.117773205
10	0x3e5884a9	0.21144356
11	0x3d184a70	0.037180364
12	0xbd86623a	-0.06561704
13	0x3c6a2dd5	0.014293154
14	0xbc188ae2	-0.009310456
15	0xbcce8907	-0.025211824
16	0x3e850441	0.25979808
17	0xbe3f9e6d	-0.18712778
18	0xbe093c33	-0.1340187
19	0xbdd69b99	-0.10478897
20	0x3d987a3c	0.07445189
21	0x3d38c2f8	0.04510781
22	0xbd61be57	-0.055113163
23	0xbd882c1a	-0.06649037
24	0x3e2b9566	0.1675621
25	0x3c0fd506	0.008778816
26	0xbe4a1d0b	-0.19737642
27	0x3e61e7f1	0.22061135
28	0xbe329170	-0.17438293
29	0x3d7ca3e7	0.061679747
30	0x3d8d3976	0.068957254
31	0x3de24052	0.110474244
32	0xbe0c1d22	-0.13682988
33	0x3e84730a	0.25869018
34	0x3d69f7be	0.05712103
35	0x3e1ad4d1	0.15120246
36	0x3e728d29	0.23686661
37	0x3e0b5d44	0.13609797
38	0x3b0735d4	0.002063145
39	0x3d0cefee	0.034408502
40	0xbd890af1	-0.0669154
41	0xbdcf9667	-0.10136109
42	0xbdb7daef	-0.08977305
43	0x3dff412a	0.12463601
44	0xbdd20bc5	-0.10256151
45	0xbd064d31	-0.03278846
46	0x3ecb904e	0.39758533
47	0xbdb5e347	-0.0888124
48	0xbdc227b3	-0.09480228
49	0xbe0af4bd	-0.13569923
50	0x3d05874c	0.032599732
51	0xbe456370	-0.19276214
52	0xbc6829cc	-0.014170121
53	0x3e146c02	0.14494327
54	0x3ebfb4f9	0.3744276
55	0xbe33a22c	-0.17542332
56	0xbdf45ff0	-0.11932361
57	0xbe1c20b8	-0.15246856
58	0xbe59974d	-0.21249123
59	0x3d5bc6fa	0.053656556
60	0xbe0b5ec4	-0.13610369
61	0x3d84bae1	0.06480957
62	0x3e3f76b9	0.18697633
63	0xbe948d51	-0.29014066
64	0x3e194657	0.14968239
65	0x3c0952ca	0.008381555
66	0xbc9a15bc	-0.018809192
67	0x3c556662	0.013024898
68	0x3e6295d5	0.22127469
69	0xbd15f4e0	-0.036610484
70	0xbdf4b54d	-0.11948643
71	0x3b3a5380	0.0028431118
72	0xbe835885	-0.25653473
73	0x3a258928	0.00063146884
74	0x3e674d02	0.2258797
75	0xbd6de088	-0.058075458
76	0xbce613a3	-0.028085535
77	0x3cc3217d	0.02381968
78	0x3e4b654c	0.1986286
79	0x3d6da160	0.058015227
80	0x3e01cfb9	0.12676896
81	0x3da20464	0.07910994
82	0xbd334640	-0.043768167
83	0x3d7230b6	0.059128486
84	0xbe9e74ff	-0.30948636
85	0x3e1889b1	0.14896275
86	0xbd17bd00	-0.03704548
87	0x3e2289b7	0.15872847
88	0xbc854c3b	-0.016271701
89	0x3e017e6f	0.12645887
90	0x3cda8a86	0.026677381
91	0xbd098f8b	-0.03358416
92	0x3d8a9687	0.06766992
93	0xbe4de54c	-0.20107001
94	0x3e718fbb	0.23589985
95	0xbe2c76a0	-0.16842127
96	0xbdb0f489	-0.086403914
97	0xbdd15df2	-0.10222997
98	0xbc440e7f	-0.011966347
99	0xbe18a7c9	-0.14907755
100	0xbd02ba1e	-0.031915776
101	0x3d5b539a	0.053546526
102	0xbceec159	-0.02914493
103	0x3db2e3ca	0.087348536
104	0x3d835720	0.06413102
105	0x3edcf197	0.43153068
106	0xbe017cc0	-0.12645245
107	0xbe86cdc1	-0.26328853
108	0x3debb827	0.11509734
109	0x3dd2c986	0.10292344
110	0x3dd61132	0.104524985
111	0xbebde444	-0.37088215
112	0xbdbd6ef3	-0.092496775
113	0xbc8b20b3	-0.016983366
114	0x3e1be6c2	0.15224746
115	0x3e009112	0.1255534
116	0xbb3299b4	-0.0027252259
117	0xbd22d000	-0.039749146
118	0xbdfda9e1	-0.123859175
119	0xbdfc22bf	-0.12311315
120	0xbde6dc48	-0.11272484
121	0xbded752c	-0.115946144
122	0xbe181646	-0.14852247
123	0x39284290	0.00016046525
124	0xbc17541f	-0.009236365
125	0x3cf45420	0.02982527
126	0x3d0983d6	0.033572994
127	0x3e711b98	0.23545682
128	0xbe0bc0bd	-0.13647743
129	0xbc440d74	-0.011966098
130	0xbdf7c213	-0.120975636
131	0x3da61a32	0.08110465
132	0x3e1dc39e	0.15406653
133	0x3c3df7d6	0.011594733
134	0xbd2674cb	-0.040638726
135	0x3e395acd	0.18101044
136	0x3d71bd5a	0.05901847
137	0x3e1506aa	0.14553323
138	0x3e193099	0.14959945
139	0xbe245a97	-0.16050182
140	0x3dfae7a5	0.12251214
141	0x3d544466	0.051823042
142	0x3d3586aa	0.04431788
143	0xbd7628eb	-0.060097616
144	0x3b69a64c	0.00356521
145	0x3d73706b	0.059433382
146	0xbe00489a	-0.12527695
147	0x3e4a7831	0.19772412
148	0x3e5b4745	0.21413906
149	0x3d4f7155	0.05064519
150	0xbd30716e	-0.043076925
151	0x3c153886	0.0091077145
152	0x3b4fdbd3	0.0031716719
153	0xbe93b1e0	-0.28846645
154	0xbcabc0fe	-0.02096605
155	0x3c847c21	0.01617247
156	0xbc0c90d3	-0.008579451
157	0x3e599449	0.21247973
158	0x3cb171b7	0.021660669
159	0xbde579a2	-0.1120484
160	0x3e6285e4	0.22121388
161	0x3ce4a242	0.027909402
162	0x3eb1f657	0.34758255
163	0x3d732a90	0.059366763
164	0x3da80bdf	0.08205389
165	0xbe001f46	-0.1251193
166	0xbdb1df69	-0.0868519
167	0xbc123e8b	-0.008926044
168	0xbdbbe064	-0.091736585
169	0x3c8ea4f8	0.017412648
170	0xbe16ecc3	-0.14738755
171	0xbd94eae8	-0.07271367
172	0x3e569aae	0.20957443
173	0x3e5cad3b	0.21550457
174	0xbd79383c	-0.060844645
175	0xbb1d597c	-0.0024009636
176	0xbd6cf48b	-0.0578504
177	0x3e35ec8f	0.17766021
178	0xbe729ba9	-0.23692192
179	0xbd933ed7	-0.0718972
180	0x3b83b8b8	0.004019823
181	0x3da564d2	0.080758706
182	0xbd841d44	-0.064508945
183	0x3d98a46d	0.07453237
184	0xbe19ee38	-0.1503228
185	0xbdd9efd6	-0.10641448
186	0x3d9b4f7d	0.075835206
187	0x3e04c48f	0.12965606
188	0xbde47806	-0.11155705
189	0x3e2d6aa2	0.16935208
190	0x3dab7e3a	0.08373685
191	0x3e442909	0.19156279
192	0xbc8a998c	-0.01691892
193	0xbda7da05	-0.08195881
194	0x3dc87975	0.09788791
195	0xbe2a257a	-0.16615859
196	0x3e35eaaf	0.17765306
197	0x3e3df38a	0.18549934
198	0xbe726ed6	-0.23675093
199	0xbe4fc365	-0.20289381
200	0xbdbcc32c	-0.092169136
201	0x3e487f28	0.19579756
202	0xbda9d9d0	-0.082934976
203	0xbcc45b45	-0.023969302
204	0xbd311550	-0.043233216
205	0xbda6845a	-0.08130713
206	0x3dcc8aab	0.09987386
207	0xbd75f372	-0.06004662
208	0x3e5d1af5	0.21592315
209	0x3e278b24	0.16361672
210	0x3e7aa040	0.24475193
211	0x3e48c083	0.19604687
212	0xbdc7f603	-0.0976372
213	0x3ea59dc7	0.32346937
214	0x3be5b5aa	0.0070101814
215	0x3e4016aa	0.18758646
216	0xbe100655	-0.14064915
217	0x3db37203	0.087619804
218	0x3d59059b	0.05298386
219	0xbd34b7fc	-0.044120774
220	0xbe77376e	-0.24142238
221	0x3e1723c9	0.14759745
222	0x3ddf7253	0.109104775
223	0x3caa3a8c	0.02077987
224	0x3c6e37ea	0.014539698
225	0x3e850839	0.25982836
226	0xbe6a6250	-0.22889066
227	0x3e4a00ea	0.19726911
228	0xbead2689	-0.33818462
229	0xbdafce0c	-0.08584222
230	0xbd684fa3	-0.056716572
231	0x3dacd66e	0.08439337
232	0x3ce0881d	0.027408654
233	0x3b08f24d	0.0020896376
234	0x3cc28acc	0.023747824
235	0x3e6386d7	0.22219406
236	0x3c916540	0.017748475
237	0x3e869b1f	0.26290223
238	0x3e0d6388	0.138075
239	0xbdc77d31	-0.09740675
240	0xbddc5dca	-0.10760076
241	0xbd8cca8d	-0.06874571
242	0x3e1219fb	0.14267723
243	0xbd317943	-0.043328535
244	0xbd9797f8	-0.074020326
245	0xbc79d4a7	-0.015248454
246	0x3dd9581f	0.10612511
247	0xbd5b0f46	-0.053481363
248	0x3da09c12	0.07842268
249	0xbd72bb7c	-0.05926083
250	0x3b52da5c	0.003217361
251	0x3e2026fa	0.15639868
252	0x3e92c1ce	0.28663486
253	0x3d9e1c2f	0.07720219
254	0x3e9bbe47	0.30418608
255	0x3ba24e50	0.0049531832

layer2.0.bias f4 [32]
0	0x3d4e525f	0.050371524
1	0xbcedcdbb	-0.029028764
2	0x3d021c6c	0.031765386
3	0x3d1c19f1	0.038110677
4	0xbc9897ba	-0.018627036
5	0xbc585c50	-0.013205603
6	0xbced532e	-0.028970327
7	0xbb9ee0d9	-0.0048485813
8	0x3c9cf1dd	0.019158298
9	0x3b4fd193	0.003171061
10	0x3d0c6c18	0.034282774
11	0x3cd2398a	0.025662202
12	0xbb6ec8ea	-0.0036435672
13	0xbcb8440c	-0.022493385
14	0xbc2a38e6	-0.010389542
15	0x3b2947c2	0.0025830125
16	0xbc554e1b	-0.01301911
17	0xbb87b2f0	-0.004141204
18	0x3bf205f7	0.007385965
19	0x3d408c79	0.047008965
20	0x3c3c399f	0.011488347
21	0xbc2c233e	-0.010506449
22	0x3cbcba40	0.02303803
23	0xbd439861	-0.04775274
24	0xbbb30fb6	-0.0054645194
25	0x3c5afb98	0.013365649
26	0xbc1cb19f	-0.009563833
27	0xbbc17cba	-0.005904761
28	0xbcec862a	-0.028872568
29	0xbca4da50	-0.02012363
30	0x3c254754	0.010087807
31	0x3c61b770	0.013776645

layer2.2.weight f4 [32]
0	0x3f868d5c	1.051189
1	0x3f73b185	0.9519275
2	0x3f8457c0	1.0339279
3	0x3f85b87e	1.0446928
4	0x3f86863a	1.0509713
5	0x3f7da0db	0.9907357
6	0x3f71fb90	0.9452448
7	0x3f7e39f4	0.9930718
8	0x3f86769e	1.0504949
9	0x3f72be97	0.9482207
10	0x3f86fd56	1.0546062
11	0x3f726044	0.9467814
12	0x3f7254e5	0.9466079
13	0x3f846846	1.0344322
14	0x3f78c494	0.97174954
15	0x3f7d928e	0.9905175
16	0x3f720c74	0.9455025
17	0x3f7cf61b	0.9881303
18	0x3f74baaf	0.95597357
19	0x3f86fba3	1.0545543
20	0x3f750f15	0.9572614
21	0x3f8422d7	1.0323132
22	0x3f82dda9	1.0223895
23	0x3f72f616	0.9490675
24	0x3f815e97	1.0106992
25	0x3f724caa	0.9464823
26	0x3f7db4a6	0.9910377
27	0x3f818789	1.0119487
28	0x3f73423f	0.9502296
29	0x3f799702	0.97496045
30	0x3f844239	1.033271
31	0x3f771551	0.965169

layer2.2.bias f4 [32]
0	0x3d52464f	0.051336583
1	0xbd485723	-0.048911225
2	0x3d0b264a	0.033972062
3	0x3d3b2fc9	0.04569987
4	0x3d50ddd1	0.05099279
5	0xbc53c68b	-0.012925754
6	0xbd65468e	-0.05597549
7	0xbc12eed6	-0.008968076
8	0x3d52fb90	0.05150944
9	0xbd532420	-0.051548123
10	0x3d598861	0.053108577
11	0xbd5a74f4	-0.05333419
12	0xbd5a32b4	-0.05327101
13	0x3d1bdc29	0.038051758
14	0xbd036289	-0.032076392
15	0xbc52d9e8	-0.012869336
16	0xbd57192a	-0.052514233
17	0xbc1ffc20	-0.009764701
18	0xbd3cbf20	-0.04608071
19	0x3d5ba555	0.05362447
20	0xbd305549	-0.043050084
21	0x3d0ff2b6	0.035143577
22	0x3cd21773	0.025645947
23	0xbd4f04c6	-0.05054166
24	0x3c42232e	0.011849208
25	0xbd5bf7db	-0.05370317
26	0xbb165a0a	-0.002294185
27	0x3c5c929a	0.013462687
28	0xbd44ba09	-0.04802898
29	0xbcd1f6b1	-0.025630327
30	0x3d12bd59	0.035825107
31	0xbd10442d	-0.035221267

layer2.2.running_mean f4 [32]
0	0x3eccfd88	0.4003718
1	0xbb9acf6f	-0.004724435
2	0x3ee37128	0.4442227
3	0x3f2fee09	0.6872259
4	0xbeb7193e	-0.35761446
5	0x3e7a3628	0.24434721
6	0x3d2bb055	0.04191621
7	0x3e297894	0.16549903
8	0x3f3969ea	0.7242724
9	0xbd25a463	-0.040439975
10	0x3f37928c	0.7170799
11	0xbeecf911	-0.46283773
12	0xbc3c6bee	-0.011500342
13	0xbe6f5268	-0.23371279
14	0x3cb3327c	0.021874659
15	0xbe0165c9	-0.12636484
16	0x3f572b81	0.84050757
17	0x3efe86d1	0.49712232
18	0xbd904299	-0.070439525
19	0x3f0e11f8	0.5549617
20	0xbf1049c7	-0.56362575
21	0xbea41f3b	-0.32055077
22	0x3e782e25	0.24236353
23	0x3e7158b2	0.23568991
24	0xbf08249b	-0.53180856
25	0xbdb12047	-0.086487345
26	0xbcb2f164	-0.02184362
27	0xbea7d4e3	-0.32779607
28	0x3d112717	0.03543767
29	0x3da5a031	0.08087195
30	0xbf0f17d5	-0.5589574
31	0xbefb4307	-0.49074575

layer2.2.running_var f4 [32]
0	0x3f2a7f9d	0.6660097
1	0x3f192842	0.59827054
2	0x3f1d90a4	0.6154883
3	0x3fe499d5	1.7859446
4	0x3f188330	0.59575176
5	0x3f22efb5	0.63647014
6	0x3f1cae2e	0.6120328
7	0x3f056249	0.52103096
8	0x3f7eb339	0.9949222
9	0x3f2a8507	0.66609234
10	0x3f3ecddf	0.74532884
11	0x3efd325f	0.49452493
12	0x3fa484e4	1.2853055
13	0x3f3d1777	0.7386393
14	0x3ed799b3	0.4210945
15	0x3f37135e	0.71513927
16	0x3f905cc8	1.1278315
17	0x3f18f2b7	0.59745353
18	0x3f301f81	0.6879807
19	0x3f1ecdbe	0.6203269
20	0x3f3f40e6	0.747084
21	0x3f28c29d	0.65921956
22	0x3ea67514	0.325112
23	0x3f25cfae	0.6477002
24	0x3f3c6c96	0.7360319
25	0x3f1155dd	0.5677164
26	0x3eeb1ad6	0.45918912
27	0x3f6f94c8	0.935864
28	0x3f315916	0.6927656
29	0x3f0012da	0.50028765
30	0x3ef5ff40	0.48046303
31	0x3f3ac82e	0.729617

fc_advantage.0.weight f4 [20, 32]
0	0xbe86e971	-0.26349977
1	0xbe279101	-0.16363908
2	0x3f02f979	0.51161915
3	0x3ced28da	0.028950144
4	0xbe2a8d4d	-0.16655464
5	0xbda5abdb	-0.080894195
6	0xbe2034e7	-0.1564518
7	0xbdff721c	-0.124729365
8	0x3e158073	0.1459978
9	0xbd1c455f	-0.038152095
10	0xbd73e307	-0.059542682
11	0xbd898b77	-0.06716054
12	0xbe03b602	-0.12862399
13	0x3d55895a	0.05213294
14	0x3e30a5a5	0.17250688
15	0x3e16d62b	0.14730136
16	0xbe3f86c6	-0.18703756
17	0x3e429001	0.19000246
18	0xbda4b829	-0.08042938
19	0xbdb382ba	-0.087651685
20	0x3d2931c0	0.04130721
21	0x3d9906e9	0.07472021
22	0xbe8c8913	-0.2744833
23	0xbe02d00e	-0.12774679
24	0x3ddd19b6	0.107959196
25	0xbe04759a	-0.12935486
26	0x3d0ab7a0	0.033866525
27	0x3df57686	0.11985497
28	0xbe4d3242	-0.20038703
29	0x3d4e3954	0.05034764
30	0xbe881a73	-0.2658268
31	0xbe359a01	-0.17734529
32	0xbce24c16	-0.027624171
33	0xbe3af64c	-0.18258017
34	0xbed2737c	-0.41103733
35	0xbe849411	-0.25894216
36	0x3d719533	0.058980178
37	0xbe4209ec	-0.18949097
38	0xbe7e7030	-0.24847484
39	0xbeb313e3	-0.3497611
40	0x3a8a709c	0.0010562125
41	0x3e5633e4	0.20918232
42	0x3e136a16	0.14395937
43	0x3ddca28d	0.107731916
44	0x3e27b28b	0.16376702
45	0xbe3fe5f2	-0.18740061
46	0x3dd2809b	0.10278436
47	0xbe1ef13f	-0.15521716
48	0xbd51de6b	-0.051237505
49	0xbeb6b472	-0.35684544
50	0xbe447d69	-0.19188465
51	0xbe047827	-0.1293646
52	0x3e14970a	0.14510742
53	0xbeb63c02	-0.35592657
54	0x3e72d41b	0.23713724
55	0x3c9e7a3a	0.019345392
56	0xbe5391dc	-0.2066111
57	0xbe8bc7e5	-0.27300945
58	0x3dd0a1de	0.10187124
59	0x3e08fff0	0.13378882
60	0x3e212a72	0.15738848
61	0xbc8bd831	-0.017070862
62	0x3cc125e5	0.02357764
63	0xbde01181	-0.109408386
64	0x3d43c716	0.047797285
65	0x3dc316d6	0.0952584
66	0xbedb490b	-0.42829165
67	0x3db7db56	0.08977382
68	0xba69f67a	-0.00089249725
69	0xbc7cbafb	-0.015425439
70	0xbdfed691	-0.12443269
71	0xbd89bbf6	-0.06725304
72	0xbdcf3ae0	-0.101186514
73	0xbe6feb11	-0.23429514
74	0x3d9d0a91	0.07668031
75	0xbe5cfebb	-0.21581547
76	0xbcb9c976	-0.022679072
77	0xbdecca05	-0.1156197
78	0x3df2f1a8	0.118624985
79	0x3e02c0be	0.12768838
80	0xbcbc5599	-0.022990035
81	0x3cc569e5	0.024098346
82	0x3eaf7ea9	0.34276322
83	0xbe804cce	-0.25058597
84	0x3d96c77e	0.07362269
85	0xbe4307b1	-0.19045903
86	0xbe567fbd	-0.20947166
87	0xbe256f33	-0.161557
88	0xbe0ea033	-0.13928299
89	0xbebea20a	-0.37233
90	0x3d48d21b	0.049028497
91	0xbd2e37e4	-0.04253377
92	0x3e8949e1	0.26814178
93	0xbe6f5948	-0.23373902
94	0x3e668aaa	0.22513834
95	0x3e0e33fb	0.13887016
96	0xbe4326d3	-0.19057779
97	0xbe2a9672	-0.16658953
98	0xbe9a93dd	-0.30190936
99	0xbe8a5d1c	-0.27024162
100	0x3e0263a9	0.1273333
101	0x3db8c42c	0.09021792
102	0xbe1a3ef7	-0.15063082
103	0xbe627df7	-0.22118364
104	0x3e5a6a8a	0.21329704
105	0x3d3f28c9	0.046669755
106	0x3f0a96da	0.5413643
107	0x39a09278	0.00030626706
108	0xbe3ddda4	-0.1854158
109	0xbc9036c9	-0.017604249
110	0xbe7251e0	-0.23664045
111	0x3e06e734	0.13174134
112	0x3e5d88ad	0.21634169
113	0xbe9f3a8d	-0.31099358
114	0x3dc04e73	0.09389963
115	0xbc88470a	-0.016635437
116	0x3e4ec148	0.20190918
117	0xbca1bb3a	-0.019742597
118	0xbdd9afe8	-0.106292546
119	0x3e0bf8e5	0.13669164
120	0xbe8d6c5a	-0.27621728
121	0x3cb209cf	0.021733193
122	0xbe8b269b	-0.2717789
123	0x3e3e90a9	0.18609871
124	0x3da339a7	0.07969981
125	0xbe48f3b3	-0.19624214
126	0x3da9178c	0.08256444
127	0xbe32a897	-0.17447124
128	0xbe212f71	-0.15740754
129	0xbdb94cf5	-0.090478815
130	0x3e53699f	0.2064576
131	0x3e99a253	0.30006656
132	0x3e37b709	0.17940916
133	0xbec3cdf7	-0.38243076
134	0xbea8f2a4	-0.3299762
135	0x3e0f2aef	0.13981222
136	0xbd96d45e	-0.073647246
137	0x3eb29d07	0.34885427
138	0x3e13f602	0.14449313
139	0x3d16d1c1	0.03682113
140	0x3eace2a7	0.33766672
141	0xbdc623af	-0.09674775
142	0xbe599380	-0.21247673
143	0xbecd8688	-0.40141702
144	0x3d7f58d4	0.062340572
145	0x3d9bf052	0.07614197
146	0xbdeb0c88	-0.114769995
147	0x3e6edb49	0.23325838
148	0xbe8078f5	-0.25092283
149	0x3cb5eb1a	0.022206832
150	0xbe6f91e2	-0.23395494
151	0xbe851775	-0.2599446
152	0x3e289fde	0.16467234
153	0x3e5cc3b3	0.21559028
154	0x3e5e208e	0.21692106
155	0xbea41c07	-0.32052633
156	0xbda91c3e	-0.0825734
157	0x3ddef816	0.108871624
158	0xbe3da27f	-0.18519019
159	0x3e5d8eb3	0.21636467
160	0x3c3aea19	0.011408352
161	0x3d0d625c	0.03451763
162	0xbe9e227c	-0.30885684
163	0xbbd01654	-0.006350318
164	0x3e97eb06	0.29671496
165	0xbe33b868	-0.17550814
166	0x3d266894	0.040627077
167	0x3ea2940f	0.31753585
168	0xbcde92f2	-0.027169678
169	0x3dca6c9f	0.09883999
170	0xbe4c6516	-0.19960436
171	0x3edd7cf3	0.4325939
172	0x3e6ab3a9	0.22920097
173	0x3e00fb28	0.12595809
174	0xbe6bd06e	-0.23028728
175	0x3cba2ec8	0.022727385
176	0xbc63f166	-0.013912534
177	0xbd189190	-0.037248194
178	0xbe73edc2	-0.23821166
179	0x3eaed5cb	0.34147486
180	0xbe440172	-0.19141176
181	0xbedbdcac	-0.42941797
182	0xbcbd9895	-0.023144046
183	0x3d04f052	0.03245575
184	0x3e872e20	0.26402378
185	0x3e204f5a	0.1565527
186	0xbdca4d65	-0.09878043
187	0xbdf8be55	-0.12145678
188	0x3c44e48e	0.012017382
189	0xbe0e0a39	-0.13871087
190	0x3d908d2d	0.07058177
191	0xbdf65ffa	-0.12030025
192	0x3e14cd04	0.14531332
193	0x3c1e8341	0.009674848
194	0xbdc218ea	-0.09477408
195	0xbb19efc2	-0.0023488854
196	0xbe65e384	-0.22450072
197	0x3ec89d72	0.3918262
198	0x3db7bcca	0.089715555
199	0x3e79cc73	0.24394397
200	0xbe2c2c9b	-0.1681389
201	0x3e4f0172	0.20215395
202	0xbe40de2d	-0.18834753
203	0xbd90d73f	-0.07072305
204	0xbe02acdf	-0.12761258
205	0xbed3908d	-0.4132122
206	0xbe9a08a3	-0.30084714
207	0xbe156b37	-0.1459168
208	0xbe438e17	-0.19097172
209	0xbe8d12bf	-0.27553365
210	0xbe320c26	-0.17387447
211	0x3e3fdf9b	0.18737642
212	0xbece3efc	-0.40282428
213	0xbcc7d442	-0.024393205
214	0x3e0dbff1	0.13842751
215	0x3dcc3c00	0.099723816
216	0x3b43a753	0.0029854372
217	0x3e87a7b5	0.26495138
218	0xbb60b6d0	-0.0034288652
219	0x3e13d777	0.14437662
220	0xbe28ab74	-0.16471654
221	0xbe4ab2e6	-0.19794807
222	0xbe9d5d48	-0.3073523
223	0x3d545b06	0.05184462
224	0xbe5dc58c	-0.2165739
225	0xbdac657f	-0.08417796
226	0xbd852bc4	-0.06502488
227	0xbe07a16d	-0.13245173
228	0x3e0e0468	0.13868868
229	0xbc02cf8a	-0.0079840515
230	0x3e5d1361	0.21589424
231	0x3e1b1cc1	0.15147687
232	0xbcd37a51	-0.025815161
233	0xbe31e229	-0.1737143
234	0xbdfa9ec0	-0.122373104
235	0xbe3102b1	-0.17286183
236	0xbede8b07	-0.43465444
237	0x3e05999e	0.13046882
238	0x3ea00749	0.31255558
239	0x3eb611bb	0.35560402
240	0x3db11729	0.086469956
241	0xbe78989e	-0.24276969
242	0xbdaef76d	-0.085432865
243	0x3ea16963	0.31525716
244	0x3e048093	0.12939672
245	0xbe42c17e	-0.19019124
246	0xbc846cd0	-0.016165167
247	0xbd83c30d	-0.06433687
248	0xbe8db766	-0.27678984
249	0x3d43666f	0.04770511
250	0xbd845fb1	-0.06463564
251	0x3e23c7cc	0.15994185
252	0x3e3cac10	0.18425012
253	0xbd234f54	-0.039870575
254	0x3dcdef66	0.10055427
255	0x3d25fb25	0.040522713
