save/client-8/eval.pth (torch, 42501 bytes, 27 tensors)

layer1_task.0.weight f4 [32, 3]
0	0x3c50c59e	0.012742428
1	0x3cdbe089	0.026840465
2	0xbe9675b4	-0.29386675
3	0xbe13529c	-0.14386982
4	0xbca698ed	-0.020336593
5	0xbcb3de2f	-0.021956531
6	0xbec6e9ad	-0.38850155
7	0x3d4e16f9	0.050314877
8	0x3ea6e347	0.32595274
9	0xbd4bc2e8	-0.049746424
10	0x3d9d0d6d	0.076685764
11	0x3e9a51c1	0.30140498
12	0xbcab2fbd	-0.020896787
13	0xbeb1ce84	-0.3472787
14	0x3c814e71	0.015784474
15	0x3e27dfb7	0.16393934
16	0xbbb60734	-0.005555058
17	0xbcd26122	-0.025681082
18	0xbe967e67	-0.29393312
19	0xbe77d439	-0.2420205
20	0x3da5093c	0.08058402
21	0xbddc0170	-0.10742462
22	0x3e09a888	0.13443196
23	0x3da8f09e	0.08249019
24	0xbd0000d4	-0.03125079
25	0x3ec4ed7f	0.38462445
26	0x3ce22295	0.02760438
27	0x3d337560	0.04381311
28	0xbe5669ac	-0.20938748
29	0xbe51a564	-0.20473248
30	0x3d27fc2c	0.041011974
31	0x3d50a0c0	0.050934553
32	0x3e17ca2e	0.14823219
33	0x3ca37731	0.019954296
34	0x3ee3c354	0.4448496
35	0xbe1ebc79	-0.15501584
36	0xbe678e33	-0.22612838
37	0xbe6654d3	-0.22493295
38	0x3e147d80	0.14501
39	0xbdc271c7	-0.094943576
40	0x3edcea04	0.4314729
41	0xbd20880a	-0.039192237
42	0xbdf98f0a	-0.12185486
43	0xbe848711	-0.25884297
44	0xbeb4b564	-0.3529464
45	0x3e0228fe	0.1271095
46	0x3e25664b	0.16152303
47	0x3ebb80cf	0.3662171
48	0x3e65c022	0.22436574
49	0x3e9c1090	0.30481386
50	0x3f05950a	0.5218054
51	0x3d26d299	0.040728185
52	0xbad12fec	-0.0015959716
53	0xbe41caeb	-0.18925063
54	0x3e1c32e4	0.15253788
55	0xbde3a32c	-0.11115107
56	0x3e24e196	0.16101679
57	0xbd013f52	-0.031554528
58	0xbe88ea14	-0.26741087
59	0xbd3783e3	-0.04480351
60	0xbf0d05bc	-0.55086875
61	0xbdb8fef7	-0.09033006
62	0xbd2427c9	-0.040077005
63	0x3e25733d	0.16157241
64	0xbebaf26a	-0.36513072
65	0x3cd9b9f7	0.026577933
66	0x3e035271	0.12824418
67	0x3e149060	0.145082
68	0xbd55aeda	-0.052168705
69	0xbe688804	-0.22708136
70	0x3db9e7d4	0.09077421
71	0x3d569be3	0.05239476
72	0xbda3b980	-0.07994366
73	0x3d37de10	0.04488951
74	0xbdacd3a4	-0.08438805
75	0x3e2c9772	0.16854647
76	0x3d0e8ea0	0.034803987
77	0xbe6acc8e	-0.22929594
78	0x3e6da1a7	0.23206197
79	0x3dcb98a9	0.09941227
80	0x3df15617	0.117839985
81	0xbc63d407	-0.013905532
82	0xbe13311c	-0.14374202
83	0x3dd6b4f4	0.10483733
84	0xbe7b1bd8	-0.2452234
85	0xbc3b864c	-0.011445593
86	0xbd874599	-0.066050716
87	0x3e9d66cf	0.307425
88	0xbeaaa54f	-0.33329245
89	0x3dd6e8cf	0.104936235
90	0x3e0fcc44	0.14042765
91	0x3c3ce050	0.01152809
92	0xbe856543	-0.2605382
93	0x3e0a51ce	0.13507769
94	0xbf21a502	-0.63142407
95	0x3e55c792	0.20876911

layer1_task.0.bias f4 [32]
0	0x3bf69140	0.0075246394
1	0xbc635c29	-0.013876953
2	0xbb801fc4	-0.0039100368
3	0xbb9fc5cb	-0.0048758737
4	0x3b1fa8b6	0.0024362034
5	0xbc83833c	-0.016053788
6	0xbbc0d00a	-0.005884175
7	0xbb23a488	-0.0024969894
8	0x3ac2b3af	0.0014854575
9	0xbc1b2482	-0.009469153
10	0xbc27c57e	-0.010239957
11	0xbb4fbd54	-0.0031698542
12	0x39b6c789	0.0003486241
13	0x3bb14509	0.005409841
14	0x3bf0439a	0.0073322775
15	0xbc0624ac	-0.008187454
16	0x3bcd5812	0.0062666023
17	0x3c0334b8	0.008008175
18	0xbc0da4f3	-0.008645284
19	0x3b14041f	0.0022585464
20	0x3baae96b	0.005215814
21	0xbc3b4319	-0.011429572
22	0xbc2287c2	-0.0099200625
23	0xbc3b521e	-0.0114331525
24	0x3a0ce6cc	0.00053749676
25	0xbc3945d8	-0.011308156
26	0x3b611fae	0.0034351158
27	0xbb9ce660	-0.004788205
28	0xbbb060b4	-0.0053826217
29	0xbc29eaec	-0.010370951
30	0x3bb869fc	0.0056278687
31	0x3bd11708	0.0063809194

layer1_task.2.weight f4 [32]
0	0x3f8129c1	1.0090867
1	0x3f7f9f27	0.9985222
2	0x3f7f8e5b	0.9982659
3	0x3f81d63e	1.0143507
4	0x3f7ec860	0.995245
5	0x3f824d1a	1.017978
6	0x3f81475c	1.0099902
7	0x3f8022f6	1.0010669
8	0x3f803db5	1.0018831
9	0x3f7bd138	0.9836612
10	0x3f81e39d	1.0147587
11	0x3f81014a	1.0078518
12	0x3f7ee42b	0.99566907
13	0x3f7ec557	0.99519867
14	0x3f804b83	1.0023044
15	0x3f805ab7	1.0027684
16	0x3f7f6366	0.99761045
17	0x3f7edd55	0.99556476
18	0x3f7f5738	0.9974246
19	0x3f7bc28e	0.9834374
20	0x3f80748a	1.0035565
21	0x3f800bf4	1.0003648
22	0x3f802853	1.0012306
23	0x3f81e0b3	1.0146698
24	0x3f81d892	1.0144217
25	0x3f807144	1.0034566
26	0x3f7b9203	0.9826967
27	0x3f825a53	1.0183815
28	0x3f7f230d	0.9966286
29	0x3f811928	1.0085802
30	0x3f7fef5a	0.99974597
31	0x3f8226ae	1.0168054

layer1_task.2.bias f4 [32]
0	0x3ba61228	0.0050680824
1	0xbbcbe0d8	-0.006221872
2	0x3aa19e34	0.0012330473
3	0x3c5792ed	0.013157588
4	0xbbc74d46	-0.0060822098
5	0x3c5a9334	0.01334076
6	0x3c2ac3a0	0.010422617
7	0x3bc1245a	0.005894226
8	0x3ba1caac	0.0049374904
9	0xbcc82956	-0.024433773
10	0x3c43b482	0.011944892
11	0x3c50609d	0.012718347
12	0x3b81b488	0.0039582886
13	0xbc08766c	-0.008329015
14	0x3bbcb7b2	0.005759203
15	0xbc8486dc	-0.016177587
16	0x3bb13550	0.0054079667
17	0x3c1edb67	0.009695864
18	0xbba12fce	-0.004919029
19	0xbc93c364	-0.018037505
20	0x3bad0e39	0.0052812365
21	0xbbf4543b	-0.00745633
22	0xbc5fbe86	-0.013656264
23	0x3bc16c6c	0.0059028175
24	0x3c82e34f	0.01597753
25	0x3a4b9856	0.0007766535
26	0xbcb42704	-0.02199126
27	0x3c8f9e2b	0.017531475
28	0xbb832580	-0.004002273
29	0x3c0dc83a	0.008653695
30	0x3b64ac2c	0.0034892661
31	0x3c807c5f	0.015684305

layer1_task.2.running_mean f4 [32]
0	0x44700434	960.0657
1	0xc5e717a9	-7394.9575
2	0xc6998610	-19651.031
3	0xc520542d	-2565.261
4	0xc44803b4	-800.05786
5	0x4600f344	8252.816
6	0xc66d8c07	-15203.007
7	0xc5a96e27	-5421.769
8	0xc4cc6d62	-1635.4182
9	0x4516b104	2411.0635
10	0x44cbee6e	1631.4509
11	0x443b7d97	749.96234
12	0xc6283fef	-10767.983
13	0xc59d75c2	-5038.7197
14	0xc5bb781e	-5999.0146
15	0x45bc33bd	6022.4673
16	0x462d0fc7	11075.944
17	0x44e0e682	1799.2034
18	0x45e7d2f7	7418.3706
19	0xc4b32554	-1433.1665
20	0xc6d14d6a	-26790.707
21	0x45f86cb1	7949.5864
22	0x45bdf692	6078.8213
23	0xc62f7231	-11228.548
24	0xc57069e2	-3846.6177
25	0x460154b2	8277.174
26	0x462dd229	11124.54
27	0xc42ce68b	-691.60223
28	0xc63185b2	-11361.424
29	0x4668e98c	14906.387
30	0x45e3c102	7288.126
31	0x45c8413e	6408.1553

layer1_task.2.running_var f4 [32]
0	0x4bd0ea1d	2.7382842e+07
1	0x4e997bbe	1.2875118e+09
2	0x500144dc	8.675095e+09
3	0x4d1f58e0	1.6708762e+08
4	0x4b820006	1.7039372e+07
5	0x4e5c9ac1	9.2528237e+08
6	0x4f9a2659	5.172409e+09
7	0x4e214d96	6.765541e+08
8	0x4bfd729b	3.3219894e+07
9	0x4c8c140a	7.344136e+07
10	0x4c001075	3.3571284e+07
11	0x4b5ddcf3	1.4540019e+07
12	0x4ed1c147	1.7595524e+09
13	0x4e079ada	5.687681e+08
14	0x4e3c4cea	7.897893e+08
15	0x4e4b4981	8.52648e+08
16	0x4f33e40a	3.0180664e+09
17	0x4c90e16c	7.595914e+07
18	0x4ea4b4d3	1.381657e+09
19	0x4c231e60	4.2760576e+07
20	0x507defaf	1.7041374e+10
21	0x4e4e580b	8.654691e+08
22	0x4e4cd837	8.591805e+08
23	0x4f20c786	2.6974305e+09
24	0x4d987901	3.1975837e+08
25	0x4eb9f540	1.5599288e+09
26	0x4ec099e9	1.6156561e+09
27	0x4b48de84	1.3164164e+07
28	0x4ed7abfe	1.8091866e+09
29	0x4f44c8dc	3.3014979e+09
30	0x4e917c53	1.220422e+09
31	0x4e700d5e	1.006852e+09

layer1_1vm.0.weight f4 [64, 40]
0	0x3b5893db	0.0033047113
1	0x3dd4d013	0.103912495
2	0x3cf56ddc	0.029959612
3	0xbc956d80	-0.01824069
4	0x3e4466fa	0.19179907
5	0xbd1e3319	-0.03862295
6	0x3cd4fb31	0.025998684
7	0xbde7b3be	-0.1131358
8	0xbdd24c91	-0.1026851
9	0xbd4d5826	-0.050132893
10	0xbdc35e7f	-0.09539508
11	0xbe47bd80	-0.19505882
12	0xbdac761a	-0.084209636
13	0xbc9e8778	-0.019351706
14	0xbe3a478f	-0.1819136
15	0x3db210e6	0.08694629
16	0xbd2cbd16	-0.042172514
17	0x3c7eeaad	0.015558881
18	0x3d6fa7f8	0.058509797
19	0xbe7f5f52	-0.24938706
20	0x3e875b67	0.26436922
21	0xbd803975	-0.06260959
22	0xbd95a618	-0.073070705
23	0xbd3d80d5	-0.046265442
24	0xbde7bfbc	-0.11315867
25	0xbcd0c036	-0.025482278
26	0x3e07d8e1	0.13266326
27	0xbe33e04e	-0.17566034
28	0x3ae57fa5	0.0017509355
29	0xbe685c36	-0.22691426
30	0xbe6dd002	-0.2322388
31	0xbd9a2b5f	-0.07527804
32	0xbc749e64	-0.014930341
33	0xbc40da8e	-0.0117708575
34	0x3e51931d	0.20466276
35	0x3c95e860	0.018299282
36	0x3def100e	0.11672984
37	0xbd8012be	-0.06253575
38	0x3de1e222	0.110294595
39	0x3d4eb263	0.05046309
40	0x3d074bda	0.033031322
41	0xbe4c5720	-0.1995511
42	0x3db13559	0.086527534
43	0x3e7759eb	0.24155395
44	0x3d5944eb	0.05304424
45	0x3e0c35c8	0.13692391
46	0xbdc40604	-0.0957146
47	0xbbd46b1e	-0.006482496
48	0xbe9cf648	-0.30656648
49	0xbd99f4eb	-0.075174175
50	0xbd6961da	-0.056978084
51	0xbbbc9266	-0.0057547567
52	0x3e18dc14	0.14927703
53	0x3d4de755	0.050269444
54	0xbe1e5ffe	-0.15466306
55	0xbd98fa0a	-0.07469566
56	0x3e7918b8	0.24325836
57	0x3e322e87	0.17400561
58	0x3d5e8b6e	0.05433219
59	0x3e33ddaa	0.17565027
60	0xbd975804	-0.073898345
61	0xbdc069da	-0.093951896
62	0xbdeac81a	-0.114639476
63	0x3e0430f0	0.12909293
64	0xbe3f480f	-0.18679832
65	0xbde14d5a	-0.11001082
66	0x3d1da8c7	0.038491037
67	0x3e67f22d	0.22650976
68	0x3e34b936	0.17648777
69	0xbe3c7816	-0.18405184
70	0xbda5281c	-0.08064291
71	0xbc061cd3	-0.008185583
72	0x3db85f7f	0.090025894
73	0x3d9326c7	0.071851306
74	0x3d9ec9aa	0.07753308
75	0xbb82ba8c	-0.0039895233
76	0xbe977e89	-0.29588726
77	0x3e37ab60	0.17936468
78	0x3e2cf244	0.16889292
79	0xbbb25ad3	-0.005442956
80	0xbbe9ee68	-0.007139016
81	0xbe5d1265	-0.21589048
82	0xbd923db6	-0.07140677
83	0x3d3ef98f	0.046624716
84	0xbe33181c	-0.17489666
85	0x3d706598	0.058690637
86	0x3dba8fc8	0.09109455
87	0x3d40e2ba	0.047091223
88	0xbe43ddb2	-0.19127539
89	0xbe2fa39c	-0.17152256
90	0xbc5cda00	-0.01347971
91	0x3d4c9d94	0.049954966
92	0x3c8ab3a0	0.016931355
93	0x3ceeb722	0.029140059
94	0x3ba2bee1	0.004966602
95	0xbc896f75	-0.01677678
96	0xbd97e8c0	-0.074174404
97	0x3e4b4686	0.19851121
98	0x3c2a1188	0.010380156
99	0x3d1dad0a	0.0384951
100	0x3d7c7428	0.061634213
101	0xbccebd12	-0.02523664
102	0x3d916d6c	0.07100949
103	0xbdcf4c0b	-0.10121926
104	0x3e35655f	0.17714451
105	0xbb32c1b6	-0.0027276105
106	0xbd7b72e1	-0.061388854
107	0x3dc8476b	0.09779247
108	0xbe4b8429	-0.19874634
109	0xbdf38a1a	-0.11891575
110	0xbe0add02	-0.1356087
111	0x3c9164d4	0.017748274
112	0x3d59ef53	0.053206753
113	0xbc329644	-0.010900084
114	0x3ce2b245	0.027672896
115	0x3e4ef866	0.20211944
116	0x3d2b0c26	0.041759633
117	0xbcb9462f	-0.022616474
118	0x3db737a6	0.08946161
119	0xbe87c5da	-0.26518136
120	0xbdec99d5	-0.11552779
121	0xbd19f214	-0.03758438
122	0x3e3db0a8	0.1852442
123	0xbe359bfa	-0.17735282
124	0x3cad375b	0.02114456
125	0x3d785596	0.060628496
126	0xbbd74426	-0.006569403
127	0x3b12d8e2	0.0022407104
128	0xbdac8ddf	-0.08425497
129	0xbc750d6a	-0.014956811
130	0xbcee8103	-0.029114252
131	0x3dc89e96	0.09795873
132	0x3c49a249	0.012306758
133	0xbda96d10	-0.08272755
134	0xbe440caf	-0.19145463
135	0xbddf8cc0	-0.10915518
136	0x3c611339	0.013737493
137	0xbe0e0662	-0.13869622
138	0x3b8714ad	0.004122338
139	0x3e63a913	0.22232465
140	0xbb03ae54	-0.0020092921
141	0x3e37a0ba	0.17932406
142	0x3d6c9282	0.05775691
143	0x3cb467d6	0.02202217
144	0xbe415acb	-0.18882291
145	0x3d9056b6	0.07047789
146	0x3e280f6f	0.16412137
147	0x3daf2c3d	0.0855336
148	0x3dd42019	0.10357685
149	0x3e8b89de	0.27253622
150	0xbd949b93	-0.07256236
151	0x3dd4f7c9	0.10398824
152	0xbea4ceeb	-0.32189116
153	0xbe6b83e2	-0.22999528
154	0xbe1b9f34	-0.1519745
155	0xbe6bbd86	-0.23021516
156	0x3d894ccb	0.067041
157	0x3df91f4a	0.12164171
158	0xbe2bd4f6	-0.16780457
159	0x3d319b9f	0.043361302
160	0xbdc6af48	-0.09701401
161	0xbe04b91d	-0.1296124
162	0xbe6d1714	-0.23153335
163	0xbe40b967	-0.18820725
164	0xbe9063e0	-0.282012
165	0xbd5b9a18	-0.053613752
166	0xbdbaa884	-0.09114173
167	0x3da7bb17	0.081899814
168	0x3de3facd	0.11131821
169	0x3dc258a1	0.09489561
170	0x3dcdd313	0.10050025
171	0xbd810c4f	-0.06301176
172	0x3e3cfa8f	0.18454956
173	0x3d9eaacb	0.0774742
174	0xbe0462b7	-0.12928282
175	0x3c9bb3c2	0.019006614
176	0xbdf49e30	-0.11944234
177	0x3e06bc90	0.13157868
178	0x3d2f6397	0.042819586
179	0x3e1b7f96	0.15185389
180	0xbd38ea46	-0.045145296
181	0xbddb0ada	-0.10695429
182	0x3e1bafe2	0.15203813
183	0x3e6a68aa	0.22891489
184	0x3df4360a	0.1192437
185	0x3d1f6e4c	0.038923547
186	0xbcbd239c	-0.023088269
187	0xbe14e2fc	-0.14539713
188	0xbe449c26	-0.19200191
189	0x3d9f5070	0.07779014
190	0x3e16904a	0.1470348
191	0x3e1026e7	0.1407734
192	0x3d5d6c6a	0.05405847
193	0x3e85fd1f	0.2616968
194	0xbc3df452	-0.011593895
195	0x3d7ab495	0.061207373
196	0xbe3170b8	-0.17328155
197	0xbd4821f6	-0.048860513
198	0x3e40ade8	0.1881634
199	0x3e3ef4e7	0.1864811
200	0xbd8b9064	-0.0681465
201	0xbd240822	-0.04004682
202	0x3d9993de	0.074989066
203	0xbd424374	-0.04742761
204	0x3d105436	0.03523656
205	0x3d954405	0.07288364
206	0x3c1d2d3e	0.009593306
207	0x3d38d84e	0.04512816
208	0x3d608052	0.054809876
209	0x3dd14873	0.10218897
210	0xbdf387fc	-0.11891171
211	0xbe2e0560	-0.16994238
212	0x3db4a2e7	0.08820134
213	0x3d845fc8	0.06463581
214	0x3d57ff4c	0.052733704
215	0x3e1d11fe	0.15338895
216	0x3e8fd666	0.2809326
217	0x3e8c4ebc	0.2740382
218	0x3cbeedc0	0.023306727
219	0x3caa852b	0.020815453
220	0xbd8bd7a3	-0.06828239
221	0x3e102ca0	0.14079523
222	0x3c93b45b	0.018030336
223	0x3e76a272	0.24085405
224	0x3d286ebe	0.041121237
225	0xbd9a3a2e	-0.07530628
226	0xbb9e6adf	-0.0048345174
227	0x3d1b1e11	0.03787047
228	0x3cec8df4	0.028876282
229	0xbdb23887	-0.08702188
230	0x3d035dde	0.03207194
231	0x3d890429	0.066902466
232	0xbc761330	-0.015019223
233	0xbe93e0ee	-0.28882545
234	0x3c9630df	0.01833385
235	0xbe6247d3	-0.22097711
236	0xbda0c336	-0.078497335
237	0xbcf7062e	-0.030154314
238	0x3e948269	0.29005745
239	0x3e102e5d	0.14080186
240	0xbdf895e3	-0.121379636
241	0xbe5ba6c0	-0.21450329
242	0xbbe5c9d8	-0.007012587
243	0x3dd235d5	0.10264174
244	0xbda707cd	-0.08155785
245	0xbe0d47b6	-0.13796887
246	0xbda63620	-0.08115792
247	0xbdc609f3	-0.096698664
248	0x3c8aa923	0.016926354
249	0xbd80e19d	-0.06293032
250	0xbdec6ef4	-0.115446
251	0x3ddf9ab3	0.109181784
252	0xbe892a21	-0.26789954
253	0x3cc734a2	0.02431709
254	0xbd63ef3c	-0.055648074
255	0x3e8d4fca	0.27599937

layer1_1vm.0.bias f4 [64]
0	0x3ba716d5	0.0050991573
1	0x3a4bff38	0.0007781866
2	0x3a4891ee	0.000765114
3	0x3a721ad8	0.00092355674
4	0x3c261444	0.010136668
5	0x3b3e2dd9	0.0029019027
6	0x3b26f576	0.0025475896
7	0x3b3aa02a	0.0028476813
8	0x3b1b3e2a	0.0023688176
9	0xba686d93	-0.00088664255
10	0x3c22a4aa	0.009926954
11	0x3b132ec5	0.0022458297
12	0x39c25c38	0.00037071272
13	0x3b16c4ad	0.0023005411
14	0x3af72144	0.0018854518
15	0x3b0f3259	0.0021850078
16	0xbbac0aee	-0.0052503264
17	0xbae4637e	-0.001742467
18	0xbbc8870a	-0.0061196135
19	0x3c2d9101	0.010593654
20	0x3a20a9ee	0.0006128837
21	0x3bc880d4	0.006118873
22	0x3c08521e	0.0083203595
23	0x3a1f0368	0.0006065876
24	0x39b2aa1a	0.0003407754
25	0x3b1a6b0d	0.0023562342
26	0x3b107c5e	0.0022046785
27	0x38da6c37	0.000104152066
28	0x3982c36c	0.00024941133
29	0xbb47d6fd	-0.0030493133
30	0x3a585f80	0.00082539767
31	0x3a96ccae	0.0011505091
32	0x3af2626e	0.0018492469
33	0xbb425456	-0.002965232
34	0x3bbd06ec	0.0057686474
35	0xbac8e389	-0.00153266
36	0xba79ddca	-0.00095316453
37	0x3bf8f01d	0.007596983
38	0xbbd977f4	-0.006636614
39	0xb9c3b505	-0.00037328168
40	0x3bb6821d	0.00556971
41	0xbb1ae7ca	-0.0023636692
42	0xba3c0c7f	-0.0007173493
43	0xb9e195de	-0.00043027004
44	0x3b23a716	0.0024971417
45	0xba941868	-0.0011298778
46	0xbc00ec76	-0.007868877
47	0x3a80c85b	0.0009825336
48	0x3aa4b646	0.0012566529
49	0xbb082a96	-0.0020777336
50	0xba9b0f31	-0.0011830089
51	0x3980e484	0.0002458432
52	0xbb2a97aa	-0.002603034
53	0xbaef1f57	-0.0018243593
54	0x3b11005c	0.0022125458
55	0xba055975	-0.00050868775
56	0x3bf2a12e	0.007404468
57	0x3c1118c8	0.008856006
58	0xba635e77	-0.0008673439
59	0xbbbe9dd7	-0.005817156
60	0xbb090750	-0.00209089
61	0xbace67e4	-0.0015747515
62	0xbbaa3fc0	-0.005195588
63	0xbb4792cf	-0.0030452495

layer1_1vm.2.weight f4 [64]
0	0x3f802753	1.0012001
1	0x3f7d59c6	0.9896511
2	0x3f80b229	1.005437
3	0x3f7e3c70	0.9931097
4	0x3f8105fd	1.0079952
5	0x3f8144df	1.0099143
6	0x3f7d1a70	0.98868465
7	0x3f7c9589	0.9866567
8	0x3f7e5233	0.99344176
9	0x3f80e445	1.0069662
10	0x3f80258d	1.001146
11	0x3f822e99	1.017047
12	0x3f80e23b	1.006904
13	0x3f7fe7d0	0.9996309
14	0x3f806160	1.0029716
15	0x3f80c1bc	1.0059123
16	0x3f804a00	1.0022583
17	0x3f7e2fd3	0.99291724
18	0x3f7f8a9b	0.9982087
19	0x3f7f2993	0.9967281
20	0x3f80f497	1.0074643
21	0x3f7fe09e	0.99952114
22	0x3f80b365	1.0054747
23	0x3f7fc75c	0.99913573
24	0x3f7fbf6a	0.9990145
25	0x3f80f12f	1.0073603
26	0x3f7d3204	0.9890444
27	0x3f7fc84b	0.99915
28	0x3f803684	1.0016637
29	0x3f81c546	1.0138328
30	0x3f7e27de	0.9927958
31	0x3f8046d4	1.0021615
32	0x3f7f1645	0.99643356
33	0x3f8139c0	1.0095749
34	0x3f80a973	1.0051712
35	0x3f7eba78	0.9950328
36	0x3f80c329	1.0059558
37	0x3f8028dd	1.001247
38	0x3f814b42	1.0101092
39	0x3f7d6ddd	0.98995763
40	0x3f81acdb	1.0130876
41	0x3f7ed4c1	0.99543387
42	0x3f7f1a04	0.9964907
43	0x3f7f3a3b	0.9969823
44	0x3f80654f	1.0030917
45	0x3f7c19f0	0.9847708
46	0x3f7dfb2e	0.99211395
47	0x3f80bb1d	1.0057102
48	0x3f7df8b7	0.99207634
49	0x3f7f2d51	0.9967852
50	0x3f804333	1.0020508
51	0x3f7d5dde	0.98971355
52	0x3f7f79c8	0.997952
53	0x3f804df1	1.0023786
54	0x3f7ec08a	0.9951254
55	0x3f7d37ae	0.98913085
56	0x3f800ec2	1.0004504
57	0x3f7d8a4d	0.99039155
58	0x3f804d4a	1.0023587
59	0x3f805307	1.0025338
60	0x3f7f7a75	0.9979623
61	0x3f809563	1.0045589
62	0x3f805d61	1.0028497
63	0x3f7e49b1	0.99331194

layer1_1vm.2.bias f4 [64]
0	0x39f01241	0.00045789967
1	0xbc232afb	-0.009958978
2	0x3b8e164a	0.004336153
3	0xbbd5acdc	-0.0065208506
4	0x3bfcdbe2	0.0077166418
5	0x3c314db4	0.0108217485
6	0xbc3aab98	-0.01139345
7	0xbc5bb9c3	-0.013410988
8	0xbbec582e	-0.0072126603
9	0x3be2741c	0.006910814
10	0x3b86cb87	0.004113618
11	0x3c7f175f	0.015569537
12	0x3bddfb35	0.006774331
13	0xb942a1f4	-0.00018561614
14	0x3b78e736	0.003797961
15	0x3bdcdfb6	0.0067405356
16	0x3acf604a	0.0015821543
17	0xbbbfab58	-0.005849283
18	0xba557db2	-0.0008144035
19	0xbb2cc1f7	-0.002636073
20	0x3c0939b1	0.008375571
21	0xb9f6c9d6	-0.00047071156
22	0x3bbac385	0.0056995773
23	0x3966f65a	0.00022026282
24	0xb80a5f40	-3.2990472e-05
25	0x3bee33b5	0.0072693476
26	0xbc42fb36	-0.011900714
27	0xba3819b0	-0.00070228707
28	0xb7e9a2d0	-2.785158e-05
29	0x3c579d72	0.0131600965
30	0xbc0b6eb8	-0.008510284
31	0x3b1f8e29	0.0024346209
32	0xbb91fc2f	-0.0044551115
33	0x3bfcc603	0.0077140345
34	0x3bb79c8f	0.00560338
35	0xbba8134d	-0.005129254
36	0x3baf8f21	0.0053576385
37	0x3b877a4d	0.0041344524
38	0x3c3e8b5b	0.011629905
39	0xbc2ba744	-0.010476891
40	0x3c54a515	0.012978812
41	0xbba38dca	-0.004991268
42	0xbb341763	-0.002747976
43	0xbb6be3cc	-0.0035993932
44	0x3b0f0c4c	0.0021827398
45	0xbc5cd071	-0.013477431
46	0xbbee2c8b	-0.0072684935
47	0x3b9b53f1	0.004740231
48	0xbbfa5026	-0.007638949
49	0xbabbb0c0	-0.0014319643
50	0x3aa66790	0.0012695659
51	0xbc1fceee	-0.009753926
52	0xbaaa8cf0	-0.0013011973
53	0x3b393642	0.00282611
54	0xbbb99ab8	-0.005664196
55	0xbc2b62bb	-0.010460551
56	0xbaca8024	-0.0015449566
57	0xbb839061	-0.004015014
58	0x3b2c85e0	0.0026324913
59	0x3abce622	0.0014411847
60	0xbb2b0c90	-0.0026100017
61	0x3ba9bfe4	0.005180346
62	0x3b1ac31a	0.0023614825
63	0xbc0e9730	-0.008703038

layer1_1vm.2.running_mean f4 [64]
0	0x45def430	7134.5234
1	0xc494344c	-1185.6343
2	0x44f43478	1953.6396
3	0xc646e464	-12729.098
4	0x448da8c2	1133.2737
5	0x45eb7658	7534.793
6	0x451957b6	2453.482
7	0x461f178a	10181.885
8	0xc6199733	-9829.8
9	0xc596a56d	-4820.678
10	0x44b7f75f	1471.7303
11	0x46145782	9493.877
12	0xc540bf97	-3083.9744
13	0x45f0ec01	7709.5005
14	0x4638c9f5	11826.489
15	0x461ed0c0	10164.1875
16	0x45eeadf3	7637.7437
17	0x462dae53	11115.581
18	0x463c3070	12044.109
19	0x4585de96	4283.823
20	0xc58f53d4	-4586.4785
21	0x458fb795	4598.9478
22	0x449d6cac	1259.396
23	0xc5243773	-2627.4656
24	0xc5ba1296	-5954.323
25	0x45887638	4366.7773
26	0x463ccee6	12083.725
27	0xc6268441	-10657.063
28	0x45f2ae66	7765.8
29	0x46035e02	8407.502
30	0x46b0d24f	22633.154
31	0xc5fce6fd	-8092.8735
32	0x46162fa6	9611.912
33	0x44f5c078	1966.0146
34	0x458c9045	4498.0337
35	0xc4534da6	-845.21326
36	0x45f4a39f	7828.4526
37	0x43cf451c	414.53992
38	0xc4df9893	-1788.768
39	0xc6051349	-8516.821
40	0x4556044a	3424.268
41	0xc63fec56	-12283.084
42	0x467b47bd	16081.935
43	0x4628f395	10812.8955
44	0x454e4447	3300.2673
45	0x45174e06	2420.8765
46	0xc416d1c6	-603.2777
47	0xc5fc684c	-8077.037
48	0x4463b8b3	910.8859
49	0x44745e34	977.4719
50	0xc68f3653	-18331.162
51	0xc58344ae	-4200.585
52	0xc44e04d0	-824.0752
53	0x45d95cfc	6955.623
54	0x45c24c92	6217.5713
55	0xc5d1835e	-6704.421
56	0x43da60aa	436.7552
57	0x4547e3ec	3198.245
58	0xc5ebd892	-7547.0713
59	0xc578f476	-3983.2788
60	0x46465a0f	12694.515
61	0x4618eae2	9786.721
62	0xc448ef30	-803.7373
63	0xc5fcae69	-8085.8013

layer1_1vm.2.running_var f4 [64]
0	0x4b52e9dc	1.3822428e+07
1	0x48ed7049	486274.28
2	0x4993a469	1.2094851e+06
3	0x4c2ae86a	4.480247e+07
4	0x48e2c396	464412.7
5	0x4b70111b	1.5733019e+07
6	0x49ee2480	1.950864e+06
7	0x4bd7eb60	2.8300992e+07
8	0x4bc34ac1	2.5597314e+07
9	0x4adfd986	7.335107e+06
10	0x493e1052	778501.1
11	0x4bd6a3ff	2.8133374e+07
12	0x4a254cf5	2.7082852e+06
13	0x4b739d9a	1.5965594e+07
14	0x4c33cb15	4.7131732e+07
15	0x4be99b57	3.061931e+07
16	0x4b8b93e8	1.8294736e+07
17	0x4c0d7a3d	3.7087476e+07
18	0x4c1c9395	4.1045588e+07
19	0x4abc503e	6.170655e+06
20	0x4abdbbd5	6.2171945e+06
21	0x4adce9a2	7.238865e+06
22	0x48f93bbe	510429.94
23	0x49d1ab47	1.7176089e+06
24	0x4b2011f6	1.0490358e+07
25	0x4abe5c21	6.2377125e+06
26	0x4c0cc9d9	3.6906852e+07
27	0x4bf90b1a	3.2642612e+07
28	0x4b6e3fed	1.5613933e+07
29	0x4b8ec7b8	1.871448e+07
30	0x4d06648e	1.4092106e+08
31	0x4b8cc31e	1.844998e+07
32	0x4bbf532c	2.5077336e+07
33	0x499ba6c5	1.2750966e+06
34	0x4aac6c9a	5.649997e+06
35	0x487f4ec3	261435.05
36	0x4b887735	1.7886826e+07
37	0x4801e250	133001.25
38	0x4972b685	994152.3
39	0x4b98b3bf	2.0014974e+07
40	0x4a63de1f	3.7333838e+06
41	0x4c213cf7	4.2267612e+07
42	0x4c91f7a8	7.652896e+07
43	0x4c06789a	3.525079e+07
44	0x4a4dca95	3.3716852e+06
45	0x49d091f6	1.7086068e+06
46	0x484d423c	210184.94
47	0x4b903a3e	1.8904188e+07
48	0x48a65327	340633.22
49	0x489edebc	325365.88
50	0x4cae30b5	9.1325864e+07
51	0x4ab7b2f6	6.019451e+06
52	0x488b2ff8	285055.75
53	0x4b5afd15	1.4351637e+07
54	0x4b19cdb9	1.0079673e+07
55	0x4b691897	1.5276183e+07
56	0x48182456	155793.34
57	0x4a463e32	3.2480125e+06
58	0x4b7df050	1.6642128e+07
59	0x4a8c70ae	4.601943e+06
60	0x4c1468cd	3.8904628e+07
61	0x4bcdd930	2.698096e+07
62	0x488e9169	291979.28
63	0x4ba89472	2.20961e+07

layer1_2vm.0.weight f4 [32, 64]
0	0x3e015a24	0.12632042
1	0x3b988fca	0.004655813
2	0x3db0fbb5	0.08641759
3	0xbd8ed53e	-0.069742665
4	0x3e5db43b	0.21650784
5	0x3c89a806	0.016803753
6	0x3e2b7d93	0.16747122
7	0xbadf9310	-0.0017057378
8	0x3d63e7f4	0.05564113
9	0xbe080140	-0.13281727
10	0x3db88fea	0.090118244
11	0x3ce8b8f3	0.028408503
12	0x3d910e54	0.07082811
13	0xbe00dc8b	-0.1258413
14	0x3e831278	0.25600028
15	0xbdfa22f3	-0.12213697
16	0xbd45e9ff	-0.04831886
17	0x3b7da7cb	0.0038704749
18	0x3e3cf17c	0.18451494
19	0x3d88324b	0.066502176
20	0xbe6d61f8	-0.23181903
21	0xbe5e6a09	-0.21720137
22	0xbd99b896	-0.0750591
23	0xbbca19cc	-0.006167626
24	0xbc605e54	-0.013694365
25	0x3b28cfe3	0.0025758676
26	0xbc977aeb	-0.018491229
27	0x3ce57bd2	0.028013144
28	0x3cbb9b7c	0.02290129
29	0xbd74e7e7	-0.05979147
30	0x3dcd8b51	0.10036338
31	0xbe8c1cfc	-0.27365863
32	0xbe0509e4	-0.12992054
33	0x3e074a8b	0.1321203
34	0x3de6837f	0.1125555
35	0xbd5861a8	-0.052827507
36	0xbe37e332	-0.17957762
37	0x3dc4dbac	0.096122116
38	0xbe1b81b0	-0.1518619
39	0xbdd42b57	-0.10359829
40	0x3de5830b	0.11206635
41	0x3db5b1e9	0.08871824
42	0xbb0bc6c4	-0.002132819
43	0x3e4894c6	0.19588003
44	0xbd11c1be	-0.035585158
45	0x3d1672de	0.03673064
46	0xbe873412	-0.26406914
47	0xbdd8de44	-0.10589269
48	0xbdbc8c53	-0.09206452
49	0x3e0d9373	0.13825779
50	0xbd7373ee	-0.05943673
51	0xbe42c0c8	-0.19018853
52	0x3e2ad75e	0.16683719
53	0xbce601fc	-0.028077118
54	0x3d6be659	0.057592724
55	0xbe07a200	-0.13245392
56	0xbdce87c4	-0.10084489
57	0x3e920764	0.28521264
58	0xbd98df04	-0.07464412
59	0xbe8a939a	-0.27065736
60	0x3df49383	0.11942198
61	0xbcc9c848	-0.024631634
62	0xbe1da9f1	-0.15396859
63	0xbdd457ae	-0.10368286
64	0x3dde68d0	0.10859835
65	0x3dfc952a	0.12333138
66	0x3e29c597	0.16579281
67	0xbe3bfec0	-0.18358898
68	0x3e44102b	0.19146793
69	0x3d336cd3	0.043804955
70	0xbeabf0a2	-0.33582026
71	0xbe3d76bd	-0.18502326
72	0x3e2c7861	0.16842796
73	0xbe3b461d	-0.18288465
74	0x3e59ce8f	0.21270202
75	0xbd825174	-0.06363192
76	0xbe2eacea	-0.17058149
77	0xbdf50d6d	-0.119654514
78	0xbe41b5d9	-0.18917026
79	0xbe08d900	-0.13364029
80	0xbdaa2a8a	-0.08308895
81	0xbac70ec6	-0.0015186898
82	0x3efab24b	0.48964152
83	0x3e73bb38	0.23801887
84	0xbe7d16b6	-0.24715695
85	0x3ac8087a	0.0015261315
86	0xbde8eecf	-0.11373674
87	0x3c1e2d10	0.009654298
88	0x3d22f07f	0.039780136
89	0x3c6c6de8	0.014430501
90	0x3d8a8adf	0.06764769
91	0xbd9adb93	-0.07561412
92	0x3d817865	0.063217916
93	0x3ce62fb3	0.028098917
94	0xbd6c43f4	-0.057681993
95	0x3e30603e	0.17224213
96	0x3dcf2db9	0.10116143
97	0xbe87795a	-0.2645977
98	0xbe691d61	-0.22765113
99	0xbd6e114a	-0.058121957
100	0x3dd9653b	0.10615011
101	0xbe89a330	-0.26882315
102	0xbd9ca2f5	-0.07648269
103	0xbe0636b4	-0.13106805
104	0xbe44be76	-0.1921328
105	0x3c0783c6	0.008271163
106	0x3c452246	0.012032097
107	0xbe36ef9e	-0.17864844
108	0x3cd7cc9a	0.026342679
109	0xbd87c2af	-0.0662893
110	0xbde7e236	-0.11322443
111	0x3ddcaf90	0.107756734
112	0xbe49cdcc	-0.19707412
113	0xbe1cbff1	-0.15307595
114	0xbd427808	-0.047477752
115	0x3d7598e8	0.059960276
116	0xbe4895dd	-0.19588418
117	0xbd98c97e	-0.074603066
118	0x3ce54665	0.027987668
119	0x3dfdab1e	0.12386154
120	0xbd1e1d90	-0.03860241
121	0xbe5e61f0	-0.21717048
122	0x3daf0504	0.085458785
123	0x3dfa8223	0.12231853
124	0xbd9cb4ba	-0.07651658
125	0xbc513256	-0.012768349
126	0x3e26f5d7	0.16304718
127	0xbd26492a	-0.04059712
128	0xbe711465	-0.23542936
129	0x3dcbac24	0.099449426
130	0x3d0a8236	0.033815585
131	0x3d9ac2d7	0.07556694
132	0x3df760ae	0.12078987
133	0x3e8dcd25	0.27695575
134	0xbe2d7aaf	-0.16941331
135	0xbe699a4d	-0.22812767
136	0x3e5d51d5	0.21613248
137	0xbe3dd3f9	-0.18537892
138	0x3e42f8d7	0.19040237
139	0xbe070c45	-0.13188274
140	0xbebc3e2e	-0.3676619
141	0x3e117c96	0.14207682
142	0x3dcc3bf0	0.0997237
143	0x3e7b3e54	0.24535495
144	0x3e0f9347	0.14021026
145	0x3da0718f	0.078341596
146	0xbdd0cd99	-0.10195465
147	0xbe395ad8	-0.1810106
148	0xbe3473c3	-0.17622285
149	0x3dfc52c8	0.12320477
150	0xbe1d98ad	-0.15390272
151	0x3dbedc3c	0.0931935
152	0xbe844502	-0.258339
153	0x3e36911d	0.17828794
154	0xbe954c53	-0.29159793
155	0x3cacbb20	0.021085322
156	0x3d8b99d7	0.06816452
157	0xbdef6ea2	-0.116910234
158	0xbe1b8ab5	-0.15189631
159	0xbdf75018	-0.120758235
160	0xbd99e637	-0.07514613
161	0x3d25aeea	0.040450014
162	0x3e151123	0.14557318
163	0xbda12171	-0.078677066
164	0x3e6102f4	0.21973783
165	0xbdac1a77	-0.08403485
166	0x3d6edf4a	0.058318414
167	0x3cfdf0be	0.030998584
168	0x3c6b98a9	0.014379659
169	0xbe702134	-0.23450166
170	0x3d827472	0.063698664
171	0xbca97b54	-0.02068869
172	0x3d0ccabe	0.034373038
173	0x3d910f45	0.070829906
174	0x3decdddf	0.11565756
175	0xbdfdc6c4	-0.12391427
176	0xbdc64c49	-0.09682519
177	0xbe293ae4	-0.16526371
178	0xbe085388	-0.13313115
179	0x3dc2a3c3	0.09503891
180	0xbe1003f4	-0.14064008
181	0x3d2b1b96	0.041774355
182	0xbd3df77f	-0.04637861
183	0xbe26dae8	-0.16294444
184	0x3ebb7062	0.3660918
185	0xbcba4d1a	-0.022741843
186	0x3e39a886	0.18130693
187	0x3d9891de	0.07449697
188	0x3dd29155	0.10281626
189	0x3e07a535	0.13246615
190	0xbe1f39fa	-0.1554946
191	0xbdb2332a	-0.08701165
192	0x3b33aefc	0.0027417531
193	0xbe12a94a	-0.14322391
194	0x3c53352b	0.012891094
195	0xbca32c68	-0.019918635
196	0xbd88b54a	-0.06675203
197	0x3d8a7bfd	0.0676193
198	0x3bece2f1	0.007229202
199	0xbe1efb4f	-0.15525554
200	0xbb6c9d15	-0.003610437
201	0x3e213f08	0.15746701
202	0xbd750711	-0.059821192
203	0xbe4e776a	-0.2016274
204	0x3e081f5b	0.13293211
205	0xbd88e79b	-0.066848
206	0xbe8a9179	-0.27064112
207	0xbdeeb9c4	-0.11656526
208	0xbaed5c2f	-0.0018109138
209	0x3d76691f	0.060158845
210	0xbc7f00b5	-0.015564133
211	0xbdbbf231	-0.09177054
212	0x3e69f240	0.22846317
213	0x3d951985	0.07280258
214	0x3c514d59	0.012774789
215	0x3d974e1e	0.073879465
216	0xbd1941e9	-0.037416372
217	0xbe8581f1	-0.260757
218	0x3d33ba69	0.043878946
219	0xbd9faf5b	-0.07797118
220	0xbd8805c4	-0.06641725
221	0xbd5c412a	-0.053773083
222	0x3e1cc75e	0.15310428
223	0xbe4f76af	-0.20260118
224	0xbc976d11	-0.018484624
225	0xbd12b677	-0.035818543
226	0xbd806262	-0.06268765
227	0x3e25e245	0.16199596
228	0x3d36119b	0.044450384
229	0xbc688ee2	-0.014194222
230	0xbdadf7df	-0.08494543
231	0xbc754522	-0.014970096
232	0x3b91088e	0.0044260686
233	0x3e06e98c	0.13175029
234	0x3a3f9898	0.000730881
235	0xbd5023a7	-0.05081525
236	0x3e0ae0c5	0.13562305
237	0x3e49b0a8	0.19696295
238	0x3e8cd47b	0.2750586
239	0x3cf50229	0.029908257
240	0x3d5b5d2e	0.05355566
241	0xbe62696b	-0.22110526
242	0x3d452e94	0.048140123
243	0xbd521223	-0.051286828
244	0xbe422447	-0.18959151
245	0x3da9c0ec	0.0828875
246	0x3e1f638f	0.15565322
247	0x3da15a43	0.07878544
248	0x3e296412	0.1654208
249	0x3c147fed	0.009063703
250	0xbc8bbf48	-0.017058983
251	0xbe98605b	-0.29761013
252	0xbcb1b12d	-0.02169093
253	0xbe934c67	-0.28769228
254	0xbdcd0d2c	-0.10012278
255	0x3d8128d6	0.06306617

layer1_2vm.0.bias f4 [32]
0	0x3c44f6ce	0.012021733
1	0xbb6bbcf8	-0.0035970788
2	0x3c16b0aa	0.009197393
3	0xbbd7ef5e	-0.006589814
4	0x3c125362	0.008931013
5	0xbba0da81	-0.00490886
6	0x3bf9bb73	0.0076212226
7	0xbbe3926e	-0.006944946
8	0xbb8c68ee	-0.0042849695
9	0xba1250ba	-0.0005581487
10	0xbb9f2f67	-0.0048579457
11	0x3b98cf3b	0.0046633757
12	0xbb0fc803	-0.0021939285
13	0x3b488bbc	0.0030600866
14	0xbc842514	-0.016130961
15	0x3b8b2b18	0.0042470805
16	0x3b2f5a23	0.0026756607
17	0xbb1b2274	-0.0023671659
18	0x3bb1b629	0.0054233265
19	0xbcab4f24	-0.02091176
20	0x3c1322ac	0.008980434
21	0x3c0cf5d5	0.008603533
22	0xbc1e0483	-0.00964463
23	0x3a84030c	0.0010071709
24	0x3c1adc9f	0.009452014
25	0x3c4a5530	0.012349412
26	0xbb05f6da	-0.0020441324
27	0xbb10e8b8	-0.0022111367
28	0xbc52126a	-0.012821773
29	0x3c17f720	0.009275228
30	0x3bb60182	0.005554379
31	0x3c1bfc7d	0.009520647

layer1_2vm.2.weight f4 [32]
0	0x3f7e902a	0.99438727
1	0x3f8263de	1.0186727
2	0x3f8062b5	1.0030123
3	0x3f81abb3	1.0130523
4	0x3f80315b	1.0015062
5	0x3f7fc722	0.9991323
6	0x3f806cc2	1.003319
7	0x3f7fc470	0.99909115
8	0x3f7ea773	0.9947426
9	0x3f7a43ef	0.9775991
10	0x3f806643	1.0031208
11	0x3f806dd8	1.0033522
12	0x3f7c7a33	0.9862396
13	0x3f7bb2fc	0.98319983
14	0x3f8068db	1.0031999
15	0x3f7ebe37	0.99508995
16	0x3f7be36f	0.9839391
17	0x3f7cf417	0.9880995
18	0x3f7d6740	0.9898567
19	0x3f7857f9	0.97009236
20	0x3f8051de	1.0024984
21	0x3f7e91f9	0.99441487
22	0x3f8052c0	1.0025253
23	0x3f809eae	1.0048425
24	0x3f81307e	1.0092924
25	0x3f7da742	0.9908334
26	0x3f7bd85b	0.9837701
27	0x3f7e8d09	0.9943395
28	0x3f7e849a	0.99421084
29	0x3f81eec5	1.0150992
30	0x3f7fda3f	0.9994239
31	0x3f7f6bd6	0.9977392

layer1_2vm.2.bias f4 [32]
0	0xbc240c0c	-0.010012638
1	0x3ca16e36	0.019705873
2	0x3ab0f345	0.0013500234
3	0x3c8fa5e6	0.017535161
4	0x3bd928b0	0.006627165
5	0xbbf42170	-0.007450275
6	0x3b6d3ea0	0.0036200657
7	0xbbd189b4	-0.0063945893
8	0xbb2e837a	-0.002662866
9	0xbcc8ec45	-0.024526725
10	0xbc135cfb	-0.008994336
11	0x3c607812	0.013700502
12	0xbca99789	-0.02070214
13	0xbc62177e	-0.013799546
14	0x3c8070c2	0.015678767
15	0xb981c538	-0.00024751737
16	0xbc6112f4	-0.013737429
17	0xbc3be58e	-0.011468304
18	0x3b53ba97	0.003230726
19	0xbced7050	-0.028984219
20	0x3bb76268	0.0055964477
21	0xbac251ee	-0.0014825442
22	0x3ca9e6ff	0.02074003
23	0xbbed463d	-0.007241039
24	0x3ba4a403	0.0050244345
25	0xbc04658a	-0.008080849
26	0xbc275b68	-0.010214664
27	0xbb69ed31	-0.0035694356
28	0xbc10b5a8	-0.008832373
29	0x3c4853e2	0.0122270305
30	0x3b97f5b6	0.0046374453
31	0xbc8a35c3	-0.016871339

layer1_2vm.2.running_mean f4 [32]
0	0xbeb1e94a	-0.34748298
1	0xbf18bb60	-0.5966091
2	0xbe3b1b24	-0.18272072
3	0xbe528cda	-0.20561543
4	0xbeeb3149	-0.4593604
5	0x3e542101	0.20715715
6	0xbee314fb	-0.44351944
7	0x3dee31c3	0.11630585
8	0x3edef055	0.43542734
9	0xbeba293f	-0.36359593
10	0x3eb7a1b8	0.3586557
11	0x3f1e2417	0.6177382
12	0xbe15d967	-0.14633714
13	0x3bc6a6f6	0.0060623838
14	0xbeb2d246	-0.3492605
15	0xbebf7b0b	-0.37398562
16	0xbee5538a	-0.44790298
17	0xbe3519bc	-0.17685598
18	0x3eff19db	0.49824414
19	0x3d99bc4d	0.07506619
20	0xbf589a85	-0.8461078
21	0x3eb8bc11	0.36080983
22	0xbed2cf7d	-0.41173926
23	0xbe23a21c	-0.15979809
24	0xbd9379e9	-0.07200987
25	0x3f005ba9	0.5013986
26	0xbcbab7ed	-0.02279278
27	0x3f05ac8d	0.52216417
28	0x3dabb0b4	0.08383313
29	0x3f08b76c	0.5340488
30	0x3edb4137	0.42823192
31	0xbe515ab5	-0.20444758

layer1_2vm.2.running_var f4 [32]
0	0x3f154361	0.5830594
1	0x3f146d1d	0.57978994
2	0x3f24ea9d	0.6442049
3	0x3ef7e655	0.48417917
4	0x3f13a8ab	0.5767924
5	0x3f135a05	0.57559234
6	0x3f137c97	0.57611984
7	0x3f0a8fe2	0.541258
8	0x3ecbc2cf	0.39797065
9	0x3f103887	0.56336254
10	0x3f1911a7	0.5979256
11	0x3f25bd06	0.6474155
12	0x3efa01ef	0.488296
13	0x3f2ab85c	0.6668756
14	0x3f0cfdf0	0.5507498
15	0x3f315810	0.69275
16	0x3ee15097	0.44006798
17	0x3ee6f8f4	0.4511181
18	0x3f3bdccf	0.733838
19	0x3eedb282	0.46425253
20	0x3f733270	0.94998837
21	0x3f116927	0.56801075
22	0x3f1723f6	0.5903925
23	0x3f080f25	0.5314811
24	0x3f0c0260	0.54691124
25	0x3ee1dde5	0.44114605
26	0x3ed68d0c	0.41904485
27	0x3f08b89a	0.5340668
28	0x3ee46c2d	0.44613782
29	0x3f34860e	0.7051705
30	0x3f0191da	0.50613177
31	0x3f06d255	0.5266469

layer2.0.weight f4 [32, 64]
0	0x3b0e56e9	0.0021719283
1	0xbc791ae5	-0.015204166
2	0xbd5657a5	-0.052329678
3	0x3e726fee	0.2367551
4	0x3da9c6f1	0.08289898
5	0x3dccd303	0.10001185
6	0x3e863c7c	0.2621802
7	0x3d8dfa22	0.06932475
8	0x3df0391d	0.117296435
9	0xbdd8c06a	-0.10583575
10	0x3e639d2f	0.2222793
11	0x3d464452	0.048405
12	0xbd9eded4	-0.07757345
13	0x3b1d4416	0.0023996881
14	0xbc1aeaf3	-0.00945543
15	0xbc5e1191	-0.013553993
16	0x3e8913be	0.26772875
17	0xbe3e407b	-0.18579285
18	0xbdfa109a	-0.12210198
19	0xbdd929a3	-0.10603645
20	0x3d8f2eb5	0.069913305
21	0x3d6974c3	0.05699612
22	0xbd311b82	-0.043239124
23	0xbd9e5a9b	-0.07732125
24	0x3e2c0245	0.16797741
25	0x3ca996ac	0.020701729
26	0xbe3e1277	-0.18561731
27	0x3e55f955	0.20895894
28	0xbe375f46	-0.17907438
29	0x3d96b951	0.07359565
30	0x3da5a7b5	0.08088628
31	0x3de31865	0.11088637
32	0xbe186676	-0.14882836
33	0x3e88398c	0.26606405
34	0x3d868e04	0.06570056
35	0x3e1f23fc	0.1554107
36	0x3e749cce	0.23887941
37	0x3e104eeb	0.14092605
38	0x3b11f110	0.0022268929
39	0x3d0e8fa1	0.034804944
40	0xbd7de7c5	-0.06198861
41	0xbdcf9840	-0.10136461
42	0xbd9f9bca	-0.07793386
43	0x3e001904	0.12509543
44	0xbdd81aa8	-0.10551959
45	0xbd34f79c	-0.04418145
46	0x3ec5a6bd	0.38603774
47	0xbda49782	-0.0803671
48	0xbdaeaca4	-0.08529022
49	0xbdff4540	-0.1246438
50	0x3d334365	0.043765444
51	0xbe3a9e87	-0.18224536
52	0xbcaab2dd	-0.020837242
53	0x3e10f133	0.1415451
54	0x3ec272f7	0.37978336
55	0xbe283ab5	-0.16428645
56	0xbddc7549	-0.10764558
57	0xbe1811be	-0.14850518
58	0xbe506fa8	-0.20355093
59	0x3d40511f	0.046952363
60	0xbe02917a	-0.12750807
61	0x3d6d2f06	0.057906173
62	0x3e446b1b	0.19181482
63	0xbe970178	-0.29493308
64	0x3e0d7ba9	0.13816704
65	0x3c0d7b48	0.00863535
66	0xbcf7c4a2	-0.030245129
67	0x3b85dd4a	0.0040852176
68	0x3e631dbf	0.22179316
69	0xbd20fc43	-0.039303076
70	0xbde66572	-0.11249818
71	0x3a96a2fe	0.0011492667
72	0xbe8139b9	-0.2523935
73	0xbc398c06	-0.011324888
74	0x3e625063	0.22100978
75	0xbd7d328c	-0.061815783
76	0xbd227454	-0.03966172
77	0x3ca0578d	0.019572997
78	0x3e48a9ac	0.19595975
79	0x3d3f28a6	0.046669625
80	0x3e00876a	0.12551656
81	0x3d8bb931	0.06822432
82	0xbd5c3082	-0.0537572
83	0x3d7006af	0.058600124
84	0xbea38f3a	-0.3194521
85	0x3e0c6e7b	0.1371402
86	0xbd1f74dc	-0.038929805
87	0x3e17e148	0.14832032
88	0xbc521a74	-0.01282369
89	0x3df8e2b3	0.121526144
90	0x3c75cc4a	0.01500232
91	0xbd31f024	-0.043441907
92	0x3d80def7	0.06292527
93	0xbe5a1a0b	-0.21298997
94	0x3e658e8d	0.2241766
95	0xbe385ea1	-0.18004848
96	0xbdb46b96	-0.08809583
97	0xbdd3a8dd	-0.103349425
98	0xbcc14a1e	-0.023594912
99	0xbe242110	-0.16028237
100	0xbd2fc292	-0.042910166
101	0x3d30e390	0.04318577
102	0xbd228fde	-0.039687984
103	0x3daa7df5	0.08324806
104	0x3d5b9f65	0.053618807
105	0x3ed97598	0.4247253
106	0xbe0d20aa	-0.13781992
107	0xbe8693c0	-0.262846
108	0x3de66f73	0.11251726
109	0x3dd02606	0.101635024
110	0x3dc16292	0.09442629
111	0xbec0096f	-0.37507197
112	0xbdc04f5b	-0.09390136
113	0xbced71cd	-0.028984929
114	0x3e1b3aee	0.15159199
115	0x3df85d30	0.12127149
116	0xbc5ab53f	-0.0133488765
117	0xbd21c92a	-0.039498486
118	0xbe08ff8d	-0.13378735
119	0xbe0a40b2	-0.13501242
120	0xbdeae68f	-0.11469757
121	0xbdfbfaa0	-0.12303662
122	0xbe1002ab	-0.14063518
123	0xbc34ab5e	-0.011027185
124	0xbc884f86	-0.016639482
125	0x3c954ecc	0.01822605
126	0x3cb2b615	0.02181534
127	0x3e784906	0.24246606
128	0xbe10388d	-0.14084072
129	0xbcb5af71	-0.022178384
130	0xbdf63cc7	-0.12023311
131	0x3da51b5d	0.0806186
132	0x3e126088	0.14294636
133	0xb9ba5a00	-0.0003554374
134	0xbd54947c	-0.05189942
135	0x3e2dc567	0.16969834
136	0x3d56ec32	0.052471347
137	0x3e09ab44	0.13444239
138	0x3e11aa9e	0.14225242
139	0xbe2f76f0	-0.17135215
140	0x3e02eff3	0.12786846
141	0x3d26438e	0.04059177
142	0x3d06169c	0.032736406
143	0xbd8d7dc0	-0.069087505
144	0xbbf8101f	-0.007570281
145	0x3d52618f	0.05136257
146	0xbe0c44d6	-0.13698134
147	0x3e3edce1	0.18638946
148	0x3e550bfa	0.2080535
149	0x3d299939	0.04140589
150	0xbd5ee3b2	-0.054416366
151	0x3c11f9c5	0.008909647
152	0x3b34fc98	0.0027616378
153	0xbe93cd57	-0.288676
154	0xbce1a20e	-0.027543094
155	0x3b8a35e2	0.004217849
156	0xbc0867dc	-0.008325543
157	0x3e527cdf	0.20555447
158	0x3c421f7c	0.011848327
159	0xbddecbd7	-0.10878723
160	0x3e6ae16b	0.22937553
161	0x3ce39dc2	0.027785186
162	0x3eb5e44a	0.35525733
163	0x3d8f2520	0.06989503
164	0x3dc082a3	0.09399917
165	0xbdf7863c	-0.1208615
166	0xbdafa996	-0.08577268
167	0xbc0eb98e	-0.008711232
168	0xbdaba493	-0.083809994
169	0x3cb1e077	0.021713478
170	0xbe1fdcf7	-0.15611635
171	0xbdaa315c	-0.08310196
172	0x3e5168a2	0.2045007
173	0x3e5d2b3b	0.21598522
174	0xbd9214ad	-0.0713285
175	0x3b8d5914	0.0043135975
176	0xbd45e17e	-0.04831075
177	0x3e3565fb	0.17714684
178	0xbe66f70d	-0.2255518
179	0xbda562c0	-0.08075476
180	0xbb58529c	-0.0033008223
181	0x3da9619b	0.0827057
182	0xbd6f657d	-0.058446396
183	0x3d91267c	0.070874184
184	0xbe199a23	-0.15000205
185	0xbdec112e	-0.11526714
186	0x3d8461da	0.06463976
187	0x3e10b54b	0.14131658
188	0xbde4ac3c	-0.111656636
189	0x3e262be0	0.16227674
190	0x3dad61e8	0.0846594
191	0x3e38b254	0.18036777
192	0xbc896904	-0.016773708
193	0xbdb1f457	-0.08689182
194	0x3dc715cd	0.09720955
195	0xbe2914c9	-0.16511835
196	0x3e2da1e6	0.1695629
197	0x3e3b4e7e	0.18291661
198	0xbe7ad924	-0.24496895
199	0xbe5769dd	-0.21036477
200	0xbdceb07c	-0.100922555
201	0x3e48878c	0.19582957
202	0xbdb34bd0	-0.087546945
203	0xbccf7060	-0.02532214
204	0xbd5a2eee	-0.053267412
205	0xbdab6832	-0.08369483
206	0x3dbf9c02	0.09355928
207	0xbd5ec714	-0.054389074
208	0x3e552687	0.20815478
209	0x3e276446	0.16346845
210	0x3e7a8eca	0.24468532
211	0x3e486c5e	0.19572589
212	0xbdd5c744	-0.104383975
213	0x3ea57e3c	0.32322872
214	0xb9c73a9a	-0.000379999
215	0x3e477ffe	0.19482419
216	0xbe1c1f25	-0.15246256
217	0x3db1215e	0.086489424
218	0x3d8018a8	0.06254703
219	0xbd397ef0	-0.045287073
220	0xbe8002ac	-0.25002038
221	0x3e149e56	0.14513525
222	0x3ddcd994	0.10783687
223	0x3cf6d804	0.030132301
224	0x3c7524e5	0.01496241
225	0x3e80c9e2	0.25154024
226	0xbe769c49	-0.24083056
227	0x3e511ec4	0.20421892
228	0xbeacfa71	-0.33784822
229	0xbd9fda22	-0.078052774
230	0xbd840ab6	-0.064473554
231	0x3d97e6d8	0.07417077
232	0x3cd7f9f5	0.026364306
233	0x3b1effca	0.002426135
234	0x3d0ca1ea	0.0343341
235	0x3e61467e	0.21999547
236	0x3bc7d769	0.006098677
237	0x3e852f58	0.26012683
238	0x3e0bd0a9	0.13653816
239	0xbdd9b97c	-0.106310815
240	0xbde0d5cc	-0.109782785
241	0xbd6e0b44	-0.058116212
242	0x3e1388ce	0.14407656
243	0xbd4dbecd	-0.05023079
244	0xbd96a25d	-0.07355187
245	0xbc44f127	-0.012020386
246	0x3ddca5d7	0.10773819
247	0xbd331b73	-0.04372735
248	0x3db8cd54	0.09023538
249	0xbd7bef5b	-0.061507564
250	0xbbaf6d82	-0.0053536305
251	0x3e275d75	0.16344245
252	0x3e930248	0.28712678
253	0x3d9d0350	0.076666474
254	0x3e968042	0.29394728
255	0x3ba96cce	0.005170441

layer2.0.bias f4 [32]
0	0x3d4e1c38	0.05031988
1	0xbd25ffcf	-0.04052716
2	0x3ca82882	0.020527128
3	0x3d1f1bda	0.03884492
4	0xbce90bff	-0.028448103
5	0xbc40ec1a	-0.011775041
6	0xbd02078e	-0.031745486
7	0xbb99fb68	-0.0046991594
8	0x3c9c5070	0.019081324
9	0x39ace9e1	0.0003298065
10	0x3d0ea1f7	0.03482243
11	0x3c990853	0.018680727
12	0x3b9b5ff9	0.0047416654
13	0xbcba8e54	-0.022772945
14	0x3a462230	0.0007558195
15	0xbc0e71d6	-0.008694133
16	0xbc6e33d7	-0.014538727
17	0x3a2a68b0	0.0006500585
18	0x3c0a0137	0.008423141
19	0x3d4053dd	0.04695498
20	0xb96c5db0	-0.00022541615
21	0xbb158d7f	-0.0022819934
22	0x3cb7ceab	0.022437414
23	0xbd43c222	-0.04779256
24	0xbbb0d43a	-0.005396393
25	0x3caf8cc3	0.021429425
26	0xbb18a522	-0.0023291786
27	0xbc008f6c	-0.007846694
28	0xbd2241cd	-0.039613534
29	0xbcdf81d1	-0.027283581
30	0xba75b830	-0.00093734544
31	0x3c61db0e	0.013785137

layer2.2.weight f4 [32]
0	0x3f868daf	1.0511988
1	0x3f76a5b3	0.96346587
2	0x3f82ce4d	1.0219208
3	0x3f85b838	1.0446844
4	0x3f868463	1.0509151
5	0x3f7dec68	0.9918885
6	0x3f71f345	0.94511825
7	0x3f7e7388	0.99395037
8	0x3f8674a3	1.0504345
9	0x3f72c8d9	0.9483772
10	0x3f8701f0	1.0547466
11	0x3f725bc3	0.9467127
12	0x3f724e8c	0.94651103
13	0x3f846be3	1.0345424
14	0x3f78c1b9	0.971706
15	0x3f801f8c	1.0009627
16	0x3f722206	0.94583166
17	0x3f7dd4aa	0.99152625
18	0x3f7483bd	0.95513517
19	0x3f86fb58	1.0545454
20	0x3f753882	0.9578935
21	0x3f829d5d	1.0204273
22	0x3f82ee5a	1.0228989
23	0x3f73005a	0.9492241
24	0x3f82e0df	1.0224875
25	0x3f724c92	0.9464809
26	0x3f7fb655	0.9988759
27	0x3f81875e	1.0119436
28	0x3f73950a	0.9514929
29	0x3f77bb91	0.9677058
30	0x3f82bae8	1.0213289
31	0x3f7497cf	0.9554414

layer2.2.bias f4 [32]
0	0x3d524d3a	0.05134318
1	0xbd177995	-0.036981184
2	0x3cb45d77	0.022017224
3	0x3d3b9113	0.04579265
4	0x3d500f5a	0.05079589
5	0xbc3c6d92	-0.011500733
6	0xbd648b2a	-0.05579678
7	0xbc11a580	-0.008889556
8	0x3d530ce5	0.05152597
9	0xbd521bfb	-0.051296216
10	0x3d5979c6	0.053094648
11	0xbd5a51c0	-0.05330062
12	0xbd59a2eb	-0.053133886
13	0x3d1e4c56	0.03864702
14	0xbd04814c	-0.03234987
15	0xbb068289	-0.0020524582
16	0xbd565648	-0.052328378
17	0xbbcfb9c4	-0.0063392837
18	0xbd3bcae2	-0.04584778
19	0x3d5ba466	0.05362358
20	0xbd2cdde1	-0.042203788
21	0x3cbebd48	0.023283616
22	0x3cd50460	0.026003063
23	0xbd4ef6dc	-0.050528392
24	0x3cbe9c17	0.023267789
25	0xbd5bd3f9	-0.05366895
26	0xbb0b155c	-0.0021222448
27	0x3c5d1237	0.013493112
28	0xbd3b9623	-0.04579748
29	0xbd05b80e	-0.03264623
30	0x3cc4a9ff	0.024006842
31	0xbd34cbf2	-0.04413981

layer2.2.running_mean f4 [32]
0	0x3ed88daa	0.4229558
1	0xbc0a8123	-0.00845364
2	0x3ee46e5e	0.44615453
3	0x3f38d443	0.72198886
4	0xbebc5daf	-0.36790225
5	0x3e88c45a	0.26712304
6	0x3d140f63	0.036147486
7	0x3e17ceaf	0.14824937
8	0x3f4b6d50	0.7946367
9	0xbcc43fef	-0.023956267
10	0x3f3906b6	0.72275865
11	0xbef2d540	-0.47428322
12	0xbc2364ea	-0.00997279
13	0xbe67196c	-0.22568291
14	0x3b537822	0.003226765
15	0xbe0ae7c4	-0.13564974
16	0x3f51a380	0.81890106
17	0x3f02efd9	0.5114723
18	0xbd959f49	-0.07305772
19	0x3f0fb712	0.5613872
20	0xbf159482	-0.5842973
21	0xbe91ac2d	-0.28451672
22	0x3e76e225	0.24109705
23	0x3e5e735e	0.21723697
24	0xbf0501cb	-0.5195586
25	0xbdc041b6	-0.09387533
26	0xbbdedc24	-0.006801145
27	0xbea0c970	-0.31403685
28	0x3cca0eaf	0.024665205
29	0x3da01cbc	0.07817981
30	0xbf0b619b	-0.5444581
31	0xbf0266ef	-0.50938314

layer2.2.running_var f4 [32]
0	0x3f2d000e	0.6757821
1	0x3f175596	0.5911497
2	0x3f190c69	0.5978456
3	0x3fab8d9f	1.3402594
4	0x3f24287c	0.64124274
5	0x3f060404	0.5234988
6	0x3f18875a	0.5958153
7	0x3f18daf9	0.59709126
8	0x3f7a17fd	0.97692853
9	0x3f281e8b	0.65671605
10	0x3f53d499	0.82746273
11	0x3ef6dffe	0.48217767
12	0x3f69c915	0.9132245
13	0x3f3948af	0.7237653
14	0x3ef316d0	0.47478342
15	0x3f239139	0.6389347
16	0x3f6ff205	0.9372867
17	0x3f1db561	0.6160489
18	0x3f2c304b	0.6726119
19	0x3f2fe92d	0.68715173
20	0x3f3bc3e3	0.73345774
21	0x3f251e91	0.64499766
22	0x3ea72b29	0.32650116
23	0x3f4156a1	0.7552281
24	0x3f43689f	0.76331514
25	0x3f1e339e	0.6179751
26	0x3ef1d442	0.47232252
27	0x3f55aa56	0.83463037
28	0x3f217023	0.6306173
29	0x3f087ccc	0.53315425
30	0x3eebf51e	0.46085447
31	0x3f3472a8	0.7048745

fc_advantage.0.weight f4 [20, 32]
0	0xbe870eb9	-0.2637842
1	0xbe27922b	-0.16364352
2	0x3f0079e5	0.50185996
3	0x3ced0049	0.0289308
4	0xbe2a85da	-0.16652623
5	0xbdade1a7	-0.084903054
6	0xbe2c4447	-0.1682292
7	0xbdffd05a	-0.12490912
8	0x3e1582e1	0.14600708
9	0xbd3ab853	-0.04558594
10	0xbd74863a	-0.05969832
11	0xbd8982bf	-0.06714391
12	0xbe03b80e	-0.1286318
13	0x3d55c16c	0.052186415
14	0x3e305e21	0.17223407
15	0x3e0f4f44	0.13995081
16	0xbe3f7d03	-0.18700032
17	0x3e39c383	0.18140988
18	0xbda4babe	-0.08043431
19	0xbdb7f429	-0.08982117
20	0x3d07e4d2	0.033177204
21	0x3d98d513	0.07462516
22	0xbe8c870a	-0.27446777
23	0xbe0ed6c8	-0.1394912
24	0x3ddbce5f	0.107327215
25	0xbe0476fc	-0.12936014
26	0x3d0b1c06	0.033962272
27	0x3df54f1c	0.119779795
28	0xbe4d2eb9	-0.20037355
29	0x3d4e3a8c	0.050348803
30	0xbe881779	-0.26580408
31	0xbe35e1b2	-0.17761877
32	0xbcf87980	-0.030331373
33	0xbe3f1cc2	-0.18663314
34	0xbed2761e	-0.4110574
35	0xbe84954a	-0.2589515
36	0x3d65e8ec	0.056130335
37	0xbe424fec	-0.189758
38	0xbe805d27	-0.2507107
39	0xbeb31813	-0.34979305
40	0xba04dce4	-0.00050683157
41	0x3e55f442	0.20893958
42	0x3e0ff63e	0.14058778
43	0x3dda5c00	0.10662079
44	0x3e27aea5	0.16375215
45	0xbe404ab1	-0.18778493
46	0x3dc9e491	0.09858049
47	0xbe20b2e8	-0.15693247
48	0xbd51b49f	-0.051197644
49	0xbeb7a8d5	-0.35870996
50	0xbe447e1b	-0.1918873
51	0xbe06d6c6	-0.13167867
52	0x3e138017	0.14404331
53	0xbeb7cd0b	-0.35898623
54	0x3e6ef2df	0.23334835
55	0x3c9ddafa	0.019269455
56	0xbe57ad0e	-0.21062109
57	0xbe8d3278	-0.27577567
58	0x3dcf36fc	0.10117909
59	0x3e08ff9b	0.13378756
60	0x3e212e4f	0.15740322
61	0xbc8bdaf8	-0.017072186
62	0x3cad4a9b	0.021153739
63	0xbde73228	-0.112888634
64	0x3d43b6a9	0.04778162
65	0x3dc30395	0.095221676
66	0xbedb4bfe	-0.42831415
67	0x3db7d015	0.089752354
68	0xbbfbc9bc	-0.0076839607
69	0xbc81202b	-0.01576241
70	0xbdfed367	-0.124426655
71	0xbd89b453	-0.06723847
72	0xbdded621	-0.108806856
73	0xbe6ff45e	-0.23433062
74	0x3d98f804	0.0746918
75	0xbe66abfe	-0.22526547
76	0xbcb9dca4	-0.022688217
77	0xbded0aab	-0.115743004
78	0x3df2f845	0.1186376
79	0x3ded34f6	0.11582367
80	0xbcbfb216	-0.023400348
81	0x3cb995d5	0.022654453
82	0x3eaf7dd7	0.34275696
83	0xbe804c96	-0.2505843
84	0x3d855022	0.06509425
85	0xbe43c385	-0.19117554
86	0xbe5da773	-0.21645908
87	0xbe25889e	-0.16165397
88	0xbe0f7a42	-0.14011481
89	0xbebea357	-0.37233993
90	0x3d44b799	0.048026655
91	0xbd57dc66	-0.052700423
92	0x3e840c0d	0.25790444
93	0xbe6f59c2	-0.23374084
94	0x3e64447f	0.22291754
95	0x3e0df14a	0.13861576
96	0xbe432ad9	-0.19059314
97	0xbe2a942c	-0.16658086
98	0xbe9a96b1	-0.30193093
99	0xbe8a5fb8	-0.27026153
100	0x3e026b1a	0.12736169
101	0x3db8b9f1	0.090198405
102	0xbe1a3cc5	-0.15062244
103	0xbe62889e	-0.22122428
104	0x3e5a6cf9	0.21330632
105	0x3d3f059f	0.04663622
106	0x3f0a9827	0.54138416
107	0x3992e830	0.00028020283
108	0xbe3de0e6	-0.18542823
109	0xbc8fc658	-0.017550632
110	0xbe724e3b	-0.23662655
111	0x3e06daee	0.13169453
112	0x3e5d9335	0.21638186
113	0xbe9f3808	-0.31097436
114	0x3dc049ba	0.09389062
115	0xbc87fd9c	-0.016600423
116	0x3e4ec264	0.20191342
117	0xbca16fa7	-0.01970656
118	0xbdd9a75e	-0.10627626
119	0x3e0bdf73	0.13659458
120	0xbe8d701b	-0.27624592
121	0x3cb1fa75	0.021725873
122	0xbe8b1a1d	-0.2716836
123	0x3e3e8fbe	0.18609521
124	0x3da34023	0.079712175
125	0xbe48f3c7	-0.19624244
126	0x3da923b2	0.082587615
127	0xbe32ad1e	-0.17448851
128	0xbe2a6695	-0.16640694
129	0xbdb97a91	-0.09056581
130	0x3e4ba12b	0.198857
131	0x3e99a11b	0.30005726
132	0x3e2fd75d	0.17171998
133	0xbec3cf24	-0.38243973
134	0xbea8f53a	-0.32999593
135	0x3e0edc37	0.13951193
136	0xbda781e7	-0.08179074
137	0x3eb271cc	0.34852445
138	0x3e0b2182	0.13587001
139	0x3d0fdca7	0.03512254
140	0x3eace1e4	0.3376609
141	0xbdc6031c	-0.09668562
142	0xbe59fc2f	-0.21287607
143	0xbed359b3	-0.41279373
144	0x3d7f82a3	0.062380444
145	0x3d846f35	0.064665236
146	0xbdfe8f88	-0.1242972
147	0x3e6b41fb	0.22974388
148	0xbe8405ab	-0.25785574
149	0x3c9a5b6b	0.01884242
150	0xbe76883c	-0.24075407
151	0xbe852510	-0.2600484
152	0x3e286c71	0.16447617
153	0x3e52a0c5	0.20569141
154	0x3e560efe	0.20904157
155	0xbea9201f	-0.3303232
156	0xbdbfeef6	-0.0937175
157	0x3dddcb2d	0.10829768
158	0xbe3db505	-0.18526085
159	0x3e5d32d8	0.21601427
160	0x3c3a9902	0.011389019
161	0x3cce797f	0.025204418
162	0xbea35147	-0.31897947
163	0xbbd0bbce	-0.0063700443
164	0x3e97eebe	0.29674333
165	0xbe3cee05	-0.18450172
166	0x3d244075	0.040100534
167	0x3ea28e50	0.317492
168	0xbcde7f62	-0.02716035
169	0x3dc53947	0.096300654
170	0xbe56d3ce	-0.20979235
171	0x3edd79ea	0.43257076
172	0x3e6ab1f3	0.22919445
173	0x3e01093f	0.12601183
174	0xbe6eaf2e	-0.23309013
175	0x3cba22ec	0.02272173
176	0xbc6348d8	-0.013872348
177	0xbd42322c	-0.04741113
178	0xbe73ea21	-0.23819782
179	0x3eaed9de	0.34150594
180	0xbe4e56bc	-0.20150274
181	0xbedc1650	-0.42985773
182	0xbcd381b1	-0.025818678
183	0x3d04b471	0.032398645
184	0x3e818c8f	0.2530255
185	0x3e204e81	0.15654947
186	0xbdca1a7c	-0.09868333
187	0xbe070e86	-0.13189134
188	0x3c451c37	0.012030653
189	0xbe0e0a55	-0.13871129
190	0x3d8fecc3	0.070275806
191	0xbe02960c	-0.12752551
192	0x3e125f49	0.14294161
193	0x3bb53669	0.005530168
194	0xbdd957e7	-0.10612469
195	0xbb1c6196	-0.0023861877
196	0xbe70f9c2	-0.23532775
197	0x3ec2c698	0.3804214
198	0x3da36130	0.079775214
199	0x3e70c81d	0.23513837
200	0xbe2cbc60	-0.16868734
201	0x3e43c907	0.19119655
202	0xbe4a2f2e	-0.1974456
203	0xbda7c088	-0.08191019
204	0xbe02abf9	-0.12760915
205	0xbed99f23	-0.42504224
206	0xbe9f5d61	-0.3112593
207	0xbe218789	-0.15774359
208	0xbe4deab0	-0.20109057
209	0xbe930300	-0.28713226
210	0xbe3adf1b	-0.1824917
211	0x3e3485f7	0.17629229
212	0xbed3ebf7	-0.41390964
213	0xbd10d71e	-0.0353614
214	0x3e034431	0.12818982
215	0x3db6fa89	0.089345045
216	0xbc0e892d	-0.008699697
217	0x3e81a733	0.25322875
218	0xbc5e0723	-0.013551506
219	0x3e089433	0.13337784
220	0xbe33b429	-0.17549194
221	0xbe4add7b	-0.1981105
222	0xbea35f1a	-0.31908494
223	0x3d2925c3	0.041295778
224	0xbe64c19d	-0.22339483
225	0xbdac8393	-0.08423533
226	0xbd852969	-0.06502039
227	0xbe07a6a7	-0.13247167
228	0x3e0b2d31	0.13591458
229	0xbc36c8a5	-0.011156236
230	0x3e5d14d4	0.21589977
231	0x3e1b12e4	0.15143925
232	0xbcf694b9	-0.030100213
233	0xbe31d4fc	-0.17366403
234	0xbe05c7df	-0.13064526
235	0xbe3109aa	-0.17288843
236	0xbede8c8c	-0.43466604
237	0x3e05a780	0.13052177
238	0x3e9bbf7d	0.3041953
239	0x3eb45c0d	0.3522648
240	0x3db12c32	0.08651008
241	0xbe7c6c86	-0.24650773
242	0xbdaef700	-0.08543205
243	0x3ea16df5	0.31529203
244	0x3e01d09a	0.12677231
245	0xbe467594	-0.1938079
246	0xbcad9dfc	-0.021193497
247	0xbd8459c0	-0.06462431
248	0xbe8e7193	-0.27821025
249	0x3d4361c2	0.04770065
250	0xbd844e43	-0.0646024
251	0x3e23339a	0.15937653
252	0x3e3caf1c	0.18426174
253	0xbd2350b2	-0.03987188
254	0x3dce04a1	0.10059477
255	0x3d1332fc	0.035937294
