save/client-8/eval.pth (torch, 21957 bytes, 27 tensors)

layer1_task.0.weight f4 [16, 3]
-0.4263018 0.29750547 0.048361737 0.09524596 0.2961339 -0.037983518 0.4587207 0.21138902
-0.33774278 -0.6324452 0.46398422 0.10405839 -0.3284696 0.21002549 -0.27476922 -0.2584492
-0.31180373 0.1492563 0.59165066 0.10067691 0.09263607 -0.6399009 0.49604973 0.060608994
-0.64477926 -0.23043002 0.41797054 -0.6138391 0.17910744 -0.20057505 0.049706783 0.031216286
-0.042780757 0.038320314 0.12766099 -0.39049062 0.054837897 0.05910212 -0.060667742 0.11284129
0.08842204 0.003329987 0.07333486 -0.17419244 -0.28027388 -0.029733256 -0.54194885 0.22542928
00000000: 3b44 dabe a352 983e f516 463d 5010 c33d
00000010: dd9e 973e 9b94 1bbd 71dd ea3e 5d76 583e
00000020: 9fec acbe eee7 21bf 578f ed3e 911c d53d
00000030: 2b2d a8be ec10 573e 8dae 8cbe 7453 84be
00000040: bda4 9fbe a5d6 183e 6b76 173f b22f ce3d
00000050: fbb7 bd3d 8cd0 23bf 3bfa fd3e 2341 783d
00000060: 4110 25bf d9f5 6bbe 3c00 d63e 8f24 1dbf
00000070: f167 373e 8c63 4dbe 5799 4b3d 4cb9 ff3c
00000080: e03a 2fbd c3f5 1c3d 90b9 023e 63ee c7be
00000090: b49d 603d 1115 723d bd7e 78bd 5619 e73d
000000a0: 9d16 b53d e93b 5a3b 9630 963d 815f 32be
000000b0: 0f80 8fbe 2893 f3bc 29bd 0abf efd6 663e

layer1_task.0.bias f4 [16]
-0.021988675 -0.022765575 0.050530303 0.016033728 0.0322286 0.03222845 -0.049150888 0.007876993
-0.018873433 0.023876123 -5.879668e-05 0.03488212 -0.043701448 -0.057617098 -0.051074572 0.032821868
00000000: 9821 b4bc df7e babc ddf8 4e3d 2a59 833c
00000010: 2302 043d fb01 043d 7152 49bd 810e 013c
00000020: 759c 9abc dc97 c33c 749c 76b8 8ee0 0e3d
00000030: 4a00 33bd e8ff 6bbd 9233 51bd 3970 063d

layer1_task.2.weight f4 [16]
0.99595255 1.0157932 0.9906415 0.9337451 0.972656 0.9694352 0.9562088 1.0116129
1.0130225 1.0215081 1.0638875 1.058222 0.93020684 0.9709419 1.074543 0.9828023
00000000: bff6 7e3f 8305 823f ae9a 7d3f eb09 6f3f
00000010: fcff 783f e82c 783f 1aca 743f 887c 813f
00000020: b9aa 813f c7c0 823f 772d 883f d273 873f
00000030: 0922 6e3f a68f 783f a08a 893f ee98 7b3f

layer1_task.2.bias f4 [16]
-0.0026977335 0.015365755 0.012090232 -0.0722628 -0.02697189 -0.026447656 -0.056542717 0.0143683
0.01988343 0.032259133 0.08159884 0.06882212 -0.07566265 -0.058678627 0.065386124 -0.011325839
00000000: 75cc 30bb a6c0 7b3c 1c16 463c 85fe 93bd
00000010: 27f4 dcbc c1a8 d8bc 5699 67bd 0569 6b3c
00000020: 93e2 a23c 2722 043d 4b1d a73d 9df2 8c3d
00000030: 05f5 9abd 0059 70bd 29e9 853d 0390 39bc

layer1_task.2.running_mean f4 [16]
-56699.18 11880.718 60126.266 -81896.83 -40821.734 -32474.092 73788.83 -79574.87
-79252.28 -79089.336 6347.3774 4425.005 6863.531 14708.976 9066.977 -3526.5957
00000000: 2e7b 5dc7 dfa2 3946 44de 6a47 6af4 9fc7
00000010: bc75 1fc7 2fb4 fdc6 6a1e 9047 6f6b 9bc7
00000020: 24ca 9ac7 ab78 9ac7 055b c645 0a48 8a45
00000030: 3f7c d645 e7d3 6546 e8ab 0d46 8869 5cc5

layer1_task.2.running_var f4 [16]
6.6085965e+08 3.968229e+07 7.7759795e+08 1.5848686e+09 4.9555568e+08 2.816596e+08 1.5746085e+09 1.8451176e+09
1.8631237e+09 1.5493656e+09 9.842351e+06 4.767704e+06 1.2708676e+07 5.0318348e+07 2.0296338e+07 3.1110282e+06
00000000: ac8f 1d4e 3c60 174c d064 394e 5aee bc4e
00000010: a34c ec4d 464e 864d 3db5 bb4e 85f4 db4e
00000020: 061a de4e e3b2 b84e af2e 164b b07f 914a
00000030: 44eb 414b 03f3 3f4c 49d9 9a4b d1e1 3d4a

layer1_1vm.0.weight f4 [32, 40]
0.123856544 -0.17303663 0.26316035 0.20259096 0.0073162573 -0.039048508 0.025089346 0.08473831
-0.10185022 -0.12004294 0.20375693 -0.21822669 0.05778669 -0.19940364 -0.18476552 -0.054146852
-0.067136966 0.0024682526 0.13753258 0.03657383 -0.23051795 -0.16018763 -0.0445957 -0.060514383
-0.027278325 0.06664114 -0.20087127 0.14230798 -0.032615714 -0.118716106 -0.18486874 0.11141833
0.09929873 0.27979574 0.27410877 0.32322374 -0.12888952 -0.021139033 0.011838938 -0.17737925
0.100966096 -0.017318927 0.17915958 0.13768339 -0.05930028 -0.17686136 0.28067705 -0.06809402
-0.20470181 -0.08717581 0.02813537 0.26009282 0.17815498 0.01740298 -0.11151171 -0.19771585
0.12595297 0.06685413 -0.2557534 -0.03132502 0.39102155 -0.23253398 0.13725041 0.1835995
-0.0036169111 0.055471253 0.22470784 -0.09638746 0.124066 -0.20470037 0.22732711 0.15265135
-0.08017364 0.17810772 -0.032284055 -0.17656668 0.17043296 0.15030926 0.17192875 -0.07086879
0.10608536 0.17647588 -0.0604564 -0.059848923 0.16279918 -0.1350129 0.14546193 -0.11197143
0.2599362 -0.08250417 -0.127835 -0.16045612 -0.009891536 -0.41144714 -0.11160647 -0.087446526
0.16458952 -0.0064638904 -0.095158435 -0.009307252 0.22454748 -0.29498875 0.1569573 0.029485092
-0.1795953 -0.1891391 0.14710839 -0.12931445 -0.066106595 -0.09145423 -0.0018611999 -0.09402664
0.02019688 -0.28712848 -0.14532132 0.036469806 -0.043267123 0.19449887 -0.1449348 0.146395
0.2515703 -0.051846158 -0.35533845 0.18223427 -0.27650157 -0.03026264 -0.040264275 -0.23001763
0.012291427 -0.099740595 -0.12582587 -0.040857933 -0.0021024924 -0.1812009 -0.0036833887 -0.10309955
0.08526325 0.1934577 -0.20767292 -0.32021323 0.28844976 -0.096758395 -0.13359733 -0.2633419
-0.0031850333 0.21307458 -0.036226448 -0.20900296 -0.083781116 -0.21455589 0.3286391 -0.18210132
-0.12676704 0.036478166 -0.084889345 -0.077413164 0.29647708 0.06573937 0.3409604 -0.014806722
0.12273917 0.035739664 0.06129895 0.03436377 0.039390024 0.1206711 0.021954881 0.013896545
-0.1582365 0.10794699 -0.010359684 -0.23180842 0.0821126 -0.10424122 0.36987776 -0.25785106
-0.28877848 0.007555069 -0.115704425 -0.18521476 -0.0461952 -0.00928889 -0.24492453 -0.05741475
-0.011189929 0.10919969 -0.033598598 -0.0018547651 -0.072650984 0.07030257 0.094158605 -0.17246372
-0.08127365 -0.07938947 -0.18374306 0.0317722 0.043006595 0.22121362 -0.092894524 -0.07636515
0.21207753 0.12386253 0.15177907 0.0089751 0.37389335 0.07476201 0.14459155 -0.079483956
0.36458522 0.17440388 0.071688 -0.09092254 -0.12686029 -0.015756544 -0.1487486 0.055675857
0.26675516 0.1051357 -0.41599315 -0.23786104 0.32014284 -0.3356199 0.20325322 -0.058920562
0.017116988 0.10136426 -0.15846536 0.10902151 -0.07019573 0.046289995 -0.05850032 -0.16297868
-0.18740603 -0.0022841394 0.27654752 0.10744403 0.22466664 -0.10019127 0.29700533 0.12390531
0.022844581 -0.17016236 -0.17533246 -0.09255584 0.056994252 -0.32316574 -0.097552754 0.21221833
-0.114415936 -0.316195 -0.12441338 0.21817361 -0.26780778 -0.3119855 0.22582486 0.09842685
00000000: 80a8 fd3d 8430 31be f4bc 863e 0174 4f3e
00000010: 37bd ef3b 54f1 1fbd 2c88 cd3c 478b ad3d
00000020: d996 d0bd 13d9 f5bd a8a5 503e d176 5fbe
00000030: bcb1 6c3d 7830 4cbe 2c33 3dbe 17c9 5dbd
00000040: 1b7f 89bd 68c2 213b 57d5 0c3e 71ce 153d
00000050: e60c 6cbe 3a08 24be fba9 36bd eedd 77bd
00000060: cb76 dfbc 267b 883d 33b1 4dbe 2fb9 113e
00000070: 0e98 05bd 6e21 f3bd 3b4e 3dbe 4b2f e43d
00000080: 225d cb3d 6341 8f3e fc57 8c3e 957d a53e
00000090: 9dfb 03be c42b adbc 1bf8 413c e8a2 35be
000000a0: 50c7 ce3d 6ce0 8dbc 9c75 373e e0fc 0c3e
000000b0: dae4 72bd 251b 35be e7b4 8f3e e174 8bbd
000000c0: 5a9d 51be 3b89 b2bd 267c e63c e32a 853e
000000d0: 426e 363e b290 8e3c 4060 e4bd 0676 4abe
000000e0: d1f9 003e d1ea 883d 1cf2 82be aa4e 00bd
000000f0: fa33 c83e 631d 6ebe 5f8b 0c3e 8201 3c3e
00000100: b309 6dbb d335 633d d019 663e ca66 c5bd
00000110: 5116 fe3d f99c 51be 70c8 683e a350 1c3e
00000120: 1432 a4bd df61 363e 493c 04bd e5cd 34be
00000130: fa85 2e3e acea 193e 170e 303e a823 91bd
00000140: 4843 d93d 18b6 343e 21a1 77bd 2524 75bd
00000150: d4b4 263e d240 0abe f9f3 143e 4751 e5bd
00000160: 5c16 853e f2f7 a8bd 2ee7 02be 9c4e 24be
00000170: 1c10 22bc 33a9 d2be ef91 e4bd 2a17 b3bd
00000180: 288a 283e 0bcf d3bb 6de2 c2bd 727d 18bc
00000190: c6ef 653e c408 97be 6ab9 203e b88a f13c
000001a0: d5e7 37be aead 41be 95a3 163e 026b 04be
000001b0: e562 87bd 5b4c bbbd 81f3 f3ba 0a91 c0bd
000001c0: ed73 a53c 8102 93be 1dcf 14be 5d61 153d
000001d0: de38 31bd b62a 473e ca69 14be 92e8 153e
000001e0: d3cd 803e a35c 54bd ecee b5be 9f9b 3a3e
000001f0: 9d91 8dbe 5be9 f7bc 27ec 24bd be89 6bbe
00000200: fb61 493c cc44 ccbd 7fd8 00be a65a 27bd
00000210: f8c9 09bb bb8c 39be 0265 71bb db25 d3bd
00000220: 809e ae3d c619 463e 36a8 54be fdf2 a3be
00000230: b0af 933e 4429 c6bd bdcd 08be c0d4 86be
00000240: febb 50bb 3930 5a3e 2f62 14bd df04 56be
00000250: 6f95 abbd 8ab4 5bbe 6243 a83e c578 3abe
00000260: 38cf 01be 216a 153d 77da adbd cb8a 9ebd
00000270: d8cb 973e 5da2 863d 5d92 ae3e e597 72bc
00000280: ad5e fb3d c163 123d 9c14 7b3d 06c1 0c3d
00000290: 6f57 213d 6922 f73d b9da b33c 56ae 633c
000002a0: c008 22be 5013 dd3d aabb 29bc 305f 6dbe
000002b0: a72a a83d 6c7c d5bd 9e60 bd3e 0e05 84be
000002c0: c6da 93be 8390 f73b 71f6 ecbd f0a8 3dbe
000002d0: 2e37 3dbd 6e30 18bc 7fcd 7abe bb2b 6bbd
000002e0: f755 37bc 16a4 df3d af9e 09bd 971b f3ba
000002f0: 0aca 94bd cbfa 8f3d 3ad6 c03d 549a 30be
00000300: cd72 a6bd f296 a2bd 2427 3cbe 9123 023d
00000310: af27 303d d385 623e 7c3f bebd 5565 9cbd
00000320: da2a 593e a3ab fd3d f96b 1b3e 4c0c 133c
00000330: f36e bf3e d31c 993d cf0f 143e 7cc8 a2bd
00000340: eaaa ba3e ee96 323e 28d1 923d 9935 babd
00000350: aae7 01be de13 81bc 8e51 18be 5e0c 643d
00000360: 2294 883e 6351 d73d 0efd d4be d891 73be
00000370: c3e9 a33e 5fd6 abbe 9d21 503e b056 71bd
00000380: ed38 8c3c 1198 cf3d be44 22be ab46 df3d
00000390: c7c2 8fbd 949a 3d3d 089e 6fbd e2e3 26be
000003a0: 5ee7 3fbe 80b1 15bb a397 8d3e 9e0b dc3d
000003b0: 030f 663e 1531 cdbd 1511 983e 11c2 fd3d
000003c0: 8f24 bb3c 0b3f 2ebe 5a8a 33be eb8d bdbd
000003d0: ce72 693d fb75 a5be bdc9 c7bd c34f 593e
000003e0: e752 eabd 50e4 a1be 71cc febd e768 5f3e
000003f0: 1a1e 89be 90bc 9fbe a23e 673e 0494 c93d

layer1_1vm.0.bias f4 [32]
0.052862853 0.017922893 -0.013085908 -0.033166528 -0.014990918 0.04448238 -0.045171384 0.03545279
0.030470813 0.0071560126 0.034151744 -0.017502151 0.06825514 -0.00932799 0.028308962 -0.007920943
0.0020162144 -0.0139245745 0.01880074 0.036808148 0.06172587 -0.028372835 -0.00679276 -0.02075693
-0.04886659 -0.09189041 -0.005128415 -0.055798937 0.016959056 0.019411867 -0.020806292 0.06642673
00000000: b886 583d 08d3 923c 4766 56bc a0d9 07bd
00000010: 789c 75bc 2833 363d a105 39bd f236 113d
00000020: ed9d f93c fc7c ea3b b3e2 0b3d ac60 8fbc
00000030: 5ac9 8b3d 6dd4 18bc 32e8 e73c d8c6 01bc
00000040: 7722 043b e623 64bc 0204 9a3c 24c4 163d
00000050: 44d4 7c3d 266e e8bc cd95 debb 700a aabc
00000060: 5528 48bd 0a31 bcbd 430c a8bb 6d8d 64bd
00000070: b8ed 8a3c a305 9f3c f571 aabc bd0a 883d

layer1_1vm.2.weight f4 [32]
0.9644921 1.0002353 1.0314435 1.0273618 0.9964708 1.0436816 1.0003347 0.98672533
1.0182219 1.0344573 0.96544355 1.0093989 1.010773 1.0608561 1.0149397 1.0349835
0.96750855 1.0136238 0.9615679 0.99337065 1.0166156 0.973592 0.99322015 1.0402915
1.0172411 0.99772215 0.95791906 1.0037616 1.0358466 0.9587314 1.0402439 0.9927185
00000000: f4e8 763f b607 803f 5706 843f 9780 833f
00000010: b618 7f3f 5c97 853f f80a 803f 089a 7c3f
00000020: 1855 823f 1969 843f 4f27 773f fc33 813f
00000030: 0261 813f 22ca 873f 8be9 813f 577a 843f
00000040: a4ae 773f 6dbe 813f 5029 763f 8a4d 7e3f
00000050: 7620 823f 533d 793f ad43 7e3f 4628 853f
00000060: f534 823f b86a 7f3f 2f3a 753f 437b 803f
00000070: 9f96 843f 6c6f 753f b626 853f cd22 7e3f

layer1_1vm.2.bias f4 [32]
-0.026262444 0.008427039 0.020919582 0.028160876 9.27296e-05 0.045667455 0.006173521 -0.0062124236
0.018910134 0.026875077 -0.037433397 0.010955947 0.0155041395 0.06473519 0.03003059 0.035169493
-0.03390906 0.013255029 -0.0436766 -0.004939379 0.019268278 -0.021624995 0.00018474324 0.04497774
0.011474045 -0.015977195 -0.033927493 -0.001159049 0.033441324 -0.028948091 0.03952815 -0.0053942963
00000000: 5624 d7bc 9011 0a3c 8b5f ab3c a3b1 e63c
00000010: d377 c238 cc0d 3b3d 3f4b ca3b 9691 cbbb
00000020: 6de9 9a3c 1f29 dc3c c353 19bd 9380 333c
00000030: 1305 7e3c e293 843d b602 f63c e30d 103d
00000040: 3ae4 0abd 9f2b 593c 3ce6 32bd 84da a1bb
00000050: 82d8 9d3c e726 b1bc a3b7 4139 943a 383d
00000060: a2fd 3b3c 9be2 82bc 8ef7 0abd 3beb 97ba
00000070: c5f9 083d 8c24 edbc 45e8 213d a3c2 b0bb

layer1_1vm.2.running_mean f4 [32]
-508.10306 8727.74 -949.03955 3131.6265 -4128.9214 7817.3022 -8636.437 3769.3154
6166.615 4068.6533 154.17018 -5539.965 9836.792 -5664.641 3114.7625 2199.3108
5926.99 -3468.4001 -2585.5305 -3134.9087 8798.508 -3587.879 -1131.502 -5060.9375
-6866.017 -2217.4321 -2021.336 -9972.376 12558.98 5206.8647 3350.2207 13408.211
00000000: 310d fec3 f65e 0846 8842 6dc4 06ba 4345
00000010: 5f07 81c5 6b4a f445 bff1 06c6 0c95 6b45
00000020: ecb4 c045 744a 7e45 912b 1a43 b81f adc5
00000030: 2bb3 1946 2105 b1c5 33ac 4245 f974 0945
00000040: ec37 b945 67c6 58c5 7d98 21c5 8aee 43c5
00000050: 087a 0946 103e 60c5 1070 8dc4 8027 9ec5
00000060: 2390 d6c5 ea96 0ac5 c1aa fcc4 81d1 1bc6
00000070: ec3b 4446 ebb6 a245 8863 5145 d880 5146

layer1_1vm.2.running_var f4 [32]
318691.94 2.0532716e+07 897159.75 2.5999185e+06 4.324857e+06 1.815491e+07 1.800678e+07 3.6317372e+06
9.002074e+06 5.515034e+06 85248.914 7.5683e+06 2.6899888e+07 7.2146295e+06 2.9237985e+06 1.1136736e+06
9.572872e+06 3.4331158e+06 1.6478716e+06 2.3303062e+06 1.9814048e+07 3.178758e+06 384211.03 7.0650045e+06
1.2234982e+07 1.3227195e+06 1.1601298e+06 2.569386e+07 3.929305e+07 8.827036e+06 3.1035498e+06 4.4511096e+07
00000000: 7e9c 9b48 f6a6 9c4b 7c08 5b49 baaf 1e4a
00000010: f2fb 834a cf82 8a4b 7e61 894b e5a9 5d4a
00000020: 5a5c 094b 344e a84a 7580 a647 58f7 e64a
00000030: d83a cd4b 4b2c dc4a 5a74 324a 4df2 8749
00000040: 0812 124b 6f8a 514a fd27 c949 093b 0e4a
00000050: 502b 974b 1804 424a 619a bb48 599b d74a
00000060: e6b0 3a4b fc76 a149 0e9e 8d49 5207 c44b
00000070: 1ee4 154c 9cb0 064b f76c 3d4a decb 294c

layer1_2vm.0.weight f4 [16, 32]
0.061762072 0.0579281 -0.20416835 -0.038737226 -0.1314495 0.30577067 0.017973436 0.0043808995
-0.31888527 0.09424238 -0.07879246 0.17205495 0.26155242 0.36675203 -0.36848575 -0.2843047
-0.22816385 0.047238573 0.078465626 -0.08830848 -0.3164633 0.21809632 0.28194046 0.2516501
0.29237273 -0.13905403 -0.092523724 -0.17284234 -0.20384192 0.3232929 0.11996152 -0.20496924
-0.403109 -0.12929218 -0.3491901 0.120614395 -0.24010152 0.36681852 -0.12398539 0.03090624
0.26407897 0.09835636 0.07874839 0.024614168 -0.016575446 0.17587782 -0.021746185 0.5048091
0.13382259 0.15278263 0.24163762 0.36692715 -0.35174012 -0.302632 -0.42205903 -0.04174918
0.22110407 0.07665414 -0.082061805 0.24180572 0.13896027 0.09218436 -0.01156138 -0.366313
-0.19500299 -0.17909901 -0.06815524 0.069909245 -0.09968977 0.25352025 0.31570187 0.04939578
-0.31363547 0.096235596 0.09424186 -0.10619125 0.1329506 0.14636868 0.11340022 0.042189408
0.10008142 -0.18345782 0.20405746 0.29397926 -0.08571046 -0.3451464 0.43276495 0.2386461
-0.2463905 -0.07359527 -0.46859446 0.055766214 0.015978046 0.18214646 -0.060610533 0.12194759
0.24199493 0.059352912 -0.21754229 0.14017214 -0.11018395 -0.115418635 0.06339429 -0.36425486
0.3653499 -0.0019423912 0.077229135 -0.1061159 0.11521109 0.31231657 0.20376864 0.22151238
-0.11107816 0.15130046 0.13688433 0.038544428 -0.027873889 -0.021506047 -0.061729494 0.05082555
-0.0036640475 0.14152552 0.28244764 0.054519154 -0.1322217 -0.044354044 0.2509219 0.12951458
0.011778004 -0.20456445 0.054016653 0.3394408 0.073168315 -0.042161327 0.24690504 0.44783103
-0.16526699 -0.24861087 0.07540325 -0.07742763 0.4859949 -0.040775396 0.36940467 0.10124697
-0.45464322 -0.27342424 -0.18165061 0.15922089 -0.040663037 -0.14064398 -0.092006765 0.08309739
0.31749234 -0.4424798 0.14472224 0.496713 -0.116505094 -0.140902 0.20595135 0.09855077
0.48364344 -0.14733744 -0.21849222 0.008788369 0.097212285 -0.04743225 0.034320995 0.00058423297
-0.40243712 0.3335967 0.058880504 0.44973403 0.1172621 0.08093788 -0.11286765 0.30350736
-0.19882476 0.1314039 0.2783623 -0.13311769 0.21186495 -0.26152617 0.19247249 0.2110468
-0.26164487 -0.26897335 0.041637793 -0.10964308 0.4942341 0.08341391 0.23323478 0.025785184
0.019557029 0.019307792 0.33356225 0.14838938 -0.29525706 -0.08601349 0.0742336 -0.22726908
0.064469196 -0.32182133 0.20234194 0.18649341 -0.012604505 -0.13225274 -0.17403913 -0.030097142
0.13350399 -0.20923984 0.10083431 0.26786947 0.25201294 0.07340204 0.09467972 -0.2622922
-0.101065345 -0.17889246 0.110581554 0.15067247 0.13723049 0.016136311 0.083033815 0.11965282
-0.14139198 0.10546936 -0.01981955 -0.13892402 -0.0049705114 0.007655922 -0.10697694 0.08831661
-0.51173735 0.104946814 0.16171485 0.21363728 -0.0063059013 0.27010167 -0.21719033 -0.31949213
-0.14827865 -0.075567625 0.031902555 -0.14093256 0.009865242 -0.01759813 0.020882787 0.01751589
0.024023496 -0.004607865 -0.16528513 -0.10230223 0.21757878 -0.03476863 -0.07743468 -0.036069382
00000000: 3afa 7c3d 0446 6d3d 8211 51be edaa 1ebd
00000010: b39a 06be f98d 9c3e 073d 933c a68d 8f3b
00000020: ee44 a3be 2602 c13d f15d a1bd 2c2f 303e
00000030: 33ea 853e ecc6 bb3e 2aaa bcbe 6390 91be
00000040: c9a3 69be 3c7d 413d 96b2 a03d 14db b4bd
00000050: 7a07 a2be a454 5f3e 805a 903e 48d8 803e
00000060: e1b1 953e 2e64 0ebe 147d bdbd 95fd 30be
00000070: f0bb 50be a686 a53e 63ae f53d 75e3 51be
00000080: 4e64 cebe 2b65 04be 0bc9 b2be ae04 f73d
00000090: 2cdd 75be a3cf bb3e 0dec fdbd 152f fd3c
000000a0: 5c35 873e 0f6f c93d d646 a13d a7a3 c93c
000000b0: 3bc9 87bc 5119 343e 0e25 b2bc 2b3b 013f
000000c0: ca08 093e 0d73 1c3e da6f 773e e0dd bb3e
000000d0: 4817 b4be 95f2 9abe 1f18 d8be 3001 2bbd
000000e0: 1b69 623e d9fc 9c3d 0510 a8bd eb9b 773e
000000f0: 9a4b 0e3e 27cb bc3d f16b 3dbc 618d bbbe
00000100: ddae 47be bb65 37be f994 8bbd 942c 8f3d
00000110: 262a ccbd 68cd 813e ada3 a13e 3b53 4a3d
00000120: d494 a0be 2b17 c53d e001 c13d cc7a d9bd
00000130: 3424 083e ace1 153e 603e e83d cdce 2c3d
00000140: 7df7 cc3d 5edc 3bbe 70f4 503e 7384 963e
00000150: f788 afbd 07b7 b0be 5e93 dd3e a55f 743e
00000160: cb4d 7cbe 1eb9 96bd 9deb efbe 1d6b 643d
00000170: 64e4 823c 9a84 3a3e c042 78bd a8bf f93d
00000180: 85cd 773e 0a1c 733d 68c3 5ebe 4989 0f3e
00000190: 1fa8 e1bd 9b60 ecbd ded4 813d 9d7f babe
000001a0: 240f bb3e d597 feba 4f2a 9e3d 4b53 d9bd
000001b0: cbf3 eb3d f5e7 9f3e baa8 503e 24d4 623e
000001c0: f27c e3bd 82ee 1a3e 682b 0c3e c3e0 1d3d
000001d0: c857 e4bc 732d b0bc 11d8 7cbd 742e 503d
000001e0: 8420 70bb 11ec 103e fa9c 903e 7a4f 5f3d
000001f0: 2065 07be 96ac 35bd d678 803e 789f 043e
00000200: 87f8 403c 5879 51be 9140 5d3d 2fcb ad3e
00000210: 45d9 953d 5bb1 2cbd add4 7c3e 1c4a e53e
00000220: c03b 29be d993 7ebe 056d 9a3d 6192 9ebd
00000230: 53d4 f83e 1a04 27bd 9c22 bd3e 925a cf3d
00000240: ffc6 e8be 43fe 8bbe 9e02 3abe cd0a 233e
00000250: 498e 26bd fa04 10be 0b6e bcbd f72e aa3d
00000260: 5b8e a23e b68c e2be 1132 143e 2b51 fe3e
00000270: 399a eebd 9d48 10be e9e4 523e fcd4 c93d
00000280: 1da0 f73e a0df 16be 6dbc 5fbe 17fd 0f3c
00000290: 3c17 c73d 5248 42bd 2c94 0c3d 3627 193a
000002a0: 3d0c cebe 30cd aa3e af2c 713d 8a43 e63e
000002b0: 1d27 f03d c2c2 a53d 2827 e7bd 5165 9b3e
000002c0: b898 4bbe be8e 063e 8185 8e3e 0150 08be
000002d0: 20f3 583e c2e6 85be 8217 453e a71c 583e
000002e0: 51f6 85be e0b6 89be 648c 2a3d 8d8c e0bd
000002f0: 410c fd3e e9d4 aa3d 19d5 6e3e 733b d33c
00000300: 1036 a03c 602b 9e3c acc8 aa3e 63f3 173e
00000310: ef2b 97be d727 b0bd c907 983d 3ab9 68be
00000320: 6d08 843d c4c5 a4be ba32 4f3e 21f8 3e3e
00000330: 2083 4ebc 436d 07be 5037 32be 488e f6bc
00000340: 45b5 083e f842 56be 3882 ce3d 3026 893e
00000350: d707 813e cf53 963d 71e7 c13d 2a4b 86be
00000360: 59fb cebd 962f 37be 9578 e23d e249 1a3e
00000370: 2686 0c3e 4c30 843c a20d aa3d 8a0c f53d
00000380: 0fc9 10be 5200 d83d 9c5c a2bc 1942 0ebe
00000390: acdf a2bb 87de fa3b ba16 dbbd 57df b43d
000003a0: 3801 03bf 5bee d63d 9498 253e bbc3 5a3e
000003b0: bca1 cebb c44a 8a3e 2467 5ebe 7994 a3be
000003c0: 5cd6 17be 33c3 9abd 41ac 023d a050 10be
000003d0: d3a1 213c f429 90bc 6112 ab3c 7c7d 8f3c
000003e0: eccc c43c 93fd 96bb 8140 29be d583 d1bd
000003f0: f9cc 5e3e 8d69 0ebd 1396 9ebd 7dbd 13bd

layer1_2vm.0.bias f4 [16]
-0.00036666382 0.039065633 -0.018139523 0.003591416 0.01336944 0.057643667 -0.020599768 -0.026009303
-0.014543769 0.0023597034 0.09125263 -0.02106364 0.005958925 0.07394423 -0.024082989 -0.023560604
00000000: c93c c0b9 4903 203d 5699 94bc f65d 6b3b
00000010: 7f0b 5b3c c41b 6c3d d8c0 a8bc 7611 d5bc
00000020: fd48 6ebc 41a5 1a3b a9e2 ba3d a88d acbc
00000030: 1643 c33b 1370 973d b049 c5bc 2b02 c1bc

layer1_2vm.2.weight f4 [16]
1.0093685 1.084427 0.9737752 1.0146017 0.9545696 1.0376849 0.9760656 1.0131327
0.95926696 0.99917406 1.0740161 0.97408664 0.9544716 1.0479535 0.9577489 1.0627016
00000000: fd32 813f 81ce 8a3f 5549 793f 78de 813f
00000010: ac5e 743f dcd2 843f 6fdf 793f 55ae 813f
00000020: 8592 753f dfc9 7f3f 5c79 893f be5d 793f
00000030: 4058 743f 5723 863f 082f 753f 9b06 883f

layer1_2vm.2.bias f4 [16]
0.031830933 0.08004817 0.0016734127 0.0086277155 -0.040559605 0.059069123 -0.026291661 0.013947966
0.0012955741 -0.0053333747 0.09514428 0.035842907 -0.039040294 0.077928685 -0.010718975 0.09276136
00000000: 2761 023d 4cf0 a33d 6a56 db3a 435b 0d3c
00000010: d421 26bd 77f2 713d 9c61 d7bc 0286 643c
00000020: 41d0 a93a 97c3 aebb 01db c23d 03d0 123d
00000030: b7e8 1fbd 1399 9f3d a49e 2fbc abf9 bd3d

layer1_2vm.2.running_mean f4 [16]
0.027327666 0.2511543 0.20100921 0.72455674 0.46366918 0.77630025 0.17080179 -0.4000943
-0.15178789 0.26808867 0.36141717 -0.5695375 0.12894993 0.27074963 -0.10401541 -0.7144386
00000000: 45de df3c 4c97 803e 5cd5 4d3e 8d7c 393f
00000010: 0c66 ed3e 9dbb 463f aae6 2e3e 29d9 ccbe
00000020: 496e 1bbe eb42 893e ac0b b93e 36cd 11bf
00000030: 730b 043e b29f 8a3e 0806 d5bd 73e5 36bf

layer1_2vm.2.running_var f4 [16]
0.58938116 0.76952595 0.79508245 0.3919673 0.7152525 0.8271004 0.5520221 0.30026376
0.6884262 0.7388992 0.81829625 1.2951676 0.687986 0.51326627 0.5268717 0.43041334
00000000: afe1 163f a7ff 443f 868a 4b3f f0af c83e
00000010: ca1a 373f dabc 533f 5251 0d3f 2cbc 993e
00000020: b33c 303f 7f28 3d3f dd7b 513f 0dc8 a53f
00000030: da1f 303f 6b65 033f 10e1 063f 235f dc3e

layer2.0.weight f4 [16, 32]
0.06403752 0.07534517 0.012632174 -0.1366614 -0.28169256 -0.21211168 0.067300156 0.27499133
0.30566913 -0.026380867 0.16096584 -0.08261793 0.30720246 0.056001987 0.16127874 -0.14414585
-0.079087384 0.25644812 -0.3679666 0.21872064 -0.018157957 0.00059732667 -0.062497564 -0.3314335
0.31950364 0.19941522 -0.034134056 0.015899371 -0.31959513 -0.1141391 -0.48719022 -0.16336606
0.19068637 0.024228191 -0.15958524 -0.016063916 -0.15806659 0.25266504 0.18270199 0.04406322
0.15202859 -0.23245007 0.22487678 0.1623992 0.15582988 0.37577233 0.27916685 -0.13624856
-0.0873564 0.07215195 0.14731163 0.18260957 0.11304748 -0.39055392 0.37674335 -0.0050464133
0.48876086 -0.123166405 -0.118167214 0.15962645 -0.35346165 -0.036524136 0.48542857 -0.021042163
-0.38136494 -0.3394438 0.00024823108 -0.28561112 -0.020621276 0.36282912 0.11248788 0.0693502
0.27445284 -0.20657657 -0.1967269 -0.26777694 0.15728025 0.4269726 -0.2884132 0.07436869
-0.051487945 -0.036134098 0.28879154 0.08100589 0.18323484 0.22944286 -0.08650891 0.0637834
0.108898625 0.03097673 -0.13119274 0.035996392 0.054167725 -0.17410846 -0.038461663 -0.36413208
-0.18438596 -0.04395795 -0.1193698 0.010431643 -0.09679199 -0.22748937 0.084282085 0.32080665
-0.28415608 0.01822406 -0.038052548 -0.09386951 0.17600162 -0.038988184 -0.3292761 0.17505294
0.028042257 0.04796848 -0.06253502 -0.38601503 -0.11316567 -0.35998863 0.13152851 0.03768287
0.19021897 0.06508372 0.07016811 0.21838899 0.10775491 -0.09467419 0.11953751 0.067971714
0.1665806 -0.18779692 0.058677908 0.055564724 0.17346503 -0.25256336 -0.25315276 0.07696963
0.058237582 -0.031630766 -0.34485695 -0.04413537 0.116606645 0.25974724 -0.00029118545 -0.16995147
0.009203831 0.09257343 0.12762453 -0.10715274 0.17287391 -0.010747856 0.039680455 -0.2530871
-0.08275987 -0.23816134 -0.39081427 -0.17608353 0.05301442 -0.016576685 -0.11761581 -0.28186217
-0.24312428 -0.06646475 0.23079635 -0.05775928 -0.27754247 0.4579349 -0.03170423 0.24335545
0.12559763 -0.312512 -0.26386532 -0.10082782 0.5964013 0.15558028 -0.13758585 -0.32083
-0.35714367 -0.4431542 -0.05805573 -0.034921713 -0.0051074256 -0.6257005 0.04861511 0.31390914
0.14627312 -0.13513876 -0.2529283 -0.045214172 0.09475362 -0.20007828 0.021258144 -0.0036373131
0.10103128 -0.12324116 0.065206 -0.4634179 0.21607369 -0.23811907 -0.15782784 0.018676858
0.24430329 -0.18491146 0.06304726 0.16720559 -0.028685007 -0.009062737 -0.098294005 -0.05460775
-0.03362383 -0.056283664 0.23985821 -0.124547176 -0.036188707 0.014191326 0.16555022 -0.3864573
-0.4591346 0.076069094 0.0742134 -0.121394284 0.058341395 0.13355517 0.10691285 -0.09950937
-0.001139608 0.10364791 0.013414393 -0.2029267 0.06426963 -0.28617638 -0.16878027 -0.012164945
-0.17264171 -0.13121451 -0.08675279 0.34195134 0.37679148 -0.20503198 0.14978814 -0.07338608
-0.14325213 -0.005625411 0.26401109 -0.054691475 0.22641793 0.0946927 -0.16796704 -0.18230833
0.118683755 -0.32347393 -0.052610237 0.016348885 0.19108784 0.062181354 0.10557801 -0.14398691
00000000: 1a26 833d 924e 9a3d 2ef7 4e3c f7f0 0bbe
00000010: 023a 90be ce33 59be aad4 893d aacb 8c3e
00000020: aa80 9c3e b01c d8bc 3bd4 243e 9733 a9bd
00000030: a449 9d3e 5762 653d 4126 253e f89a 13be
00000040: 91f8 a1bd 2b4d 833e 1e66 bcbe 4ef8 5f3e
00000050: ffbf 94bc ea95 1c3a 72fd 7fbd a7b1 a9be
00000060: fb95 a33e 8133 4c3e 27d0 0bbd 663f 823c
00000070: f9a1 a3be c3c1 e9bd ff70 f9be 6f49 27be
00000080: 4a43 433e 337a c63c 506a 23be 7998 83bc
00000090: 35dc 21be 505d 813e 3b16 3b3e a37b 343d
000000a0: 62ad 1b3e 6407 6ebe 1946 663e fa4b 263e
000000b0: de91 1f3e 3b65 c03e f5ee 8e3e be84 0bbe
000000c0: eae7 b2bd 67c4 933d dcd8 163e 01fe 3a3e
000000d0: 7085 e73d aff6 c7be 81e4 c03e 625c a5bb
000000e0: dd3e fa3e ab3e fcbd a701 f2bd 1e75 233e
000000f0: edf8 b4be 559a 15bd 188a f83e 9d60 acbc
00000100: 4442 c3be 94cb adbe 0325 8239 9f3b 92be
00000110: f3ed a8bc bdc4 b93e 0c60 e63d 7a07 8e3d
00000120: 1585 8c3e cf88 53be c772 49be 0f1a 89be
00000130: 130e 213e 279c da3e e5aa 93be 9d4e 983d
00000140: 06e5 52bd 5901 14bd 7cdc 933e 6be6 a53d
00000150: eaa1 3b3e 12f3 6a3e 952b b1bd dfa0 823d
00000160: 3e06 df3d e9c2 fd3c 6457 06be f470 133d
00000170: fade 5d3d 7d49 32be fa89 1dbd 856f babe
00000180: accf 3cbe 400d 34bd 2778 f4bd 7be9 2a3c
00000190: e13a c6bd f9f2 68be 169c ac3d c540 a43e
000001a0: e87c 91be a04a 953c fddc 1bbd a83e c0bd
000001b0: c539 343e 13b2 1fbd e196 a8be 1441 333e
000001c0: e0b8 e53c 997a 443d 5c12 80bd c3a3 c5be
000001d0: 67c3 e7bd 6e50 b8be 69af 063e 5a59 1a3d
000001e0: c3c8 423e 9d4a 853d 4cb4 8f3d 5da1 5f3e
000001f0: 9bae dc3d 8be4 c1bd 15d0 f43d c134 8b3d
00000200: 1b94 2a3e d64d 40be 3f58 703d d697 633d
00000210: d1a0 313e fc4f 81be 3d9d 81be 41a2 9d3d
00000220: 888a 6e3d 438f 01bd 1791 b0be 4ac7 34bd
00000230: 77cf ee3d 97fd 843e 40aa 98b9 c207 2ebe
00000240: aacb 163c 2397 bd3d 01b0 023e e572 dbbd
00000250: dc05 313e c717 30bc f987 223d a294 81be
00000260: 027e a9bd 91e0 73be cf18 c8be 3e4f 34be
00000270: a625 593d d4cb 87bc 8fe0 f0bd 3d50 90be
00000280: 92f5 78be ac1e 88bd e155 6c3e ff94 6cbd
00000290: 0c1a 8ebe 7176 ea3e 4bdc 01bd 2c32 793e
000002a0: aa9c 003e 9301 a0be 5b19 87be d17e cebd
000002b0: c1ad 183f 7050 1f3e 4ee3 0cbe d443 a4be
000002c0: 89db b6be 1be5 e2be d8cb 6dbd 120a 0fbd
000002d0: 315c a7bb e82d 20bf a320 473d b3b8 a03e
000002e0: 9fc8 153e d161 0abe d17f 81be 7f32 39bd
000002f0: 300e c23d 52e1 4cbe 8f25 ae3c fd5f 6ebb
00000300: 7de9 ce3d dc65 fcbd b98a 853d 1c45 edbe
00000310: 6c42 5d3e 7cd5 73be 9f9d 21be 3600 993c
00000320: a42a 7a3e 6e59 3dbe ec1e 813d f137 2b3e
00000330: d2fc eabc e07b 14bc 5e4e c9bd 60ac 5fbd
00000340: 24b9 09bd b389 66bd 649d 753e 9712 ffbd
00000350: 9c3a 14bd bc82 683c ff85 293e bbdd c5be
00000360: b113 ebbe 1dca 9b3d 32fd 973d 919d f8bd
00000370: 63f7 6e3d b0c2 083e 20f5 da3d 92cb cbbd
00000380: e65e 95ba 5b45 d43d 0bc8 5b3c 04cc 4fbe
00000390: cc9f 833d b685 92be bcd4 2cbe 7a4f 47bc
000003a0: fdc8 30be 195d 06be 72ab b1bd 3f14 af3e
000003b0: d0ea c03e e7f3 51be 1062 193e 714b 96bd
000003c0: b0b0 12be 5e55 b8bb 762c 873e 2b04 60bd
000003d0: 1ada 673e 3fee c13d 8dff 2bbe 09af 3abe
000003e0: 7810 f33d 609e a5be d57d 57bd 19ee 853c
000003f0: 88ac 433e e0b1 7e3d 4939 d83d 4e71 13be

layer2.0.bias f4 [16]
-0.028636958 0.08643931 -0.068098456 0.036463056 -0.05563945 -0.08764811 0.0048864186 -0.024439469
0.054284208 0.051144157 -0.08319945 -1.25794395e-05 -0.0901879 -0.09264263 0.13189158 0.11363111
00000000: 0e98 eabc 1807 b13d 3477 8bbd 495a 153d
00000010: 31e6 63bd da80 b3bd 401e a03b 4835 c8bc
00000020: 1e59 5e3d 897c 513d 7964 aabd 480c 53b7
00000030: 6fb4 b8bd 6bbb bdbd 960e 073e 6db7 e83d

layer2.2.weight f4 [16]
0.90131587 1.1105828 0.96458375 0.9181813 1.1471486 1.1507295 0.9787147 0.92094797
0.96049964 1.0183405 1.1554053 0.95221215 1.1479982 1.1519907 1.1491001 1.1377653
00000000: a3bc 663f 9427 8e3f f6ee 763f ee0d 6b3f
00000010: c4d5 923f 1b4b 933f 0c8d 7a3f 3fc3 6b3f
00000020: 4ee3 753f fb58 823f 52e4 933f 2dc4 733f
00000030: 9bf1 923f 6e74 933f b615 933f 4ba2 913f

layer2.2.bias f4 [16]
-0.09942349 0.13497348 -0.034933206 -0.07988414 0.14625636 0.14730509 -0.0012018995 -0.07981529
-0.028722381 0.011619241 0.152113 -0.067513436 0.14686239 0.14991 0.15003556 0.14614694
00000000: 8b9e cbbd 7d36 0a3e 1f16 0fbd 4c9a a3bd
00000010: 3ac4 153e 25d7 163e 0e89 9dba 3376 a3bd
00000020: 334b ebbc a15e 3e3c 83c3 1b3e 7c44 8abd
00000030: 1863 163e 0282 193e eca2 193e 8ba7 153e

layer2.2.running_mean f4 [16]
-0.11397955 0.88486505 -0.29610035 -0.28743586 -0.7198333 -0.87016386 -0.31289274 -0.15908024
-0.6935706 0.35189143 -0.99772245 -0.546657 -1.1735431 -0.89327884 1.1467057 0.5858184
00000000: 1c6e e9bd 8486 623f 779a 97be cb2a 93be
00000010: ff46 38bf 0fc3 5ebf 7a33 a0be eee5 22be
00000020: d88d 31bf 1d2b b43e bd6a 7fbf b7f1 0bbf
00000030: a936 96bf ecad 64bf 41c7 923f 32f8 153f

layer2.2.running_var f4 [16]
0.6292598 0.8409589 0.6551785 0.56862926 0.52435714 1.1118892 0.5936473 0.31498224
0.81290364 0.8201299 0.7735244 0.48822358 0.94701886 0.71983314 1.1715338 0.6174199
00000000: 2c17 213f 1549 573f c7b9 273f b091 113f
00000010: 453c 063f 6352 8e3f 45f9 173f 5a45 a13e
00000020: 741a 503f 08f4 513f b205 463f 71f8 f93e
00000030: d46f 723f fc46 383f d2f4 953f 3b0f 1e3f

fc_advantage.0.weight f4 [20, 16]
0.10204301 0.38689908 0.6265709 0.18076512 0.15970679 0.72491395 0.20685536 -0.07143308
-0.34405363 0.25226936 0.13979736 0.20922264 0.029259901 0.20246379 0.3574801 0.33669
0.44774073 -0.48641738 -0.45005447 -0.13329655 0.4392939 0.33787045 0.29851443 0.04749127
0.19431378 -0.27801004 0.0007415189 0.35151798 0.05170537 0.28020287 -0.2412462 -0.03873599
0.117997944 -0.13753211 0.4365842 0.25558904 0.13603948 0.5846937 0.2508735 0.026852977
0.13489671 0.2731198 0.27691013 -0.31555417 -0.33242556 0.29190648 0.5173108 0.37126568
0.30645117 -0.11533262 0.07072204 0.32006267 0.2936111 -0.086493514 0.4257925 -0.19050752
0.32340539 0.050159607 0.24793866 -0.25001246 0.03435433 0.07108191 0.08952553 0.23406637
-0.23199658 -0.07579766 0.22093587 -0.18989691 0.1600342 0.24979433 0.21878451 0.010927066
-0.014857827 0.44532523 0.4880936 0.2656957 0.20278424 0.20741154 0.21506323 -0.009144832
0.10826104 -0.2541941 0.40146455 -0.11360322 0.15983574 0.47427914 -0.16564147 0.3074911
-0.12082593 0.22305797 0.5290675 0.71299106 0.29654607 -0.05256341 0.003735469 0.08373589
0.1562046 -0.10757105 -0.18718307 0.0883289 -0.09961765 0.015405827 0.22571838 0.14008287
-0.2902348 0.33307007 0.093329586 -0.0646568 0.3241049 0.3693634 -0.090019114 0.06982981
0.381567 0.28869838 -0.034357667 0.17838213 -0.03512771 0.18421479 0.16306478 0.07015867
0.22112018 0.20537841 -0.36803195 0.36005837 -0.13332233 0.17503683 0.10965858 -0.22130358
0.116385 -0.082072385 0.06346394 -0.17635712 0.12243209 -0.06668017 0.45783767 0.1879238
0.21724893 -0.1497858 0.21087863 0.23326764 -0.040088218 0.21671732 0.07289972 -0.14236477
-0.16395897 0.35162085 0.13635002 0.27356085 0.51455355 -0.12887786 -0.31073907 0.056459956
0.18003447 0.32519743 -0.12859848 -0.31915456 0.19606388 0.2841641 0.21855266 -0.03010671
0.30554184 0.22433883 0.04507841 0.0677239 0.5351782 -0.117108814 0.14250511 0.5850498
0.34684324 0.20905535 0.06442741 0.20001663 0.31962314 0.09179935 -0.061881926 -0.026908517
-0.11775666 -0.069008365 0.20086905 0.1757907 0.07291466 -0.026213525 0.079421535 0.15098852
-0.15698422 -0.059279785 0.45357132 0.3433569 0.15237027 -0.1491019 0.5119589 0.45927373
-0.05930749 0.22881567 0.18473218 0.12409295 0.13007492 -0.17375322 -0.33348536 -0.33529192
0.35806355 -0.10901043 -0.18359882 -0.026666405 -0.08168058 -0.22616443 0.16346134 -0.40386614
0.06794 -0.31157577 0.058742624 -0.07714905 -0.361617 -0.12784147 -0.3679565 0.12972549
-0.3168784 0.28498033 -0.100423485 0.08165018 -0.077370845 0.02612841 -0.5903907 -0.34790626
0.07234794 0.33659843 0.036561906 -0.19480325 -0.2754705 0.24270952 -0.1800812 -0.32563666
-0.20120063 0.08852628 -0.3460162 0.35118565 0.23419514 0.26820055 -0.07131512 0.000854304
0.058374394 -0.46777177 0.40074614 0.38557255 -0.41923568 -0.41219485 -0.26905686 0.013343331
0.01751581 -0.10663817 -0.08133844 0.10542485 -0.17144512 -0.2761333 -0.3214136 -0.057527326
00000000: edfb d03d a317 c63e f366 203f 7e1a 393e
00000010: 2d8a 233e f693 393f e4d1 533e 824b 92bd
00000020: cc27 b0be 7329 813e 0a27 0f3e 763e 563e
00000030: 76b2 ef3c ab52 4f3e a207 b73e a262 ac3e
00000040: 463e e53e b30b f9be 8a6d e6be e47e 08be
00000050: 21eb e03e 5bfd ac3e e2d6 983e 3586 423d
00000060: 31fa 463e 5557 8ebe 7e62 423a 2afa b33e
00000070: 03c9 533d c076 8f3e 3e09 77be a1a9 1ebd
00000080: e8a8 f13d 38d5 0cbe f787 df3e 91dc 823e
00000090: ef4d 0b3e 7cae 153f 7e72 803e c6fa db3c
000000a0: 5d22 0a3e 5cd6 8b3e 2ac7 8d3e 5190 a1be
000000b0: af33 aabe c474 953e 7b6e 043f 8916 be3e
000000c0: 2be7 9c3e 8233 ecbd b8d6 903d 41df a33e
000000d0: 3254 963e 8323 b1bd 7901 da3e 6714 43be
000000e0: 6495 a53e 2974 4d3d a2e3 7d3e a201 80be
000000f0: 20b7 0c3d 6493 913d 2959 b73d 18af 6f3e
00000100: 8390 6dbe ce3b 9bbd 033d 623e 5674 42be
00000110: 01e0 233e 16ca 7f3e 0c09 603e 7007 333c
00000120: 3e6e 73bc ab01 e43e 68e7 f93e 4409 883e
00000130: aca6 4f3e b163 543e 8939 5c3e 35d4 15bc
00000140: f7b7 dd3d bb25 82be c38c cd3e cea8 e8bd
00000150: fbab 233e b7d4 f23e eb9d 29be 796f 9d3e
00000160: 9673 f7bd 4f69 643e f870 073f 9586 363f
00000170: e3d4 973e bb4c 57bd c5ce 743b b97d ab3d
00000180: 19f4 1f3e 364e dcbd ebac 3fbe c8e5 b43d
00000190: 5704 ccbd b968 7c3c b822 673e e271 0f3e
000001a0: a899 94be 2988 aa3e 9523 bf3d c96a 84bd
000001b0: 14f1 a53e 331d bd3e f15b b8bd ee02 8f3d
000001c0: c05c c33e 46d0 933e a0ba 0cbd cea9 363e
000001d0: 13e2 0fbd cda2 3c3e 74fa 263e 59af 8f3d
000001e0: 546d 623e b84e 523e af6e bcbe 9259 b83e
000001f0: a685 08be db3c 333e ad94 e03d 689d 62be
00000200: 425b ee3d 9115 a8bd 62f9 813d f696 34be
00000210: adbd fa3d 9d8f 88bd b369 ea3e 196f 403e
00000220: 8176 5e3e 7361 19be 91f0 573e b6dd 6e3e
00000230: 8b33 24bd 25eb 5d3e 734c 953d 12c8 11be
00000240: dce4 27be a607 b43e 579f 0b3e 2b10 8c3e
00000250: c8b9 033f 8ff8 03be 3119 9fbe 8e42 673d
00000260: f55a 383e 4780 a63e 52af 03be 3a68 a3be
00000270: f8c4 483e f57d 913e 45cc 5f3e 59a2 f6bc
00000280: fb6f 9c3e 14b9 653e 24a4 383d d4b2 8a3d
00000290: 7001 093f bfd6 efbd dcec 113e d3c5 153f
000002a0: 7095 b13e 9b12 563e 85f2 833d 29d1 4c3e
000002b0: a5a5 a33e 4c01 bc3d e777 7dbd 406f dcbc
000002c0: 672a f1bd 4254 8dbd 9eb0 4d3e 7a02 343e
000002d0: 4854 953d bfbd d6bc c2a7 a23d bc9c 1a3e
000002e0: 79c0 20be 5ccf 72bd 803a e83e 7acc af3e
000002f0: f406 1c3e 2bae 18be bd0f 033f ed25 eb3e
00000300: 69ec 72bd a84e 6a3e 6f2a 3d3e 7224 fe3d
00000310: 5c32 053e 5dec 31be 98be aabe 62ab abbe
00000320: 1b54 b73e dc40 dfbd 5401 3cbe 8173 dabc
00000330: 2648 a7bd a697 67be 6962 273e 8bc7 cebe
00000340: 2024 8b3d dc86 9fbe 1b9c 703d 5200 9ebd
00000350: dd25 b9be e0e8 02be cb64 bcbe c2d6 043e
00000360: e33d a2be f1e8 913e d4aa cdbd 3638 a73d
00000370: 9b74 9ebd 3f0b d63c d823 17bf c520 b2be
00000380: 282b 943d a156 ac3e f0c1 153d 817a 47be
00000390: 780a 8dbe d888 783e 3567 38be d9b9 a6be
000003a0: 8a07 4ebe 444d b53d 0929 b1be 9bce b33e
000003b0: dad0 6f3e 9551 893e a90d 92bd 5ff3 5f3a
000003c0: fd19 6f3d c87f efbe 992e cd3e c469 c53e
000003d0: 0fa6 d6be 340b d3be d2c1 89be fd9d 5a3c
000003e0: 517d 8f3c 1d65 dabd c594 a6bd fce8 d73d
000003f0: 4f8f 2fbe 5861 8dbe 5390 a4be c6a1 6bbd

fc_advantage.0.bias f4 [20]
0.14341468 0.05568303 0.06199517 0.14341468 0.14341468 0.13688393 0.14341468 0.14341468
0.14341468 0.14341468 0.14341468 0.14341468 -0.13773707 -0.11020963 -0.011830056 -0.11891177
-0.11306618 0.1384822 0.1343474 0.10910798
00000000: 4cdb 123e e413 643d a6ee 7d3d 4cdb 123e
00000010: 4cdb 123e 4d2b 0c3e 4cdb 123e 4cdb 123e
00000020: 4cdb 123e 4cdb 123e 4cdb 123e 4cdb 123e
00000030: f20a 0dbe 96b5 e1bd dad2 41bc 0488 f3bd
00000040: 3e8f e7bd 47ce 0d3e 5d92 093e 0174 df3d

fc_value.0.weight f4 [1, 16]
-0.04062153 -0.20466356 -0.20027372 -0.095918834 -0.38970214 -0.5587448 0.07291149 0.06921713
-0.1618085 -0.12656851 -0.5249839 -0.0048347753 -0.64862657 -0.5494627 -0.54773265 -0.2041313
00000000: c362 26bd 5393 51be 8e14 4dbe 1871 c4bd
00000010: 0a87 c7be e609 0fbf 9f52 953d b6c1 8d3d
00000020: 21b1 25be 2d9b 01be 5865 06bf 096d 9ebb
00000030: 640c 26bf 96a9 0cbf 3538 0cbf cc07 51be
