save/client-8/eval.pth (torch, 14831 bytes, 15 tensors)

layer1_1vm.0.weight f4 [32, 40]
00000000: 3fc4 333e d147 adbe 0969 2e3e ed1f 8f3e
00000010: 87b1 953d 5cc7 0a3d e927 e0bd 1bc5 8b3e
00000020: dc36 b23c 82ce 123e 76b6 2ebe 4bff e63c
00000030: 463e c4bc 93dd cfbc a277 1abe d881 1fbe
00000040: b9c0 2bbe 5a72 45be 6394 1abe 9082 b6bd
00000050: ed5d 0b3e df92 edbd b28a d0bc 5e83 b23e
00000060: c123 da3d 709c f3bd 3370 fbbd eedf c0bd
00000070: d325 15be 38b9 f83d 3be5 443c 2686 07be
00000080: 0763 a4bd 1893 b43e 2552 303e 74b6 c5bd
00000090: 7501 b8bc 1ce4 9c3d cb49 8f3e 4f22 833b
000000a0: ab96 0d3e 0c8d 50be 43f6 a13d 9eee ad3e
000000b0: 602c 01be 5d38 58be 1ae3 5dbe de82 2c3b
000000c0: 7313 1e3d 4648 7ebe 7dd0 99be 8f0a 80bd
000000d0: d08a d23d 08f5 88bc b774 9d3e 6c0b 00bc
000000e0: c9f0 103e 373e 583d 0573 e9bd 14ae fbbc
000000f0: 4382 83be 06fa 84bd bdc4 f6bd 1119 a43e
00000100: 2883 df3c 6f64 793d e695 133d 982a 523e
00000110: 8bd7 a13d bd9a aabe 2943 7ebe cff1 d53c
00000120: 1a60 d73e 2952 85be eb83 bcbd a27d 8d3a
00000130: 3e83 48be 4613 04bd 5541 05be eedc 103c
00000140: a43d 8a3e eaab 103e 8142 b4bd 9656 a33e
00000150: 40cf 353d b888 af3e 2cd7 2ebd cc1d 453e
00000160: 1eaf ecbc e4e1 14be f97f 5bbe 3924 223c
00000170: a998 14be 300e 263e f3f5 77bd 76d7 72be
00000180: dd19 b83c 1461 8bbd f526 88be 2a79 a5bc
00000190: d273 913d 4e3b 69be b46a d8b9 a8e8 4fbd
000001a0: 3f37 933d ab56 c6bd e1b5 6f3e 8f6c 4c3c
000001b0: f260 143d c4d5 d6bc dce1 29bb 5b49 a83e
000001c0: 84db fb3d 103d 723d f8bd 463e 77fe eebd
000001d0: a603 983d 6048 123e 288d bbbd 4c82 b5bd
000001e0: b17b af3d 105e a6be f4a7 443e fd1a ba3c
000001f0: da18 583e 2884 74be daee 2a3d 2f28 8c3c
00000200: a73d 23be 87e7 a2bc 2cdd 393e 6edb 643e
00000210: 12e4 2abe aab9 273e 79cd da3b 0a22 87bd
00000220: d52a e5bd cf59 503e 7a1d a73e 2b0f 8f3e
00000230: 557a 51be f79a ddbc e33e 9dbe e568 1c3e
00000240: 2800 ea3b b34d 5b3e 4bba 04be a287 233d
00000250: 8405 493d 4086 a8be abc3 123e fe7d b53d
00000260: 3ac6 51bc 33ca d9bd 3cd5 3f3d 437c 28be
00000270: 5f4f d9bc bfca d3bb 2f0c a13e 6bcc 16bd
00000280: 1a04 4bbe 519b e53d 3b53 5fbe c2ef 1d3e
00000290: f6d9 15be 68d2 193e 9a36 103e 57a8 f6bd
000002a0: ef57 58bd 770f 4b3e cb47 053d 686b 7b3e
000002b0: dab4 6bbe af60 903d f07d 06be 12a5 613e
000002c0: c02b 013e caf9 823e dfb7 af3d 03ab 0f3e
000002d0: 5803 793e 7fdf 7f3a ce9b 08be 5c99 473e
000002e0: 6504 88be f40e 4c3e 54b4 783c 4479 8ebd
000002f0: f8a5 97be 8c96 a2bd 753e c0bd e741 633c
00000300: 5720 1abe 94d4 36bd 0325 a4bd 56a4 f1bc
00000310: 839f 46bd 97e8 a1be 4138 963e bbf5 f33d
00000320: 8999 513e f18f 36be 69e7 e93d a4ca 553a
00000330: 4123 c9be 2ae7 c2bc 86cc 5fbe e3f2 b53d
00000340: 8152 cdbd 6c4d 4e3e e314 fc3d 088a c9bd
00000350: f61e 653d 6ac0 abbd 9ed0 9f3c 567d 413c
00000360: 6ed3 85bc 1287 a93e b73d bb3e cbfc 4c3e
00000370: 52c4 d73d 0ac4 ae3c 66ec 3fbd 88cf 373d
00000380: cc51 86bd 8cc8 30bb 30fa 81be 0b3c a23b
00000390: 84bf ea3b 5642 5dbe ead1 d0bd 06c0 793d
000003a0: 1723 d1bd 980f 8cbd 0129 ae3d f9a5 8f3e
000003b0: 8760 0c3e b425 1b3d e72f a0be a6ef 873d
000003c0: b654 e2bc 63a7 8ebd 7b15 253e cbbc 94bb
000003d0: 4f1e 563e c18a 203e 8b68 113e 0a6b 73be
000003e0: 70d3 0dbd 0e9e a93e 8c9c 05bd 22d0 a83d
000003f0: fad9 c3bd cb06 e53e cb2f b1bc 66a7 3fbd
0.1755533 -0.33843854 0.17032255 0.27954045 0.07309251 0.03388153 -0.10945112 0.27298817
0.021754675 0.14336589 -0.17061791 0.028197905 -0.023955476 -0.02537421 -0.15084699 -0.15576875
-0.16772737 -0.19281903 -0.15095668 -0.089116216 0.13610049 -0.11600279 -0.02545676 0.3486585
0.10651351 -0.118950725 -0.1227726 -0.09417711 -0.1456521 0.12144703 0.012017543 -0.13234767
-0.080267005 0.35268474 0.17218836 -0.09653941 -0.022461632 0.07660696 0.27985987 0.0040018926
0.13827007 -0.20366305 0.07908299 0.33971113 -0.12614584 -0.21115251 -0.21668664 0.002632312
0.038592767 -0.24832258 -0.30041876 -0.06252014 0.10280383 -0.016718403 0.3075311 -0.007815223
0.14154352 0.052793708 -0.11398891 -0.030722655 -0.2568532 -0.06493001 -0.120492436 0.32050374
0.02728422 0.060886797 0.036031626 0.2052406 0.0790244 -0.3332118 -0.24830307 0.02611628
0.42065507 -0.26039246 -0.09204849 0.0010794888 -0.19581315 -0.032244943 -0.13013203 0.008841736
0.27000153 0.1412808 -0.08801747 0.31901997 0.044387102 0.34283996 -0.042685673 0.19249648
-0.028892096 -0.14539295 -0.21435536 0.0098963315 -0.1451136 0.1621635 -0.06053729 -0.23715004
0.02247327 -0.068056256 -0.26592222 -0.020199377 0.07102169 -0.22776529 -0.0004127823 -0.050758988
0.07188272 -0.09684499 0.23409225 0.012477054 0.036225267 -0.026224978 -0.0025921976 0.32868466
0.12297729 0.059140265 0.19408405 -0.11669629 0.07422571 0.14285421 -0.09157783 -0.08862743
0.08568514 -0.3249364 0.19204694 0.022717947 0.2110323 -0.23878539 0.041731693 0.017109005
-0.15941487 -0.019885791 0.18150777 0.22349331 -0.16688564 0.16379419 0.0066773263 -0.06598289
-0.1118981 0.2034676 0.32639676 0.2794126 -0.20456822 -0.027051432 -0.3071204 0.15274389
0.007141132 0.21416359 -0.1296169 0.03992427 0.049077526 -0.32914925 0.14332454 0.08861922
-0.012803609 -0.106342696 0.046834216 -0.16453652 -0.026527105 -0.006463378 0.31454608 -0.036816042
-0.19825783 0.11211265 -0.21809094 0.15423492 -0.14633927 0.1502167 0.14083329 -0.12043827
-0.052818235 0.19830118 0.03253917 0.24552691 -0.23018208 0.07049691 -0.13133979 0.22035626
0.12614346 0.255812 0.085799925 0.1403008 0.24317682 0.00097607815 -0.13340685 0.19492096
-0.26565853 0.19927579 0.015179712 -0.06956723 -0.29618812 -0.07938871 -0.09386913 0.013870693
-0.15051399 -0.044636324 -0.08014872 -0.029497307 -0.048491966 -0.31622764 0.29339793 0.11912104
0.20468725 -0.17828347 0.11421091 0.0008155501 -0.3928471 -0.023791868 -0.21855363 0.088842176
-0.10025502 0.20146722 0.12308671 -0.098407805 0.05593773 -0.083863094 0.019508656 0.011809668
-0.01633617 0.33110863 0.36570522 0.20018308 0.10535492 0.021333713 -0.046856306 0.04487565
-0.0655857 -0.0026975004 -0.2538619 0.0049510053 0.0071639437 -0.21607336 -0.10196288 0.060974143
-0.10211771 -0.06838912 0.085039146 0.28056315 0.13708697 0.037877753 -0.31286547 0.06637506
-0.027628284 -0.0696552 0.16121475 -0.0045391074 0.2091 0.1567793 0.14200036 -0.23771301
-0.03462547 0.331284 -0.032619998 0.08242823 -0.0956306 0.44731745 -0.021629235 -0.046790503

layer1_1vm.0.bias f4 [32]
00000000: aa24 4dbd a360 86bc ad4d cd3c 4cdb adbc
00000010: 4c28 5b3c b1d1 cdbc 7c76 95bc ba6a 0e3d
00000020: a9e4 f0bc 47d6 a53c a2fd 083d a249 48bd
00000030: d0c6 7fbd e36f 273c e0dd c43b 9574 0dbd
00000040: 55d0 4dbb 65bf 243d a2b3 0cbd 8179 163d
00000050: 72e8 29bb dd6f 9ebc c4d9 8c3c a8ec c53c
00000060: ce53 d43c 830e fbbc 5452 b7bd 1b80 24bc
00000070: 8e74 ff3b f04d 893c 8c4f a73c b01e d0bc
-0.050083794 -0.016403502 0.025061453 -0.021222733 0.013376307 -0.025124403 -0.018244974 0.03476975
-0.029405909 0.020243777 0.033445008 -0.048898347 -0.06244546 0.010219547 0.006007895 -0.03453501
-0.0031404693 0.04022159 -0.034351 0.03673697 -0.0025925902 -0.01934045 0.017193682 0.024160698
0.025918867 -0.030646568 -0.0895125 -0.010040308 0.007795877 0.016760796 0.020423673 -0.025405258

layer1_1vm.2.weight f4 [32]
00000000: fa38 723f ad6d 833f 9c81 733f 9916 793f
00000010: 1ff0 783f e8d8 823f 87c5 7e3f 146c 843f
00000020: d846 833f 7bf3 753f 3029 863f 9ec5 7a3f
00000030: 0a6a 783f 69e6 783f 057b 853f 5d78 853f
00000040: 081e 813f d7c5 783f 2d0a 843f 6227 803f
00000050: 37a1 7a3f 16b6 733f acba 7e3f da14 713f
00000060: 65a5 833f 7c17 813f bd7a 853f e38f 723f
00000070: bd2e 823f 1737 823f 55b2 7f3f 90dc 773f
0.9461819 1.0267845 0.95119643 0.97300106 0.97241396 1.0222445 0.9952015 1.0345483
1.0255995 0.96074647 1.048132 0.9795779 0.970368 0.9722658 1.0428168 1.0427357
1.008729 0.9717688 1.0315605 1.0012019 0.97902244 0.95199716 0.9950359 0.9417244
1.028485 1.0085292 1.0428082 0.94750804 1.0170513 1.0173062 0.9988149 0.96820927

layer1_1vm.2.bias f4 [32]
00000000: c252 65bd 3185 c23c d9a3 41bd 6a62 dcbc
00000010: 3216 fabc e8c5 d23c 550d e1bb ae0a f83c
00000020: b9e2 c93c 85bc 24bd f26a 523d aa4f d9bc
00000030: 1450 14bd a1f0 f1bc 719e 183d 56b9 243d
00000040: d79e 0b3c 635e b9bc 3f6b 293d 1362 b73b
00000050: f7bb 60bc 7186 46bd eda6 493b 9b8b 5ebd
00000060: c470 eb3c 9b25 1e3c 3bb5 023d 98f6 53bd
00000070: 0cb6 633c 04a9 aa3c 3d44 08bc 9616 0abd
-0.055987127 0.023745151 -0.047275398 -0.026902396 -0.030528162 0.025729135 -0.0068680444 0.03027853
0.024644243 -0.04021885 0.051371522 -0.026527245 -0.03620918 -0.029533686 0.037260476 0.040215813
0.008521757 -0.022628015 0.041362043 0.005596408 -0.013716689 -0.048468057 0.0030769662 -0.054332357
0.028740294 0.0096525205 0.031911116 -0.051748842 0.013898384 0.020832546 -0.0083170505 -0.033712946

layer1_1vm.2.running_mean f4 [32]
00000000: 0955 c045 6a69 01c6 c0c0 bb45 a830 1146
00000010: 3eb5 76c5 e150 ccc5 4572 29c6 ed2e a1c6
00000020: 2ab6 b6c6 8901 5545 2fa5 4a46 c34f ee45
00000030: 15e5 b5c5 9a89 a145 1323 6045 a7cd ffc5
00000040: fdb2 1a46 7f41 6f46 65d1 2fc5 b20d 2a46
00000050: 4e2e afc5 78f6 9945 264d a645 ac0d fa45
00000060: 9a70 4446 fdef 16c6 7d4f b1c5 5e71 08c5
00000070: c9c9 0e46 29d7 7b45 5a3d 5546 c8ee 91c6
6154.6294 -8282.354 6008.0938 9292.164 -3947.3276 -6538.11 -10844.567 -20631.463
-23387.082 3408.096 12969.296 7625.97 -5820.6353 5169.2 3586.1921 -8185.7065
9900.747 15312.374 -2813.0872 10883.424 -5605.788 4926.8086 5321.6436 8001.709
12572.15 -9659.997 -5673.936 -2183.0854 9138.446 4029.4475 13647.338 -18679.39

layer1_1vm.2.running_var f4 [32]
00000000: ad90 0d4b 6b6c 924b 7ec8 134b 96ae b24b
00000010: 8cbc 914a e409 274b 9ca0 f14b 28b4 a44c
00000020: f441 104d 20ee 2c4a 8cfb 104c 8c62 524b
00000030: 982d 084b 9066 d24a 42a2 574a 50cd 874b
00000040: ad0a bc4b 499d 594c b9b1 e749 8e3e ec4b
00000050: 1e8f e74a 52fa b04a 1946 f44a a8c8 654b
00000060: 67cf 224c 8971 ac4b a3d1 e34a 3fc6 aa49
00000070: 50bf 9c4b b50b 5a4a 9500 474c 7e34 a54c
9.277613e+06 1.9192022e+07 9.685118e+06 2.3420204e+07 4.775494e+06 1.0947044e+07 3.1670584e+07 8.635219e+07
1.5126509e+08 2.833288e+06 3.800632e+07 1.3787788e+07 8.924568e+06 6.894408e+06 3.5329445e+06 1.779984e+07
2.4647002e+07 5.7046308e+07 1.8980391e+06 3.096502e+07 7.587727e+06 5.799209e+06 8.0043645e+06 1.5059112e+07
4.2679708e+07 2.2602514e+07 7.4651695e+06 1.3989839e+06 2.0545184e+07 3.5724612e+06 5.2167252e+07 8.661502e+07

layer1_2vm.0.weight f4 [16, 32]
00000000: a743 783e d5a3 30be 1810 94be 14cc 043e
00000010: 6d8b 873e ca21 13bd d52f 0bbe 694d 61be
00000020: 3bdf c73c e37b c23e b77f f1be 7ea6 32bb
00000030: ae23 52be 7148 bdbc e2e9 533d 1994 1abe
00000040: adbe 7b3e d854 41bb 240f a4be 539f 8f3d
00000050: 2e6f 143e f0fe e5ba e3b9 2a3e 2dcd d73d
00000060: 3a14 b8bd c279 96be 914b ae3d 6b8d 55be
00000070: 4f76 c6bd 1273 203e 1cec 93be 7881 d9bd
00000080: c92a f2bd dd32 b6bb a076 5bbb a3e2 513d
00000090: a7aa a93b ef2e b73e 7049 f43c c6ba c63e
000000a0: 2824 cb3d 92cf 993d 7e92 5a3e ca26 3abe
000000b0: 1c81 1abe 8f92 1cbe 5c0a 843e b466 56bd
000000c0: 2447 93bd 2376 97be 65be 863e 58e2 84bd
000000d0: b87c 933d fcb8 23bd bf40 be3d ec39 c03d
000000e0: d07b 8f3e 8680 223e 4c3e 443e 8cc6 b7be
000000f0: dd51 e33d 2d48 883e 6735 52bd 7b6f e03b
00000100: b153 343e cde2 783e 068b 023d 9d2c c03e
00000110: c97a 7fbd 5475 68be b810 24be d429 42bc
00000120: 656d 1bbe 8847 7a3c 8a52 aebd bfa8 1fbd
00000130: 3297 b8bc 9551 73bc 0c43 e9bd 1e2a 02bf
00000140: 3ceb e93e 5043 db3d 78d6 a8bc e85b 75bd
00000150: af24 72bc 1563 babe f9dc d63d 8110 e43e
00000160: 357b bc3b e1ea 543b feb6 c0bd 3d3a 683e
00000170: 3f9c 48be ab34 9ebe a84e 4fbe b65b 673e
00000180: 6eaf b1be 57f0 b33d bcde eabe 0911 883c
00000190: 4afa 513d 4b8b 8fbd 6570 29bd be51 6b3e
000001a0: 2472 0b3e f590 513d 7309 4abb 4651 833e
000001b0: 7d3b fa3e e363 3cbe ec5b c73e 0fa6 63be
000001c0: 31a0 e2bd f5a5 843e 56b1 f53d 8c3d 95bd
000001d0: 446c 813e ed9b 5d3e ee39 a2bd 029e 41bd
000001e0: 1d49 32be de71 8ebe 206d 4cbe 1bbd a0bc
000001f0: 93eb b93e 8d98 cbbc 1b46 ba3e 81b9 583e
00000200: 6649 6e3c bb17 913a f2f4 91be 7949 97bd
00000210: 42a5 2abd 6ced 2dbe f392 b63e 939c d4be
00000220: f3ad 51be d433 30be 57b3 b93d 4650 5ebe
00000230: 0d85 68bc f5c9 a5be f2af 173e 442c 7cbe
00000240: 191a d1be dc1b 533d 572f 523d 4ac5 a73e
00000250: 4dee 39be 7f27 1ebe 5734 8cbe f3a6 e93c
00000260: e1a8 3a3e 38e9 d4bb 8574 73be 45bf 1fbe
00000270: 14b6 04be c9ef 903e 586d 923e 65cb 9b3e
00000280: 2988 f5bd 1d4d 08be cea1 d93d 5b0c 373e
00000290: f7da 99bd 335d 96be 2c74 8fbc a5d1 283e
000002a0: fed1 28bd 96d6 c0bc 8927 013c eb26 9f3e
000002b0: f170 803d 7375 ca3d b28b 6fbe 70da 7a3e
000002c0: 83a6 afbe 566f 6abe 27e6 5d3d 5438 a4bd
000002d0: 347a 01be 0920 2f3e c716 6bbd 4c5f d9bd
000002e0: f783 b23e 464b c1be f537 bc3d c75a 133f
000002f0: 82e4 86be 7a9c 093e bb45 723e 3e0c 0fbf
00000300: 1505 863e 4995 8d3d 7f0a 7b3d 573b 00be
00000310: ee00 763d 3820 623d a6db b3be 0986 8fbd
00000320: 4070 153e 582a 51be ab6e 2abe 90a7 903d
00000330: b667 42bc fa91 4dbe 5617 163e bf55 81be
00000340: a8e2 173d eeb9 14bb 6906 c5bd 0751 82be
00000350: f6ec b13c ecab af3e cf6a 6a3e 2a09 c2bd
00000360: 6685 cabd f6c4 c9be 23d3 ffbd b76f 25be
00000370: 311b 49be d717 093e 7739 cdbd fbe2 063e
00000380: bcf0 0ebe 234b 223e 9af3 3cbe daa7 fe3d
00000390: a0ab 47be efdd b9be dfac 9a3e 9fc9 c83e
000003a0: 469a a03e e381 41be a2ce 703e c8fb 4fbe
000003b0: 37fc 95be 6648 8fbe 0104 e4bd 2287 e1be
000003c0: 72a8 bf3d 972d 913e 61a9 e53d 3e96 f13c
000003d0: cf31 a73e 0320 27be 043f 59bb f70a 0bbe
000003e0: 90ae 5dbd e844 6abd c97d b9bd b7be 853e
000003f0: cfcd 9ebe 25f9 d83d 377c f3bd d008 ae3d
0.24244557 -0.17249997 -0.2891853 0.12968475 0.2647356 -0.035920896 -0.13592465 -0.22002186
0.024398437 0.37985143 -0.4716775 -0.0027259882 -0.20521423 -0.023105832 0.05173672 -0.15095557
0.24584456 -0.0029500034 -0.320428 0.070128106 0.14495537 -0.0017547291 0.16672473 0.10537181
-0.08988233 -0.2938977 0.08510507 -0.20854728 -0.09690534 0.15668896 -0.28891075 -0.10620397
-0.11824567 -0.0055602626 -0.0033487454 0.05124153 0.005177814 0.35777995 0.029820174 0.38814372
0.09919006 0.07510294 0.21344945 -0.1817886 -0.15088314 -0.15290283 0.25789154 -0.05234404
-0.07191303 -0.2958232 0.26317134 -0.06488484 0.072015226 -0.039971337 0.09289693 0.09386048
0.2802415 0.1586934 0.1916439 -0.35893667 0.110995986 0.26617566 -0.05132046 0.006849227
0.1761005 0.24305268 0.031870864 0.37534037 -0.062372956 -0.22701007 -0.16022003 -0.011850793
-0.1517845 0.015275843 -0.08511837 -0.03897929 -0.022533033 -0.014850994 -0.11389741 -0.50845516
0.45687282 0.10706198 -0.02061008 -0.0599021 -0.014779254 -0.3640372 0.10491366 0.4454384
0.005751992 0.0032488632 -0.09409903 0.22678466 -0.19590853 -0.30899557 -0.20244849 0.22593579
-0.34704155 0.087860756 -0.45873058 0.016609685 0.051264085 -0.0700899 -0.041366953 0.22980401
0.1361776 0.051163632 -0.0030828386 0.25647944 0.4887351 -0.18397479 0.38937318 -0.22231315
-0.1106571 0.25907865 0.11996715 -0.0728713 0.25277913 0.21641512 -0.079212055 -0.04726983
-0.17410703 -0.2782125 -0.19963503 -0.019621423 0.3631254 -0.024853015 0.3638161 0.21164514
0.014543867 0.0011069694 -0.2850719 -0.07387061 -0.04166151 -0.169851 0.35658988 -0.41525707
-0.20476513 -0.17207271 0.090674095 -0.2171031 -0.014191878 -0.32380643 0.14813212 -0.24626261
-0.40840223 0.05154024 0.051314678 0.32767707 -0.18157311 -0.15444754 -0.27383682 0.02852199
0.18228485 -0.0064975284 -0.23774917 -0.15600307 -0.12960082 0.28307942 0.28599048 0.30428615
-0.11988861 -0.13310666 0.10626565 0.17875807 -0.07512467 -0.2936798 -0.01751145 0.16486223
-0.04121589 -0.023539823 0.007882961 0.3108438 0.06271542 0.09885683 -0.23393133 0.2449739
-0.34306726 -0.22894034 0.05417457 -0.08018556 -0.12644273 0.17102064 -0.05739477 -0.106138796
0.34866306 -0.37752742 0.091903605 0.5756039 -0.26346213 0.13438597 0.23659413 -0.55878055
0.26175752 0.069132395 0.061289307 -0.12522636 0.06005948 0.055206507 -0.35128516 -0.07007987
0.14593601 -0.20426309 -0.16643779 0.0706321 -0.011865547 -0.20075217 0.1465734 -0.25260732
0.03708139 -0.002269383 -0.09620363 -0.25452444 0.021719437 0.34310853 0.22892307 -0.09474404
-0.09888725 -0.39408082 -0.12491443 -0.16155897 -0.19639279 0.13388 -0.10020726 0.13172524
-0.1395902 0.15848975 -0.18452302 0.12434359 -0.19499063 -0.36302134 0.30210015 0.39216325
0.313677 -0.18897204 0.23516324 -0.2031089 -0.29293987 -0.27984923 -0.11133576 -0.4404841
0.093583 0.28355095 0.11213947 0.029490586 0.32655188 -0.16320805 -0.0033149133 -0.13578402
-0.054121554 -0.05719462 -0.09057195 0.26122066 -0.31016394 0.105943955 -0.118889265 0.084977746

layer1_2vm.0.bias f4 [16]
00000000: 04da f53b d6a4 7e3d a7c6 28bd 97b6 84bc
00000010: e538 86bc 723d 003d bab3 4bbd d12b 823d
00000020: db6d 5bbd aa1f 03bd 939b c23c 4e52 f1b9
00000030: 0d5b 27bc c4e7 b0bc a92d 13bd e222 263c
0.007502796 0.06216892 -0.041205075 -0.016200347 -0.016384551 0.0313086 -0.049731947 0.063560136
-0.053571563 -0.03201262 0.023755824 -0.00046028424 -0.010214579 -0.02159489 -0.035932217 0.010140153

layer1_2vm.2.weight f4 [16]
00000000: d3df 713f d246 8b3f f533 6e3f 1de1 803f
00000010: 725d 763f 0b8f 6e3f c1ec 8a3f 17f0 6a3f
00000020: a443 8a3f 1548 8b3f d1ad 8b3f 3f5a 8a3f
00000030: 1298 8a3f 436e 703f c25f 713f 0293 873f
0.94482154 1.0880988 0.9304803 1.0068699 0.96236336 0.93187016 1.0853502 0.917726
1.0801892 1.0881373 1.091242 1.0808791 1.0827658 0.93918246 0.9428674 1.0591738

layer1_2vm.2.bias f4 [16]
00000000: 1b9d 4fbd 754d b43d dcd1 99bd 71d3 3a3b
00000010: 6728 61bd 7f61 8fbd 73b8 af3d 650a a4bd
00000020: 6e10 a33d 3cda b83d 817c b13d 24cb b73d
00000030: 5fa5 a13d 97fe 93bd 7eff 73bd aa74 ae3d
-0.050686937 0.08803836 -0.075107306 0.0028507377 -0.05497017 -0.07001018 0.08580103 -0.08009795
0.07962118 0.09026 0.08666325 0.08974293 0.0789287 -0.072262935 -0.05956983 0.08518346

layer1_2vm.2.running_mean f4 [16]
00000000: 0ec6 debe c7df 313f b0c2 51be 27a3 ea3e
00000010: 1534 14bf 312a e2bd 0035 01bf 2f8e 47bd
00000020: bc2d 29bf 9719 04bf cd43 2e3f 388f edbe
00000030: 63ba 2cbf 9845 b13d 44ee 633d 4f81 613f
-0.4351048 0.6948208 -0.20484424 0.458276 -0.5789197 -0.110432036 -0.50471497 -0.04871958
-0.6608541 -0.51601547 0.68072206 -0.4639833 -0.67471904 0.08655852 0.05564715 0.88087934

layer1_2vm.2.running_var f4 [16]
00000000: b75b 003f 1edf 283f 2ce3 f93e 3113 183f
00000010: 10a3 233f da31 5e3f f759 ee3e 338a 7d3f
00000020: fe06 0e3f 4822 a93e fe89 fa3e 610f 1b3f
00000030: c9fd 8b3f fc42 0f3f 9f27 fd3e 6448 643f
0.50139946 0.6596545 0.4880613 0.59404284 0.6392069 0.8679482 0.46553013 0.99039
0.5547942 0.33033967 0.48933405 0.6057034 1.0936824 0.55961585 0.4944429 0.8917296

fc_advantage.0.weight f4 [20, 16]
00000000: 4dc5 30bd 9288 bbbe 0605 1cbe 8b42 d5be
00000010: 3ac4 1fbd 323b 93bd 8bd7 56bd 5bb7 bcbe
00000020: 4cd3 003e 3884 3f3d c866 f8bc ed05 b0be
00000030: 0761 b8be 60dd 04be b84b 96be 3f01 81be
00000040: 862a 21be bada cdbc 8ca6 e0bd 2611 643c
00000050: 4d01 2cbe 722a 77be ada8 a5be 99d2 e5bd
00000060: c4de 06be 8ee5 cdbe eda7 823d 36ce 11bf
00000070: 8838 8c3e a943 e9bc fc4f 18be a9fd 26be
00000080: e394 95be 725e 99bd e857 bd3e cb8f 2cbe
00000090: abad 90bc 7669 ffbe 570b 8ebe b3d4 47be
000000a0: 6b9f ee3e d231 2ebe e0a9 f2be 4399 b73d
000000b0: 3884 51be 3ac6 8f3e 9491 2dbe f981 e13d
000000c0: 87d2 da3e 51bf dcbd 1351 dd3e 3c94 2fbc
000000d0: de62 2cbe e38b 6a3e 2353 eabd 4e99 e5bd
000000e0: 2a67 073f da18 383e 239d f93d 66fe 43be
000000f0: 7c88 a5bd 2233 9f3c 6e22 603e 486d 883e
00000100: 6319 26be b154 af3d 1b89 c2be 1e04 9fbd
00000110: 980b 1fbe d2b3 1fbe ca85 bcbe 203b 973c
00000120: 7977 92bd b54e 293e f149 3cbe 8d83 2d3d
00000130: e56a a13d 9219 bebe 1033 9e3c 5c85 4b3e
00000140: 6328 d7be e40e c13d 9f65 69be 2fc5 d23d
00000150: 5db3 0ebe 0b2a 953e c2ce bdbe 8ad1 9d3d
00000160: 0d30 5d3e da63 b13d 630d ebbe 4c0e 2fbe
00000170: 1704 0abe 3beb 6cbe 13af 0fbe 125d 833d
00000180: 3451 963d 3a47 af3e 6881 a03e b40a febe
00000190: ba8b 0ebf 8af7 dc3d 2d49 923e 9f15 9fbc
000001a0: 3b18 353d 5a2d 403d b204 0a3e 3e57 30be
000001b0: 2207 7ebd 0081 7ebc 9f06 e2bd 11eb ad3e
000001c0: 63c0 363e 162e 74be a4e4 febc 1624 30bc
000001d0: 5c1c 7fbe 86bf 1cbc a578 4d3e feee 353e
000001e0: 2183 773e 9069 32be 13db 33bd dfbc aebe
000001f0: d2d7 0abf b4e6 0f3f 1e7a db3d c23e a9bb
00000200: 3a9b afbe c16e 713d a24c 213e 5f0c 43be
00000210: f286 8d3d 85be 37be e270 a73e 1d87 08b9
00000220: 411d 00be 555e b6bd 9785 c13e 45f1 9abd
00000230: 40f5 6cbe 9a16 a33e 00b0 8cbc a1b6 a9bd
00000240: 443e 053f 234c 89bd 666a 6a3d e1e0 4dbd
00000250: f7e6 d53e 3362 5e3d aa6a 2d3f fb88 b03c
00000260: 900e a13d 6a6c 60be 983d 94be 9091 7fbe
00000270: c605 82bc f970 3cbe b740 3e3d 1c9e 8f3d
00000280: 662c 5dbd ab5d f4bd c283 e93d 0088 263f
00000290: cfbc 8dbd c75a 92be e176 c93d d287 263e
000002a0: 03d9 ac3e 147d b13c ff11 b43e 7b18 9a3d
000002b0: 48a2 2dbd d0f8 e0bd cfab 7dbd 6535 30be
000002c0: 25a0 9cbe 8c43 72be 0aec d8bd 3a9d bc3d
000002d0: d018 8b3e a46e 66be 65d9 473d 3564 a23e
000002e0: 34fd 31be 66cf 163e 28ba e0be 9fc6 043f
000002f0: b01e c33d 10cf b2be 9098 1b3d 9060 a1bc
00000300: 39b8 d93d f17d b3be 9fd5 40be 63dc babc
00000310: fcb3 1dbe 78ad 463e 9e6f fb3d cb92 053e
00000320: ec11 8d3e 952a 183d 722c 8abc 2ebc 5e3c
00000330: 5ddd 96be ad0f 2a3e 68df f8bc 6779 a8bd
00000340: eb8a 813e 6ea1 e53d 3411 993e 8497 43be
00000350: 7276 cabe a4e8 c63e 3a7c a2bd 2c45 fe3e
00000360: 6d2a 35be efa7 96be 1864 37be 42b2 a03d
00000370: 058c 56be 06a1 2f3e 3157 af3d 807c 7a3d
00000380: 792a 0b3d f639 6bbd ef5f c8be 3a8e af3e
00000390: e178 623d a6b3 873d 8cbf 2bbe cb40 22bf
000003a0: 0ba6 c8bd bbd9 cfbe 55cb d33c a173 1cbf
000003b0: 7159 893d d2db 79bc 49d4 bd3d fbca cbbd
000003c0: 92bd a13d 94ef 07be 7cb8 863d c83d e93d
000003d0: 4355 d4be d677 2f3e 70ed 67be 7da2 c3bd
000003e0: 9f00 1dbe ab97 b13e 2971 853e 4351 473e
000003f0: 5f2a a43b 9dd5 81be 463d 083d 3241 dd3e
-0.04315691 -0.36627632 -0.15236291 -0.4165233 -0.039005496 -0.07189025 -0.05245165 -0.3685864
0.12580603 0.046756953 -0.030322447 -0.3437952 -0.36011526 -0.12975073 -0.29354644 -0.25196263
-0.15738878 -0.025128711 -0.10969266 0.013920104 -0.16797371 -0.24137285 -0.32355252 -0.11221809
-0.13170916 -0.402142 0.063796856 -0.5695528 0.2738688 -0.028474646 -0.14874262 -0.16307701
-0.29215154 -0.07488717 0.3698113 -0.16851728 -0.017660936 -0.49885148 -0.27743027 -0.19514732
0.46606 -0.17011192 -0.4739523 0.08964779 -0.20460594 0.28080922 -0.16950065 0.110111184
0.42738745 -0.10778678 0.43225917 -0.010716494 -0.1683459 0.22904925 -0.11441638 -0.11210881
0.5289179 0.1797823 0.121881746 -0.19140014 -0.08082673 0.019433562 0.21888134 0.26645875
-0.16220622 0.085610755 -0.37995228 -0.07764457 -0.15531766 -0.1559594 -0.36820823 0.01846081
-0.07151694 0.1653393 -0.18387581 0.042361785 0.07881717 -0.37128884 0.019311458 0.19875091
-0.42023 0.09426668 -0.22792672 0.10291516 -0.13935609 0.2913364 -0.37071806 0.07705982
0.21600361 0.08661623 -0.4590865 -0.17095298 -0.13478123 -0.23136608 -0.1403163 0.06414236
0.07339707 0.3423403 0.3134873 -0.4961754 -0.55681956 0.10789402 0.28571454 -0.01941949
0.04421256 0.04691825 0.13478354 -0.1722078 -0.06201852 -0.015533686 -0.11036419 0.33968404
0.17846827 -0.23845705 -0.031114884 -0.010750791 -0.24913162 -0.009567147 0.20065553 0.1776695
0.24171115 -0.17423081 -0.043910097 -0.34128472 -0.54235566 0.562114 0.107166514 -0.005164952
-0.34298116 0.058943514 0.1575189 -0.19047688 0.069105044 -0.17943771 0.3270331 -0.00013020304
-0.1251116 -0.08904711 0.37797233 -0.0756555 -0.2314043 0.3185318 -0.017173767 -0.08286787
0.52048135 -0.06703975 0.057230376 -0.05026329 0.41777775 0.05429287 0.6774088 0.021549692
0.07864106 -0.21916357 -0.28953242 -0.24957871 -0.015871894 -0.1840247 0.046448436 0.07012579
-0.05399742 -0.11931928 0.11402084 0.6505127 -0.06920778 -0.28584883 0.098371275 0.16262749
0.33759317 0.021666087 0.3516998 0.075242005 -0.04239109 -0.10984957 -0.061931428 -0.17207868
-0.3059093 -0.2365858 -0.10591896 0.09209676 0.27167368 -0.22503144 0.048791308 0.31717077
-0.17381746 0.14727554 -0.43892026 0.5186557 0.095273376 -0.349236 0.03798729 -0.019699365
0.10630841 -0.35057023 -0.1883149 -0.022810167 -0.1540069 0.1940211 0.12277149 0.13044278
0.27552736 0.037149984 -0.016866896 0.01359467 -0.29465762 0.16607542 -0.030379966 -0.08226281
0.25301298 0.11212431 0.29895937 -0.19100767 -0.39543492 0.38849366 -0.079338506 0.4966215
-0.17691965 -0.29424998 -0.17909276 0.078465 -0.2095185 0.1715127 0.08561552 0.06115389
0.033976052 -0.057428323 -0.39135692 0.34288198 0.05529106 0.06626062 -0.16772288 -0.63380116
-0.09797295 -0.40595803 0.025853792 -0.61113936 0.06706513 -0.015250163 0.09269006 -0.09950825
0.07897486 -0.13274986 0.06578156 0.11388737 -0.414713 0.17135558 -0.22649169 -0.095524766
-0.15332268 0.34686026 0.26062897 0.19464593 0.005009934 -0.25358286 0.03326156 0.43213803

fc_advantage.0.bias f4 [20]
00000000: 4fb4 aebd 09a9 93bd 518e 4bbd dca6 86bd
00000010: 900f 18bd e403 c3bc 5abd 233c 8fbf b5bb
00000020: eb91 ff3b 0aa0 7f3c 8f71 6abd 2ab7 72bc
00000030: 2f37 85bc 07ee 763c 6768 afbc ae61 1e3d
00000040: 829b ba3d 212f 2a3d c199 913d 1607 493d
-0.08530485 -0.07209975 -0.04969627 -0.06574795 -0.037124217 -0.023805566 0.009993875 -0.005546517
0.007799377 0.015602121 -0.057237204 -0.0148141775 -0.016261665 0.015071399 -0.021412088 0.038667373
0.09111692 0.041548852 0.07109404 0.049079023

fc_value.0.weight f4 [1, 16]
00000000: 5b5d 843a e134 1f3f 8c68 4fbd b07e 383d
00000010: adbe 433d 0dda 03be 9137 f53e bd67 61bf
00000020: af94 883e 90a8 043f e702 403e dc5d 033e
00000030: 1f3d e93d 4da8 88bd 5434 aabc d1c6 913d
0.0010098623 0.6219006 -0.050636813 0.045042694 0.047789264 -0.12876149 0.47893956 -0.8804892
0.26675937 0.51819706 0.18751107 0.12828773 0.11388611 -0.06672726 -0.020776905 0.07117999
