dqn/save/target.pth (torch, 21131 bytes, 26 tensors)

layer1_task.0.weight f4 [16, 3]
0	0x3eb83387	0.35976812
1	0x3db97b9c	0.0905678
2	0x3ec9ccd7	0.39414093
3	0x3dca5f7b	0.09881493
4	0xbd4468a5	-0.04795136
5	0x3f22917d	0.6350325
6	0x3ec8e3b3	0.3923622
7	0xba4b995e	-0.0007766689
8	0xbeb5813b	-0.35450158
9	0x3e0a71c3	0.13519959
10	0x3e30e0e8	0.17273295
11	0xbe74830b	-0.23878114
12	0xbe3845de	-0.17995402
13	0xbf78139e	-0.96904933
14	0xbed96792	-0.4246183
15	0xbe55114b	-0.20807378
16	0xbe56b410	-0.20967126
17	0xbefd4377	-0.49465534
18	0x3f1eb5b2	0.61995995
19	0x3e06b249	0.13153948
20	0xbeedbc60	-0.4643278
21	0x3f363b68	0.71184397
22	0x3ef6b0f5	0.48181883
23	0x3e5b756e	0.21431515
24	0x3eb948d9	0.3618839
25	0x3db6d37d	0.08927057
26	0xbc95530d	-0.018228078
27	0x3da0ab43	0.078451656
28	0xbf0cbedb	-0.5497872
29	0xbef43ed5	-0.47704187
30	0xbf15ded9	-0.58543164
31	0xbebd2695	-0.36943498
32	0xbe1db8ed	-0.15402575
33	0xbc4f9d3b	-0.012671764
34	0x3e4306cb	0.1904556
35	0xbed14ef4	-0.4088055
36	0xbe6015e0	-0.21883345
37	0xbea5d853	-0.32391605
38	0x3f248ee6	0.64280546
39	0x3f21b5b7	0.631679
40	0x3e8d1200	0.27552795
41	0x3e56051c	0.20900387
42	0xbe843380	-0.2582054
43	0xbd937e09	-0.07201774
44	0x3d868728	0.06568748
45	0xbe9e5463	-0.30923757
46	0x3e0a77e0	0.13522291
47	0x3ebf8086	0.37402743

layer1_task.0.bias f4 [16]
0	0x3c370bab	0.011172215
1	0xba3ff5f0	-0.00073227193
2	0xbd860797	-0.065444164
3	0xbd385618	-0.04500398
4	0xbbbc951d	-0.0057550804
5	0x3d358284	0.044313923
6	0x3cad59ef	0.021161048
7	0xbd79ae65	-0.06095733
8	0x3d163f10	0.036681235
9	0xbc42db28	-0.011893071
10	0xbc0e5f8f	-0.008689775
11	0x3c9f8c79	0.019476162
12	0x3d223979	0.03960559
13	0x3cae1c9a	0.021253873
14	0x3c2ffc6e	0.010741336
15	0x3cfd640f	0.0309315

layer1_task.2.weight f4 [16]
0	0x3f714275	0.9424203
1	0x3f8368a1	1.0266305
2	0x3f86e39f	1.0538214
3	0x3f82bbf7	1.0213612
4	0x3f7e7c26	0.99408185
5	0x3f779a4d	0.9671982
6	0x3f82ca63	1.0218014
7	0x3f851d79	1.0399619
8	0x3f741aa8	0.95353174
9	0x3f785857	0.97009796
10	0x3f7e0aae	0.99235046
11	0x3f7a7bac	0.9784496
12	0x3f7e1aea	0.9925982
13	0x3f84f574	1.0387406
14	0x3f81d5a2	1.014332
15	0x3f77c57e	0.96785724

layer1_task.2.bias f4 [16]
0	0xbcd54d53	-0.026037848
1	0x3c2a5d61	0.01039824
2	0xb923ce7f	-0.00015621817
3	0xbc20814c	-0.009796452
4	0xbceb2257	-0.028702898
5	0xbca72d02	-0.020407204
6	0x3d3c4a66	0.04596939
7	0xbbb2ee95	-0.00546057
8	0xbca33c6f	-0.019926278
9	0xbd089d6a	-0.033353247
10	0xbb8085ef	-0.003922216
11	0xbccc17c6	-0.02491368
12	0x3c4f732b	0.0126617355
13	0x3d367aee	0.04455083
14	0x3cc0a0c1	0.023514153
15	0xbab171d2	-0.0013537949

layer1_task.2.running_mean f4 [16]
0	0x45992847	4901.0347
1	0x44b3122f	1432.5682
2	0x459e6434	5068.5254
3	0x44a05249	1282.5714
4	0xc51e6975	-2534.591
5	0xc51cf11d	-2511.0696
6	0x46036c21	8411.032
7	0x460d2dec	9035.48
8	0x4591dfeb	4667.9897
9	0x44604b1d	897.17365
10	0xc5d745a1	-6888.7036
11	0xc34dbb0c	-205.73065
12	0xc517d1df	-2429.117
13	0x460c83cc	8992.949
14	0xc535c9ee	-2908.6206
15	0xc580045b	-4096.5444

layer1_task.2.running_var f4 [16]
0	0x4e09f083	5.785602e+08
1	0x4c461e7e	5.1935736e+07
2	0x4e1b611d	6.517082e+08
3	0x4c1466bd	3.8902516e+07
4	0x4d18e67a	1.6032758e+08
5	0x4d171162	1.5840618e+08
6	0x4ed4612b	1.7815689e+09
7	0x4ef04f47	2.0158637e+09
8	0x4e05885a	5.600764e+08
9	0x4ba1e582	2.12201e+07
10	0x4e95062f	1.2501052e+09
11	0x4984e23b	1.0885834e+06
12	0x4d0ef2fb	1.4989304e+08
13	0x4eeada98	1.9700972e+09
14	0x4d4f4126	2.1732208e+08
15	0x4dc78631	4.1843254e+08

layer1_1vm.0.weight f4 [32, 40]
0	0x3e5bd25a	0.21466962
1	0xbd5c096f	-0.053719934
2	0x3e6513e4	0.22370869
3	0xbe35d86c	-0.1775834
4	0xbd7ac399	-0.061221693
5	0xbdcb332e	-0.09921871
6	0xbe6bdf20	-0.23034334
7	0x3ed9e639	0.42558458
8	0x3e8ffe6f	0.28123805
9	0xbc9fbbc8	-0.01949872
10	0x3e6f3b72	0.2336252
11	0xbe3c69ce	-0.18399736
12	0x3d694608	0.056951553
13	0x3d677878	0.056511372
14	0x3dd86118	0.10565394
15	0x3e5e2747	0.2169467
16	0x3e17f875	0.14840873
17	0x3e912857	0.2835109
18	0x3c754dfe	0.014972208
19	0x3e252b0d	0.16129704
20	0x3e87cf39	0.26525286
21	0xbe9d53fa	-0.30728132
22	0xbe3f658e	-0.18691084
23	0x3c0b5fbf	0.008506714
24	0xbd6501e0	-0.05590999
25	0xbe173e4e	-0.14769861
26	0xbd1ff3c6	-0.03905084
27	0x3d918e38	0.07107204
28	0x3db8ed82	0.09029676
29	0x3df7d47e	0.121010765
30	0x3d992653	0.07478013
31	0x3e86c2ca	0.26320487
32	0xbe8cdd88	-0.27512765
33	0x3d761be7	0.060085203
34	0x3df90c1d	0.121605136
35	0x3e2142b8	0.15748107
36	0x3ccf3f4f	0.025298743
37	0xbe31be82	-0.17357829
38	0x3f06c4b8	0.5264392
39	0x3dfebc8a	0.12438305
40	0xbe3c8e8e	-0.18413755
41	0x3e13e1d2	0.14441612
42	0xbec458b8	-0.38348937
43	0x3eab5d87	0.33469793
44	0x3e5a43b4	0.21314889
45	0xbe29da36	-0.16587147
46	0xbd32d245	-0.04365756
47	0x3e0d8c13	0.13822965
48	0xbeaafb16	-0.33394688
49	0xbe2b0103	-0.16699605
50	0xbdeabbba	-0.11461587
51	0x3d4ab4a9	0.049488697
52	0xbde506b9	-0.11182923
53	0x3daa1711	0.08305181
54	0x3e3c705a	0.18402234
55	0xbe28e6f4	-0.16494352
56	0xbdc98777	-0.09840291
57	0xbe432e37	-0.19060598
58	0xbe17fe5b	-0.14843123
59	0x3e89d2d2	0.26918656
60	0xbe2f1721	-0.17098667
61	0x3dd2a0ed	0.102846004
62	0x3cef7554	0.029230751
63	0xbe136ce3	-0.14397006
64	0x3c40244f	0.011727407
65	0xbcf50b74	-0.029912688
66	0x3cf8f90e	0.030392196
67	0xbe82b732	-0.25530392
68	0xbe1880d9	-0.14892901
69	0xbc50b616	-0.012738725
70	0x3d40a91e	0.047036283
71	0xbe8a660c	-0.2703098
72	0xbe12bb45	-0.1432925
73	0x3da5cf01	0.080961235
74	0x3dbd28c5	0.09236292
75	0xbde0653a	-0.109568074
76	0xbdfbf3fc	-0.12302396
77	0x3d1ce4e9	0.038304243
78	0x3ca411a0	0.020027936
79	0xbe895183	-0.2682
80	0x3e017989	0.12644018
81	0x3e62a87a	0.22134581
82	0xbe666614	-0.22499877
83	0xbd70204f	-0.058624562
84	0xbe864de9	-0.26231316
85	0x3e367f13	0.17821912
86	0xbb4da64f	-0.0031379645
87	0xbcd47308	-0.025933757
88	0xbdc707f7	-0.09718316
89	0x3e2bb700	0.16769028
90	0x3e1110c2	0.14166549
91	0xbe2d0631	-0.16896893
92	0xbe4526cf	-0.19253086
93	0x3e04b054	0.12957889
94	0xbcf46771	-0.029834481
95	0xbc71481e	-0.014726667
96	0x3e48dde9	0.19615902
97	0x3e1df562	0.15425637
98	0xbe218b28	-0.1577574
99	0x3e9e3880	0.3090248
100	0xbd8480c6	-0.06469874
101	0xbe05fae1	-0.13083984
102	0xbe51f80d	-0.2050478
103	0x3e15aa5a	0.14615765
104	0x3e1028e4	0.14078099
105	0x3e189079	0.14898862
106	0xbe0a668f	-0.13515685
107	0x3e8d781b	0.27630696
108	0x3e57d172	0.21075991
109	0x3d8edb43	0.069754146
110	0x3c4ff208	0.012691982
111	0xbe1a9120	-0.15094423
112	0x3e09ccc0	0.13457012
113	0xbe4979f3	-0.19675426
114	0x3c84f196	0.016228478
115	0x3e1e3c23	0.15452628
116	0x3dcc4b00	0.099752426
117	0x3e28d101	0.16485979
118	0x3e27d50f	0.16389869
119	0x3e9d298f	0.3069577
120	0xbe4e7d17	-0.20164905
121	0xbeb07866	-0.34466857
122	0x3d6fef43	0.058577787
123	0x3e18fda5	0.14940508
124	0xbe41fe5b	-0.18944685
125	0x3c4eb640	0.012616694
126	0x3dde826f	0.10864722
127	0xbcd6fe31	-0.026244255
128	0xbbc28bb0	-0.005937062
129	0xbdb48765	-0.08814887
130	0x3e30003f	0.17187594
131	0xbe006277	-0.12537561
132	0xbd7bb801	-0.061454777
133	0x3ee322d4	0.4436251
134	0x3d90754f	0.07053625
135	0x3cf64d8c	0.030066274
136	0xbdb7e689	-0.08979518
137	0xbe65761f	-0.22408341
138	0xbe4aac44	-0.19792277
139	0x3e88f36e	0.26748222
140	0x3c1202a3	0.008911761
141	0x3d907f56	0.070555374
142	0xbd295aef	-0.041346487
143	0x3d5a5861	0.05330694
144	0x3d8e9040	0.06961107
145	0x3d387a18	0.045038313
146	0xbd612aaa	-0.05497233
147	0xbdf0c629	-0.11756546
148	0xbdd591fa	-0.104282334
149	0xbd805f24	-0.06268147
150	0xbe1c9c81	-0.15294077
151	0xbdd9c0b9	-0.10632462
152	0xbc29c2a6	-0.010361349
153	0x3d9d415a	0.076784804
154	0x3d3b3d60	0.04571283
155	0x3d8ed572	0.06974305
156	0xbe95a5c7	-0.2922804
157	0xbdfa5b5a	-0.12224455
158	0x3da59c0e	0.08086406
159	0x3e4608ad	0.19339247
160	0x3e414d57	0.18877159
161	0x3ca19676	0.019725066
162	0xbd27e68d	-0.040991355
163	0x3d9ac9cd	0.07558022
164	0x3d8d2ced	0.068933345
165	0x3e6fe97d	0.23428912
166	0x3db75a32	0.0895275
167	0xbbc95a95	-0.0061448314
168	0xbdab2b66	-0.08357887
169	0xbdb3bc5b	-0.0877616
170	0x3dfd4581	0.123667724
171	0xbdd0b3ac	-0.1019052
172	0x3e2029d4	0.15640956
173	0x3eb51cfb	0.35373673
174	0x3e090dd5	0.13384183
175	0x3e02d358	0.12775934
176	0xbd0f70b4	-0.03501959
177	0xbe9e2a8c	-0.30891836
178	0xbe464f78	-0.19366252
179	0xbe15d4c9	-0.14631952
180	0xbe265f66	-0.16247329
181	0xbe8b68cb	-0.27228388
182	0x3d50698f	0.05088192
183	0x3e8880b3	0.2666069
184	0x3e6814a3	0.22664122
185	0xbd879323	-0.06619861
186	0x3d0b6b8a	0.034038104
187	0x3d9b761c	0.07590887
188	0x3e204fab	0.15655391
189	0x3e127223	0.14301352
190	0x3dcf60b4	0.101258665
191	0x3e500930	0.20316005
192	0x3db17b76	0.086661264
193	0x3cee4241	0.029084327
194	0x3e5123b6	0.20423779
195	0x3e16ed55	0.14738972
196	0xbe576b98	-0.21037138
197	0xbd868647	-0.0656858
198	0x3e1f4bbb	0.15556233
199	0xbe0d726a	-0.13813177
200	0x3e4363bc	0.19081014
201	0x3d15527f	0.036455628
202	0xbebfcfe2	-0.3746329
203	0xbdd7bbdd	-0.10533879
204	0x3d15ffb4	0.03662081
205	0x3e879625	0.2648174
206	0xbdf594aa	-0.11991246
207	0x3e517659	0.20455302
208	0xbdb35871	-0.08757103
209	0x3dea0495	0.11426655
210	0xbc551e9b	-0.013007785
211	0x3da6e194	0.08148494
212	0x3dfcd01f	0.123443834
213	0xbe1a0199	-0.15039672
214	0xbbe28a85	-0.0069134855
215	0x3e054c5c	0.1301741
216	0x3d058c45	0.032604475
217	0x3dc28d85	0.09499649
218	0x3d3c23fa	0.045932747
219	0xbe0ab10c	-0.135441
220	0x3e02ca43	0.12772469
221	0x3e25ca95	0.1619056
222	0x3d1fbbf5	0.03899761
223	0xbda20811	-0.07911695
224	0xbdf319e6	-0.11870174
225	0x3e9235fb	0.2855681
226	0xbde7cb5b	-0.11318084
227	0x3e4680fa	0.19385138
228	0x3c57e2e5	0.013176654
229	0x3e908eec	0.2823404
230	0xbe1663a2	-0.14686444
231	0x3eac73ed	0.33682194
232	0x3e61c192	0.22046497
233	0xbe2ede00	-0.17076874
234	0xbe12e2a4	-0.14344269
235	0x3ed97301	0.42470554
236	0xbb2cf8c1	-0.0026393386
237	0xbe6da820	-0.23208666
238	0x3cdeb313	0.027184999
239	0x3d9c52e2	0.07632996
240	0xbd43f5a7	-0.047841694
241	0xbdb18e5d	-0.08669732
242	0x3cb53fa8	0.02212508
243	0xbe717dc5	-0.23583134
244	0x3e543155	0.20721944
245	0xbe3fcdbe	-0.18730828
246	0x3c94e300	0.018174648
247	0x3e06f1a7	0.1317812
248	0xbddae8fb	-0.10688969
249	0x3dbf5a64	0.093434125
250	0xbecbe549	-0.39823368
251	0x3cdb3d09	0.026762502
252	0xbdcf6486	-0.10126595
253	0xbd2a3b82	-0.041560657
254	0x3dc2caca	0.09511335
255	0x3ca3e7dd	0.020008022

layer1_1vm.0.bias f4 [32]
0	0x3cc23fe2	0.023712102
1	0x3bd4d4bc	0.0064950865
2	0x3c096eb7	0.008388213
3	0xbce8b3c2	-0.028406028
4	0x3c4897e8	0.0122432485
5	0x3c2d6a93	0.010584491
6	0x3cb6ed41	0.022329928
7	0xbbc0396d	-0.0058662207
8	0x3d1e7ebd	0.038695086
9	0x3ceef9b1	0.029171797
10	0x3c1d1e21	0.009589703
11	0x3c4c1999	0.012457275
12	0x3d88e99b	0.06685182
13	0x3c15641f	0.009118109
14	0x3c908fdd	0.017646724
15	0xba509f48	-0.0007958305
16	0x3c9a8eeb	0.018866977
17	0xbb8a7686	-0.004225555
18	0x3d30827f	0.0430932
19	0xbc34a3dd	-0.011025396
20	0xbd4f23c8	-0.050571233
21	0x3c84821f	0.016175328
22	0x3c0867d0	0.008325532
23	0xbb27ffa1	-0.0025634544
24	0x3c48486b	0.012224297
25	0xbcf848c0	-0.030308127
26	0xbc59c069	-0.013290503
27	0x3a749b10	0.00093309674
28	0x3d2861ec	0.04110901
29	0xbce19c05	-0.027540216
30	0xbcca777e	-0.024715181
31	0x3c8d7dac	0.01727184

layer1_1vm.2.weight f4 [32]
0	0x3f7b757c	0.9822614
1	0x3f7eee45	0.9958232
2	0x3f81097a	1.0081017
3	0x3f8040f5	1.0019823
4	0x3f819def	1.0126323
5	0x3f7dfc54	0.9921315
6	0x3f7f03e1	0.99615294
7	0x3f7dc4c7	0.99128383
8	0x3f843648	1.0329065
9	0x3f8450af	1.0337123
10	0x3f7ce4a6	0.9878639
11	0x3f797a7a	0.9745251
12	0x3f8047eb	1.0021948
13	0x3f7a02be	0.97660434
14	0x3f821479	1.0162498
15	0x3f84e6d7	1.0382947
16	0x3f85c5cf	1.0450991
17	0x3f790b66	0.9728302
18	0x3f7b8c1e	0.98260677
19	0x3f804762	1.0021784
20	0x3f82ff18	1.0234098
21	0x3f7a5d28	0.97798395
22	0x3f7efc85	0.99604064
23	0x3f774701	0.9659272
24	0x3f80d108	1.0063791
25	0x3f86cf5a	1.0532029
26	0x3f714c74	0.94257283
27	0x3f77a2d5	0.96732837
28	0x3f7f7afd	0.9979704
29	0x3f7d56d7	0.9896063
30	0x3f84e248	1.0381556
31	0x3f8385ce	1.0275209

layer1_1vm.2.bias f4 [32]
0	0xbc8f8be7	-0.017522765
1	0xbb84ebdd	-0.0040564374
2	0x3c3b821a	0.011444593
3	0x3bd3dcf7	0.00646555
4	0x3c7c6533	0.015404987
5	0x3aee4d88	0.0018181065
6	0xbbde8bfd	-0.0067915902
7	0xbc8d717f	-0.017266033
8	0x3d25ff11	0.040526453
9	0x3d1efe8b	0.03881697
10	0xbc4ce35e	-0.01250538
11	0xbd281b33	-0.041041564
12	0x3bac714d	0.00526253
13	0xbcb72da8	-0.022360638
14	0x3c2635e8	0.010144688
15	0x3d2e48f5	0.042550046
16	0x3d40a66f	0.047033723
17	0xbd0252e5	-0.031817336
18	0xbc8cd247	-0.017190112
19	0x3be50c4b	0.006989991
20	0x3cc34bfe	0.023839947
21	0xbcd9d852	-0.026592407
22	0x3c124eda	0.0089299325
23	0xbd189a36	-0.037256442
24	0x3b8ca4e8	0.0042921193
25	0x3d441d01	0.047879223
26	0xbd660a78	-0.056162328
27	0xbcc073dd	-0.023492748
28	0xb9a01d34	-0.00030539336
29	0xbc87a60e	-0.016558673
30	0x3d16dffc	0.036834702
31	0x3caa278f	0.020770816

layer1_1vm.2.running_mean f4 [32]
0	0x4695f07a	19192.238
1	0xc61e5fa3	-10135.909
2	0x44ecf8a9	1895.7706
3	0xc6264132	-10640.299
4	0x457f0dea	4080.8696
5	0x4620e99b	10298.401
6	0x4521e440	2590.2656
7	0xc5b148f9	-5673.1216
8	0x46009848	8230.07
9	0x45d7a062	6900.048
10	0x4420a9af	642.6513
11	0xc4a285f2	-1300.1858
12	0x45edda78	7611.3086
13	0x44a8118c	1344.5483
14	0x4644db8d	12598.888
15	0x44a75d04	1338.9067
16	0x458e8c8d	4561.569
17	0x450a1006	2209.0015
18	0x45267568	2663.338
19	0xc56831f8	-3715.123
20	0xc58ae089	-4444.067
21	0x454cc3ee	3276.2456
22	0x454468e9	3142.557
23	0x45b17158	5678.168
24	0x45fdbc70	8119.5547
25	0xc60906ba	-8769.682
26	0xc61d11fe	-10052.498
27	0x46384827	11794.038
28	0x4606e18e	8632.389
29	0xc5650ac9	-3664.674
30	0xc5b08764	-5648.924
31	0x45d79b62	6899.423

layer1_1vm.2.running_var f4 [32]
0	0x4d0f2ec1	1.5013787e+08
1	0x4c0a2b37	3.6220124e+07
2	0x499c0137	1.2779909e+06
3	0x4c4545ea	5.171396e+07
4	0x4a9fc1fd	5.2349425e+06
5	0x4ca6b67b	8.740553e+07
6	0x4b115d66	9.52663e+06
7	0x4b4062d5	1.2608213e+07
8	0x4bb8583a	2.416242e+07
9	0x4b892dc5	1.7980298e+07
10	0x4ab5ebbf	5.9611835e+06
11	0x4a8c09c0	4.588768e+06
12	0x4b921ce2	1.91513e+07
13	0x48f30ed0	497782.5
14	0x4cbdf05f	9.958271e+07
15	0x490c7827	575362.44
16	0x4ad9441c	7.119374e+06
17	0x4b1d3c54	1.0304596e+07
18	0x4ac1123c	6.326558e+06
19	0x4a7e5179	4.1667502e+06
20	0x4ae8b571	7.6254005e+06
21	0x4a753798	4.017638e+06
22	0x4a99eea8	5.044052e+06
23	0x4b15ff76	9.830262e+06
24	0x4b6567d2	1.5034322e+07
25	0x4bc816e2	2.6226116e+07
26	0x4ba5d17e	2.173414e+07
27	0x4c31b9ce	4.658975e+07
28	0x4bbd44a8	2.480776e+07
29	0x4a8a0cd1	4.5236245e+06
30	0x4b03fa91	8.649361e+06
31	0x4b83ce70	1.7276128e+07

layer1_2vm.0.weight f4 [16, 32]
0	0xbd29d2a0	-0.041460633
1	0x3d9fc039	0.078003354
2	0xbe4eaccb	-0.20183103
3	0xbdab8449	-0.08374841
4	0xbef1b2b7	-0.4720666
5	0xbd864bfc	-0.065574616
6	0x3e829a24	0.25508225
7	0x3c457671	0.012052164
8	0xbebe1bee	-0.37130684
9	0x3baa40fd	0.0051957355
10	0xbe76c22f	-0.24097513
11	0xbe218b62	-0.15775827
12	0xbeda335d	-0.42617312
13	0x3e0d3ed2	0.13793495
14	0xbeb830bd	-0.35974684
15	0xbe97c18a	-0.29639846
16	0xbe013181	-0.1261654
17	0xbe302c85	-0.17204483
18	0xbe818607	-0.25297567
19	0xbe502851	-0.2032788
20	0xbd632082	-0.055450924
21	0x3e182198	0.14856565
22	0x3d850d06	0.06496625
23	0x3de0a14f	0.10968267
24	0x3d32722e	0.04356592
25	0x3e595b7a	0.21226302
26	0xbe207a25	-0.15671594
27	0x3e3fb8d5	0.18722852
28	0x3e92788f	0.28607604
29	0x3dd8bfc2	0.1058345
30	0x3c8794db	0.016550472
31	0x3ced5d06	0.028975021
32	0xbd354461	-0.044254664
33	0x3dcf13fa	0.10111232
34	0xbe8bd5a1	-0.27311423
35	0xbe2fae77	-0.17156397
36	0x3e5b47fc	0.21414179
37	0x3bd6d987	0.006556693
38	0xbe8380c4	-0.25684178
39	0x3ebaf68f	0.36516234
40	0x3e366d4b	0.1781513
41	0xbe4bee9b	-0.1991524
42	0x3d1816cb	0.037131112
43	0x3dcc2c74	0.09969416
44	0x3ea27147	0.3172705
45	0x3e04e340	0.12977314
46	0x3e46d923	0.19418769
47	0x3d72e1f7	0.059297528
48	0xbdf7e830	-0.12104833
49	0x3da6e589	0.08149249
50	0xbdde5b82	-0.108572975
51	0xbe4d3928	-0.20041335
52	0x3dcc6a42	0.099812046
53	0x3dd1e277	0.10248273
54	0xbe7e1ee9	-0.24816479
55	0x3e91c8ff	0.2847366
56	0xbdca45b1	-0.09876574
57	0xbe39cc2d	-0.18144293
58	0x3db52bca	0.08846243
59	0xbd14ad1e	-0.03629791
60	0xbd9aa476	-0.075509
61	0xbe6ba1c4	-0.23010927
62	0xbf01a362	-0.5063993
63	0x3de46c67	0.111534886
64	0xbd551437	-0.05202123
65	0xbd237fb3	-0.039916705
66	0xbf210637	-0.6290011
67	0x3e0c7d18	0.13719594
68	0x3e10eb94	0.14152366
69	0xbcf42955	-0.029804865
70	0x3e991507	0.29898855
71	0x3ec21414	0.37905943
72	0x3e0d9afc	0.13828653
73	0xbeb0883f	-0.34478948
74	0xbe3aea53	-0.1825345
75	0xbdd9e876	-0.106400415
76	0xbe8ed549	-0.278971
77	0x3d4b73c5	0.049670953
78	0xbdc8cd06	-0.0980473
79	0xbd18f61c	-0.037344083
80	0xbda1716f	-0.07882964
81	0x3d2edb37	0.04268953
82	0xbda3d9da	-0.08000536
83	0xbe188509	-0.14894499
84	0x3dd084b4	0.10181561
85	0xbc51fcdf	-0.012816637
86	0x3eb00810	0.3438115
87	0x3d691939	0.05690882
88	0xbdaec73b	-0.08534094
89	0x3d9d633c	0.07684943
90	0x3e158bac	0.14604062
91	0x3e66a5bb	0.22524159
92	0x3d043b01	0.032282833
93	0x3dd13e0e	0.10216914
94	0x3e856d3a	0.26059896
95	0x3e19a542	0.15004447
96	0x3e588103	0.21142964
97	0x3e54fe46	0.20800123
98	0xbe90da9e	-0.28291792
99	0xbe0c50d2	-0.13702706
100	0x3d54dc4f	0.051967915
101	0x3e38f7c2	0.18063262
102	0xbd6a2e0f	-0.05717283
103	0xbe67fbb6	-0.22654614
104	0x3e81a2c3	0.2531949
105	0xbe80b81b	-0.2514046
106	0x3d60dbad	0.054897
107	0xbe1d0e29	-0.15337433
108	0xbe8fc1a8	-0.28077435
109	0xbcf1daf9	-0.02952336
110	0x3e2d76aa	0.16939798
111	0x3d1fedd1	0.03904516
112	0xbe6fe4bc	-0.23427099
113	0x3d750e73	0.059828233
114	0xbd1bf339	-0.038073752
115	0x3e6c677d	0.23086353
116	0xbe3dd9a4	-0.18540055
117	0x3d752168	0.05984631
118	0xbe66686e	-0.22500774
119	0xbd8fd21c	-0.07022497
120	0xbe1cb733	-0.1530426
121	0xbdf4e957	-0.119585685
122	0x3dfafafe	0.12254904
123	0xbe73d8eb	-0.23813216
124	0xbefd87e3	-0.49517736
125	0xbdb60d0c	-0.08889207
126	0xbe725cb5	-0.23668177
127	0xbc8194f0	-0.01581809
128	0x3dd0f00f	0.102020375
129	0xbedd999c	-0.43281257
130	0xbdab933a	-0.083776906
131	0xbde298ae	-0.110642776
132	0x3de46285	0.111516036
133	0xbec2fba0	-0.380826
134	0xbdabffce	-0.083984
135	0xbc750a73	-0.014956105
136	0x3d8c8cc1	0.06862784
137	0x3ea14e6a	0.31505138
138	0x3e928180	0.28614426
139	0xbe888845	-0.26666465
140	0xbe4232df	-0.18964718
141	0xbe1f3c6a	-0.1555039
142	0x3dc1a9cd	0.09456215
143	0xbd0b8196	-0.03405913
144	0x3c40db72	0.01177107
145	0x3d87741a	0.066139415
146	0x3e74fbd4	0.2392419
147	0xbe6c02b8	-0.23047912
148	0xbf11840b	-0.56842107
149	0xbe86ac6e	-0.26303428
150	0x3f02b056	0.5105032
151	0x3e864d18	0.26230693
152	0xbc3232c6	-0.010876363
153	0x3e14582b	0.14486758
154	0x3e3549cd	0.17703934
155	0x3db3cb64	0.08779028
156	0xbd52d32b	-0.051470917
157	0x3d194ffc	0.037429795
158	0xbe19ed0d	-0.15031834
159	0x3e5cbde6	0.21556816
160	0xbe3e5249	-0.18586077
161	0xbe31f1ba	-0.17377368
162	0xbdd428fd	-0.103593804
163	0x39cbb6d7	0.00038855404
164	0xbda865fe	-0.082225785
165	0x3da2c21a	0.07947178
166	0x3e0dc366	0.1384407
167	0xbdd54c9e	-0.10415004
168	0xbd9695aa	-0.07352765
169	0xbf25b3d6	-0.6472753
170	0x3d2b9df4	0.041898683
171	0x3dd2d76f	0.10294997
172	0xbd7bf207	-0.061510112
173	0x3ec7a446	0.38992518
174	0xbcfc45d1	-0.03079501
175	0xbe69f7b7	-0.22848402
176	0xbd563780	-0.052299023
177	0x3df0b79e	0.11753772
178	0xbe55b24e	-0.20868799
179	0xbdbe531e	-0.09293197
180	0xbe0b92da	-0.13630238
181	0x3d6d15ea	0.057882227
182	0x3dacb6a5	0.08433274
183	0x3e1ae24d	0.1512539
184	0x3dea0bd1	0.11428035
185	0xbe4decb2	-0.20109823
186	0xbe13b0d8	-0.1442293
187	0xbee01d0a	-0.43772155
188	0xbe66555b	-0.22493498
189	0x3e0c229f	0.13685082
190	0x3d318412	0.043338843
191	0x3e9e37ef	0.3090205
192	0xbe733389	-0.23750128
193	0x3d9cd9ad	0.07658706
194	0x3d48eb3e	0.04905247
195	0x3e956cc5	0.29184547
196	0xbd4c9dd8	-0.04995522
197	0x3e412b81	0.18864252
198	0x3e727346	0.23676786
199	0x3e01d5f6	0.12679276
200	0xbdd84166	-0.10559349
201	0xbd055e7b	-0.032560807
202	0xbd07f593	-0.033193182
203	0x3d094349	0.033511434
204	0x3ea26c0b	0.31723055
205	0xbe61fa9c	-0.22068256
206	0xbe21aca5	-0.15788515
207	0xbea55eaf	-0.322988
208	0xbe9a40ae	-0.30127472
209	0xbeca56c3	-0.3951932
210	0xbe4d2835	-0.20034869
211	0xbcaf401f	-0.02139288
212	0xbdbd55c3	-0.092448734
213	0x3e2603cf	0.1621239
214	0x3e8594f3	0.26090202
215	0xbe9496cd	-0.29021302
216	0xbec1d50a	-0.37857848
217	0x3e90f228	0.2830975
218	0xbc4559d4	-0.0120453425
219	0x3daa998b	0.08330067
220	0x3de0299f	0.109454386
221	0xbdb85a63	-0.09001615
222	0x3f048247	0.5176129
223	0xbd274240	-0.040834665
224	0xbe8f1b8e	-0.2795071
225	0x3e6bcd9b	0.23027651
226	0x3ab98138	0.001415289
227	0xbd2135f6	-0.0393581
228	0xbd92b875	-0.07164089
229	0x3ecabfeb	0.39599547
230	0xbe9ea766	-0.3098709
231	0x3e0a2d31	0.13493802
232	0xbe5c4f73	-0.21514682
233	0xbeae9901	-0.34101108
234	0xbc1c70c0	-0.009548366
235	0xbe45896a	-0.192907
236	0x3e55fc3f	0.20897005
237	0xbe6462cf	-0.22303317
238	0x3eb7cecc	0.3589996
239	0x3e595f4f	0.21227764
240	0x3ec2dc35	0.3805863
241	0x3ed4ce27	0.41563532
242	0xbd78cafd	-0.06074046
243	0x3dabe16a	0.08392604
244	0xbcaaaf3a	-0.020835508
245	0x3e04fc46	0.1298686
246	0x3d56c642	0.052435167
247	0x3e143f90	0.14477372
248	0xbe5c9f4f	-0.21545146
249	0x3e3d8389	0.18507208
250	0xbd9c947c	-0.07645509
251	0x3e187a52	0.14890411
252	0xbddc7c74	-0.10765925
253	0xbe0422e6	-0.12903938
254	0xbeb09dc3	-0.34495363
255	0xbcabd27e	-0.020974394

layer1_2vm.0.bias f4 [16]
0	0xbd5699a4	-0.052392617
1	0xbccf2142	-0.025284413
2	0x3b873afc	0.0041269045
3	0xbc7d2e16	-0.015452882
4	0x3d16c4de	0.03680884
5	0xbc93a828	-0.01802452
6	0xbc8446ad	-0.016146982
7	0xbca8b677	-0.020594819
8	0x3d03e747	0.032202985
9	0xbc2fb9f8	-0.010725491
10	0x3cc4cfd2	0.024024878
11	0xbd1d8494	-0.038456514
12	0x3cfd8746	0.030948292
13	0x3d141d0b	0.03616051
14	0x3c034bfe	0.008013723
15	0xbbb68226	-0.005569714

layer1_2vm.2.weight f4 [16]
0	0x3f79111c	0.9729173
1	0x3f7b6181	0.98195654
2	0x3f7b4719	0.9815536
3	0x3f83b18d	1.0288559
4	0x3f823bb2	1.0174468
5	0x3f809518	1.00455
6	0x3f7d86e2	0.9903394
7	0x3f7ee953	0.99574775
8	0x3f779cdd	0.9672373
9	0x3f802a06	1.0012825
10	0x3f8365ab	1.0265402
11	0x3f80c76c	1.0060859
12	0x3f84a43a	1.0362618
13	0x3f8374f7	1.027007
14	0x3f7dae3d	0.9909399
15	0x3f7fda18	0.9994216

layer1_2vm.2.bias f4 [16]
0	0xbc9464c6	-0.018114459
1	0x3c9281f6	0.017884236
2	0xbcb26b7d	-0.02177977
3	0x3ce70d0f	0.028204469
4	0x3c6ac66f	0.014329537
5	0x3cd4295a	0.025898624
6	0xbc16a36d	-0.009194237
7	0xbc739142	-0.014866175
8	0xbcb9bd8b	-0.022673389
9	0x3b030e22	0.0019997437
10	0x3cea93af	0.028634874
11	0x3d00350d	0.031300593
12	0x3ce8b7cc	0.028407954
13	0x3c53a858	0.012918554
14	0xbb666bad	-0.0035159395
15	0x3aac6299	0.0013151943

layer1_2vm.2.running_mean f4 [16]
0	0xbf691fbe	-0.9106406
1	0xbe67ad6a	-0.22624746
2	0x3e79127b	0.24323456
3	0xbf45877c	-0.7715986
4	0xbc3b7dd7	-0.011443577
5	0xbf28a74c	-0.65880275
6	0xbd443852	-0.047905274
7	0x3e4e6aa3	0.20157866
8	0xbe61c94a	-0.22049442
9	0xbf6b9297	-0.92020553
10	0x3ed13857	0.40863296
11	0xbedb3456	-0.42813367
12	0x3e741d07	0.23839198
13	0xbd0fd183	-0.035111915
14	0x3ef5bb48	0.47994447
15	0x3f3a38d1	0.72742945

layer1_2vm.2.running_var f4 [16]
0	0x3efd18a6	0.49432868
1	0x3f27d9ae	0.6556653
2	0x3eb3b95c	0.35102355
3	0x3eeb6c36	0.45980996
4	0x3f649119	0.892839
5	0x3ea9d78c	0.33172262
6	0x3f37a49a	0.7173554
7	0x3eb37218	0.35047984
8	0x3f0ab2ba	0.54178965
9	0x3ee0125c	0.43764007
10	0x3e899ae3	0.26875982
11	0x3ef05384	0.46938717
12	0x3f0353bc	0.51299644
13	0x3e8f6db0	0.28013372
14	0x3f0e291e	0.5553149
15	0x3f012f05	0.5046237

layer2.0.weight f4 [16, 32]
0	0x3dc19e26	0.094539925
1	0xbe698835	-0.22805865
2	0xbeb13c36	-0.3461625
3	0xbde28e98	-0.11062354
4	0xbed8e83c	-0.4236468
5	0xbe6fc6bd	-0.23415656
6	0xbe1ab6d7	-0.1510881
7	0x3ebb9c12	0.3664251
8	0xbe620809	-0.22073378
9	0x3e83b886	0.25726718
10	0x3e4e78f1	0.20163323
11	0x3ce33727	0.02773626
12	0xbd2a67b0	-0.04160279
13	0x3e0f93d3	0.14021234
14	0x3e284dc1	0.16435911
15	0xbdaa036b	-0.08301433
16	0x3e8c98b4	0.27460253
17	0xbe3d61a0	-0.18494272
18	0xbe1db7db	-0.15402167
19	0xbe003e62	-0.12523797
20	0x3da5c75b	0.08094665
21	0xbccc6f67	-0.024955465
22	0xbe1a3952	-0.15060928
23	0x3dcd8ac1	0.10036231
24	0x3de72939	0.112871595
25	0xbc76a74f	-0.015054538
26	0xbeba0815	-0.3633429
27	0xbcb6096f	-0.022221295
28	0xbec9dcfc	-0.3942641
29	0xbf1e9c9e	-0.6195773
30	0xbd8bcdff	-0.068264
31	0x3e32aae4	0.17448002
32	0xbdf7e14a	-0.12103517
33	0x3df7fc56	0.12108676
34	0x3dc5238a	0.09625919
35	0xbed2ed0a	-0.4119647
36	0xbd8d9f5f	-0.06915163
37	0x3e194858	0.14969003
38	0xbdb5e275	-0.08881084
39	0xbe373d2c	-0.17894429
40	0xbcc8e48f	-0.024523048
41	0xbe6c924c	-0.23102683
42	0xbd3712ab	-0.044695538
43	0xbb944e93	-0.0045259683
44	0x3dd58d0a	0.10427292
45	0x3e811c8f	0.252171
46	0xbef219e4	-0.47285378
47	0xbd0bee47	-0.034162786
48	0x3ce1cb45	0.027562747
49	0xbd63bafe	-0.05559825
50	0xbe54bd1c	-0.20775265
51	0xbe1bc59c	-0.152121
52	0x3de6ba11	0.11265958
53	0xbdeb9ec1	-0.11504889
54	0x3e97e895	0.29669634
55	0x3e026b7b	0.12736313
56	0x3c99a690	0.018756181
57	0xbeab2e4e	-0.33433765
58	0xbe6765df	-0.22597454
59	0xbe04eb52	-0.12980393
60	0x3e0786d3	0.13235025
61	0x3de727b2	0.11286868
62	0xbe835224	-0.25648606
63	0x3d3a0fb6	0.04542514
64	0x3c0e4350	0.008683041
65	0x3ec7a801	0.38995364
66	0x3dffac09	0.12483985
67	0xbdf43211	-0.11923612
68	0xbe7349c2	-0.23758605
69	0x3e150983	0.1455441
70	0x3eaab1e4	0.33338845
71	0x3e3a58ae	0.18197891
72	0xbe2caec2	-0.1686354
73	0x3d3a9513	0.045552325
74	0x3d7796d5	0.06044658
75	0xbddcb879	-0.10777373
76	0xbc8b9b0f	-0.017041711
77	0x3e01abd4	0.12663203
78	0xbd9befbf	-0.07614087
79	0x3eb4560d	0.35221902
80	0x3eb48395	0.3525664
81	0xbc8c011b	-0.01709037
82	0x3e1ba64b	0.15200154
83	0xbde3617e	-0.111025795
84	0xbcaa79c8	-0.020810023
85	0x3e9f366d	0.3109621
86	0xbe2efeb7	-0.17089354
87	0x3df78ad6	0.12087028
88	0xbe54cfbf	-0.20782374
89	0x3d948bc2	0.07253219
90	0x3e89da98	0.26924586
91	0x3d876be9	0.06612379
92	0x3ea1de81	0.3161507
93	0xbed0a05a	-0.4074734
94	0xbd0caef7	-0.034346547
95	0xbe493a22	-0.19651082
96	0xbd991044	-0.074738055
97	0x3dc53447	0.09629112
98	0x3dbf5c4c	0.09343776
99	0xbd3faa9e	-0.046793573
100	0xbe5978be	-0.21237466
101	0xbdcf9ecc	-0.1013771
102	0x3e84957f	0.25895306
103	0xbeb3f001	-0.35144046
104	0x3de7d6e6	0.113202855
105	0xbccd2d66	-0.025046062
106	0xbea0b936	-0.31391305
107	0x3de16256	0.11005084
108	0xbdb41df1	-0.08794773
109	0x3d958079	0.07299895
110	0x3dc0fb27	0.094229035
111	0xbe52099d	-0.2051148
112	0xbe86c4db	-0.26322064
113	0xbc88a191	-0.016678603
114	0x3e00fa39	0.12595452
115	0x3d7b4638	0.061346263
116	0xbe0f6418	-0.14003026
117	0x3dff6f15	0.12472359
118	0xbe024fb2	-0.12725714
119	0x3bd11e39	0.0063817766
120	0xbe93af4f	-0.28844687
121	0x3e979569	0.29606178
122	0x3e46815e	0.19385287
123	0x3d75786e	0.059929304
124	0x3ecac2b5	0.39601675
125	0xbdbcbd8b	-0.0921584
126	0x3d4cdf24	0.05001749
127	0xbdb161e0	-0.08661246
128	0x3c9bf942	0.019039754
129	0xbe6383b2	-0.22218207
130	0xbe848a30	-0.2588668
131	0x3e4a81ff	0.19776152
132	0xbd367388	-0.044543773
133	0x3d9a697e	0.07539652
134	0xbbd55026	-0.0065097986
135	0xbca1a60a	-0.019732494
136	0xbe7034aa	-0.2345759
137	0x3e9e8673	0.30961952
138	0x3e3ab015	0.18231232
139	0x3df8caa2	0.12148024
140	0x3c89e5e4	0.016833253
141	0x3de8f484	0.11374763
142	0xbe181c76	-0.14854607
143	0x3ea8469a	0.32866365
144	0x3e202112	0.15637615
145	0xbe83bdc6	-0.25730723
146	0x3e2e9c1f	0.17051743
147	0x3d66b89a	0.056328394
148	0x3e31fce4	0.17381626
149	0xbefc0331	-0.49221185
150	0x3ea5546a	0.32290965
151	0x3ceebe6e	0.029143538
152	0xbdd6d2c4	-0.10489419
153	0x3de16ecc	0.11007461
154	0x3e35d83e	0.17758271
155	0xbe2f5e3e	-0.17125794
156	0xbe05a420	-0.1305089
157	0xbdadd4fe	-0.08487891
158	0x3dac506b	0.08413776
159	0x3ea4ef24	0.322137
160	0xbeb5ecc5	-0.35532203
161	0x3db626de	0.08894132
162	0xbacf419d	-0.0015812401
163	0xbe8aa2bf	-0.2707729
164	0x3dd789bb	0.10524317
165	0xbe620807	-0.22073375
166	0xbe96c0a5	-0.2944385
167	0xbcfa3e98	-0.030547425
168	0x3cd5673a	0.026050199
169	0x3d5e218f	0.054231223
170	0x3e3d8212	0.18506649
171	0x3d4eb6df	0.05046737
172	0x3e0e701a	0.13909951
173	0x3e209f92	0.15685871
174	0x3e63048e	0.22169706
175	0xbe4dc37a	-0.200941
176	0xbe724683	-0.2365971
177	0x3e5b2fbd	0.2140493
178	0xbe41b3c4	-0.18916231
179	0x3e881199	0.26575926
180	0xbe8ac37f	-0.27102277
181	0xbd284798	-0.041083902
182	0xbe3bf805	-0.1835633
183	0xbd06fd40	-0.03295636
184	0xbe7a4165	-0.24439009
185	0xbdf93131	-0.12167586
186	0xbeba6bbb	-0.36410317
187	0x3d3e0b9c	0.04639779
188	0x3e27f6d3	0.1640275
189	0x3e9c37ab	0.3051122
190	0x3e6baf53	0.230161
191	0x3e8be202	0.27320868
192	0xbe287df4	-0.16454297
193	0x3df0a4b8	0.117501676
194	0x3d082d51	0.033246342
195	0x3ddf7286	0.109105155
196	0x3dcd6d0a	0.10030563
197	0x3cb56755	0.022144
198	0xbe23043b	-0.15919583
199	0xbbb76789	-0.005597059
200	0x3d304bf5	0.04304119
201	0x3d65e204	0.05612375
202	0xbeb395d3	-0.35075244
203	0x3e28e872	0.16494921
204	0xbe83c397	-0.2573516
205	0x3e9e4668	0.3091309
206	0x3dc2a509	0.09504134
207	0x3c89f69a	0.016841222
208	0x3e0453d9	0.1292261
209	0xbe88359e	-0.26603407
210	0xbe370c0f	-0.17875694
211	0xbd0568b2	-0.03257055
212	0x3d27298b	0.040811103
213	0xbd1bc909	-0.03803352
214	0x3e48c1b5	0.19605143
215	0xbdb126da	-0.086499885
216	0x3e2fcf91	0.17169024
217	0xbea3ed4f	-0.3201699
218	0xbdfe4374	-0.124152094
219	0xbe35f826	-0.17770442
220	0x3dad8050	0.08471739
221	0x3d1ee1e8	0.03878966
222	0xbe366c35	-0.17814715
223	0x3ece16f2	0.4025188
224	0x3ba5c025	0.005058306
225	0xbe3a6804	-0.18203741
226	0x3e805ec1	0.25072291
227	0xbebf942a	-0.37417728
228	0xbe05e827	-0.1307684
229	0xbd458910	-0.048226416
230	0xbe9c367b	-0.30510315
231	0x3dfaad5a	0.122400954
232	0x3e304f59	0.17217769
233	0xbe1ee755	-0.15517934
234	0x3e6ba03d	0.23010345
235	0x3da8c403	0.08240511
236	0x3e022504	0.12709433
237	0xbcf7b1ee	-0.03023621
238	0x3d6f5071	0.058426324
239	0x3eb80ae4	0.3594581
240	0x3ebb2d4a	0.3655799
241	0x3c82fa5a	0.015988518
242	0x3e3f8f06	0.18706903
243	0xbd558c72	-0.052135892
244	0x3d3312e8	0.043719202
245	0x3dd95855	0.10612551
246	0xbe344d9f	-0.17607735
247	0xbd9ab58b	-0.07554158
248	0xbc93df96	-0.01805095
249	0x3e5122cc	0.2042343
250	0x3bbabfe9	0.005699147
251	0xbdcd4936	-0.100237295
252	0xbe90ea86	-0.28303927
253	0xba80e7bc	-0.0009834687
254	0xbe0b107c	-0.13580507
255	0x3e3068a8	0.17227423

layer2.0.bias f4 [16]
0	0xbca933fb	-0.020654669
1	0xbcd37484	-0.025812395
2	0x3db1ffb1	0.086913474
3	0xbbd3d397	-0.0064644325
4	0xbc3da08c	-0.011573922
5	0x3d462cda	0.048382618
6	0x3cb66070	0.022262782
7	0x3d9cfe24	0.07665661
8	0x3dd8d388	0.105872214
9	0xbd2f57bf	-0.04280829
10	0x3d9a5bbf	0.075370304
11	0x3d3c998f	0.046044882
12	0xbcec13fb	-0.028818121
13	0xbc908cf7	-0.017645342
14	0xbbc68ae9	-0.00605904
15	0x3c88b18d	0.016686225

layer2.2.weight f4 [16]
0	0x3f90f353	1.1324257
1	0x3f90397b	1.1267542
2	0x3f91f7bb	1.1403726
3	0x3f8d2cbb	1.1029276
4	0x3f7f68a7	0.9976906
5	0x3f6606c0	0.8985405
6	0x3f761271	0.9612189
7	0x3f8b9890	1.0905933
8	0x3f8cde01	1.100525
9	0x3f8e913f	1.1138076
10	0x3f8cdae9	1.1004306
11	0x3f8ba6c5	1.0910269
12	0x3f7ea247	0.99466366
13	0x3f7ae266	0.98001707
14	0x3f862434	1.0479798
15	0x3f829e79	1.0204612

layer2.2.bias f4 [16]
0	0x3e09d5d3	0.13460474
1	0x3e04b8fd	0.12961192
2	0x3e0e169c	0.13875812
3	0x3e03ecee	0.1288335
4	0xbc9c70aa	-0.019096691
5	0xbddf9be0	-0.10918403
6	0xbcc7292a	-0.02431162
7	0x3ddb3193	0.10702815
8	0x3df516d9	0.119672485
9	0x3e0815c7	0.13289557
10	0x3db3b393	0.087744854
11	0x3dd2d924	0.102953225
12	0xbcece065	-0.028915593
13	0xbcc8e72c	-0.024524294
14	0x3d8b6d45	0.06807951
15	0x3cb181b3	0.02166829

layer2.2.running_mean f4 [16]
0	0xbf444255	-0.76663715
1	0xbf1f6f74	-0.6227944
2	0x3f2c0fe7	0.67211765
3	0xbcc3c0b1	-0.023895593
4	0x3e851eba	0.26000005
5	0xbdfa4f4e	-0.122221574
6	0xbdc49d22	-0.09600283
7	0x3e566d39	0.20940103
8	0x3f186222	0.5952474
9	0xbf21ac57	-0.63153595
10	0x3ebf944a	0.37417823
11	0x3ef22dbe	0.47300524
12	0x3ee7bc1e	0.4526071
13	0x3ea62672	0.32451206
14	0xbf089293	-0.53348655
15	0xbeb25911	-0.34833577

layer2.2.running_var f4 [16]
0	0x3f343933	0.7039978
1	0x3f15a58c	0.5845573
2	0x3f8815af	1.0631617
3	0x3e9549c7	0.2915785
4	0x3f0fa8cf	0.56116956
5	0x3f2e9c56	0.682073
6	0x3e94fc0d	0.2909855
7	0x3ef87dce	0.4853348
8	0x3f1511bf	0.58230203
9	0x3f202619	0.6255813
10	0x3f4cfccd	0.80073243
11	0x3f511b34	0.81682134
12	0x400ff6be	2.249435
13	0x3ebfd1d5	0.37464777
14	0x3f8089b7	1.0042027
15	0x3ebf52a0	0.37367725

layer3.0.weight f4 [20, 16]
0	0x3da33674	0.079693705
1	0x3d7b1be2	0.061305888
2	0x3b293442	0.0025818502
3	0xbe4d700a	-0.20062271
4	0x3efd31f1	0.49452165
5	0x3ece0698	0.40239406
6	0x3e0fe19d	0.14050908
7	0xbd90ced7	-0.070707016
8	0x3de3b59e	0.11118625
9	0x3e9f83d6	0.3115527
10	0x3e852d56	0.2601115
11	0x3ea45c8b	0.32101855
12	0x3e171334	0.14753419
13	0x3e5f9306	0.21833429
14	0x3d44135f	0.047870036
15	0xbe3241e2	-0.17407945
16	0x3d939434	0.07206002
17	0x3ef711d1	0.4825578
18	0x3ed4bc9a	0.41550142
19	0x3e9e2f4f	0.3089547
20	0xbe845614	-0.25846922
21	0xbd11fb6d	-0.03564017
22	0x3e02f2f6	0.12787995
23	0x3ed5941c	0.4171456
24	0xbdee15cb	-0.116252504
25	0xbdbd926b	-0.09256443
26	0x3e6f3154	0.23358661
27	0xbddf8b44	-0.10915235
28	0xbed2a1a5	-0.4113895
29	0xbd4ad4c4	-0.049519315
30	0x3c6c656e	0.01442848
31	0xbcfcd24d	-0.030861998
32	0x3e9da445	0.3078939
33	0xbd341d57	-0.043973293
34	0x3e9a8bad	0.3018469
35	0x3ea4c8d4	0.3218447
36	0x3e25324d	0.1613247
37	0xbeec95e5	-0.4620811
38	0x3d00704f	0.031357106
39	0x3ecfd235	0.40590063
40	0x3dcb1012	0.099151745
41	0x3f348b29	0.7052484
42	0x3ebc8e44	0.3682729
43	0x3e51cf07	0.20489131
44	0xbe2ea769	-0.1705605
45	0xbd32e512	-0.04367549
46	0x3d94da94	0.07268253
47	0x3ec19e3c	0.37816036
48	0x3eb070fd	0.34461203
49	0x3e80b599	0.25138548
50	0x3e39e46a	0.1815354
51	0xbda55b83	-0.08074095
52	0xbed79534	-0.4210602
53	0xbe57951b	-0.21052973
54	0xbe847c1c	-0.25875938
55	0x3e37d26a	0.1795136
56	0x3eb6a2a4	0.3567096
57	0x3e2b5220	0.16730547
58	0x3e24f68c	0.16109675
59	0x3dce6cf0	0.10079372
60	0x3de08706	0.10963254
61	0x3d87657a	0.06611152
62	0x3dc698ce	0.09697114
63	0x3b70597f	0.0036674438
64	0x3d2028ec	0.039101526
65	0x3e35ca76	0.17753014
66	0x3e9b47df	0.3032827
67	0x3dea06e8	0.114270985
68	0x3e127da6	0.14305744
69	0xbe3f8ea7	-0.18706761
70	0x3eaa8ab9	0.33308962
71	0xbafea420	-0.0019427575
72	0x3e4dae89	0.20086111
73	0xbb0c6107	-0.0021420137
74	0xba144925	-0.00056566513
75	0x3d449bee	0.04800027
76	0x3e1a7937	0.15085302
77	0x3d3d71aa	0.046250977
78	0x3e77300e	0.24139425
79	0x3c8d912b	0.017281136
80	0x3e9179a5	0.2841312
81	0x3e9f3740	0.3109684
82	0xbd90471a	-0.070448115
83	0x3cfbd7d8	0.03074257
84	0x3e253135	0.16132052
85	0xbe1d0224	-0.15332848
86	0xbea6d33d	-0.32583037
87	0x3e529968	0.20566332
88	0x3e5c46ea	0.21511427
89	0xb9929f60	-0.00027966034
90	0x3cd1de8f	0.02561882
91	0x3e5162ef	0.20447896
92	0xbdf2ec2c	-0.118614525
93	0x3e69bb1c	0.22825283
94	0x3eea010b	0.4570392
95	0x3e3f8a6b	0.18705146
96	0x3e97d586	0.29655093
97	0x3ce5c4ef	0.028048007
98	0x3ec13a56	0.3773982
99	0x3e4b5e2d	0.19860144
100	0x3e31e597	0.17372738
101	0xbe72b937	-0.23703466
102	0xbe178943	-0.14798455
103	0x3e9780fd	0.29590598
104	0x3eb258d4	0.34833395
105	0x3eda1a58	0.42598224
106	0x3ea8c4a1	0.32962516
107	0x3e6b68b4	0.2298916
108	0xbe842d3e	-0.25815767
109	0x3c9c80ae	0.019104328
110	0xbe9520f8	-0.29126716
111	0x3dad1124	0.08450535
112	0xbdd6442b	-0.10462221
113	0x3e8c5c38	0.27414107
114	0x3e7ccfa1	0.24688579
115	0x3f071a91	0.5277491
116	0x3e2115ff	0.15731047
117	0xbdc0350b	-0.09385117
118	0xbec7cfb3	-0.3902565
119	0x3e1cdab0	0.15317798
120	0x3ebbf770	0.36712217
121	0xbe354f0c	-0.17705935
122	0x3e622a13	0.22086363
123	0xbe0251c4	-0.12726504
124	0xbe1b40ce	-0.1516144
125	0x3eaf67af	0.34258792
126	0x3d28d018	0.04121408
127	0x3ef90570	0.4863696
128	0x3e10d758	0.14144647
129	0x3b817ad4	0.00395141
130	0x3d6964bb	0.05698083
131	0x3df1871c	0.11793348
132	0xbe375c56	-0.17906317
133	0x3e9635cf	0.29337928
134	0xbd7cd9f5	-0.061731298
135	0x3d5bc110	0.053650916
136	0x3e0fa22e	0.1402671
137	0x3f16e02e	0.5893582
138	0x3ebd6ab4	0.3699547
139	0x3ecde2e5	0.4021217
140	0xbdad6699	-0.084668346
141	0xbe735eac	-0.23766583
142	0x3e8cd94a	0.27509528
143	0xbc677efb	-0.014129396
144	0x3e8e7b49	0.27828434
145	0xbe0477db	-0.12936346
146	0x3df6f33c	0.12058112
147	0x3e5d41bf	0.21607111
148	0xbe36fd8f	-0.17870162
149	0xbe52dd82	-0.20592311
150	0x3e681b03	0.22666554
151	0x3e51e55c	0.2049765
152	0xbe2f6830	-0.17129588
153	0xbe4cd968	-0.20004809
154	0x3c8e823a	0.017396081
155	0xbe21e7cb	-0.15811078
156	0xbe66c207	-0.22534953
157	0xbe682ea8	-0.22674048
158	0xbcd4c227	-0.025971485
159	0xbd5ae087	-0.053436782
160	0x3e833102	0.25623327
161	0xbdf6e6a9	-0.12055714
162	0x3dd4b6eb	0.10386451
163	0x3db73180	0.08944988
164	0x3df066b0	0.11738336
165	0xbeb4e6bd	-0.3533229
166	0x3de08329	0.10962517
167	0xbcafe871	-0.021473141
168	0x3eb1b069	0.34704903
169	0x3ed914ef	0.42398784
170	0xbea8deb3	-0.32982406
171	0xbe1d72d7	-0.15375839
172	0xbdcb3ad0	-0.09923327
173	0x3e22f29b	0.15912859
174	0x3e127214	0.1430133
175	0xbe96f6f5	-0.29485288
176	0xb72f4db5	-1.0448905e-05
177	0xbe182ad9	-0.14860095
178	0x3e61d382	0.2205334
179	0xbeb8ceef	-0.36095378
180	0xbe4029aa	-0.18765894
181	0x3e3b6f25	0.18304117
182	0xbd1b6dc8	-0.037946492
183	0xbd2f5774	-0.04280801
184	0x3ea1d26d	0.31605855
185	0x3edfd1c6	0.43714732
186	0x3e36d6dc	0.178554
187	0x3eb3e8af	0.3513846
188	0x3ed6cbb6	0.41952294
189	0x3e37cd11	0.1794932
190	0x3e21eb33	0.15812378
191	0x3dd741a4	0.10510567
192	0x3e3bab3f	0.18327044
193	0x3e55486b	0.20828407
194	0x3ecc0c24	0.39853013
195	0x3f120202	0.57034314
196	0x3e1df2bc	0.15424627
197	0xbcf9bdb3	-0.030485963
198	0x3e71d4d4	0.23616344
199	0xbf0c0b56	-0.547048
200	0x3deb718e	0.11496268
201	0x3ebf0dae	0.37315124
202	0x3dc83d41	0.09777308
203	0x3e1f789b	0.15573351
204	0x3e8d1421	0.2755442
205	0x3ebbd5d7	0.36686584
206	0xbe08dba1	-0.13365032
207	0xbbafca34	-0.0053646807
208	0xbe301b6c	-0.1719796
209	0x3db214c1	0.08695365
210	0xbdee9b0a	-0.11650665
211	0xbd559164	-0.05214061
212	0x3e47fdc5	0.19530399
213	0x3c7b8fa7	0.015354074
214	0x3df01b91	0.11724008
215	0x3e071559	0.13191737
216	0x3e53b153	0.20673113
217	0x3d9621ab	0.073306404
218	0xbd073447	-0.03300884
219	0x3d8543de	0.06507085
220	0x3e0e9eb8	0.13927734
221	0x3d940b00	0.072286606
222	0x3ed52119	0.41626814
223	0x3dde6bde	0.10860418
224	0x3eecfb25	0.46285358
225	0xbd792874	-0.060829595
226	0x3d85fbea	0.065421894
227	0x3e9da440	0.30789375
228	0x3e48c94b	0.19608037
229	0x3d9c27a7	0.076247506
230	0x3e7ab5ab	0.24483363
231	0x3eb80d82	0.35947806
232	0xbdc5be20	-0.09655404
233	0x3c91a56e	0.017779078
234	0xbc34be7a	-0.011031741
235	0xbeba86fb	-0.36431107
236	0x3d0643e1	0.032779578
237	0xbeec3d59	-0.46140555
238	0x3f1bbf99	0.6083923
239	0x3df3f588	0.11912066
240	0x3d625dfa	0.055265404
241	0x3f15a4af	0.5845441
242	0x3f05d79a	0.52282107
243	0xbccd68b3	-0.025074339
244	0xbe1cc9c0	-0.15311337
245	0x3e58ce73	0.21172504
246	0x3e292354	0.16517383
247	0xbd42de49	-0.04757527
248	0x3e21bdcd	0.1579506
249	0xbcf5af66	-0.029990863
250	0xbec567b2	-0.38555676
251	0x3f4e2f11	0.8054057
252	0x3f004b9d	0.50115377
253	0xbdd43469	-0.10361559
254	0xbe5f113c	-0.21783918
255	0x3eb28914	0.34870207

layer3.0.bias f4 [20]
0	0x3de93644	0.113873035
1	0x3dd2d6de	0.10294889
2	0x3df632e2	0.12021424
3	0x3e038526	0.12843761
4	0x3df714ac	0.1206449
5	0x3dfe7434	0.12424508
6	0x3e005a38	0.12534416
7	0x3dfc1278	0.1230821
8	0x3de0688a	0.10957439
9	0x3dd5287f	0.10408115
10	0x3de6414c	0.11242923
11	0x3ddb5a8a	0.10710628
12	0x3db84928	0.089983284
13	0x3dd3ce92	0.103421345
14	0x3dc1a6fb	0.09455677
15	0x3dda13e6	0.106483266
16	0x3dd82b7d	0.1055517
17	0x3e050896	0.12991557
18	0x3e09cd60	0.1345725
19	0x3dd82f0d	0.10555849
