save/client-3/eval.pth (torch, 42501 bytes, 27 tensors)

layer1_task.0.weight f4 [32, 3]
00000000: 37b7 7f3d 3420 27be abfa 86be b031 c43e
00000010: 3722 9d3e 611c f9be 7df7 023e f28b 79bd
00000020: 2706 353d 9ae2 093c 365a c9bd ec72 97be
00000030: a454 14be dfa3 c3bd 249f cdbd 1429 07bd
00000040: 6e2e c9be 2ab7 bf3d 9204 bb3e 7e0c 48be
00000050: a942 0e3d d77a bbbe 755d 4a3c 032e 023f
00000060: b81d 7f3e e74d dd3e 754e 963e 4f9c ac3e
00000070: 0cd3 8e3e c492 dc3e a191 843d 099e 9cbb
00000080: 6d90 0cbf e136 463e 2a1a a03e 6b91 963e
00000090: b03b c4be 1696 993e aaa8 0d3f 3cf8 383d
000000a0: b343 753d fab6 cbbd 6de9 17be b04b 2bbe
000000b0: 0499 b9bd ccf4 2c3d d549 a3bb 0fd8 7a3c
000000c0: e46b 433e 1f1a 253f a610 07be f15a 8f3d
000000d0: a116 383e d907 66be b956 85bd 64e7 c4bc
000000e0: ba96 a4be e161 cfbd 15e4 17be 22b0 24bd
000000f0: 1a60 1cbe 8bc8 82bd 4ff6 953e e8a0 503e
00000100: c00c 5c3e e4ff 77bd c11d debc 8eb3 f2bd
00000110: b39d 1ebe fc03 0dbe 4941 123e 8ab8 38be
00000120: b951 6d3e cba1 273e 6b4e 79bc c68d 58be
00000130: 9bc0 4c3e b989 d23d eb73 753e ac52 6bbd
00000140: 3b47 433c bf72 24bd 3747 94bd 7ed7 8cbc
00000150: bc10 d93d e6b5 ec3b 1b0b 363e adad 67bd
00000160: 4de1 c9be 1ce7 ecbd ba42 febc 1c57 783e
00000170: 2072 fb3e e661 423d c9d0 97be 272e 183d
0.062430587 -0.16320878 -0.2636312 0.3831916 0.30690166 -0.48654464 0.12789722 -0.060924478
0.04419532 0.008415842 -0.098316595 -0.29579866 -0.14485413 -0.0955274 -0.10040119 -0.03299816
-0.39293236 0.09361108 0.36526924 -0.19536015 0.03473154 -0.36617157 0.012351383 0.5085146
0.2491368 0.43223497 0.29356733 0.33713004 0.2789539 0.43080723 0.06473089 -0.0047795814
-0.54907876 0.19356872 0.31269962 0.2940782 -0.38326788 0.2999732 0.55335486 0.04515861
0.059879016 -0.099470094 -0.14835139 -0.16728091 -0.090623885 0.042225644 -0.0049831667 0.015310301
0.19084126 0.6449298 -0.13189945 0.069997676 0.17977382 -0.22463931 -0.06510682 -0.024036117
-0.32146245 -0.10126091 -0.148331 -0.040207036 -0.15271035 -0.06385907 0.2928948 0.20373881
0.21489239 -0.06054677 -0.027113797 -0.118506536 -0.15489845 -0.13771051 0.14282717 -0.18039146
0.23175706 0.16370313 -0.01521645 -0.21147832 0.19995348 0.10280175 0.2397 -0.05745189
0.011918838 -0.040148493 -0.07240146 -0.017192598 0.10598895 0.0072238324 0.17777674 -0.056562115
-0.39429703 -0.11567518 -0.031037677 0.2425198 0.49110508 0.047456644 -0.29651478 0.03715339

layer1_task.0.bias f4 [32]
00000000: ac97 0d3c b038 1ebc 1ca9 1a39 61c7 54bb
00000010: a2f0 793b 81fe 9bbb 5019 0c3c fe60 c6bb
00000020: 0f52 bb3b 289c 043c 3023 17bc 422e c2bb
00000030: c41e 5e3c 63c9 0c3c ea01 4fbc 30eb 1439
00000040: 926e b2bb 5533 39bc 9afc acbb fcd5 5e3c
00000050: 822b 3abb bd83 e53b 38dc 16bb 53ac 68bc
00000060: 4497 513c 16aa 30ba 34b3 c139 6e3c d5bb
00000070: 382b 4a3b 9cdf 52bb d296 793b c649 0ebc
0.008642118 -0.00965707 0.00014749583 -0.0032467472 0.0038137813 -0.004760564 0.008550957 -0.006054043
0.0057165693 0.008093871 -0.009224698 -0.0059259245 0.01355714 0.008592936 -0.012634734 0.00014201994
-0.00544531 -0.011303742 -0.005279136 0.013600823 -0.002840728 0.00700423 -0.0023019444 -0.014201242
0.012792412 -0.0006739212 0.00036945345 -0.006507448 0.0030848514 -0.0032176739 0.003808428 -0.008684581

layer1_task.2.weight f4 [32]
00000000: 3c98 803f 135a 7f3f 452c 813f 6519 7e3f
00000010: bd61 803f 1d7f 7e3f eb55 803f 0a4b 803f
00000020: e38d 813f 0eed 7e3f 9e1b 823f 5a28 7f3f
00000030: 179a 803f f964 7f3f 722b 803f 3822 7c3f
00000040: d8f5 803f 9eaf 813f 6e52 7f3f 32ee 803f
00000050: 5655 7d3f 9cb5 813f 0f9c 803f 1fcf 7f3f
00000060: 2663 803f e97a 803f fc21 7e3f 2eb3 7c3f
00000070: 2b83 803f 1128 7d3f 363e 813f 1ae4 813f
1.0046458 0.9974682 1.0091635 0.992575 1.0029827 0.9941271 1.002622 1.00229
1.0121425 0.99580467 1.0164678 0.99670947 1.0047024 0.9976345 1.0013258 0.98489714
1.0075026 1.0131719 0.9973515 1.0072691 0.9895834 1.0133548 1.0047625 0.99925417
1.0030258 1.0037509 0.99270606 0.98710907 1.0040029 0.9888926 1.009711 1.0147736

layer1_task.2.bias f4 [32]
00000000: fcb8 5e3c 98b4 29bc bf88 053c 10de 33bc
00000010: d241 a43b 9879 dabb 9e6b 883c be45 babb
00000020: 19f5 6d3c 91b8 6a3b 28c4 aa3c 2fd7 0dbc
00000030: 74ec e73b a213 dfba 2f6f 123b 6250 c2bc
00000040: 2694 e43b 8caf 023c 9700 0dbc affd 003c
00000050: 6033 04bc 841e c63c 039a 3dbb 921b 73bb
00000060: c0cd 643c b408 f33b 7d99 25bc 9618 83bc
00000070: 4da3 cd3b 14c5 4bbc 80df 543c 56ea 403c
0.013593908 -0.010357998 0.008150279 -0.010978237 0.005012729 -0.006667327 0.016652878 -0.0056845834
0.014523768 0.0035815577 0.020845488 -0.008657261 0.007077748 -0.0017019401 0.0022344103 -0.02371997
0.0069756685 0.007976424 -0.008606098 0.007872983 -0.008068889 0.024184473 -0.002893091 -0.003709529
0.01396507 0.007416809 -0.010107395 -0.016002934 0.0062755705 -0.012437124 0.01299274 0.01177462

layer1_task.2.running_mean f4 [32]
00000000: a0fa f544 f2af 5946 7084 9c45 2f62 1a44
00000010: 4df9 a3c5 e48c 91c4 8dc0 4746 6d2e 4ec6
00000020: 8ab4 1046 887b 4346 171d 2145 b504 e645
00000030: 1208 5dc6 5223 d344 2325 b6c5 f394 bc44
00000040: 5b40 e345 127f 2c45 ba35 20c5 c4f0 52c5
00000050: 3f97 b9c5 13aa e945 86fa 91c4 2089 9fc5
00000060: 6ac7 0346 8715 f6c5 4ea3 0546 1686 e3c4
00000070: ffff 8045 0554 05c5 1d92 9cc4 6145 bf44
1967.832 13931.986 5008.5547 617.5341 -5247.1626 -1164.4028 12784.138 -13195.606
9261.135 12510.883 2577.818 7360.5884 -14146.018 1689.1038 -5828.642 1508.6547
7272.0444 2759.942 -2563.358 -3375.0479 -5938.906 7477.2593 -1167.8289 -5105.1406
8433.854 -7874.691 8552.826 -1820.1902 4127.9995 -2133.2512 -1252.566 1530.1681

layer1_task.2.running_var f4 [32]
00000000: 5d1e 374b 30ce 0b4e 2759 884c ebd3 8749
00000010: 207a 9c4c 2982 7e4a edfb 074e 2d51 ea4d
00000020: 8ff2 554d be17 e74d 9637 934b b1db 124d
00000030: b81e 214e 6a3a e44a 35ce b04c 1417 d74a
00000040: fd31 164d 820b b24b 2a2c af4b 5ed1 164c
00000050: a36d cb4c 0f0c 1c4d 2592 804a de43 8a4c
00000060: 7531 6b4d b787 354d 64f9 5e4d b4da 0f4b
00000070: ac19 434c 0f98 454b 38b5 7f4a bdc5 e14a
1.2000861e+07 5.863864e+08 7.148575e+07 1.1127014e+06 8.203904e+07 4.1698662e+06 5.703586e+08 4.9139856e+08
2.2434021e+08 4.846366e+08 1.9296044e+07 1.5399195e+08 6.7578624e+08 7.478581e+06 9.2697e+07 7.048074e+06
1.5749115e+08 2.3336708e+07 2.2960212e+07 3.953599e+07 1.06655e+08 1.6362725e+08 4.2130105e+06 7.249074e+07
2.4661794e+08 1.9034814e+08 2.3380538e+08 9.427636e+06 5.114437e+07 1.2949519e+07 4.189518e+06 7.3981105e+06

layer1_1vm.0.weight f4 [64, 40]
00000000: 106a 7abe ba53 5dbd 63d3 eabd de5a 05be
00000010: abc1 60be dbce efbd a51a 3cbe 4a89 bb3c
00000020: ceac 06be a003 43bd b765 463e cb59 97be
00000030: 3423 19be 0f0c 2bbd 2a4a b43d 30ce 8f3e
00000040: e95f 45be 1be4 debd d2e6 98bd 7bd5 a5bd
00000050: cb07 cc3d d652 213e 35f9 3cbe bc36 8a3e
00000060: cd06 3d3d e512 243d 3a93 873e 4d06 79bd
00000070: 54b9 183e 5aea 63bb 0f84 843e 244d c3bd
00000080: 24e4 3abe 0390 2fbe 53c1 9abe 85e3 c4bd
00000090: 7787 30be da42 fcbd 2807 ca3d d537 173d
000000a0: 05ce fbbc 33f2 0ebd 946b 99bd 636c c93d
000000b0: 582c 123e 9872 60be f647 563e 2751 9b3d
000000c0: c289 8e3d 8006 9d3e ffb4 1fbe 467a bc3d
000000d0: 7149 aabe 9287 863e d13a a63e c6aa 19be
000000e0: 1078 813d 0012 82bd a8a7 153d c14f 903e
000000f0: ad75 0a3d f2b2 e1bd ae84 8c3e 3227 443e
00000100: 041d e03d 93c3 193d d2b1 173e 8293 3f3e
00000110: a952 aa3c c538 b2bd 72ed 89be c48b 5ebe
00000120: 8c89 f03d 52a1 673e 0373 1a3e 78b5 24be
00000130: 6376 8abd 9fd8 183e 6a17 163d 751c 2b3d
00000140: 7528 d8bd 28ab 4e3e d3aa e3bd 9aca c23d
00000150: 0376 cdbd 628f 62bb 1310 913c de49 46bd
00000160: 77ee 2a3e 84b6 8f3c 6c00 8abe eff8 343e
00000170: aa44 0a3e 828d edbd 0f30 153e cc0f 1fbd
00000180: 13d0 d53d 6326 b3bd 2741 9ebe 0b1d a0be
00000190: 6bb2 b23e ebd3 5e3d 6cd8 213e e837 09be
000001a0: 5a98 1bbe 325d 03be a542 cbbd 62dd c23d
000001b0: aeb1 e0bd d9db ac3e 6e33 353c 83a5 933d
000001c0: be05 b2bc c3d7 4d3d d88d 3dbd 1be2 ff3d
000001d0: 8b9b 81bc be9e 293e 943c 6e3e 080b 683e
000001e0: 7c15 df3e a869 69bd 3d96 133e de82 44bd
000001f0: c791 babd a689 5f3c daed 0c3d c36a 1d3d
00000200: b6fb dc3d 2b9a e3bd 8b87 5e3d 622e ba3d
00000210: b8cb 85bc daa8 e7bd 1186 84bd 084f 18bd
00000220: d7e0 04be bd48 81bc c7ef 9f3d 95b3 803c
00000230: 248d 6e3e b2ca cbbd f88a c3be df1b 973d
00000240: 2aa0 e2bd 06cf 50be aad6 cb3d 6524 33be
00000250: dae7 923e 4b10 663e df98 2abd 44c8 6ebd
00000260: a809 46bd 4049 d73d 0981 d53d 9357 e03d
00000270: f5a2 acbd 8ee5 e6bd 1741 d53d f342 7abd
00000280: 8259 5bbd e25d b3bd 7d90 053e 1be2 30be
00000290: 1c63 e23d f218 f4bd 7e9f 2e3c 1583 cbbd
000002a0: 258e 07be 2a73 943d 9b56 e63d 081a 923d
000002b0: d6e9 4c3c 79dd 343e 5395 ad3d c695 abb8
000002c0: 54d0 4e3c 75bb 5f3e bc9b 7a3d 52e2 98bd
000002d0: 787f 34be 3180 3c3d 02e3 a7bd f648 8a3e
000002e0: 7427 0a3e d733 1c3c 31cb 18bd 42a1 22be
000002f0: b0f8 4dbd 254f eabc dd33 44be cda7 5bbe
00000300: 18d6 72bd 35e8 f33d 08c8 063e 9f9d 86bd
00000310: 6851 6cbc d049 eabd 299d 08be 98fd 12bd
00000320: db9c 343e aaf3 fa3c 3d15 0bbe e0c3 6dbe
00000330: 128e 943c d890 b53c db5c 513e 062d 0cbd
00000340: dff8 68be e0a3 b73d 1912 f93d d027 21be
00000350: 1748 29bc 3a0a 193e 5c92 87bd 52bb e8bd
00000360: 4ee6 3dbe 5f59 99be 044f 813b 4af7 8cba
00000370: aa45 93bb 6e0c f13c dccc cbbb 7f25 45be
00000380: 645c 083e fae9 bbbd e86f 393d 7280 12be
00000390: ec57 17be e5a1 8c3e b42d 0dbe c5dd 43be
000003a0: 1ce2 50be 4e69 2b3e 70d9 3abd b68b 423d
000003b0: 58bc 713d 0d3f b63c f173 4b3d 8d86 4f3e
000003c0: 0a4f 033c 6560 56be 487e 083d 9a4f 98bd
000003d0: 90a5 013e 2043 8dbc 6901 e4bd 5ba2 49be
000003e0: 99e4 37bd 3271 15bd f2a4 cd3d 82f1 22be
000003f0: 3aa5 f4bd f4a4 363c c5d9 b5bd 52b2 96bd
-0.24454522 -0.054034926 -0.114661 -0.13022944 -0.21948878 -0.117093764 -0.18369539 0.022892613
-0.13151857 -0.04761088 0.19374739 -0.29560694 -0.14954835 -0.041759547 0.08803208 0.28086996
-0.19274868 -0.108833514 -0.074659005 -0.08097359 0.09962424 0.15754256 -0.1845444 0.26994884
0.046149064 0.04005708 0.26479512 -0.060797025 0.14914447 -0.0034777136 0.25882003 -0.09536198
-0.18251091 -0.1714478 -0.3022562 -0.096137084 -0.17239176 -0.123174384 0.09864646 0.03691848
-0.030737886 -0.034898948 -0.07491222 0.09835126 0.14274728 -0.21918714 0.20925888 0.07583838
0.06959869 0.30669022 -0.15596388 0.09203009 -0.33259156 0.26275307 0.32466748 -0.15006551
0.06321728 -0.063510895 0.036536843 0.28185847 0.03380363 -0.11020459 0.27444977 0.19155577
0.10943034 0.03754003 0.14813927 0.18708614 0.020791369 -0.08702234 -0.2693897 -0.21733004
0.11744985 0.22620133 0.15082936 -0.1608485 -0.06760862 0.14926384 0.036643423 0.041775186
-0.105545916 0.20182478 -0.111165665 0.095112994 -0.100322746 -0.0034570326 0.01770786 -0.04841029
0.1669253 0.017543085 -0.26953447 0.17673086 0.13502756 -0.11599256 0.14569114 -0.038833424
0.10440078 -0.08747556 -0.30909082 -0.31272158 0.34901747 0.05440132 0.15805215 -0.13400233
-0.15194836 -0.1282852 -0.09924821 0.09514882 -0.1097139 0.3376148 0.011059625 0.07209303
-0.021731254 0.050254595 -0.04627785 0.12494298 -0.015821239 0.16564462 0.23265296 0.22660458
0.4357108 -0.056985527 0.1441278 -0.047976367 -0.09109836 0.013643658 0.03440652 0.038431894
0.107901976 -0.111133896 0.054328483 0.09090878 -0.016332492 -0.11311503 -0.06470884 -0.037184745
-0.12976395 -0.015781755 0.07809406 0.015710631 0.23296028 -0.099507704 -0.38191962 0.07378363
-0.11065705 -0.20391473 0.09953053 -0.17494352 0.28692514 0.22467153 -0.041649695 -0.058296457
-0.048349053 0.10512018 0.10425002 0.109542035 -0.08429519 -0.11274253 0.104128055 -0.061099004
-0.05355216 -0.08758141 0.13043399 -0.17273752 0.1105406 -0.119188204 0.010658143 -0.09937111
-0.13237818 0.07248528 0.112469874 0.07133871 0.012506923 0.1766261 0.08475747 -8.181813e-05
0.0126229115 0.21848853 0.061183676 -0.07465042 -0.1762675 0.04602069 -0.08197595 0.2700879
0.13491613 0.009533844 -0.037303153 -0.15881827 -0.050285995 -0.028602192 -0.1916041 -0.2145073
-0.059286207 0.11909524 0.13162243 -0.065730326 -0.014423706 -0.1143986 -0.13341202 -0.035886377
0.1763796 0.030633766 -0.1358232 -0.23219252 0.01813415 0.022163793 0.20445578 -0.034222625
-0.22751187 0.089668036 0.12161655 -0.15737844 -0.010332129 0.14945307 -0.06619713 -0.113638535
-0.18544886 -0.29950997 0.003946187 -0.001075485 -0.0044943886 0.029424872 -0.0062194895 -0.19252585
0.13316494 -0.09175487 0.045272738 -0.1430681 -0.14779633 0.27467266 -0.13786966 -0.19127567
-0.20398754 0.1673939 -0.04561752 0.04749652 0.05901751 0.022246862 0.049671117 0.20266171
0.00801445 -0.20935209 0.033323556 -0.07437058 0.12660813 -0.017243922 -0.111330815 -0.1969084
-0.044895742 -0.036484905 0.100412264 -0.1591244 -0.11945577 0.011147726 -0.08879427 -0.07358231

layer1_1vm.0.bias f4 [64]
00000000: a57b b43a 2465 423b ba71 a6bb 0bf5 1e3b
00000010: aad0 543b 7452 683b d774 8ebb 4c3e c5ba
00000020: 51c2 393b 6e32 44bb 7a50 d13a 34c8 d2bb
00000030: 9fa9 3a3b 1e73 0dbc b4b3 6dbb 540c 123b
00000040: 334f 09bc 0a0f 1fbc c897 893b 88f1 1d3c
00000050: ae56 dabb aee5 4a3b 1a7b d5bb ad01 12bc
00000060: 0ce8 b7bb eae3 c5ba 29f4 8eba 9fb1 b3bb
00000070: bbd8 333b d566 3a3c ee67 18bb 04bb 953a
00000080: 523e a23b 8f53 27bb 97c9 a93b 61b2 d93b
00000090: f5c5 19bb 8d0c c93a 06dd 30bc cb82 8dba
000000a0: 4fd9 90bb e43d 543a 2c05 e5bb aaed e03b
000000b0: 0e78 633b 4151 793b 369f f3bb 148d 1aba
000000c0: a636 e8bb 1869 7b39 0d9f 973b 8f8e b13b
000000d0: 26da 0a3c c23c 8c3b 0209 2a3b 30a1 ceba
000000e0: de40 58bb be48 06bb b57b c13b c02a 05bc
000000f0: 481a 48b9 adc6 aa3a 3767 5e3b 7137 9b3a
0.0013769759 0.0029662335 -0.005079475 0.0024254944 0.0032473006 0.0035449537 -0.0043474245 -0.0015048473
0.0028344581 -0.0029937285 0.0015969418 -0.0064325575 0.002848245 -0.008633403 -0.0036270441 0.002228518
-0.008380699 -0.009708175 0.004199002 0.009640105 -0.006663165 0.0030959654 -0.006514919 -0.008911532
-0.005612379 -0.0015097831 -0.0010906506 -0.0054838206 0.0027442414 0.011377056 -0.0023255306 0.0011423533
0.004951277 -0.0025531983 0.005181502 0.006643579 -0.002346394 0.0015338823 -0.010794884 -0.0010796426
-0.0044204365 0.00080963806 -0.006989142 0.0068642693 0.003470901 0.0038042816 -0.007434751 -0.0005895656
-0.0070865927 0.00023976376 0.0046271146 0.0054186056 0.008474862 0.004279704 0.002594531 -0.001576459
-0.0032997648 -0.0020490135 0.0059046396 -0.008127868 -0.00019083277 0.0013029181 0.0033936033 0.0011842084

layer1_1vm.2.weight f4 [64]
00000000: 994c 803f 490f 823f 321c 7f3f 81a3 7e3f
00000010: c0b7 7c3f 6854 803f 4558 803f 5938 803f
00000020: aaae 803f 76cf 7e3f 1fb4 803f 41a0 7f3f
00000030: 1362 7f3f 35b9 7d3f 9d9a 813f fa49 7f3f
00000040: 2a95 803f e7f9 7d3f f4fb 7f3f 7cf5 7f3f
00000050: 54fd 7e3f 265c 803f ecca 803f 967e 803f
00000060: 448b 7d3f 1d25 803f da0e 803f 8aa5 7f3f
00000070: 8d64 7f3f 70a0 7f3f 717e 803f 96f2 7e3f
00000080: 15cb 7f3f 1cc3 803f 6d11 7e3f f615 803f
00000090: ada3 803f a61f 803f 0d65 7f3f c3ad 803f
000000a0: 5365 813f 3b1b 803f 89f9 7c3f 98de 7e3f
000000b0: 736c 803f de6c 7f3f 29fa 7f3f 84bc 803f
000000c0: b2d4 7f3f 07d5 7e3f c7e8 803f 30b7 7f3f
000000d0: cf66 7e3f 4653 7d3f 4fca 7c3f 7a99 7f3f
000000e0: a3ea 803f 6492 813f ad0c 813f e85c 803f
000000f0: 37ce 7e3f 1d4c 803f 7953 803f 6bc4 803f
1.0023376 1.0160915 0.996524 0.9946824 0.9871788 1.0025759 1.0026938 1.0017196
1.0053303 0.9953531 1.0054969 0.99853903 0.99759024 0.9911073 1.0125309 0.99722254
1.0045521 0.99209446 0.99993825 0.99983954 0.996053 1.0028121 1.0061927 1.0038631
0.9904063 1.0011326 1.0004532 0.9986197 0.99762803 0.99854183 1.0038587 0.99588907
0.99919254 1.0059543 0.9924534 1.0006702 1.004995 1.0009658 0.99763566 1.0053028
1.0109047 1.000831 0.9881826 0.995584 1.0033096 0.99775493 0.9999109 1.005753
0.9993392 0.99543804 1.0071038 0.99888897 0.99375623 0.9895519 0.987462 0.9984356
1.0071605 1.01228 1.0081993 1.0028353 0.9953341 1.0023228 1.0025474 1.0059942

layer1_1vm.2.bias f4 [64]
00000000: a0af f33a 481a 823c e5e0 d4bb 96f4 a1bb
00000010: e0ef 5abc ccec 183b 5b9f 013b 7ba9 f13a
00000020: b86c 353b 0e0f 9cbb 488a 7d3b 2072 50ba
00000030: 06d7 afba ed7e 17bc 1b4a 633c bce4 1fbb
00000040: 21a2 873b 984f 12bc 2a14 f03a ea41 743a
00000050: 9c2f 9ebb 8533 493b 6ae1 c53b 0fea 57ba
00000060: faef 30bc d092 c33a c8be 8f39 dfb6 1dbb
00000070: afa0 10bb 4714 f6ba a447 9a3b bc6c 83bb
00000080: 3bb3 7bbb 5cac b73b 9b34 dbbb f037 85ba
00000090: 23c4 c83b 0824 a7b9 51dc 14bb db34 aa3b
000000a0: 0580 373c a46e 9339 cee0 36bc eeb9 95bb
000000b0: 91bb 653b a092 90ba 1ada f33a 8db9 043c
000000c0: f0cb b1b9 e550 a7bb e57c dc3b 7caf b4ba
000000d0: 00a4 b1bb 4bbd 40bc 80e3 62bc 0cec bb39
000000e0: 849e fa3b 5673 423c 7ef2 073c 996e 0d3b
000000f0: 0808 96bb 5824 493b a285 843b 7902 783b
0.0018591769 0.015881673 -0.006496536 -0.004942487 -0.013362855 0.0023334501 0.001977882 0.001843735
0.002768321 -0.004762537 0.0038687158 -0.0007951576 -0.0013415522 -0.00924657 0.013872649 -0.002439781
0.0041392003 -0.008930109 0.0018316556 0.0009317683 -0.004827453 0.0030700874 0.0060388343 -0.00082364766
-0.010799402 0.0014921073 0.0002741723 -0.0024065298 -0.002206843 -0.0018774354 0.0047082473 -0.004010765
-0.003840639 0.0056052636 -0.0066896207 -0.0010163765 0.006126897 -0.00031879568 -0.0022714327 0.005194289
0.011199956 0.0002812046 -0.011161996 -0.0045692837 0.0035054425 -0.0011030026 0.0018604428 0.008100879
-0.00033912016 -0.005106079 0.006728756 -0.0013785209 -0.0054211617 -0.011763881 -0.013848186 0.00035843288
0.007648291 0.011868319 0.008297561 0.0021580814 -0.004578594 0.0030691829 0.0040442506 0.003784327

layer1_1vm.2.running_mean f4 [64]
00000000: 9a38 b3c5 80a6 5945 535a 8745 321d 6545
00000010: e53e cac5 1d2d b6c5 4cdd c0c5 aa60 f7c5
00000020: 4a12 ac45 cd23 fac5 1973 23c5 3da3 b6c4
00000030: 8ac9 1bc5 24eb 9645 aa51 2e46 9f3d 0d46
00000040: 5f36 8745 a580 b7c4 7ba5 ec45 c388 d345
00000050: d46e 8645 64a7 8ec3 6c33 29c3 27ac b145
00000060: e6f2 1345 c63b 07c6 6a1e 13c6 cbb1 3ac5
00000070: 1f82 19c6 134e 3645 d1b2 adc4 12e9 efc5
00000080: f662 2f44 7a77 e9c5 0f73 b945 8ef9 8f45
00000090: 363c 1946 5571 0d44 c838 dfc4 162d 61c6
000000a0: 493d 74c5 6539 5dc5 4346 03c5 31ed 70c5
000000b0: ad2c 04c6 b9de 2445 be5a 2646 c409 3946
000000c0: b117 2246 97a7 aac5 a6f5 9845 835d 2346
000000d0: 50a1 1c45 c440 4dc5 51a5 ac45 4466 14c4
000000e0: 5e01 a0c5 98ef b7c5 cd4b 9244 7e63 8ac5
000000f0: ed9f 4946 322b 28c6 8d4a b045 399d 0ec5
-5735.075 3482.4062 4331.2905 3665.8247 -6471.862 -5829.639 -6171.662 -7916.083
5506.286 -8004.475 -2615.1936 -1461.1012 -2492.5962 4829.3926 11156.416 9039.405
4326.7964 -1468.0201 7572.685 6769.095 4301.8535 -285.30774 -169.20087 5685.519
2367.1812 -8654.943 -9415.604 -2987.112 -9824.53 2916.8796 -1389.588 -7677.134
701.54626 -7470.9346 5934.3823 4607.1943 9807.053 565.7708 -1785.7744 -14411.271
-3907.8303 -3539.5872 -2100.3914 -3854.8245 -8459.169 2637.9202 10646.686 11842.441
10373.923 -5460.9487 4894.706 10455.378 2506.082 -3284.0479 5524.6646 -593.5979
-5120.171 -5885.949 1170.3688 -4428.4365 12903.981 -10762.799 5641.319 -2281.8264

layer1_1vm.2.running_var f4 [64]
00000000: fcbe 214b bd86 5c4a 6786 bf4a df06 7f4a
00000010: f12a 3b4b 18e7 194b d90e 314b 49ba 644b
00000020: a3f4 084b 2f4f 794b ec68 074a 9ff4 3949
00000030: 43ca d549 1cbe c74a 5bea 004c 7288 ab4b
00000040: a0c0 a64a da1d 4349 d758 914b 71e1 3b4b
00000050: c79f 964a 2189 1748 54c2 5747 fb0a 104b
00000060: b0ee c749 fcb5 ab4b 5d1e b44b 436b 184a
00000070: 96cc c94b 9a3d 374a caac 1649 a3ac 7b4b
00000080: a59f 8948 0af1 894b 8538 154b 2057 bd4a
00000090: ffbc d94b fb78 2b48 4a28 8849 9e71 554c
000000a0: 16ec 8f4a 0639 634a f640 9d49 e0ce 904a
000000b0: 35eb a54b 0a06 074a 0629 ec4b 8a09 044c
000000c0: 68dd f34b ae20 fd4a d8a2 e64a 8233 024c
000000d0: 2cfe e349 634e 404a b936 054b 101c 3b48
000000e0: 50b2 e54a 9704 254b 8108 e448 dfd6 b34a
000000f0: 1542 364c 23cb f04b ab4e f74a 8848 8c49
1.0600188e+07 3.6131032e+06 6.2758915e+06 4.1783598e+06 1.2266225e+07 1.0086168e+07 1.1603673e+07 1.4989897e+07
8.975523e+06 1.6338735e+07 2.218555e+06 761673.94 1.7513684e+06 6.545166e+06 3.3794412e+07 2.2483172e+07
5.464144e+06 799197.6 1.9050926e+07 1.2312945e+07 4.9356515e+06 155172.52 55234.33 9.439995e+06
1.637846e+06 2.2506488e+07 2.3608506e+07 2.4972328e+06 2.645022e+07 3.0022145e+06 617164.6 1.6493731e+07
281853.16 1.8080276e+07 9.779333e+06 6.204304e+06 2.853939e+07 175587.92 1.1154012e+06 5.5953016e+07
4.716043e+06 3.7228175e+06 1.2882228e+06 4.745072e+06 2.1747306e+07 2.2122265e+06 3.0953996e+07 3.4612776e+07
3.1963856e+07 8.294487e+06 7.557484e+06 3.4131464e+07 1.8677175e+06 3.1507448e+06 8.730297e+06 191600.25
7.526696e+06 1.0814615e+07 467012.03 5.8929755e+06 4.7777876e+07 3.1561286e+07 8.1037655e+06 1.149201e+06

layer1_2vm.0.weight f4 [32, 64]
00000000: 2e64 0d3b 9f8b c8bd f0a1 8cbe 7977 8f3d
00000010: 224f bebd 5652 e43d 60db 1fbe 91cc 33be
00000020: dc52 df3b 61a7 91bd 6e33 14bd 109b 8abe
00000030: d3ba 4ebb 8db9 58be a760 3c3d 08c2 1b3b
00000040: d7d0 973c 9809 9fbe 0efc e33c 897d 873d
00000050: 192c 403e 5463 423e 1cfa 20bd c987 61be
00000060: b8d0 853e a5cf 8e3d 2a0a e9bd 1ec9 37bd
00000070: 2d12 debd 7466 653d e312 4a3e c293 1dbe
00000080: 48e5 99bc 45ff 7f3e e597 c7bd 98c2 ab3d
00000090: 50b0 bdbd dceb d23d ce82 3bbe e318 f1bd
000000a0: 2fc7 d2bc 978c 7dbd b189 0b3e 4e06 aabd
000000b0: 6549 a93e 5db7 adbd 52bb f8bd 33e1 13bd
000000c0: bcd3 83bd ff2d efbe 2e97 94bc f127 3bbe
000000d0: a8be de3d 0dab ffbd b7b4 86bd ee03 b0bd
000000e0: 0be6 553e d990 66bc 6e02 4cbe a0ab 9b3d
000000f0: 14cf 10be cd3e 35be 98e7 233b 8c48 2e3e
00000100: 56e9 bebe f0fe f13d 0b6b 5c3e c803 953e
00000110: f5ae 603b 440b 033e 3ba4 6c3e a5c1 6f3e
00000120: ab25 7e3b 498b 52be d8b4 2c3e 1afe 66bc
00000130: bc02 013e 2d6d 19bd 3eea 253d 8e67 2a3e
00000140: eec2 ddbc c9ab b3bd 3d91 78be 53e2 cdbd
00000150: 6d1d 923d c7ef 383e e223 9f3d b001 383e
00000160: df16 adbe 935a b03d 6797 20bc f461 30bd
00000170: a695 c13b f928 d4be 1272 acbc 6228 9dbd
00000180: e7cc f3bd eb7d e5bd 9f1e bebd 8ef2 35be
00000190: bb96 8a3c c0b6 183e cb03 533e 88b9 d53d
000001a0: 60ba 41be aca4 953d 27f5 cdbd f015 8f3d
000001b0: 5c7e b5be 7b6a 96bd 6bb4 123e 5455 043d
000001c0: 4c23 d0bd 4610 13bd f8c5 813c 7302 3a3d
000001d0: 90f9 b1bd 350d 0cbe 089f e3bd 7988 2bbe
000001e0: 9243 973e e240 15bd 0cd3 1a3e ed27 82bc
000001f0: 0641 cf3b a33b fabc 0806 953d b34c c3bd
00000200: b4bf 7e3e c27c 523d ad01 393d 0d75 c93c
00000210: 3b9e acbe f52b 97bd dabd 15bb e1b7 a0bd
00000220: 9168 2ebe 7b7f 39be f1ba 3dbd 2be6 fbbc
00000230: 142b 04be 7abc 9fbd 9563 25be 0240 20be
00000240: c840 41bc 2f04 b93d 9313 71bd aeda c6bd
00000250: f87c b7bb af5b 08be 8282 043e e81f 113d
00000260: 6607 9cbe 70f6 6cbd e7cb 8bbe 30ef 073e
00000270: 39ce 483e 41d9 4dbe fb00 df3d 1e11 133d
00000280: ee78 1ebe e4b9 8e3c 6673 dfbb 6fc4 61bd
00000290: 0c1e 1e3c 98e7 1ebe ecf4 cc3c 3462 65bd
000002a0: 487b 0f3c 833d 22be 41ff fc3c cf88 c1bc
000002b0: be77 8cbe 639e 1cbb 93ee 07bd 4906 92be
000002c0: 5b7a 643d 0920 1dbe e6df 563e f13b 133d
000002d0: e1a6 eebd 63b0 193e f7bb 0cbd 4270 603d
000002e0: 8540 a23c 6358 c7bd f4b3 7abd 7f30 33be
000002f0: 9523 72be c6db efbd bcef 803c 9109 d43c
00000300: 854d f9bd 3530 b8bc 27e2 a0be a28e ed3c
00000310: 1a33 e03c c672 8c3c 49af 9dbd e253 0ebc
00000320: 6956 57bc fea5 253e 0897 353e ee43 bebd
00000330: 3cc6 00be 7cd1 4cbd 6869 a8bd 9596 17be
00000340: 96d9 70bd 36b7 4e3c bebf e43b 373b 513d
00000350: 1369 14be c522 4d3e 7cb8 7c3e 679c 823d
00000360: b82e 16bd 6815 cdbd fee6 803e 78b1 babc
00000370: 05ad 6b3e b249 8a3d 00c5 65bd 7a39 6abb
00000380: b522 1f3e a547 95be 66eb ca3c fb51 943e
00000390: 5a17 44be b096 40bd 2bdb 9dbd d055 4cbe
000003a0: 60a6 303e dd20 12bc 263d b93d f3a9 82be
000003b0: c23b 1b3d 12ff 2e3d da19 37bd c66c 02bd
000003c0: 6313 fb3d ec28 b93c c373 d73d 44f5 2dbe
000003d0: 0959 48be 5f45 8bbc 3086 023e 3c06 05bd
000003e0: 38c1 1fbe a31a 21be f5d4 2cbe b8a6 37be
000003f0: a6dc 9bbe 3b2c 613d 5b72 4abd ce21 26be
0.0021574604 -0.097922556 -0.27467299 0.070052095 -0.09292437 0.11148517 -0.15611029 -0.17558505
0.0068152975 -0.07112003 -0.03618186 -0.27071428 -0.0031544461 -0.21164532 0.045990612 0.0023766775
0.0185322 -0.31062007 0.02783015 0.06615741 0.18766822 0.18983203 -0.039301023 -0.22024454
0.26135802 0.06973199 -0.11378892 -0.044869535 -0.108433105 0.05600591 0.19733767 -0.15388396
-0.018786088 0.24999721 -0.097457685 0.08386725 -0.092621446 0.10298893 -0.18311617 -0.11772325
-0.025729744 -0.061901655 0.13626744 -0.08301984 0.33063808 -0.084822394 -0.121451035 -0.03610344
-0.064368695 -0.4671478 -0.018138494 -0.18276955 0.108762085 -0.12483797 -0.06577437 -0.085944995
0.20888536 -0.01407262 -0.19922802 0.07601094 -0.14141494 -0.17699738 0.0025009867 0.17019862
-0.37287396 0.118162036 0.21525209 0.29104447 0.003428397 0.12797266 0.23109524 0.23413713
0.0038779776 -0.20560946 0.16865861 -0.0140986685 0.125987 -0.037457634 0.040506594 0.16641065
-0.027070489 -0.08773 -0.24274154 -0.100529335 0.07134519 0.18060218 0.07770516 0.17969394
-0.33806512 0.08611026 -0.009801722 -0.043062165 0.005907732 -0.4143751 -0.021050487 -0.07673718
-0.119043164 -0.112056576 -0.09283184 -0.17768309 0.016917577 0.14913464 0.20606916 0.10435778
-0.18918753 0.07306799 -0.10056525 0.06986606 -0.35447967 -0.07344528 0.14326636 0.032307938
-0.10162982 -0.03590419 0.01584147 0.045412492 -0.086901784 -0.13676913 -0.11114317 -0.16751279
0.2954374 -0.03643883 0.1511957 -0.015888179 0.00632489 -0.030546015 0.07276541 -0.095361136
0.24877816 0.05138851 0.045167614 0.024591947 -0.3371447 -0.07381431 -0.0022848756 -0.07847572
-0.17032076 -0.18115036 -0.04632086 -0.030749401 -0.12907058 -0.07799621 -0.16151269 -0.15649417
-0.01179523 0.09034001 -0.058856558 -0.097096786 -0.005599614 -0.13316225 0.1294041 0.03543082
-0.30474395 -0.05785221 -0.27304003 0.13274837 0.19609918 -0.20102407 0.10888859 0.035904996
-0.15475819 0.017422624 -0.0068191765 -0.055118974 0.009650718 -0.15518034 0.025019132 -0.056001857
0.00875742 -0.15843777 0.030883433 -0.023624806 -0.27435106 -0.0023898117 -0.033186506 -0.2852042
0.05578075 -0.15344252 0.20983848 0.035945836 -0.116529234 0.15008692 -0.034358945 0.054794557
0.019806156 -0.09733655 -0.061206773 -0.17498969 -0.23646386 -0.1171184 0.015739314 0.025883468
-0.12172989 -0.022483924 -0.3142254 0.028998677 0.027368117 0.017144572 -0.076994486 -0.008686991
-0.01314316 0.16176602 0.17733395 -0.092903 -0.1257562 -0.050004467 -0.0822323 -0.14803536
-0.058801256 0.012616923 0.0069808653 0.051081862 -0.14493208 0.20032795 0.2467975 0.06377488
-0.03666565 -0.100138485 0.25176233 -0.022789702 0.2301522 0.067523375 -0.056096077 -0.0035739825
0.15540583 -0.29156223 0.02477045 0.28968796 -0.19149533 -0.047018707 -0.077078186 -0.1995461
0.17250967 -0.008918968 0.09044866 -0.25520286 0.037898786 0.042723723 -0.04470239 -0.031842016
0.12259557 0.02260252 0.10520127 -0.16988093 -0.19565214 -0.017000852 0.12746501 -0.03247665
-0.15601051 -0.15732817 -0.16878112 -0.17934692 -0.3044178 0.054973822 -0.049425464 -0.16223833

layer1_2vm.0.bias f4 [32]
00000000: ac8e 273c 858f ab3b 5cf5 0b3a 41f4 e0bb
00000010: fb77 483c aeb9 5cbb 5547 eeba bc8b 5d3c
00000020: 6f39 aa3a 1428 d6bb d8cc 953a 7bdf 843b
00000030: 5d6c 13bc 8680 ebba 1fea c73b fa28 c43b
00000040: 3219 46bc 3030 5fbb ee91 87bb b482 093b
00000050: 98f0 093c b030 9e3c 577e 0abc 2a3a 89bb
00000060: 702d 6439 c4e8 d3bb 9122 c83b c49c a53a
00000070: 6355 26bc b86f 35bc c6a8 cb3b ea3b 09bc
0.010226887 0.0052356147 0.00053389906 -0.006865055 0.012235637 -0.003368001 -0.0018179218 0.013522085
0.0012987087 -0.0065355394 0.0011428846 0.0040549613 -0.008998004 -0.001796738 0.0061009075 0.00598633
-0.012090968 -0.0034055822 -0.004137269 0.0020982446 0.008419178 0.019310325 -0.008452973 -0.004187842
0.00021760701 -0.006466957 0.0061076363 0.0012635221 -0.010152194 -0.011073999 0.0062151877 -0.008376101

layer1_2vm.2.weight f4 [32]
00000000: 6dae 7f3f f1a7 783f e60e 803f 603f 7f3f
00000010: 6b23 7a3f 94b1 7e3f e4cf 7e3f e414 813f
00000020: 43ef 813f bd3f 7e3f 5316 813f 9412 803f
00000030: 15cb 823f 7d83 7f3f b901 823f d015 7f3f
00000040: 8ddc 7e3f a8f7 7e3f 1b0e 813f 8419 803f
00000050: 5e6f 803f ea08 823f 82d8 823f 04de 793f
00000060: e6d0 7c3f 43ae 803f 0451 7f3f 6071 7f3f
00000070: 9e48 813f dd74 7b3f 64e6 7d3f 04ec 7f3f
0.9987553 0.9713126 1.0004547 0.9970608 0.97710294 0.9948971 0.99535966 1.00845
1.0151142 0.99316007 1.0084938 1.000567 1.0218226 0.9981001 1.0156776 0.9964266
0.99555284 0.99596643 1.008243 1.0007787 1.0033987 1.015897 1.0222323 0.97604394
0.98756254 1.005318 0.99732995 0.9978237 1.0100286 0.98225194 0.99179673 0.99969506

layer1_2vm.2.bias f4 [32]
00000000: 405b 38b8 53b5 15bd 8716 913b 0569 1abc
00000010: 95a8 a9bc 2431 07bb 2603 59bc 0081 2c3c
00000020: 1978 313c caec 9bbc a5cb 8e3b 0b50 16bc
00000030: a70e e83c 0228 eb3b 84f7 c43c 3cce ddbb
00000040: 0e32 6ebc cce4 a83b b862 183b 2d34 00bb
00000050: 4111 9f3b 9bca ba3c adce cc3c ec16 c1bc
00000060: 9daf 6bbc 7160 0f3b dbc1 5d3c 3db9 603c
00000070: 7eda 9d3c 705c 98bc 92f2 76bc 5b7e 05bc
-4.3954e-05 -0.036549877 0.0044277343 -0.009424453 -0.020710269 -0.0020628655 -0.01324538 0.010528803
0.010831856 -0.019033808 0.0043577724 -0.009174357 0.0283273 0.0071764 0.024043806 -0.00676897
-0.014538301 0.005154228 0.00232522 -0.001956235 0.0048543517 0.022801688 0.025000894 -0.0235705
-0.014385131 0.0021877552 0.013534988 0.013716039 0.019269224 -0.018598765 -0.015072482 -0.008147801

layer1_2vm.2.running_mean f4 [32]
00000000: 0e43 49bf f258 15be 5627 7fbf f411 03bf
00000010: 1a3e 6bbf a465 c1bd dceb 9dbe 8650 3c3f
00000020: 8e64 2dbf 92c6 2d3d d345 593f 04e0 43bd
00000030: dc7c 8ebe 1775 8fbe 970c 56bd a8e7 323f
00000040: 4ce3 f33e 7937 05bf d7dc f63e 7d0b 59be
00000050: c7b4 393f 481a 4c3e 1512 c7be 648f a6be
00000060: 1594 b6be 5874 58be 9550 00bd 1c41 3bbe
00000070: b67b 3cbf 66e1 13be d59e 03be 0628 9e3d
-0.7861794 -0.14584711 -0.99669397 -0.5119927 -0.91891634 -0.094432145 -0.3084401 0.7356037
-0.6773156 0.0424257 0.8487217 -0.04782106 -0.27829635 -0.2801902 -0.0522581 0.6988473
0.4763435 -0.5203777 0.48215362 -0.21195789 0.7254147 0.199319 -0.38880983 -0.32531273
-0.35659853 -0.21138132 -0.03132685 -0.18286556 -0.7362627 -0.14441451 -0.12853558 0.077224776

layer1_2vm.2.running_var f4 [32]
00000000: 549d 883f 0801 3a3f dee2 633f 6187 373f
00000010: f33a 663f 9f0d 1d3f 74ae 3c3f 3dbf 683f
00000020: 35db 443f be9d 363f 369e 4e3f 5afe 023f
00000030: 39a7 483f b587 293f ac07 3e3f 7888 3b3f
00000040: 0db4 4d3f 3ce1 263f 7ef7 2f3f 49d7 323f
00000050: f3ff 643f fe58 723f d4f6 113f 6a2d 103f
00000060: 02b0 153f 9eb5 673f a1a5 813f 67cb 2c3f
00000070: 8b6e 8e3f d0f7 073f 3b9b 083f 4092 0a3f
1.0673013 0.72657824 0.89018047 0.71690947 0.899337 0.6134891 0.73703694 0.90916806
0.76896983 0.71334445 0.8071016 0.5116936 0.7838016 0.662227 0.74230456 0.7325511
0.8035286 0.6518743 0.6873702 0.6985975 0.8945305 0.9466704 0.57017255 0.56319296
0.5847169 0.905115 1.0128671 0.6749787 1.1127485 0.53112507 0.5336186 0.5412941

layer2.0.weight f4 [32, 64]
00000000: ffe8 9ebd 11ef c23d ee0c 46bc ced9 8b3d
00000010: c5f7 f8bc 41a2 4a3c ebac 30be 212c 5b3d
00000020: 3d76 513e 2212 64be 6733 983d 41be b43c
00000030: 477e 033c 3f45 3ebd 73c6 a13d 2041 143e
00000040: c84f 30bd eb17 4a3b 147c 5a3e 306c 043e
00000050: 1ca3 45bd 6f27 0abe b7d4 0cbd 9236 9cbd
00000060: 7062 d239 161b ea3d a148 8c3d bf12 46be
00000070: 9efb d73d da49 fd3d 97a2 933d 1f29 863d
00000080: f836 72be 741a 533e 1c08 28be c141 5c3e
00000090: fe2f 5a3d 504e aebd 3551 17bd b87e 76be
000000a0: 8bf0 b83d bbd4 b1bd 0dd3 bfbd 4649 dc3c
000000b0: 3e07 2a3e ded4 373e d8f0 123e f3c9 563e
000000c0: a96f b03e c162 b33e 3732 87bd 8cd4 523b
000000d0: d83d 423e 7853 8fbe 44bf 09be 6732 4a3e
000000e0: 8959 0c3e 2ec3 1ebe f90a 24bd 8d36 263d
000000f0: b8d9 a8bd 5eea 3f3c b231 2f3c d09c bfbd
00000100: 42b2 df3d 8a93 b43c b7fb 8e3c 8a46 023b
00000110: f47b 22be d190 583e 70fd 743e f5d2 2cbe
00000120: 8020 9cbd 87dd 953e 91f9 f2bd 7dbe 22be
00000130: 3d88 6ebd 5db9 9a3d 8b03 1bbe c4ab 933d
00000140: 0aa5 0abe 3bfb c2bb 50fc 64be d383 8ebc
00000150: 3dc7 f93d 73cc 8abd a6a0 c0bd 66ca 6e3e
00000160: d8f5 52be f5a2 5b3e 4975 cf3c 6f63 e73d
00000170: 6009 aabc f09d 153e 85f7 a6bd 2cd3 49be
00000180: ea7a 823e 96a7 e7bd d51d 17bd 30f2 4d3e
00000190: 854d 8d3e 5022 d1bd c517 0fbe f8a9 883d
000001a0: 9a00 10be 36ba 343e 38e4 e0ba d948 26bb
000001b0: 8592 a7bc c664 983e bb63 de3d 7925 c33d
000001c0: 9c8a dd3c 4086 ea3d 45fd a03e 851a 8bbd
000001d0: ee35 883d 7a3a 8e3d c3b5 833e ecf6 56be
000001e0: 03ca 553d 2b33 253d b228 303d 7aac 833e
000001f0: caf5 94be 4294 89bd 76a1 58bc 9c57 b03c
00000200: 0fc8 493e 5c2f 273e f16a 513e 90be 16bd
00000210: 0c4f fcbd f2b1 6d3e 39e4 0e3e 69f3 103e
00000220: 2b67 433e ebb9 503e e9e3 d4bd e60d d03d
00000230: cfcf 61bd 7e1d c8bd 0a19 ab3d abd3 f73c
00000240: 3f07 a63d 422d 3dbb 228b 9c3d fcef 373d
00000250: 4b52 e73c d2f3 0ebe c534 9dbc 242d 953e
00000260: 71df 2fbe 537d 873d 05e1 fa3d 486c 80be
00000270: 43c0 9bbd 1cef 093e 8ce0 f73d fb71 48be
00000280: 288c 3dbe b673 78bd 5159 e03d e01e 193d
00000290: 0b32 8abc 862c 1c3e 68df 953c 0382 303d
000002a0: 8a17 093c 6457 af3d f5f8 383d a5da bdbd
000002b0: 3cb6 b03d 6137 71bd 3c67 22be d188 893d
000002c0: b8d2 2cbd eb41 a0be f898 a23c 5dd3 d6bd
000002d0: edb6 f03d 2139 1cbd df8d 53be bf7b d9bd
000002e0: 4939 c2bd 95db 013e d308 093e ddca 1dbb
000002f0: 081e 0bbe f61d 7b3e 2295 1cbe 2c04 b6bd
00000300: 2025 a6be 4628 49be 42c5 e53d d4e0 4e3e
00000310: 594b 843e ccd6 f4bc e606 4bbe ba3e 09bc
00000320: e178 54bc 51e9 6bbe 632d 44be 7820 8839
00000330: f894 9abe cf3f 89bd e370 913b 7e5e ce3e
00000340: 0eaa 8e3c 3a20 8dbb 1c3b dabb 1cbc b6be
00000350: 6e1d 1cbe f6a1 0d3e 96ba 26be 95fa 25bd
00000360: a2f3 9f3d 576f 6bbe 7c0b e03d 0dd8 83bc
00000370: 7516 f83d b482 56be 7c31 9c3b bc85 a4bc
00000380: 6e4b 6abc 92a4 de3d 68bf 5a3e aeee 903d
00000390: 5838 bb3d 68b4 aabd 563a cdbd 3c5a 5bbc
000003a0: e404 963d 7c3e 30bd b616 183e ddfc ca3c
000003b0: 1a0a dabd ab88 183d d7ff 56be 6fec 943e
000003c0: 37ea bfbc 6f3d c5bd 198c 32be c084 6c39
000003d0: 50e3 72be 75c7 e9bd 1dd1 bdbc e088 49be
000003e0: ee3f 363e 080d 083f 3884 323e 4c38 85be
000003f0: ea81 59be ca9b 05be 8e1e 403e b907 5ebd
-0.07759284 0.095182545 -0.012088044 0.06828652 -0.030391583 0.012367786 -0.17253463 0.05350888
0.2045526 -0.22272542 0.07431679 0.022063376 0.008025712 -0.046452757 0.07899179 0.14477968
-0.043044835 0.003083701 0.21336395 0.12931895 -0.048251256 -0.13491605 -0.03438255 -0.07627596
0.00040127663 0.114309475 0.0684979 -0.19343089 0.10546039 0.12367602 0.07208746 0.06550812
-0.23653781 0.2061556 -0.16409343 0.21509458 0.053268425 -0.08511031 -0.03694268 -0.24071777
0.09030255 -0.08683153 -0.093664266 0.026890408 0.16604325 0.17952296 0.14349687 0.20975475
0.3446019 0.3503628 -0.066013746 0.0032170145 0.18968904 -0.2799337 -0.13451868 0.1974579
0.1370603 -0.15504143 -0.040049527 0.040579367 -0.082446516 0.011713592 0.010693001 -0.093560815
0.10922672 0.022043008 0.017454011 0.001987847 -0.15867597 0.21148993 0.23924804 -0.16877349
-0.076233864 0.29270574 -0.11864007 -0.15892978 -0.058235396 0.075548865 -0.1513807 0.07210496
-0.1353952 -0.005950359 -0.22361875 -0.017396843 0.12196205 -0.06777277 -0.09405641 0.23319396
-0.20601594 0.21448882 0.02532448 0.11298262 -0.020756423 0.1461103 -0.08152679 -0.19709462
0.254844 -0.11311261 -0.036893684 0.20111918 0.27598205 -0.10211623 -0.13973911 0.06673044
-0.1406273 0.17649159 -0.0017157858 -0.002537301 -0.020455608 0.29764384 0.10858866 0.09528632
0.027043633 0.114513874 0.3144323 -0.067921676 0.06650911 0.06944747 0.2572461 -0.2099263
0.052194607 0.040332 0.04300756 0.25717527 -0.29093772 -0.06717731 -0.013222089 0.02152615
0.19705223 0.1632666 0.20450951 -0.03680283 -0.123197645 0.23212412 0.13954248 0.14155354
0.19082324 0.20383422 -0.10395033 0.10158901 -0.055129822 -0.0977125 0.08354385 0.030252298
0.08106851 -0.0028866087 0.07643725 0.0449066 0.028237483 -0.13960198 -0.019190202 0.29136002
-0.1717508 0.066157006 0.1224995 -0.25082612 -0.076050304 0.13470119 0.12103376 -0.1957473
-0.18510497 -0.060657226 0.10954536 0.03738296 -0.016869565 0.1525136 0.018295005 0.04309274
0.008367429 0.0856159 0.0451593 -0.09270219 0.086285084 -0.058890704 -0.15859693 0.06715549
-0.042193145 -0.3130029 0.019848332 -0.10489533 0.1175364 -0.03814042 -0.20659588 -0.10619306
-0.094835825 0.1268142 0.13382272 -0.0024077215 -0.13585675 0.24523148 -0.15291265 -0.088875145
-0.324502 -0.1964427 0.112192646 0.20202953 0.25838736 -0.02988758 -0.1982685 -0.008376772
-0.012968273 -0.23038222 -0.19157939 0.00025964133 -0.3019178 -0.06701624 0.004438506 0.40306467
0.017415073 -0.00430682 -0.0066598784 -0.3569039 -0.15245602 0.13831314 -0.16282114 -0.040522177
0.07810141 -0.22991692 0.109396905 -0.016094232 0.12113658 -0.20948297 0.004766641 -0.0200833
-0.01430021 0.10871233 0.21362078 0.070767745 0.09141606 -0.08335191 -0.10020892 -0.013388213
0.073251516 -0.04302834 0.14852414 0.024778778 -0.10646458 0.03723971 -0.20996033 0.29086635
-0.023427112 -0.09630858 -0.17436256 0.00022556167 -0.23719525 -0.114149965 -0.023171002 -0.1968112
0.17797825 0.53144884 0.1743325 -0.26019514 -0.21240965 -0.1304771 0.18761656 -0.054206584

layer2.0.bias f4 [32]
00000000: 0662 20bd f70d 2e3d 9174 f7bc d990 f7bc
00000010: 17de 4c3c 9622 073c 3ad3 8e3b fdc8 0c3d
00000020: 5319 8bbc f602 353d efaf c33c 8ac4 edbc
00000030: 02c2 74bc e09d 1bb9 4b51 07bd 217f 9c3b
00000040: bbf5 25bd 7b6d 3d3d c867 c6bc 683e 3fbc
00000050: 86e8 62bb e0bd 77bc c683 dabc 3648 bebc
00000060: be83 59bd 1b33 9abc a847 4a3d 3ef9 393d
00000070: 4acb 643d 8e15 23bc 24ba 5a3d b282 18bd
-0.039155982 0.042493787 -0.03020695 -0.030220436 0.012504122 0.008247992 0.0043586763 0.034371365
-0.016979849 0.044192277 0.023887603 -0.029024381 -0.014938833 -0.00014840765 -0.03303651 0.004775897
-0.04051755 0.046246987 -0.024219409 -0.011672594 -0.0034623458 -0.015120953 -0.026674163 -0.023227792
-0.053104155 -0.018823197 0.049384743 0.04540371 0.055857934 -0.0099538695 0.053400174 -0.037234016

layer2.2.weight f4 [32]
00000000: 8c0e 723f 80af 863f 8495 763f 49e5 863f
00000010: 2e02 833f 6f66 763f d71a 813f 4ed7 863f
00000020: 8e44 783f 8099 863f 2f40 723f 8d4c 753f
00000030: 7fd6 863f 070a 873f 9abe 853f 551e 873f
00000040: 357b 713f ac4a 863f cdc1 853f 63be 853f
00000050: 4860 713f cd55 713f 7673 783f dadd 833f
00000060: 18f2 713f bd42 873f 83c5 853f 0286 863f
00000070: bf6f 873f 4512 763f 0312 873f d669 733f
0.94553447 1.0522308 0.9632189 1.0538722 1.023504 0.9625005 1.0086316 1.0534456
0.96979606 1.0515594 0.94629186 0.9581993 1.0534209 1.0549935 1.0448792 1.0556132
0.94328624 1.0491538 1.0449768 1.0448726 0.9428754 0.94271547 0.9705118 1.0302079
0.9451003 1.0567242 1.0450901 1.0509646 1.0580977 0.9612163 1.0552372 0.9508337

layer2.2.bias f4 [32]
00000000: 0a25 5dbd 3fe2 543d e82b 1dbd 8631 603d
00000010: 8e0e e33c 65e0 1fbd bea3 fb3b db30 653d
00000020: 4495 ffbc 9f0b 463d 1e8f 5fbd f66a 32bd
00000030: 13c5 5b3d 5ab1 5d3d 4a23 623d d558 683d
00000040: 3634 67bd dc61 4c3d 92be 5d3d da24 443d
00000050: 62c7 66bd 953a 4abd 552f 0dbd 6d6d 333d
00000060: 608a 65bd 981b 673d 55c6 4d3d 4ad6 503d
00000070: feda 6b3d c1f1 33bd c89c 6b3d b490 66bd
-0.0539904 0.051973578 -0.03837195 0.05473473 0.027716901 -0.03903236 0.0076794317 0.055954795
-0.031199105 0.048350926 -0.054579847 -0.043559037 0.05365474 0.054124214 0.055209436 0.05672534
-0.056446277 0.049898013 0.05413682 0.047886707 -0.05634249 -0.049372274 -0.034468967 0.04380553
-0.056040168 0.0564228 0.050237972 0.050985612 0.057581894 -0.043931726 0.057522565 -0.056290343

layer2.2.running_mean f4 [32]
00000000: 36de e23e 5173 fe3e e9d5 8f3e 1fa6 c7be
00000010: 8ea6 2b3f 470d 63be f306 bf3e 8ae6 e63d
00000020: 7cbb d73c 93a7 ac3e b417 d6be 4320 a13e
00000030: 078d 13bf f937 33bf b964 0ebf 141f 8ebf
00000040: 9479 693d 1654 983e 7985 4cbe 143a 15bf
00000050: 93b3 463f 4cda fbbc 4e6b 933c 0c0a 24be
00000060: 6a1c 8d3d 81ff 11bf b8ca b93e 1c8e e83e
00000070: 8bc4 ba3e ff98 2b3f 547c e13e fcce 173f
0.44310158 0.49697354 0.28092888 -0.38993928 0.6705102 -0.22173034 0.3730999 0.112744406
0.026334517 0.337216 -0.4181496 0.31469926 -0.57637066 -0.7000728 -0.5562244 -1.1103234
0.05700071 0.29751652 -0.19972791 -0.58291745 0.7761776 -0.03074374 0.017995503 -0.16019458
0.06890185 -0.57030493 0.36287475 0.4542092 0.36478075 0.6703033 0.44040167 0.5930021

layer2.2.running_var f4 [32]
00000000: 5ca8 153f 54b2 1f3f fc73 1e3f 28aa 4a3f
00000010: 21cf 633f 1d72 493f ce4b 543f fb98 633f
00000020: af53 1f3f 8e4a 1e3f 50d6 2b3f 90bb da3e
00000030: 8b12 503f 218a 383f 10c0 923f bb3c 893f
00000040: ef84 143f 1d97 0c3f e6dd 0c3f fed0 483f
00000050: 48fa 3b3f 6df7 093f 06c6 753f 1684 ed3e
00000060: 1df4 f83e 8d02 4a3f 92a5 263f c8d7 503f
00000070: 5489 093f 34b6 313f 7ece 923f 7a3f 483f
0.5846002 0.6238148 0.6189573 0.7916589 0.8898793 0.7868975 0.8292817 0.88905305
0.62237066 0.6183251 0.6712389 0.42721224 0.81278294 0.7208577 1.1464863 1.0721658
0.5801534 0.5491808 0.5502609 0.78443897 0.73428774 0.53893167 0.96005285 0.46389836
0.48623744 0.7891014 0.6509639 0.81579256 0.5372517 0.69418645 1.1469266 0.7822186

fc_advantage.0.weight f4 [20, 32]
00000000: 08a4 193e d471 343e be93 573e bb48 1ebd
00000010: 3370 ad3e 9d0c 463e a4c4 c7be 7007 2bbd
00000020: 0751 6e3e 9c75 113b 51c9 463e c20e abbe
00000030: f703 133e e186 88be 304b ee3d 77b8 833b
00000040: 0477 3e3d 83d5 64be dd57 22bd 465f a9bd
00000050: 054c 1d3e 4090 a7bd 64a3 8cbd 8eba bd3c
00000060: 938e 1fbe 145a 5cbe 80b9 a3be 2e94 3dbe
00000070: 73cc a6bc 2afd 893b 192d 113d a1a9 fc3e
00000080: c7a0 63be ebd8 ddbd a6ae b93d bfa0 993e
00000090: 2eb5 b0bd 11af e33d 195e 64bd 362d 22be
000000a0: b23c 55be 256f f63b 5aaa 58be 4636 34be
000000b0: d467 31be 7f9c 5fbc a953 8ebe e4ba c63e
000000c0: 0c65 4a3e 56ad b5bd c06f 3c3d 062d b1be
000000d0: 3a95 8cbd b69c 433d f01a 143d 51f5 b63c
000000e0: 7e45 9d3c 3b36 10be ce2f 0e3d 67a8 cb3e
000000f0: 2082 31be eab7 4bbe fb8c 5cbd 3974 97be
00000100: e407 923e efa1 60be 2524 5a3e cb93 40be
00000110: 4d85 773e 0baf bfbd 8ce8 453d 9038 50be
00000120: 0f23 0bbd 758b 16bd d454 06bc 8e4b cd3d
00000130: 355a 5b3c 545b 1ebe 84ad 9bbe ec0f 12bd
00000140: dabe 6fbc 2e71 0f3e 57be ca3e 6bee 123f
00000150: 5752 66be d755 4e3e ab94 a53d 281b 903d
00000160: bb6d 82bd 2584 d8bd b4d2 08bf 9bec 1b3e
00000170: 3565 053e a086 6e3d acda e7bc 5419 5b3e
00000180: 76c1 9cbe 40b2 5bbd b8b2 bdbe fe3f 17be
00000190: dff1 5dbe 8138 2bbe 2482 cd3d 34e7 a73d
000001a0: 20ee 073e d8c9 52be 7b05 1c3e f698 343e
000001b0: 1ce2 c8be b6f5 b8bb f143 c3bd faf1 e63b
000001c0: 1377 043e 8653 8fbe 4522 8cbe 85cc 683e
000001d0: 0dcc aabd 060d b1bc 7a34 09bd d13b 8abe
000001e0: a468 2cbc a147 42bd 4124 e0bd 205f 373d
000001f0: bf47 82be f9d3 ccbe 61b0 e6bd 041a 7fbc
00000200: 16bb abbd ebec 0a3d f7c6 ab3d be85 86bc
00000210: 3119 f0bc afab 2d3d 54cd ea3e 884f 0abe
00000220: 9e4a 1bbf f9a4 a13d e3c7 5abd ce23 eb3d
00000230: 6e3b 32be 3bff 46bb ad7c a13e 30e0 c53d
00000240: 80fb c5bd fa2a 683d 508b 18bd fc9d c6be
00000250: aba1 cfbd 5c60 b9be f813 85bc 7adc d2bd
00000260: c3c3 a1be 80df d53c e3a4 c5bd 82c9 373e
00000270: f27d c33c 98ad 38bd 0c7c 29be 8445 9bbe
00000280: 43bd 3dbe 175e 4bbe 7137 f73d 5401 80be
00000290: 2117 b8bd 5c0c f73e f5e2 a23d 1630 83be
000002a0: 893e d9bd a903 f2bd 3fd1 aa3e 9d1b 57bc
000002b0: 0e59 353d 15e6 353e b55d 403e 9ddf 0b3c
000002c0: c6cc 0bbe c27b e73d 4ff9 a93e cc48 9ebe
000002d0: 3fd9 45bd 0a67 5f3e 2990 5b3e d0ba 35be
000002e0: bbaa 7cbd 6459 81be aefd fdbd 5b2a 06be
000002f0: c5ff d6be 8af2 fcbd 53d4 2f3e 7f3c 77be
00000300: c733 6a3d c3dd c4bd 2cba 7c3c 76e1 d9bd
00000310: fba0 01be d52c f2bd 74e4 8c3e b57e c9bd
00000320: a4de 383c d073 d8bd db5f 87bd 0e16 f8bd
00000330: 1781 e2bb 0539 d8be 60a9 aabc 09f9 eabd
00000340: 5d6a ebbe 5388 66be 92b1 8f3c 1774 84bd
00000350: db83 333e 4825 d83d a224 49be e62b 03bf
00000360: 5d96 debe d3c1 eabd 1609 763d 2c66 2b3e
00000370: 2575 65be 1e82 833d af65 793d e2e8 dfbd
00000380: 719f b3bd 8043 87be 1300 56be 6cfc a4bc
00000390: 04a7 c83d e697 4d3c c6f2 30bd 5229 193d
000003a0: 5026 40be c631 debe 5f4e cbbe 04ef 42bd
000003b0: dea1 98bd 7990 0f3c c03e d0bd af44 9fbe
000003c0: 3da6 3b3e c336 6f3d 568f 243e 9f81 1b3e
000003d0: 0693 4bbe 3a5a dbbc b47d a4be 7b3e 633e
000003e0: 590c 0d3e bad8 8e3e 8f7a da3d 619b a63d
000003f0: 9963 ccbe 8575 dfbd bc9b ef3d fe24 273e
0.15003979 0.17621547 0.21052453 -0.03864358 0.33874664 0.19340749 -0.39017212 -0.04175514
0.23273097 0.0022195345 0.19412734 -0.33409697 0.14356981 -0.26665404 0.11635435 0.0040197927
0.04650022 -0.22347073 -0.039634574 -0.08270125 0.1536103 -0.081818104 -0.06867102 0.023160245
-0.15581731 -0.21518737 -0.31977463 -0.18513557 -0.02036116 0.0042110877 0.0354434 0.49348167
-0.222293 -0.108323894 0.09066515 0.30005452 -0.08628307 0.11117376 -0.0557538 -0.15837559
-0.20823935 0.0075205737 -0.21158734 -0.17598829 -0.17324764 -0.013648151 -0.27798203 0.3881446
0.19765109 -0.08870952 0.04600501 -0.34604663 -0.068644 0.047756873 0.036158502 0.022333773
0.019198176 -0.14083187 0.03471356 0.39776918 -0.17334795 -0.19894376 -0.053845387 -0.29580858
0.28521645 -0.21936773 0.2130285 -0.18806379 0.24171944 -0.09359559 0.048317477 -0.20334077
-0.03396898 -0.03675409 -0.008198936 0.100241765 0.013388206 -0.15464526 -0.3040582 -0.035659716
-0.014632905 0.14008018 0.39598343 0.57395047 -0.22492348 0.20149933 0.08084997 0.0703643
-0.06368586 -0.105720796 -0.5344651 0.15226977 0.13026889 0.058233857 -0.028302513 0.2139638
-0.3061635 -0.05363679 -0.37050414 -0.14770505 -0.21674298 -0.16720773 0.10034588 0.08198395
0.13274431 -0.2058481 0.15236466 0.17636475 -0.39235008 -0.0056445254 -0.09534443 0.007047889
0.12936048 -0.2799341 -0.27369896 0.22734268 -0.08339701 -0.021612655 -0.03349731 -0.2699876
-0.010522995 -0.047431592 -0.10944415 0.044768453 -0.25445363 -0.40005472 -0.1126411 -0.015570167
-0.08385293 0.03391735 0.08387559 -0.016421195 -0.029308887 0.04240006 0.45859778 -0.13506901
-0.6066073 0.07892794 -0.053413283 0.114814386 -0.17405483 -0.0030364532 0.31540433 0.09661901
-0.096671104 0.05668161 -0.037242234 -0.38792408 -0.101382576 -0.3620633 -0.016244873 -0.10295959
-0.31594667 0.02610755 -0.0965059 0.17947963 0.023863766 -0.045087427 -0.16551226 -0.30326474
-0.18529229 -0.19860111 0.120711215 -0.25001013 -0.089887865 0.48251617 0.07953445 -0.25622624
-0.10607631 -0.11817104 0.33362767 -0.013129142 0.044274382 0.1776355 0.18785746 0.0085372
-0.13652334 0.11302902 0.3319802 -0.30914915 -0.048302885 0.2181665 0.21441711 -0.17747045
-0.06168626 -0.25263512 -0.12401901 -0.13102095 -0.41992012 -0.12350948 0.17170839 -0.24144171
0.057178285 -0.0961261 0.015425246 -0.106387064 -0.12659065 -0.11824957 0.27518046 -0.098386206
0.01128355 -0.105689645 -0.0661008 -0.121135816 -0.0069123614 -0.42231002 -0.020832717 -0.11473281
-0.45979586 -0.22512941 0.017540727 -0.06467455 0.17530768 0.10553986 -0.1964288 -0.5123886
-0.43474093 -0.1146275 0.06006726 0.16738194 -0.22407968 0.06421302 0.06088799 -0.10933091
-0.087706454 -0.26418686 -0.20898466 -0.020139895 0.09797481 0.012548422 -0.043200277 0.03739292
-0.18764615 -0.4339735 -0.3970823 -0.047591224 -0.07452749 0.008762472 -0.101682186 -0.3110709
0.18325134 0.058401834 0.16070303 0.15186165 -0.19880304 -0.026776422 -0.32127154 0.22191803
0.13774242 0.27899724 0.106679074 0.08135105 -0.39919737 -0.10911087 0.11699626 0.16322705

fc_advantage.0.bias f4 [20]
00000000: f691 80bc 7627 60bd 7b81 31bd dcff 0bbd
00000010: 173f 21bd 7a38 27bd 03e1 2fbd 3501 33bd
00000020: 8ed8 3abd fa41 e9bc 984f d4bc 6868 e7bc
00000030: 6c32 e5bc d83f d9bc 851d 823c ee4e 963c
00000040: 40c1 613c 9cee a53c 2189 123c 4640 fa3c
-0.0156946 -0.054725133 -0.043336373 -0.034179553 -0.039366808 -0.040825345 -0.042939197 -0.043702323
-0.04561668 -0.028473843 -0.02591686 -0.028248027 -0.027978145 -0.0265197 0.015883217 0.018348183
0.013778985 0.02025538 0.008943827 0.030548226

fc_value.0.weight f4 [1, 32]
00000000: 7c9b 9dbe 3f9f d83d 73d4 09be d123 583e
00000010: ee0b 653d 4ef5 6ebd 96cd ed3d fe48 283e
00000020: 64a1 a6bd bcbe 973e b3b0 37be f99e 86bd
00000030: 4c3b 493e 4890 6f3e 785e ba3e 8da8 a43e
00000040: e8b0 92be 8e79 353e b70e 383e a9f1 153e
00000050: be85 77be da96 3dbf a8e6 9dbc b87b a43d
00000060: 55ad 91be 8bb1 533e a088 513e f710 f53d
00000070: 44f3 b83e e938 03be e21a 123e 3350 15bf
-0.30782688 0.10577249 -0.13459949 0.21107413 0.05591958 -0.05833941 0.11611478 0.16434094
-0.081362516 0.29637706 -0.17938499 -0.065732904 0.19651526 0.23394883 0.364002 0.32159844
-0.28650594 0.1772215 0.17974363 0.14642967 -0.24172112 -0.74058306 -0.019275025 0.0803141
-0.28452554 0.20673196 0.20462275 0.119661264 0.36123097 -0.12814678 0.14268067 -0.583255
