save/client-3/eval.pth (torch, 21957 bytes, 27 tensors)

layer1_task.0.weight f4 [16, 3]
000000 3c dd b1 be bd d3 9f be 86 18 6d 3e 7a b5 84 3e
       -0.347391 -0.3121623 0.23153886 0.25919706
000010 43 d1 39 3f 60 0f 9b 3e 23 7b 96 3e 0e 76 45 bf
       0.72584933 0.30285168 0.2939082 -0.7713326
000020 2c 2b 02 bb 98 ec 1a 3e d9 25 9e bd d9 55 84 3e
       -0.0019862158 0.15129316 -0.077220626 0.25846747
000030 ae 6d 09 3f aa 78 2f bf aa 91 1d bf ad 6b 31 be
       0.5368298 -0.68543494 -0.6155039 -0.17326231
000040 aa d5 bf 3e b0 52 b4 3e 50 65 da 3e df 15 de bd
       0.374677 0.35219336 0.4265542 -0.10844015
000050 23 81 b5 3e 7d c1 11 3e 1f ba 71 bd 39 d7 6b 3e
       0.35450086 0.14233966 -0.05901539 0.2303132
000060 6f 62 30 3e 78 3c 10 be da ef 34 bd d5 38 34 be
       0.1722505 -0.14085567 -0.044174053 -0.17599805
000070 93 cd 9c 3e 0e ff 62 be 8c 44 9b be be d2 d3 bd
       0.3062559 -0.22167608 -0.30325735 -0.1034293
000080 f5 0e a3 be 29 29 d7 be 3f 9f 1a 3e af 0b 54 be
       -0.3184735 -0.4202359 0.1509981 -0.20707582
000090 14 34 90 3e 99 1b 99 be 9b 35 83 3e 87 a0 33 be
       0.28164732 -0.29903868 0.25626835 -0.17541705
0000a0 a4 f6 10 3c f7 67 cf bb 13 1e a7 be 56 8a ac be
       0.008847866 -0.0063295322 -0.32640132 -0.33699292
0000b0 a4 b3 03 bc 7e bb bd 3e b8 0d 43 3e ce 90 e3 3d
       -0.008038435 0.37057108 0.19048202 0.11111604

layer1_task.0.bias f4 [16]
000000 00 c3 10 3d d9 7f 0a 3d cc 89 c0 bd fb e6 88 bc
       0.035342216 0.03381333 -0.09401283 -0.016711703
000010 4b f5 62 bd 78 6d 60 bc 71 ce 63 3d a1 8a 52 bd
       -0.05540971 -0.013697974 0.0556168 -0.051401738
000020 3c 8c 61 bd 5c 1f b4 3a 57 8f af 3b 63 9d ed 3c
       -0.05506538 0.0013742256 0.0053576636 0.029005712
000030 c4 14 11 3d 16 6f 11 3d bb f2 c3 bc 9b 34 fe bc
       0.035420194 0.03550633 -0.023919454 -0.031030944

layer1_task.2.weight f4 [16]
000000 db a0 78 3f 4e 55 83 3f d9 61 7d 3f 7f 92 76 3f
       0.97120446 1.0260408 0.9897743 0.96317285
000010 64 45 83 3f f5 eb 81 3f 2c 79 83 3f a5 de 78 3f
       1.0255551 1.0150133 1.0271354 0.9721473
000020 29 ae 84 3f e0 1a 7f 3f c4 92 77 3f 04 13 7e 3f
       1.036565 0.99650383 0.9670832 0.99247766
000030 8e 6f 80 3f 84 b6 77 3f ee 30 82 3f 05 1e 84 3f
       1.0034044 0.9676287 1.0171182 1.0321661

layer1_task.2.bias f4 [16]
000000 20 33 f6 bc b1 77 2a 3d 66 5b 14 bd 46 c0 46 bd
       -0.030053675 0.041618053 -0.036219977 -0.04852321
000010 82 12 5a 3c 84 20 8f 3c c3 63 62 3d 94 40 1e bd
       0.013310077 0.01747156 0.05527092 -0.038635805
000020 0d 2f d8 3c a2 e7 cc bb 7d aa f6 bc 67 45 24 bc
       0.026389623 -0.0062531987 -0.030110592 -0.010026312
000030 d2 80 84 3c df f3 f1 bc d0 d3 81 3c cd 42 b8 3c
       0.016174708 -0.029535232 0.01584807 0.02249279

layer1_task.2.running_mean f4 [16]
000000 80 01 d0 c6 b9 9e 9a 46 fb 24 ad 46 0b a1 3b 46
       -26624.75 19791.361 22162.49 12008.261
000010 38 af 1d 47 e7 52 4c c6 69 d4 01 47 2e f6 28 46
       40367.22 -13076.726 33236.41 10813.545
000020 84 8e 48 46 06 1c 5b c6 83 bc b9 c6 0f d0 fe c6
       12835.629 -14023.006 -23774.256 -32616.03
000030 c3 ac a7 46 76 73 49 c6 ca bf c9 c6 9c 36 da 46
       21462.38 -12892.865 -25823.895 27931.305

layer1_task.2.running_var f4 [16]
000000 9f 5b 25 4d 46 6d cd 4c 74 09 01 4d 5e 85 01 4c
       1.7339032e+08 1.0770283e+08 1.3530502e+08 3.3953144e+07
000010 e0 75 ca 4d f1 71 21 4c aa 1e 80 4d 24 c4 fd 4b
       4.2459034e+08 4.232186e+07 2.6868666e+08 3.326164e+07
000020 ff c4 34 4c 9d 1e 24 4c 3c ad fe 4c 03 bd 76 4d
       4.7387644e+07 4.3022964e+07 1.3352394e+08 2.5872389e+08
000030 bc 7d f1 4c 3a ef 42 4c c1 fe 08 4d 92 33 51 4d
       1.2661091e+08 5.1100904e+07 1.4364981e+08 2.1936362e+08

layer1_1vm.0.weight f4 [32, 40]
000000 e6 4d 18 bd 5b 2c 28 bd 69 b0 f0 3b 53 95 e8 bd
       -0.037183665 -0.041057926 0.0073452485 -0.11356606
000010 a2 f9 2e be ec f9 80 bd 25 35 23 3d 9c 05 8e 3e
       -0.17087415 -0.06297669 0.039845604 0.27738655
000020 38 1b b3 bd a1 54 24 bd fb c8 b0 bd cb d7 90 bd
       -0.08745426 -0.04011977 -0.08632084 -0.07072409
000030 a5 5a 20 be d1 dd c7 3d 28 6d 5d bd e4 b2 76 3d
       -0.15659578 0.09759105 -0.054059178 0.060229197
000040 60 3a 6a 3d f8 f2 e1 bd 9f 34 b5 be 62 ca 41 3e
       0.057184577 -0.11032671 -0.3539171 0.18924859
000050 3f 97 70 be 9c c7 e7 3c d4 dd d7 bd 15 37 a7 bd
       -0.23495196 0.028293423 -0.10540357 -0.08164803
000060 58 cb 97 bd 86 71 51 be 38 3f 53 be b3 ab 5e 3c
       -0.074118316 -0.20453462 -0.20629585 0.013590741
000070 97 53 06 be a1 9d a8 3d 2b 53 3a 3c 34 89 39 3d
       -0.13117824 0.0823319 0.011372368 0.045296863
000080 56 a8 f1 3d 54 8d db 3e 01 89 3a bc 69 99 e1 3d
       0.11799686 0.42881262 -0.011385203 0.11015589
000090 29 ae 1a 3e 7d 4b cb 3e f3 2d 71 3d b1 ce b5 bc
       0.151055 0.3970603 0.05888171 -0.022193285
0000a0 89 4c 34 be cb 44 86 3e 06 b6 7b be 3e 9d bd 3a
       -0.17607321 0.2622436 -0.24581155 0.0014466417
0000b0 66 0c 6e 3e f6 84 b5 3d 66 b1 90 bd a5 7d 8a bd
       0.23246917 0.08863251 -0.07065086 -0.06762246
0000c0 80 46 0f bf 49 82 63 3b a5 5b 84 3d 64 be ae 3e
       -0.5596695 0.0034715107 0.06462792 0.34129632
0000d0 f1 3f 28 be db 37 ef 3d 5e a5 ef bd b7 0f 36 3e
       -0.16430642 0.116805755 -0.11701463 0.17779432
0000e0 3a f3 96 bd a0 b7 b8 bc cb 4a 82 3e ec dd e8 3d
       -0.073706105 -0.022548497 0.25447688 0.11370453
0000f0 67 be 79 bd b9 76 96 be d6 14 a9 3d 70 45 40 be
       -0.060972597 -0.29387453 0.08255927 -0.18776488
000100 c8 08 38 3e c4 34 57 3e 84 06 77 3e 70 a0 1e be
       0.179721 0.21016222 0.2412358 -0.1549089
000110 f8 d1 cb 3a 55 d3 97 bd 3d a0 b3 3c 16 8b be 3d
       0.0015550246 -0.07413355 0.021926994 0.09303872
000120 71 77 b1 bd a6 76 3b bd 8d 4f c4 bd ba e5 8c 3e
       -0.0866536 -0.04576745 -0.095854856 0.27519017
000130 6c d7 6d be 0a 11 d2 3c 02 7c 39 3e a5 55 71 3d
       -0.23226708 0.02564289 0.18113711 0.058919568
000140 2d 12 18 bd 70 98 f2 bb 9b d3 f2 3d 2b ba 13 3e
       -0.03712671 -0.007403426 0.11856767 0.14426486
000150 9b 94 5e bd 44 18 16 be d7 91 d3 bc a6 f9 4c 3d
       -0.05434094 -0.14657694 -0.025826378 0.05004277
000160 1a d5 c9 3d 54 cb df 3c dd 9e b4 3d 9a f7 12 3e
       0.09855099 0.027318634 0.08819363 0.14352265
000170 1b 8f 39 3d 81 d5 93 bd 0a 3e 0d be c0 5d 5c 3e
       0.04530249 -0.07218457 -0.13793197 0.21520138
000180 d0 4c fa bd fb 8d 2e 3e 3f 77 08 bd 7b f1 b1 bd
       -0.12221682 0.17046349 -0.033316847 -0.08688637
000190 83 dc b6 3d 22 da e4 bc 5a 4d 72 3c 35 78 01 bc
       0.08928778 -0.027936045 0.01478895 -0.007902195
0001a0 b2 20 c0 3d 15 18 21 3f 5c 75 e7 ba c6 83 22 3e
       0.09381236 0.6292737 -0.0017658877 0.1587058
0001b0 1f c6 c5 be 35 59 8e be be e3 05 bf 87 85 94 3e
       -0.38627717 -0.27802435 -0.5230063 0.29008123
0001c0 82 95 d6 bd b3 2b 81 3e 7e 12 b9 3c 45 fc af bd
       -0.10477735 0.25228652 0.022591826 -0.085930385
0001d0 e3 67 04 bd 57 62 36 3e d5 15 10 3e 06 6b 94 3d
       -0.032325637 0.17810951 0.14070828 0.072469756
0001e0 3e ea eb bd 8c 38 14 ba c7 6f a1 3d 4d fc a8 bd
       -0.115192875 -0.0005654178 0.07882648 -0.082512476
0001f0 4f 69 6a be c7 ee d8 bd bb d1 38 be 34 ee d7 3e
       -0.22891735 -0.10592418 -0.18048756 0.42173922
000200 35 6e 44 3d 45 df 65 3d 2f ab 36 be 2d 35 f9 3c
       0.047956664 0.05612113 -0.17838739 0.030420864
000210 16 6e ff bc e2 a4 e1 bd 15 6b c3 3d 16 ff 0b 3e
       -0.031180423 -0.11017777 0.09541909 0.13671526
000220 cc ce 91 3e 38 c8 b0 bd 9c 82 03 3e 4e 28 0c 3d
       0.28478086 -0.08631939 0.12842792 0.034218125
000230 17 f7 6b be fb 65 bc be 48 66 9e be e1 16 61 be
       -0.23043476 -0.36796555 -0.3093741 -0.21981384
000240 82 3d 2a bd d1 e7 21 be 2d f1 27 3d 86 05 e2 be
       -0.041562565 -0.15811087 0.041001488 -0.4414484
000250 b9 d2 7b be 6d f8 82 3d 6b 9e 7c 3c c5 5a 9e bd
       -0.24592103 0.0639504 0.015418629 -0.07732157
000260 72 f5 0f 3e be 79 ff 3d fb 4a ad bd c7 3b ff 3d
       0.14058474 0.12474392 -0.08461567 0.124625735
000270 2b 8c b4 3d 87 f6 cc bb 05 7b f2 3c 6c b5 3d be
       0.088157974 -0.0062549743 0.029599676 -0.18526238
000280 2e b3 a9 3d da 23 0e 3e 8a 71 4e be 29 08 fa bd
       0.08286129 0.13880864 -0.20160499 -0.12208588
000290 97 61 93 bd 99 06 7e 3e 1f ce 9d be ad 7b ea 3d
       -0.07196348 0.24807204 -0.3082132 0.114493705
0002a0 87 a9 22 be 84 7f 1f 3e 3b 5b b7 3e d6 10 be 3c
       -0.15884982 0.15575987 0.3581179 0.023201387
0002b0 5b c5 9c be 92 4e ed bc d8 ed 87 3c 3d 7a db be
       -0.3061932 -0.02896813 0.016592905 -0.42866698
0002c0 e6 fe 77 3e 68 c9 86 3e 95 b2 ab bd 70 23 f2 3d
       0.2421833 0.26325536 -0.08383671 0.118231654
0002d0 1c ab b5 3e f1 3d d1 3d bc 61 7a bd ae bd 19 3e
       0.3548211 0.102168925 -0.061128363 0.15013763
0002e0 a4 5f ad 3d 22 c6 68 be 17 63 bb be 84 0e 57 bd
       0.084655076 -0.22731832 -0.36599037 -0.052504078
0002f0 90 72 7e be 84 ff 9f be 1c b3 ed bd cd 75 a0 3e
       -0.2484839 -0.3124963 -0.11606428 0.31339875
000300 a8 d1 70 3d 18 6a 1e 3d 84 c4 3e 3e ec c8 3f 3d
       0.058793694 0.038675398 0.18629652 0.046822473
000310 e7 1a f5 3b 2e 01 18 be a7 07 78 bd 0e 85 07 3e
       0.0074800136 -0.148442 -0.060554173 0.1323435
000320 d1 bf 0f 3e 40 ff 22 3e ac 82 62 be fe 50 1c 3e
       0.14038016 0.15917683 -0.2212016 0.15265271
000330 d1 c5 99 be d7 6d 55 bd 08 e7 1d be b2 fc 80 be
       -0.30033734 -0.052106705 -0.15420163 -0.2519279
000340 30 f6 44 3d a6 d8 0e be 58 73 20 3e 25 f3 9d be
       0.048086345 -0.13949832 0.15669 -0.30849567
000350 af d9 78 3e 91 c0 1f be c5 cd 14 3e 1a ed ea bd
       0.2430179 -0.15600802 0.1453162 -0.11471005
000360 cc d0 6a be d3 60 62 3d cd 3a 86 be d1 56 ce bc
       -0.22931212 0.05526812 -0.26216736 -0.025187882
000370 de cf e3 bc 17 3e 3a be 53 63 db bd ff 3f 9b bc
       -0.02780908 -0.18187748 -0.10712304 -0.018951414
000380 c1 db 30 3e 56 fa b2 be 14 20 4c bd 3e d4 48 bc
       0.1727133 -0.34956616 -0.04983528 -0.012257634
000390 63 4c 80 be 30 d5 02 3e e4 a5 58 3d 35 f3 5a 3d
       -0.25058278 0.12776637 0.05289258 0.053454597
0003a0 63 bb 71 3d ae 79 e8 bd 92 43 f6 be c4 da 1f bd
       0.059016597 -0.113513336 -0.48098427 -0.03902699
0003b0 18 d7 36 3c b9 3c 93 3e 4c b4 8d bc 0a 06 70 3d
       0.011159681 0.28757265 -0.017297886 0.05859951
0003c0 54 52 4a bd b3 54 d6 3d 50 74 69 3e 18 24 ff bd
       -0.04939492 0.10465374 0.22798276 -0.12458056
0003d0 b0 2a 2e 3e d5 92 51 bd 45 f4 13 3e 89 80 96 be
       0.17008471 -0.05116542 0.1444865 -0.2939494
0003e0 be 60 1c 3d 47 52 7d bd 43 ad 08 be c8 f6 57 3e
       0.038178198 -0.061846044 -0.13347344 0.21090233
0003f0 33 df 3b bd 34 3f 90 3d 22 7f 0f be f0 ef 8e 3e
       -0.045867156 0.07043305 -0.14013341 0.27917433

layer1_1vm.0.bias f4 [32]
000000 dc b0 1e bd b1 72 29 bb 6a e4 fc bc c1 43 8d bd
       -0.038742885 -0.0025855715 -0.030870635 -0.06897689
000010 2c df 9a 3c 30 6b d4 bc 27 2a 59 3b 72 d0 d6 3c
       0.018905245 -0.025930017 0.0033136697 0.026222441
000020 65 27 f3 bb c1 75 39 bc 79 b7 aa bc 33 03 0b 3a
       -0.0074204677 -0.011319579 -0.02083944 0.0005302906
000030 ff 91 1e bd 49 3a 9b bb 04 26 17 bd ba 53 ae bc
       -0.03871345 -0.0047371727 -0.03690149 -0.021280158
000040 1d 76 d2 3b b2 e1 b9 3b f3 71 17 3d 63 21 0f bd
       0.0064227716 0.005672657 0.036973905 -0.03494395
000050 fb fc af 3c fe 3b 9f 3a 61 1f 40 ba f1 81 e1 3c
       0.021482935 0.0012148616 -0.00073288946 0.027527781
000060 7a c3 28 3c 49 d3 29 bd 15 bf 9a bc 81 85 25 bc
       0.0103005115 -0.041461263 -0.018889943 -0.010102631
000070 e7 12 c1 3c 32 32 ff 3a 7e 53 ae 3b 71 64 df bb
       0.023568584 0.0019469915 0.0053200116 -0.0068173935

layer1_1vm.2.weight f4 [32]
000000 56 40 86 3f e9 a9 7e 3f 13 dd 80 3f 83 7b 7f 3f
       1.0488384 0.9947801 1.0067466 0.9979784
000010 9d ed 77 3f 0e e4 85 3f db ea 7e 3f 34 12 7f 3f
       0.96846944 1.0460222 0.9957711 0.9963715
000020 ac c8 82 3f 34 e1 7f 3f 94 f0 75 3f 81 61 77 3f
       1.021749 0.9995301 0.9607022 0.96633154
000030 d5 ed 80 3f 86 85 7f 3f d4 78 7f 3f 19 6d 81 3f
       1.007258 0.99813116 0.99793744 1.0111419
000040 5b ad 82 3f 39 1b 7a 3f 66 80 7c 3f 5c ed 7e 3f
       1.0209154 0.9769779 0.9863342 0.9958093
000050 b2 d9 83 3f 0e f2 81 3f 88 5c 82 3f 2e fc 7e 3f
       1.030081 1.0151994 1.0184488 0.99603546
000060 14 e6 80 3f ac bb 82 3f 3f e8 80 3f 88 87 7c 3f
       1.0070214 1.0213523 1.0070876 0.98644304
000070 a5 65 77 3f 12 c4 7d 3f 19 14 7d 3f e9 44 81 3f
       0.9663947 0.99127305 0.9885879 1.0099155

layer1_1vm.2.bias f4 [32]
000000 47 82 37 3d 10 96 21 bc d8 49 a9 3b 6e 1d 99 bb
       0.044801977 -0.009862438 0.0051662736 -0.0046726977
000010 46 9d d3 bc 06 54 3a 3d c8 0a 13 bb 12 99 65 3b
       -0.02583183 0.045490287 -0.0022436846 0.0035033864
000020 a3 44 9f 3c f9 0a 27 bc 98 48 38 bd 5d 13 1f bd
       0.019441908 -0.010195487 -0.044991106 -0.038836826
000030 b5 6d 42 3b ea 59 4a bc d9 02 a1 ba da f6 28 3c
       0.0029667441 -0.012350539 -0.0012284174 0.01031276
000040 9a 98 93 3c 20 21 ba bc 0f 06 93 bc 2d 21 9c bb
       0.018017102 -0.022720873 -0.017947225 -0.004764697
000050 b7 03 db 3c 61 43 04 3c 70 c2 a5 3c 6e a2 5a 3b
       0.02673517 0.008072705 0.020234317 0.0033360976
000060 9d 6f 5d bc 10 35 92 3c 34 7b 13 3c 94 2f 67 bc
       -0.01351538 0.017847568 0.009001542 -0.014110465
000070 c4 dc e0 bc 3b e8 84 bc cc 47 cb bc 54 3b 7f 3c
       -0.02744902 -0.016224017 -0.024814509 0.01557811

layer1_1vm.2.running_mean f4 [32]
000000 9a b3 a5 c5 14 41 fd c3 e7 de 74 c5 47 de 3e c5
       -5302.45 -506.50842 -3917.9314 -3053.8923
000010 50 6b eb c4 9f c7 ba c5 fa 38 f5 c4 57 ff c4 45
       -1883.3535 -5976.9526 -1961.7805 6303.9175
000020 ae ad e9 45 a0 20 00 44 e7 67 86 c5 a9 10 3e c5
       7477.71 512.50977 -4300.988 -3041.0413
000030 dd 8c 00 c6 c2 52 a4 40 5e a4 bb c5 28 1b 40 c5
       -8227.216 5.1351023 -6004.546 -3073.6973
000040 a2 7a 12 45 4e 2f 1a c5 46 87 f4 44 7c 86 f9 c5
       2343.6646 -2466.9565 1956.2273 -7984.8105
000050 f1 a7 6d c5 22 ff 57 45 9f 89 df c5 e4 4b 33 45
       -3802.4963 3455.9458 -7153.2026 2868.7432
000060 e5 2a 8b 44 81 84 63 44 cc 28 24 c5 f2 c3 05 c5
       1113.3405 910.0704 -2626.5498 -2140.2466
000070 be d0 cc 43 1c 29 b9 c4 ab ff d6 44 cf 74 de c4
       409.6308 -1481.2847 1719.9896 -1779.6503

layer1_1vm.2.running_var f4 [32]
000000 b6 9f ce 4a 9a d8 b9 48 a7 34 85 4a 89 35 02 4a
       6.770651e+06 380612.8 4.3648835e+06 2.1333462e+06
000010 b9 ef 59 49 7c 2c f7 4a 86 d6 8d 49 ec 0f 21 4b
       892667.56 8.09939e+06 1.1619368e+06 1.0555372e+07
000020 2d a3 38 4b 33 e8 43 48 7b 36 8d 4a 67 42 12 4a
       1.2100397e+07 200608.8 4.6272615e+06 2.3963138e+06
000030 16 c6 81 4b bf 4f 14 47 45 fb f9 4a aa de 26 4a
       1.7009708e+07 37967.746 8.1913945e+06 2.7339945e+06
000040 b9 fc af 49 ed a9 b9 49 87 2b 8b 49 e3 91 77 4b
       1.4416871e+06 1.5209576e+06 1.1400809e+06 1.6224739e+07
000050 49 01 83 4a 8a 9c 2e 4a bc 8e 46 4b 38 28 01 4a
       4.2927725e+06 2.8608345e+06 1.3012668e+07 2.11611e+06
000060 f4 60 98 48 a6 82 7e 48 d2 8c dc 49 5e 26 78 49
       312071.62 260618.6 1.8067462e+06 1.0164219e+06
000070 bd e7 c5 47 5a 72 26 49 52 94 39 49 ca 94 26 49
       101327.48 681765.6 760133.1 682316.6

layer1_2vm.0.weight f4 [16, 32]
000000 43 a1 ac bd a0 b2 af be de e7 29 3e 72 75 08 3c
       -0.08429196 -0.34315968 0.16592357 0.008328782
000010 13 d6 c3 3d 53 3e f9 bc a1 89 8a be dd 8b 0e be
       0.09562316 -0.030425226 -0.27058128 -0.13920541
000020 a6 de 6b be d5 cf 96 3d 5d ce 38 3c c9 0e 29 be
       -0.23034152 0.073638596 0.01127967 -0.16509546
000030 04 c2 5e bd dd 36 c4 bc ed e0 25 be f4 f0 00 3e
       -0.054384246 -0.023951942 -0.16199084 0.12591916
000040 6d f1 a2 bd 0c c9 19 3e dc 22 d4 3e 9e 5c c0 bc
       -0.079562046 0.150181 0.41432846 -0.023481663
000050 ea b7 80 3e 8e 0a 27 bd b6 b6 4a 3d aa cc 71 bd
       0.25140315 -0.04078155 0.049490653 -0.059033073
000060 fb 7d 7e bc 6c 72 87 3e 76 2c 81 3d 2d 1c 8d 3c
       -0.015532966 0.26454484 0.063073084 0.01722535
000070 5c 15 8a 3e 6d 72 dd be 65 37 d0 3d 7e ce a7 bd
       0.2696942 -0.43251362 0.10166816 -0.08193682
000080 8c c5 70 bc e5 d6 8f 3e d4 e1 14 3e 64 7e a1 3d
       -0.014695536 0.2809364 0.14539272 0.07885435
000090 b3 d0 d4 bc 0d 10 97 be 27 80 af be c9 78 6a be
       -0.025978422 -0.29504433 -0.3427746 -0.22897638
0000a0 f1 b2 80 be 70 e9 68 be 0a 63 da 3c c3 2e 1e bc
       -0.2513652 -0.227453 0.026658554 -0.009654704
0000b0 0f 28 bd 3d 9d 8a d1 bb e1 6e a9 be 0f 2f 9e be
       0.09236156 -0.006394698 -0.33092406 -0.30895278
0000c0 41 52 c0 bc 42 80 9f 3e 24 67 b9 bd 1f d1 cb be
       -0.023476722 0.3115254 -0.09052876 -0.39807984
0000d0 71 57 13 be b1 77 c7 bd 1c b2 59 be fe 21 0f bc
       -0.14388825 -0.09739626 -0.2125935 -0.008736132
0000e0 7c 6d 06 3e 9c b5 54 be 4f 4f b0 be af 2d 0b be
       0.13127702 -0.20772403 -0.34435508 -0.13591646
0000f0 60 d7 ee 3d aa 9e c9 3d 25 e0 34 3d 8e 57 93 3e
       0.11662173 0.09844716 0.044159073 0.28777736
000100 0c e6 8e 3e b8 72 d6 3c e6 e9 d7 be 19 31 51 be
       0.27909887 0.026177749 -0.42170638 -0.20428886
000110 90 f1 68 bd 2c ec 0c bf 6e b9 cc bd c8 65 7f be
       -0.056870997 -0.5504787 -0.099963054 -0.2494117
000120 c4 7a 80 3d 41 f6 73 be 4c 45 c6 3d 96 83 8a 3d
       0.06273416 -0.23824407 0.09681186 0.06763379
000130 77 3b df bd f5 ef a1 3d a2 e4 89 3e 93 6a b0 3e
       -0.10900014 0.07907096 0.26932245 0.3445631
000140 b9 ad 37 3e bb 94 67 3e 91 90 22 3e da 3c 68 3e
       0.17937364 0.2261533 0.1587546 0.22679463
000150 44 88 2f be ed d1 1e 3d 64 d7 d9 3e 0f 1a 3e bd
       -0.17141825 0.03877442 0.42547143 -0.04641157
000160 3c a9 79 3c 3f 62 ae be 9d 84 e5 3d 06 6d cc 3e
       0.0152381025 -0.3405933 0.112069346 0.39926928
000170 f1 ef e0 3d e8 a7 8f bd 23 cd c8 3d c5 5c 1b bd
       0.10983265 -0.070144475 0.09804752 -0.03793027
000180 af 1c 1d 3e 39 37 18 be b0 99 5e be 17 5b 20 be
       0.15342973 -0.14864816 -0.21738315 -0.15659748
000190 ca c6 d1 3b 13 51 f2 bc 87 3a ba bd f1 c1 99 be
       0.0064018713 -0.029579675 -0.090931945 -0.30030778
0001a0 9c 6d 73 3e f7 cf d8 3c f9 57 80 be 70 03 45 3e
       0.23772281 0.026466353 -0.25067118 0.19239593
0001b0 c6 2e a2 3d c4 51 1b 3e 67 19 56 3e 7f 65 ab bc
       0.079190776 0.1516791 0.20908128 -0.02092242
0001c0 27 a5 3a bd 95 6c 97 be 1f 13 dc bd 14 9c 2a be
       -0.045567658 -0.2957503 -0.107458346 -0.16661102
0001d0 76 e1 f4 bd 65 14 0d be 20 d2 64 3e 3b 61 0d 3d
       -0.11957066 -0.13777311 0.22345781 0.034516554
0001e0 42 88 9a 3e b4 f5 c0 bd 8d d4 31 be 04 ec 56 be
       0.3018208 -0.09421864 -0.17366238 -0.2098847
0001f0 e2 e9 b6 3d fa f4 49 be 43 37 98 bb 20 2f 02 be
       0.08931328 -0.19722357 -0.0046452596 -0.1271329
000200 02 ce 1f bd 46 77 9a bd 2f d5 dc bb b0 28 71 3d
       -0.039014824 -0.07542281 -0.0067392807 0.058876693
000210 73 3f 5a 3e af 32 0e 3e bd d7 d1 3d 6e 2f a3 be
       0.21313266 0.13886522 0.10246227 -0.31872123
000220 d3 f8 d9 bd 1e bc 6c be 74 09 3a 3d 8c 1c b2 3c
       -0.106431626 -0.23118636 0.04541917 0.021742128
000230 17 85 23 3d 08 f0 b8 be 4d ec cf 3e a0 cb 9f be
       0.039921846 -0.3612063 0.4060997 -0.3121004
000240 78 53 3c 3e 95 0f b9 3e 68 fd de bd 3b 39 a1 3d
       0.18391216 0.361447 -0.10888177 0.07872244
000250 5d 4f 2f be 34 c9 4b be f7 d0 40 3e 42 00 9e 3e
       -0.17120118 -0.19900972 0.18829714 0.30859572
000260 db 3a b5 3d 67 9e e2 be e3 6a 9b 3e 08 05 99 bd
       0.088491164 -0.44261476 0.30354986 -0.07471663
000270 72 2d 0d bf e9 89 84 3d 64 89 e4 be c9 74 64 be
       -0.5514747 0.06471617 -0.4463607 -0.22310175
000280 56 f6 29 3c 9f 1d 8b 3e b2 0f 9a be 44 51 a0 3d
       0.0103736725 0.27171037 -0.300901 0.07828
000290 47 3a 66 be b1 ab 1d 3e c2 31 7d bd 89 28 1e be
       -0.22483169 0.15397526 -0.06181503 -0.1544515
0002a0 f7 98 3b 3e b7 15 96 be 98 70 6e be 88 20 06 be
       0.1832007 -0.29313442 -0.23285139 -0.13098347
0002b0 85 f4 80 3e ca c5 09 3e 9a 05 5d bc aa 55 f0 3c
       0.25186554 0.13454357 -0.013490105 0.029337723
0002c0 43 65 90 be 97 11 0d 3e 5a 7a 7c be ec c7 6c 3e
       -0.28202257 0.13776241 -0.24656048 0.23123139
0002d0 b0 f4 0b bd 30 cd 1e 3e 57 40 72 bd 82 47 76 be
       -0.0341689 0.1550796 -0.05914339 -0.24050716
0002e0 e2 31 c8 3d 1a 7b 86 3d 8a 8b bb bd 7e b0 de 3d
       0.097751394 0.065664485 -0.09157474 0.10873507
0002f0 90 21 57 be d0 94 1e 3e 30 61 4b be 76 94 b2 3a
       -0.21008897 0.15486455 -0.19861293 0.0013624567
000300 e6 09 fa bd 7d a2 c1 be c6 b7 50 be 4c 0b 4c 3d
       -0.12208919 -0.3781928 -0.20382604 0.04981546
000310 5f b5 b5 be c7 21 1a 3d 5c 13 87 3d ad 6e 55 3d
       -0.35489938 0.03762987 0.065954894 0.0521075
000320 c2 aa 82 bb 3e 57 7e 3e 14 96 25 be 5d 31 5f 3e
       -0.003987641 0.24837968 -0.16170532 0.21796174
000330 2f 82 13 3e c5 b4 af bd f1 c4 6c 3e c7 f0 b7 bd
       0.1440513 -0.08579401 0.23122002 -0.089814715
000340 4c 57 f5 3c f9 6c 55 bd 4b 40 90 3e 8b 1c 0a 3d
       0.029948853 -0.052105878 0.28174052 0.033718627
000350 32 ed 2c be e8 58 b0 3e bb bf 32 be 63 c6 bb 3d
       -0.16887358 0.3444283 -0.17455952 0.09168699
000360 c0 d5 ee 3c 3b 45 27 be 5b a2 7c 3d ed 19 3c be
       0.029154658 -0.16335003 0.06167827 -0.18369265
000370 86 6f 73 3e 1d 3f db bd 4f 61 02 3e a9 1d 14 3e
       0.23773012 -0.10705397 0.12732433 0.1446444
000380 f1 db 58 be 75 87 1b 3e 69 5d e9 bd 89 fa 7b bd
       -0.21177651 0.15188392 -0.1139477 -0.061518226
000390 4a 85 a4 be 28 90 6e 3c f0 30 c3 be 6b a3 9b 3d
       -0.3213294 0.014560737 -0.38123274 0.07599529
0003a0 f4 c2 37 3e b2 1d df bd 5f a6 28 be 1f 77 a3 3e
       0.17945462 -0.10894336 -0.16469716 0.3192682
0003b0 f3 e0 a9 3e b4 91 4e 3e 5e ae 1c 3c e0 83 92 be
       0.33179435 0.20172769 0.009563057 -0.28616238
0003c0 8c 4e fa 3d 26 3e c9 be 79 4b a2 be 7f 04 8c bd
       0.12222013 -0.39305228 -0.31698206 -0.06836795
0003d0 2c f2 0a be a9 51 12 bd 10 3d 88 bd 5c 31 17 3e
       -0.13568944 -0.03572241 -0.06652272 0.14764923
0003e0 fa da f1 3d 7a a4 f0 bd 81 f0 f1 3d fc 4c 37 3e
       0.118093446 -0.117501214 0.118134506 0.17900461
0003f0 72 fb c7 3c 02 ac e7 be 8f 6d 66 3b e4 b6 d0 bc
       0.02441189 -0.4524842 0.0035160517 -0.025477834

layer1_2vm.0.bias f4 [16]
000000 aa ac 79 3c 31 03 09 bd ec b7 89 3c 6e 35 93 bc
       0.01523892 -0.03345031 0.016811334 -0.017969813
000010 02 de 5d 3c de 25 8f bb dc c4 99 3c f2 be 0f bc
       0.0135417 -0.004368528 0.018770628 -0.008773552
000020 8a 49 97 3c 98 45 e3 bb 0d 8d d9 39 5c ab 24 3d
       0.018467683 -0.0069357865 0.00041494556 0.040202484
000030 f3 91 62 3b 2a c7 b5 3b 88 b3 44 3d 16 69 f4 bb
       0.0034571856 0.005547424 0.048022777 -0.0074588163

layer1_2vm.2.weight f4 [16]
000000 d0 7a 82 3f 1c d0 83 3f 1a a5 80 3f cc 2d 7c 3f
       1.0193729 1.0297885 1.0050385 0.9850738
000010 aa c7 80 3f 3f a0 81 3f 44 b4 84 3f 46 37 81 3f
       1.0060933 1.0127028 1.0367513 1.0094993
000020 bd 34 7d 3f b6 57 74 3f a0 2d 82 3f fb b3 80 3f
       0.989086 0.95446336 1.0170174 1.0054926
000030 3f 3d 7c 3f 46 31 7e 3f 28 f5 82 3f 0f a3 7d 3f
       0.98530954 0.99293935 1.0231066 0.9907693

layer1_2vm.2.bias f4 [16]
000000 52 7a ba 3c 87 e2 49 3d 31 49 38 3c 52 8e 04 bd
       0.022763405 0.0492883 0.011247919 -0.03236229
000010 07 e7 4d 3c e2 7f 16 3d 4a 21 8c 3c 35 e3 b4 3c
       0.012567288 0.036743052 0.017105717 0.022080997
000020 38 25 07 bd 10 fc 7f bc 2a d2 94 bc d5 58 ec 3c
       -0.03299448 -0.015624061 -0.01816662 0.028850952
000030 31 b3 f6 bc f2 dd f6 bc be 48 33 3d 15 7c 45 bd
       -0.030114742 -0.030135129 0.043770544 -0.048214037

layer1_2vm.2.running_mean f4 [16]
000000 37 f4 2f bd d2 6d 65 bf b2 5f 70 3e 8c de ff be
       -0.04295751 -0.896207 0.23474005 -0.49974477
000010 81 e5 c5 be 73 02 92 be 64 61 c6 3d 5f 02 03 bf
       -0.3865166 -0.28517494 0.096865445 -0.51175493
000020 0f 48 9a 3d 35 16 87 be d8 2a 09 be 8d 86 8c 3e
       0.07533275 -0.2638413 -0.1339525 0.27446404
000030 d5 45 06 bf 97 72 b8 3d e5 22 8e 3e ca d9 90 be
       -0.52450305 0.09006231 0.27760997 -0.2829116

layer1_2vm.2.running_var f4 [16]
000000 db 58 e1 3e 8d 77 88 3f bc 4b 96 3f d2 fa 15 3f
       0.44013104 1.0661484 1.1741862 0.58585846
000010 f7 b3 53 3f 58 d8 c4 3e 3c b0 e8 3e 4d 0b 5b 3f
       0.8269648 0.38446307 0.45446956 0.8556412
000020 7e 63 40 3f 52 1f 08 3f 37 67 a4 3f 20 1c 41 3f
       0.75151813 0.5317279 1.2843999 0.7543354
000030 ad 62 56 3f c0 a6 44 3f ca d9 45 3f 4b 65 33 3f
       0.8374432 0.7681694 0.77285445 0.70076436

layer2.0.weight f4 [16, 32]
000000 29 a1 29 be 88 38 be bd f3 7a bd 3d 5a 8f 88 3e
       -0.16565384 -0.09288126 0.09251966 0.2667187
000010 94 c8 5d bd 50 50 e7 bc 67 71 55 3e 84 ae 7e 3e
       -0.054146364 -0.028236538 0.20844041 0.2487126
000020 3a b3 9d 3e ea 34 54 be 10 01 ed be e6 25 27 3e
       0.30800802 -0.2072331 -0.46289873 0.16323051
000030 2b 2e 86 3e a4 ec 74 3e 5e 29 e8 bc 18 79 32 be
       0.26207098 0.23918396 -0.028340038 -0.17429006
000040 72 cb 38 be 1b 39 b1 be e9 77 27 be 98 9f 7f 3d
       -0.18046358 -0.3461388 -0.16354336 0.06240806
000050 38 7c 49 3e 1e 2c b7 bd 79 6e 70 3e 3d 2b a6 3d
       0.19676292 -0.089439616 0.23479642 0.08113716
000060 3e ac ed 3d fd 44 1a be 85 a6 df 3b 3d ce da 3d
       0.11605118 -0.1506538 0.0068252706 0.10683868
000070 c5 19 cd 3d 8e 06 62 be a9 9b 9c bc c1 1b 2d 3e
       0.10014681 -0.22072813 -0.019117193 0.16905119
000080 d5 91 35 3e 38 23 2c be 31 09 10 3e a9 95 4e be
       0.17731412 -0.1681031 0.14066006 -0.20174278
000090 21 e1 24 bd 3e d1 81 3e 84 65 25 bc ee 17 70 3e
       -0.040253762 0.25354952 -0.010095004 0.23446628
0000a0 fd 4d 3f 3e 91 06 0b 3e 8c db 21 be 94 54 b8 3c
       0.18682094 0.13576724 -0.15806407 0.022501267
0000b0 59 e0 c7 be 82 14 06 3e 46 bb a4 3d 9e ee 83 be
       -0.3903835 0.1309376 0.08043532 -0.25767988
0000c0 ca 8d 2a be ec d7 31 3e 85 6e fc 3d ba 4e d3 3d
       -0.1665565 0.17367524 0.123257674 0.1031775
0000d0 0f 3c 3c be 20 05 12 39 91 f3 96 3d ab 63 30 be
       -0.18382286 0.00013925554 0.07370675 -0.1722552
0000e0 82 f2 ad 3d b9 75 40 bc 1d c7 a4 3e f3 88 4f be
       0.0849352 -0.011746817 0.3218316 -0.20267086
0000f0 e9 38 5f bd 34 ca 20 bd 1d a9 0a bf 62 45 93 3e
       -0.054497633 -0.039255336 -0.54164296 0.28763872
000100 fb a8 30 3e db 94 b2 bd ec f1 b2 be 3d d1 a4 3e
       0.17251961 -0.08719798 -0.34950197 0.32190886
000110 a1 6d a9 be 5f 53 6b be 2a 7f 2b 3e 43 f6 67 bc
       -0.33091453 -0.22981022 0.16747728 -0.014157834
000120 40 04 79 be cc e0 4c 3e b9 48 95 be b7 dc 3d 3e
       -0.24318027 0.20007628 -0.29157045 0.18541227
000130 72 9c a5 be 21 17 28 3d d6 c9 49 bc d1 bf 36 be
       -0.3234592 0.041037682 -0.012316188 -0.1784661
000140 8e 6b 8f 3b 5f bd 12 bf 81 0e 98 be e0 e6 bc 3e
       0.004376835 -0.5732021 -0.29698566 0.36894894
000150 69 d9 65 3e 57 a0 e7 be 91 14 93 3d 5e 54 0e bd
       0.22446217 -0.45239517 0.07181657 -0.034748428
000160 51 6e 81 bd c1 a5 1e be 0b 92 03 bd 59 6c 95 bd
       -0.06319869 -0.15492918 -0.0321217 -0.07296056
000170 e1 10 af be 64 6a 61 3c 31 e2 b0 be 47 00 a1 3e
       -0.34192565 0.013758276 -0.3454757 0.31445524
000180 92 f2 1a 3e cb 6f 46 be 16 1b 4b 3e 64 55 95 3c
       0.15131596 -0.19378583 0.19834551 0.018229194
000190 3f c3 7c 3d 2d 8b c7 be 6b 57 e7 bc c8 22 24 3e
       0.06170964 -0.3897337 -0.028239926 0.16028893
0001a0 58 28 b0 3d 20 ff 7c bc 73 be 26 bd 74 31 c1 3e
       0.08601445 -0.015441686 -0.04070897 0.37733042
0001b0 94 17 e8 3c c7 03 00 3e 22 a0 dd bd bb 86 1d bd
       0.028331555 0.12501441 -0.108215585 -0.038458567
0001c0 3a 31 47 be f3 05 3d 3e 1e 7d 4d 3d db 64 bd bd
       -0.19452372 0.184593 0.05016815 -0.09247752
0001d0 86 c0 13 be 1e 52 b3 bd 45 d1 7f 3e 60 c0 13 be
       -0.1442891 -0.08755897 0.24982174 -0.14428854
0001e0 66 88 ac 3e 53 5f 30 bd ea 63 b4 be f3 2d dc 3c
       0.33697814 -0.04305966 -0.35232478 0.026877379
0001f0 e4 56 ed 3d 7f ec 90 3d 5b 1a d8 be 67 d9 70 3e
       0.11588839 0.07076358 -0.42207608 0.23520432
000200 c8 25 71 3e 5c 10 e0 bd 82 2d 0a 3e aa 30 16 3e
       0.23549569 -0.1094062 0.13493922 0.14667001
000210 ef fc 45 3e 7c 04 e7 bd 77 c9 1f bc d2 89 89 3e
       0.19334768 -0.11280152 -0.009752623 0.2686296
000220 de 06 b7 be 58 30 07 be 4b cb 26 3e 1b 27 0e be
       -0.35747427 -0.13202035 0.16288488 -0.13882105
000230 63 21 f2 bd 75 77 84 be c4 17 b2 3d bd bb 8e 3e
       -0.11822774 -0.25872388 0.08695939 0.27877608
000240 44 c5 7a be e8 f9 ea 3d 46 de 33 bd 0f 21 8b be
       -0.24489313 0.11473447 -0.04391315 -0.2717366
000250 7f 3b 2e 3e fa a5 11 3d a3 75 eb 3d c5 42 4d 3d
       0.17014883 0.03555868 0.11497047 0.050112505
000260 61 6a 0d 3e 38 e7 57 be 07 28 0d be c8 f8 b4 3d
       0.13810112 -0.21084297 -0.137848 0.08836514
000270 fb fa 66 be f5 3c 06 3e 49 4c c1 bd 70 3e eb bd
       -0.22556679 0.13109191 -0.09438378 -0.114865184
000280 99 ec 79 3e 58 4d fb bd 00 aa cb bd 83 60 64 bd
       0.24406661 -0.122706115 -0.09944534 -0.055756103
000290 38 7a 25 3d 7a da e8 3d c8 39 05 be 6c 4d 27 3e
       0.04039976 0.11369796 -0.13010323 0.16338128
0002a0 7c b7 9c 3e ae 6e 3b be 60 42 c2 3d f6 b0 d6 bc
       0.30608737 -0.1830394 0.09485316 -0.026207428
0002b0 df 9f 9a be 2c 85 32 3d 0a 9d 73 3e 70 f1 9b bd
       -0.30200097 0.043584034 0.23790374 -0.0761441
0002c0 e6 35 aa be b6 e7 c8 bd 31 59 cc 3c 71 d7 0c be
       -0.33244246 -0.0980982 0.024944874 -0.1375406
0002d0 7f 35 c5 3e 07 fa e5 bd 2f d1 12 3e 15 8d 88 3d
       0.38517377 -0.112293296 0.1433761 0.06667534
0002e0 db 1f 7e 3e e3 50 e2 bd 71 e5 8c 3e cd 4b 87 3c
       0.2481684 -0.11050584 0.275188 0.016515637
0002f0 17 86 86 3e d1 1a cd 3e 0a 8c 36 bf b2 85 fd be
       0.26274177 0.40059522 -0.7130743 -0.49516064
000300 76 3b 82 3e 5a 19 8e 3e 10 83 3f bd 72 c3 5c bd
       0.2543599 0.27753717 -0.04675585 -0.05389733
000310 ee 6c 86 bc a5 c9 10 3e 75 4e e8 3e a0 3f 27 be
       -0.016409364 0.14139421 0.45372358 -0.16332865
000320 a0 e2 a6 3e e9 6c 77 3e 59 de 33 3e b4 2c 31 3e
       0.32594776 0.2416264 0.17565288 0.17302209
000330 b6 66 0b be 2f d0 8d 3e ff 36 90 3e d7 0b 34 be
       -0.136134 0.27697894 0.2816696 -0.17582642
000340 b2 44 88 bd a6 38 b0 be a4 24 1a 3e 71 42 f5 be
       -0.066537276 -0.3441822 0.1505304 -0.47902253
000350 8c 55 18 3c 9e 40 8e 3d c8 bd fa 3d 71 0d f6 3b
       0.00929774 0.069459185 0.12243229 0.0075089266
000360 ee f0 56 be 6f 3c ca bc dc be 88 3d b0 11 4a 3e
       -0.20990345 -0.02468702 0.066770285 0.1973331
000370 00 8b e5 bc 36 13 81 3c 9c d3 5d be 95 7f 26 be
       -0.028020382 0.01575623 -0.21662754 -0.16259606
000380 0b cc 89 3d d9 55 82 3d 3f af 52 3e ec 96 ac 3e
       0.06728371 0.063640304 0.20574664 0.33708894
000390 e3 46 44 3e 20 c5 db 3e 76 a2 10 3f 34 16 26 be
       0.19167666 0.42923832 0.56497896 -0.16219407
0003a0 c0 7c 37 3e 51 5a 0f bc 8a 16 26 be 25 2e b9 bd
       0.17918682 -0.00874956 -0.16219535 -0.090420045
0003b0 ae 7a d2 bc 3c 69 93 be 04 46 c5 3e 4f ec d5 3e
       -0.025693264 -0.28791225 0.3852998 0.41781852
0003c0 72 92 7b 3c b7 2b b1 3d a5 00 a7 3d 44 b3 9b 3c
       0.0153547395 0.08650916 0.0815442 0.019006379
0003d0 a4 87 47 be 4b d8 fb bd bc 43 fa 3d 51 50 be be
       -0.19485337 -0.12297114 0.122199506 -0.37170652
0003e0 3a b2 93 3c 93 82 03 bd f7 d9 f8 3e 8c 3c fb bd
       0.018029321 -0.032106947 0.48603794 -0.12267408
0003f0 92 95 ae be 1f cc a3 be 51 b4 a7 3e 43 0e fe bd
       -0.34098488 -0.3199167 0.32754758 -0.12405064

layer2.0.bias f4 [16]
000000 31 d6 27 bd 09 8a 2c 3d f1 fb 05 bd a7 9f 64 bd
       -0.040975753 0.042123828 -0.032710973 -0.05581632
000010 a6 93 f5 3c e3 88 44 bd 13 52 83 3d cd b0 a6 3d
       0.02997763 -0.047982108 0.06412139 0.08139191
000020 33 3b 3d 3d 90 0e b3 bd 4f a2 b1 39 94 3f 00 bd
       0.046199035 -0.08743012 0.00033881 -0.031310633
000030 85 ed 5b 3d 02 33 31 3d bc 42 95 3a bd eb 95 bd
       0.053693313 0.043261535 0.0011387686 -0.07320354

layer2.2.weight f4 [16]
000000 9a 7a 76 3f f0 f1 69 3f 5b 10 8e 3f 02 b0 68 3f
       0.96280825 0.9138479 1.1098741 0.90893567
000010 8e 7e 6c 3f 05 d6 69 3f cb a4 89 3f b7 10 89 3f
       0.9238061 0.9134219 1.0753416 1.0708226
000020 60 a2 8d 3f 81 9e 67 3f 5f 2f 8d 3f 84 a9 8d 3f
       1.1065178 0.9047623 1.1030082 1.1067357
000030 f4 4e 69 3f 14 16 85 3f f8 fd 8b 3f cd a3 68 3f
       0.911361 1.0397363 1.093688 0.9087494

layer2.2.bias f4 [16]
000000 2d 1a 27 bd d0 c8 b4 bd bd fd de 3d f7 2c c9 bd
       -0.040796448 -0.088273644 0.108882405 -0.098230295
000010 6f 67 ac bd f8 3c c8 bd a0 5d a4 3d 1c 15 aa 3d
       -0.08418166 -0.09777254 0.0802567 0.083048075
000020 5b ec e9 3d 50 c0 c7 bd ea b2 d3 3d 06 e7 da 3d
       0.11422034 -0.097534776 0.103368595 0.106885955
000030 bd 3c b3 bd 8e 3b 88 3d e5 6b d3 3d 75 b8 c0 bd
       -0.08751819 0.06651984 0.103233136 -0.094101824

layer2.2.running_mean f4 [16]
000000 04 fc 12 3e 44 99 58 bd 5c 5c 89 bf 46 ff 7f bc
       0.14353949 -0.05288054 -1.0731311 -0.015624827
000010 b5 a2 b5 bd dd 81 82 bd 46 b0 03 3f c4 22 3d 3f
       -0.088689245 -0.06372426 0.51440847 0.73881173
000020 7f f8 6e 3f 0e ba b1 bd f9 36 95 be db da 55 bf
       0.93347925 -0.08678065 -0.29143503 -0.8353707
000030 04 f2 3f bd cb cc 35 3f 45 a8 15 bf c3 78 02 be
       -0.046861663 0.71015614 -0.58459884 -0.1274138

layer2.2.running_var f4 [16]
000000 a1 f3 03 3f 21 7f 05 3f 41 ca 67 3f 41 86 0b 3f
       0.51543623 0.5214711 0.9054299 0.5450173
000010 d9 71 be 3e 52 ea 2e 3f 12 79 20 3f c3 0e 6a 3f
       0.37196234 0.68326294 0.6268474 0.91428775
000020 00 92 12 3f ad 59 41 3f 4b d4 11 3f 02 62 61 3f
       0.5725403 0.7552746 0.5696456 0.88040173
000030 b7 dd 46 3e e2 26 6b 3f 7d 0c 07 3f 85 52 c0 3e
       0.19420515 0.91856205 0.5275343 0.37562957

fc_advantage.0.weight f4 [20, 16]
000000 d3 e0 0f 3e af 7d 77 3e 00 86 54 3e 5a 6b 5e 3e
       0.14050607 0.24169038 0.20754242 0.21720639
000010 f6 0c ae 3e d0 c2 f8 3e 36 b1 7f be 49 6c 1f 3e
       0.33994263 0.4858613 -0.24969944 0.15568651
000020 61 62 5c be b1 ac a1 3e 27 9a f6 3d 07 a3 1e 3f
       -0.21521904 0.31577066 0.12041121 0.6196751
000030 19 be ab 3a 5e fb 7e 3e 39 d2 86 3e 85 64 fb 3d
       0.0013102918 0.24900576 0.26332262 0.12275032
000040 7f aa ba be 25 1c 9c be 3b ce e9 3b 69 86 eb 3c
       -0.36458203 -0.30490223 0.0071351803 0.028750615
000050 02 92 8e 3e 9b 7b a6 bd db 32 1d 3e 41 60 b9 3e
       0.2784577 -0.081290446 0.15351431 0.36206248
000060 7b 11 bd bd ae 1b 09 be 8c d1 51 be 30 30 0d bd
       -0.0923185 -0.13389465 -0.20490092 -0.034469783
000070 12 a0 d7 be 1e 34 e5 bd cd a2 37 3e 92 30 fb be
       -0.4211431 -0.11191581 0.17933197 -0.49060494
000080 39 56 8f be a2 7e 34 be 9a 6f d6 3d 08 6d 6e be
       -0.2799547 -0.17626432 0.10470505 -0.2328378
000090 74 72 ce 3e d3 22 5e 3d 48 d0 8f be 1b 6c c7 be
       0.40321696 0.05423243 -0.28088593 -0.38949665
0000a0 a1 ad 15 3e 45 50 29 be d8 e4 5d 3c a7 63 f6 bd
       0.14617015 -0.16534527 0.01354333 -0.12030726
0000b0 d4 f2 01 3d 87 e5 1a be 8c 38 62 3e b7 8c d8 be
       0.03172572 -0.1512662 0.22091883 -0.42294857
0000c0 67 fb 89 be b9 a2 85 be a9 ac 84 3e 63 1c 23 3e
       -0.26949617 -0.2610071 0.2591298 0.15928797
0000d0 1f 66 2e 3e 03 79 32 be 44 24 ca 3d bc 0b 48 3e
       0.17031144 -0.17428975 0.09870198 0.19535726
0000e0 0e f8 14 3e 1c 49 a6 3c fc ab 70 be 8b f1 a4 be
       0.1454775 0.020298533 -0.23503107 -0.32215533
0000f0 60 33 c3 be dd b2 00 bf d2 57 52 3e 51 96 5b be
       -0.38125134 -0.50272924 0.20541313 -0.2144406
000100 f5 04 48 be 37 61 ef 3d 72 59 c9 3d ef b4 5c 3e
       -0.19533141 0.11688464 0.098315135 0.21553396
000110 bd fc 08 3f ec 5a 0d 3f ab 9a 75 be 44 90 16 be
       0.5351065 0.5521686 -0.23984782 -0.1470347
000120 c2 35 82 3e 91 3c ff 3e a4 c2 3a 3e 68 f1 c9 3d
       0.2543164 0.49850896 0.18238312 0.09860498
000130 72 21 73 be e3 15 50 3f 4b 01 aa 3d f8 ee d1 3e
       -0.23743227 0.81283396 0.08301028 0.4100263
000140 2f 70 43 be 4f 60 14 be 65 dc ef bc 6c fd 75 be
       -0.19085763 -0.14489864 -0.029279897 -0.24022454
000150 54 fe 95 be bd fc c1 be 95 40 db bd 32 11 08 bc
       -0.292956 -0.37888137 -0.107056774 -0.008304881
000160 79 51 54 be d6 7f cb 3e 21 81 29 be 65 f0 10 bf
       -0.20734204 0.3974597 -0.16553165 -0.5661681
000170 84 1d fd 3c 81 84 87 3e 76 0f b3 be 14 8e c9 bd
       0.030897863 0.2646828 -0.34972733 -0.098415524
000180 78 40 21 be 82 b9 42 bd 89 f3 59 bd b4 90 2d 3e
       -0.15747249 -0.047540195 -0.05321077 0.16949731
000190 06 00 81 3e f5 ac 10 be 18 8c 7a be 32 75 8f be
       0.2519533 -0.14128478 -0.24467504 -0.280191
0001a0 f4 23 9b 3b 7c 86 26 bd b0 2b 72 3e 4f 15 7b 3e
       0.0047345106 -0.040655598 0.23649478 0.24519847
0001b0 6c ca 70 3e de 70 9a be 54 89 c4 3d f7 53 c3 3d
       0.23514718 -0.30164236 0.09596506 0.095374994
0001c0 5e eb aa bd 41 7b 00 be dc ac 1b be 56 f6 17 bf
       -0.08345674 -0.12547018 -0.1520266 -0.59360254
0001d0 50 c4 09 3e 2f 8a 1b be c7 8a 8b be c3 12 1b be
       0.13453794 -0.15189432 -0.27254316 -0.15143876
0001e0 66 20 0e 3b 2b 5b 93 be 2a a8 39 bd 41 57 17 bf
       0.0021686791 -0.28780493 -0.04532639 -0.59117514
0001f0 d4 8b 09 bf b9 60 92 3e 1a ce 86 3d 75 0b a5 be
       -0.53728986 0.2858942 0.065822795 -0.32235304
000200 84 51 d6 be b8 ca 89 bd 10 6e 74 3d 24 cf 1a 3d
       -0.41859066 -0.06728119 0.059675276 0.0377952
000210 22 4d 9d 3d fd 78 e0 bd a9 f0 11 be 52 50 0d be
       0.076807275 -0.10960577 -0.14251961 -0.13800171
000220 7c 15 22 3e 38 06 40 be 28 ab 83 be ea c1 8a 3d
       0.15828508 -0.18752372 -0.2571652 0.067752674
000230 c0 62 85 3e 99 83 ad bd 69 1e 77 3e 6f f3 d9 3e
       0.26051903 -0.08472366 0.24132694 0.42568538
000240 bc 2e 79 3c 02 c9 ce bd ab b3 25 be b4 43 de 3e
       0.015208896 -0.10096933 -0.16181819 0.43411028
000250 5f cb f1 3d 9f 30 dd 3d ec 9c 5c 3e 22 1b 8b be
       0.11806368 0.10800289 0.21544236 -0.27169138
000260 33 c4 c8 bd 87 82 5e be 00 87 01 3c 4a ad dd bd
       -0.09803047 -0.2172948 0.007905722 -0.10824068
000270 33 fe 07 bf cf 12 4b bd 55 34 b5 be b1 8d 18 3d
       -0.5312225 -0.049578484 -0.3539149 0.037244502
000280 ad 81 d9 3c 49 27 09 3f d2 ff 9e 3e 16 28 86 3e
       0.026551092 0.5357557 0.3105455 0.26202458
000290 10 29 92 3e ac 53 16 3e 7e 72 3b bd c8 f1 dd 3c
       0.28546953 0.14680356 -0.045763485 0.02709283
0002a0 fd c0 d5 3e 18 c3 c0 be 39 89 db be 61 4b a1 3d
       0.417488 -0.37648845 -0.4287813 0.078757055
0002b0 bb ff 6b 3d 73 6a 01 3e 57 86 f0 3e d9 d6 ba bd
       0.05761693 0.12638263 0.46977493 -0.0912301
0002c0 0e 60 0b be 71 c5 84 be 05 8d 2a be 36 e9 6c be
       -0.1361086 -0.25931886 -0.16655357 -0.23135838
0002d0 b8 42 1b be 21 dd 10 bd 5f 1a cc 3d 89 92 0f 3e
       -0.1516217 -0.035367135 0.099659674 0.14020742
0002e0 8f 9e 3d be b9 15 96 3d a5 f3 6e 3e 92 a0 a8 be
       -0.18517517 0.07328362 0.2333513 -0.32935005
0002f0 33 b7 61 be 4f d0 6d bd 50 46 c8 bd 12 3e 60 be
       -0.22042541 -0.058059987 -0.09779036 -0.21898678
000300 29 57 94 3e 8d cb 4e bc f2 2d 0a 3f ff 91 1e 3e
       0.28972748 -0.0126217725 0.53976357 0.1548538
000310 c2 c3 61 3e 8c ea 05 bd 13 2b 1f 3d cc a0 af 3e
       0.22047332 -0.032694384 0.03885944 0.34302366
000320 bc a0 36 be 63 fe 95 be f2 f5 cf be 86 b6 fd be
       -0.17834753 -0.29295644 -0.4061733 -0.49553317
000330 e9 cf ca 3e ec c4 84 3e a4 94 43 3d 36 02 52 bd
       0.39611748 0.2593149 0.047749177 -0.05127164
000340 6d 78 b3 be 6f 77 d4 3e a5 f4 fc be 9c 69 af 3d
       -0.35052815 0.4149737 -0.494054 0.08565065
000350 e1 8a 28 bd e7 be 9e 3d 1e 15 84 3e e7 ec dc 3d
       -0.04114807 0.077512555 0.2579736 0.10787373
000360 4b d5 42 be 72 7f d6 3c 5d 06 33 3e 9a 64 8e b9
       -0.19026677 0.026183818 0.17482896 -0.00027159305
000370 2c 8c b4 bd 36 12 05 be 9b 6c 79 3e 80 ba a2 bd
       -0.08815798 -0.12995228 0.24357836 -0.07945728
000380 f2 8e b0 be 57 e5 ad be 70 51 76 3e b0 10 a2 be
       -0.3448406 -0.33964035 0.24054503 -0.31653357
000390 2e 20 31 3d e4 0d 8a bd 4d 39 e2 3c c4 56 34 3e
       0.04324358 -0.06740931 0.027615214 0.17611223
0003a0 bb 89 00 be a4 98 97 be f3 8f b9 bc c5 f2 00 be
       -0.1255254 -0.29608643 -0.022651648 -0.12592609
0003b0 b4 ad 66 be d1 11 c1 3c 3d 28 bf be b1 09 81 be
       -0.225272 0.023568066 -0.37335387 -0.25202706
0003c0 16 fd 1a 3f 00 02 8f 3e 19 ac 38 bc dd a8 cc 3d
       0.6054243 0.27931213 -0.0112715 0.099931456
0003d0 6b b1 67 3c ab 60 2e 3d 13 f4 1a bd a8 e2 da ba
       0.014141421 0.04257266 -0.037830424 -0.0016699629
0003e0 d4 ec 28 3f 36 be cd bc 68 00 03 3e 89 96 bf bd
       0.6598637 -0.025115114 0.12793124 -0.09354884
0003f0 8f b8 74 be 44 27 57 3e bc 35 ee be 14 f8 c1 3c
       -0.23898529 0.21011072 -0.4652537 0.023677863

fc_advantage.0.bias f4 [20]
000000 cb 49 7c 3d 08 14 82 bc 0a 68 cd 3c 3c d1 8d 3c
       0.061593812 -0.015878692 0.025074024 0.017311685
000010 e6 ff 8d 3d f6 27 ab bd ea 4c 4a 3c e0 43 d7 bd
       0.069335744 -0.08357231 0.012347439 -0.10510993
000020 ad af be bd 2c 3c d7 bd 47 02 8c 3d 10 36 86 bd
       -0.09310851 -0.10509524 0.06836372 -0.0655328
000030 b0 9f 8a ba 37 da 82 bc 91 b2 ba bd 74 2c 11 bc
       -0.0010576155 -0.015973194 -0.0911609 -0.008860696
000040 42 20 97 bd 87 b7 e9 3c ed 20 48 3d 1e 6d 31 3d
       -0.073791996 0.028529895 0.048859525 0.043316953

fc_value.0.weight f4 [1, 16]
000000 4e 10 ca bb f7 fd 05 be a6 8f 51 3f be 6d 54 be
       -0.0061664945 -0.13085161 0.81859815 -0.20744988
000010 61 eb a3 bd df 11 29 be 95 f3 38 3e b7 60 0f 3e
       -0.08003879 -0.16510724 0.18061669 0.14001738
000020 1f 40 c6 3e 90 fc 8e be 23 63 74 3e 3c d8 29 3f
       0.38720796 -0.27927065 0.23865943 0.6634557
000030 a7 57 57 be 91 b2 e9 3d a1 70 3f 3e 5d 1d fb bd
       -0.2102953 0.11411012 0.18695308 -0.1226146
