save/client-3/eval.pth (torch, 42501 bytes, 27 tensors)

layer1_task.0.weight f4 [32, 3]
-0.17461903 0.015014291 0.021682842 0.321452 -0.08101992 0.19193487 0.13717178 0.36563638
-0.0474205 -0.09615049 -0.33198822 -0.09466432 -0.5271078 0.1797512 -0.16666616 0.08120042
0.16304615 0.24774489 -0.10790023 0.1037936 -0.040592335 -0.077857226 0.09718951 -0.23365928
0.20878689 0.29734492 -0.22306328 -0.048109032 0.15408564 0.08128214 -0.011122527 0.053426363
0.07939599 0.35800737 -0.4950013 0.60775733 0.08610669 -0.035906345 0.08250787 -0.35944167
0.25624564 -0.050390474 -0.0014960899 0.3416386 -0.35673764 0.08141348 -0.21770138 -0.10891704
-0.6714263 -0.45502597 -0.3419947 0.23569998 -0.1209536 0.10497501 0.30997837 0.18549578
0.19123313 0.11789595 -0.122546166 0.14890571 -0.50686246 -0.329339 -0.38053784 -0.10674131
0.01637868 0.031360798 0.20326115 -0.38940167 -0.16411296 0.15838224 0.03953823 -0.14199896
0.007936786 0.18714842 0.28095427 -0.0014470874 0.0500759 0.14218633 0.151262 0.15665452
0.7824491 -0.15640132 -0.20289195 -0.06408482 0.342193 -0.088735215 -0.03445266 0.15338726
-0.25860128 -0.14363842 0.15822023 -0.12854141 -0.031711947 0.08471202 -0.3046442 -0.032592613
00000000: 55cf 32be 80fe 753c 37a0 b13c 5b95 a43e
00000010: c6ed a5bd 938a 443e c276 0c3e b134 bb3e
00000020: 003c 42bd 8cea c4bd 5cfa a9be 5edf c1bd
00000030: 89f0 06bf b310 383e 89aa 2abe 684c a63d
00000040: 92f5 263e d6b0 7d3e ccfa dcbd bd91 d43d
00000050: 2644 26bd 9c73 9fbd 4b0b c73d 6144 6fbe
00000060: 3bcc 553e 983d 983e b36a 64be fa0d 45bd
00000070: a0c8 1d3e 4077 a63d 423b 36bc 9ad5 5a3d
00000080: 5d9a a23d be4c b73e cf70 fdbe fc95 1b3f
00000090: b458 b03d 8812 13bd e3f9 a83d bd08 b8be
000000a0: a132 833e 3e66 4ebd 7218 c4ba 41eb ae3e
000000b0: 51a6 b6be 1cbc a63d 1ced 5ebe e60f dfbd
000000c0: 98e2 2bbf 2af9 e8be ee19 afbe 565b 713e
000000d0: 85b6 f7bd 23fd d63d 7cb5 9e3e 9bf2 3d3e
000000e0: 9ed2 433e 6f73 f13d 7cf9 fabd bd7a 183e
000000f0: bdc1 01bf 1f9f a8be dbd5 c2be 309b dabd
00000100: 952c 863c 2e74 003d b123 503e a85f c7be
00000110: 3a0d 28be f42e 223e d7f2 213d 2d68 11be
00000120: 4b09 023c d6a3 3f3e 3dd9 8f3e 32ac bdba
00000130: 631c 4d3d 4b99 113e 6de4 1a3e 0b6a 203e
00000140: 964e 483f ab27 20be e8c2 4fbe e73e 83bd
00000150: ec33 af3e cfba b5bd 3b1e 0dbd 8d11 1d3e
00000160: 6367 84be f315 13be 7c04 223e 5ca0 03be
00000170: 63e4 01bd 7f7d ad3d 53fa 9bbe d57f 05bd

layer1_task.0.bias f4 [32]
0.002422862 0.0019780821 0.10835127 0.018431561 0.02269138 0.124303825 -0.015527249 -0.019585833
-0.028056476 0.0005189156 0.06612355 0.09162525 -0.0099423295 0.030794535 0.0985907 -0.0269882
-0.016421515 0.028630652 -0.06327046 0.036855772 -0.007133741 -0.00078094704 0.043327197 0.120816015
0.030668065 0.07881324 0.021720255 -0.000825773 -0.015801083 -0.0660671 0.1199727 -0.05354127
00000000: e1c8 1e3b b6a2 013b 45e7 dd3d c9fd 963c
00000010: 46e3 b93c 0193 fe3d 0166 7ebc 7872 a0bc
00000020: b2d6 e5bc d607 083a c96b 873d 05a6 bb3d
00000030: 27e5 22bc d244 fc3c ece9 c93d 5c16 ddbc
00000040: 6a86 86bc d48a ea3c f193 81bd 14f6 163d
00000050: 28c2 e9bb 78b8 4cba dc77 313d 636e f73d
00000060: 983b fb3c d668 a13d adee b13c b078 58ba
00000070: 4671 81bc 304e 87bd 3fb4 f53d 174e 5bbd

layer1_task.2.weight f4 [32]
0.9490734 0.9859431 0.92980003 1.0416216 1.0400695 0.97416764 0.91504747 1.0061334
0.9633555 1.0481287 0.9841456 0.92999977 0.9921467 1.0096456 0.930128 0.994076
1.0314624 0.9577601 0.9775971 0.9509685 1.0904956 1.0425091 0.9606041 0.9408218
0.9996469 0.9439336 0.9227056 1.0626355 0.9601969 1.0288867 0.9582262 0.9842952
00000000: 79f6 723f c466 7c3f 6007 6e3f db53 853f
00000010: ff20 853f 0d63 793f 8d40 6a3f fbc8 803f
00000020: 779e 763f 1529 863f f7f0 7b3f 7714 6e3f
00000030: 53fd 7d3f 113c 813f de1c 6e3f c47b 7e3f
00000040: f606 843f c42f 753f ce43 7a3f ac72 733f
00000050: 5c95 8b3f f070 853f 26ea 753f b3d9 703f
00000060: dce8 7f3f a2a5 713f 6f36 6c3f 7104 883f
00000070: 77cf 753f 8fb2 833f 504e 753f c5fa 7b3f

layer1_task.2.bias f4 [32]
-0.07250223 -0.03129366 0.011130132 0.07802286 0.07329716 0.07825553 -0.09440659 0.028591422
-0.08615817 0.07295529 0.06614429 -0.007871851 -0.025974559 0.053190585 0.042028673 0.011013512
0.05371613 -0.008871025 -0.0709579 -0.011540571 0.11814516 0.06316149 -0.002558352 0.045368914
0.011727346 0.03311585 -0.045250636 0.102016576 -0.041005448 -0.027035017 0.062149517 -0.07247788
00000000: 0d7c 94bd c82d 00bd 285b 363c 73ca 9f3d
00000010: d21c 963d 6f44 a03d 3e58 c1bd 8f38 ea3c
00000020: b273 b0bd 9569 953d a876 873d f0f8 00bc
00000030: 99c8 d4bc 5fde 593d 4226 2c3d 0472 343c
00000040: 7205 5c3d c757 11bc 6052 91bd aa14 3dbc
00000050: 17f6 f13d d05a 813d 06aa 27bb c1d4 393d
00000060: 0e24 403c 7ca4 073d bb58 39bd 11ee d03d
00000070: 54f5 27bd 8a78 ddbc 7e90 7e3d 486f 94bd

layer1_task.2.running_mean f4 [32]
-16160.904 28988.18 12696.37 -9273.043 -44467.625 7786.7817 -9920.832 -6819.9346
19793.297 -4422.5415 -325.55057 29938.908 6964.624 -26121.188 -439.4182 7758.1147
-53296.86 22238.08 27919.281 10818.711 -46708.043 -9604.734 17810.885 15032.129
1409.1295 314.51352 13528.216 -14949.759 31699.576 15184.392 16002.128 8178.742
00000000: 9e83 7cc6 5c78 e246 7b61 4646 2ce4 10c6
00000010: a0b3 2dc7 4156 f345 5403 1bc6 7a1f d5c5
00000020: 98a2 9a46 5534 8ac5 79c6 a2c3 d1e5 e946
00000030: fea4 d945 6012 ccc6 88b5 dbc3 eb70 f245
00000040: dc30 50c7 29bc ad46 901e da46 d80a 2946
00000050: 0b74 36c7 f012 16c6 c525 8b46 84e0 6a46
00000060: 2524 b044 bb41 9d43 dd60 5346 0997 69c6
00000070: 27a7 f746 9141 6d46 8308 7a46 f095 ff45

layer1_task.2.running_var f4 [32]
3.550623e+09 9.479965e+09 1.840281e+09 1.0594624e+09 2.8011397e+10 7.9580454e+08 1.3937085e+09 6.377944e+08
4.436052e+09 2.8542896e+08 3.4179758e+06 1.3158467e+10 6.9435245e+08 1.1113585e+10 4.134764e+06 7.1848646e+08
4.122481e+10 6.4331054e+09 5.981638e+09 1.5240042e+09 2.8560878e+10 1.2536527e+09 4.4340593e+09 2.9397276e+09
2.4318412e+07 1.2939699e+06 2.4161907e+09 2.931172e+09 1.3001599e+10 2.4616568e+09 3.2169782e+09 7.762638e+08
00000000: 35a2 534f 3243 0d50 eb60 db4e 7498 7c4e
00000010: 80b3 d050 0ebc 3d4e 9c24 a64e e20f 184e
00000020: 6434 844f 671a 884d df9d 504a 9113 4450
00000030: e98b 254e f69a 2550 b05d 7c4a ef4c 2b4e
00000040: 0b93 1951 b3b8 bf4f 4744 b24f ebac b54e
00000050: 8dcb d450 7272 954e 3025 844f af38 2f4f
00000060: e688 b94b 8ff4 9d49 2504 104f 23b6 2e4f
00000070: 2abd 4150 e7b9 124f 31bf 3f4f 6213 394e

layer1_1vm.0.weight f4 [64, 40]
-0.13239422 -0.15018006 0.06499728 -0.07102142 -0.00023294974 -0.15726854 -0.16661848 0.06255096
-0.11603482 0.1363581 -0.020653034 0.19544071 0.074995674 -0.020110065 0.068767935 -0.1381456
0.1354958 0.24120733 0.22411501 -0.08742197 -0.020514825 -0.077530175 0.072729215 0.15180442
-0.11218644 0.00349383 0.13093108 -0.24818468 -0.15001464 -0.018637259 -0.06848701 -0.06654487
-0.126429 -0.30148646 0.025421068 0.095801495 0.045091767 -0.31008628 0.04607079 -0.19123764
0.24099337 0.12660299 -0.14162365 0.054725893 0.17753594 -0.0623599 -0.21091303 -0.25446218
-0.057587054 0.10956268 -0.062244542 0.15845361 0.0081272395 -0.23872542 -0.029551659 0.07660215
-0.2264363 -0.13231522 0.04517083 0.34105814 0.025949355 -0.08346688 -0.02216227 0.10051676
-0.18522212 -0.017682534 0.029911377 0.07433959 -0.065925926 -0.04752767 0.058060262 -0.04953123
-0.044085998 0.086133674 -0.022378884 0.005143167 0.069354124 -0.1078742 -0.18775384 0.09051504
-0.056747656 -0.17430118 -0.112272665 -0.08094908 0.01112032 0.022929221 -0.34143624 0.05187775
0.0683726 0.24086598 0.11230115 0.25238878 0.11314526 -0.17267814 -0.11307129 0.0018033257
-0.06347671 -0.06663278 -0.107822895 -0.14185467 -0.20967108 0.14287367 -0.055553656 -0.052110802
-0.19800527 -0.15641332 0.0628122 0.084580466 -0.09342401 0.13772394 -0.12777577 -0.002023133
-0.0781323 -0.20593974 0.102334864 0.092560664 0.11829724 0.13811332 -0.1307277 -0.050609663
0.19579184 0.022472134 0.056762476 -0.14744863 0.087284386 -0.1678932 0.12765598 -0.1077911
-0.16431078 0.22114038 -0.0736104 0.1515824 0.03499036 -0.028306052 0.023989327 0.08819582
0.047287066 -0.15274829 -0.11778453 0.02131684 0.08588886 -0.050611824 -0.029496437 0.12426778
0.22727992 0.217285 -0.070385754 0.08912353 0.20420672 -0.11538614 0.13562913 -0.09490892
-0.13915385 -0.0727592 -0.01059059 0.008473892 0.20114507 0.08977913 0.12705627 0.24133715
0.0900842 0.21532726 0.100915395 0.0694981 -0.2374941 -0.3634935 0.17620853 0.18892397
0.11164432 0.26972035 0.07314845 -0.07498492 0.014582384 0.21021095 -0.10901342 -0.0077071837
-0.11514959 0.02534371 -0.06284034 -0.045387827 0.16433161 -0.15453848 0.15515283 0.21818916
-0.17443138 -0.15840372 -0.03844096 -0.041976724 -0.08508764 0.15799788 0.13477477 0.12769152
0.038402863 -0.1764666 0.11310607 0.11262969 -0.13393855 0.019112593 -0.09890153 -0.040599413
0.142845 -0.04485414 -0.3180923 -0.26214105 -0.20388135 -0.36550134 0.254946 0.095423296
-0.22881871 -0.22767799 -0.03834474 -0.2577964 -0.015840447 -0.268662 0.060743865 -0.17303291
-0.15806146 -0.07563094 0.043437604 -0.13125885 0.11322197 0.091388755 0.03816472 -0.13519235
-0.055738814 -0.35790712 0.30486512 -0.10482255 0.09079886 0.044019263 0.024863575 -0.19264507
0.0689268 -0.16002418 -0.09142061 0.0374685 -0.020795278 -0.08161907 0.057709567 -0.024117343
-0.021202747 0.18862395 0.078689106 0.06261061 -0.06173734 -0.2932365 -0.12792316 0.034491092
-0.23938632 0.0036082324 -0.08571204 0.034842618 0.006963159 -0.17071763 -0.15322264 -0.16851586
00000000: 5a92 07be cdc8 19be 4b1d 853d ae73 91bd
00000010: f843 74b9 010b 21be 099e 2abe b81a 803d
00000020: aaa3 edbd 75a1 0b3e 8d30 a9bc 9c21 483e
00000030: 5597 993d ddbd a4bc 34d6 8c3d 0a76 0dbe
00000040: 69bf 0a3e 0eff 763e 687e 653e 4a0a b3bd
00000050: b50e a8bc 24c8 9ebd 0ef3 943d 9e72 1b3e
00000060: 01c2 e5bd bef8 643b cc12 063e 2024 7ebe
00000070: 709d 19be 2aad 98bc eb42 8cbd ad48 88bd
00000080: 9b76 01be 6f5c 9abe d83f d03c 9333 c43d
00000090: 25b2 383d a1c3 9ebe bab4 3c3d cdd3 43be
000000a0: f7c6 763e 37a4 013e ca05 11be 4228 603d
000000b0: fbcb 353e 186d 7fbd 96f9 57be de48 82be
000000c0: 67e0 6bbd 6662 e03d 22f4 7ebd aa41 223e
000000d0: 1d28 053c 7074 74be 5216 f2bc 97e1 9c3d
000000e0: ebde 67be a47d 07be 0c05 393d 2c9f ae3e
000000f0: be93 d43c aff0 aabd a68d b5bc bbdb cd3d
00000100: deaa 3dbe f6da 90bc b408 f53c 5b3f 983d
00000110: 2c04 87bd 60ac 42bd 99d0 6d3d 42e1 4abd
00000120: 8593 34bd da66 b03d ec53 b7bc 0388 a83b
00000130: 8909 8e3d 26ed dcbd 8b42 40be f35f b93d
00000140: 3b70 68bd 027c 32be 36ef e5bd a2c8 a5bd
00000150: 0132 363c 10d6 bb3c bbd0 aebe c37d 543d
00000160: ef06 8c3d 92a5 763e 25fe e53d 1a39 813e
00000170: b4b8 e73d 8ad2 30be ec91 e7bd 925d ec3a
00000180: 1400 82bd c476 88bd 40d2 dcbd 5a42 11be
00000190: 04b4 56be 7a4d 123e 3b8c 63bd 2372 55bd
000001a0: e5c1 4abe d02a 20be afa3 803d 8638 ad3d
000001b0: 1655 bfbd 8107 0d3e a7d7 02be 8a96 04bb
000001c0: d403 a0bd dee1 52be f194 d13d 7290 bd3d
000001d0: d345 f23d 946d 0d3e 7bdd 05be 144c 4fbd
000001e0: a87d 483e 7b17 b83c c57f 683d c6fc 16be
000001f0: 28c2 b23d 32ec 2bbe 40b8 023e 95c1 dcbd
00000200: 1641 28be a072 623e 0dc1 96bd 6b38 1b3e
00000210: 0d52 0f3d 18e2 e7bc 4485 c43c 03a0 b43d
00000220: 15b0 413d 0c6a 1cbe 0439 f1bd a7a0 ae3c
00000230: 80e6 af3d 584e 4fbd 83a2 f1bc 1b80 fe3d
00000240: 11bc 683e f67f 5e3e 6826 90bd 6686 b63d
00000250: 911b 513e 924f ecbd 5de2 0a3e 9c5f c2bd
00000260: 597e 0ebe c702 95bd 2784 2dbc 14d6 0a3c
00000270: f9f8 4d3e 1fde b73d 0a1b 023e 1621 773e
00000280: 117e b83d c07e 5c3e bbac ce3d 0555 8e3d
00000290: a731 73be d21b babe 0270 343e 4975 413e
000002a0: c7a5 e43d c918 8a3e dbce 953d b291 99bd
000002b0: f4ea 6e3c 8a41 573e 6e42 dfbd 8b8c fcbb
000002c0: 8cd3 ebbd 9d9d cf3c 70b2 80bd 96e8 39bd
000002d0: 8c46 283e 563f 1ebe 62e0 1e3e fb6c 5f3e
000002e0: 249e 32be 9634 22be 4574 1dbd c9ef 2bbd
000002f0: 6e42 aebd 32ca 213e 6602 0a3e 91c1 023e
00000300: 524c 1d3d a9b3 34be 28a4 e73d 65aa e63d
00000310: 3027 09be 0392 9c3c e38c cabd 924b 26bd
00000320: f645 123e fab8 37bd fedc a2be 5a37 86be
00000330: 46c6 50be fe22 bbbe 4888 823e 4a6d c33d
00000340: 744f 6abe 6b24 69be 600f 1dbd e4fd 83be
00000350: d3c3 81bc 118e 89be 8fce 783d 8a2f 31be
00000360: ddda 21be 65e4 9abd a1eb 313d b868 06be
00000370: ece0 e73d 072a bb3d 9c52 1c3d dd6f 0abe
00000380: 624e 64bd 9a3f b7be 4817 9c3e 35ad d6bd
00000390: c1f4 b93d 8b4d 343d b2ae cb3c c044 45be
000003a0: 7e29 8d3d 61dd 23be bb3a bbbd 9278 193d
000003b0: dc5a aabc e627 a7bd de60 6c3d bc91 c5bc
000003c0: 62b1 adbc a326 413e c127 a13d fe39 803d
000003d0: 4be0 7cbd 1823 96be 4afe 02be 8846 0d3d
000003e0: b021 75be 1878 6c3b cb89 afbd 22b7 0e3d
000003f0: 362b e43b 9ad0 2ebe 65e6 1cbe 6c8f 2cbe

layer1_1vm.0.bias f4 [64]
0.0075229085 -0.013152112 0.0010909196 0.033909917 0.004806903 -0.047839276 -0.020628702 0.0089896275
0.0050271945 -0.008871246 -0.012617923 0.033330824 0.009586831 -0.017028198 0.00058198185 -0.015491676
-0.028173221 0.010493161 -0.024357444 0.032410704 0.005492847 -0.022414194 -0.023502693 -0.019913144
-0.027613549 -0.01192721 0.021485226 0.003252448 0.02933193 0.026225023 -0.0010231358 -0.0032547389
0.009252902 0.0041379835 -0.008671388 -0.00823047 -0.007304948 0.0015223548 0.003402281 0.04418772
-0.006897494 0.01757801 -0.0014524156 0.018823197 -0.027651858 -0.022474386 -0.016154338 0.002138629
-0.00548774 0.007146522 0.00015798007 -0.009103616 -0.021076225 0.025912184 -0.014085088 5.209807e-05
0.011472771 -0.021721715 0.001234799 -0.045971993 0.006358242 0.016902097 0.009688322 0.016482318
00000000: bb82 f63b f57b 57bc 30fd 8e3a 20e5 0a3d
00000010: 3a83 9d3b 1ef3 43bd 86fd a8bc 3b49 133c
00000020: 2abb a43b b458 11bc 68bb 4ebc e785 083d
00000030: 1512 1d3c b87e 8bbc 2490 183a ccd0 7dbc
00000040: 87cb e6bc 82eb 2b3c 4389 c7bc 16c1 043d
00000050: 57fd b33b f99d b7bc b888 c0bc e420 a3bc
00000060: cf35 e2bc 586a 43bc c901 b03c 0627 553b
00000070: 8449 f03c dcd5 d63c be1a 86ba 754d 55bb
00000080: 7c99 173c ec97 873b 7012 0ebc 18d9 06bc
00000090: 585e efbb c089 c73a cef8 5e3b 2ffe 343d
000000a0: 6004 e2bb c2ff 8f3c fb5e beba 1b33 9a3c
000000b0: 2686 e2bc 341c b8bc 1a56 84bc 3e28 0c3b
000000c0: 80d2 b3bb 5f2d ea3b 74a7 2539 5527 15bc
000000d0: 0ca8 acbc ca45 d43c 24c5 66bc e083 5a38
000000e0: 4af8 3b3c bdf1 b1bc fbd8 a13a 214d 3cbd
000000f0: cd58 d03b 4476 8a3c c5bb 1e3c ed05 873c

layer1_1vm.2.weight f4 [64]
1.022292 0.9885051 1.002067 1.0155213 1.0026498 1.031651 1.0177672 1.0094714
0.9822703 1.0109365 1.0340694 1.0275593 1.0084885 1.0340058 0.9671719 1.0077981
1.0285281 0.99839616 1.0164803 1.0163441 0.92581177 1.0034094 1.0228626 0.99586
1.015218 1.0191252 1.0289853 0.98730755 1.0184536 1.0130485 1.0525352 0.9871888
0.97968656 0.9942625 1.0437421 1.0216007 1.0318377 0.9675754 0.99464804 0.9946453
1.0232338 1.0133636 1.0192094 0.9752205 1.0095003 1.0059093 1.015584 0.9645707
1.0533675 0.960213 0.98755926 1.0032555 0.9751838 1.0061492 0.979791 1.0186557
1.0022908 1.0085586 0.9957957 1.0119262 1.0078557 1.0208027 0.98893875 0.99412346
00000000: 77da 823f ac0e 7d3f bb43 803f 9afc 813f
00000010: d456 803f 240d 843f 3246 823f 5c36 813f
00000020: 1176 7b3f 5e66 813f 635c 843f 1087 833f
00000030: 2716 813f 4d5a 843f 9498 773f 87ff 803f
00000040: cfa6 833f e496 7f3f 071c 823f 9017 823f
00000050: 0002 6d3f b86f 803f 29ed 823f aef0 7e3f
00000060: aaf2 813f b272 823f cab5 833f 30c0 7c3f
00000070: b05c 823f 93ab 813f 79b9 863f 68b8 7c3f
00000080: bdcc 7a3f fd87 7e3f 5799 853f d0c3 823f
00000090: 4213 843f 05b3 773f 41a1 7e3f 13a1 7e3f
000000a0: 53f9 823f e6b5 813f 7475 823f 0da8 793f
000000b0: 4e37 813f a3c1 803f a8fe 813f 1bee 763f
000000c0: bfd4 863f 85d0 753f afd0 7c3f ad6a 803f
000000d0: a5a5 793f 7fc9 803f 95d3 7a3f 4f63 823f
000000e0: 114b 803f 7318 813f 78ec 7e3f cc86 813f
000000f0: 6a01 813f aaa9 823f 172b 7d3f e07e 7e3f

layer1_1vm.2.bias f4 [64]
0.02609703 -0.007302532 0.0051697847 0.019838966 0.0051008705 0.017452547 0.014836271 0.0037720413
-0.020277668 0.011662755 0.031765837 0.024898794 0.00734977 0.036443137 -0.03758609 0.0056119342
0.028280422 -0.0016697545 0.015407259 0.027212087 -0.074691966 0.0032280183 0.019727489 -0.0032625336
0.0107374 0.020826431 0.029873947 -0.011072638 0.020346424 0.013817295 0.05462711 -0.010702528
-0.021043926 -0.008657917 0.044039104 0.021208903 0.03250768 -0.028521795 -0.0032445772 0.0021151563
0.02383898 0.021774136 0.02033613 -0.023570428 0.0046133045 0.010274768 0.016698005 -0.034834746
0.04338371 -0.035555217 -0.011276914 0.0062414026 -0.025669033 0.01872764 -0.018354682 0.020985592
0.0064678574 0.010425445 -0.0039647734 0.00046079094 0.011658529 0.024572631 -0.008879578 -0.0033964275
00000000: 70c9 d53c 144a efbb 4c67 a93b 5485 a23c
00000010: 3425 a73b a5f8 8e3c d513 733c 5a34 773b
00000020: 5a1d a6bc 2415 3f3c e51c 023d 8ef8 cb3c
00000030: 57d6 f03b 6645 153d dff3 19bd 51e4 b73b
00000040: 58ac e73c aadb daba ba6e 7c3c e2eb de3c
00000050: 1af8 98bd 298d 533b 8b9b a13c 3bd0 55bb
00000060: ebeb 2f3c 319c aa3c 35ba f43c 036a 35bc
00000070: 8bad a63c f061 623c adc0 5f3d a859 2fbc
00000080: 5064 acbc f0d9 0dbc 5962 343d 4bbe ad3c
00000090: c626 053d 8aa6 e9bc f9a2 54bb 6f9e 0a3b
000000a0: f749 c33c ac5f b23c f597 a63c c516 c1bc
000000b0: 342b 973b 8057 283c 41ca 883c e1ae 0ebd
000000c0: 1eb3 313d 59a2 11bd cec2 38bc ae84 cc3b
000000d0: dd47 d2bc b56a 993c 8f5c 96bc fae9 ab3c
000000e0: 52f0 d33b 7ccf 2a3c eeea 81bb 5096 f139
000000f0: 6a03 3f3c 8b4c c93c a67b 11bc 9996 5ebb

layer1_1vm.2.running_mean f4 [64]
1132.6221 -5498.614 -6137.393 10914.546 -2731.2344 3246.3865 -4039.437 7420.743
5422.255 -7603.2617 -18287.51 17643.49 -2436.5198 -3749.3113 -4478.6743 4390.2305
-6578.676 -11901.361 -4108.1597 8856.349 -23087.408 -6049.4937 176.39694 -3577.3127
5265.158 -3301.452 -1788.1383 -7047.3813 12503.546 9682.89 -8982.1875 5395.2363
5021.7363 -3556.9255 881.1827 -5518.0884 -11101.391 -25562.684 -2646.362 17771.518
-19834.578 6117.232 -10164.257 3991.1206 3169.6453 -6674.8545 -6904.013 -8328.338
964.3578 -3387.3333 -7485.9307 -8484.3125 -690.33075 6871.4424 -5466.214 -4004.0977
25775.848 6273.489 7680.5483 1743.962 10666.317 12893.344 -5406.222 -4478.025
00000000: e893 8d44 e9d4 abc5 25cb bfc5 2f8a 2a46
00000010: c0b3 2ac5 2fe6 4a45 fe76 7cc5 f2e5 e745
00000020: 0a72 a945 189a edc5 05df 8ec6 fbd6 8946
00000030: 5148 18c5 fb54 6ac5 65f5 8bc5 d831 8945
00000040: 6895 cdc5 72f5 39c6 4761 80c5 6561 0a46
00000050: d15e b4c6 f30b bdc5 9e65 3043 0195 5fc5
00000060: 4489 a445 3b57 4ec5 6d84 dfc4 0d3b dcc5
00000070: 2f5e 4346 8f4b 1746 c058 0cc6 e499 a845
00000080: e4ed 9c45 cf4e 5ec5 b14b 5c44 b570 acc5
00000090: 9075 2dc6 5eb5 c7c6 cb65 25c5 09d7 8a46
000000a0: 28f5 9ac6 db29 bf45 07d1 1ec6 ee71 7945
000000b0: 531a 4645 d696 d0c5 1bc0 d7c5 5a21 02c6
000000c0: e616 7144 55b5 53c5 72ef e9c5 4091 04c6
000000d0: 2b95 2cc4 8abb d645 b6d1 aac5 9041 7ac5
000000e0: b25f c946 e90b c445 6304 f045 c9fe d944
000000f0: 45a9 2646 6075 4946 c7f1 a8c5 33f0 8bc5

layer1_1vm.2.running_var f4 [64]
597578.2 7.7893355e+06 9.66646e+06 3.1070684e+07 2.3637268e+06 3.096484e+06 4.842922e+06 1.3895894e+07
8.2221635e+06 1.4551648e+07 7.7768376e+07 7.14261e+07 1.5089284e+06 3.874896e+06 5.5207085e+06 5.9995565e+06
1.0210032e+07 3.7651176e+07 3.7300172e+06 1.960035e+07 1.3047676e+08 1.0728578e+07 239317.14 3.090532e+06
8.0547685e+06 3.199789e+06 1.325412e+06 1.2082571e+07 4.0426016e+07 2.4371912e+07 1.9977836e+07 7.8446885e+06
6.644432e+06 3.3002782e+06 732256.06 7.7531795e+06 3.236219e+07 1.7535309e+08 1.9630084e+06 8.357211e+07
8.786882e+07 8.930497e+06 2.7803608e+07 3.8527425e+06 3.1910922e+06 1.1865773e+07 1.1321665e+07 1.835912e+07
1.0187812e+06 3.421073e+06 1.4548707e+07 1.82732e+07 321293.62 1.0647738e+07 7.928132e+06 4.731433e+06
1.6517314e+08 1.0448406e+07 1.5047786e+07 1.2552888e+06 2.6755064e+07 4.017887e+07 7.7838885e+06 5.2482445e+06
00000000: a3e4 1149 2fb6 ed4a 9c7f 134b ee0c ed4b
00000010: 3b45 104a 90fe 3c4a 54cb 934a d608 544b
00000020: a7eb fa4a 600a 5e4b d754 944c 063c 884c
00000030: 0332 b849 4081 6c4a 897a a84a 8917 b74a
00000040: f0ca 1b4b baa0 0f4c 85a9 634a ef89 954b
00000050: 5bdd f84c 82b4 234b 49b5 6948 90a1 3c4a
00000060: e1cf f54a b44c 434a 20cb a149 8b5d 384b
00000070: 8836 1a4c 64f1 b94b 366b 984b a166 ef4a
00000080: a0c5 ca4a d96e 494a 01c6 3249 b79b ec4a
00000090: 67e7 f64b d03a 274d 03a0 ef49 b266 9f4c
000000a0: b298 a74c c144 084b ec1f d44b 1a27 6b4a
000000b0: d1c4 424a ad0e 354b 41c1 2c4b a811 8c4b
000000c0: d3b9 7849 44ce 504a e3fe 5d4b d869 8b4b
000000d0: b4e1 9c48 ba78 224b 88f2 f14a 5264 904a
000000e0: 7985 1d4d 166e 1f4b 6a9c 654b c63b 9949
000000f0: fc1f cc4b 2e45 194c a18b ed4a e929 a04a

layer1_2vm.0.weight f4 [32, 64]
-0.13361588 0.059501182 -0.10399819 -0.01745503 0.031171383 -0.05123724 0.041615736 0.030448193
-0.11613049 -0.20762216 -0.027642842 -0.13842568 -0.014822899 -0.16335078 0.12644479 -0.0031587793
0.17990121 -0.084695965 0.18374199 -0.16115192 0.18203992 -0.22125056 -0.15296644 0.09518593
0.27294374 0.004985051 0.17613286 0.39375666 0.16431576 -0.25976726 0.106959276 -0.009398089
0.0062372796 0.076121554 0.30442786 0.053809058 -0.20039687 0.024920043 0.13306756 0.22752562
0.02821717 0.27264857 0.20278199 0.031574335 0.15056297 0.035744406 0.122461975 -0.07626177
-0.18954197 0.14822735 -0.018113026 -0.15887688 -0.06443669 -0.10713291 -0.05301074 0.29498753
0.08048105 -0.013112224 -0.014685858 -0.078073785 -0.07195567 -0.049093496 0.32569674 -0.14138198
-0.10288313 -0.068098724 -0.059698522 -0.242611 -0.24839884 0.18017282 -0.13313925 0.058683682
-0.08194491 -0.061306234 -0.4847391 0.00021960493 -0.21470109 -0.045323584 0.051104605 0.19395444
-0.32107532 -0.09972096 0.03485744 -0.031430863 -0.010040596 0.18598694 -0.16183512 0.22629155
-0.04627579 0.060130067 -0.038830534 -0.086088285 -0.06192374 -0.14057168 -0.12900572 -0.16504194
-0.17559081 0.19303544 0.15794353 0.028675718 -0.19184472 -0.03285298 0.061496273 0.21546689
-0.39779457 -0.09901844 0.09060127 -0.07196906 0.0018097821 0.035611887 -0.25539958 0.080869295
0.110810935 0.022220993 -0.18448117 0.03395832 0.033979587 0.11179154 -0.030379921 0.017751733
-0.0074034003 0.03300657 0.1846607 0.104447395 0.15455778 -0.037542753 0.0620011 -0.13259347
-0.11552884 -0.02466176 0.08504722 0.267968 0.093990214 -0.13231444 -0.025948636 0.09886656
-0.03196964 0.23797491 -0.45005116 0.077610604 -0.047299713 -0.2178769 0.14200048 0.14499468
0.065946214 0.26956248 0.09253591 0.13300648 -0.09195445 -0.11539484 0.3501844 0.09223476
-0.18329781 0.24262837 -0.012994861 -0.042101946 -0.08205019 -0.00163987 -0.17995329 0.014672278
-0.0759896 -0.16631898 0.011547759 -0.07683729 -0.22337772 0.012380471 -0.15918171 0.07240888
0.15733652 0.042297672 0.099454135 -0.13449349 -0.06282228 -0.022622878 0.19433375 -0.075549215
0.10063159 0.06558175 -0.122573666 -0.25049567 -0.029917162 0.035760827 0.18307175 -0.05988726
-0.0019309383 0.1060653 -0.17977709 0.1977816 -0.028060826 -0.086414814 0.00079217635 0.1177799
0.22261684 -0.14305195 -0.014479609 -0.11659752 -0.016301224 -0.1303002 0.15905532 -0.083229534
-0.1558324 -0.15418534 -0.28575408 -0.03062126 0.013379212 -0.25465184 -0.08807781 -0.086621836
-0.11430672 -0.04330394 -0.03332835 -0.18426326 0.10343762 -0.058441557 -0.119538456 0.13103247
-0.045844667 -0.14249463 -0.0254404 0.12297007 -0.244697 -0.28035024 0.11459102 -0.034174375
0.33822638 0.056402773 -0.1698432 -0.16336724 -0.044500917 0.023297708 -0.27746528 -0.17835249
-0.13939385 0.04185484 -0.13733128 0.124474466 0.15847081 -0.15648314 0.12072575 0.21118717
-0.10923217 0.06017255 0.1552028 -0.21473607 0.08493607 -0.39986217 0.0018227473 0.0433508
0.072232485 -0.03764452 0.108729534 -0.17368327 0.07244837 -0.076814756 -0.26813006 -0.12040369
00000000: 9ad2 08be 83b7 733d 01fd d4bd dafd 8ebc
00000010: 215b ff3c 24de 51bd 4375 2a3d 7d6e f93c
00000020: d3d5 edbd e79a 54be 3e73 e2bc 76bf 0dbe
00000030: bfdb 72bc 6d45 27be be7a 013e 8603 4fbb
00000040: 0638 383e 1475 adbd dc26 3c3e 0205 25be
00000050: ac68 3a3e 828f 62be 3ca3 1cbe d7f0 c23d
00000060: 48bf 8b3e a459 a33b 2c5c 343e 799a c93e
00000070: 6442 283e 3700 85be 770d db3d 71fa 19bc
00000080: 1862 cc3b 9ee5 9b3d f8dd 9b3e e366 5c3d
00000090: d634 4dbe 1e25 cc3c dd42 083e 7afc 683e
000000a0: b227 e73c 9898 8b3e 15a6 4f3e 1754 013d
000000b0: 2e2d 1a3e ba68 123d 58cd fa3d 222f 9cbd
000000c0: 4a17 42be e9c8 173e c561 94bc 9fb0 22be
000000d0: 62f7 83bd 8068 dbbd ca21 59bd 9b08 973e
000000e0: 40d3 a43d a7d4 56bc f49c 70bc 26e5 9fbd
000000f0: 7f5d 93bd 4316 49bd b9c1 a63e 70c6 10be
00000100: 64b4 d2bd 5877 8bbd 7086 74bd 056f 78be
00000110: 445c 7ebe 397f 383e a855 08be 4d5e 703d
00000120: bcd2 a7bd 3f1c 7bbd b92f f8be c045 6639
00000130: 9ada 5bbe 39a5 39bd 1053 513d fe9b 463e
00000140: fc63 a4be 813a ccbd adc6 0e3d a6bd 00bd
00000150: 5081 24bc 5c73 3e3e 1bb8 25be f9b8 673e
00000160: af8b 3dbd f24a 763d c40c 1fbd 0e4f b0bd
00000170: bfa3 7dbd 06f2 0fbe 131a 04be c100 29be
00000180: 14ce 33be 15ab 453e f3bb 213e 57e9 ea3c
00000190: f172 44be d990 06bd 84e3 7b3d 5aa3 5c3e
000001a0: bbab cbbe 2eca cabd 298d b93d 8464 93bd
000001b0: 3636 ed3a c5dd 113d bcc3 82be cd9e a53d
000001c0: d8f0 e23d cd08 b63c a2e8 3cbe e117 0b3d
000001d0: 2e2e 0b3d f7f2 e43d 50df f8bc 156c 913c
000001e0: 3998 f2bb e631 073d b217 3d3e 84e8 d53d
000001f0: 6544 1e3e 6ec6 19bd def4 7d3d 95c6 07be
00000200: 629a ecbd 7607 cabc 3d2d ae3d 1a33 893e
00000210: f17d c03d 707d 07be 3c92 d4bc 8d7a ca3d
00000220: 99f2 02bd b2af 733e 1b6d e6be 4ff2 9e3d
00000230: 58bd 41bd 1f1b 5fbe 9368 113e 7c79 143e
00000240: cf0e 873d 1804 8a3e 7883 bd3d da32 083e
00000250: 9d52 bcbd 2154 ecbd 5f4b b33e 94e5 bc3d
00000260: 6cb2 3bbe 9273 783e 66e8 54bc 1773 2cbd
00000270: ee09 a8bd e8f0 d6ba ad45 38be ff63 703c
00000280: 6fa0 9bbd 864f 2abe d032 3d3c de5c 9dbd
00000290: 21bd 64be 76d7 4a3c 8800 23be 1b4b 943d
000002a0: d31c 213e 5340 2d3d 9cae cb3d a9b8 09be
000002b0: f8a8 80bd 9d53 b9bc 6dff 463e 8cb9 9abd
000002c0: ef17 ce3d b94f 863d e707 fbbd f840 80be
000002d0: d614 f5bc f279 123d 2977 3b3e 584c 75bd
000002e0: 8a17 fdba c438 d93d 7c17 38be 4287 4a3e
000002f0: d1df e5bc 40fa b0bd 0eaa 4f3a 9736 f13d
00000300: abf5 633e 367c 12be e23b 6dbc aeca eebd
00000310: 258a 85bc 6a6d 05be 66df 223e 3f74 aabd
00000320: 8792 1fbe c3e2 1dbe 5c4e 92be 70d9 fabc
00000330: 7b34 5b3c ba61 82be 2462 b4bd ca66 b1bd
00000340: a419 eabd 795f 31bd 4f83 08bd 82af 3cbe
00000350: 1ad7 d33d 6a60 6fbd 94d0 f4bd 602d 063e
00000360: 9ec7 3bbd 1dea 11be 6368 d0bc bbd7 fb3d
00000370: da91 7abe 118a 8fbe b2ae ea3d 6efa 0bbd
00000380: 022c ad3e 9806 673d 60eb 2dbe be49 27be
00000390: 9846 36bd d6da be3c ee0f 8ebe 09a2 36be
000003a0: 43bd 0ebe fb6f 2b3d 92a0 0cbe 78ec fe3d
000003b0: 2c46 223e 1e3d 20be 103f f73d 7341 583e
000003c0: 1eb5 dfbd 7e77 763d 7ced 1e3e c6e3 5bbe
000003d0: f6f2 ad3d bcba ccbe 40e9 ee3a 9c90 313d
000003e0: a0ee 933d 2431 1abd 97ad de3d 07da 31be
000003f0: d05f 943d 0e51 9dbd 5848 89be 3696 f6bd

layer1_2vm.0.bias f4 [32]
0.06798243 -0.015092307 -0.027904358 -0.027277963 -0.02111077 0.013530205 0.08303854 0.007951869
0.07987473 -0.009898769 0.023229562 0.01327082 -0.016477415 0.054000404 0.0016923072 0.005562297
-0.030085046 -0.012458408 -0.019485755 0.009985729 0.06629813 0.03859136 -4.9342343e-05 -0.0068888906
-0.01439852 0.058039963 -0.10214711 0.04306232 0.055215154 0.11698797 0.030843308 -0.035184424
00000000: 5f3a 8b3d b945 77bc ae97 e4bc 0976 dfbc
00000010: 7ef0 acbc cbad 5d3c 1c10 aa3d 8e48 023c
00000020: 5d95 a33d 722e 22bc ec4b be3c da6d 593c
00000030: a5fb 86bc 872f 5d3d 68d0 dd3a ee43 b63b
00000040: ea74 f6bc 5a1e 4cbc 97a0 9fbc 2f9b 233c
00000050: 50c7 873d f911 1e3d f0f4 4eb8 34bc e1bb
00000060: c5e7 6bbc 50bb 6d3d 8132 d1bd 1e62 303d
00000070: 4929 623d 6497 ef3d 1bab fc3c 8b1d 10bd

layer1_2vm.2.weight f4 [32]
1.0901935 0.9607507 0.98531157 1.0257056 0.9980359 1.0943589 1.0213931 0.96553963
1.0272115 1.0268427 1.0726111 1.0128034 1.008489 1.0128864 0.9672024 1.0058933
1.010234 1.0073497 1.0696236 1.0413504 1.0179341 1.0277977 0.9368368 0.9673844
0.9988293 1.0177952 0.9022926 1.0442692 0.9738988 0.9833269 1.0311801 1.0516897
00000000: 768b 8b3f c2f3 753f 613d 7c3f 524a 833f
00000010: 487f 7f3f f413 8c3f 02bd 823f 9b2d 773f
00000020: ab7b 833f 956f 833f 524b 893f 8ba3 813f
00000030: 2b16 813f 43a6 813f 949a 773f 1dc1 803f
00000040: 594f 813f d6f0 803f 6de9 883f f84a 853f
00000050: aa4b 823f e08e 833f 89d4 6f3f 81a6 773f
00000060: 47b3 7f3f 1d47 823f a6fc 663f 9daa 853f
00000070: 6f51 793f 50bb 7b3f b6fd 833f c59d 863f

layer1_2vm.2.bias f4 [32]
0.10415474 0.032475922 -0.042882066 0.03278608 -0.045705024 0.005112745 0.0704561 0.07347118
0.08813245 0.06937465 0.062040787 0.013233613 -0.031000959 0.07863702 -0.036596507 -0.0076398393
-0.018031687 -0.008484423 0.08177613 0.058703654 0.04970288 0.020662574 -0.05602759 -0.02159547
-0.010077079 0.05746081 -0.11581453 0.08006172 0.021990186 0.06926907 0.04147559 0.10946366
00000000: 154f d53d 7905 053d 1ba5 2fbd b24a 063d
00000010: 3135 3bbd d088 a73b 4a4b 903d 0f78 963d
00000020: c97e b43d 4c14 8e3d 7b1e 7e3d ccd1 583c
00000030: b9f5 fdbc 720c a13d 38e6 15bd 9e57 fabb
00000040: 30b7 93bc 4002 0bbc 3e7a a73d 3e73 703d
00000050: 3f95 4b3d 8f44 a93c 307d 65bd fce8 b0bc
00000060: 551a 25bc 075c 6b3d 2b30 edbd 66f7 a33d
00000070: c324 b43c f1dc 8d3d 4fe2 293d 7c2e e03d

layer1_2vm.2.running_mean f4 [32]
0.6122589 -0.7834756 0.12915632 -1.1697569 0.1122252 0.14882809 0.597342 -0.5257859
0.19045122 -0.34914923 0.5094775 0.2533173 0.15344903 0.48612034 -0.03368599 0.76995873
0.56200254 -0.1267038 -0.9241372 -1.0030783 0.52363914 0.31348968 -0.6619168 0.67436963
0.40500933 0.29699087 0.16002639 0.64997303 0.48987076 0.46055606 0.35624027 -0.95869744
00000000: 00bd 1c3f db91 48bf 8e41 043e 98ba 95bf
00000010: 53d6 e53d 6466 183e 68eb 183f e899 06bf
00000020: a505 433e b0c3 b2be 1e6d 023f ceb2 813e
00000030: be21 1d3e c4e4 f83e 52fa 09bd 041c 453f
00000040: 66df 0f3f a4be 01be 4194 6cbf df64 80bf
00000050: 370d 063f b881 a03e 6173 29bf 7da3 2c3f
00000060: 625d cf3e 300f 983e f5dd 233e a264 263f
00000070: 57d0 fa3e 01ce eb3e 2065 b63e 326d 75bf

layer1_2vm.2.running_var f4 [32]
0.83265954 1.218624 0.8421019 1.0192329 0.7571867 0.51694053 0.9733254 0.6470544
0.7628034 0.5719681 0.7041784 0.5203617 0.524818 1.0589718 0.49695802 0.6597025
0.79514605 0.9184183 0.71623886 0.8900054 0.7362655 0.765214 0.64253926 0.76900613
0.61598265 0.7373904 0.5336518 0.7770419 0.6967621 0.7149372 0.58314633 0.7791288
00000000: 2d29 553f dffb 9b3f fd93 573f 3976 823f
00000010: fdd6 413f 3756 043f da2b 793f 5ba5 253f
00000020: 1547 433f 806c 123f 0945 343f 6d36 053f
00000030: 795a 063f 638c 873f 4871 fe3e 43e2 283f
00000040: b18e 4b3f 761d 6b3f 6e5b 373f 65d7 633f
00000050: e57b 3c3f 11e5 433f 747d 243f 96dd 443f
00000060: 0ab1 1d3f 9ec5 3c3f 689d 083f 38ec 463f
00000070: 005f 323f 2006 373f 1449 153f fc74 473f

layer2.0.weight f4 [32, 64]
0.1337575 0.04692805 -0.14924714 -0.3101246 -0.11917789 -0.1351812 -0.19211346 -0.057354644
-0.105037466 -0.20684806 -0.066586405 0.32553354 0.2984352 -0.105085395 0.22899155 -0.09765002
-0.09660793 0.041536078 -0.066395484 0.11904079 -0.29077223 0.052864004 0.025540963 -0.11289738
0.09381983 -0.19553289 -0.2301832 -0.21089327 -0.04300552 -0.2150356 -0.21013202 -0.082178906
-0.007050694 -0.25530297 0.05759921 0.031539347 0.14469512 0.12319545 -0.29622254 -0.22840944
0.07899933 -0.18373767 0.09663268 0.04888521 0.07970831 -0.15047665 -0.21781696 0.24962197
-0.15912601 -0.2031875 -0.055772047 0.06481719 -0.106809 -0.2177826 0.13907433 -0.0057574296
-0.02773313 0.10584795 0.018087637 -0.11617298 0.12091052 -0.11791718 0.1991887 0.053984925
0.08974124 -0.022085838 -0.29998437 0.087323174 0.0087375995 0.15965857 0.21067871 0.34905455
-0.05235615 0.11132051 -0.15568855 -0.052276142 0.018165005 0.069727674 0.05083433 -0.14233246
0.025553882 0.09107289 0.061375424 0.19208243 0.32499567 -0.065231785 0.02410094 -0.11866076
-0.07729395 0.08483232 0.109555975 0.18954262 0.09951961 0.036247738 0.08954729 -0.07561384
0.14046523 -0.018302578 0.05157462 -0.10656966 0.049400672 0.112804994 0.14099187 0.12381949
0.07895541 -0.00063779927 0.1597527 -0.08518687 -0.2760665 -0.0135398805 -0.04902173 -0.060047213
-0.16055979 0.038348418 0.19779687 -0.03781923 0.22437106 0.21200797 -0.034469508 0.17375328
-0.017082393 0.074645646 -0.078747615 -0.1558176 0.0111401025 0.29397687 -0.11148806 0.079313755
-0.049295947 0.054656878 -0.10493206 -0.10357937 0.023032403 0.02381154 0.045586627 0.021567348
-0.24626273 0.18472289 0.15783343 -0.12693608 -0.12568568 0.08232759 -0.04344016 0.012948433
0.18086869 0.07075885 0.045157425 0.13040853 -0.03125462 -0.017813604 0.20118143 0.15333208
0.008805502 -0.086941525 0.090845846 0.27317697 -0.19671242 0.066677906 0.21400489 -0.01062758
-0.14395915 -0.07290566 -0.06485784 0.18965867 0.2105206 0.11261282 0.15027313 -0.052216556
-0.17096622 0.093612336 -0.19968547 0.12335403 0.28814813 0.15353888 0.17358567 0.034156993
-0.05578278 -0.08022631 0.078639805 0.19737221 -0.080722086 0.071218565 -0.19844045 -0.011532564
0.284023 -0.071882494 0.2227766 0.044128876 -0.13174784 -0.1165047 0.0739721 -0.25333682
0.058439884 -0.03199745 0.110343635 0.16709122 -0.09213332 0.13147768 -0.018352952 -0.037767556
0.00944251 0.0652231 -0.1074379 0.13753365 -0.03613428 0.16746755 0.081208795 0.091535725
0.2636968 -0.09226608 -0.05901722 -0.030718252 0.14112283 0.0023186014 -0.07650254 0.123997524
-0.07598495 0.12507966 -0.046796586 -0.08576612 0.08187291 -0.21194565 0.060488157 0.16273864
0.03359552 0.04876696 0.109706536 -0.18916377 0.17983407 -0.063733816 0.20657943 0.08220627
-0.07000956 0.1745186 0.009839057 -0.055869 -0.15301305 -0.06371531 -0.02071491 -0.082038224
0.12926006 0.20773871 -0.06569803 -0.39904982 0.22417077 0.2122952 0.103877656 0.2083595
0.16176929 -0.1037381 0.3283478 -0.08750287 -0.014033655 0.047776878 0.06968311 -0.058755755
00000000: baf7 083e a137 403d 3ed4 18be a7c8 9ebe
00000010: 8a13 f4bd f16c 0abe 64b9 44be b4ec 6abd
00000020: e21d d7bd facf 53be 745e 88bd 55ac a63e
00000030: 80cc 983e 0337 d7bd c37c 6a3e bcfc c7bd
00000040: 61da c5bd bc21 2a3d 5bfa 87bd a8cb f33d
00000050: 19e0 94be ed87 583d 483b d13c be36 e7bd
00000060: 9c24 c03d c639 48be 25b5 6bbe 68f4 57be
00000070: 8e26 30bd 4b32 5cbe d92c 57be 6a4d a8bd
00000080: 8209 e7bb 12b7 82be 26ed 6b3d 672f 013d
00000090: f52a 143e e54d fc3d 7baa 97be 2ae4 69be
000000a0: 67ca a13d ba25 3cbe 5be7 c53d dc3b 483d
000000b0: 1c3e a33d 8d16 1abe 690b 5fbe e79c 7f3e
000000c0: eef1 22be 6210 50be 3b71 64bd e0be 843d
000000d0: adbe dabd 6702 5fbe 8069 0e3e d2a8 bcbb
000000e0: 9730 e3bc cfc6 d83d 862c 943c 19ec edbd
000000f0: ef9f f73d 907e f1bd 1ff8 4b3e 4c1f 5d3d
00000100: 41ca b73d 5ced b4bc 8d97 99be 7ed6 b23d
00000110: 2628 0f3c 897d 233e 29bc 573e 47b7 b23e
00000120: 6773 56bd 02fc e33d d26c 1fbe 821f 56bd
00000130: c7ce 943c 62cd 8e3d a937 503d 9abf 11be
00000140: 6056 d13c 6c84 ba3d cc64 7b3d 42b1 443e
00000150: d565 a63e 3e98 85bd 566f c53c 6a04 f3bd
00000160: 4a4c 9ebd 91bc ad3d e25e e03d 7617 423e
00000170: f0d0 cb3d 8278 143d 9264 b73d 6edb 9abd
00000180: 1ed6 0f3e 4aef 95bc e93f 533d 3241 dabd
00000190: 5c58 4a3d 4e06 e73d 2c60 103e 1395 fd3d
000001a0: 60b3 a13d fc31 27ba 3696 233e 7476 aebd
000001b0: 9758 8dbe 60d6 5dbc 02cb 48bd 11f4 75bd
000001c0: c969 24be 3b13 1d3d 438b 4a3e 56e8 1abd
000001d0: 87c1 653e 9e18 593e e62f 0dbd 61ec 313e
000001e0: 60f0 8bbc d1df 983d 6e46 a1bd a68e 1fbe
000001f0: fa84 363c 2384 963e da53 e4bd 406f a23d
00000200: 8cea 49bd e4df 5f3d 9fe6 d6bd 6c21 d4bd
00000210: 73ae bc3c 6b10 c33c 0bb9 3a3d 02ae b03c
00000220: 4c2c 7cbe ff27 3d3e 169f 213e 88fb 01be
00000230: bfb3 00be 5e9b a83d 4fee 31bd aa25 543c
00000240: a435 393e 04ea 903d fef6 383d d089 053e
00000250: d804 00bd d6ed 91bc 8102 4e3e 1603 1d3e
00000260: f444 103c 660e b2bd 630d ba3d dadd 8b3e
00000270: fb6e 49be 6d8e 883d 1924 5b3e 4d1f 2ebc
00000280: 076a 13be 904f 95bd 30d4 84bd e235 423e
00000290: b692 573e 8da1 e63d 33e1 193e 07e1 55bd
000002a0: c511 2fbe d3b7 bf3d 597a 4cbe 0aa1 fc3d
000002b0: 2788 933e 4c39 1d3e 71c0 313e 34e8 0b3d
000002c0: 7c7c 64bd b14d a4bd e80d a13d f11b 4a3e
000002d0: 9f51 a5bd 0adb 913d f933 4bbe 14f3 3cbc
000002e0: 766b 913e 2137 93bd 8d1f 643e 7bc0 343d
000002f0: e8e8 06be 049a eebd af7e 973d 5db5 81be
00000300: a95e 6f3d c20f 03bd d8fb e13d f619 2b3e
00000310: 65b0 bcbd 16a2 063e ee58 96bc 27b2 1abd
00000320: c2b4 1a3c b093 853d 6708 dcbd 9fd5 0c3e
00000330: 8a01 14bd 9d7c 2b3e cc50 a63d 1577 bb3d
00000340: 4403 873e 00f6 bcbd 0abc 71bd d8a4 fbbc
00000350: 8182 103e adf3 173b 5dad 9cbd 6af2 fd3d
00000360: ff9d 9bbd e214 003e c7ad 3fbd 26a6 afbd
00000370: fcac a73d 4808 59be 6ec2 773d f5a4 263e
00000380: 759b 093d ddbf 473d d2ad e03d 26b4 41be
00000390: 6c26 383e e086 82bd 8f89 533e c35b a83d
000003a0: 2c61 8fbd 01b5 323e ff33 213c e4d6 64bd
000003b0: 74af 1cbe 2c7d 82bd 51b2 a9bc a803 a8bd
000003c0: c05c 043e 75b9 543e b08c 86bd 4250 ccbe
000003d0: 068d 653e ea63 593e cfbd d43d 315c 553e
000003e0: d9a6 253e a474 d4bd 341d a83e b434 b3bd
000003f0: 6aed 65bc b0b1 433d 05b6 8e3d e0a9 70bd

layer2.0.bias f4 [32]
0.062323377 0.4322579 0.26790845 0.35908562 0.29242846 0.16062911 0.11755352 0.28242138
0.35205403 0.12689927 0.08212882 0.46321094 -0.09924698 -0.1455654 0.05514607 0.2553148
0.49333766 0.46484417 0.4567385 0.07281796 -0.00095243426 0.094849125 -0.15251353 -0.070394866
-0.02683245 0.082612135 0.24637856 0.045490388 -0.06390195 0.06520542 0.15376462 0.12008746
00000000: cc46 7f3d e850 dd3e 4c2b 893e 12da b73e
00000010: 2fb9 953e f57b 243e e6bf f03d 8999 903e
00000020: 6d40 b43e e2f1 013e 2833 a83d fc29 ed3e
00000030: 0042 cbbd 190f 15be d8e0 613d 9fb8 823e
00000040: c196 fc3e 0e00 ee3e a1d9 e93e 9521 953d
00000050: c8ac 79ba 4240 c23d 822c 1cbe 2f2b 90bd
00000060: bacf dbbc 8d30 a93d a94a 7c3e 2154 3a3d
00000070: 07df 82bd 6b8a 853d 7974 1d3e 6af0 f53d

layer2.2.weight f4 [32]
1.2767644 1.5552088 1.3370426 1.4567105 1.3328027 1.5810492 1.5823282 1.066008
1.3982712 1.5963064 1.60935 1.5178607 0.60966694 0.4538534 1.546094 1.2024151
1.5571678 1.5508839 1.531282 1.37761 1.2791716 1.5902021 1.028865 1.2212957
1.0765318 1.5963085 0.60644156 0.7084783 0.8119575 1.576624 0.6590414 1.608022
00000000: 046d a33f 1511 c73f 3624 ab3f 7d75 ba3f
00000010: 4799 aa3f d25f ca3f bb89 ca3f f372 883f
00000020: 8dfa b23f c553 cc3f 2eff cd3f 4249 c23f
00000030: 2213 1c3f 795f e83e 68e6 c53f bde8 993f
00000040: 4651 c73f 5d83 c63f 0c01 c43f 8655 b03f
00000050: e5bb a33f be8b cb3f d9b1 833f 6b53 9c3f
00000060: cbcb 893f d653 cc3f c13f 1b3f d55e 353f
00000070: 72dc 4f3f d1ce c93f f0b6 283f aad3 cd3f

layer2.2.bias f4 [32]
0.2800004 0.6119504 0.363082 0.47709554 0.38428423 0.60108256 0.6172446 0.084890425
0.4421617 0.6161871 0.62407786 0.57524997 -0.38780522 -0.5668071 0.57731956 0.24114025
0.6068033 0.59142053 0.57821625 0.40157768 0.30161053 0.6181499 0.029814286 0.23062378
0.09071165 0.61268264 -0.39164153 -0.29985023 -0.18571573 0.6094784 -0.34515953 0.63028836
00000000: 365c 8f3e c8a8 1c3f e2e5 b93e de45 f43e
00000010: e7c0 c43e 8ce0 193f be03 1e3f 08db ad3d
00000020: 0563 e23e 70be 1d3f 91c3 1f3f 9543 133f
00000030: 688e c6be 451a 11bf 37cb 133f 78ed 763e
00000040: 7657 1b3f 5667 173f fb05 143f 979b cd3e
00000050: b26c 9a3e 123f 1e3f 173d f43c a428 6c3e
00000060: 08c7 b93d c5d8 1c3f 3d85 c8be f885 99be
00000070: 442c 3ebe c706 1c3f c0b8 b0be 945a 213f

layer2.2.running_mean f4 [32]
-0.9870322 1.4360126 0.87177527 1.0869286 1.0408753 -0.6275005 -0.71633357 0.8211845
1.1353331 -0.675855 -0.6882929 1.5449911 -0.8163298 -0.75981754 -0.63988197 0.7421703
1.8257058 1.3566363 1.3839921 -0.9066804 -0.796905 -0.7991123 -0.9620695 -0.9465127
-0.9066327 -0.6506637 2.6457398 -0.37055638 -0.7461804 -0.6246742 2.049887 -0.83279663
00000000: 24ae 7cbf 43cf b73f aa2c 5f3f 7a20 8b3f
00000010: 673b 853f dfa3 20bf a361 37bf 2639 523f
00000020: 9852 913f d504 2dbf f733 30bf 45c2 c53f
00000030: fdfa 50bf 6783 42bf 4ecf 23bf dffe 3d3f
00000040: bab0 e93f 42a6 ad3f a726 b13f 351c 68bf
00000050: f701 4cbf a092 4cbf 304a 76bf a84e 72bf
00000060: 1519 68bf e591 26bf cd53 2940 91b9 bdbe
00000070: ae05 3fbf a6ea 1fbf 5931 0340 2932 55bf

layer2.2.running_var f4 [32]
0.991224 1.0638152 0.71920323 0.8069507 0.80330503 0.6768996 0.9034084 1.9764705
0.81515765 0.82076216 0.7409103 1.1968348 0.8353365 1.0106155 0.5646877 0.63121384
1.6988175 0.851645 1.0393019 0.93980104 0.6818903 0.8550096 3.1718538 0.8213352
0.9252042 0.7311579 3.2400713 2.2499938 0.8181443 0.75768274 2.9754722 0.9583228
00000000: dbc0 7d3f 192b 883f b41d 383f 5294 4e3f
00000010: 66a5 4d3f 4b49 2d3f c645 673f fcfc fc3f
00000020: 2cae 503f 781d 523f 4cac 3d3f e231 993f
00000030: 9dd8 553f d95b 813f 608f 103f 3b97 213f
00000040: da72 d93f 6805 5a3f d807 853f cd96 703f
00000050: 5d90 2e3f e9e1 5a3f a7ff 4a40 0643 523f
00000060: 2fda 6c3f 2a2d 3b3f 545d 4f40 e6ff 0f40
00000070: e871 513f 7ff7 413f 236e 3e40 a554 753f

fc_advantage.0.weight f4 [20, 32]
0.19618452 -0.51867086 -0.17137888 -0.31007305 -0.48067236 -0.48407963 -0.43757683 -0.41620204
-0.47292793 0.20683351 -0.39171368 -0.20192257 -0.20918302 -0.15989943 -0.3585033 -0.5697285
-0.28129023 -0.38470364 0.08211812 -0.12254906 -0.30735302 -0.30172366 -0.15640213 -0.2866078
-0.42555866 0.08627754 -0.069620885 -0.3238554 -0.09670277 0.05419609 -0.44201607 -0.21975584
-0.47157806 -0.7186222 -0.48832932 -0.46805662 -0.6041538 -0.47013465 -0.6759666 -0.22176428
-0.4358057 -0.44562513 -0.872264 -0.19271515 -0.46525738 -0.39173955 -0.9159948 -0.441553
-0.70193076 -0.43449256 -0.5133595 -0.20169844 -0.89410776 -0.3822538 -0.5052389 -0.46365088
-0.5819137 -0.7254254 -0.3710173 -0.25920343 -0.34265828 -0.41407594 -0.76975745 -0.63218397
-0.09999917 -0.33850658 -0.40070686 -0.3543941 -0.042112224 -0.22962295 -0.17698418 -0.7641458
-0.41386732 -0.47077182 -0.14156516 -0.23713553 -0.33099017 -0.36117524 -0.47769606 -0.07830018
-0.2835361 -0.23164432 -0.8589136 -0.35930678 -0.38664544 -0.5216971 -0.13582025 -0.27410606
-0.13972783 -0.42193007 -0.35911995 -0.16867535 -0.38629478 -0.14836201 -0.49927554 -0.3297936
-0.3228209 -0.4245904 -0.371913 -0.5429346 -0.14387074 -0.26363114 -0.40184575 -0.49284428
-0.43678942 -0.39641884 -0.5260397 -0.3758971 -0.4302922 -0.5095962 -0.6664907 -0.5038032
-0.5504253 -0.56576264 -0.45452842 -0.46989444 -0.29968235 -0.3133623 -0.77753717 -0.48138264
-0.24211338 -0.34032443 -0.08315916 -0.16211624 -0.68949556 -0.32431972 -0.45945516 -0.39816365
-0.14438792 -0.5075517 -0.782096 -0.31083387 -0.28006244 -0.56675166 -0.22063452 -0.53902143
-0.4516496 0.019863524 -0.55118805 -0.6266846 -0.40269896 -0.17666088 -0.43283087 -0.75631654
-0.3593318 0.24697061 -0.3368163 -0.45290753 -0.25269988 -0.3301434 -0.33107027 -0.42406952
-0.41147017 -0.06525471 -0.1948884 -0.02927714 -0.468737 0.029632114 -0.66505885 -0.19273813
-0.29531175 -0.25827724 -0.22023503 -0.26212582 -0.5918274 -0.19336107 -0.47904915 -0.4376602
-0.28277427 -0.17822169 -0.047105372 -0.34746483 -0.46021175 -0.61668044 -0.11277754 -0.43065584
-0.5226688 -0.5440743 -0.5940608 0.037483837 -0.2316795 -0.3601627 -0.20714214 -0.6025334
-0.39427695 -0.22766787 -0.5953208 -0.27077 -0.41672188 -0.6141946 -0.45258313 -0.45510137
-0.5613244 -0.26200745 -0.40707603 -0.2773247 -0.02311217 -0.088320024 -0.16805619 -0.3282491
-0.28998333 -0.20040205 -0.10714611 -0.1612426 -0.43766713 -0.08943658 -0.15412156 -0.3863121
-0.36566487 -0.33350632 -0.18149976 -0.5124311 -0.49141777 -0.70841956 -0.43923005 -0.052084573
-0.3817788 -0.42396304 -0.22792165 0.08190723 -0.25984523 -0.42535138 -0.34750128 -0.18407075
-0.41383058 -0.17870456 -0.30934465 -0.56884885 -0.48370588 -0.63096493 0.0912572 -0.20901555
-0.32069576 -0.18034716 -0.6046413 -0.27057636 0.09139385 -0.39614254 -0.21193716 -0.3248387
-0.23192245 -0.436399 -0.33760753 -0.37652403 -0.44194245 -0.44750902 -0.22372013 -0.04026797
-0.5341719 -0.3049292 -0.38940108 -0.22271709 -0.4269501 -0.012202185 -0.37544334 0.04257349
00000000: 98e4 483e 9dc7 04bf f27d 2fbe e5c1 9ebe
00000010: b01a f6be 49d9 f7be 120a e0be 6f18 d5be
00000020: 9c23 f2be 2acc 533e b28e c8be cac4 4ebe
00000030: 1334 56be adbc 23be bf8d b7be bad9 11bf
00000040: 4605 90be e0f7 c4be 8b2d a83d 00fb fabd
00000050: 605d 9dbe 867b 9abe e127 20be 42be 92be
00000060: d3e2 d9be 47b2 b03d 6595 8ebd 60d0 a5be
00000070: 1a0c c6bd b8fc 5d3d ee4f e2be ad07 61be
00000080: ae72 f1be a0f7 37bf 4d06 fabe 1ea5 efbe
00000090: d3a9 1abf 7db5 f0be 260c 2dbf 2d16 63be
000000a0: ed21 dfbe fa28 e4be b24c 5fbf 1f57 45be
000000b0: 3736 eebe 1692 c8be a37e 6abf 3c13 e2be
000000c0: bcb1 33bf cf75 debe 876b 03bf 098a 4ebe
000000d0: 3fe4 64bf c5b6 c3be 5657 01bf a663 edbe
000000e0: 4cf8 14bf 7bb5 39bf fbf5 bdbe 50b6 84be
000000f0: e870 afbe c301 d4be d30e 45bf cfd6 21bf
00000100: 5dcc ccbd bc50 adbe 7329 cdbe 2573 b5be
00000110: de7d 2cbd 4722 6bbe 573b 35be 0f9f 43bf
00000120: 6be6 d3be 0109 f1be 75f6 10be a8d3 72be
00000130: 8b77 a9be f6eb b8be 9494 f4be d85b a0bd
00000140: a52b 91be 2b34 6dbe c3e1 5bbf 0ff7 b7be
00000150: 64f6 c5be f18d 05bf 7714 0bbe a157 8cbe
00000160: d014 0fbe 3807 d8be 92de b7be 3bb9 2cbe
00000170: 6ec8 c5be 36ec 17be 0ba1 ffbe b5da a8be
00000180: c848 a5be ea63 d9be 616b bebe c3fd 0abf
00000190: da52 13be a9fa 86be babe cdbe 1656 fcbe
000001a0: dda2 dfbe 69f7 cabe 8aaa 06bf 9675 c0be
000001b0: 424f dcbe e674 02bf 229f 2abf 3ff9 00bf
000001c0: ace8 0cbf d2d5 10bf f3b7 e8be 0196 f0be
000001d0: f76f 99be 0671 a0be ad0c 47bf c977 f6be
000001e0: 92ec 77be 013f aebe 5a4f aabd cd01 26be
000001f0: c882 30bf 3c0d a6be b53d ebbe 1bdc cbbe
00000200: 6dda 13be e9ee 01bf 7237 48bf 9e25 9fbe
00000210: 5864 8fbe a316 11bf 04ee 61be 4ffd 09bf
00000220: 9e3e e7be d4b8 a23c a91a 0dbf 676e 20bf
00000230: 8f2e cebe 97e6 34be 029c ddbe f69d 41bf
00000240: 56fa b7be dde5 7c3e 3073 acbe 7fe3 e7be
00000250: e161 81be 8e08 a9be 0b82 a9be a41f d9be
00000260: 38ac d2be 43a4 85bd d390 47be 9dd6 efbc
00000270: 4cfe efbe 0cbf f23c 4c41 2abf 255d 45be
00000280: 1a33 97be ea3c 84be 4b85 61be 5b35 86be
00000290: 0082 17bf 7200 46be ee45 f5be ff14 e0be
000002a0: cac7 90be bf7f 36be 90f1 40bd e9e6 b1be
000002b0: e0a0 ebbe c5de 1dbf e9f7 e6bd ec7e dcbe
000002c0: 9fcd 05bf 7448 0bbf 5e14 18bf a788 193d
000002d0: 643d 6dbe 3f67 b8be 121d 54be a13f 1abf
000002e0: abde c9be c421 69be f266 18bf 5ea2 8abe
000002f0: 925c d5be db3b 1dbf fab8 e7be 0c03 e9be
00000300: f5b2 0fbf d725 86be 456c d0be 81fd 8dbe
00000310: bc55 bdbc 21e1 b4bd ec16 2cbe 4410 a8be
00000320: b278 94be 3236 4dbe 6b6f dbbd c81c 25be
00000330: e815 e0be 872a b7bd 0bd2 1dbe b3ca c5be
00000340: 6d38 bbbe 57c1 aabe 13db 39be af2e 03bf
00000350: 1c9b fbbe fc5a 35bf c3e2 e0be a256 55bd
00000360: 8378 c3be af11 d9be 4b64 69be fabe a73d
00000370: 6f0a 85be a8c7 d9be b0eb b1be 0b7d 3cbe
00000380: 9ae1 d3be 54fe 36be 6c62 9ebe 14a0 11bf
00000390: 4ca8 f7be eb86 21bf 0ee5 ba3d 2c08 56be
000003a0: 3c32 a4be edac 38be c6c9 1abf fc88 8abe
000003b0: b32c bb3d 32d3 cabe 0e06 59be 4251 a6be
000003c0: 147d 6dbe b16f dfbe e5da acbe c2c7 c0be
000003d0: 4846 e2be e71f e5be e416 65be 07f0 24bd
000003e0: 7dbf 08bf ae1f 9cbe 945f c7be f30f 64be
000003f0: 3499 dabe aceb 47bc 1c3a c0be 8a61 2e3d

fc_advantage.0.bias f4 [20]
-0.25706226 -0.50144446 -0.34364673 -0.32833332 -0.25583196 -0.23158133 -0.3400105 -0.3019262
-0.29130176 -0.103290826 -0.071677774 -0.110057384 -0.13708295 -0.12851131 0.0112115005 -0.042075552
-0.062131457 -0.052363485 0.018787062 0.04419641
00000000: aa9d 83be aa5e 00bf 77f2 afbe 4e1b a8be
00000010: 68fc 82be a823 6dbe db15 aebe 1296 9abe
00000020: 8125 95be 248a d3bd cccb 92bd c465 e1bd
00000030: 795f 0cbe 7898 03be 71b0 373c 6a57 2cbd
00000040: 8e7d 7ebd 187b 56bd 53e7 993c 4b07 353d

fc_value.0.weight f4 [1, 32]
0.4580023 0.72155106 0.48699424 0.5528258 0.48112315 0.7271481 1.1847734 0.34008563
0.527555 0.8245486 0.8247004 0.6423215 0.10394249 -0.22105399 0.63811076 0.40310192
1.0529656 0.7608235 0.7088136 0.53204674 0.43141854 0.8204251 0.3043593 0.4308676
0.3452301 0.7733276 0.050029002 0.13481198 0.20628624 0.8171054 0.05113269 0.8906514
00000000: 477f ea3e 92b7 383f 4f57 f93e fe85 0d3f
00000010: c655 f63e 6126 3a3f a8a6 973f b41f ae3e
00000020: d80d 073f 9e15 533f 911f 533f 2f6f 243f
00000030: cddf d43d fa5b 62be 3a5b 233f 6063 ce3e
00000040: 94c7 863f 54c5 423f cf74 353f 3734 083f
00000050: e4e2 dc3e 6107 523f fbd4 9b3e ae9a dc3e
00000060: 00c2 b03e ccf8 453f 36eb 4c3d 270c 0a3e
00000070: b33c 533e d22d 513f 8370 513d bb01 643f
