save/client-10000/eval.pth (torch, 42501 bytes, 27 tensors)

layer1_task.0.weight f4 [32, 3]
0	0xbe8d9812	-0.27655083
1	0x3d50accb	0.05094604
2	0xbd93d096	-0.07217519
3	0x3eaf90c2	0.3429013
4	0xbbad2cbb	-0.0052848733
5	0x3e5a2ef7	0.21306978
6	0x3d6a5c1b	0.057216745
7	0x3f22ad79	0.6354595
8	0xbe01fb84	-0.12693602
9	0xbe15f364	-0.14643627
10	0xbe8f0e9b	-0.2794083
11	0xbe14b1f4	-0.14521009
12	0xbed4f996	-0.4159667
13	0x3e8b9af9	0.27266672
14	0xbd85ddb4	-0.06536427
15	0x3ddae922	0.10688998
16	0x3ddcc6a8	0.10780078
17	0x3e8b7390	0.27236605
18	0x3dccdfd0	0.10003626
19	0x3e643074	0.22284108
20	0x3e2d02c1	0.16895582
21	0xbda47cbf	-0.08031606
22	0x3e0e3b62	0.1388984
23	0xbe72608f	-0.23669647
24	0x3d8527da	0.06501742
25	0x3f0930b8	0.53589964
26	0xbeb95181	-0.36194995
27	0x3dbacf3a	0.091215566
28	0x3e8bd5fd	0.27311698
29	0x3e626b68	0.22111285
30	0x3cabfa4c	0.020993374
31	0x3d570e4e	0.052503876
32	0x3de47b52	0.11156334
33	0xbd5d4d8f	-0.054029044
34	0xbe2d2e22	-0.1691213
35	0x3e713c1d	0.23558088
36	0xbdade14f	-0.0849024
37	0x3e505ee5	0.203487
38	0xbd9f89ce	-0.07789956
39	0xbeaa3150	-0.33240747
40	0x3e919b46	0.28438777
41	0xbc9bbee1	-0.019011917
42	0xbda64f22	-0.08120562
43	0x3ee91869	0.45526436
44	0xbedf77c3	-0.43646058
45	0x3dc69c80	0.09697819
46	0xbe469460	-0.19392538
47	0xbdbe20b5	-0.09283582
48	0xbf4191b6	-0.7561296
49	0xbeb7f13c	-0.35926235
50	0xbedb5f7f	-0.42846295
51	0x3ea684ef	0.32523295
52	0xbcb553de	-0.022134718
53	0x3e3cdd88	0.18443882
54	0xbda6e8a5	-0.08149842
55	0x3e8e9714	0.27849638
56	0xbe3bcf70	-0.1834085
57	0xbda66c4c	-0.08126125
58	0x3e32583f	0.17416476
59	0xbd288f26	-0.041152142
60	0xbf1dfc32	-0.61712945
61	0xbe5bb695	-0.21456368
62	0xbefaf803	-0.49017343
63	0xbe0b63e3	-0.13612323
64	0x3d966233	0.07342949
65	0x3b9b572e	0.0047406172
66	0x3ea94661	0.33061507
67	0xbe175b4c	-0.1478092
68	0xbd368f24	-0.044570103
69	0x3e54aae3	0.20768313
70	0x3df2296b	0.11824306
71	0xbdc5ffab	-0.096679054
72	0xbd61e083	-0.05514575
73	0x3e4818b2	0.1954067
74	0x3e5ed11e	0.2175946
75	0xbd3722dd	-0.044710983
76	0x3d8ae68c	0.067822546
77	0x3dcae1ed	0.09906373
78	0xbdf1f45f	-0.11814188
79	0x3e4fb6c2	0.2028456
80	0x3f05917a	0.52175105
81	0xbe81a69d	-0.25322428
82	0xbdc3e63c	-0.09565398
83	0xbe239b31	-0.1597717
84	0x3ee23956	0.4418437
85	0xbaf7b21f	-0.0018897689
86	0x3ce7ecbf	0.028311132
87	0x3e7efca2	0.2490106
88	0xbdb136e2	-0.08653046
89	0xbd5e5797	-0.05428275
90	0xbdab3665	-0.08359984
91	0xbc9a073f	-0.018802283
92	0xbe88d77a	-0.26726896
93	0x3e22ebd8	0.1591028
94	0xbe64558e	-0.22298262
95	0x3d1d371e	0.038382642

layer1_task.0.bias f4 [32]
0	0x3ce44553	0.027865088
1	0x3e009d0b	0.12559907
2	0x3eaba2f6	0.33522767
3	0x3da7b53b	0.08188864
4	0x3c4c1a2e	0.012457414
5	0x3e501c2b	0.20323245
6	0x3db26f68	0.08712655
7	0x3cb36f05	0.021903524
8	0xbd9d31d3	-0.07675519
9	0x3e21f025	0.15814264
10	0x3e090fe5	0.1338497
11	0x3f6a0e9d	0.9142855
12	0x3eae17df	0.34002587
13	0x3d712c84	0.058880344
14	0x3e31d15f	0.17365025
15	0x3df37cc7	0.11889034
16	0x3c9183f5	0.017763117
17	0x3d94477a	0.072401956
18	0x3dbffd80	0.09374523
19	0x3e87d46c	0.26529253
20	0x3d347c59	0.0440639
21	0xbb91f7c3	-0.0044545843
22	0x3dae2e41	0.08504916
23	0x3d815189	0.0631438
24	0x3e83d818	0.25750804
25	0x3e154351	0.1457646
26	0x3d8377e1	0.064193495
27	0x3dae73d8	0.08518189
28	0xbd000ad5	-0.03126033
29	0x3d8cc83f	0.068741314
30	0x3ec32226	0.3811199
31	0x3d91a393	0.071112774

layer1_task.2.weight f4 [32]
0	0x3f84eed1	1.0385381
1	0x3f4e7628	0.8064904
2	0x3f2a2e28	0.6647668
3	0x3f9fb1d6	1.2476146
4	0x3ff6c53d	1.9278942
5	0x3f3ec566	0.74519956
6	0x3f8778ce	1.0583742
7	0x3f8a70ea	1.0815709
8	0x3f3bc093	0.7334072
9	0x3f87c6a4	1.0607495
10	0x3f71c406	0.94439733
11	0x3f844254	1.0332742
12	0x3f8b73d5	1.0894724
13	0x3f898695	1.0744196
14	0x3f7b69be	0.98208225
15	0x3f5cffb6	0.86327684
16	0x3fe9c8a1	1.8264352
17	0x3f8c66d1	1.0968877
18	0x3f7059fc	0.93887305
19	0x3f7b5aba	0.9818531
20	0x3fa8b39d	1.3179814
21	0x3fb3acfd	1.4037167
22	0x3f85d310	1.0455036
23	0x3f680adb	0.90641564
24	0x3f5ce367	0.8628449
25	0x3f3184b8	0.6934314
26	0x3f3fd738	0.7493777
27	0x3f8f8325	1.1211897
28	0x3f1c5730	0.6107054
29	0x3f1a7b3d	0.60344297
30	0x3f7b4b3b	0.9816167
31	0x3f73278b	0.9498221

layer1_task.2.bias f4 [32]
0	0xbc69d630	-0.014272258
1	0xbf1ae82d	-0.6051052
2	0xbdc2a083	-0.095032714
3	0x3e12e85e	0.14346454
4	0x3eba0303	0.36330423
5	0x3f047859	0.51746136
6	0xbcb5fd5e	-0.022215541
7	0x3ce66211	0.028122934
8	0xbeb2c5ef	-0.34916636
9	0x3e1bc827	0.15213071
10	0xbd46c72f	-0.0485298
11	0x3e652128	0.2237593
12	0x3e4790e2	0.19488862
13	0x3da29a2f	0.079395644
14	0xbdb619f0	-0.08891666
15	0xbda0abfe	-0.07845305
16	0x3e509eb8	0.20373046
17	0x3e3511a2	0.17682508
18	0xbc00c737	-0.0078599965
19	0x3de26d24	0.11055973
20	0x3e821197	0.25404045
21	0x3dd2ddf9	0.10296244
22	0x3c3393ae	0.010960503
23	0xbd258ac7	-0.04041555
24	0xbdbe0daf	-0.09279954
25	0xbcdda4ed	-0.027056182
26	0xbe12932d	-0.14313956
27	0x3d9f4076	0.07775967
28	0xbeea6600	-0.45780945
29	0xbea325aa	-0.31864673
30	0x3c86fd1a	0.01647811
31	0xbd936f48	-0.071989596

layer1_task.2.running_mean f4 [32]
0	0xc68753cd	-17321.9
1	0x46b1837d	22721.744
2	0x456ca17b	3786.0925
3	0xc61bf678	-9981.617
4	0xc6d08346	-26689.637
5	0x45ed071b	7584.888
6	0x45cb0c51	6497.5396
7	0xc5a9b594	-5430.6973
8	0x458230eb	4166.1147
9	0x45bc8141	6032.1567
10	0x44b09b5c	1412.855
11	0xc561e753	-3614.4578
12	0xc5b03cdd	-5639.608
13	0xc6ae3121	-22296.564
14	0xc5a5667c	-5292.8105
15	0x45c2be3b	6231.779
16	0xc74be8ad	-52200.676
17	0x46a5f279	21241.236
18	0xc5a4c055	-5272.0415
19	0xc5a2d551	-5210.6646
20	0xc71e017a	-40449.477
21	0xc60b3ef9	-8911.743
22	0x46a5f27c	21241.242
23	0x465c97a6	14117.912
24	0xc5657d54	-3671.833
25	0xc531d382	-2845.2192
26	0xc5f22878	-7749.0586
27	0xc67bed1d	-16123.278
28	0x46ddf306	28409.512
29	0x467b45c7	16081.444
30	0xc5a93af4	-5415.369
31	0x4626cbfa	10674.994

layer1_task.2.running_var f4 [32]
0	0x4d73df46	2.557185e+08
1	0x4dbfcf13	4.0225238e+08
2	0x4b2f95ae	1.1507118e+07
3	0x4c89774d	7.2071784e+07
4	0x4e0854bd	5.718137e+08
5	0x4c2cc2a1	4.5288068e+07
6	0x4bebde58	3.091576e+07
7	0x4ba72262	2.1906628e+07
8	0x4b60ec9f	1.4740639e+07
9	0x4bd8acfb	2.8400118e+07
10	0x49b79ae0	1.504092e+06
11	0x4b262dfa	1.0890746e+07
12	0x4bb8955c	2.419372e+07
13	0x4dae04e6	3.6494458e+08
14	0x4bae1dc5	2.282177e+07
15	0x4bf6c472	3.2344292e+07
16	0x4ee98914	1.9590374e+09
17	0x4da959e3	3.5515504e+08
18	0x4ba91201	2.2160386e+07
19	0x4bab6cb7	2.2468974e+07
20	0x4e986970	1.2785234e+09
21	0x4c5cb41c	5.785611e+07
22	0x4da990a5	3.5560362e+08
23	0x4d112996	1.5221386e+08
24	0x4b1b9446	1.0196038e+07
25	0x4abf52fa	6.269309e+06
26	0x4c333378	4.697648e+07
27	0x4d4d7665	2.1544302e+08
28	0x4e1a11b0	6.462126e+08
29	0x4d420300	2.0343603e+08
30	0x4bb3fedf	2.3592382e+07
31	0x4ca2c2aa	8.533333e+07

layer1_1vm.0.weight f4 [64, 40]
0	0xbda88f4c	-0.08230457
1	0xbe5cbd4a	-0.21556583
2	0x3debb2bc	0.115087
3	0xbd9383f9	-0.07202906
4	0x3d4bc780	0.049750805
5	0xbe8dd8fb	-0.27704605
6	0xbdeede13	-0.11663451
7	0xbe7c2255	-0.24622472
8	0xbd87708d	-0.06613264
9	0x3e0454d0	0.12922978
10	0x3cef9b9e	0.029249009
11	0x3e37708c	0.17914027
12	0x3e06b995	0.13156731
13	0x3cd97774	0.026546218
14	0x3e0058f1	0.12533928
15	0xbde68d45	-0.11257414
16	0x3e44ad57	0.19206749
17	0x3e5048dc	0.20340294
18	0x3e907c88	0.2822001
19	0x3dd55d04	0.10418132
20	0x3d19e292	0.03756959
21	0xbd06d81c	-0.03292094
22	0x3e05f411	0.13081385
23	0x3e340b72	0.17582491
24	0xbd5d9a0c	-0.05410199
25	0x3d161532	0.036641307
26	0x3e3928c5	0.18081959
27	0xbe44f290	-0.19233155
28	0xbdbc4ab3	-0.09193935
29	0xbdbf969d	-0.09354899
30	0xbc986b1e	-0.018605765
31	0xbe05e032	-0.13073805
32	0xbd8bbc96	-0.06823079
33	0xbe94b189	-0.290417
34	0x3daafdab	0.083491646
35	0x3ddd268c	0.10798368
36	0x3dc648cc	0.09681854
37	0xbea763d6	-0.32693356
38	0x3dc84a14	0.09779754
39	0xbe65f794	-0.22457725
40	0x3e2344ac	0.15944165
41	0xbca213ba	-0.019784797
42	0xbe648815	-0.22317536
43	0x3d5a9143	0.05336119
44	0x3dc23f8d	0.094847776
45	0x3b84da33	0.0040543317
46	0xbe9652e9	-0.2936013
47	0xbd61ff50	-0.055175126
48	0xbe11177a	-0.14169112
49	0x3e9d0db2	0.3067451
50	0xbe15dc6f	-0.1463487
51	0x3e8dd395	0.27700487
52	0xbd9d2acb	-0.07674178
53	0xbd5428ef	-0.05179685
54	0xbdea5554	-0.11442056
55	0x3e81bfeb	0.25341734
56	0xbe9f6376	-0.3113057
57	0x3db82229	0.089908905
58	0xbd21fc66	-0.039547347
59	0x3e9935fe	0.29924005
60	0xbd70b7a2	-0.058768876
61	0xbe243654	-0.1603635
62	0xbddae424	-0.106880456
63	0x3da3dbeb	0.080009304
64	0xbe8a35ad	-0.26994076
65	0xbd0947b5	-0.03351565
66	0xbd5f6341	-0.054538015
67	0x3d1f7827	0.038932946
68	0xbe1a808a	-0.15088096
69	0xbe3c1205	-0.18366249
70	0xbcd9c2e4	-0.026582189
71	0xbe8f35e6	-0.2797081
72	0xbe044d92	-0.12920216
73	0xbd8736af	-0.06602227
74	0xbddc14ba	-0.10746141
75	0xbd00a336	-0.03140565
76	0xbc81ecfc	-0.015860073
77	0xbe2b38ab	-0.16720836
78	0xbe8bc285	-0.27296844
79	0x3d9c959b	0.076457225
80	0xbe0380a8	-0.12842047
81	0x3c96d7b4	0.018413402
82	0xbe3c5c34	-0.18394548
83	0xbda34dbf	-0.07973813
84	0xbd776037	-0.060394492
85	0xbc58f08d	-0.0132409455
86	0xbed36e5f	-0.41295144
87	0xbd9fdff6	-0.07806389
88	0xbb4582a8	-0.0030137692
89	0x3e813596	0.25236195
90	0x3d27962f	0.04091471
91	0x3e947076	0.2899205
92	0x3d2c61d1	0.042085472
93	0xbe2f2886	-0.17105302
94	0xbe3c8cda	-0.18413106
95	0x3dde5bd4	0.108573586
96	0xbe09c3f0	-0.1345365
97	0xbb272c6a	-0.002550865
98	0xbe37321e	-0.17890212
99	0xbdfbde34	-0.12298241
100	0xbe8fbe88	-0.2807505
101	0x3e22c3ee	0.15895054
102	0xbe01ac0e	-0.1266329
103	0xbd267307	-0.040637042
104	0xbe89c57d	-0.26908484
105	0xbdbb0ac6	-0.09132914
106	0xbc0c3057	-0.008556447
107	0x3dd828df	0.105546705
108	0xbe28707e	-0.16449162
109	0x3e66a80a	0.2252504
110	0xbe4bea78	-0.19913661
111	0x3db848d1	0.089982636
112	0xbe194f1d	-0.14971586
113	0xbe008399	-0.125502
114	0x3d00177a	0.03127239
115	0x3e896454	0.26834357
116	0x3d3ed8c4	0.046593443
117	0x3e9d26f9	0.30693796
118	0xbe4f4a2f	-0.20243143
119	0x3e008e4e	0.12554285
120	0x3e956ef3	0.2918621
121	0xbdcba8a8	-0.09944278
122	0x3e1c8041	0.152833
123	0xbe161c2a	-0.14659181
124	0x3e3b207b	0.18274109
125	0x3e836cbb	0.25668892
126	0x3e6477a7	0.22311269
127	0xbcd8cb71	-0.026464196
128	0xbd8e52b7	-0.0694937
129	0x3eb917e6	0.36151046
130	0x3cadb9c6	0.021206748
131	0x3e924c9f	0.28574082
132	0x3e193451	0.14961363
133	0x3dd015ed	0.10160432
134	0x3e0df073	0.13861255
135	0x3e80787e	0.25091928
136	0x3e25cbd5	0.16191037
137	0xbc825682	-0.01591039
138	0xbad921c1	-0.0016565846
139	0x3e348513	0.17628889
140	0x3e4edd86	0.20201692
141	0x3dd23026	0.1026309
142	0x3db16bdd	0.086631514
143	0x3e84c9f7	0.25935337
144	0x3eafd326	0.3434078
145	0x3ec37d24	0.38181412
146	0x3cc717c3	0.024303323
147	0x3e73833f	0.23780535
148	0x3ea4205f	0.32055947
149	0xbe2a842d	-0.16651984
150	0x3e6bc70c	0.23025149
151	0xbdb67a5d	-0.08910058
152	0xbd328a2a	-0.043588795
153	0xbe1edd52	-0.15514114
154	0x3dd8d938	0.10588306
155	0xbe37a532	-0.17934111
156	0x3e9a0bf6	0.3008725
157	0xbde3f42c	-0.111305565
158	0x3e683a0f	0.22678398
159	0x3d578317	0.05261525
160	0x3e14f51c	0.14546627
161	0x3e3625b0	0.17787814
162	0x3e200c6f	0.15629743
163	0x3d8c817a	0.06860633
164	0xbe3a8aed	-0.18217058
165	0xbd80a056	-0.06280582
166	0x3e6d16af	0.23153184
167	0x3e91a3b4	0.28445208
168	0x3e2af107	0.16693507
169	0x3e9a6736	0.3015687
170	0x3e038594	0.12843925
171	0xbd21d177	-0.039506402
172	0x3d8f1e5f	0.06988215
173	0x3e395be6	0.18101463
174	0xbd5c0303	-0.05371381
175	0x3d4b5992	0.049645968
176	0xbd752525	-0.059849877
177	0x3d8665d3	0.0656239
178	0xbbf7a196	-0.0075571043
179	0x3e7e51ca	0.24835888
180	0x3e60e2b1	0.21961476
181	0x3e07fc4f	0.13279842
182	0x3e577c85	0.21043594
183	0x3f0a124f	0.53934187
184	0xbdf403fb	-0.11914822
185	0x3dcdd0f6	0.10049622
186	0x3c89d313	0.01682428
187	0x3e8285f1	0.25492814
188	0xbcf46dba	-0.029837478
189	0x3ec81da0	0.39085102
190	0x3e429095	0.19000466
191	0x3e4d1fae	0.20031616
192	0x3dbf9b39	0.09355778
193	0x3de295a2	0.110636964
194	0x3e2c5b49	0.16831698
195	0x3dcc962e	0.09989582
196	0xbda11bb7	-0.07866614
197	0xbb0f4992	-0.002186392
198	0xbd32b47c	-0.043629155
199	0xbd5d5f4a	-0.054045953
200	0x3e57dabd	0.21079536
201	0xbe0995d2	-0.13436058
202	0xbe8012a0	-0.2501421
203	0xbe863ad2	-0.2621675
204	0xbe0b0164	-0.13574749
205	0xbf1b66e5	-0.6070388
206	0x3ea56ab6	0.32307976
207	0xbe7f032e	-0.24903557
208	0xbe24653c	-0.16054243
209	0xbee4ca3c	-0.44685543
210	0x3cf532fd	0.02993154
211	0xbec2f800	-0.38079834
212	0x3d405672	0.04695744
213	0xbef17284	-0.4715768
214	0x3dfd036d	0.12354169
215	0xbe967700	-0.29387665
216	0xbdc3198e	-0.095263585
217	0xbe638c4c	-0.22221488
218	0x3dd34051	0.10315002
219	0x3c61fb79	0.013792866
220	0x3e3115b6	0.17293438
221	0xbd9534e3	-0.07285478
222	0x3dc873d1	0.09787715
223	0xbe748a8f	-0.23880981
224	0x3b8234bc	0.0039735716
225	0xbef44f79	-0.47716883
226	0x3ebf0f88	0.37316537
227	0xbe4a5e2d	-0.19762488
228	0x3e1a1de6	0.15050468
229	0xbd9476e0	-0.07249236
230	0x3dbed31c	0.0931761
231	0xbe7cc409	-0.24684156
232	0x3dee1736	0.11625521
233	0xbe0d382b	-0.13790958
234	0xbd01ead5	-0.031718094
235	0x3de05d66	0.10955314
236	0x3d2a3ad9	0.041560028
237	0x3da0a06c	0.07843098
238	0x3df5e485	0.12006477
239	0x3c8dead3	0.017323887
240	0x3cf464b9	0.029833185
241	0x3e90f3a9	0.28310898
242	0x3e04d697	0.12972485
243	0x3d82d891	0.06388963
244	0xbc36c7d8	-0.011156045
245	0xbe41e801	-0.18936159
246	0xbd9e657e	-0.07734202
247	0xbde3d878	-0.111252725
248	0xbe419658	-0.18905008
249	0x3da16c77	0.07882016
250	0xbd10e5d3	-0.035375427
251	0x3e46b82c	0.19406193
252	0x3d69f1bb	0.057115298
253	0x3c9213f9	0.01783179
254	0xbdd316b8	-0.10307068
255	0x3bd2d767	0.0064343694

layer1_1vm.0.bias f4 [64]
0	0x3d930f92	0.07180704
1	0xbdc1b3b5	-0.094581045
2	0xbd543b65	-0.051814456
3	0x3e0427aa	0.12905756
4	0x3d8e2560	0.069407225
5	0x3c7ab65b	0.015302266
6	0x3d4689f3	0.048471402
7	0xbc56ad86	-0.013102895
8	0xbdc0a806	-0.09407048
9	0xbc83b5e9	-0.016077952
10	0x3d148af9	0.036265347
11	0x3e13cd90	0.14433885
12	0xbbde87a5	-0.0067910724
13	0xbc968c15	-0.018377343
14	0xbc18f891	-0.009336607
15	0xbd71bd13	-0.059018206
16	0x3cb494ce	0.022043612
17	0x3c63c8f7	0.013902894
18	0xbc4f110a	-0.01263834
19	0xbc7971b7	-0.015224866
20	0x3dfe2c33	0.12410774
21	0x3d21c92d	0.039498497
22	0xbcd78dc9	-0.026312726
23	0xbd035ad1	-0.03206903
24	0x3cf119bf	0.029431222
25	0xbd805d81	-0.062678345
26	0x3d27c27c	0.04095696
27	0x3dafc485	0.08582405
28	0x3d2d4f92	0.042312212
29	0x3d3df162	0.04637278
30	0x3d9b53a9	0.07584316
31	0x3b6b33a0	0.0035888925
32	0xbcb09fdf	-0.021560607
33	0xbd9f4b1f	-0.07778
34	0xbd8afeea	-0.06786902
35	0xbe168faa	-0.14703241
36	0x3de421c7	0.11139255
37	0x3e039c3c	0.12852567
38	0xbd78edbc	-0.060773596
39	0xbe1985bb	-0.1499242
40	0x3de497e0	0.1116178
41	0xbd2f78bc	-0.04283975
42	0x3d6e002a	0.058105625
43	0xbd41abbc	-0.04728292
44	0xbcebeaf5	-0.02879856
45	0xbda0a78b	-0.07844456
46	0x3d227faf	0.03967255
47	0x3dccf9b5	0.10008565
48	0x3c64b6e5	0.013959621
49	0xbd6fac24	-0.058513775
50	0xbe0d5ddc	-0.13805336
51	0xbdea2dda	-0.11434527
52	0xbd251dab	-0.040311497
53	0x3e147f79	0.14501752
54	0x3b10f7bd	0.002212032
55	0x3c87340e	0.016504314
56	0xbe48da33	-0.19614486
57	0x3af289b8	0.0018504178
58	0x3a832bdb	0.0010007577
59	0xbca8891a	-0.020573188
60	0xbdab2a6d	-0.083577015
61	0xbce28c69	-0.027654843
62	0xbd65936f	-0.056048807
63	0xbc17b048	-0.009258337

layer1_1vm.2.weight f4 [64]
0	0x3f6e7194	0.93142056
1	0x3f76eb10	0.96452427
2	0x3f7c32a5	0.9851478
3	0x3f72dab9	0.94864994
4	0x3f68fb1b	0.91008157
5	0x3fa12de2	1.2592127
6	0x3f66ddba	0.9018208
7	0x3f82f5e5	1.0231291
8	0x3f7b30d6	0.9812139
9	0x3f6d62f2	0.92729104
10	0x3f7c2833	0.9849884
11	0x3f61fd43	0.8827707
12	0x3f7682de	0.9629344
13	0x3f83a7a5	1.0285536
14	0x3f7db513	0.9910442
15	0x3f7b40b1	0.98145586
16	0x3f66532d	0.89970666
17	0x3f79aed0	0.9753237
18	0x3f731a8f	0.949624
19	0x3f814855	1.0100199
20	0x3f5dbd00	0.86616516
21	0x3f620a25	0.8829673
22	0x3f9d4161	1.2285577
23	0x3f849bee	1.0360086
24	0x3f5eccad	0.8703106
25	0x3f891441	1.0709306
26	0x3f862e58	1.0482893
27	0x3f6d318d	0.92653733
28	0x3f8b1242	1.0864947
29	0x3f4a07e9	0.7891832
30	0x3f8a353a	1.0797493
31	0x3f80b3f9	1.0054923
32	0x3f5a731b	0.85331887
33	0x3f722fd2	0.9460422
34	0x3f773925	0.9657157
35	0x3f9c976d	1.2233711
36	0x3f8488a9	1.0354205
37	0x3f49bfc0	0.7880821
38	0x3f9d598d	1.2292954
39	0x3f8a7ec7	1.0819939
40	0x3f8ed274	1.1157975
41	0x3f931442	1.1490557
42	0x3f85fa5e	1.0467031
43	0x3f861255	1.0474344
44	0x3f93ab05	1.1536566
45	0x3f897d3e	1.0741346
46	0x3f69288b	0.9107749
47	0x3f7a1abf	0.9769706
48	0x3f8c3595	1.0953852
49	0x3f7aeeab	0.9802043
50	0x3f6576dc	0.8963449
51	0x3f7c7214	0.9861157
52	0x3f8a664f	1.0812472
53	0x3f65d191	0.897729
54	0x3f6d641c	0.9273088
55	0x3f8bf787	1.0934914
56	0x3f88f495	1.069964
57	0x3f847425	1.0347944
58	0x3f8cf2dd	1.1011616
59	0x3f8de481	1.1085359
60	0x3f658e2c	0.8967006
61	0x3f7d49b0	0.98940563
62	0x3f83191c	1.0242038
63	0x3f94a9ba	1.1614296

layer1_1vm.2.bias f4 [64]
0	0xbca26143	-0.019821769
1	0xbd89e126	-0.06732397
2	0xbc2cb6f0	-0.010541663
3	0xb8a1e5c4	-7.7198754e-05
4	0xbdb9e550	-0.09076941
5	0x3da5752a	0.08078988
6	0xbdb18c32	-0.08669318
7	0x3c883c38	0.016630277
8	0x3c117933	0.008878994
9	0xbda5f495	-0.08103291
10	0xbd32780c	-0.043571517
11	0xbd63d204	-0.05562021
12	0xbd961cef	-0.073297374
13	0x3ca93fe4	0.020660348
14	0x3ce96a06	0.028492939
15	0x3b86ed07	0.0041176113
16	0xbd889966	-0.066698834
17	0xbd58a3ff	-0.052890774
18	0xbcc6688a	-0.02421977
19	0x3a61c4bf	0.00086123863
20	0xbe09c0a1	-0.13452388
21	0xbe0c6da3	-0.13713698
22	0x3dac8a9d	0.08424876
23	0xbc2c0440	-0.01049906
24	0xbce59b72	-0.028028224
25	0x3d6c2726	0.057654522
26	0xbbcd9461	-0.0062737917
27	0xbcc2ebda	-0.023794103
28	0x3db90ce2	0.0903566
29	0xbe0653e7	-0.13117944
30	0x3e181fa6	0.14855823
31	0x3d560596	0.05225142
32	0xbd8515e2	-0.064983144
33	0xbd5453b0	-0.051837623
34	0xbd557a37	-0.052118506
35	0x3e7a3879	0.24435605
36	0x3d389dbb	0.0450723
37	0xbe27f7b3	-0.16403084
38	0x3e739b71	0.23789765
39	0x3c845a91	0.016156467
40	0x3e1b0731	0.15139462
41	0x3cef891f	0.02924019
42	0x3dc6700c	0.0968934
43	0x3a84a85d	0.0010120977
44	0x3e2b102b	0.16705386
45	0x3c81b16d	0.015831674
46	0xbd90e71d	-0.07075331
47	0x3db8a331	0.09015501
48	0x3d10ca51	0.035349194
49	0xbe30198d	-0.17197247
50	0xbdc9c2f6	-0.09851639
51	0xbbf65531	-0.00751748
52	0x3d82bb27	0.06383353
53	0xbd877a61	-0.06615139
54	0xbd945b62	-0.072439924
55	0x3dfce902	0.1234913
56	0x3d673944	0.056451097
57	0xbd2508bd	-0.040291537
58	0x3dd45b06	0.10368924
59	0x3d2b1c4a	0.041775025
60	0xbd9d4da6	-0.07680826
61	0x3d11dba5	0.03560986
62	0x3d24141e	0.040058248
63	0xbc562653	-0.013070661

layer1_1vm.2.running_mean f4 [64]
0	0xc8b0a2ec	-361751.38
1	0xc7c40831	-100368.38
2	0x480475af	135638.73
3	0xc7bed022	-97696.266
4	0x4899ce5d	314994.9
5	0xc81e7e8e	-162298.22
6	0x48ae6d81	357228.03
7	0xc8927ced	-300007.4
8	0xc7bd9cc1	-97081.51
9	0xc88b7547	-285610.22
10	0x481c8333	160268.8
11	0x481bf012	159680.28
12	0x4792db95	75191.164
13	0x48bfaf06	392568.2
14	0xc81f56b1	-163162.77
15	0xc889897e	-281675.94
16	0x479936cf	78445.62
17	0xc807183e	-138336.97
18	0xc892094e	-299082.44
19	0xc8af1990	-358604.5
20	0x47534e31	54094.19
21	0xc8887183	-279436.1
22	0x484dda25	210792.58
23	0xc890aeb3	-296309.6
24	0x48b79f31	376057.53
25	0xc8368c4d	-186929.2
26	0x488a1175	282763.66
27	0x47b3af45	91998.54
28	0xc8524441	-215313.02
29	0x47d09176	106786.92
30	0x480e5b2a	145772.66
31	0x47d6d9ef	110003.87
32	0xc84d3f55	-210173.33
33	0x4797c1a6	77699.3
34	0xc8bff86a	-393155.3
35	0x4797e05c	77760.72
36	0x487cb85b	258785.42
37	0x48a95195	346764.66
38	0x4798e04e	78272.61
39	0x47ac6b36	88278.42
40	0xc898e171	-313099.53
41	0xc7d78153	-110338.65
42	0x48f8e1f8	509711.75
43	0xc7d7d9c4	-110515.53
44	0xc863c8b4	-233250.81
45	0xc8681443	-237649.05
46	0x48b220bb	364805.84
47	0x483eb226	195272.6
48	0xc8e90e5c	-477298.88
49	0x488dfd3c	290793.88
50	0xc86b3bd5	-240879.33
51	0xc844c07e	-201473.97
52	0xc8d5ed73	-438123.6
53	0xc8863b54	-274906.62
54	0xc82fd32e	-180044.72
55	0xc8846986	-271180.2
56	0xc8d187e5	-429119.16
57	0xc8c6cc42	-407138.06
58	0x48776e35	253368.83
59	0xc8c94ac1	-412246.03
60	0x4891f40d	298912.4
61	0xc8800794	-262204.62
62	0x487aefc6	256959.1
63	0x47ccd780	104879.0

layer1_1vm.2.running_var f4 [64]
0	0x50d02170	2.7934818e+10
1	0x4f118bdf	2.441863e+09
2	0x4fa53001	5.542773e+09
3	0x4f2a33d6	2.8555238e+09
4	0x50b0fbd4	2.375435e+10
5	0x4fe71728	7.754109e+09
6	0x50d127b9	2.8072331e+10
7	0x50b6f520	2.4556143e+10
8	0x4f327ee7	2.994661e+09
9	0x50ac2550	2.3105012e+10
10	0x4fccc116	6.8704123e+09
11	0x4faa1dae	5.7081436e+09
12	0x4eafc9cd	1.474619e+09
13	0x51196a1a	4.118188e+10
14	0x4ffea706	8.544718e+09
15	0x50912c39	1.9484756e+10
16	0x4eb48232	1.5142157e+09
17	0x4f9a3dde	5.1754916e+09
18	0x509d0d4e	2.1079159e+10
19	0x510222c8	3.493308e+10
20	0x4e292b9a	7.0955174e+08
21	0x508a29c3	1.8543942e+10
22	0x5013cfcb	9.919475e+09
23	0x50c50c87	2.644746e+10
24	0x511f6e6d	4.2797027e+10
25	0x4ff003d5	8.053566e+09
26	0x50afd6bf	2.3600691e+10
27	0x4f0a2404	2.317616e+09
28	0x502a70fd	1.1438126e+10
29	0x4f2f043b	2.93629e+09
30	0x4fab7361	5.752931e+09
31	0x4f3f0ac4	3.2051538e+09
32	0x50343ae0	1.2095029e+10
33	0x4ed0260f	1.7460776e+09
34	0x51136c06	3.9573283e+10
35	0x4eac17ac	1.4436163e+09
36	0x5080a64e	1.726706e+10
37	0x50c87204	2.6903323e+10
38	0x4ebf3068	1.6038103e+09
39	0x4f00d4aa	2.1614208e+09
40	0x50c40e35	2.6314123e+10
41	0x4f3d546b	3.1764262e+09
42	0x5174988e	6.5658216e+10
43	0x4f458b5b	3.3142444e+09
44	0x503c78fd	1.2648183e+10
45	0x5053f3f0	1.4223917e+10
46	0x510db6f4	3.804124e+10
47	0x500d8278	9.496551e+09
48	0x514cb578	5.4951117e+10
49	0x50af358c	2.3516176e+10
50	0x50544a9e	1.424664e+10
51	0x50265b47	1.1163999e+10
52	0x513a02d9	4.993198e+10
53	0x508e499c	1.909751e+10
54	0x4fee94c8	8.005456e+09
55	0x509b9019	2.0879297e+10
56	0x512fa863	4.715277e+10
57	0x5109f006	3.702734e+10
58	0x508b6a18	1.8711888e+10
59	0x510b2532	3.735153e+10
60	0x50ba6bc6	2.5021002e+10
61	0x508ed844	1.9172303e+10
62	0x5071ec41	1.6235169e+10
63	0x4f1d48d5	2.638796e+09

layer1_2vm.0.weight f4 [32, 64]
0	0xbdd8b0af	-0.10580575
1	0x3d2f1eee	0.042754106
2	0xbdb166e4	-0.08662203
3	0x3e0d3dbc	0.13793081
4	0x3df4e9d9	0.119586654
5	0x3e008f97	0.12554775
6	0x3d857361	0.065161474
7	0x3e93aca2	0.28842646
8	0xbec1499b	-0.3775147
9	0xbe613ce4	-0.21995884
10	0xbd1b2106	-0.03787329
11	0xbd91563d	-0.07096527
12	0xbc6ab983	-0.014326456
13	0xbe34d0c3	-0.17657761
14	0x3c55e9dd	0.013056246
15	0xbde69494	-0.11258808
16	0x3e76556a	0.2405602
17	0x3db86e4c	0.090054125
18	0x3e1cf844	0.15329081
19	0xbe0b6956	-0.13614401
20	0x3e79db6f	0.24400114
21	0xbd9f04df	-0.07764601
22	0xbdb2b4fd	-0.08725927
23	0x3e08991b	0.13339655
24	0x3ecb3127	0.39685938
25	0xbded9e44	-0.116024524
26	0x3cda4277	0.026643021
27	0x3ed2e6f0	0.41191816
28	0x3d21f310	0.039538443
29	0xbe5b6a45	-0.21427257
30	0x3d820a4d	0.06349621
31	0x3ea5808d	0.3232464
32	0x3db984bf	0.090585224
33	0x3dc3c2a7	0.09558611
34	0x3e20abeb	0.15690582
35	0xbd1766c4	-0.03696324
36	0xbe0388ee	-0.12845203
37	0xbb95869d	-0.0045631663
38	0x3d415ce9	0.047207747
39	0x3e9e5074	0.30920756
40	0x3de8d98d	0.113696195
41	0x3e5a6f7e	0.21331593
42	0x3e56800a	0.2094728
43	0x3e41a766	0.18911514
44	0x3e4beb87	0.19914065
45	0xbd07267a	-0.03299568
46	0x3dfee67b	0.124463044
47	0x3d879703	0.066206
48	0xbe0b631f	-0.1361203
49	0x3df72659	0.12067861
50	0xbcc77e94	-0.02435235
51	0xbe60d53b	-0.21956341
52	0xbe6dcf11	-0.23223521
53	0xbd828b89	-0.063742705
54	0xbd21eca2	-0.03953231
55	0x3ee58a9e	0.4483232
56	0x3e19c6d5	0.15017255
57	0x3e499a97	0.19687878
58	0x3de39228	0.111118615
59	0xbe635ba3	-0.22202925
60	0xbd73778e	-0.059440188
61	0xbd5b0022	-0.053466924
62	0x3edba105	0.42896286
63	0xbe613ad7	-0.21995102
64	0xbdaa6dce	-0.08321725
65	0xbdf46636	-0.11933558
66	0xbd0e1008	-0.034683257
67	0xbe73a9b8	-0.23795211
68	0xbe17827f	-0.14795874
69	0x3e94d764	0.2907058
70	0xbdd9b8ff	-0.10630988
71	0x3e3a7210	0.18207574
72	0x3d2efddf	0.04272258
73	0x3c5d214e	0.01349671
74	0xbf004153	-0.50099677
75	0x3c4234d4	0.0118534155
76	0xbe5642fd	-0.20923992
77	0xbc7707c9	-0.01507754
78	0x3db50890	0.08839524
79	0x3ea28374	0.31740916
80	0xbe9a3b34	-0.30123293
81	0xbdbfbef4	-0.09362593
82	0xbd083625	-0.03325476
83	0x3e2503af	0.16114686
84	0x3d58f8b5	0.05297156
85	0x3e47f68e	0.19527647
86	0xbd57f379	-0.052722428
87	0x3eaea540	0.3411045
88	0xbb0e7f28	-0.0021743271
89	0x3dede2bd	0.116155125
90	0xbdb73a03	-0.08946612
91	0xbda2b839	-0.07945294
92	0xbe004039	-0.12524499
93	0x3bc7050a	0.0060735987
94	0xbd8eeb02	-0.06978418
95	0xbe36868d	-0.17824765
96	0xbe103b09	-0.1408502
97	0x3e9d4074	0.30713236
98	0x3dfefc1b	0.12450429
99	0x3c27a6c8	0.010232635
100	0xbe6d87cc	-0.23196334
101	0x3c254cb0	0.0100890845
102	0xbda1f708	-0.079084456
103	0x3e808604	0.25102246
104	0xbf056bea	-0.5211779
105	0xbd30eb72	-0.04319329
106	0x3e372659	0.17885722
107	0x3c9de30b	0.019273302
108	0xbd279b7e	-0.040919773
109	0x3d485075	0.048904855
110	0xbe71a01f	-0.23596238
111	0x3dd5e21a	0.10443516
112	0x3e78dbb1	0.24302556
113	0x3c9aeb8b	0.018911144
114	0xbe38ddff	-0.18053435
115	0x3ccd76a2	0.025080983
116	0x3cb50b61	0.022100152
117	0x3dadbecb	0.084836565
118	0xbd2545b9	-0.040349696
119	0xbb3d740e	-0.0028908285
120	0x3d7aaed8	0.0612019
121	0x3e47e945	0.19522579
122	0x3e3ac9f5	0.18241103
123	0x3d9f808c	0.0778819
124	0x3e9be17d	0.3044547
125	0x3d941020	0.07229638
126	0x3e029709	0.12752928
127	0xbe136dda	-0.14397374
128	0xbd4e6431	-0.05038852
129	0xbd8cb99d	-0.068713404
130	0x3d79c611	0.060979906
131	0x3e846101	0.25855258
132	0x3d82312f	0.06357037
133	0xbe57a955	-0.21060689
134	0xbd914a7f	-0.07094287
135	0xbde8ce5d	-0.11367486
136	0xbe743ed6	-0.23852095
137	0x3e526786	0.20547304
138	0xbedff0b4	-0.4373833
139	0x3e2e7be9	0.17039455
140	0xbd7c0104	-0.061524406
141	0xbe69f9ad	-0.2284915
142	0x3ea01936	0.31269234
143	0x3d42793e	0.047478907
144	0xba9a5a5e	-0.0011776199
145	0x3e51aa0a	0.20475021
146	0x3dfb558e	0.12272178
147	0x3d655f50	0.0559991
148	0x3d0488b6	0.03235694
149	0xbe6954eb	-0.227863
150	0x3eb53013	0.3538824
151	0x3db4315e	0.087984785
152	0xbe6ee1d5	-0.23328336
153	0x3ee5552a	0.44791538
154	0xbd946c9c	-0.07247278
155	0xbe0b39ac	-0.13596219
156	0x3d363f42	0.04449392
157	0xbd950355	-0.07276026
158	0xbe3e0c2e	-0.18559334
159	0x3dffad61	0.12484241
160	0xbda97bf7	-0.082755975
161	0xbe8755fe	-0.26432794
162	0xbd7e96b8	-0.062155455
163	0xbe0575f8	-0.13033283
164	0xbe9b4a02	-0.303299
165	0x3d1754d8	0.036946148
166	0xbe3ef0be	-0.18646523
167	0x3cca41a9	0.024689512
168	0x3e0e5181	0.13898279
169	0x3e5d274b	0.2159702
170	0x3dab490a	0.083635405
171	0xbdd09c63	-0.101860784
172	0xbd336b34	-0.04380341
173	0xbda21acf	-0.079152696
174	0x3e05f8de	0.13083217
175	0xbdf35bc4	-0.11882737
176	0x3e8d3632	0.2758041
177	0x3c1a71fa	0.009426588
178	0xbe123e07	-0.14281474
179	0xbe8925f3	-0.26786765
180	0xbdfc0b9d	-0.123069026
181	0x3cd9e168	0.02659674
182	0x3eac43d2	0.33645493
183	0xbd9446c1	-0.07240058
184	0xbda5e30f	-0.080999486
185	0x3d08b0df	0.033371802
186	0xbe1d633c	-0.15369886
187	0x3e4a5f89	0.19763006
188	0xbd114a85	-0.035471458
189	0xbe60a15b	-0.21936552
190	0xbe0e7f6c	-0.13915795
191	0x3dfb1051	0.122589715
192	0x3e75097e	0.23929402
193	0xbdc36d46	-0.09542327
194	0xbe5a1b29	-0.21299423
195	0xbde86a79	-0.11348433
196	0x3dea186c	0.11430439
197	0x3d2cefef	0.042221006
198	0x3e64850f	0.22316383
199	0xbdf64461	-0.12024761
200	0xbe196c34	-0.14982682
201	0xbdc597b5	-0.096480764
202	0xbecea048	-0.4035666
203	0x3db23914	0.08702293
204	0xbc895ca4	-0.016767807
205	0xbe6f3e1f	-0.23363541
206	0x3db89269	0.090123005
207	0x3cfd0cea	0.030889947
208	0xbdb1308e	-0.08651839
209	0xbe3c1d40	-0.18370533
210	0x3d59bffe	0.053161614
211	0xbe3f62a1	-0.18689968
212	0x3dd09a1f	0.10185646
213	0xbdfd634b	-0.12372454
214	0xbdaf97ad	-0.08573852
215	0x3e0b35a2	0.13594678
216	0x3d7c402f	0.061584648
217	0xbd6a35f2	-0.057180353
218	0xbcad195a	-0.021130253
219	0x3cb9840a	0.022645969
220	0xbea5688b	-0.32306322
221	0xbe56523d	-0.20929809
222	0xbcab9753	-0.02094618
223	0xbdbcc616	-0.092174694
224	0x3e0e888e	0.13919279
225	0x3ce690f8	0.028145298
226	0xbe9857f5	-0.29754606
227	0xbe3c3e9d	-0.1838326
228	0xbe3b6398	-0.18299711
229	0x3ce5edc5	0.028067479
230	0xbf08827d	-0.5332411
231	0xbe4240ce	-0.18970034
232	0xbe89cf22	-0.26915842
233	0x3d46c37d	0.048526276
234	0xbd896097	-0.06707876
235	0x3e8a6da8	0.27036786
236	0x3e7ff4a0	0.24995661
237	0xbe94f165	-0.2909042
238	0x3dea3e6d	0.11437688
239	0x3e8bce90	0.27306032
240	0x3d70d07f	0.058792587
241	0x3db1b376	0.086768076
242	0x3e48c8ff	0.19607924
243	0xbeab04f1	-0.33402207
244	0x38ec61c2	0.00011271566
245	0xbed0011a	-0.4062584
246	0x3a19d3c5	0.0005868043
247	0x3bd28a88	0.0064252056
248	0xbcaed914	-0.021343745
249	0xbda17261	-0.07883144
250	0xbaa233ca	-0.0012375053
251	0xbe5cfdf5	-0.21581252
252	0x3d7de10d	0.061982203
253	0x3d874ff9	0.066070504
254	0xbe90424e	-0.28175586
255	0xbe24bfe8	-0.16088831

layer1_2vm.0.bias f4 [32]
0	0x3e9d1cd9	0.30686072
1	0x3d91c8f5	0.07118408
2	0xbdb1e6cf	-0.08686601
3	0xbd6b8fc7	-0.057510164
4	0xbda39b37	-0.07988589
5	0x3e19e8c8	0.15030205
6	0x3b47baac	0.0030476255
7	0x3d04664e	0.032324128
8	0x3e3c7575	0.18404181
9	0x3cd106b3	0.02551589
10	0x3d49bf17	0.049254503
11	0x3e7b3087	0.2453023
12	0xbcfad9e9	-0.030621486
13	0x3e4a255e	0.19740817
14	0xbd7a269e	-0.061071984
15	0xbac213b8	-0.0014806902
16	0xbd38fbce	-0.045162015
17	0xbd12fb5f	-0.035884257
18	0x3d840ecc	0.06448135
19	0xbd5fc0f6	-0.05462738
20	0x3e97bd65	0.29636684
21	0x3e4d7942	0.20065787
22	0xbd75250f	-0.059849795
23	0xbc4aeceb	-0.012385587
24	0x3d984290	0.07434571
25	0x3d8c7c19	0.06859607
26	0xbe8e6927	-0.278146
27	0x3e236aa3	0.15958647
28	0x3e11b12b	0.1422774
29	0xbd48f40a	-0.04906086
30	0x3cd86b24	0.026418276
31	0x3e057229	0.1303183

layer1_2vm.2.weight f4 [32]
0	0x3f4b5771	0.794303
1	0x3f63e8c5	0.89027053
2	0x3f421034	0.75805974
3	0x3f3cab1e	0.73698604
4	0x3f677ab0	0.9042158
5	0x3f8f678c	1.1203475
6	0x3f7129ae	0.94204223
7	0x3f446094	0.76709867
8	0x3f56a007	0.8383793
9	0x3f517f70	0.8183508
10	0x3f99c1bf	1.2012252
11	0x3f62b0ac	0.8855083
12	0x3f67c345	0.9053233
13	0x3f627eba	0.8847462
14	0x3f39af80	0.72533417
15	0x3f5222ad	0.8208416
16	0x3f740f67	0.95336
17	0x3f5b134c	0.8557632
18	0x3f7ba77d	0.9830244
19	0x3f80efbe	1.0073164
20	0x3f42ad48	0.76045656
21	0x3f86f224	1.0542645
22	0x3f397db7	0.7245745
23	0x3f79afaf	0.97533697
24	0x3f4fbd76	0.8114847
25	0x3f5dbb2b	0.8661372
26	0x3f541aa8	0.82853174
27	0x3f7d53a0	0.98955727
28	0x3f5832c4	0.8445246
29	0x3f3ea736	0.74473894
30	0x3f598bfe	0.84979236
31	0x3f503f27	0.8134636

layer1_2vm.2.bias f4 [32]
0	0x3ce4c052	0.027923737
1	0xbd9e667f	-0.07734393
2	0xbe8cf29a	-0.2752884
3	0xbe3da320	-0.18519258
4	0xbe13e580	-0.14443016
5	0xbd9cb5e9	-0.07651884
6	0xbc4b43f1	-0.012406335
7	0x3d611716	0.054953657
8	0xbdbf368a	-0.093365744
9	0xbe55a42e	-0.20863411
10	0x3e4619c0	0.1934576
11	0x3d279cfe	0.040921204
12	0xbe711e5e	-0.2354674
13	0xbb15049f	-0.002273835
14	0xbe8ba00e	-0.2727055
15	0xbe42e139	-0.19031228
16	0xbdae1e9d	-0.08501933
17	0xbe6bd8ad	-0.23031874
18	0xbd18398a	-0.03716425
19	0x3de49274	0.11160746
20	0xbdb52609	-0.08845145
21	0x3d8617eb	0.06547531
22	0xbe750c2c	-0.23930424
23	0x3c94c646	0.01816095
24	0xbd08ac64	-0.03336753
25	0xbda39a07	-0.07988363
26	0xbe434cc0	-0.19072247
27	0xbb143599	-0.0022614955
28	0xbdbc4c2e	-0.091942176
29	0xbe16b495	-0.14717324
30	0xbd55636b	-0.052096765
31	0xbe06cf1e	-0.13164946

layer1_2vm.2.running_mean f4 [32]
0	0x3fb81bff	1.4383544
1	0x3e346694	0.17617255
2	0xbee9be99	-0.45653227
3	0xbfdc1113	-1.7192711
4	0x3f28bf7c	0.6591718
5	0x3ea8ae67	0.32945558
6	0xbcc40279	-0.02392696
7	0xbf8ec00e	-1.115236
8	0x3f894d57	1.0726727
9	0xbbcaea01	-0.006192446
10	0x3f25610c	0.64601207
11	0x3ef93be1	0.48678496
12	0xbdcb84d1	-0.09937442
13	0x3f40888b	0.7520835
14	0x3e70c26d	0.23511668
15	0x3f698e98	0.91233206
16	0x3ef701f7	0.48243687
17	0xbfc5c5d9	-1.5451003
18	0x3e97503f	0.2955341
19	0xc00be7eb	-2.1860301
20	0x3faabbb0	1.3338528
21	0x3edf8d72	0.43662602
22	0xbfbaca62	-1.4593012
23	0x3f9ea0ca	1.2392819
24	0x3ef21b7b	0.4728659
25	0x3e15de4c	0.14635581
26	0xbfc7cfdb	-1.5610307
27	0x3e1c6078	0.15271175
28	0x3e9bb39a	0.30410463
29	0xbf89a30c	-1.0752883
30	0x3f522720	0.8209095
31	0xbdf0dacd	-0.11760483

layer1_2vm.2.running_var f4 [32]
0	0x3fd263bd	1.6436688
1	0x3f83ac41	1.0286943
2	0x3f8d28a8	1.1028032
3	0x4003f6ab	2.0619304
4	0x3f80d4d6	1.0064952
5	0x3f87d535	1.0611941
6	0x3faa7e3a	1.3319771
7	0x3f8dc9ca	1.1077206
8	0x3fa863c3	1.3155445
9	0x3f83e7c8	1.0305109
10	0x3f9a9456	1.2076519
11	0x3f800196	1.0000484
12	0x3f7bc524	0.9834769
13	0x3f8f6c74	1.1204972
14	0x3f2824b9	0.65681034
15	0x3fb4c8a2	1.4123728
16	0x3f76cef1	0.9640952
17	0x3fdc41a0	1.7207527
18	0x3f8b0984	1.0862279
19	0x401e3965	2.472253
20	0x3fd9aa7f	1.7005156
21	0x3fc76dc3	1.5580372
22	0x3fc51aee	1.5398843
23	0x3fa5d525	1.2955672
24	0x3f8caea2	1.0990794
25	0x3f81600b	1.0107435
26	0x3ff86456	1.940562
27	0x3f846d09	1.0345775
28	0x3f66c96a	0.90151083
29	0x3f9b34bc	1.2125468
30	0x3f4b9b1a	0.7953354
31	0x3fa65020	1.2993202

layer2.0.weight f4 [32, 64]
0	0x3e2c7fe7	0.16845666
1	0x3e488b0d	0.19584294
2	0x3d0a09ae	0.033700638
3	0xbef8dc52	-0.4860559
4	0xbea55192	-0.32288796
5	0xbc975a0f	-0.01847556
6	0xbe4ed138	-0.20196998
7	0xbdaeaaf2	-0.08528699
8	0xbd89dcc7	-0.06731563
9	0xbe873a3e	-0.26411623
10	0x3d0ad27d	0.033892144
11	0x3efa44eb	0.48880705
12	0x3ee7af76	0.45251054
13	0xbd873ce8	-0.06603414
14	0x3ebf8246	0.37404078
15	0xbcabd153	-0.020973837
16	0xbe89f7cb	-0.26946864
17	0x3d3c705f	0.046005603
18	0xbb081ced	-0.0020769194
19	0x3e762752	0.24038437
20	0xbea86f71	-0.32897523
21	0xbc3fb372	-0.011700498
22	0x3e43c6f7	0.19118868
23	0x3d45189e	0.04811918
24	0x3e463283	0.19355206
25	0xbd5b3ba3	-0.05352367
26	0xbdc56626	-0.09638624
27	0xbde583b3	-0.1120676
28	0x3d34c4a7	0.044132855
29	0xbd40d969	-0.04708234
30	0xbdc955b7	-0.09830802
31	0xbd741422	-0.059589513
32	0x3e2e38c2	0.17013839
33	0xbe889d61	-0.2668257
34	0x3d3ce20d	0.046114016
35	0xbda0d1f3	-0.07852545
36	0x3e353b52	0.1769841
37	0x3d40cbdf	0.047069427
38	0xbef53cfd	-0.47898093
39	0xbe897426	-0.26846427
40	0x3dd0dad5	0.10197989
41	0xbe864c47	-0.2623007
42	0x3d83f8b4	0.06443921
43	0xbda91fea	-0.0825804
44	0x3e01c1cd	0.12671585
45	0xbe817696	-0.25285786
46	0xbeb16c43	-0.3465291
47	0x3e7cd27e	0.24689671
48	0xbe8028df	-0.25031182
49	0xbe2ba8b9	-0.16763581
50	0xbd1d777a	-0.03844402
51	0x3e04d5e4	0.12972218
52	0xbd082ecd	-0.033247758
53	0xbea2dd53	-0.31809482
54	0x3da3df27	0.08001547
55	0xbb9d4664	-0.004799651
56	0xbe27ad8f	-0.16374801
57	0x3d6bd221	0.05757344
58	0xbd0ba97b	-0.034097176
59	0xbe5504bb	-0.20802586
60	0x3e42a178	0.19006908
61	0xbdd0171e	-0.10160659
62	0x3e3accbd	0.18242164
63	0xbd3f4ff7	-0.04670712
64	0x3eccffb9	0.4003885
65	0xbd399cd6	-0.045315586
66	0xbe9d9511	-0.3077779
67	0x3e574fb1	0.21026494
68	0x3e7792e4	0.24177128
69	0x3e172723	0.14761023
70	0x3eb1aca6	0.34702033
71	0x3f21097e	0.6290511
72	0xbe86449c	-0.2622422
73	0x3e9624aa	0.29324847
74	0xbd91ef3c	-0.071257085
75	0xbcc09a25	-0.023511002
76	0x3d73c19b	0.05951081
77	0x3ed28844	0.41119587
78	0x3d317964	0.043328658
79	0xbef1e3be	-0.47244066
80	0x3e7ae357	0.24500786
81	0x3d8de8c6	0.06929164
82	0x3da32399	0.07965774
83	0x3e334563	0.17506938
84	0x3f2a744e	0.66583717
85	0x3e3fb1e4	0.18720204
86	0x3b10a5ff	0.0022071598
87	0xbe372e3d	-0.17888732
88	0xbd95673e	-0.072950825
89	0x3d8c7a5f	0.06859278
90	0xbd96fba0	-0.073722124
91	0x3ee2b5e1	0.44279388
92	0xbe1e30c7	-0.15448295
93	0x3cca4e04	0.024695404
94	0x3d2af35f	0.041736003
95	0xbcd0b18c	-0.025475286
96	0x3e30c19e	0.17261359
97	0xbd81b12e	-0.063326225
98	0x3d846e04	0.06466296
99	0x3aefd3e5	0.0018297402
100	0x3e12e1d1	0.14343955
101	0x3cccc4c3	0.024996167
102	0x3e1b7226	0.15180263
103	0x3e09bf5b	0.13451903
104	0xbd69beda	-0.057066776
105	0xbdcf4105	-0.10119823
106	0x3e20439d	0.15650792
107	0xbe4b5935	-0.19858249
108	0xbe98a067	-0.29809877
109	0xbc0f8638	-0.008760028
110	0xbd80ef43	-0.062956356
111	0xbd634800	-0.055488586
112	0xbdd96e66	-0.1061676
113	0xbd88612b	-0.06659158
114	0x3dc97fba	0.09838815
115	0xbd8c1584	-0.06840041
116	0x3e81d125	0.25354877
117	0x3e67c3d5	0.22633298
118	0xbe0b8dbc	-0.13628286
119	0x3e3956a2	0.18099454
120	0xbdeb6b45	-0.114950694
121	0x3d15fb68	0.036616713
122	0x3c63e0ea	0.013908604
123	0xbe80f0f8	-0.25183845
124	0xbd862116	-0.065492794
125	0x3ec95a27	0.39326593
126	0xbdf2d91e	-0.11857818
127	0x3d998bfe	0.074974045
128	0x3e2e7234	0.17035753
129	0x3dea530a	0.1144162
130	0xbdcfd9a1	-0.10148931
131	0x3d9bffd9	0.076171584
132	0x3e736021	0.23767139
133	0x3d9cf3d3	0.07663693
134	0x3ecd17e8	0.40057302
135	0x3e79e080	0.24402046
136	0xbe2e14cf	-0.17000125
137	0x3eeeb4ef	0.46622416
138	0x3e941304	0.28920758
139	0xbd37ec22	-0.04490293
140	0x3d7cdd0a	0.061734237
141	0x3e7ed9c4	0.24887758
142	0x3c463008	0.0120964125
143	0x3daa2487	0.08307748
144	0x3edf1b6f	0.43575618
145	0x3dbeb74f	0.09312307
146	0x3e5c1f56	0.21496329
147	0x3e44c1e9	0.19214596
148	0x3e0ffa4c	0.14060324
149	0x3e2e777b	0.17037766
150	0x3e945f64	0.28979027
151	0x3e587a87	0.2114049
152	0x3dde9395	0.10867993
153	0xbd8a54a3	-0.067544244
154	0x3d8be3a9	0.06830532
155	0x3edf50db	0.43616375
156	0xbe0c0ec7	-0.13677512
157	0x3d614d7a	0.055005528
158	0x3e969517	0.29410622
159	0x3d7d3a4a	0.061823167
160	0xbd9c8843	-0.07643177
161	0xbd5ce6c4	-0.053931013
162	0xbdf11623	-0.117718
163	0x3e035704	0.12826163
164	0x3de265b0	0.110545516
165	0x3d7d53e4	0.061847582
166	0x3e474441	0.1945963
167	0xbd938c1f	-0.0720446
168	0xbea74d90	-0.32676363
169	0xbc8619e7	-0.016369773
170	0xbe6bdc1e	-0.23033187
171	0x3e81f72e	0.25383896
172	0x3eb6d4a1	0.35709098
173	0x3d995580	0.07487011
174	0x3e597850	0.21237302
175	0x3df7bbd8	0.12096375
176	0xbdc56adc	-0.096395224
177	0xbe05e889	-0.13076986
178	0x3dd634f1	0.104593165
179	0x3e30f803	0.17282109
180	0x3a8e8240	0.0010872558
181	0x3e5c91ac	0.21539944
182	0xbe9f3f6c	-0.31103075
183	0xbd903da6	-0.070430085
184	0x3e93c614	0.2886206
185	0xbdb5429a	-0.08850594
186	0x3e96df73	0.29467353
187	0x3de4ee86	0.11178307
188	0xbe132ecb	-0.14373319
189	0x3dfd0350	0.123541474
190	0xbc0ac5f0	-0.008470044
191	0xbe807048	-0.25085664
192	0x3eaac4e6	0.33353347
193	0xbd95b1fa	-0.07309337
194	0x3de01fef	0.10943591
195	0x3e9e271c	0.30889213
196	0x3e6ab3ca	0.22920147
197	0x3e058ef0	0.13042808
198	0x3de9f923	0.11424472
199	0x3e850803	0.25982675
200	0xbe8cd9aa	-0.27509815
201	0x3eaa092b	0.3321012
202	0xbdd685e5	-0.10474757
203	0x3dd8be3d	0.1058316
204	0xbd0600ae	-0.032715492
205	0x3eeb3b9a	0.4594391
206	0x3d496f01	0.049178127
207	0xbe81729f	-0.2528276
208	0x3f0432d3	0.5164005
209	0xbe14636f	-0.14491056
210	0xbce68544	-0.028139718
211	0xbda23bdf	-0.07921576
212	0x3edbe820	0.42950535
213	0x3eb5118e	0.35364956
214	0xbdc26547	-0.09491973
215	0x3d92dc81	0.07170964
216	0xbdb5a253	-0.088688515
217	0x3dacd95b	0.08439895
218	0xbe946c65	-0.28988948
219	0x3e388dae	0.18022797
220	0xbe573078	-0.21014583
221	0xbe13279f	-0.14370583
222	0xbaaacb74	-0.0013030604
223	0x3e207c56	0.1567243
224	0x3d86fbb4	0.06590977
225	0x3d3eea4f	0.046610173
226	0x3e119451	0.14216734
227	0xbdaab5dc	-0.08335468
228	0x3e60199d	0.2188477
229	0xbd9f79df	-0.07786917
230	0x3e888b58	0.2666881
231	0x3dd72e3d	0.10506866
232	0xbe27149d	-0.16316457
233	0x3e3a679b	0.18203585
234	0x3cf044ef	0.029329745
235	0xbdda9441	-0.106728084
236	0xbe3172cf	-0.17328952
237	0xbd47658b	-0.048680823
238	0xbb5094c1	-0.0031826945
239	0xbd242eb1	-0.04008359
240	0x3e925e5c	0.28587615
241	0x3e35b093	0.17743139
242	0xbe2d35c5	-0.16915043
243	0xbed7b704	-0.42131817
244	0x3e958bcf	0.29208228
245	0x3e72e5e6	0.23720512
246	0x3c82cae7	0.015965892
247	0x3e34e946	0.17667112
248	0x3cd79020	0.026313841
249	0xbd2525d7	-0.04031929
250	0x3ec12351	0.37722257
251	0xbd718e06	-0.058973335
252	0xbb69aa89	-0.0035654625
253	0x3e0bf1fe	0.13666531
254	0x3cee9da3	0.029127901
255	0xbb82a1e9	-0.0039865864

layer2.0.bias f4 [32]
0	0x3e6f27da	0.23355046
1	0x3f05d5e8	0.5227952
2	0x3f170927	0.5899834
3	0x3f1ce8d4	0.6129277
4	0x3ece9962	0.40351397
5	0x3eae4468	0.34036565
6	0x3ddb6ad6	0.10713737
7	0x3f18b285	0.596474
8	0x3f26271e	0.6490344
9	0x3e11f9e7	0.14255486
10	0x3e319922	0.17343572
11	0x3f270768	0.65245676
12	0x3dc07486	0.09397225
13	0xbe5880ee	-0.21142933
14	0x3eff7539	0.4989412
15	0x3f1a7280	0.60330963
16	0x3f474d59	0.778524
17	0x3f1c20f2	0.6098777
18	0x3f596ae2	0.84928715
19	0x3ecbffff	0.39843747
20	0x3dd2c730	0.10291898
21	0x3ef35e16	0.4753272
22	0x3dcf9bc3	0.10137131
23	0x3cbbcf4c	0.022925995
24	0x3db4c490	0.08826554
25	0x3e781f89	0.2423078
26	0x3f86fbda	1.0545609
27	0x3d92aaf9	0.07161517
28	0x3df56ce3	0.11983659
29	0x3df7a101	0.12091256
30	0x3f4fc2d3	0.81156653
31	0x3e2643a7	0.16236745

layer2.2.weight f4 [32]
0	0x3fb06707	1.3781441
1	0x3fd03bb9	1.6268226
2	0x3fb301e5	1.3984953
3	0x3fc503f6	1.5391834
4	0x3fc1effe	1.5151365
5	0x3fc8328b	1.5640424
6	0x3fcec8db	1.6155046
7	0x3fa99be2	1.3250697
8	0x3fc75283	1.5572056
9	0x3fd5f1dc	1.6714435
10	0x3fc4dd6a	1.538007
11	0x3fdc072c	1.7189689
12	0x3f7edab3	0.9955246
13	0x3e865fc5	0.2624494
14	0x3fd7ce86	1.6859901
15	0x3f9c8969	1.2229434
16	0x3fd028af	1.6262416
17	0x3fdb0993	1.7112297
18	0x3fc73dfc	1.5565791
19	0x3fcd971c	1.606174
20	0x3f99156e	1.1959665
21	0x3fdad94b	1.7097563
22	0x3f8f66a4	1.1203198
23	0x3f964022	1.1738322
24	0x3fa66ec2	1.3002551
25	0x3fc64194	1.5488763
26	0x3f69af1e	0.9128283
27	0x3f88bbc0	1.0682297
28	0x3f95b013	1.1694359
29	0x3fc6b2f3	1.5523361
30	0x3f8c860b	1.0978407
31	0x3fc140a1	1.5097848

layer2.2.bias f4 [32]
0	0x3f14427a	0.57913935
1	0x3f304126	0.6884941
2	0x3f0c448c	0.54792094
3	0x3f1b2cda	0.60615313
4	0x3f195719	0.59898525
5	0x3f51865e	0.81845653
6	0x3f8135b8	1.0094519
7	0x3f856380	1.042099
8	0x3f3e5d08	0.74360704
9	0x3f751bcf	0.9574556
10	0x3f7c0124	0.9843924
11	0x3f41cdee	0.7570485
12	0x3df801d0	0.12109721
13	0xbf4d0bb9	-0.8009601
14	0x3f48b857	0.7840628
15	0x3ea6e1b8	0.32594085
16	0x3f48dc5a	0.7846123
17	0x3f399eb2	0.72507775
18	0x3f42ed6b	0.7614352
19	0x3f767adf	0.96281236
20	0x3f2d7b6d	0.6776646
21	0x3f72839d	0.94732076
22	0x3eaa8ed7	0.33312103
23	0x3eaa1300	0.3321762
24	0x3ed3d4bb	0.41373238
25	0x3f6d7856	0.92761743
26	0x3f592c54	0.84833264
27	0xbd27dc17	-0.04098138
28	0x3ed559c0	0.41670036
29	0x3f717b66	0.94328916
30	0x3f824e47	1.0180138
31	0x3f6b29ce	0.91860664

layer2.2.running_mean f4 [32]
0	0xbf4bf0e5	-0.7966445
1	0x4046da0d	3.1070588
2	0x405b600c	3.4277372
3	0x40428522	3.0393758
4	0x3fe6b6e1	1.802456
5	0xbe862a79	-0.2620428
6	0xc0594802	-3.39502
7	0xbfd9367e	-1.6969755
8	0x40239e1e	2.5565257
9	0xbfacbda6	-1.3495376
10	0xbfcacd8b	-1.5843977
11	0x408104b6	4.031825
12	0x3ead8003	0.33886728
13	0xc007a14a	-2.1192193
14	0x40123dd8	2.2850246
15	0x403e8150	2.9766426
16	0x40522cc0	3.2839813
17	0x403d491d	2.9575875
18	0x40227898	2.5386105
19	0xbf7fddf5	-0.99948055
20	0xbfe35e30	-1.7763119
21	0x3f5375e4	0.8260176
22	0x3e667f99	0.22509612
23	0xbf9f0403	-1.2423099
24	0xbe92002d	-0.2851576
25	0xbe813aba	-0.25240117
26	0xbf7b76d3	-0.98228186
27	0x404b474f	3.1762273
28	0xbf27c642	-0.6553689
29	0xbfcfc264	-1.6231198
30	0xbfa2694e	-1.2688386
31	0xbf6b0787	-0.9180836

layer2.2.running_var f4 [32]
0	0x3f959620	1.168644
1	0x40ceb1a0	6.4591827
2	0x40a031fd	5.006102
3	0x40ada08f	5.4258494
4	0x404533ae	3.0812793
5	0x3f3e4883	0.74329394
6	0x4095b962	4.6788797
7	0x40bf2a48	5.9739113
8	0x40a49bdb	5.1440253
9	0x3faee166	1.3662536
10	0x401c01e8	2.4376163
11	0x412563cc	10.336864
12	0x40012ab1	2.0182307
13	0x401edfd8	2.4824123
14	0x3fd3b1a8	1.6538591
15	0x406fad82	3.744965
16	0x40849e5e	4.144332
17	0x40c76636	6.231227
18	0x402c7311	2.694523
19	0x4083a7f4	4.114252
20	0x3ff3fef6	1.9062183
21	0x4012be82	2.2928777
22	0x3f26c1a6	0.65139234
23	0x3fd6f3e4	1.679318
24	0x3fddbf20	1.7323952
25	0x3f2d6d29	0.6774469
26	0x40b32953	5.5987945
27	0x411039b0	9.014084
28	0x404a9c9d	3.165809
29	0x402390aa	2.5557046
30	0x40f3ca8e	7.618476
31	0x400ee5d7	2.2327783

fc_advantage.0.weight f4 [20, 32]
0	0xbd9b07a1	-0.075698145
1	0xbf2a9855	-0.6663869
2	0xbe93ed92	-0.2889219
3	0xbed7e8cb	-0.42169794
4	0xbf0f38a1	-0.55945784
5	0xbedc1f71	-0.42992738
6	0xbeeb7d62	-0.45994097
7	0xbed42dee	-0.41441292
8	0xbf335d2f	-0.7006406
9	0x3d2cb254	0.042162254
10	0xbecd5bf3	-0.40109214
11	0xbef81e37	-0.48460552
12	0xbef1edfa	-0.47251874
13	0xbe5ace1b	-0.21367685
14	0xbf1b71d2	-0.6072055
15	0xbf348411	-0.7051402
16	0xbf0dd0cf	-0.5539674
17	0xbf33fa33	-0.7030365
18	0xbe870db8	-0.26377654
19	0xbe5056fe	-0.20345685
20	0xbe9118c5	-0.2833921
21	0xbed87efc	-0.4228438
22	0xbe555449	-0.20832933
23	0xbecdfcf4	-0.4023205
24	0xbf20ca77	-0.62808937
25	0xbc042458	-0.008065306
26	0xbdf5a6b7	-0.11994689
27	0xbed7f39e	-0.42178053
28	0xbe16f080	-0.14740181
29	0x3cb903b5	0.022584775
30	0xbf06386d	-0.5242985
31	0xbeacd5bd	-0.3375682
32	0xbf2a81c6	-0.6660427
33	0xbf4870f3	-0.78297347
34	0xbf1454ae	-0.5794171
35	0xbee8500e	-0.45373577
36	0xbf1ee494	-0.6206753
37	0xbf05e9cc	-0.5230987
38	0xbf664934	-0.8995545
39	0xbf3c014e	-0.7343949
40	0xbf07bc33	-0.53021544
41	0xbf212ca1	-0.62958723
42	0xbf82cde9	-1.0219089
43	0xbec1f81a	-0.378846
44	0xbf58d8a9	-0.847056
45	0xbe817fc1	-0.2529278
46	0xbf9a2e82	-1.2045443
47	0xbf03dccc	-0.51508784
48	0xbf5da2ac	-0.8657634
49	0xbf24e830	-0.6441679
50	0xbf356d35	-0.7086976
51	0xbf1f761c	-0.62289596
52	0xbf78d689	-0.97202355
53	0xbf2d64bb	-0.6773183
54	0xbf1bffbf	-0.6093711
55	0xbf06c235	-0.52640086
56	0xbf652e14	-0.89523435
57	0xbf53ae0d	-0.82687455
58	0xbf87422c	-1.0567069
59	0xbed075b6	-0.40714806
60	0xbf4de613	-0.8042919
61	0xbf14493a	-0.57924235
62	0xbfcda2ef	-1.6065348
63	0xbf3bfcb5	-0.73432475
64	0x3bb596ee	0.005541674
65	0xbd34fa5d	-0.044184078
66	0xbe2dca8a	-0.16971794
67	0xbdce18a5	-0.10063294
68	0x3e0c7773	0.13717441
69	0xbd830908	-0.06398207
70	0xbd19fb05	-0.037592907
71	0xbf8f11b8	-1.1177282
72	0xbe1710d3	-0.14752512
73	0xbe8dbd58	-0.2768352
74	0x3d81c878	0.063370645
75	0xbb641074	-0.0034799846
76	0xbe691bf8	-0.22764575
77	0xbf06ff84	-0.52733636
78	0xbeb59dcd	-0.35471955
79	0x3e24843d	0.1606607
80	0xbe1d55ac	-0.15364712
81	0xbdaace82	-0.083401695
82	0xbf2a7d41	-0.6659737
83	0xbebfa84d	-0.3743309
84	0xbe8371ba	-0.25672704
85	0xbf04654f	-0.51717085
86	0x3e2962a6	0.16541538
87	0xbd9daa58	-0.07698506
88	0xbd88c192	-0.066775456
89	0xbe3ff902	-0.18747333
90	0xbfa79547	-1.3092431
91	0x3d539d73	0.051663827
92	0xbef91930	-0.4865203
93	0x3c5bd356	0.013417086
94	0xbf7c71b3	-0.9861099
95	0xbe27d9a4	-0.16391617
96	0xbec43515	-0.38321748
97	0x3dc84d3e	0.09780358
98	0xbd64283f	-0.055702444
99	0x3d0566dd	0.0325688
100	0x3ed39423	0.41323957
101	0x3e8a2418	0.26980662
102	0x3ddb1133	0.1069664
103	0xbf792b11	-0.9733134
104	0x3e387cc4	0.18016344
105	0x3e2cf72f	0.16891168
106	0xbe033574	-0.1281336
107	0xbdce7bb6	-0.1008219
108	0xbecbd29d	-0.39809123
109	0xbf0a1f12	-0.5395366
110	0xbf30542d	-0.6887844
111	0xbee655aa	-0.44987231
112	0xbeea9cb2	-0.45822674
113	0xbe4bd5b4	-0.1990574
114	0xbec2370b	-0.3793262
115	0xbf36e6c8	-0.71445894
116	0x3e2d6318	0.16932333
117	0xbee7557c	-0.45182407
118	0xbe416baa	-0.18888727
119	0xbe848ef9	-0.2589033
120	0xbe9d711e	-0.30750364
121	0x3e3283b1	0.17433049
122	0xbf3606f8	-0.71104383
123	0x3ed00ccd	0.40634766
124	0xbf92d389	-1.1470805
125	0x3e203285	0.15644272
126	0xbf8e78d0	-1.1130619
127	0xbec22f9d	-0.3792695
128	0xbe4df473	-0.20112781
129	0xbee45158	-0.4459331
130	0xbf2f470f	-0.684678
131	0xbe899452	-0.26870972
132	0xbe56ac83	-0.20964245
133	0xbeedd9af	-0.46455142
134	0xbe0ffdca	-0.14061657
135	0xbf41f69a	-0.7576691
136	0xbecfefd7	-0.4061267
137	0x3d6c8139	0.057740424
138	0xbef8b34e	-0.485743
139	0xbf20c00a	-0.6279303
140	0xbf083cbc	-0.53217673
141	0xbe8a27ca	-0.26983482
142	0xbec63fe4	-0.3872062
143	0xbf2b4ffa	-0.6691891
144	0xbeb5c21f	-0.35499665
145	0x3e6e5ee0	0.2327838
146	0xbeb13ad9	-0.3461521
147	0xbf286070	-0.6577215
148	0xbe16e4cc	-0.14735717
149	0xbef96e64	-0.48717034
150	0xbe70fc89	-0.23533835
151	0xbea66bd1	-0.32504132
152	0xbef52bb0	-0.47884893
153	0x3d2f2487	0.042759445
154	0xbf2cb370	-0.674613
155	0xbc4add2e	-0.012381835
156	0xbf42a2af	-0.76029485
157	0x3ddf804a	0.10913141
158	0xbfb70fa5	-1.4301649
159	0xbd80d2c6	-0.06290202
160	0xbe7f2945	-0.24918087
161	0xbe649fd5	-0.22326596
162	0xbe5e979d	-0.21737523
163	0xbe1eeef2	-0.15520838
164	0xbf07fb3c	-0.5311773
165	0xbe1ecc81	-0.155077
166	0xbee86146	-0.45386714
167	0xbf527b21	-0.8221913
168	0xbe9a0a52	-0.30086
169	0xbe31da65	-0.17368467
170	0x3ca7b48d	0.020471836
171	0xbed1ef40	-0.41002846
172	0xbefc1695	-0.4923598
173	0xbf2171ca	-0.63064253
174	0xbe40291b	-0.1876568
175	0xbeb8bee4	-0.36083138
176	0xbf1e276c	-0.61778903
177	0xbf1ae1c3	-0.60500735
178	0xbf1c5d9d	-0.6108034
179	0xbe82f8fa	-0.2558058
180	0xbe2916c4	-0.1651259
181	0xbee89d75	-0.4543263
182	0xbe086224	-0.13318688
183	0xbefc5f1e	-0.4929132
184	0xbed30f2d	-0.41222516
185	0xbe2e9dc3	-0.17052369
186	0xbf683b22	-0.9071523
187	0xbed5a811	-0.41729787
188	0xbf2d2b18	-0.6764388
189	0xbf123bcf	-0.5712251
190	0xbf79f43e	-0.9763831
191	0xbe9ef9b5	-0.31049886
192	0xbf08c902	-0.53431714
193	0xbea95fd9	-0.33080938
194	0xbec30421	-0.38089088
195	0xbe883155	-0.26600137
196	0xbd21dda5	-0.039518017
197	0xbdcde207	-0.10052877
198	0xbe8280ad	-0.25488797
199	0xbf3f7699	-0.7479034
200	0xbec435a6	-0.3832218
201	0xbe8f1e90	-0.27953005
202	0xbde7bf83	-0.11315825
203	0xbe6c3136	-0.23065647
204	0xbf03f445	-0.515446
205	0xbd7c11e9	-0.061540518
206	0xbe91a631	-0.28447106
207	0xbeb190af	-0.34680697
208	0xbeea0075	-0.45703474
209	0xbed2d33c	-0.41176784
210	0xbe7cd0c5	-0.24689014
211	0xbf206130	-0.62648296
212	0xbf02b991	-0.510644
213	0xbf5166f4	-0.8179772
214	0xbef366c2	-0.47539335
215	0x3b251d0d	0.0025194318
216	0xbecd4d54	-0.4009806
217	0xbee3696b	-0.44416365
218	0xbf2780a9	-0.65430695
219	0xbb6665cc	-0.003515589
220	0xbecc6b4e	-0.39925617
221	0xbedaa411	-0.42703298
222	0xbf82bd10	-1.0213947
223	0xbdef3dc4	-0.11681703
224	0xbeb642a0	-0.35597706
225	0xbe8f474d	-0.27984086
226	0xbe91ffb0	-0.28515387
227	0xbf2c2a9d	-0.6725252
228	0xbf126f30	-0.5720091
229	0xbf36cc4d	-0.7140549
230	0xbd344a0d	-0.044015933
231	0xbf0a3f4b	-0.5400283
232	0xbeb91444	-0.36148274
233	0xbeac5ad3	-0.33663043
234	0xbf2a7413	-0.66583365
235	0xbed83f1a	-0.42235643
236	0x3e68c881	0.22732736
237	0xbecb008a	-0.3964885
238	0xbebc419a	-0.367688
239	0xbec68cdf	-0.3877935
240	0xbedd1e15	-0.43187013
241	0xbf114fa8	-0.5676217
242	0xbf017d06	-0.50581396
243	0xbf15d431	-0.58526903
244	0xbee16e57	-0.44029495
245	0xbf1dd7fd	-0.61657697
246	0xbeaa02a7	-0.3320515
247	0xbe05a279	-0.1305026
248	0xbf153c44	-0.58295083
249	0xbeca7aee	-0.39546913
250	0xbf364919	-0.7120529
251	0xbeda4d10	-0.4263692
252	0xbf3490f9	-0.7053371
253	0xbdea215a	-0.114321426
254	0xbf273a4b	-0.65323323
255	0x3dbe159a	0.09281464

fc_advantage.0.bias f4 [20]
0	0xbe9389da	-0.2881611
1	0xbf5dce46	-0.86642873
2	0xbe368c8f	-0.17827056
3	0x3c82c134	0.015961267
4	0xbe6fa4d2	-0.23402718
5	0xbe8c9076	-0.27453965
6	0xbece0f51	-0.4024606
7	0xbef1025f	-0.47072122
8	0xbef52954	-0.47883093
9	0xbe5b3f2a	-0.21410814
10	0xbe3becaf	-0.18352006
11	0xbe8f509d	-0.2799119
12	0xbe7bf31b	-0.24604456
13	0xbe93dd28	-0.28879666
14	0xbd34abdb	-0.044109207
15	0xbdc35326	-0.09537344
16	0xbe080293	-0.13282232
17	0xbe3f4f95	-0.18682702
18	0x3c305f79	0.01076495
19	0xbc131d5b	-0.008979167
